logs/PointMaze-Right/airl_sac/seed0-20231226-1522/model/step1395000/actor.pth (torch, 276359 bytes, 6 tensors)

net.0.weight f4 [256, 6]
0	0xbb484f41	-0.0030564817
1	0x3e60421c	0.21900219
2	0xbeac0915	-0.3360068
3	0xbe99d40a	-0.30044585
4	0xbe210329	-0.15723862
5	0x3de03451	0.109474786
6	0xbf16eeeb	-0.5895831
7	0x3e9b5d13	0.30344447
8	0xbd14657f	-0.036229607
9	0xbdd47b09	-0.103750296
10	0xbea06cb8	-0.31332946
11	0xbda458cb	-0.080247484
12	0xbfc835a2	-1.5641367
13	0xbf1820bb	-0.5942494
14	0xbe2c540d	-0.16828938
15	0x3ed11246	0.40834254
16	0x3e392fd7	0.18084656
17	0x3e7ad658	0.24495828
18	0xbfbc5ca4	-1.4715772
19	0xbd004556	-0.031316124
20	0x3e17d770	0.14828277
21	0x3f9cc94e	1.2248933
22	0x3d293e9b	0.04131947
23	0x3e9c6a1b	0.30549702
24	0xc0135995	-2.3023427
25	0x3d0f343f	0.034961935
26	0x3ebd43f6	0.36965913
27	0xbf913bbe	-1.1346357
28	0xbed6539c	-0.41860664
29	0xbdd3ab69	-0.10335428
30	0xbe22f454	-0.15913516
31	0x3eb4989d	0.35272685
32	0xbe877c0b	-0.26461825
33	0xbe4070c0	-0.1879301
34	0xbe920832	-0.28521878
35	0xbec3c34e	-0.38234943
36	0xbf189fa7	-0.5961861
37	0x3e59e18f	0.2127745
38	0x3e3a8a38	0.18216789
39	0x3d39181c	0.045189008
40	0xbe50d397	-0.20393215
41	0xbe56534f	-0.20930217
42	0xbec83233	-0.391008
43	0xbf7eeea5	-0.9958289
44	0xbe970877	-0.29498646
45	0xbf11cf13	-0.56956595
46	0x3e859906	0.2609331
47	0x3e751c02	0.23936465
48	0xbf30d5d0	-0.6907625
49	0x3eaeed8a	0.34165603
50	0x3e85aed8	0.26109958
51	0x3fa00d54	1.2504067
52	0xbdd06dba	-0.10177179
53	0x3d61e677	0.05515143
54	0x3e74e3e4	0.23915058
55	0xbf621b07	-0.8832249
56	0x3d9bcd04	0.07607463
57	0xc04697dd	-3.103019
58	0xbe9c4048	-0.30517793
59	0xbe57f4b1	-0.21089436
60	0x3f9d1b05	1.2273871
61	0xbf16c932	-0.5890075
62	0xbe77a179	-0.2418269
63	0xbdfeaad7	-0.12434929
64	0x3e1c33b2	0.15254095
65	0xbd530f0d	-0.051528025
66	0x3c7f62ed	0.015587551
67	0x3dc1ba01	0.094593056
68	0x3e81ac4d	0.25326768
69	0x3ec8b3e9	0.3919976
70	0xbea11402	-0.31460577
71	0xbe193389	-0.14961065
72	0xbeb4d216	-0.35316533
73	0x3efc3d91	0.4926572
74	0x3eb5e4ba	0.35526067
75	0x3e6969ad	0.22794218
76	0xbd8950d5	-0.067048706
77	0xbeb5c34d	-0.35500565
78	0xbef7285d	-0.48272982
79	0xbfa4c1c7	-1.2871636
80	0xbec2cccb	-0.3804687
81	0x3f18dd85	0.5971301
82	0x3cc16572	0.023607943
83	0xbed081a5	-0.4072391
84	0x3d9c7e40	0.07641268
85	0xbd8cd921	-0.068773516
86	0xbd89969e	-0.06718181
87	0xbe3f5d12	-0.18687847
88	0x3e20c324	0.1569944
89	0xbe779c3b	-0.24180691
90	0x3ef8218b	0.4846309
91	0x3ee3def9	0.44506052
92	0x3e95a23b	0.29225335
93	0x3f4f5e40	0.8100319
94	0xbf418b2c	-0.75602984
95	0xbe8797b8	-0.2648294
96	0xbea24bdb	-0.31698498
97	0xbee00b16	-0.43758458
98	0xbea30e3c	-0.31846797
99	0xbf8e603e	-1.1123121
100	0x3e4ea739	0.20180978
101	0x3e8cd7f1	0.275085
102	0xbe364758	-0.17800653
103	0xbdd26e88	-0.102749884
104	0xbec71d73	-0.38889655
105	0xbbf072dd	-0.0073379115
106	0xbe9d6820	-0.30743504
107	0xbea13b3d	-0.31490508
108	0xbcb84603	-0.022494322
109	0x3d7b1200	0.061296463
110	0xbe2b33de	-0.16719005
111	0x3e780f2d	0.24224539
112	0xbe7e65c3	-0.24843507
113	0x3ebda94d	0.3704323
114	0x3f70825c	0.9394891
115	0xbfe88b54	-1.816752
116	0xbdd0171f	-0.1016066
117	0xbf12839e	-0.5723208
118	0x3b87f9bc	0.0041496437
119	0x3dc64cb5	0.096825995
120	0x3e240d9d	0.16020818
121	0x3cc8540d	0.024454141
122	0xbe4bfa0f	-0.19919609
123	0x3e45d09d	0.19317861
124	0xbec88155	-0.39161173
125	0xbe77c760	-0.2419715
126	0xbdd14c86	-0.10219674
127	0xbe4ba2cc	-0.19886321
128	0xbe123f1d	-0.14281888
129	0xbeab51e4	-0.33460915
130	0xbdb1d97c	-0.0868406
131	0x3db2b85d	0.08726571
132	0xbe882be2	-0.2659598
133	0xbcaba185	-0.020951042
134	0x3e95a11f	0.29224488
135	0xbd2be6ab	-0.04196803
136	0x3c39e519	0.011346125
137	0xbd1041f0	-0.035219133
138	0xbf5e0629	-0.8672815
139	0x3edb7622	0.42863566
140	0x3ec5ff12	0.38671166
141	0x3e6ec7a8	0.2331835
142	0x3e63b936	0.22238621
143	0xbcf1ded1	-0.029525192
144	0xbfa9ad44	-1.3256001
145	0xbf5f0da7	-0.87130207
146	0x3e8e532f	0.2779784
147	0xbf1038a7	-0.56336445
148	0x3e164192	0.1467345
149	0xbea02d48	-0.31284547
150	0xbf35fd47	-0.71089596
151	0xbfa0eeff	-1.2572936
152	0xbda9971d	-0.08280776
153	0x3e9a63e5	0.30154338
154	0x3eb56405	0.3542787
155	0xbec996ad	-0.3937277
156	0x3e826287	0.25465795
157	0xbea39005	-0.31945816
158	0xbdb0c231	-0.08630789
159	0xbe29819e	-0.16553351
160	0xbda10b50	-0.07863486
161	0xbda42922	-0.08015658
162	0xbebb9120	-0.3663416
163	0xbeb47a7e	-0.35249704
164	0xbd82d4d2	-0.063882485
165	0x3bad0000	0.005279541
166	0xbe3de86e	-0.18545696
167	0x3e1d7a4a	0.15378681
168	0xbff3c50f	-1.9044513
169	0xbdf743e3	-0.12073495
170	0x3eb7d1aa	0.35902148
171	0x3d112b30	0.035441577
172	0x3ec231ac	0.37928522
173	0x3e1765a4	0.14784867
174	0xbfb1556c	-1.3854194
175	0x3ea2b02f	0.31775042
176	0xbd40f5fe	-0.047109596
177	0xbf1dfb97	-0.6171202
178	0x3e5311a6	0.20612201
179	0xbea8e91d	-0.3299035
180	0xbf605f54	-0.8764546
181	0xbf1bf2f8	-0.60917616
182	0x3e95441d	0.2915353
183	0x3f4fac7b	0.8112256
184	0x3de96d14	0.11397758
185	0x3e13a304	0.14417654
186	0xbdc90f21	-0.09817339
187	0xbdafd5b7	-0.08585685
188	0xbeac4088	-0.33642983
189	0x3e628413	0.22120695
190	0x3ea5f5b5	0.32414022
191	0x3e8f04d1	0.27933362
192	0xbe9370bd	-0.2879695
193	0x3c952896	0.01820783
194	0xbe9358f8	-0.28778815
195	0xbe6620bb	-0.22473423
196	0xbe73990d	-0.23788853
197	0x3e0edd80	0.13951683
198	0xbf8d579d	-1.1042362
199	0x3f1976ca	0.5994688
200	0x3c8cb0fe	0.01717424
201	0x3f8828c6	1.0637443
202	0xbf07a692	-0.5298854
203	0xbe8f7f37	-0.28026745
204	0xbe66a6b7	-0.22524534
205	0x3e8ac238	0.27101302
206	0xbe1645e3	-0.14675097
207	0x3ea9006b	0.3300813
208	0x3e088a7f	0.13334082
209	0x3d53bdfc	0.051694855
210	0xbb472a21	-0.00303901
211	0xbda547b2	-0.080703154
212	0x3d51cd8e	0.051221423
213	0xbdbeead3	-0.09322133
214	0xbb3bfdf1	-0.0028685296
215	0x3d555bf3	0.052089643
216	0xbfb8a899	-1.4426452
217	0xbf8e3da5	-1.1112562
218	0x3ea8c8e0	0.32965755
219	0xbd88623e	-0.06659363
220	0x3e0307da	0.12795964
221	0x3ecec616	0.40385503
222	0x3e170388	0.14747441
223	0x3c3d60ea	0.011558751
224	0xbeb5243b	-0.35379204
225	0x3e4f1744	0.20223719
226	0xbe94e216	-0.2907874
227	0xbded5638	-0.115887105
228	0xbe0722e0	-0.13196898
229	0xbd60159f	-0.05470812
230	0x3b9253a4	0.004465537
231	0x3ea908af	0.33014438
232	0x3d35ca42	0.04438234
233	0x3ebb3874	0.36566508
234	0x3e7fb95f	0.24973057
235	0xbe8425b8	-0.25810027
236	0x3e3b7ed6	0.18310103
237	0xbe93c1f4	-0.28858912
238	0xbe312db3	-0.17302589
239	0x3df5e9ee	0.12007509
240	0xbe29215e	-0.16516635
241	0x3e65d410	0.22444177
242	0xbe069363	-0.13142161
243	0xbe65f96e	-0.22458431
244	0xbd86da14	-0.06584564
245	0xbeca2507	-0.39481375
246	0x3e971ea3	0.2951556
247	0xbeacd88e	-0.33758968
248	0x3bb86009	0.0056266827
249	0xbd8e2656	-0.06940906
250	0xbe5c2c75	-0.21501334
251	0x3d5d03b2	0.053958602
252	0x3eab1537	0.33414623
253	0xbdecfbad	-0.11571441
254	0xbe78310d	-0.24237461
255	0xbe1a9c18	-0.15098608

net.0.bias f4 [256]
0	0xbe0b00c9	-0.13574518
1	0xbd71692f	-0.0589382
2	0x3e4cd684	0.20003706
3	0x3de2f2c8	0.11081463
4	0x3e68db60	0.22739935
5	0xbe90abf9	-0.28256205
6	0xbd8d0ea6	-0.068875596
7	0x3ebdfa13	0.37104854
8	0xbeab6783	-0.3347741
9	0x3e9a91a8	0.30189252
10	0xbd84cea4	-0.06484726
11	0xbe9c86a1	-0.30571464
12	0xbebe99dd	-0.37226763
13	0xbe0a1710	-0.1348536
14	0xbe34e8b9	-0.17666902
15	0xbe81ef1c	-0.25377738
16	0x3e60d6ff	0.21957015
17	0x3e0e008c	0.13867396
18	0xbd1c7fdb	-0.03820787
19	0x3d3f01af	0.046632465
20	0xbe70dad0	-0.2352097
21	0xbeafa1e1	-0.3430319
22	0xbe9d1f63	-0.3068801
23	0xbf01fd42	-0.50777066
24	0x3eddee4a	0.43345863
25	0x3e5a3189	0.21307959
26	0xbe31a802	-0.17349246
27	0xbecc74c3	-0.39932832
28	0x3e6d5c62	0.23179772
29	0xbeb451cb	-0.35218653
30	0xbe19f4e4	-0.15034825
31	0xbeaf431a	-0.34230882
32	0xbe6bd81f	-0.23031662
33	0xbd50c216	-0.050966345
34	0xbeca25f7	-0.3948209
35	0xbe6e62f6	-0.23279938
36	0x3eed3b08	0.463341
37	0xbe5664fe	-0.20936963
38	0xbe34b77c	-0.17648119
39	0xbdeac0ba	-0.11462541
40	0xbdcfea17	-0.10152071
41	0xbe891ce2	-0.26779848
42	0x3d19432e	0.037417583
43	0x3c32bfb2	0.010909962
44	0x3d9f4883	0.077775024
45	0x3e904a8c	0.28181875
46	0xbe9f73ea	-0.31143123
47	0x3b66d53e	0.0035222317
48	0x3d657511	0.056019846
49	0x3df2ad0c	0.11849412
50	0xbeacd5c4	-0.3375684
51	0x3d0cedba	0.0344064
52	0xbcce8b5a	-0.025212932
53	0xbd923d3d	-0.071405865
54	0xbe4f4f8a	-0.20245185
55	0x3db837b3	0.08994999
56	0xbf1411df	-0.5783977
57	0xbeb7f35f	-0.35927865
58	0x3d189e40	0.037260294
59	0xbe8d7065	-0.27624813
60	0xbea667f9	-0.325012
61	0xbd24ece5	-0.040264983
62	0x3ea62f09	0.3245776
63	0xbeaf39b0	-0.342237
64	0xbeb7dc9e	-0.35910505
65	0x3f1fe80b	0.62463444
66	0xbe02d141	-0.12775137
67	0xbe826104	-0.25464642
68	0xbe473f03	-0.19457631
69	0xbd30dad7	-0.043177452
70	0xbe3851de	-0.1799998
71	0x3c6db6ec	0.014508944
72	0xbe835622	-0.25651652
73	0x3e90fc0b	0.28317294
74	0xbe8fcda6	-0.28086585
75	0xbe6a46cc	-0.2287857
76	0xbe1f4ff8	-0.1555785
77	0xbdca8d13	-0.09890189
78	0xbea90697	-0.3301284
79	0x3e344120	0.17602968
80	0x3e99c66e	0.30034202
81	0xbe84fdf1	-0.25974992
82	0xbea25e84	-0.31712735
83	0xbf0147de	-0.50500286
84	0xbd88bd67	-0.06676751
85	0xbeb4a388	-0.35281014
86	0xbe93d74f	-0.28875205
87	0x3ed21f68	0.41039586
88	0x3d808ff5	0.062774576
89	0x3e63079d	0.22170873
90	0x3ea62426	0.32449454
91	0x3c8bd195	0.01706771
92	0xba709158	-0.00091769313
93	0x3e70ac62	0.23503259
94	0xbe8f015a	-0.2793072
95	0xbe0239f8	-0.12717426
96	0x3ed28df5	0.4112393
97	0xbdf061a8	-0.117373765
98	0xbe88022f	-0.26564166
99	0xbf167a61	-0.58780485
100	0x3e428971	0.18997742
101	0x3ededaa1	0.43526176
102	0x3e0fd78e	0.14047071
103	0xbe25ae46	-0.16179761
104	0x3ecd13c0	0.4005413
105	0xbebfe93d	-0.37482634
106	0xbe9697ea	-0.29412776
107	0xbec920e0	-0.39282894
108	0x3ecf5195	0.4049193
109	0x3c7bb8a8	0.01536385
110	0xbe407edd	-0.18798395
111	0x3d85c468	0.06531602
112	0xbe2f13ec	-0.17097443
113	0xbe860e47	-0.26182768
114	0xbd776a85	-0.06040432
115	0x3d1accd4	0.037792996
116	0xbe95af71	-0.29235414
117	0xbe89acf3	-0.26889762
118	0x3d97940e	0.07401286
119	0x3acbce7f	0.0015549212
120	0x3ea39031	0.31945947
121	0xbe51fa76	-0.205057
122	0x3928a225	0.00016082132
123	0x3e493b39	0.19651498
124	0xbeb6fed5	-0.35741296
125	0xbe8774d6	-0.26456326
126	0xbd9cabad	-0.07649932
127	0x3cefaa99	0.029256152
128	0xbe064d9a	-0.1311554
129	0x3e3115ee	0.17293522
130	0xbe817361	-0.2528334
131	0x3ef55daa	0.47923023
132	0xbce7c8b2	-0.028293941
133	0x3e3c0af2	0.1836355
134	0xbde55257	-0.11197346
135	0x3ea1c36a	0.31594402
136	0xbedb6ddf	-0.42857262
137	0x3db95d6e	0.090510234
138	0x3d20f41d	0.039295305
139	0xbdbcb7cc	-0.09214744
140	0x3e42c005	0.19018562
141	0xbe8dd68b	-0.27702746
142	0xbebaac16	-0.36459416
143	0xbe553202	-0.20819858
144	0xbec1fdbf	-0.37888905
145	0x3ec378ee	0.381782
146	0xbe95b545	-0.2923986
147	0xbf087639	-0.53305393
148	0xbe9aca8c	-0.30232656
149	0xbe8cd770	-0.27508116
150	0xbf05aade	-0.5221385
151	0x3e9b569d	0.30339518
152	0xbe9cef04	-0.30651104
153	0x3e45ae7b	0.1930484
154	0x3e9e9716	0.30974644
155	0xbe9c133a	-0.3048342
156	0x3e988477	0.29788563
157	0xbe6a2c16	-0.2286838
158	0x3edd0ba8	0.43172956
159	0x3da82a21	0.082111605
160	0x3dc6afaf	0.09701478
161	0x3dbf2ae5	0.09334353
162	0xbf003851	-0.5008593
163	0xbe0966ac	-0.13418072
164	0x3da64ea6	0.0812047
165	0xbeb5ae1f	-0.35484406
166	0x3e86c72d	0.26323834
167	0xbe1f52d0	-0.15558934
168	0xbe173335	-0.14765628
169	0xbea5d78a	-0.32391006
170	0x3d5f749d	0.05455457
171	0xbee4d21a	-0.44691545
172	0xbdb16c6e	-0.086632594
173	0xbe173108	-0.14764798
174	0xbc531c86	-0.0128852185
175	0xbc806cef	-0.015676944
176	0xbe6847bf	-0.22683619
177	0xbe2812b0	-0.16413379
178	0xbd00fe34	-0.031492427
179	0xbe2ac044	-0.16674906
180	0x3ea656c6	0.32488078
181	0xbde7c8f1	-0.113176234
182	0x3b3c455f	0.0028727872
183	0xbea86ec2	-0.32897002
184	0x3e76d40d	0.24104328
185	0xbe4012b7	-0.18757139
186	0xbddfcf20	-0.10928178
187	0x3b20237a	0.0024435208
188	0xbe218f3f	-0.157773
189	0x3e381b52	0.17979172
190	0xba608510	-0.000856475
191	0xbe79c6c5	-0.24392231
192	0x3db016bc	0.08598086
193	0xbea7fe27	-0.3281109
194	0x3e885be0	0.26632595
195	0x3d49676e	0.049170904
196	0x3e9600d3	0.29297504
197	0x3ef3c7c9	0.4761336
198	0x3d383bad	0.044978786
199	0xbb6a0c73	-0.0035712987
200	0xbe671243	-0.2256556
201	0xbe2eaebe	-0.17058846
202	0x3ea259c4	0.3170911
203	0x3dab19c2	0.08354522
204	0xbf0ecaf2	-0.5577842
205	0xbdf7c0fe	-0.12097357
206	0xbbc682c0	-0.006058067
207	0xbc94aa22	-0.018147532
208	0xbeb1b515	-0.34708467
209	0xbe6139e3	-0.21994738
210	0x3d3a86ba	0.04553864
211	0xbece3627	-0.4027569
212	0xbec26f4c	-0.37975538
213	0xbebb7c82	-0.3661843
214	0xbe9b6cce	-0.3035645
215	0xbdca3ec6	-0.09875254
216	0x3e800611	0.25004628
217	0xbed0c112	-0.407723
218	0xbd85210b	-0.06500443
219	0xbea1eeee	-0.316276
220	0xbe5fa43f	-0.21839999
221	0xbd930653	-0.071789406
222	0xbea17f50	-0.31542444
223	0xbac5b4a2	-0.001508374
224	0xbe4f5337	-0.20246588
225	0xbe8f36ec	-0.2797159
226	0xbe6be8d6	-0.23038039
227	0xbed9a7a7	-0.4251072
228	0x3d86083f	0.065445416
229	0xbe4d3be9	-0.20042385
230	0xbcd008dc	-0.02539485
231	0x3e84e80d	0.2595829
232	0xbdb7ca71	-0.089741595
233	0xbe54c8fb	-0.20779793
234	0xbe7aff0b	-0.24511354
235	0xbec55c9f	-0.38547227
236	0xbde7093f	-0.112810604
237	0xbdac2316	-0.084051296
238	0x3e3c8c0a	0.18412796
239	0x3ef01a88	0.46895242
240	0xbe655fd2	-0.22399834
241	0xbe2801aa	-0.16406885
242	0x3ea9da56	0.3317439
243	0x3dd2b200	0.10287857
244	0x3e8a57d1	0.27020124
245	0xbdfe3dd6	-0.12414138
246	0x3d735ff0	0.059417665
247	0xbf06c2bc	-0.5264089
248	0xbe0d7523	-0.13814215
249	0xbea2a91d	-0.31769648
250	0xbddbc36c	-0.10730633
251	0xbeaeb36b	-0.3412126
252	0xbec8f166	-0.39246672
253	0x3e9f05f7	0.31059238
254	0xbe18735b	-0.14887755
255	0x3e0fae6d	0.14031382

net.2.weight f4 [256, 256]
0	0x3d4bb504	0.049733177
1	0x3c885638	0.016642675
2	0xbe67725d	-0.2260222
3	0x3daf7f06	0.0856915
4	0x3e7e6315	0.24842484
5	0x3cf6344c	0.030054234
6	0x3d57da7a	0.05269859
7	0xbd1a558b	-0.037679236
8	0x3e63351d	0.2218823
9	0xbf2dcc49	-0.6788984
10	0x3f6a1076	0.9143137
11	0x3c6db5c0	0.014508665
12	0xbd880781	-0.06642056
13	0xbf33a041	-0.70166403
14	0xbd1886fa	-0.0372381
15	0xbeed0710	-0.4629445
16	0x3f09e428	0.53863764
17	0x3d4a104c	0.04933195
18	0xbd3447ac	-0.044013664
19	0xbebec892	-0.37262398
20	0x3d00644a	0.031345643
21	0x3d3502d4	0.04419215
22	0x3c8048a0	0.01565963
23	0x3c921fa4	0.017837353
24	0xbe5c5e0e	-0.21520254
25	0xbf460b48	-0.77360964
26	0x3cae16cc	0.021251105
27	0xbd482cd4	-0.048870876
28	0x3e276867	0.1634842
29	0x3a939147	0.0011258506
30	0xbe56e58d	-0.20986004
31	0xbcb4e3e4	-0.022081323
32	0xbd7dc850	-0.06195861
33	0xbf318439	-0.6934238
34	0x3cc403bc	0.023927562
35	0x3d5c6f1e	0.053816907
36	0xbfb4db5d	-1.4129444
37	0x3cf4724c	0.029839657
38	0xbd72e966	-0.059304617
39	0xbd74d032	-0.059768863
40	0xbd205190	-0.039140284
41	0xbc0740d8	-0.008255206
42	0x3c8eff9c	0.017455868
43	0x3c64653e	0.013940154
44	0xbf4b410d	-0.79396135
45	0xbf35f5d5	-0.71078235
46	0x3b7c0300	0.0038453937
47	0x3b803787	0.0039128694
48	0xbe147325	-0.14497049
49	0x3df376e3	0.1188791
50	0xbc042460	-0.008065313
51	0xbd0641aa	-0.032777466
52	0x3d64d7ee	0.05586999
53	0xbd4cfd22	-0.050046094
54	0x3eba1ab7	0.36348507
55	0xb879c9a7	-5.955403e-05
56	0xbed169fd	-0.40901175
57	0xbf2d6616	-0.67733896
58	0xbc5a7c22	-0.01333526
59	0xbe26dd9c	-0.16295475
60	0x3cfcbfa0	0.030853093
61	0xbb62e600	-0.0034621954
62	0x3e763c41	0.24046423
63	0x3ed84197	0.4223754
64	0x3d3a19a7	0.04543462
65	0xbea2f5b2	-0.31828076
66	0xbebd9da7	-0.37034342
67	0x3de20ea3	0.11037948
68	0xbd16eb89	-0.036845718
69	0x3d7174a6	0.058949135
70	0x3dee6546	0.1164041
71	0x3d748c6e	0.059704237
72	0xbcef2a78	-0.029195055
73	0xbf6ba03f	-0.9204139
74	0x3f23ac73	0.6393501
75	0xbea0c725	-0.31401935
76	0x3d006aa2	0.031351693
77	0x3f04bf9d	0.5185488
78	0x3d59fb36	0.05321809
79	0xbd53b943	-0.05169035
80	0x3e3ff824	0.18747002
81	0x3ee675d6	0.45011777
82	0x3c8ead78	0.0174167
83	0xbe815089	-0.25256756
84	0x3e27a642	0.16372016
85	0xbd425e32	-0.047453113
86	0xbc96347c	-0.018335573
87	0x3ea8db2d	0.32979718
88	0x3f1d60d9	0.614759
89	0x3e13f225	0.1444784
90	0x3f2af833	0.6678497
91	0xbe9f6b8f	-0.31136748
92	0xbe8f6ba5	-0.28011814
93	0xbf2f6a56	-0.6852163
94	0xbc6b5dc7	-0.01436562
95	0xc0416568	-3.0218143
96	0x3dc8bd8d	0.09801779
97	0xbe57007c	-0.20996279
98	0x3c19abb0	0.009379312
99	0xbedc2785	-0.429989
100	0xbd5c5d33	-0.05379982
101	0xbe343d9b	-0.17601626
102	0xbdfd982a	-0.123825386
103	0x3ef76596	0.4831969
104	0xbf822d28	-1.017003
105	0xbc59cce8	-0.013293482
106	0x3cc3a11c	0.023880534
107	0x3d00d402	0.031452186
108	0x3f89fb80	1.0779877
109	0xbec69d68	-0.38791966
110	0xbccf459c	-0.025301747
111	0xbe0730b9	-0.1320218
112	0x3c025268	0.0079542175
113	0xbd02c328	-0.031924397
114	0xbbb734e0	-0.00559102
115	0xbf57f65f	-0.8436031
116	0xbd71df40	-0.0590508
117	0x3d2d8c56	0.042370163
118	0xbc4d3ae8	-0.012526251
119	0xbe36063c	-0.17775816
120	0x3e3c1087	0.1836568
121	0xbd09bf38	-0.033629626
122	0xbaf2c46e	-0.0018521675
123	0xbe10c0cf	-0.1413605
124	0x3b3d9d40	0.002893284
125	0x3c934de4	0.017981477
126	0x3dab928d	0.08377562
127	0x3ddeb96e	0.10875212
128	0xbc9d17e0	-0.019176424
129	0xbdfd6d85	-0.12374405
130	0xbba04520	-0.004891053
131	0xbec541f1	-0.38526872
132	0xbdea6507	-0.11445051
133	0xbf8d871c	-1.1056857
134	0xbf0122b6	-0.5044359
135	0x3eb6f6d2	0.35735184
136	0xba9bd28d	-0.001188831
137	0xbf2afe6a	-0.66794455
138	0xbf7d7139	-0.9900089
139	0xbd5fcdd0	-0.054639637
140	0xbd2df7a3	-0.042472493
141	0x3c196f9e	0.0093649905
142	0x3d2bf7fa	0.041984536
143	0x3e53918d	0.20660992
144	0x3cd7d1b0	0.026345104
145	0x3e87b122	0.2650233
146	0x3e0a9ba4	0.13535935
147	0xbe91a0ad	-0.28442898
148	0xbd090521	-0.033452157
149	0x3a8cd7c0	0.0010745451
150	0xbeb77ed9	-0.35838965
151	0xbfc13c84	-1.5096593
152	0xbc193470	-0.009350881
153	0xbfa9a88d	-1.3254563
154	0x3f11d3b8	0.5696368
155	0xbed2fa14	-0.4120642
156	0xbcd4f457	-0.025995417
157	0xbd235122	-0.039872296
158	0x3e4a27d0	0.1974175
159	0x3f3b51aa	0.73171484
160	0x3d5f7cd4	0.054562405
161	0xbf30c46d	-0.6904972
162	0xbfef776e	-1.8708322
163	0x3bc21f0e	0.005924112
164	0xbf248a08	-0.6427312
165	0xbc910db4	-0.01770673
166	0x3f339e1b	0.70163125
167	0x3d2d268e	0.042273097
168	0x3d6b8fd8	0.057510227
169	0xbb2c9c60	-0.0026338324
170	0xbf8fbcde	-1.1229513
171	0x3f03ab7d	0.51433545
172	0xbcaf1b40	-0.021375299
173	0xbf82c454	-1.0216165
174	0xbf25baa3	-0.6473791
175	0x3ec08aba	0.3760584
176	0x3f3b8340	0.73247147
177	0xbeb28f3f	-0.34874913
178	0xbd9fc77c	-0.078017205
179	0xbf2529cf	-0.6451692
180	0xbcf1f17d	-0.029534096
181	0xbe2cb18a	-0.16864601
182	0xbd4537e2	-0.048148997
183	0xbcbcce58	-0.023047611
184	0x3eeac6ba	0.4585474
185	0x3d5dba22	0.05413259
186	0xbc07be98	-0.008285187
187	0xbd00d840	-0.031456232
188	0xbda8e722	-0.0824721
189	0xbfddd48d	-1.733049
190	0x3d68bb37	0.056819167
191	0x3c6af330	0.014340207
192	0x3dccab5b	0.09993621
193	0xbc1827d8	-0.009286843
194	0xbf9961aa	-1.198293
195	0xbbe55f2b	-0.0069998703
196	0x3d2c00ee	0.041993074
197	0x3ee760b9	0.4519098
198	0xbf8952fd	-1.0728451
199	0xbf043e7c	-0.51657844
200	0x3cd55a2e	0.026043978
201	0xbc2019e0	-0.009771794
202	0xbfa4f208	-1.2886362
203	0x3e14bd6f	0.14525388
204	0xbe795005	-0.24346931
205	0x3e9374fc	0.2880019
206	0xbc9b830c	-0.018983386
207	0x3d40e16a	0.04708997
208	0xbe5418ca	-0.20712581
209	0xbf214842	-0.6300088
210	0xbe2bcba9	-0.16776909
211	0xbf015d66	-0.5053314
212	0x3d1f7d94	0.03893812
213	0xbde6852c	-0.11255869
214	0xbf6cbb7a	-0.92473567
215	0x3cf4ada6	0.029867958
216	0xbfa026ac	-1.2511802
217	0xc0a1144a	-5.0337267
218	0x3eb0259c	0.34403694
219	0xbe76885e	-0.24075457
220	0xbd37e354	-0.04489453
221	0x3ca462d4	0.020066656
222	0xc00640ed	-2.0977128
223	0xbd438684	-0.047735706
224	0xbbcd4450	-0.006264247
225	0xbf3730ea	-0.7155901
226	0xbd37d18a	-0.044877566
227	0xbeddb71c	-0.43303764
228	0xbc86e98e	-0.01646879
229	0xbd1d94a0	-0.038471818
230	0xbd6578e9	-0.056023512
231	0xbe2c1c1a	-0.16807595
232	0x3dd29470	0.102822185
233	0x3b0a3820	0.0021090582
234	0x3d550ed0	0.05201608
235	0xbefd6aa2	-0.49495417
236	0x3f138242	0.5762063
237	0x3dfaf59b	0.12253877
238	0xbd60bf61	-0.054870013
239	0xbd6cd041	-0.057815794
240	0xbccb5b30	-0.024823755
241	0xba337000	-0.00068449974
242	0xbe352060	-0.17688131
243	0x3ced20fb	0.02894639
244	0xbe4283e2	-0.18995622
245	0x3e717224	0.23578697
246	0x3f05c0c7	0.5224728
247	0x3de46201	0.11151505
248	0x3e0ab198	0.13544309
249	0xbc918f33	-0.017768478
250	0x3d322980	0.04349661
251	0x3d7b1ef6	0.061308824
252	0x3cf92268	0.030411914
253	0xbf29a32e	-0.6626462
254	0xbe6bf871	-0.23043992
255	0xbded837b	-0.115973435

net.2.bias f4 [256]
0	0x3e0bf62b	0.13668124
1	0xbd79b789	-0.06096605
2	0xbb759021	-0.003746994
3	0xbd114fe9	-0.0354766
4	0xbd0050ed	-0.031327177
5	0xbcd8e5e1	-0.026476802
6	0xbd83e4fd	-0.064401604
7	0xbd302438	-0.04300329
8	0xbc2a1227	-0.010380304
9	0xbd229dd5	-0.0397013
10	0xbd67421c	-0.05645953
11	0x3bc22c74	0.0059257094
12	0xbcc9e35e	-0.02464455
13	0x3d937ecf	0.07201921
14	0x3e8d3edd	0.27587023
15	0x3d0efe66	0.034910582
16	0xbd3f0a40	-0.046640635
17	0x3e78fe7d	0.2431583
18	0xbd093db0	-0.033506095
19	0xbd22eec2	-0.03977848
20	0xbe0a796a	-0.13522878
21	0x3eb14c5e	0.34628576
22	0x3c03af96	0.008037468
23	0xbc2ff02c	-0.010738414
24	0xbd1f6e4f	-0.038923558
25	0xbc10dbe8	-0.008841492
26	0x3be67d2e	0.0070339656
27	0xbd48a340	-0.048983812
28	0xbd915d7a	-0.07097907
29	0xbd542f58	-0.051802963
30	0xbeb538b8	-0.35394835
31	0x3d88c19a	0.066775516
32	0xbd36331e	-0.044482343
33	0xbda82818	-0.08210772
34	0xbd7c4a24	-0.061594144
35	0x3edf0841	0.43560985
36	0xbca1691a	-0.019703437
37	0xbb966c53	-0.00459055
38	0xbaad23ea	-0.0013209556
39	0xbd2e9570	-0.042622983
40	0xbd906b0c	-0.070516676
41	0xbd28f96e	-0.0412535
42	0xbb93c3e8	-0.004509438
43	0xbc32d75d	-0.010915604
44	0xbd4aa73b	-0.04947589
45	0xbc71a620	-0.01474908
46	0xbcb6859b	-0.022280505
47	0x3c1ec0b4	0.009689499
48	0xbd0d0ca7	-0.034435894
49	0xbc5bed22	-0.013423236
50	0xbc8955f7	-0.016764624
51	0xbd8bea58	-0.06831807
52	0xbdf6332a	-0.120214775
53	0xbc45fc01	-0.012084008
54	0x3eea5c64	0.45773613
55	0xbd85e970	-0.06538665
56	0xbc4c472c	-0.012468141
57	0xbd41b96c	-0.047295973
58	0xbcae2d32	-0.021261785
59	0x3a8721dd	0.0010309775
60	0xbbbb857b	-0.005722699
61	0xbb31ca87	-0.0027128772
62	0xbcc296ff	-0.023753641
63	0xbc60fcd2	-0.013732152
64	0x3e129a5e	0.14316699
65	0x3e218bed	0.15776034
66	0xbbebe5f5	-0.007199044
67	0xbd8710fb	-0.06595036
68	0x3ecf5d69	0.40500954
69	0xbeecf655	-0.46281686
70	0xbedcd957	-0.43134567
71	0xbe978ff6	-0.2960202
72	0x3c0ff21a	0.008785749
73	0xbccfc5a9	-0.025362806
74	0xbd888ecb	-0.066678606
75	0x3aae27a1	0.0013286957
76	0xbc4dec2b	-0.012568514
77	0xbd73816f	-0.05944961
78	0xbd39704e	-0.045273118
79	0xbc4a2586	-0.012338048
80	0xbe780eb1	-0.24224354
81	0xbd86cdbd	-0.0658221
82	0xbcf96c36	-0.030447107
83	0xbd95eca2	-0.07320525
84	0xbd428ff1	-0.047500554
85	0x3d7a8df2	0.061170526
86	0xbd6317d7	-0.055442657
87	0x3c42d04c	0.011890482
88	0xbc3ef2e0	-0.011654586
89	0xbd3e4392	-0.04645116
90	0xbd74caf5	-0.059763867
91	0xbd815c26	-0.06316404
92	0x3ed12366	0.4084732
93	0xbd2a6af5	-0.04160591
94	0xbae89dff	-0.0017747282
95	0x3e685ede	0.22692439
96	0xbce574a4	-0.02800972
97	0xbd5f5c3d	-0.054531325
98	0xbd14a689	-0.036291633
99	0x3ebb8ee6	0.3663246
100	0xbd1eeee3	-0.03880204
101	0xbcbe470d	-0.023227239
102	0x3f19eb7b	0.6012494
103	0x3ee29f8a	0.44262344
104	0x3cae6344	0.021287568
105	0x3bba0a19	0.0056774733
106	0x3bb6cbfb	0.0055785156
107	0xbd4234eb	-0.047413748
108	0xbb10d598	-0.0022099968
109	0xbd8c3250	-0.06845534
110	0xbd0a8f76	-0.03382822
111	0xbd26ac30	-0.040691555
112	0xbcaea772	-0.021320079
113	0xbcf677cd	-0.030086422
114	0xbbe76b8d	-0.0070623816
115	0x3de3babe	0.111196026
116	0xbd8a1820	-0.06742883
117	0xbb7564f0	-0.0037444197
118	0xbd64793e	-0.055779688
119	0xbc9301ee	-0.017945256
120	0xbd3d84e2	-0.046269305
121	0xbdeb3f86	-0.114867255
122	0xbcae6fa2	-0.021293465
123	0xb8a2e795	-7.7678975e-05
124	0xbd3963ed	-0.045261312
125	0x3e274b39	0.16337289
126	0xbb72e320	-0.0037061647
127	0xbc1f8828	-0.009737052
128	0xbb1c3266	-0.002383375
129	0xbc46278b	-0.012094389
130	0xbd355ff0	-0.044280946
131	0x3ec4148a	0.3829692
132	0x3e046264	0.12928158
133	0xbceda7ea	-0.029010732
134	0xbd424167	-0.047425654
135	0xbcde27f6	-0.027118664
136	0xbd7fe5a6	-0.06247487
137	0x3eacf1f7	0.33778355
138	0xbd4250bb	-0.04744027
139	0x3b029877	0.0019927302
140	0xbd575450	-0.05257064
141	0xbc66e5a4	-0.0140928365
142	0xbc820f58	-0.015876457
143	0xbd2edd8e	-0.04269176
144	0xbc3ef256	-0.011654457
145	0xbbe4c5fd	-0.00698161
146	0x3b7ef331	0.0038902278
147	0xbd3a3c1a	-0.045467474
148	0xbca7188c	-0.020397447
149	0x3e92b363	0.28652486
150	0x3e46597e	0.19370076
151	0xbd40e44b	-0.047092717
152	0xbd06ff68	-0.032958418
153	0xbd871096	-0.065949604
154	0xbd7255b7	-0.059163775
155	0xbd6b215f	-0.057404872
156	0xbb0a4ae4	-0.0021101767
157	0x3e8c6b68	0.27425694
158	0xbc23f32e	-0.010006709
159	0x3cb39aba	0.021924365
160	0xbb7cb48a	-0.0038559758
161	0xbd435a30	-0.04769343
162	0xbd125e9a	-0.03573475
163	0x3af26852	0.0018494225
164	0x3e75ae29	0.23992218
165	0xbd7ea07a	-0.06216476
166	0xbd501dce	-0.050809674
167	0xbb8280e3	-0.0039826497
168	0xbcf38c5a	-0.02973001
169	0xbbbb41fc	-0.005714653
170	0xbd5c7643	-0.05382372
171	0xbd2734e8	-0.04082194
172	0xbbbf81e2	-0.0058443407
173	0xbda8844a	-0.08228357
174	0x3e6f8db2	0.23393896
175	0xbc4320bd	-0.011909661
176	0xbd384d09	-0.04499534
177	0x3e2960e5	0.16540869
178	0xbbc86030	-0.006114982
179	0x3e3edf69	0.18639912
180	0xba9f2cbd	-0.001214407
181	0x3b15c1a7	0.0022851021
182	0xbd527a08	-0.05138591
183	0xbd662f0b	-0.056197207
184	0x3c05b58b	0.008160959
185	0xbc8fc09f	-0.017547904
186	0xbd4e8a6e	-0.050424986
187	0xbe795fb6	-0.24352917
188	0xbd16daac	-0.036829636
189	0x3e69ed36	0.22844395
190	0x3c286e52	0.010280209
191	0xbd5c1cf4	-0.05373855
192	0x3e0396b8	0.12850463
193	0xbcc8fa6b	-0.024533471
194	0xbd5456dd	-0.05184065
195	0xbd7bcf6f	-0.06147712
196	0xbc6e803e	-0.0145569425
197	0xbb99b487	-0.00469071
198	0xbd8add3d	-0.06780479
199	0x3c0bf093	0.008541244
200	0xbb98d76f	-0.0046643536
201	0xbc460390	-0.01208581
202	0xbd150e77	-0.036390748
203	0xbd495acb	-0.049158853
204	0xbd1dd3a5	-0.038531918
205	0x3beeceed	0.007287851
206	0xbd313ec0	-0.043272734
207	0xbbf3fa32	-0.007445597
208	0xbcc37ae7	-0.023862315
209	0x3de20cfb	0.11037632
210	0x3eab53d6	0.334624
211	0xbc9168b7	-0.017750127
212	0x3ed703d5	0.4199511
213	0x3dcd345e	0.10019754
214	0xbd09a86a	-0.033607878
215	0xbe187f68	-0.14892352
216	0xbdd4c50d	-0.10389147
217	0xbda45d4f	-0.0802561
218	0xbd1b2054	-0.037872627
219	0xbc87ff10	-0.016601115
220	0xbe918950	-0.28425074
221	0xbc8c8125	-0.017151425
222	0xbd3d5438	-0.046222895
223	0xbec10c9e	-0.3770494
224	0x3e4e30d9	0.20135821
225	0xbddc0d53	-0.10744729
226	0xbd8f3222	-0.06991984
227	0xbd7e244d	-0.062046338
228	0x3bb71030	0.0055866465
229	0x3d84b333	0.06479492
230	0xbcf5379c	-0.029933743
231	0xb9ff5a22	-0.00048704544
232	0xbd8fc38c	-0.070197195
233	0xbc7b1ebd	-0.015327153
234	0xbc9facf6	-0.019491654
235	0xbd8d3b5b	-0.06896087
236	0xbca33946	-0.019924771
237	0x3e657bad	0.2241046
238	0xba4ea40b	-0.00078827207
239	0xbcb065f3	-0.021532988
240	0x3e724d0a	0.236622
241	0xbd7ef6e4	-0.062247172
242	0x3c9468c6	0.018116366
243	0xbcb2acf3	-0.021810984
244	0x3e87f2b6	0.2655236
245	0xbd1a5821	-0.037681703
246	0x3e8fbc45	0.28073326
247	0x3edadcc2	0.4274655
248	0x3a7a3089	0.00095439755
249	0xbd57fe0a	-0.052732505
250	0xbbf17a48	-0.0073693134
251	0xbbed5d61	-0.0072437976
252	0xbba3ceed	-0.0049990327
253	0x3e79b991	0.24387194
254	0xbd6fcf96	-0.05854758
255	0xbd12a074	-0.03579755

net.4.weight f4 [4, 256]
0	0x3f6ed89e	0.9329928
1	0xbd06700e	-0.032821707
2	0x3c9f46b4	0.019442894
3	0x3d536e2a	0.051618733
4	0x3d4701c5	0.048585672
5	0x3c86c7ad	0.016452635
6	0xbb3ce51b	-0.002882308
7	0x3c102d38	0.0087998435
8	0xbc02a0db	-0.007972921
9	0xbd1374e7	-0.03600016
10	0xbcf69b71	-0.030103417
11	0x3c085626	0.008321321
12	0xbc98ee35	-0.018668273
13	0x3e8a8c3d	0.27060118
14	0xc01a8f49	-2.4149954
15	0x3e9cc8cf	0.30621955
16	0xbd3237d1	-0.043510262
17	0x3ff3d6aa	1.9049885
18	0xbd24c9e7	-0.04023161
19	0xbced8fea	-0.028999288
20	0x3d73a701	0.05948544
21	0xbf6e24e5	-0.93025047
22	0xbb57beda	-0.0032920153
23	0x3c9f97b7	0.019481523
24	0x3fd5a732	1.6691649
25	0x3b832564	0.00400226
26	0x3fbc6c21	1.4720498
27	0x3d046fa0	0.032333016
28	0xbb564c5b	-0.003269932
29	0x3d7d490d	0.061837245
30	0xbde4436d	-0.11145673
31	0xbf57aee9	-0.84251267
32	0x3cec7ade	0.028867181
33	0x3f5dcd73	0.86641616
34	0xbecce4c6	-0.4001829
35	0x3e108e90	0.14116883
36	0x3ca6bc9b	0.020353606
37	0xbc09d966	-0.008413648
38	0x3d1a12ae	0.03761547
39	0xbd207308	-0.039172202
40	0xbd2a540f	-0.04158407
41	0x3d08c928	0.033394963
42	0xbc9085c2	-0.017641906
43	0x3a8387d8	0.0010034991
44	0x3c2919f5	0.01032113
45	0xbb22d1de	-0.002484433
46	0x3c7d4bf1	0.01546
47	0x3d004dc6	0.03132417
48	0xbecdb9d2	-0.40180832
49	0x3d570987	0.05249932
50	0x3d22df5d	0.039763797
51	0xbd5a0317	-0.053225603
52	0x3c63a194	0.013893504
53	0xbd12f010	-0.035873473
54	0x3f95a116	1.1689785
55	0x3d5d7e85	0.054075737
56	0xbd52b93c	-0.051446185
57	0xbb17c6d7	-0.002315929
58	0x3b85a464	0.004078435
59	0xbcf11e3f	-0.029433368
60	0x3b1f5573	0.0024312406
61	0x3d1f0a9c	0.038828477
62	0x3d10a2f8	0.03531167
63	0xbba04d24	-0.0048920084
64	0x3e40b80f	0.18820213
65	0x3ead45e7	0.33842394
66	0x3c9de104	0.019272335
67	0x3cd37611	0.025813134
68	0xbf6af11b	-0.9177415
69	0xbdf9002a	-0.121582344
70	0xbe1e59e6	-0.15463981
71	0x3f2acb3e	0.6671637
72	0x3d3c97bc	0.046043143
73	0xbc3d0126	-0.011535918
74	0xbd406776	-0.046973668
75	0xbbae01c0	-0.005310267
76	0xbd0727f0	-0.03299707
77	0x3d0b0b7d	0.033946503
78	0xbd3106e1	-0.04321945
79	0xbd8a85df	-0.06763815
80	0x3d4ef5b6	0.050527297
81	0x3d0cf0a1	0.03440917
82	0x3c3ff79e	0.011716751
83	0x3c710cde	0.01471254
84	0x3c8d229a	0.017228413
85	0xbf36d67f	-0.71421045
86	0x3bbfe503	0.0058561577
87	0x3d47437f	0.048648354
88	0x3cbdc962	0.023167316
89	0xbcd5cbe1	-0.026098194
90	0x3d23ba7b	0.039972764
91	0x3ca6b04c	0.020347737
92	0x4002fcae	2.0466723
93	0xbbc907e7	-0.0061349752
94	0xbcdfbf25	-0.027312825
95	0x3fb96d32	1.4486449
96	0x3a17997e	0.0005783065
97	0x3bebbb41	0.0071939533
98	0x3c106756	0.0088137
99	0xbf6b3f78	-0.9189372
100	0xbcbf05bc	-0.023318164
101	0x3d3769ee	0.044778757
102	0xbdbf85e4	-0.093517095
103	0xbe7598ae	-0.23984024
104	0xbda8e7d2	-0.08247341
105	0xbccc1e58	-0.024916813
106	0x3d829110	0.06375325
107	0xbb830e3a	-0.0039994987
108	0x3d11eaf3	0.035624456
109	0xbd226457	-0.039646473
110	0xbd61c93b	-0.05512355
111	0xbcdd7515	-0.027033368
112	0xbc46863f	-0.012116968
113	0xbc33ad6b	-0.010966639
114	0xba3f8bb2	-0.0007306888
115	0xbefaa9d2	-0.48957688
116	0x3a2ce99b	0.0006596089
117	0xbc9567e0	-0.018238008
118	0x3b6db637	0.0036271939
119	0x3b4240cb	0.002964067
120	0xbd35623e	-0.044283144
121	0x3ef9a5e1	0.48759368
122	0xbd0f8570	-0.035039365
123	0x3cabbc8b	0.020963928
124	0x3d0da0ac	0.034577057
125	0x3f9d85ae	1.2306421
126	0x3d58b8f2	0.052910753
127	0x3d1a18ee	0.03762143
128	0x3d20b7ff	0.039237972
129	0xbd0f805f	-0.035034534
130	0xbc9b25d8	-0.018938944
131	0xbe43f4bd	-0.19136329
132	0xbcb63c79	-0.022245632
133	0xbd4e7b22	-0.050410397
134	0xbbea32c6	-0.007147166
135	0x3bec71a9	0.007215698
136	0xbba947a7	-0.0051660123
137	0x3eb0d9d7	0.345412
138	0xbc803d17	-0.01565413
139	0xbe2c5b3a	-0.16831675
140	0x3d171da6	0.03689351
141	0xbbc1c0f4	-0.0059128944
142	0xbb25a0e2	-0.0025272896
143	0x3cb50e6c	0.022101603
144	0x3d614d70	0.05500549
145	0x3d4cd872	0.050011106
146	0xbc5ea154	-0.013588268
147	0x3cb964a8	0.022631004
148	0x3d1121df	0.035432693
149	0x3f37b877	0.71765846
150	0x3e3f81bf	0.18701838
151	0x3c80068e	0.015628126
152	0xbd902ff7	-0.070403986
153	0x3cece30a	0.028916854
154	0x3cd1dae6	0.025617074
155	0xbcf23c7b	-0.029569855
156	0xbd33e77c	-0.043921933
157	0x3ef50aa8	0.47859693
158	0xbd4cdfa4	-0.050017968
159	0xbee384b2	-0.44437176
160	0x3b8af25b	0.004240317
161	0x3c97f639	0.018550025
162	0x3ca72096	0.02040128
163	0xbd2cf903	-0.042229664
164	0xbf74e613	-0.95663565
165	0x3d15cc8f	0.036572035
166	0x3a5ded80	0.0008465871
167	0xbbd4d727	-0.0064953747
168	0x3cc24a31	0.023717018
169	0x3ca7a525	0.02046449
170	0x3c91cea2	0.017798726
171	0x3d579848	0.05263546
172	0x3ca4528f	0.020058898
173	0xbc0ad8d1	-0.008474545
174	0x3e51b8db	0.20480673
175	0xbf7b2332	-0.9810058
176	0xbb439571	-0.0029843713
177	0x3edfb6cb	0.43694147
178	0xbcb565cb	-0.022143265
179	0xbdd8bf67	-0.10583382
180	0x3bfbc756	0.007683675
181	0xbd20d4dd	-0.039265502
182	0xbcfa2924	-0.030537196
183	0x3cb6a0d8	0.022293493
184	0xbca461ab	-0.020066103
185	0xbd2e13ce	-0.042499356
186	0xbb3df260	-0.0028983578
187	0xbe2d7c47	-0.1694194
188	0x3d4af6b2	0.049551673
189	0x3f30be6a	0.6904055
190	0x3a01550b	0.0004933632
191	0xbc518094	-0.012787003
192	0xbecd7cf1	-0.40134385
193	0xbc16590c	-0.009176504
194	0x3cea5273	0.028603768
195	0x3c8cefc4	0.017204173
196	0xbc1c8c5f	-0.009554951
197	0x3d194840	0.03742242
198	0x3b53932a	0.0032283762
199	0x3c1cc509	0.009568461
200	0x3d049bfb	0.032375317
201	0xbd1565ab	-0.03647391
202	0x3d393a28	0.045221478
203	0xbc18deeb	-0.009330492
204	0xbce512c9	-0.027963059
205	0xbc9c139d	-0.019052321
206	0x3cb044f4	0.021517254
207	0x3c89ab13	0.016805207
208	0xbcd90aeb	-0.026494464
209	0xbd6fec06	-0.0585747
210	0xbdec4523	-0.11536624
211	0xbb945536	-0.0045267595
212	0x3fa0c019	1.2558624
213	0xbebb2c63	-0.36557302
214	0xbd192f6f	-0.03739875
215	0xbfc1568c	-1.5104537
216	0xbd69e151	-0.057099644
217	0xbdf50337	-0.11963504
218	0xbc4d1e1c	-0.012519386
219	0xbd0126a4	-0.03153099
220	0x3de3bb89	0.11119754
221	0x3d2c090c	0.042000815
222	0xbb9dc526	-0.0048147617
223	0x3ec48bcb	0.38387904
224	0xbf98ca54	-1.1936746
225	0xbcf8fe61	-0.030394735
226	0x3f35bdc5	0.7099269
227	0x3d076a72	0.0330605
228	0xbd03d673	-0.032186937
229	0xbf9c9d97	-1.2235593
230	0xbd0722c6	-0.032992147
231	0x3cacf0de	0.021110948
232	0x3cf6b3db	0.030115059
233	0x3d0d8420	0.034549832
234	0xbc824614	-0.015902556
235	0x3c7540d2	0.014969068
236	0xbc5aa664	-0.013345335
237	0x3ed43e64	0.4145385
238	0x3d14c55c	0.03632103
239	0x3d11769e	0.035513513
240	0xbf94a21c	-1.1611972
241	0x3d2ee1b4	0.042695716
242	0x3ea9b789	0.3314784
243	0xbd2e4eb5	-0.04255553
244	0x3ee8c01b	0.45459065
245	0xbcebcec0	-0.02878511
246	0x3f1675b9	0.5877338
247	0x3f208356	0.627004
248	0xbcec0a5d	-0.028813535
249	0x3c200a3d	0.009768066
250	0x3cc494a4	0.023996659
251	0xbcf63897	-0.030056281
252	0x3d383181	0.044969086
253	0xbebf0228	-0.37306333
254	0x3d388707	0.045050647
255	0x3d5df38c	0.054187343

net.4.bias f4 [4]
0	0xba44b659	-0.00075039786
1	0x3e70c0ef	0.23511098
2	0xbf824dcf	-1.0179995
3	0xbf068811	-0.5255137
