logs/PointMaze-Right/airl_sac/seed0-20231226-1522/model/step185000/disc.pth (torch, 90839 bytes, 10 tensors)

g.0.weight f4 [100, 6]
0	0x3ef65c58	0.48117328
1	0x3ebbf1d0	0.36707926
2	0xbeab30b4	-0.33435595
3	0xbf04870a	-0.51768553
4	0x3e360100	0.17773819
5	0xbe43b93c	-0.1911363
6	0xbe8b489c	-0.27203834
7	0x3e6b89d9	0.23001803
8	0x3e94f2b9	0.29091433
9	0xbe45f321	-0.19331028
10	0x3e175612	0.14778927
11	0x3ead7007	0.33874533
12	0xbf0b4828	-0.54406977
13	0xbe0e9b06	-0.13926324
14	0xbe83226d	-0.25612202
15	0x3dce2466	0.10065536
16	0x3e0ac57c	0.13551897
17	0x3e4f3668	0.20235598
18	0x3c1427ba	0.009042675
19	0xbd22ea0e	-0.039773993
20	0xbe65bd87	-0.2243558
21	0x3e8995f0	0.26872206
22	0x3ea57908	0.32318902
23	0x3eb4a4a0	0.3528185
24	0xbe9bc23d	-0.3042163
25	0xbd7c5d24	-0.061612263
26	0xbce63376	-0.02810071
27	0xbe441878	-0.19149959
28	0xbe80566a	-0.2506593
29	0x3eac03f9	0.3359678
30	0x3c075e5d	0.008262244
31	0xbeca4b36	-0.39510506
32	0xbe0c63bb	-0.13709919
33	0xbe5bb9db	-0.21457617
34	0x3ca3e87a	0.020008314
35	0x3adcfbc9	0.0016859706
36	0x3c9964ff	0.018724917
37	0xbea75e47	-0.32689115
38	0xbe085af7	-0.1331595
39	0xbe8bfba4	-0.27340424
40	0xbdf9814e	-0.12182866
41	0x3e08a279	0.13343228
42	0xbc76874b	-0.015046905
43	0xbe9fd2ef	-0.31215617
44	0x3d27cc31	0.040966216
45	0x3d7a0b23	0.061045777
46	0x3d806140	0.06268549
47	0xbe9f7faa	-0.31152087
48	0x3e2d299e	0.16910407
49	0x3e817cb1	0.25290444
50	0x3e8350ac	0.25647485
51	0x3e6ddd52	0.23228958
52	0xbe19812e	-0.14990684
53	0xbde28a05	-0.110614814
54	0x3e8ca355	0.27468362
55	0xbead7287	-0.3387644
56	0x3e725406	0.23664865
57	0xbea66cee	-0.32504982
58	0xbe94f694	-0.29094374
59	0xbb868aaf	-0.004105888
60	0x3ee9b71c	0.45647514
61	0x3e9efd73	0.3105274
62	0x3e925221	0.28578284
63	0xbe20c849	-0.15701403
64	0x3ebc894a	0.36823493
65	0xbdaaf4d5	-0.08347479
66	0x3ea0f90a	0.31440002
67	0x3eb4bfbe	0.35302538
68	0x3d9ad881	0.07560826
69	0xbec9aced	-0.39389744
70	0x3eb979cd	0.3622574
71	0xbe1b2653	-0.15151338
72	0xbe098da3	-0.13432936
73	0xbe9d0164	-0.30665123
74	0x3e9a18e1	0.30097106
75	0xbdda4969	-0.10658533
76	0x3eab4979	0.33454493
77	0x3d479610	0.048727095
78	0x3ee68c9c	0.4502915
79	0xbec9ccf7	-0.39414188
80	0xbeb4679d	-0.352353
81	0xbf085286	-0.5325092
82	0xbe5ee4a0	-0.21766901
83	0x3e1559b4	0.14585
84	0xbe31b0f7	-0.17352663
85	0x3dc4204a	0.09576471
86	0x3e85e4d7	0.26151153
87	0x3e8b2a27	0.27180597
88	0xbd8f83b2	-0.07007541
89	0x3e801dd7	0.25022766
90	0x3f0164d7	0.50544494
91	0x3d6e4dee	0.05817979
92	0xbe780a6e	-0.24222729
93	0xbe28b240	-0.16474247
94	0x3d65a708	0.056067497
95	0x3c84b723	0.016200608
96	0xbec5cedc	-0.38634384
97	0xbe9deb29	-0.30843475
98	0x3e80df8c	0.25170553
99	0x3e7fea2f	0.24991678
100	0xbe95a96c	-0.2923082
101	0x3ea08215	0.31349245
102	0x3e050d7a	0.12993422
103	0x3e609517	0.21931873
104	0x3d18aabc	0.0372722
105	0x3db0cb27	0.08632498
106	0xbdd75bca	-0.10515554
107	0x3eb8af15	0.36071077
108	0xbeafb8a6	-0.34320563
109	0xbe9cd6ee	-0.30632728
110	0x3ea53ae8	0.32271504
111	0x3eb6523b	0.35609612
112	0x3e297f2f	0.16552423
113	0x3e80f73f	0.25188634
114	0x3e26daf9	0.16294469
115	0xbea20cb0	-0.31650305
116	0x3eb8c9a5	0.36091343
117	0x3ec22a60	0.37922955
118	0x3ec2cf7f	0.38048932
119	0x3d4c7cb6	0.04992362
120	0x3d81549b	0.06314965
121	0x3d8e931c	0.06961653
122	0xbe0b54fc	-0.13606638
123	0x3e4a431a	0.1975216
124	0x3d54f1e8	0.051988512
125	0x3e9216f8	0.2853315
126	0x3ecdfc32	0.40231472
127	0x3e353bb6	0.17698559
128	0xbec72852	-0.3889795
129	0x3ea40aa9	0.32039383
130	0xbd3680ef	-0.044556554
131	0x3ea24698	0.31694484
132	0x3e79a6bd	0.24380012
133	0x3e89111e	0.26770872
134	0xbcc6be8f	-0.024260787
135	0xbe453595	-0.19258721
136	0x3e9c4f38	0.3052919
137	0xbde3bfd4	-0.11120573
138	0x3e5a903a	0.2134408
139	0xbebc5842	-0.36786085
140	0xbdc86736	-0.09785311
141	0x3de228da	0.11042948
142	0xbe356d35	-0.1771744
143	0x3e39e403	0.18153386
144	0x3ec4048b	0.38284716
145	0xbe3e5523	-0.18587165
146	0x3e0894a8	0.13337958
147	0xbe06f911	-0.13180949
148	0xbd55fa0b	-0.052240413
149	0xbd9cdc46	-0.07659201
150	0xbed82aa9	-0.42220047
151	0x3f035989	0.51308495
152	0xbe7579a0	-0.23972178
153	0x3eb43194	0.35194075
154	0x3ea2e197	0.31812736
155	0x3ec2e4a3	0.3806506
156	0xbf0415d1	-0.5159579
157	0xbe21a236	-0.15784535
158	0x3e78ca3b	0.24295895
159	0x3e059b0d	0.13047428
160	0xbec82aae	-0.39095062
161	0x3e146f24	0.14495522
162	0x3e10dd1f	0.14146851
163	0xbe69ea09	-0.22843184
164	0xbdaea74e	-0.085280046
165	0x3ecc1753	0.39861545
166	0x3eceb300	0.4037094
167	0xbce981dc	-0.028504305
168	0xbf020bc6	-0.50799215
169	0xbde0e56e	-0.1098126
170	0xbe830614	-0.25590575
171	0x3e193bdb	0.1496424
172	0xbeac610d	-0.33667794
173	0x3e921b92	0.2853666
174	0xbe8b9c94	-0.27267897
175	0xbec8913b	-0.39173302
176	0xbe3f06e7	-0.18654977
177	0xbebdfac0	-0.3710537
178	0xbd05ec15	-0.03269585
179	0xbdc84f0d	-0.09780703
180	0x3ec0d29f	0.3766069
181	0x3ec79d38	0.38987136
182	0x3ed0a57b	0.40751252
183	0xbe8772f3	-0.26454887
184	0x3e84fcd9	0.25974157
185	0x3e8b4aef	0.27205607
186	0x3da9d58d	0.08292685
187	0xbd5d9be3	-0.054103743
188	0x3e99f7e4	0.30071938
189	0x3ec82283	0.3908883
190	0xbe84fb30	-0.2597289
191	0x3d88662b	0.06660112
192	0x3eb3a0a0	0.35083485
193	0x3d906f73	0.07052507
194	0xbe3902af	-0.1806743
195	0xbec19ad0	-0.37813425
196	0x3d0e363e	0.034719698
197	0x3e05227f	0.1300144
198	0xbe2d0cd2	-0.16899422
199	0x3d4bdc04	0.04977037
200	0x3e034c62	0.12822106
201	0x3efeb46a	0.4974702
202	0xbdfc9cf8	-0.12334627
203	0x3e354667	0.17702638
204	0x3f07399e	0.5282229
205	0xbd4e721c	-0.050401792
206	0x3eb418fd	0.35175315
207	0xbef176d4	-0.4716097
208	0x3ed34e40	0.41270638
209	0x3db38c10	0.08766949
210	0x3e0044a3	0.12526183
211	0xbe9cae08	-0.30601525
212	0xbe952104	-0.2912675
213	0xbcee0534	-0.029055215
214	0xbe054910	-0.13016152
215	0xbd7146e6	-0.058905505
216	0xbca1ecd2	-0.019766245
217	0x3d83a08f	0.064271085
218	0xbe61eda6	-0.22063312
219	0x3e4127fe	0.18862912
220	0xbe1d68ea	-0.15372053
221	0xbdd1939c	-0.102332324
222	0x3e1b9c2d	0.15196295
223	0xbe91b3a7	-0.28457376
224	0xbd73e0f4	-0.059540704
225	0x3ec60176	0.3867299
226	0x3ec062d8	0.37575412
227	0xbea46c38	-0.32113814
228	0xbec0c047	-0.37646696
229	0xbeccbe6f	-0.3998904
230	0xbc19c939	-0.009386354
231	0xbe8db011	-0.2767339
232	0x3d7a3e53	0.061094593
233	0x3ecf96ea	0.40544826
234	0x3d253ebe	0.04034304
235	0xbea6e86f	-0.32599208
236	0x3eca3efd	0.3950118
237	0xbe2264ff	-0.1585884
238	0xbeb587b5	-0.354551
239	0x3c9bb98d	0.019009376
240	0xbd346265	-0.04403915
241	0xbe3dd487	-0.18538104
242	0xbe979526	-0.2960598
243	0x3c9d35a1	0.019190611
244	0xbe62bd03	-0.22142415
245	0x3eb24e4f	0.3482537
246	0x3edc2cae	0.43002838
247	0x3e9b77cc	0.30364835
248	0x3e536319	0.20643272
249	0x3d220777	0.0395579
250	0x3e8d81ba	0.27638036
251	0x3e605f70	0.21911407
252	0x3da4eaa8	0.0805257
253	0x3dd956ae	0.10612236
254	0x3e95be2e	0.29246658
255	0xbe010416	-0.12599215

g.0.bias f4 [100]
0	0x3e289fb1	0.16467167
1	0x3dd6719d	0.10470889
2	0xbc0db94c	-0.008650135
3	0x3e1fe906	0.15616235
4	0x3d749573	0.05971284
5	0xbe2e8558	-0.17043054
6	0xbec4b19c	-0.38416755
7	0x3e875858	0.26434588
8	0xbecaa6f0	-0.39580488
9	0x3ea32ca4	0.31869996
10	0xbe66edc9	-0.22551645
11	0xbda28835	-0.07936136
12	0xbebb39a4	-0.36567414
13	0x3ea26452	0.31717163
14	0xbecdf508	-0.40226007
15	0x3e3e24f1	0.1856878
16	0xbe93d4a6	-0.28873175
17	0x3da03d2f	0.0782417
18	0x3d6ec04c	0.058288857
19	0xbe860cea	-0.26181728
20	0xbe7d0b46	-0.24711332
21	0xbe290e06	-0.16509256
22	0xbb90c7db	-0.004418356
23	0x3e9b8f98	0.3038299
24	0xbec5ac11	-0.3860784
25	0x3ec142bb	0.37746224
26	0x3e85f8fe	0.26166528
27	0xbd8bbc7d	-0.06823061
28	0x3e56ad01	0.20964433
29	0xbe224498	-0.15846479
30	0x3e8b55b7	0.27213833
31	0x3ea5ceab	0.32384238
32	0xbe863199	-0.26209715
33	0x3e770665	0.24123533
34	0x3bfd8482	0.0077367434
35	0xbe71730d	-0.23579045
36	0xbe7c7da9	-0.2465731
37	0x3e632f79	0.22186078
38	0xbec67436	-0.38760537
39	0xbd51a54b	-0.051183026
40	0x3d89cf77	0.06729024
41	0xbe667d0f	-0.22508644
42	0x3e7185ee	0.23586246
43	0x3dd0edda	0.102016166
44	0x3de77071	0.11300743
45	0x3d8a3125	0.06747655
46	0x3eae9c97	0.34103844
47	0xbe93f9f7	-0.28901646
48	0x3dafb109	0.08578689
49	0xbd6120b9	-0.054962847
50	0xbca36677	-0.01994632
51	0xbe31b7a3	-0.17355208
52	0xbd94835a	-0.07251616
53	0xbe52f763	-0.20602183
54	0x3e258d60	0.16167212
55	0xbec5f497	-0.3866317
56	0xbe9957b4	-0.29949725
57	0x3e8ae46b	0.27127394
58	0x3d947f0d	0.072507955
59	0xbe236cae	-0.15959427
60	0x3e5a93fe	0.21345517
61	0x3e250023	0.16113333
62	0x3e5627f8	0.20913684
63	0x3e2a4822	0.16629079
64	0x3e4cb6c2	0.19991592
65	0xbea26a7f	-0.31721875
66	0xbebb74b4	-0.36612475
67	0xbad103c8	-0.0015946561
68	0xbea7276d	-0.32647267
69	0x3e6c02a6	0.23047885
70	0x3e07b507	0.1325265
71	0xbe7f2d97	-0.24919735
72	0x3ebaea14	0.36506712
73	0x3e5ebac6	0.21750936
74	0x3e811399	0.25210264
75	0xbe9a0580	-0.3008232
76	0x3db5d756	0.08878963
77	0x3ddd8246	0.10815863
78	0x3bfea545	0.0077711665
79	0x3e14a9f6	0.1451796
80	0x3ec7f83b	0.39056572
81	0x3da4ffef	0.08056628
82	0xbebc9ee2	-0.36839968
83	0x3ea72084	0.32641995
84	0x3e368ee2	0.17827943
85	0xbe46097d	-0.19339557
86	0xbeccf0c6	-0.40027446
87	0x3e44fb62	0.1923652
88	0x3e912a4f	0.2835259
89	0xbd841699	-0.06449623
90	0x3eccff1d	0.40038386
91	0xbcd54353	-0.02603308
92	0xbec930b0	-0.39294958
93	0x3e6f943c	0.2339639
94	0x3df65354	0.12027612
95	0xbe1bdc64	-0.15220791
96	0x3e82fa4f	0.25581595
97	0x3e0f6ad5	0.14005597
98	0xbec1c6c1	-0.3784695
99	0xbebafe56	-0.36522168

g.2.weight f4 [100, 100]
0	0x3dc5b3ba	0.09653421
1	0xbc18da2f	-0.009329363
2	0xbe8ba851	-0.27276853
3	0xbdc4496e	-0.09584318
4	0xbd926ab0	-0.07149255
5	0x3cb9931a	0.022653151
6	0xbbd7ab1a	-0.006581676
7	0x3c4b6118	0.012413286
8	0xbcdee893	-0.02721051
9	0xbebf7f6e	-0.3740191
10	0x3d1f0097	0.038818922
11	0x3d5a9966	0.05336895
12	0x3d583260	0.052782416
13	0xbedb0788	-0.42779183
14	0xbd6126b0	-0.054968536
15	0x3dc4e985	0.09614853
16	0x3c1da90d	0.009622824
17	0x3c7a1daa	0.0152658615
18	0xbe368b56	-0.1782659
19	0xbda76835	-0.08174173
20	0x3ceb34ad	0.028711641
21	0x3eb9be8e	0.36278194
22	0x3e078f5c	0.13238281
23	0x3e323516	0.17403063
24	0xbdc16180	-0.09442425
25	0x3d4db658	0.050222725
26	0xbe88527a	-0.26625425
27	0x3dc3b33a	0.09555669
28	0xbe958b53	-0.29207858
29	0x3dcadc5a	0.0990531
30	0x3d0ebaee	0.03484624
31	0x3c875f90	0.01652506
32	0x3c7027f8	0.014657967
33	0xbd3964fc	-0.04526232
34	0x3d17a9ae	0.037027054
35	0x3d3cc31a	0.0460845
36	0x3cf8cba7	0.030370547
37	0x3998b116	0.00029123639
38	0x3aa96800	0.0012924671
39	0x3b983180	0.0046445727
40	0xbd8e6f00	-0.06954765
41	0x3d9d4635	0.076794066
42	0x3d947c83	0.07250311
43	0xbeb39f7d	-0.35082617
44	0xbea9d9ac	-0.33173883
45	0x3cba16ee	0.022716012
46	0x3d4a44b5	0.04938193
47	0xbda0b7da	-0.07847567
48	0x3d31430c	0.04327683
49	0x3d353520	0.044240117
50	0x3db3672e	0.08759914
51	0xbd618ea0	-0.05506766
52	0x3b4a93df	0.0030910892
53	0xbd98548a	-0.074379995
54	0xbe8cb94e	-0.27485126
55	0x3d7842a2	0.06061042
56	0x3d4d88c0	0.050179243
57	0xbdb711fe	-0.089389786
58	0x3d1fbeb4	0.039000228
59	0xbf0f956a	-0.5608736
60	0xbe92960f	-0.2863011
61	0x3c61fb76	0.013792863
62	0xbcaa0103	-0.020752436
63	0x3dfa1120	0.122102976
64	0x3e1135b8	0.14180648
65	0xbf016388	-0.505425
66	0x3d96b15d	0.07358048
67	0xbdbce3ca	-0.09223135
68	0xbdbcd867	-0.09220963
69	0xbd3b1c05	-0.04568102
70	0xbe8e4ebb	-0.27794442
71	0x3b8f31ad	0.0043699355
72	0x3de59453	0.11209931
73	0xbe2269c4	-0.15860659
74	0xbd6aabb8	-0.05729267
75	0x3d097d80	0.03356695
76	0xbed0254c	-0.40653455
77	0xbe62fd08	-0.22166836
78	0xbe3e0b0b	-0.185589
79	0x3d9e6343	0.077337764
80	0x3c45e726	0.012079036
81	0xbd40b7fc	-0.04705046
82	0x3d991fed	0.074767925
83	0xbbb147e4	-0.0054101814
84	0xbd4e08f7	-0.05030152
85	0xbdb43a27	-0.08800154
86	0xbd81aafd	-0.063314416
87	0x3cc7cb66	0.02438898
88	0xbd9f84c2	-0.077889934
89	0xbe369bea	-0.17832914
90	0xbd04ee97	-0.0324541
91	0xbd08af67	-0.0333704
92	0xbd0cbae3	-0.034357917
93	0xbd114127	-0.035462525
94	0x3d0e7060	0.034775138
95	0xbd98a917	-0.07454126
96	0xbed4c153	-0.41553745
97	0xbf1a8fa6	-0.6037544
98	0xbd8edb3d	-0.0697541
99	0xbd86785d	-0.06565926
100	0x3da3e8a6	0.080033585
101	0xbd506378	-0.05087611
102	0xbe438c03	-0.19096379
103	0xbc08e55f	-0.008355468
104	0x3dc023c3	0.09381821
105	0x3d58c37a	0.052920796
106	0xbd143cd0	-0.036190808
107	0xb8bf144a	-9.111369e-05
108	0xbd8ca19a	-0.068667606
109	0xbef144c7	-0.47122785
110	0x3e08d0e9	0.13360943
111	0xbda87120	-0.08224702
112	0x3dc50aa5	0.09621171
113	0xbe3145e2	-0.17311814
114	0x3cd75a40	0.026288152
115	0xbd40c81d	-0.047065843
116	0xbcbc4b2d	-0.022985065
117	0xbdb40fbf	-0.08792066
118	0xbe6da065	-0.23205717
119	0xbdb76805	-0.08955387
120	0xbd980378	-0.074225366
121	0x3e8b1fd6	0.27172726
122	0x3d9900d0	0.07470858
123	0xbcee3499	-0.029077815
124	0xbd0ce3b7	-0.034396853
125	0x3ce48366	0.027894687
126	0xbe48a843	-0.19595437
127	0x3c501f4d	0.012702775
128	0xbe799204	-0.24372107
129	0x3d528267	0.051393893
130	0x3d9cb194	0.07651058
131	0xbdbb21a9	-0.091372795
132	0x3d92a76a	0.07160838
133	0x3d86f477	0.06589597
134	0x3ded89a6	0.1159852
135	0xbd341917	-0.04396924
136	0xbd600ea3	-0.05470146
137	0xbd2a578e	-0.041587405
138	0xbda97ea0	-0.08276105
139	0xbdb90488	-0.090340674
140	0x3d8a1178	0.06741613
141	0x3e0e4f0b	0.1389734
142	0x3d39f41b	0.045398813
143	0xbdf70496	-0.120614216
144	0xbecbe675	-0.39824262
145	0xbd4d0636	-0.05005475
146	0xbd93f4a5	-0.072243966
147	0x3da0c3cb	0.078498445
148	0xbcb3594b	-0.021893164
149	0x3c95e4f6	0.018297654
150	0x3d2e219e	0.04251253
151	0x3dc7fe58	0.09765309
152	0xbd2203cd	-0.039554406
153	0xbcb19793	-0.021678722
154	0xbe3f88da	-0.18704548
155	0x3d051cac	0.032498047
156	0xbcb86be0	-0.022512376
157	0x3daf4e92	0.08559908
158	0x3dbe28ff	0.09285163
159	0xbf1f52b9	-0.622356
160	0xbe674983	-0.22586636
161	0x3d83c083	0.06433203
162	0x3de64e9e	0.11245464
163	0x3d457060	0.048202872
164	0x3db362c6	0.08759074
165	0xbeece4d0	-0.4626832
166	0x3c7c1067	0.01538477
167	0xbd8939ed	-0.067005016
168	0xba4e2d9a	-0.00078650715
169	0x3d8f924f	0.07010328
170	0xbe22c623	-0.15895896
171	0x3b7fee2e	0.0039051878
172	0x3d3bceca	0.045851506
173	0xbe2db915	-0.16965134
174	0x3cace9ba	0.021107543
175	0x3cb0fe27	0.021605564
176	0xbeaf2634	-0.34208834
177	0xbe4cbdf8	-0.19994342
178	0xbe562e00	-0.20915985
179	0xbd879fb8	-0.06622261
180	0x3ba72d19	0.0051018116
181	0x3d6ca427	0.057773735
182	0xbd8471fd	-0.06467054
183	0x3cd534ea	0.026026208
184	0x3d93d515	0.072183765
185	0x3d9fef20	0.07809281
186	0xbcbd7dfa	-0.02313136
187	0x3d012713	0.031531405
188	0x3b7deb7c	0.0038745096
189	0xbe364fbe	-0.17803857
190	0x3d8d48fd	0.06898687
191	0x3c1c32f4	0.009533633
192	0xbbc2bce7	-0.005942929
193	0xbd925c5e	-0.07146524
194	0x3cd7acfa	0.026327599
195	0x3bc38833	0.005967164
196	0xbe9f9f14	-0.31176054
197	0xbece354d	-0.4027504
198	0x3ce04247	0.027375354
199	0x3d7fff93	0.062499594
200	0xbdbbd436	-0.091713354
201	0x3d8728ef	0.06599604
202	0xbdca6ebb	-0.098844014
203	0xbc44295e	-0.011972753
204	0x3d391140	0.045182467
205	0xbd891812	-0.06694044
206	0x3db2755b	0.0871379
207	0x3d5fcef9	0.054640744
208	0xbc8ccd7a	-0.017187823
209	0xbd493069	-0.049118433
210	0xbd547783	-0.051871788
211	0x3bd17dd0	0.006393172
212	0xbc432af3	-0.011912095
213	0xbc7174ec	-0.014737349
214	0x3cd0e6e0	0.025500715
215	0x3c2d082a	0.0105610285
216	0xbd2224d3	-0.0395859
217	0xbd71e102	-0.059052475
218	0xbdcceadf	-0.100057356
219	0xbc37b4dd	-0.011212555
220	0xbd13c173	-0.03607316
221	0x3d2812b3	0.041033458
222	0x3d40f21a	0.047105886
223	0xbd82dea3	-0.06390121
224	0x3d743960	0.05962503
225	0x3c268c90	0.010165349
226	0xbdd24b8e	-0.10268317
227	0xbcf450e5	-0.02982373
228	0xbd906ddc	-0.07052204
229	0xbd8c46a5	-0.06849412
230	0xbcb1bf6f	-0.021697728
231	0x3c84bfe7	0.016204787
232	0xbb9cad9a	-0.004781437
233	0xbc04f271	-0.008114443
234	0xbdc9945a	-0.09842749
235	0x3dc82388	0.09772402
236	0xbc9621cd	-0.018326664
237	0x3d989093	0.0744945
238	0x3dbcec18	0.09224719
239	0xbd3dbcda	-0.04632268
240	0x3da717ab	0.08158811
241	0xbd32d2d7	-0.043658104
242	0xbceec126	-0.029144835
243	0x3b614c0c	0.0034377603
244	0xbdb9cb22	-0.09071948
245	0xbd02f1dd	-0.03196894
246	0x3abe616f	0.0014524887
247	0x3d091f20	0.03347695
248	0x3d68403a	0.056701876
249	0xbd919b45	-0.071096934
250	0x3d9f1730	0.077680945
251	0x3b77d9cd	0.0037819028
252	0xbd9dc640	-0.07703829
253	0x3ba90133	0.0051576137
254	0x3d191d74	0.037381604
255	0xbd6163dd	-0.055026878

g.2.bias f4 [100]
0	0x3d6aa22f	0.057283577
1	0xbbc18990	-0.0059062913
2	0x3d7d7fe7	0.061889555
3	0x3c48e7a2	0.012262257
4	0x3c868ba1	0.016424002
5	0x3d87a389	0.06622989
6	0xbca2d040	-0.019874692
7	0x3da40b37	0.080099516
8	0xbd95bc80	-0.07311344
9	0x3d5c681b	0.05381022
10	0x3c94c24d	0.018159056
11	0xbcd3cf8d	-0.025855804
12	0x3db3d333	0.087805174
13	0x3c6006b3	0.013673472
14	0x3a313ca2	0.0006761049
15	0x3d925907	0.07145887
16	0x3c1882c9	0.009308525
17	0xbc3b62eb	-0.011437158
18	0xbd9aec25	-0.07564572
19	0x3ceade19	0.028670358
20	0xbdb1011f	-0.08642792
21	0x3d9c058f	0.07618248
22	0x3d4b99b6	0.049707137
23	0x3dafd874	0.08586207
24	0xbdaf12a7	-0.085484795
25	0xbd5997f1	-0.05312342
26	0x3d97ba56	0.07408588
27	0xbdcba843	-0.09944203
28	0x3cbdc866	0.023166846
29	0x3dcc6462	0.09980084
30	0xbcb2991f	-0.02180153
31	0xbb4cc516	-0.0031245402
32	0xbd37488d	-0.044746924
33	0xbd5f2627	-0.054479744
34	0xbd4a35df	-0.04936778
35	0xbcb6bd40	-0.022307038
36	0xbd64563d	-0.055746306
37	0x3d48430b	0.048892062
38	0x3dbc6f01	0.0920086
39	0xbd0e5d17	-0.034756746
40	0x3cfde9c7	0.030995263
41	0xbd9eef88	-0.07760531
42	0xbdcdf677	-0.10056775
43	0xbcf53f29	-0.029937344
44	0x3d126ba8	0.0357472
45	0xbd76c1a5	-0.060243268
46	0xbdc7e3f4	-0.097602755
47	0x3cfe2885	0.03102518
48	0xbd494186	-0.049134754
49	0xbd84a1ca	-0.06476171
50	0xbc5b0674	-0.013368238
51	0xbc7bece7	-0.015376306
52	0x3d9e6401	0.07733918
53	0x3dca4a70	0.09877479
54	0xbd6b1113	-0.05738933
55	0xbd37e59b	-0.044896703
56	0xbcb7950d	-0.02240994
57	0x3d88af3f	0.066740505
58	0xbc4cda0d	-0.012503159
59	0xbb1e6e00	-0.0024174452
60	0x3bc1c336	0.0059131635
61	0xbc229f45	-0.009925668
62	0xbcec6580	-0.028856993
63	0x3d980943	0.074236415
64	0xbc13bcb1	-0.0090171555
65	0x3d1a2125	0.037629265
66	0x3cb08059	0.021545576
67	0xbdee4490	-0.11634171
68	0x3c4adf6b	0.012382369
69	0xbd92a2e2	-0.07159974
70	0xbd3ca5e0	-0.04605663
71	0xbb6c5b67	-0.0036065222
72	0xbcac08c0	-0.021000266
73	0x3dc4259e	0.095774874
74	0x3de09545	0.10965971
75	0xbda29d70	-0.07940185
76	0x3d104bb0	0.03522843
77	0x3d3d5ef7	0.046233144
78	0xbbaac433	-0.005211377
79	0xbce613bd	-0.028085584
80	0xbdb75258	-0.08951253
81	0xbd8ebea4	-0.069699556
82	0xbd8da28a	-0.069157675
83	0x3d3debab	0.04636733
84	0xbd666919	-0.056252573
85	0x3da63f75	0.08117572
86	0xbc8ae216	-0.01695351
87	0xbd2613ba	-0.040546156
88	0xbca54edf	-0.02017921
89	0x3c3e2ba7	0.011607087
90	0x3d9c32a3	0.07626846
91	0xbd2ed25a	-0.042681076
92	0xbc1c430d	-0.0095374705
93	0x3cbc5988	0.02299191
94	0x3dc2a507	0.09504133
95	0x3c94ff30	0.01818809
96	0x3dd4253d	0.10358665
97	0x3cdb373e	0.02675974
98	0x3c3fac9c	0.011698868
99	0x3cf6bfc4	0.030120738

g.4.weight f4 [1, 100]
0	0x3e75cf85	0.24004944
1	0x3eab3a2e	0.33442825
2	0x3db76885	0.089554824
3	0xbe4845f5	-0.19557936
4	0x3c595f91	0.013267414
5	0xbe0f4682	-0.1399174
6	0x3dc95e97	0.09832495
7	0x3e8e157c	0.27750766
8	0xbd22e9f3	-0.039773893
9	0xbe7e8477	-0.24855219
10	0xbd1e40d3	-0.03863604
11	0x3e8a7989	0.2704585
12	0xbe18f34c	-0.1493656
13	0xbd98cd05	-0.07460979
14	0xbe1b69e7	-0.15177117
15	0x3d14e346	0.036349557
16	0xbf15bac0	-0.5848808
17	0xbe5a10de	-0.21295497
18	0x39b35667	0.00034205915
19	0x3e99b77e	0.30022806
20	0xbdc5b9a0	-0.09654546
21	0xbe4af8e6	-0.1982151
22	0xbe5a769d	-0.2133431
23	0x3cac6323	0.021043366
24	0x3bd6999a	0.0065490725
25	0xbe31f391	-0.1737807
26	0x3d25df86	0.04049637
27	0xbdc3673d	-0.095411755
28	0x3e9ddbc1	0.3083172
29	0x3ea975ac	0.3309759
30	0xbdebcad5	-0.115132965
31	0x3e86e87c	0.26349247
32	0x3ccc3b67	0.024930669
33	0xbc8a79da	-0.016903806
34	0xbe661fcb	-0.22473066
35	0x3ed21d5a	0.41038018
36	0x3e96ea1f	0.29475495
37	0x3e8bf9f1	0.27339128
38	0xbdeda60a	-0.11603935
39	0xbd6823a0	-0.0566746
40	0x3d9ac08a	0.07556255
41	0x3daadaef	0.083425395
42	0x3e9ab793	0.3021818
43	0x3e8c09c5	0.27351204
44	0xbe66fc66	-0.2255722
45	0xbe844b71	-0.25838807
46	0x3d808722	0.062757745
47	0xbe8cf9cc	-0.2753433
48	0xbe3e480e	-0.18582174
49	0x3d808258	0.06274861
50	0x3aae0af9	0.0013278417
51	0x3d51aa90	0.05118805
52	0xbe3e8702	-0.18606189
53	0x3eadbe62	0.33934313
54	0x3cc11a12	0.023572002
55	0x3d39c43f	0.04535317
56	0x3d22083a	0.039558627
57	0xbebed00d	-0.37268105
58	0xbda076f7	-0.07835191
59	0x3d5b17da	0.053489543
60	0x3c3ca586	0.011514073
61	0x3e9bf6ed	0.30461827
62	0xbe29cccc	-0.1658203
63	0xbe6dd03f	-0.23223971
64	0xbe2d15f1	-0.16902901
65	0xbe3759e0	-0.17905378
66	0x3da26c09	0.07930762
67	0xbf203b64	-0.6259062
68	0xbe5a4a0c	-0.21317309
69	0x3e9c0f69	0.30480507
70	0x3ea2757d	0.3173026
71	0x3db830b5	0.08993665
72	0x3db0732f	0.086157195
73	0xbe3bc7ee	-0.18337986
74	0xbde7b859	-0.113144584
75	0x3d96b02e	0.07357822
76	0x3eb09559	0.34488943
77	0x3c029768	0.007970668
78	0xbd0af0ea	-0.03392116
79	0xbd30ecc1	-0.043194536
80	0xbd4953aa	-0.049152054
81	0xbe609718	-0.21932638
82	0xbda56753	-0.08076348
83	0x3d2a4854	0.041572884
84	0x3d47cbc0	0.048778296
85	0xbe468403	-0.19386296
86	0xbe727d07	-0.23680507
87	0xbdbf3157	-0.09335583
88	0xbe357dd4	-0.17723781
89	0xbd5a83ed	-0.05334847
90	0xbe810f5d	-0.25207034
91	0xbd28daca	-0.04122428
92	0x3db1d490	0.08683121
93	0xbe71b71b	-0.23605005
94	0xbe0bbfda	-0.13647404
95	0xbe678057	-0.22607552
96	0xbe170b30	-0.14750361
97	0x3e886cea	0.26645595
98	0x3d5c0363	0.053714167
99	0xbe278f13	-0.16363172

h.0.weight f4 [100, 6]
0	0x3eae17d4	0.34002554
1	0xbd91d5e6	-0.07120876
2	0xbe49328c	-0.19648188
3	0xbe43315d	-0.190618
4	0x3eae73e4	0.34072793
5	0x3e314588	0.1731168
6	0x3ecd8104	0.40137494
7	0x3ebf3b8b	0.37350115
8	0xbc3231df	-0.010876148
9	0xbc5f6185	-0.01363409
10	0x3ed81259	0.42201498
11	0xbdc174e8	-0.09446126
12	0x3ef617a8	0.48064923
13	0xbe84b5a4	-0.2591983
14	0xbea7b4cd	-0.32755128
15	0x3ea1d541	0.31608012
16	0xbe8ad0b4	-0.27112353
17	0xbe889089	-0.26672772
18	0xbd8ee53d	-0.069773175
19	0x3e35f67b	0.17769806
20	0xbea391fc	-0.31947315
21	0x3ea57373	0.32314643
22	0x3d7ab835	0.06121083
23	0xbe704bea	-0.23466459
24	0x3e08fc70	0.13377547
25	0x3ef96615	0.48710695
26	0xbc2f07b3	-0.010682988
27	0x3ec9dabe	0.394247
28	0x3e224ec8	0.15850365
29	0xbd95c0d6	-0.07312171
30	0x3d2de9a5	0.04245915
31	0x3c935df1	0.01798913
32	0xbe0ebe62	-0.13939813
33	0x3eeca3dc	0.46218765
34	0x3ecd08b3	0.400457
35	0x3e3ccf59	0.18438472
36	0xbe44d618	-0.19222295
37	0x3db72687	0.089428954
38	0xbd0aaece	-0.033858113
39	0x3d29e600	0.04147911
40	0xbe5c3882	-0.21505931
41	0x3e0ea0a2	0.13928464
42	0x3e88ed9b	0.2674378
43	0x3e84377c	0.2582358
44	0xbe28d98c	-0.16489238
45	0xbeab3258	-0.33436847
46	0x3e4eb4e6	0.20186195
47	0x3ea05229	0.31312683
48	0xbd988173	-0.074465655
49	0xbcc99ac0	-0.024609923
50	0x3ec625bb	0.3870066
51	0xbeb7b586	-0.3588068
52	0x3e994200	0.29933167
53	0x3e0cdded	0.13756533
54	0x3e78c7da	0.24294987
55	0x3e7ecb12	0.24882153
56	0x3e0b306f	0.13592695
57	0xbe8f4df8	-0.27989173
58	0x3d9eaff6	0.07748406
59	0xbe8de64b	-0.27714762
60	0x3ea422c7	0.32057783
61	0x3ea00e4f	0.31260917
62	0x3d64406d	0.055725504
63	0x3e1a2372	0.15052584
64	0xbeb45cea	-0.35227138
65	0x3cc7961d	0.024363572
66	0x3ed52c49	0.4163535
67	0xbe8ee896	-0.27911824
68	0xbeb2d65d	-0.3492917
69	0xbe829437	-0.25503704
70	0xbc1c443e	-0.009537755
71	0x3ea2e1af	0.31812808
72	0x3e9a816e	0.30176872
73	0x3c7b449c	0.015336182
74	0xbebf46f3	-0.37358817
75	0xbeab9bf2	-0.33517414
76	0x3dae9161	0.085238226
77	0x3e260142	0.16211417
78	0x3f1926f9	0.5982509
79	0x3e40b1cd	0.18817826
80	0x3d1d3284	0.038378254
81	0xbe0188ce	-0.12649843
82	0x3e1ae229	0.15125336
83	0xbe49ed69	-0.19719471
84	0xbeafb2ef	-0.34316203
85	0x3ec7e138	0.39039016
86	0xbe865ee2	-0.26244265
87	0xbe82c95f	-0.2554426
88	0x3ebde1e3	0.370864
89	0x3ea92819	0.33038405
90	0x3d97fb64	0.07420996
91	0x3e0688cc	0.13138121
92	0x3e53f775	0.20699866
93	0x3c93ef27	0.018058373
94	0xbeb161db	-0.3464497
95	0x3cb8dc3f	0.022565959
96	0x3f0ea898	0.55726004
97	0x3ecf17af	0.40447757
98	0x3e30d5d7	0.17269073
99	0x3e3aedb6	0.18254742
100	0xbe64e4b9	-0.22352876
101	0xbea22aa3	-0.31673154
102	0xbe579270	-0.21051955
103	0x3dc6d462	0.097084776
104	0xbd88d825	-0.06681851
105	0xbc7c3ffe	-0.015396116
106	0xbc936000	-0.017990112
107	0x3ea928c6	0.3303892
108	0x3ede8670	0.43461943
109	0x3ea7f2d6	0.32802457
110	0x3a21db92	0.0006174381
111	0xbcab5176	-0.020912867
112	0x3daa2e6a	0.08309634
113	0x3e265309	0.16242613
114	0xbe79dbeb	-0.24400298
115	0x3ee8fbec	0.455047
116	0xbdbbb244	-0.09164861
117	0x3e0893f6	0.13337693
118	0xbe9b5371	-0.30337098
119	0xbe6d0bad	-0.23148985
120	0x3cb232ca	0.021752734
121	0xbecc13f8	-0.39858985
122	0xbe2131d7	-0.15741669
123	0xbdb9774e	-0.09055959
124	0x3e9a931e	0.30190367
125	0xbe8719a1	-0.2638674
126	0x3e93f52a	0.28897983
127	0xbe5a0a3c	-0.21292967
128	0xbe77dfc5	-0.24206455
129	0xbe4451d7	-0.19171844
130	0xbec3bee1	-0.38231567
131	0xbca336fd	-0.019923681
132	0xbe628de9	-0.22124447
133	0xbe44f16e	-0.19232723
134	0x3eb2745f	0.3485441
135	0xbe2b61d2	-0.16736534
136	0x3ec6011b	0.38672718
137	0xbec9516a	-0.39319927
138	0x3f01b4b4	0.50666356
139	0xbe17ce4f	-0.14824794
140	0x3d516369	0.051120196
141	0x3eaa1007	0.33215353
142	0x3eab71b6	0.33485192
143	0xbc49f491	-0.012326376
144	0xbeaccbcd	-0.33749238
145	0xbeb73ded	-0.35789433
146	0xbd0761a1	-0.03305209
147	0xbd7c38f6	-0.06157776
148	0xbe7ff178	-0.24994457
149	0xbeb13fac	-0.3461889
150	0x3e3417ed	0.17587252
151	0xbed033bb	-0.40664467
152	0x3e9f2bda	0.31088144
153	0x3dea522c	0.11441454
154	0x3eaa9f4c	0.3332466
155	0x3e41063f	0.18850039
156	0xbe5042c7	-0.20337974
157	0x3e0290e9	0.12750591
158	0xbe358b45	-0.17728908
159	0xbd9ebd4b	-0.077509485
160	0x3e82e846	0.25567836
161	0xbdb29836	-0.08720438
162	0x3d965b14	0.073415905
163	0xbe77b9c4	-0.24191958
164	0xbeb81017	-0.35949776
165	0x3e0b09aa	0.13577905
166	0xbea55889	-0.3229411
167	0xbc475914	-0.012167234
168	0x3e1114c6	0.1416808
169	0xbe8d5906	-0.27606982
170	0xbe4ccbe3	-0.19999652
171	0x3ea0596b	0.3131822
172	0xbe9b6ac5	-0.30354896
173	0x3e1cecfc	0.15324777
174	0xbed6b207	-0.419327
175	0xbe7b0c0e	-0.24516317
176	0x3ec88446	0.39163417
177	0x3e42f702	0.19039539
178	0xbc5c8364	-0.01345906
179	0x3eac8466	0.33694762
180	0x3f0da5ae	0.5533093
181	0x3e830b94	0.2559477
182	0xbc1525d5	-0.009103258
183	0xbeb0d875	-0.34540144
184	0x3e4f9793	0.20272665
185	0x3e3bf337	0.18354498
186	0x3e84a84d	0.25909653
187	0xbd79a753	-0.06095059
188	0x3ca63faf	0.020294039
189	0xbe579b46	-0.21055326
190	0xbe958090	-0.29199648
191	0x3d4de78b	0.050269645
192	0xbf0fc7dd	-0.5616434
193	0xbd93416f	-0.07190215
194	0x3eabd73c	0.33562648
195	0x3d34161a	0.04396639
196	0x3e40f9aa	0.1884524
197	0xbd0a3fea	-0.03375236
198	0xbf0190f5	-0.5061181
199	0x3eaaeae8	0.33382344
200	0x3e9663e5	0.29373088
201	0xbe02e798	-0.12783659
202	0xbe0b541f	-0.13606308
203	0x3d9c55d5	0.07633559
204	0x3dbe0f3c	0.092802495
205	0x3e2d2666	0.16909179
206	0x3d9e1ef8	0.077207506
207	0xbcfd5686	-0.030925047
208	0x3ea115eb	0.31462035
209	0xbebacd21	-0.36484626
210	0xbea068db	-0.31329998
211	0xbe8226e3	-0.25420293
212	0xbd8a84a7	-0.06763583
213	0x3c275c07	0.010214812
214	0xbe70d805	-0.23519905
215	0x3d5a9919	0.05336866
216	0xbe0442dd	-0.12916131
217	0x3e330a4e	0.174844
218	0x3ebfe032	0.37475735
219	0xbe76c999	-0.24100341
220	0xbe5332e0	-0.20624876
221	0xbe38fa0f	-0.1806414
222	0xbe289a6f	-0.16465162
223	0x3eb1b064	0.34704888
224	0x3eaf3793	0.34222087
225	0xbdea6f14	-0.11446968
226	0xbe827268	-0.2547791
227	0xbeb7da02	-0.35908514
228	0x3e98291c	0.29718864
229	0xbeb40812	-0.35162407
230	0xbeabd3a2	-0.335599
231	0xbe1ee713	-0.15517835
232	0xbeb658f3	-0.35614738
233	0x3c52e94a	0.012873003
234	0xbe94eaa1	-0.29085258
235	0x3e15ec20	0.14640856
236	0xbd080634	-0.03320904
237	0xbea6b4dd	-0.32559863
238	0x3e77c2a8	0.24195349
239	0xbe0d84d9	-0.13820209
240	0xbeb5d152	-0.3551126
241	0xbe52cf95	-0.20586999
242	0x3e526d14	0.20549423
243	0x3eac0d25	0.33603778
244	0x3d470549	0.048589025
245	0x3e5d3919	0.21603812
246	0x3e42a654	0.19008762
247	0xbebbe55c	-0.36698425
248	0xbd4c582c	-0.049888775
249	0xbe77a649	-0.24184527
250	0xbdb3134b	-0.08743914
251	0x3ecdc719	0.40190962
252	0x3e0ceb0a	0.13761535
253	0xbdd5c0f0	-0.104371905
254	0xbe5eefda	-0.21771184
255	0xbea7f3e0	-0.3280325

h.0.bias f4 [100]
0	0x3e5ee6b7	0.21767698
1	0x3e7fe674	0.24990255
2	0x3e262015	0.16223176
3	0x3de1b273	0.110203646
4	0xbd987069	-0.074433155
5	0xbdb772b6	-0.08957426
6	0x3eabc145	0.3354589
7	0xbe85f339	-0.26162127
8	0xbeae8d5b	-0.3409222
9	0x3e12bc12	0.14329556
10	0xbe8af933	-0.2714325
11	0xbe05646d	-0.1302659
12	0x3b4013ac	0.00293086
13	0x3e67d16b	0.2263848
14	0xbe8ef9cd	-0.27924958
15	0xbe348bc8	-0.17631447
16	0x3d4bdd42	0.049771555
17	0x3de5ee54	0.11227098
18	0x3c11e867	0.008905507
19	0xbc5b54da	-0.013386929
20	0xbe9cad58	-0.30601
21	0x3b2bcf0a	0.0026215934
22	0xbe907cf1	-0.28220323
23	0x3d0bb147	0.03410461
24	0xbdf4491c	-0.11928007
25	0x3e83934f	0.25698325
26	0xbe60c070	-0.21948409
27	0xbe862743	-0.2620183
28	0xbeacd7c2	-0.3375836
29	0x3e97c16e	0.29639763
30	0x3dcfc014	0.10144058
31	0xbe046196	-0.12927851
32	0x3d86ee75	0.06588451
33	0x3ea322a7	0.31862375
34	0x3e91ea2c	0.2849897
35	0xbdeabc0f	-0.114616506
36	0xbe4cbd0c	-0.1999399
37	0xbe596339	-0.21229257
38	0xbea2edc6	-0.31822032
39	0xbe6368ec	-0.22207993
40	0xbe89139d	-0.26772776
41	0x3e6e122a	0.23249117
42	0xbde2f4c7	-0.11081844
43	0xbde916fc	-0.11381337
44	0x3d12e82c	0.035865948
45	0x3ebc72a1	0.36806205
46	0xbea2e019	-0.31811598
47	0x3d6ad053	0.05732758
48	0x3e7cb03b	0.24676602
49	0xbe208058	-0.1567396
50	0xbeb97cdc	-0.36228073
51	0x3eccaae0	0.39974117
52	0x3e8ec6f0	0.27886152
53	0xbe969faf	-0.29418704
54	0x3ea7c883	0.32770166
55	0xbead893c	-0.33893764
56	0xbe653390	-0.22382951
57	0x3e2d8131	0.16943814
58	0x3e0a5a00	0.13510895
59	0x3d47877c	0.048713192
60	0x3e0a1e21	0.13488056
61	0xbe9e024f	-0.30861136
62	0xbe6a2a51	-0.22867705
63	0x3ec200b1	0.37891153
64	0x3eb637c4	0.3558942
65	0x3e54752f	0.20747827
66	0x3d461f09	0.04836944
67	0xbe3aa84a	-0.1822826
68	0x3eccd002	0.40002447
69	0x3e807243	0.25087175
70	0x3e9ef7ea	0.31048518
71	0xbe772421	-0.24134876
72	0x3e98ad2d	0.29819623
73	0xbd693233	-0.05693264
74	0x3ec0a80b	0.37628207
75	0xbe0a5f96	-0.13513026
76	0x3e8d2f24	0.27575028
77	0x3d1f920f	0.03895765
78	0x3eb0dbfa	0.3454283
79	0x3deca7e5	0.11555461
80	0x3e494743	0.1965609
81	0xbe9c5b00	-0.30538177
82	0x3ea5e035	0.3239762
83	0xbe1c6d6b	-0.15276115
84	0xbeb22e4b	-0.34800944
85	0x3d094b69	0.033519182
86	0x3e95e536	0.29276437
87	0xbec7d237	-0.3902757
88	0xbea343f8	-0.31887794
89	0xbe8aacc2	-0.2708493
90	0x3e30c075	0.17260917
91	0x3dab9e18	0.08379763
92	0x3eaddadb	0.33956036
93	0xbcf2dbba	-0.02964579
94	0x3e6ecc53	0.23320131
95	0x3dd04710	0.10169804
96	0x3e74acdb	0.23894064
97	0x3eaec9e2	0.341384
98	0x3de3fd0c	0.11132249
99	0xbcc150d2	-0.023598108

h.2.weight f4 [100, 100]
0	0xbce2a413	-0.027666127
1	0x3dd041c8	0.10168797
2	0x3c878b91	0.016546043
3	0x3ddc3574	0.10752383
4	0x3e4452aa	0.19172159
5	0xbcf11461	-0.029428663
6	0x3d2a132f	0.0415222
7	0xbd4776a5	-0.048697133
8	0xbdc1d100	-0.09463692
9	0xbd5b41c1	-0.053529505
10	0xbc8a4633	-0.016879177
11	0x3da171d6	0.078830406
12	0xbda12c71	-0.07869805
13	0xbd70c5e5	-0.058782477
14	0x3cbb52dc	0.022866659
15	0xbca5a033	-0.02021799
16	0xbd282fa3	-0.041061055
17	0x3e35cd55	0.17754109
18	0xbd1f0840	-0.038826227
19	0x3e8e097a	0.27741605
20	0x3cf89a67	0.030347062
21	0x3da148f5	0.078752436
22	0xbbeb1d00	-0.007175088
23	0xbd80b513	-0.06284537
24	0xbd9ae147	-0.075624995
25	0x3ca12652	0.019671593
26	0x3d8416bf	0.06449651
27	0xbd2e96ba	-0.042624213
28	0xbd55c4b3	-0.05218954
29	0x3d7f8159	0.062379215
30	0xbd91f1f9	-0.07126231
31	0x3d412ae0	0.04716003
32	0xbe155d4c	-0.14586371
33	0x3e1b68e6	0.15176734
34	0xbd24b82c	-0.040214702
35	0xbd8a1e2d	-0.06744037
36	0xbd8014f3	-0.06253996
37	0xbd0ae71d	-0.033911813
38	0x3c5ff95a	0.01367029
39	0xbcb0573a	-0.021525968
40	0x3d018ad0	0.031626523
41	0x3e49518b	0.19660012
42	0x3d09a9da	0.03360925
43	0xbe9840dd	-0.29736987
44	0x3f08e4f6	0.53474367
45	0x3ca070d2	0.019585047
46	0x3d3d2d0a	0.04618553
47	0x3dcdd0de	0.10049604
48	0xbd802753	-0.062575005
49	0xbbc8bb4d	-0.0061258436
50	0xbdfbad1d	-0.12288878
51	0xbdb39f9e	-0.08770679
52	0x3de9f99e	0.11424564
53	0xbca25f33	-0.019820785
54	0xbbcd65ac	-0.0062682237
55	0x3b1daf9a	0.0024060966
56	0xbd735e77	-0.05941626
57	0x3e0270e0	0.12738371
58	0xbe384ccd	-0.17998047
59	0xbe1694d4	-0.14705211
60	0x3c4cd771	0.012502537
61	0x3e99b05f	0.30017373
62	0xbd5cb691	-0.053885046
63	0xbc59a403	-0.013283732
64	0x3cc5ec62	0.024160568
65	0x3e24affe	0.1608276
66	0x3d0e488a	0.034737147
67	0x3d45e960	0.048318267
68	0x3dc779a1	0.09739996
69	0x3a638b1a	0.00086800905
70	0x3d7b67c2	0.061378248
71	0x3cf25b00	0.029584408
72	0xbdd9764e	-0.10618268
73	0xbd4035b7	-0.046926226
74	0x3ddde818	0.10835284
75	0xbdc29648	-0.0950132
76	0x3bab385f	0.005225226
77	0x3ecab25d	0.39589205
78	0xbd3506f0	-0.04419607
79	0xbd6c9493	-0.05775888
80	0x3e5097f3	0.20370464
81	0xbcd340ba	-0.0257877
82	0xbdfff643	-0.124981426
83	0xbe2db937	-0.16965185
84	0x3d9cd658	0.0765807
85	0xbe3a0d35	-0.181691
86	0x3e1577d7	0.14596497
87	0x3cd54707	0.026034845
88	0xbd1e7740	-0.038687944
89	0xbd91e4ef	-0.07123744
90	0xbd2add29	-0.04171482
91	0x3e619d0e	0.22032568
92	0xba26663c	-0.00063476316
93	0x3d8ef082	0.06979467
94	0x3b62cfcb	0.0034608718
95	0xbd29c61f	-0.04144871
96	0xbd123ef2	-0.03570456
97	0x3de40a75	0.11134807
98	0x3e0baa9a	0.13639298
99	0x3d62af82	0.05534316
100	0xbd67b8a3	-0.056572568
101	0xbd4e4c37	-0.050365653
102	0x3be0ee1a	0.0068643214
103	0xbbb971cd	-0.005659318
104	0x3d0ebc43	0.03484751
105	0x3db17de0	0.08666587
106	0xbc714167	-0.014725066
107	0xbd034837	-0.03205129
108	0xbcdaaef3	-0.02669475
109	0xbd8cdf8d	-0.068785764
110	0x3cf8d22d	0.030373657
111	0x3d3b28d0	0.04569322
112	0xbdbec223	-0.093143724
113	0xbc8fb0a0	-0.017540276
114	0x3d67d02d	0.056595016
115	0x3cf04873	0.029331421
116	0xbd3e7257	-0.04649576
117	0x3d3e4e07	0.04646113
118	0x3da7d2f2	0.081945315
119	0xbdac1e07	-0.08404165
120	0x3cc4d207	0.02402593
121	0xbd1eec77	-0.03879973
122	0xbdbf4940	-0.09340143
123	0x3c326cc0	0.010890186
124	0xbd3cae87	-0.04606488
125	0x3d57830d	0.052615214
126	0x3d6a23f7	0.057163205
127	0x3d4f4827	0.05060592
128	0xba497267	-0.0007684589
129	0xbdb8d655	-0.090252556
130	0xbda26467	-0.079293065
131	0x3d29bbd3	0.04143889
132	0xbda03223	-0.07822063
133	0xbd68429a	-0.05670414
134	0xbd0b3afa	-0.03399179
135	0xbccabb33	-0.024747467
136	0x3d874ead	0.06606803
137	0xbc16b380	-0.00919807
138	0x3d209607	0.039205577
139	0x3dc34c45	0.09536032
140	0x3c20711a	0.0097925905
141	0x3b147733	0.0022654056
142	0x3d5deb20	0.05417931
143	0x3d6f71d3	0.05845816
144	0x3dc2d32d	0.09512935
145	0xbd9a2df3	-0.07528295
146	0x3d2a2770	0.041541517
147	0x3971d000	0.00023061037
148	0x3d132203	0.035921108
149	0xbdcb54f2	-0.099283114
150	0x3d282383	0.04104949
151	0x3d21907a	0.039444424
152	0xbce2799a	-0.027645875
153	0xbdc85cd0	-0.097833276
154	0x3db921d5	0.09039656
155	0x3cab7187	0.020928157
156	0x3d0e14c7	0.034687784
157	0xbd87cf88	-0.0663138
158	0xbdb597fd	-0.0886688
159	0x3d73a55a	0.059483863
160	0xbd443e33	-0.04791088
161	0xbdb6db52	-0.08928551
162	0xbdb458b2	-0.0880598
163	0x3d432120	0.047639012
164	0x3d498777	0.049201455
165	0x3d935e9d	0.071957804
166	0x3d3184bd	0.04333948
167	0xbd36b24a	-0.044603623
168	0x3bcf5d1a	0.0063282372
169	0xbd0d1bad	-0.03445022
170	0xbd90cdcb	-0.07070502
171	0xbd2c9e7d	-0.042143334
172	0xbc87d560	-0.016581237
173	0xbc515c80	-0.012778401
174	0xbc9f71c7	-0.019463433
175	0xbdadf905	-0.08494762
176	0xbd1a846d	-0.037723947
177	0xbd54e2f7	-0.051974263
178	0xbcf87c80	-0.030332804
179	0xbd8a363a	-0.06748624
180	0xbd324eda	-0.04353223
181	0x3d86960d	0.06571589
182	0xbdc78738	-0.09742588
183	0xbd7e46ba	-0.06207917
184	0xba2a4400	-0.0006495118
185	0xbd763823	-0.06011213
186	0xbcbe49b3	-0.023228502
187	0xbda65e5a	-0.08123465
188	0xbd2524da	-0.040318348
189	0x3c9d0a53	0.019169962
190	0xbb752a00	-0.0037409067
191	0xbdbf9708	-0.09354979
192	0xba88ae00	-0.0010427833
193	0x3d797690	0.060904086
194	0xbdc893bf	-0.09793805
195	0xbd1cae1d	-0.038251985
196	0xbdb3e4fa	-0.08783908
197	0x3c8d0a60	0.017216861
198	0x3d657e5a	0.0560287
199	0xbcfab493	-0.030603683
200	0x3d7e7e66	0.06213226
201	0x3aa3185a	0.001244317
202	0xbdd10616	-0.10206239
203	0x3e799bb7	0.24375807
204	0x3dee7a44	0.11644414
205	0x3e1ef6c8	0.15523827
206	0x3d6d43f6	0.05792614
207	0x3dbdcbea	0.09267409
208	0x3d309017	0.043106165
209	0x3d12f731	0.03588027
210	0x3d49719a	0.049180605
211	0xbd54f846	-0.051994585
212	0xbe808549	-0.25101689
213	0x3ba9a8c0	0.0051775873
214	0xbb9d16cf	-0.0047939788
215	0x3da06468	0.07831651
216	0xbb5f2cdf	-0.0034053845
217	0x3ca19ada	0.01972716
218	0x3e09530d	0.13410588
219	0x3ec1ca98	0.3784988
220	0xbdb9aff5	-0.09066764
221	0xbd907432	-0.070534125
222	0xbd15498d	-0.036447097
223	0xbb01b38e	-0.001979086
224	0xbceda13a	-0.029007543
225	0xbb9a6aee	-0.004712454
226	0x3dbf24fb	0.09333225
227	0x3d42b603	0.04753686
228	0xbc075fa7	-0.008262551
229	0x3d1adfc4	0.037811056
230	0x3d94f3f7	0.07273095
231	0xbd288e93	-0.041151594
232	0xbe76c5e5	-0.24098928
233	0x3e0a49e3	0.13504748
234	0xbd033294	-0.032030657
235	0x3d5aab7d	0.0533862
236	0x3ccef460	0.025263011
237	0x3d12448a	0.035709895
238	0xbc8f7660	-0.0175125
239	0xbd7dcf90	-0.061965525
240	0xbdb44060	-0.08801341
241	0x3dff7561	0.1247356
242	0xbc5b509a	-0.013385916
243	0xbe941227	-0.289201
244	0x3edd7dcf	0.43260047
245	0x3ad08359	0.0015908285
246	0xbc5d1580	-0.0134938955
247	0x3e10a3a7	0.14124928
248	0x3e08b669	0.13350834
249	0x3dbd224b	0.092350565
250	0xbe71e6f2	-0.23623255
251	0xbda1ca1d	-0.07899878
252	0xbdd6d3f7	-0.10489648
253	0xbda857aa	-0.082198456
254	0x3e1266a4	0.14296967
255	0xbd754063	-0.059875857

h.2.bias f4 [100]
0	0x3db555ea	0.088542774
1	0x3d12e6b7	0.035864558
2	0x3d85544c	0.06510219
3	0xbc97d37d	-0.018533463
4	0xbdc8d703	-0.09806635
5	0xbd4c731d	-0.049914468
6	0x3d278957	0.04090246
7	0xbd9e0c55	-0.07717196
8	0xbda1a659	-0.078930564
9	0x3bc500dc	0.0060120653
10	0xbd6d75c1	-0.057973627
11	0xbd0b3f76	-0.033996068
12	0x3d4676b6	0.048453055
13	0xbcbf586f	-0.023357598
14	0x3d9242b1	0.071416266
15	0x3b540d43	0.0032356537
16	0x3ca3caaa	0.019994099
17	0xbd81a495	-0.0633022
18	0x3d3ba59c	0.045812234
19	0xbd4f8541	-0.05066419
20	0xbd988083	-0.07446387
21	0x3d83a023	0.06427028
22	0xbdc5da1d	-0.096607424
23	0xbdaf3fe8	-0.08557111
24	0xbdc86b7a	-0.097861245
25	0x3d3f5b52	0.04671795
26	0xbd618853	-0.05506165
27	0x3d624e5f	0.05525052
28	0xbd8ac7e1	-0.06776405
29	0x3d9ab29f	0.075536005
30	0x3db54f78	0.08853048
31	0x3dac6140	0.084169865
32	0x3d848258	0.064701736
33	0x3de729cf	0.11287271
34	0xbc8c1de2	-0.017104093
35	0xb9560333	-0.00020409822
36	0xbd149627	-0.03627601
37	0x3d45b370	0.048266828
38	0xbccdd902	-0.025127891
39	0x3da6ecac	0.0815061
40	0xbdb39eb9	-0.08770508
41	0xbcd83ce0	-0.026396215
42	0x3d336f42	0.043807276
43	0xbd52cd3e	-0.051465265
44	0x3da85b18	0.082205
45	0xbdbcd718	-0.092207134
46	0xbb75143b	-0.0037396092
47	0xbd0ded5d	-0.034650195
48	0x3d951e97	0.07281225
49	0xbd97dd95	-0.0741531
50	0xbd05e692	-0.032690592
51	0xbd6708c3	-0.05640484
52	0xbda992dd	-0.08279965
53	0xbcf08ee0	-0.029365003
54	0x3dc46b73	0.09590807
55	0xbdb1071d	-0.08643935
56	0xbcfdb6ed	-0.030971015
57	0xbb63f967	-0.0034786107
58	0x3d0f9dc4	0.035062566
59	0x3dbfaae4	0.09358767
60	0x3da224c7	0.07917171
61	0x3d20eaec	0.03928654
62	0x3c8860f5	0.016647795
63	0x3da30783	0.07960417
64	0xbcc5c90c	-0.024143718
65	0xbd177c67	-0.036983874
66	0x3d65e7eb	0.056129377
67	0xbd5704f3	-0.052494954
68	0x3ddf0b5d	0.10890839
69	0x3d17fb5a	0.037104942
70	0xbcd0dca3	-0.025495833
71	0xbd6cd170	-0.057816923
72	0x3d0150c0	0.03157115
73	0x3db95781	0.09049893
74	0xbd0465ef	-0.032323774
75	0xbd43c76b	-0.0477976
76	0x3b411f9b	0.0029468301
77	0xbd9fcd97	-0.07802885
78	0x3d3c583f	0.045982596
79	0x3d7ff00f	0.062484797
80	0xbda8af7a	-0.082365945
81	0x3da2d5ec	0.079509586
82	0xbd557810	-0.052116454
83	0x3d35059a	0.044194795
84	0x3c6143ca	0.013749072
85	0xbdcd409d	-0.1002209
86	0xbd1daa23	-0.038492333
87	0xbd579f9f	-0.05264246
88	0xbd2a92ea	-0.041644014
89	0xbda99db2	-0.08282031
90	0x3d2b5686	0.041830562
91	0x3c90f2af	0.017693846
92	0xbdad3818	-0.08457965
93	0x3ddb544e	0.10709439
94	0x3d8925ed	0.06696687
95	0xbda50317	-0.0805723
96	0xbd91fd05	-0.07128338
97	0x3dccfa59	0.100086875
98	0xbd4c45a3	-0.0498711
99	0x3cef24fd	0.029192442

h.4.weight f4 [1, 100]
0	0x3e8ae9ca	0.27131492
1	0x3d0e6327	0.034762528
2	0x3e992c4f	0.29916617
3	0xbe410c98	-0.1885246
4	0xbd4af7b0	-0.04955262
5	0x3da4dffa	0.08050533
6	0xbe942697	-0.28935692
7	0x3d26142a	0.040546574
8	0x3ce3da99	0.027814196
9	0x3e76afac	0.24090451
10	0xbe945b02	-0.28975683
11	0xbdb435a2	-0.08799292
12	0xbd9c11a0	-0.07620549
13	0xbd1a7662	-0.037710555
14	0xbdba47d9	-0.09095735
15	0x3e9688d8	0.29401278
16	0xbe9d1f0f	-0.30687758
17	0xbc065480	-0.008198857
18	0x3e873432	0.2640701
19	0xbef05926	-0.46943015
20	0x3e6e8874	0.2329424
21	0x3d92211b	0.071352206
22	0xbd1bdbdd	-0.038051475
23	0x3e3b6975	0.18301947
24	0x3d5eac73	0.05436368
25	0x3e32c497	0.17457806
26	0xbdb64352	-0.08899559
27	0x3e6bc7e5	0.23025472
28	0xbd5e073a	-0.05420611
29	0xbef0831c	-0.4697503
30	0x3e85a5aa	0.26102954
31	0xbd322b3b	-0.04349826
32	0x3e95b955	0.2924296
33	0x3e871ee1	0.26390746
34	0x3e3d68a3	0.18496947
35	0xbc8c28fa	-0.017109383
36	0x3e966ca0	0.2937975
37	0xbcba42c0	-0.022736907
38	0x3e706a56	0.23478064
39	0xbe8dd18e	-0.2769894
40	0x3e213334	0.15742189
41	0x3d6ceab7	0.05784103
42	0x3e5fd519	0.21858634
43	0x3e8e2a35	0.27766576
44	0x3d90e37a	0.07074638
45	0xbcb840ed	-0.022491897
46	0x3dc348b0	0.095353484
47	0xbe833491	-0.25626042
48	0xbed0ce12	-0.4078222
49	0xbbde8e00	-0.00679183
50	0x3e63d375	0.22248633
51	0x3dc134df	0.094339125
52	0xbdc4e9e7	-0.09614926
53	0x3d82c70a	0.0638562
54	0x3e54f9a5	0.20798357
55	0xbcd8d06d	-0.026466573
56	0xbef34280	-0.47511673
57	0x3daf7fcd	0.08569298
58	0xbe568ec6	-0.20952901
59	0xbea0e2e9	-0.3142312
60	0xbdadb25c	-0.08481285
61	0x3e6be248	0.23035538
62	0xbdaef550	-0.085428834
63	0xbe9c15b3	-0.30485305
64	0x3e887ffb	0.2666014
65	0xbcd2c510	-0.025728732
66	0xbeb57105	-0.3543779
67	0xbed0430e	-0.4067616
68	0x3e8d83dc	0.27639663
69	0xbdc982b3	-0.09839382
70	0xbc8175f3	-0.015803313
71	0xbd22d096	-0.039749704
72	0xbb978f67	-0.004625249
73	0x3e96238c	0.29323995
74	0x3dbb8cfd	0.09157751
75	0x3e81fdc2	0.25388914
76	0xbeab2b04	-0.33431256
77	0x3d99b1fb	0.0750465
78	0x3e7616aa	0.24032083
79	0xbd6edae4	-0.05831422
80	0xbd54a9bd	-0.051919688
81	0xbea1f6cc	-0.31633604
82	0xbd9f67aa	-0.07783444
83	0x3e62724c	0.22113913
84	0x3e926208	0.28590417
85	0x3d2c0138	0.04199335
86	0xbe95cb4e	-0.29256672
87	0xbed68d61	-0.4190474
88	0xbebd9d85	-0.3703424
89	0x3d0eb010	0.034835875
90	0x3e986c37	0.2977006
91	0x3e29e9e0	0.16593122
92	0x3da0659f	0.07831883
93	0x3e303379	0.17207135
94	0xbe9faa59	-0.31184652
95	0x3daef337	0.08542483
96	0x3d1205a7	0.03564992
97	0x3e0ad639	0.13558282
98	0xbc84dd3d	-0.016218776
99	0x3e2f5061	0.17120506
