logs/PointMaze-Right/airl_sac/seed0-20231226-1522/model/step165000/actor.pth (torch, 276359 bytes, 6 tensors)

net.0.weight f4 [256, 6]
000000 41 4f 48 bb 1c 42 60 3e 15 09 ac be 0a d4 99 be
       -0.0030564817 0.21900219 -0.3360068 -0.30044585
000010 29 03 21 be 51 34 e0 3d e3 00 18 bf 99 b4 9f 3e
       -0.15723862 0.109474786 -0.59376353 0.31192473
000020 7f 65 14 bd 09 7b d4 bd 11 21 9c be cb 58 a4 bd
       -0.036229607 -0.103750296 -0.30493978 -0.080247484
000030 58 3b 73 bf 41 dc 00 bf 0d 54 2c be a7 2f 6c 3e
       -0.95012426 -0.5033608 -0.16828938 0.23065053
000040 e9 45 6a 3e 58 d6 7a 3e 8b c2 91 bf 4f 12 8d 3d
       0.22878231 0.24495828 -1.1387495 0.06888258
000050 70 d7 17 3e 01 4b 20 3f 5e 62 36 3d 1b 6a 9c 3e
       0.14828277 0.62614447 0.044527404 0.30549702
000060 86 ad 75 bf 2d 98 4f bd f6 43 bd 3e 7c de 33 bf
       -0.959679 -0.050682236 0.36965913 -0.7026136
000070 e0 64 79 be 69 ab d3 bd 54 f4 22 be 9d 98 b4 3e
       -0.24354887 -0.10335428 -0.15913516 0.35272685
000080 0b 7c 87 be c0 70 40 be 32 08 92 be 4e c3 c3 be
       -0.26461825 -0.1879301 -0.28521878 -0.38234943
000090 a7 9f 18 bf 8f e1 59 3e 38 8a 3a 3e 1c 18 39 3d
       -0.5961861 0.2127745 0.18216789 0.045189008
0000a0 97 d3 50 be 4f 53 56 be 6d 8e 9e bd c1 62 0d bf
       -0.20393215 -0.20930217 -0.07742009 -0.5522881
0000b0 77 08 97 be ad 0d ba be ee e0 77 3e 02 1c 75 3e
       -0.29498646 -0.3633856 0.24206898 0.23936465
0000c0 a6 6e 80 bf 2b 91 0c 3e d8 ae 85 3e 8e 95 0d 3f
       -1.0033767 0.13727252 0.26109958 0.5530633
0000d0 05 c2 0c 3e 77 e6 61 3d a3 70 10 3f 6b b8 81 be
       0.13745888 0.05515143 0.5642187 -0.25336012
0000e0 04 cd 9b 3d 0c cf b7 be 97 a7 45 be b1 f4 57 be
       0.07607463 -0.35900152 -0.19302212 -0.21089436
0000f0 b6 b8 3a 3f 41 25 ab bd 79 a1 77 be 68 9d 1b be
       0.72938097 -0.08356715 -0.2418269 -0.15196764
000100 2a 35 ae 3d 0d 0f 53 bd ed 62 7f 3c 01 ba c1 3d
       0.08506234 -0.051528025 0.015587551 0.094593056
000110 4d ac 81 3e e9 b3 c8 3e 02 14 a1 be 89 33 19 be
       0.25326768 0.3919976 -0.31460577 -0.14961065
000120 16 d2 b4 be 91 3d fc 3e ba e4 b5 3e ad 69 69 3e
       -0.35316533 0.4926572 0.35526067 0.22794218
000130 d5 50 89 bd 4d c3 b5 be 91 43 39 be 28 2e cd be
       -0.067048706 -0.35500565 -0.18092181 -0.40074277
000140 cb cc c2 be d2 e9 d4 3e 62 c9 5f 3e a5 81 d0 be
       -0.3804687 0.4158464 0.21854165 -0.4072391
000150 40 7e 9c 3d 21 d9 8c bd 9e 96 89 bd 12 5d 3f be
       0.07641268 -0.068773516 -0.06718181 -0.18687847
000160 24 c3 20 3e 3b 9c 77 be 13 8b dd 3e 6c dc 9d 3e
       0.1569944 -0.24180691 0.43270168 0.3083223
000170 3b a2 95 3e 9a a9 5b 3e 3a 27 0c bf b8 97 87 be
       0.29225335 0.21451417 -0.54747355 -0.2648294
000180 43 87 ba bd 7d b3 13 be 3c 0e a3 be 3f e7 f1 be
       -0.091078304 -0.14423938 -0.31846797 -0.4724674
000190 a9 f0 34 3e f1 d7 8c 3e 58 47 36 be 88 6e d2 bd
       0.1766993 0.275085 -0.17800653 -0.102749884
0001a0 73 1d c7 be dd 72 f0 bb 20 68 9d be 3d 3b a1 be
       -0.38889655 -0.0073379115 -0.30743504 -0.31490508
0001b0 03 46 b8 bc 00 12 7b 3d de 33 2b be 2d 0f 78 3e
       -0.022494322 0.061296463 -0.16719005 0.24224539
0001c0 c3 65 7e be 4d a9 bd 3e ca 78 0a 3f 6b 4a be be
       -0.24843507 0.3704323 0.5409056 -0.3716615
0001d0 1f 17 d0 bd 4e dd a2 3d 17 f4 c8 3d b5 4c c6 3d
       -0.1016066 0.07952367 0.098121814 0.096825995
0001e0 9d 0d 24 3e 0d 54 c8 3c 0f fa 4b be 9d d0 45 3e
       0.16020818 0.024454141 -0.19919609 0.19317861
0001f0 55 81 c8 be 60 c7 77 be 86 4c d1 bd cc a2 4b be
       -0.39161173 -0.2419715 -0.10219674 -0.19886321
000200 1d 3f 12 be e4 51 ab be 7c d9 b1 bd 5d b8 b2 3d
       -0.14281888 -0.33460915 -0.0868406 0.08726571
000210 e2 2b 88 be 85 a1 ab bc 1f a1 95 3e ab e6 2b bd
       -0.2659598 -0.020951042 0.29224488 -0.04196803
000220 19 e5 39 3c f0 41 10 bd 37 f0 4f bf 0a 1c 06 3f
       0.011346125 -0.035219133 -0.81225914 0.52386534
000230 12 ff c5 3e a3 3e a3 3e 25 a4 ab 3e d1 de f1 bc
       0.38671166 0.31883726 0.3352367 -0.029525192
000240 78 c6 27 bf 48 be 69 bf 2f 53 8e 3e dc 6c 3f bd
       -0.65537214 -0.9130597 0.2779784 -0.046734676
000250 c6 57 a5 3c 48 2d a0 be fe 0c e4 be cc 3b 2e bf
       0.020183455 -0.31284547 -0.44541162 -0.6805999
000260 1d 97 a9 bd 55 df a8 3e 90 13 a9 3e ad 96 c9 be
       -0.08280776 0.3298289 0.33022738 -0.3937277
000270 87 62 82 3e 05 90 a3 be 31 c2 b0 bd 9e 81 29 be
       0.25465795 -0.31945816 -0.08630789 -0.16553351
000280 50 0b a1 bd 22 29 a4 bd 20 91 bb be 7e 7a b4 be
       -0.07863486 -0.08015658 -0.3663416 -0.35249704
000290 d2 d4 82 bd 00 00 ad 3b 6e e8 3d be 4a 7a 1d 3e
       -0.063882485 0.005279541 -0.18545696 0.15378681
0002a0 c0 37 6a bf 30 0e 44 be aa d1 b7 3e 70 e4 fb bc
       -0.9149132 -0.19146037 0.35902148 -0.030748576
0002b0 8b 02 96 3e a4 65 17 3e ec ca 83 bf 61 fd d2 3e
       0.29298815 0.14784867 -1.0296302 0.41208938
0002c0 fe f5 40 bd 6c cf 10 bf 95 4c 90 3e 1d e9 a8 be
       -0.047109596 -0.565665 0.28183427 -0.3299035
0002d0 f2 77 34 bf 9a 0b 25 be 1d 44 95 3e c0 3c bd 3e
       -0.7049552 -0.16117707 0.2915353 0.3696041
0002e0 29 d6 49 3e 04 a3 13 3e 21 0f c9 bd b7 d5 af bd
       0.19710602 0.14417654 -0.09817339 -0.08585685
0002f0 88 40 ac be 13 84 62 3e b5 f5 a5 3e d1 04 8f 3e
       -0.33642983 0.22120695 0.32414022 0.27933362
000300 bd 70 93 be 96 28 95 3c f8 58 93 be bb 20 66 be
       -0.2879695 0.01820783 -0.28778815 -0.22473423
000310 0d 99 73 be 80 dd 0e 3e 3a 32 7c bf a1 41 68 3e
       -0.23788853 0.13951683 -0.9851414 0.22681285
000320 fe b0 8c 3c 21 81 ff 3e 89 1d b8 be 37 7f 8f be
       0.01717424 0.49903205 -0.35960034 -0.28026745
000330 b7 a6 66 be 38 c2 8a 3e e3 45 16 be 6b 00 a9 3e
       -0.22524534 0.27101302 -0.14675097 0.3300813
000340 7f 8a 08 3e fc bd 53 3d 21 2a 47 bb b2 47 a5 bd
       0.13334082 0.051694855 -0.00303901 -0.080703154
000350 8e cd 51 3d d3 ea be bd f1 fd 3b bb f3 5b 55 3d
       0.051221423 -0.09322133 -0.0028685296 0.052089643
000360 e6 e0 6c bf 6d f7 07 bf e0 c8 a8 3e 84 b1 1a be
       -0.9253067 -0.53111917 0.32965755 -0.1510678
000370 80 b8 2d 3d 16 c6 ce 3e 88 03 17 3e ea 60 3d 3c
       0.04241228 0.40385503 0.14747441 0.011558751
000380 3b 24 b5 be 44 17 4f 3e 16 e2 94 be 38 56 ed bd
       -0.35379204 0.20223719 -0.2907874 -0.115887105
000390 e0 22 07 be 9f 15 60 bd a4 53 92 3b af 08 a9 3e
       -0.13196898 -0.05470812 0.004465537 0.33014438
0003a0 42 ca 35 3d 74 38 bb 3e 5f b9 7f 3e b8 25 84 be
       0.04438234 0.36566508 0.24973057 -0.25810027
0003b0 d6 7e 3b 3e f4 c1 93 be b3 2d 31 be ee e9 f5 3d
       0.18310103 -0.28858912 -0.17302589 0.12007509
0003c0 43 41 27 be d4 a9 66 3e 63 93 06 be 6e f9 65 be
       -0.16333489 0.22525722 -0.13142161 -0.22458431
0003d0 6f 09 85 bd 07 25 ca be a3 1e 97 3e 8e d8 ac be
       -0.0649594 -0.39481375 0.2951556 -0.33758968
0003e0 09 60 b8 3b 56 26 8e bd 75 2c 5c be b2 03 5d 3d
       0.0056266827 -0.06940906 -0.21501334 0.053958602
0003f0 37 15 ab 3e ad fb ec bd 0d 31 78 be 18 9c 1a be
       0.33414623 -0.11571441 -0.24237461 -0.15098608

net.0.bias f4 [256]
000000 c9 00 0b be 45 dc 4c bd 46 ec 7d 3e 2e 85 e9 3d
       -0.13574518 -0.050014753 0.24797162 0.11402355
000010 96 0e ce 3e f9 ab 90 be a6 0e 8d bd 3c 52 b4 3e
       0.40245503 -0.28256205 -0.068875596 0.3521899
000020 75 b2 c3 bd 12 fd d3 3e 4f 80 07 be a1 86 9c be
       -0.09555522 0.41404015 -0.1323254 -0.30571464
000030 dd 99 be be f8 18 76 3d b9 e8 34 be 60 3d 39 bd
       -0.37226763 0.060082406 -0.17666902 -0.045224547
000040 82 20 47 3e 8c 00 0e 3e db 7f 1c bd 5f fa 0f 3e
       0.19445994 0.13867396 -0.03820787 0.14060353
000050 d0 da 70 be e1 a1 af be 63 1f 9d be 20 33 ca be
       -0.2352097 -0.3430319 -0.3068801 -0.3949213
000060 80 23 9d 3e 8e 91 41 3e 02 a8 31 be c3 74 cc be
       0.30691147 0.18903181 -0.17349246 -0.39932832
000070 23 fb 14 3e df 8d 8d be 55 a9 89 bd 1a 43 af be
       0.14548926 -0.27647302 -0.06721751 -0.34230882
000080 1f d8 6b be 19 5a f4 3d f7 25 ca be f6 62 6e be
       -0.23031662 0.11931247 -0.3948209 -0.23279938
000090 17 6f c1 3e fe 64 56 be 7c b7 34 be ba c0 ea bd
       0.37780067 -0.20936963 -0.17648119 -0.11462541
0000a0 de 19 ce bd e2 1c 89 be 2e 43 19 3d a0 fd da 3d
       -0.100635275 -0.26779848 0.037417583 0.106929064
0000b0 f0 91 91 bc fe d7 72 3e ea 73 9f be b9 29 be 3d
       -0.017769784 0.23715207 -0.31143123 0.09285302
0000c0 d0 18 07 3d b7 4c a9 3d c4 d5 ac be a9 89 33 3d
       0.032982647 0.08266585 -0.3375684 0.043832455
0000d0 ca b6 5a 3e 3d 3d 92 bd eb f8 e0 bc b3 37 b8 3d
       0.21358791 -0.071405865 -0.027462443 0.08994999
0000e0 ac 93 8e be 08 b9 88 be 8c 4e a4 3e 64 d1 9a bd
       -0.2784704 -0.26703668 0.32091177 -0.07559469
0000f0 f9 67 a6 be e5 ec 24 bd 77 52 75 3e 30 c9 8b be
       -0.325012 -0.040264983 0.23957239 -0.2730193
000100 4b 80 b6 be 32 2f b7 3e 32 db 1e 3d d7 6d 7a be
       -0.35644755 0.35778195 0.03878326 -0.24455963
000110 16 81 3d be d7 da 30 bd 6e b1 81 3d ec b6 6d 3c
       -0.18506274 -0.043177452 0.0633267 0.014508944
000120 22 56 83 be 45 94 74 3e 06 b0 1a 3c 1b 22 e2 bd
       -0.25651652 0.23884685 0.009441381 -0.11041661
000130 f8 4f 1f be 75 9a 07 3e 97 06 a9 be 97 64 49 3e
       -0.1555785 0.13242514 -0.3301284 0.19667278
000140 b1 33 7f 3e 20 16 18 be 84 5e a2 be 8d 4c 8b be
       0.24922062 -0.1485219 -0.31712735 -0.2720684
000150 bb 3a aa 3d 88 a3 b4 be 4f d7 93 be 8e 64 9d 3e
       0.08311983 -0.35281014 -0.28875205 0.3074078
000160 1f 49 9f 3e ad f9 9b 3e 44 3f 4e 3e d1 82 05 3e
       0.31110474 0.30463925 0.20141321 0.13038184
000170 a6 d2 6e 3e 0e 92 87 3e 5a 01 8f be 21 7a 47 be
       0.23322544 0.26478618 -0.2793072 -0.19480182
000180 90 14 9b 3e 07 ba 86 bc 2f 02 88 be 42 57 c5 be
       0.30289125 -0.016446127 -0.26564166 -0.38543135
000190 d8 3e 9f 3e 1f d5 93 3e 44 ba 40 3e be 78 b5 bc
       0.31102633 0.28873536 0.18821055 -0.0221523
0001a0 a2 93 cb 3e 3d e9 bf be ea 97 96 be e0 20 c9 be
       0.39761072 -0.37482634 -0.29412776 -0.39282894
0001b0 57 82 83 3e bd 2c 2e 3e dd 7e 40 be 2f 71 ed 3c
       0.2568538 0.17009254 -0.18798395 0.028984634
0001c0 ec 13 2f be 47 0e 86 be 85 6a 77 bd 6c d2 6f 3d
       -0.17097443 -0.26182768 -0.06040432 0.058550283
0001d0 71 af 95 be f3 ac 89 be c8 0c 99 3d 0d aa 27 3e
       -0.29235414 -0.26889762 0.07473141 0.16373463
0001e0 07 19 6e 3e 76 fa 51 be 61 90 06 3e f4 ce 9e 3d
       0.23251735 -0.205057 0.13141014 0.07754317
0001f0 d5 fe b6 be d6 74 87 be ad ab 9c bd 87 7d 1c 3d
       -0.35741296 -0.26456326 -0.07649932 0.03820565
000200 9a 4d 06 be 20 aa 3b 3e 61 73 81 be f1 cb b5 3e
       -0.1311554 0.18326616 -0.2528334 0.35507157
000210 6c 22 4e 3e e2 6a f6 3d 7f 5e 16 bc 88 c8 91 3e
       0.20130318 0.12032105 -0.009177803 0.28473306
000220 df 6d db be fa 03 06 3e 61 25 f4 3d cc b7 bc bd
       -0.42857262 0.13087454 0.11921192 -0.09214744
000230 d3 08 83 3e 80 ef 88 be 16 ac ba be de 06 31 be
       0.2559267 -0.26745224 -0.36459416 -0.17287776
000240 bf fd c1 be 6c fb 7b 3e 16 66 4a be e6 56 ab be
       -0.37888905 0.24607629 -0.19765505 -0.33464736
000250 8c ca 9a be 70 d7 8c be ac 30 bc be cb 70 26 3e
       -0.30232656 -0.27508116 -0.36755884 0.16253965
000260 04 ef 9c be c5 63 69 3e ee 5a a3 3e 27 88 80 3c
       -0.30651104 0.22791965 0.3190531 0.015689922
000270 f9 78 36 3e 16 2c 6a be 5d 3f ba 3e 02 40 6b 3e
       0.17819585 -0.2286838 0.36376467 0.22973636
000280 af af c6 3d 98 92 5b 3e 5b 57 da be 24 bc 04 be
       0.09701478 0.2144264 -0.42644772 -0.12962395
000290 2b 4c bb 3d 1f ae b5 be 58 44 79 3e d0 52 1f be
       0.09145387 -0.35484406 0.24342477 -0.15558934
0002a0 35 33 17 be 8a d7 a5 be 44 90 3b 3e 3a c3 af be
       -0.14765628 -0.32391006 0.18316752 -0.34328634
0002b0 6e 6c b1 bd 48 f5 85 3d 93 d4 71 3e d7 be 4d 3e
       -0.086632594 0.06540924 0.23616247 0.20092331
0002c0 66 2d 2f be 89 cd 61 bd 56 0e 08 3d a5 87 bc 3d
       -0.17107162 -0.055127654 0.033216797 0.0920556
0002d0 7d 3e 8d 3e 9d 7f 23 3e 71 e6 72 3e c2 6e a8 be
       0.27586737 0.1596665 0.23720719 -0.32897002
0002e0 f7 e7 86 3e b7 12 40 be 20 cf df bd 7a 23 20 3b
       0.2634885 -0.18757139 -0.10928178 0.0024435208
0002f0 5e ec dc bc 1a 90 c2 3d 4d c2 25 3e c5 c6 79 be
       -0.026968177 0.095001414 0.16187401 -0.24392231
000300 bc 16 b0 3d 27 fe a7 be b1 96 80 3e 18 f4 38 3e
       0.08598086 -0.3281109 0.25114968 0.18061864
000310 4c 6c 58 3e 67 ff d8 3e 11 b0 55 3e b5 32 18 3e
       0.21135062 0.42382357 0.20867945 0.14863093
000320 18 83 a8 3b be ae 2e be 00 0b 96 3e f4 e0 40 3e
       0.0051425807 -0.17058846 0.29305267 0.18835813
000330 ec 24 b3 be f6 29 bc 3d c0 82 c6 bb 22 aa 94 bc
       -0.34989107 0.09187691 -0.006058067 -0.018147532
000340 f5 a8 37 be 25 89 0a be e9 5b 80 bd 80 c4 80 be
       -0.17935546 -0.13528879 -0.062675305 -0.25149918
000350 4c 6f c2 be 3c 77 2f be 2b 6d 18 bd 45 bd 1d 3e
       -0.37975538 -0.17135328 -0.037213486 0.15404232
000360 13 1a 7e 3e 04 ce 5d be 9f 66 b5 bc 54 76 68 be
       0.24814634 -0.2166062 -0.02214366 -0.22701389
000370 3f a4 5f be 53 06 93 bd a3 f7 8f be 64 ea 91 3d
       -0.21839999 -0.071789406 -0.2811862 0.071247846
000380 37 53 4f be 2e 0a 44 bd d6 e8 6b be a3 d6 7a be
       -0.20246588 -0.04786127 -0.23038039 -0.2449594
000390 3f 08 86 3d e9 3b 4d be d6 5e 80 3d 5f ae a8 3e
       0.065445416 -0.20042385 0.062680885 0.32945535
0003a0 f7 e6 a5 bd fb c8 54 be 0b ff 7a be 1b 67 64 be
       -0.08100694 -0.20779793 -0.24511354 -0.22304957
0003b0 9f 9b 07 bc a4 64 c2 3d 7e 50 07 3e e8 06 09 3f
       -0.008276849 0.09491852 0.13214299 0.53526163
0003c0 d2 5f 65 be aa 01 28 be 11 2d 17 3e 6d 30 e6 3d
       -0.22399834 -0.16406885 0.14763285 0.11239705
0003d0 41 2e aa 3e c7 94 ec bc 40 ad b0 3c 89 b4 4b be
       0.33238414 -0.028879536 0.021566987 -0.19893087
0003e0 6e a1 c0 3b 5c c8 9d be 6c c3 db bd 6b b3 ae be
       0.005878619 -0.30816925 -0.10730633 -0.3412126
0003f0 66 f1 c8 be ab 18 29 3e 23 1a e7 bd ff 8f 7b 3e
       -0.39246672 0.16513316 -0.11284282 0.24566649

net.2.weight f4 [256, 256]
000000 04 b5 4b 3d 38 56 88 3c d2 56 a2 ba 0d f7 ae 3c
       0.049733177 0.016642675 -0.0012385494 0.021358037
000010 62 4e 94 3d 4c 34 f6 3c 7a da 57 3d 5e 2a b4 bd
       0.07241513 0.030054234 0.05269859 -0.087971434
000020 44 61 31 3d cd b7 db bd cd 90 b4 bd c0 b5 6d 3c
       0.04330565 -0.107284166 -0.08816681 0.014508665
000030 81 07 88 bd fe a7 cf bb fa 86 18 bd 5c c4 1b bd
       -0.06642056 -0.006337165 -0.0372381 -0.03802906
000040 50 1d 84 bd 4c 10 4a 3d ac 47 34 bd 6b 4a 24 bd
       -0.064509034 0.04933195 -0.044013664 -0.040110033
000050 4a 64 00 3d d4 02 35 3d a0 48 80 3c a4 1f 92 3c
       0.031345643 0.04419215 0.01565963 0.017837353
000060 a7 85 54 3c 63 2b 3b bd cc 16 ae 3c d4 2c 48 bd
       0.012971318 -0.045695674 0.021251105 -0.048870876
000070 f2 66 9a bc 47 91 93 3a fa 5f 64 bc e4 e3 b4 bc
       -0.018847916 0.0011258506 -0.013938898 -0.022081323
000080 50 c8 7d bd 56 60 a2 3b bc 03 c4 3c 1e 6f 5c 3d
       -0.06195861 0.004955332 0.023927562 0.053816907
000090 6f b5 5a bd 4c 72 f4 3c 66 e9 72 bd 32 d0 74 bd
       -0.053395685 0.029839657 -0.059304617 -0.059768863
0000a0 90 51 20 bd d8 40 07 bc 9c ff 8e 3c 3a 1d 88 bc
       -0.039140284 -0.008255206 0.017455868 -0.016615499
0000b0 2f 4d bf bc 7f b6 05 3d 00 03 7c 3b c4 c6 9f 3d
       -0.023352234 0.032644745 0.0038453937 0.078015834
0000c0 89 8e 18 3c 6d 7b 95 bd 60 24 04 bc aa 41 06 bd
       0.009311327 -0.07298932 -0.008065313 -0.032777466
0000d0 39 b4 cc bd 22 fd 4c bd a0 ab d8 39 a7 c9 79 b8
       -0.09995312 -0.050046094 0.000413266 -5.955403e-05
0000e0 e1 88 27 3d 58 43 9d bd 23 19 14 3d ff 35 1d bd
       0.040902022 -0.076788604 0.036156785 -0.038381573
0000f0 a0 bf fc 3c 00 e6 62 bb c3 2c 9b 3c f8 ff f9 ba
       0.030853093 -0.0034621954 0.018942242 -0.0019073477
000100 a7 19 3a 3d db ef 96 bd d5 ca 20 bd a3 0e e2 3d
       0.04543462 -0.073699676 -0.039255936 0.11037948
000110 89 eb 16 bd a6 74 71 3d 13 86 0a ba 6e 8c 74 3d
       -0.036845718 0.058949135 -0.0005284261 0.059704237
000120 78 2a ef bc c5 d1 1b be 10 98 4c 3c 87 a1 08 bd
       -0.029195055 -0.1521674 0.012487426 -0.03335717
000130 a2 6a 00 3d 36 df 38 bd 36 fb 59 3d 37 1a a2 bd
       0.031351693 -0.045134746 0.05321809 -0.07915156
000140 18 52 8b bb 99 82 62 bc 78 ad 8e 3c ba 0e 54 bd
       -0.0042517297 -0.013825082 0.0174167 -0.051771857
000150 fd 51 93 bd 32 5e 42 bd 7c 34 96 bc 55 1d d7 bd
       -0.071933724 -0.047453113 -0.018335573 -0.105036415
000160 af 47 ed 3b 7d 1f 65 bd 99 9c 1e 3c 42 26 fd bc
       0.0072412114 -0.055938233 0.0096808905 -0.030902032
000170 c0 7f 97 bd f7 c0 18 be c7 5d 6b bc 78 08 f1 bd
       -0.07397413 -0.1491736 -0.01436562 -0.117691934
000180 c5 20 59 bd 7f 1f c5 bc b0 ab 19 3c b2 9c 79 3d
       -0.053009767 -0.02406287 0.009379312 0.060940452
000190 a9 c8 ad 3d 5f 49 9c bd e4 4c cd bd 5f d1 f3 bd
       0.084855385 -0.07631182 -0.10024431 -0.11905169
0001a0 d4 ec 00 be e8 cc 59 bc 1c a1 c3 3c 02 d4 00 3d
       -0.12590343 -0.013293482 0.023880534 0.031452186
0001b0 f1 6a df 3c 51 24 3a bc 9c 45 cf bc 31 e9 b8 bc
       0.027272673 -0.011361198 -0.025301747 -0.022572132
0001c0 68 52 02 3c 28 c3 02 bd e0 34 b7 bb 7c 75 85 bd
       0.0079542175 -0.031924397 -0.00559102 -0.06516549
0001d0 40 df 71 bd 56 8c 2d 3d c1 32 da bb ee 92 dd bd
       -0.0590508 0.042370163 -0.0066588824 -0.1081904
0001e0 89 0f ab bd 38 bf 09 bd d2 4c 28 3d 2a a2 05 bd
       -0.083525725 -0.033629626 0.041088887 -0.032625355
0001f0 40 9d 3d 3b e4 4d 93 3c 8d 92 ab 3d 6e b9 de 3d
       0.002893284 0.017981477 0.08377562 0.10875212
000200 e0 17 9d bc 49 a0 f1 bd 20 45 a0 bb 1c 5e 62 bc
       -0.019176424 -0.1179815 -0.004891053 -0.013816383
000210 07 65 ea bd 56 33 2c bd 75 45 97 bd 05 0d f4 bc
       -0.11445051 -0.042041145 -0.07386295 -0.029791364
000220 8d d2 9b ba 67 b9 0c be 0e 27 25 be d0 cd 5f bd
       -0.001188831 -0.137426 -0.1612818 -0.054639637
000230 39 c8 0f bc 9e 6f 19 3c fa f7 2b 3d 63 cc e1 bd
       -0.008775764 0.0093649905 0.041984536 -0.11025312
000240 b0 d1 d7 3c e9 95 01 bc b2 1a eb bd 63 67 1e bd
       0.026345104 -0.0079092765 -0.11479701 -0.038672816
000250 21 05 09 bd c0 d7 8c 3a 22 09 8d bd c9 b8 59 3c
       -0.033452157 0.0010745451 -0.068865076 0.013288685
000260 70 34 19 bc 45 a4 2b 3d db 9a a9 bd fb c1 bb bc
       -0.009350881 0.041904707 -0.082814895 -0.022919646
000270 29 93 b4 bc 22 51 23 bd 67 5a b6 bd c5 70 a0 bc
       -0.022042828 -0.039872296 -0.08903962 -0.019585023
000280 d4 7c 5f 3d d0 fb 90 bd 62 ac 93 bd 0e 1f c2 3b
       0.054562405 -0.070792794 -0.07210614 0.005924112
000290 f0 63 db bb b4 0d 91 bc 8b a5 00 be 8e 26 2d 3d
       -0.006695263 -0.01770673 -0.1256315 0.042273097
0002a0 d8 8f 6b 3d 60 9c 2c bb 05 2e f5 bd eb 27 31 3d
       0.057510227 -0.0026338324 -0.11971668 0.04325096
0002b0 40 1b af bc 71 64 7c bb d6 d8 d0 bd 60 83 5b bc
       -0.021375299 -0.0038512016 -0.10197608 -0.013398021
0002c0 39 ff d6 bd c7 5b 8e bd 7c c7 9f bd a1 2e c9 bd
       -0.104978986 -0.06951099 -0.078017205 -0.09823347
0002d0 67 a1 33 bd b4 9d 2f be a1 d2 a7 bb 58 ce bc bc
       -0.043855097 -0.17150003 -0.0051215445 -0.023047611
0002e0 db a8 a2 3c 22 ba 5d 3d 98 be 07 bc 40 d8 00 bd
       0.019855907 0.05413259 -0.008285187 -0.031456232
0002f0 a1 99 d7 bd 78 14 4e bd 50 0e 19 bc 30 f3 6a 3c
       -0.10527349 -0.05031249 -0.009341791 0.014340207
000300 5b ab cc 3d d8 27 18 bc 20 85 5c bd 0a ce 9f bd
       0.09993621 -0.009286843 -0.053837895 -0.07802971
000310 d4 32 41 bd a5 0a 2f bd 3e 25 1c be 55 ef 0b be
       -0.047167614 -0.04273476 -0.15248582 -0.13665517
000320 2e 5a d5 3c e0 19 20 bc 09 d1 dc bd 83 c2 9e 3d
       0.026043978 -0.009771794 -0.10782058 0.07751944
000330 2d 01 8b 39 27 23 ef bc 0c 83 9b bc 6a e1 40 3d
       0.00026513022 -0.029191567 -0.018983386 0.04708997
000340 36 4b 6f bd b8 51 51 3d 85 e2 1b 3c 39 87 a8 3b
       -0.058421336 0.051103324 0.009514456 0.005143073
000350 94 7d 1f 3d 8c 49 a0 bd 91 86 fa bd ba 04 ab bd
       0.03893812 -0.07826528 -0.12232698 -0.08350511
000360 34 34 e2 bd c3 d5 3b 3c b5 4f 71 bd 21 67 56 3d
       -0.11045113 0.011464539 -0.058913905 0.052344445
000370 54 e3 37 bd d4 62 a4 3c c5 12 9f bc 84 86 43 bd
       -0.04489453 0.020066656 -0.01941813 -0.047735706
000380 50 44 cd bb d7 e1 7d 3d 8a d1 37 bd a6 4e 55 bd
       -0.006264247 0.061982956 -0.044877566 -0.052076958
000390 8e e9 86 bc a0 94 1d bd b9 68 e7 bd ad 39 49 bd
       -0.01646879 -0.038471818 -0.11299271 -0.04912727
0003a0 29 94 49 bd 20 38 0a 3b d0 0e 55 3d c0 b4 e7 bd
       -0.049213562 0.0021090582 0.05201608 -0.11313772
0003b0 4c ad 23 be a4 57 dd 3c a0 70 4d bd 71 6f b2 bc
       -0.15984076 0.02701933 -0.050156236 -0.021781655
0003c0 30 5b cb bc 00 70 33 ba 31 cc 20 be fb 20 ed 3c
       -0.024823755 -0.00068449974 -0.15702893 0.02894639
0003d0 c7 bd 04 bc f5 8c cd bb 16 f9 88 3d 58 cf 0f bd
       -0.008101887 -0.006272907 0.06688134 -0.035109848
0003e0 2c 50 57 bd 33 8f 91 bc 80 29 32 3d f6 1e 7b 3d
       -0.052566692 -0.017768478 0.04349661 0.061308824
0003f0 68 22 f9 3c 82 e3 82 bc 22 9e e1 bc b3 17 a2 bd
       0.030411914 -0.015977625 -0.027541224 -0.079146765

net.2.bias f4 [256]
000000 b3 27 8a bd cd da 00 bd 65 6b bc 3b 5b f4 d5 bc
       -0.06745853 -0.031458665 0.005750107 -0.026117494
000010 ed 50 00 bd 3b da 99 bc f0 f4 60 bd 4e a0 de bb
       -0.031327177 -0.018780818 -0.05492109 -0.006794012
000020 92 a2 83 3c a3 ca f9 bc 05 40 35 bd c4 e7 eb 3c
       0.01606873 -0.030492133 -0.044250507 0.028797038
000030 3f ef 77 bc 57 0d 3a 3e 0e 3d 24 3e e6 b9 00 3d
       -0.015132724 0.18169151 0.16038916 0.031427287
000040 40 0a 3f bd 97 f5 0e 3e 3c 9a e2 bc bc 30 06 bd
       -0.046640635 0.13960873 -0.027661435 -0.03276132
000050 5c db c6 bd 56 2f c8 bd 43 c0 b3 3c b3 d4 9f ba
       -0.09709808 -0.097746536 0.021942263 -0.0012194127
000060 e6 35 90 3c 5d 79 8c 3c 7d cc 00 bd 40 a3 48 bd
       0.017603826 0.017147714 -0.031445015 -0.048983812
000070 26 03 80 bd 62 b3 3c bd 87 ac d9 3c c8 3b 17 bd
       -0.062506005 -0.04606951 0.026571525 -0.036922246
000080 1e 33 36 bd 81 09 69 3c 2c a5 ad bc 7c 98 44 3e
       -0.044482343 0.014223457 -0.021196924 0.19198793
000090 06 f5 5d ba c5 14 e9 3c 62 94 42 3c 29 97 07 bd
       -0.00084669923 0.028452286 0.0118761975 -0.033103142
0000a0 80 ea 79 bd 67 ef 04 bd 87 8d fa 3c 74 d2 c9 3b
       -0.061014652 -0.032454874 0.030585064 0.006159121
0000b0 fa 4c 18 bd 9e b9 ac bb 9b 85 b6 bc dd 69 1a 3d
       -0.037182786 -0.0052711507 -0.022280505 0.037698615
0000c0 b5 e3 a1 bd 98 ef 81 bb f4 1f fb 3b 4e d1 70 bd
       -0.0790476 -0.0039653294 0.007663721 -0.05879336
0000d0 df 38 44 bc ff 24 2d bb ff 7b 34 3e 00 25 4b bd
       -0.01197645 -0.0026419756 0.17625426 -0.049595833
0000e0 68 36 46 bb ed e6 c0 3b 4a 6e 29 bc 2a b4 d0 3c
       -0.003024483 0.0058869035 -0.010341236 0.025476534
0000f0 4e de e4 3c 69 fe de 3b 2f 0c a3 bb d3 d4 8b bb
       0.027938034 0.0068052304 -0.0049758176 -0.004267314
000100 09 6f 26 3d 9a 30 29 3d 0d 0e 1b 3c fb 10 87 bd
       0.040633235 0.041306116 0.009463799 -0.06595036
000110 3c 45 51 3e 5d b4 43 bd 6b 6d 77 bd 09 96 0b be
       0.20436567 -0.04777943 -0.060407083 -0.13631453
000120 d0 c0 95 3c 14 49 f6 bb a2 d3 6e bd 9f 00 a6 3c
       0.018280417 -0.007516036 -0.058307298 0.020263968
000130 c7 64 4e bb 6f 81 73 bd 14 46 13 bd bd e2 21 3c
       -0.0031493173 -0.05944961 -0.035955504 0.009880719
000140 b1 29 74 3c 0d ae 7e bd cb 0c 62 bc c6 9b 82 bd
       0.014902518 -0.062177707 -0.013796995 -0.06377368
000150 bc 53 1c bd b1 72 85 3d 5b 5a 3c bd 4a eb 11 3d
       -0.038165793 0.06516016 -0.045984607 0.03562478
000160 e0 f2 3e bc 92 43 3e bd f5 ca 74 bd b7 aa 61 bc
       -0.011654586 -0.04645116 -0.059763867 -0.013773612
000170 3b 55 3a 3e 16 69 03 bd 78 1f 81 3c ef 43 8c 3d
       0.18196575 -0.03208264 0.015762076 0.06848895
000180 19 f3 61 3a 3d 5c 5f bd 89 a6 14 bd 92 5b f6 3d
       0.0008619293 -0.054531325 -0.036291633 0.120291844
000190 29 07 7c bc 0d 47 be bc 3e 2c a4 3d 81 14 da 3c
       -0.0153825665 -0.023227239 0.08016251 0.026621105
0001a0 bc 3a 3c 3e cf fe c9 3c c6 bc 30 3d eb 34 42 bd
       0.1838178 0.024657635 0.04314878 -0.047413748
0001b0 eb 84 ec 3c e9 a6 71 bd 76 8f 0a bd 08 15 ef bc
       0.028871974 -0.05899707 -0.03382822 -0.029184833
0001c0 72 a7 ae bc f9 49 3a bc 22 1f 42 3c e8 5f 92 3c
       -0.021320079 -0.0113701755 0.011848243 0.017867997
0001d0 f1 65 89 bd 58 ae 76 3c 3e 79 64 bd 83 30 0d bc
       -0.06708897 0.015056215 -0.055779688 -0.008617523
0001e0 a7 65 17 bd 1b 2b 64 3d 88 53 78 3c 12 53 26 3d
       -0.036962178 0.05570517 0.015156634 0.040606566
0001f0 ea c7 12 bd 94 7c 20 3d 16 5c 79 3c 0a 84 36 bb
       -0.035835184 0.039181307 0.015219709 -0.0027849698
000200 49 dd e4 3b f3 b4 3f 3c fe ec 0e bd 19 5e 67 bc
       0.006984387 0.0117008565 -0.034893982 -0.014121556
000210 12 9c 53 3c ea a7 ed bc 28 3f 1b bd fd 25 d9 bb
       0.012915628 -0.029010732 -0.037902027 -0.006626843
000220 a6 e5 7f bd 67 52 21 3d f8 7c 9b bc ec 05 4b 3d
       -0.06247487 0.039385226 -0.018980488 0.049566194
000230 50 54 57 bd a4 a2 9a bb 29 6a 99 bb 8e dd 2e bd
       -0.05257064 -0.0047190953 -0.0046818447 -0.04269176
000240 69 12 10 bb 2d e5 1f 3b c7 e2 11 3d b1 26 f0 bc
       -0.002198363 0.0024398074 0.035616662 -0.029315325
000250 6d 89 bb ba 09 b7 6c 3d 5e e8 0e 3e 4b e4 40 bd
       -0.0014307924 0.057791743 0.13955829 -0.047092717
000260 12 e6 59 bc cd 4b 67 bd 56 58 4b bd 5c 2b 44 bd
       -0.013299482 -0.056468774 -0.04964479 -0.047892913
000270 87 5e 35 3d 97 16 aa 3c 95 d9 8c 3c 5e 33 85 bd
       0.0442796 0.020762725 0.017193595 -0.06503938
000280 69 5f 15 3b ed 91 28 bd 9a 5e 12 bd 43 e6 16 3d
       0.0022792465 -0.04115479 -0.03573475 0.03684069
000290 97 f2 92 3d 7a a0 7e bd ce 1d 50 bd 8a 6b a2 3c
       0.071751766 -0.06216476 -0.050809674 0.01982667
0002a0 5a 8c f3 bc d5 4e 00 3d 7b 7a 35 bd e8 34 27 bd
       -0.02973001 0.03132518 -0.04430626 -0.04082194
0002b0 67 ee e3 3c 7e 25 95 bd 10 c9 d5 3c b5 51 21 3d
       0.02782364 -0.07282542 0.02609685 0.039384563
0002c0 09 4d 38 bd 3e 5b 8f bc 02 4b cd 3c d0 25 f1 3c
       -0.04499534 -0.017499562 0.02506018 0.029436976
0002d0 07 83 85 3c 23 51 34 3c 08 7a 52 bd fb c9 40 bd
       0.01629783 0.011005673 -0.05138591 -0.047067624
0002e0 0c fd 14 3d f2 e7 1e bc 6e 8a 4e bd 44 91 91 3c
       0.036374137 -0.009698855 -0.050424986 0.017769463
0002f0 ac da 16 bd 18 ae 6f 3d 74 f8 c2 3c f4 1c 5c bd
       -0.036829636 0.058515638 0.023800112 -0.05373855
000300 8c b8 61 3d 35 39 79 bc dd 56 54 bd 05 cc 58 bd
       0.05510764 -0.015211393 -0.05184065 -0.052928943
000310 3e 80 6e bc b1 7e 2e 3c 61 8c 5b bd 37 74 df 3c
       -0.0145569425 0.010650323 -0.053600673 0.027277095
000320 dc 12 c0 3c 49 64 46 3c c2 21 dc bc f1 c5 55 bd
       0.023446493 0.012108871 -0.026871566 -0.052190725
000330 9c e3 0a bd 98 bb c1 3c de 25 0b bd 64 c1 01 3b
       -0.03390847 0.023649022 -0.03397166 0.0019799108
000340 e7 7a c3 bc 36 53 0a 3e 0a f2 19 3d af 0e 8c ba
       -0.023862315 0.13508305 0.037584342 -0.0010685528
000350 db 3d 69 3e 60 71 33 3d d5 ed c6 bc fd 5f 00 bd
       0.22777502 0.043809295 -0.024283329 -0.03134154
000360 fe c8 ad bd ab bf 7e 3d 27 55 e8 bc 54 9b 00 bc
       -0.08485602 0.062194508 -0.028360916 -0.007849533
000370 bd f1 8f bd 41 56 fc bb 65 6a 16 bd 73 42 57 3c
       -0.0702853 -0.007700712 -0.03672256 0.013138401
000380 7e e7 c3 3d f4 a1 c4 bd 1a df 80 3d c5 a6 65 bd
       0.09565638 -0.096012026 0.06292553 -0.056067247
000390 94 df c6 3c ba 29 98 3d b9 5d 57 bc 87 52 7e 3c
       0.024276532 0.07429834 -0.013144904 0.015522606
0003a0 8c c3 8f bd bd 1e 7b bc 20 98 26 ba 20 91 73 bd
       -0.070197195 -0.015327153 -0.0006355066 -0.059464574
0003b0 10 dc 32 bc b5 82 d0 3d 59 22 09 3d 69 0b 12 ba
       -0.010916725 0.101811804 0.033480022 -0.0005571158
0003c0 03 0f 2f 3d d5 01 35 bd 4b b6 d2 3c 60 94 4f bc
       0.042738926 -0.0441912 0.02572169 -0.012669653
0003d0 f4 bb 1f 3e 00 f8 5a bc 42 43 1c 3e 17 21 bd 3d
       0.15599042 -0.013364792 0.15260032 0.09234827
0003e0 0c d8 f0 3c 52 22 fb bc ef 66 0c 3b 8d 8d 13 3b
       0.029399894 -0.030656014 0.0021423658 0.002251479
0003f0 b1 c8 8c 3c 22 3b 93 3d a3 d4 48 bd 74 a0 12 bd
       0.01718554 0.07189013 -0.04903091 -0.03579755

net.4.weight f4 [4, 256]
000000 9b d7 92 3d 25 df 8a bd c8 45 c5 3c da da 46 3d
       0.0717003 -0.06780843 0.024081126 0.048548557
000010 c5 01 47 3d b7 c9 90 bb c8 f3 2a bc be 06 52 3c
       0.048585672 -0.0044185775 -0.010434099 0.01281899
000020 2f de a6 bc b1 35 2e bd e0 55 9d bc 12 92 a0 ba
       -0.020369617 -0.042531673 -0.019205987 -0.0012250564
000030 b5 13 66 bc 09 2e 42 bd 6c d4 4f be 03 24 60 bc
       -0.014042784 -0.047407184 -0.20295876 -0.013680461
000040 d1 37 32 bd a6 fc 59 3e 1e a1 1e bd 7a e1 14 bd
       -0.043510262 0.21287784 -0.038727872 -0.036347844
000050 8b db 3e 3d ae 42 7f bd 42 c5 01 bc d8 17 de 3c
       0.04659609 -0.06231945 -0.007920565 0.027110979
000060 15 b8 84 3e a7 4b ab 3b c0 bc 75 bc a0 6f 04 3d
       0.25921693 0.0052275243 -0.014998615 0.032333016
000070 0a b3 81 bc c9 8f 47 3d 8d 35 0f 3d 53 7e 3a bd
       -0.015832443 0.04872111 0.03496318 -0.04553063
000080 de 7a ec 3c f4 04 13 bd 70 aa 04 be 6a 63 ac be
       0.028867181 -0.035893396 -0.12955642 -0.33669597
000090 39 11 04 3d 8f 75 1d bd dd 1e 5c 3d e5 65 41 bd
       0.032242987 -0.03844219 0.05374037 -0.047216315
0000a0 6d 3a 3e bd 27 97 ff 3c 18 78 92 3b 1f ed 4a 3c
       -0.046442438 0.031200005 0.0044698827 0.012385636
0000b0 36 1d 22 3c 5f 4d 31 bb f1 4b 7d 3c 6d 4d 91 3c
       0.00989466 -0.0027054173 0.01546 0.017737115
0000c0 52 d9 0d be 75 27 56 3d fe 09 ef 3c c1 3a 4d bd
       -0.13852432 0.052283723 0.02917957 -0.05010486
0000d0 f0 e2 c7 bd ef 71 1e bd a9 a0 92 3e b8 b6 7a 3d
       -0.09760082 -0.038682874 0.286382 0.06120941
0000e0 60 43 58 bd 25 26 1c bc f9 61 7d 3b 0f 41 59 bd
       -0.05279863 -0.009530579 0.0038663133 -0.05304056
0000f0 14 c7 3f bc 8e f4 19 3d 8f 3f 42 3d 33 2f 6d bc
       -0.011705179 0.03758674 0.047423895 -0.014476585
000100 fb 22 42 be 0b a3 6b bd ca 4c 79 3c 11 76 d3 3c
       -0.18958656 -0.057528537 0.015216062 0.025813134
000110 09 89 44 be 53 56 df 3d 9f 09 1a be 17 f1 e7 3e
       -0.191929 0.10905137 -0.15042733 0.45301124
000120 9f 6b 21 3d 63 f6 a1 bb 0d e5 38 bd 97 a1 c1 ba
       0.039409276 -0.0049427017 -0.045140315 -0.0014772889
000130 5d 4a e4 bc 7d 0b 0b 3d 29 fb 31 bd 25 8f 66 bd
       -0.02786749 0.033946503 -0.043452416 -0.056288857
000140 8a 28 50 3d 7c 18 27 3d ab f9 24 3c 07 f4 65 3c
       0.05081991 0.040794834 0.010069291 0.014035231
000150 ce bf 91 3c ec b5 87 bf 2d 42 50 3c d5 0d 64 3d
       0.017791655 -1.0602393 0.01271109 0.055677254
000160 62 c9 bd 3c e1 cb d5 bc 7b ba 23 3d c7 cb bf bc
       0.023167316 -0.026098194 0.039972764 -0.023412598
000170 1d 21 20 3d d8 82 bd bb af 5a 28 bd 74 2e a4 3e
       0.03909408 -0.00578342 -0.041102108 0.3206669
000180 8f 54 2f bd 41 bb eb 3b 56 67 10 3c 50 ab 13 bf
       -0.04280525 0.0071939533 0.0088137 -0.5768328
000190 4f 85 d2 bc ee 69 37 3d 17 eb 2f be 17 80 41 bd
       -0.025698332 0.044778757 -0.17179523 -0.047241297
0001a0 10 8e 5b 3d 8f 5b ff bc 55 af 6f 3d 3a 0e 83 bb
       0.05360228 -0.031171588 0.05851682 -0.0039994987
0001b0 01 41 a4 3c 65 8b 2f bd 3b c9 61 bd 33 20 2f bd
       0.020050528 -0.042857546 -0.05512355 -0.042755317
0001c0 3f 86 46 bc 14 c2 bb bc 89 1b 20 3c bd 13 72 3d
       -0.012116968 -0.022919692 0.00977219 0.059100855
0001d0 1e 00 1a 3c c0 9c fe bb 37 b6 6d 3b 96 90 84 3b
       0.009399442 -0.007770151 0.0036271939 0.0040455563
0001e0 af 5d 4e bd 49 dd c2 3e 7c e4 06 bd 4c 5b 7e 3c
       -0.050382312 0.38059452 -0.032932743 0.015524697
0001f0 c4 67 e3 3c 94 7a c7 bc f8 05 77 3d 83 03 20 3d
       0.02775944 -0.024350442 0.060308427 0.03906585
000200 da d5 54 3d 95 cc b9 bc d2 d2 8a bc 41 57 3a 3d
       0.051961757 -0.02268056 -0.01694623 0.045493368
000210 30 62 57 bd 22 7b 4e bd 80 44 98 3a fe 75 6b bc
       -0.052583873 -0.050410397 0.0011617094 -0.014371393
000220 a7 47 a9 bb 08 5c 24 3d a2 dd ac bc b2 fb 1a be
       -0.0051660123 0.04012683 -0.021101777 -0.15135077
000230 a6 1d 17 3d 54 4a a2 bb 3d 58 e5 3b 6c 0e b5 3c
       0.03689351 -0.0049527083 0.006999044 0.022101603
000240 48 c0 65 3d 48 1a 5c 3d 28 08 ff bb d8 dc 20 3b
       0.056091577 0.053736 -0.0077829547 0.0024545696
000250 7c 5d 14 3d 03 49 07 3d e6 0e ff bd 8e 06 80 3c
       0.036221966 0.033028614 -0.124540135 0.015628126
000260 46 1a b1 bd 03 03 ad 3c f7 9f 0e 3d 39 d7 04 bd
       -0.086475894 0.0211196 0.034820523 -0.032431815
000270 ab 73 27 bd 44 e4 c9 3d 12 ee 46 bd b9 86 8c 3c
       -0.040881794 0.09857991 -0.048566885 0.017154085
000280 c2 b3 5a 3c 6b d7 2e 3d 96 20 a7 3c 89 4f b8 bc
       0.013348522 0.042685907 0.02040128 -0.022498863
000290 89 dd 55 be 8f cc 15 3d 80 ed 5d 3a 60 a1 14 bc
       -0.2088529 0.036572035 0.0008465871 -0.009071678
0002a0 31 4a c2 3c d1 77 1f 3d d5 97 3f 3c 48 98 57 3d
       0.023717018 0.038932625 0.011693914 0.05263546
0002b0 bf 09 28 3d f8 e2 2f bc c4 af d5 3b ee e3 02 be
       0.04102492 -0.010735266 0.006521197 -0.12782261
0002c0 71 95 43 bb d8 5c 7a bb 86 47 30 bc 91 9d cf 3a
       -0.0029843713 -0.0038202312 -0.01075924 0.0015839805
0002d0 fd ca 03 bd 39 3a 52 bd 24 29 fa bc a0 81 e9 3c
       -0.032176007 -0.051325057 -0.030537196 0.028504193
0002e0 41 e3 b8 bc 31 d1 14 bd 60 f2 3d bb 5b af da 3c
       -0.0225693 -0.036332313 -0.0028983578 0.026694944
0002f0 b2 f6 4a 3d 86 64 93 3c f6 52 e0 bb 94 80 51 bc
       0.049551673 0.01799227 -0.006845827 -0.012787003
000300 c5 5a d1 be d4 7e 46 bc 73 52 ea 3c 85 f6 a9 3c
       -0.40889564 -0.012115199 0.028603768 0.020747432
000310 5f 8c 1c bc c2 36 37 3d 63 21 1c bc c2 b2 8b 3c
       -0.009554951 0.044729955 -0.009529444 0.017053012
000320 ba 2b 02 3d bf a9 5f bd c6 72 45 3d 2a 1c 53 bc
       0.031779982 -0.054605242 0.04820516 -0.012885133
000330 01 ae 20 bd 0c 2a f4 bc 58 69 df 3c 81 0e d1 3c
       -0.039228443 -0.029805206 0.027271912 0.025519611
000340 eb 0a d9 bc cf 89 0a 3e c0 0a 27 bd 86 27 d0 bb
       -0.026494464 0.13529132 -0.040781736 -0.006352368
000350 a3 b2 81 3f e5 8f 22 bb 7b 63 1e bd 2d ea e7 bc
       1.0132641 -0.0024805006 -0.03866909 -0.028309906
000360 ec 7d 72 bd e8 c3 00 3e 82 6a 0c bc ef ae ff bc
       -0.05920212 0.12574732 -0.008570315 -0.031211345
000370 9f 28 54 3c 2e cd 38 3d 77 de 0a bc 85 2b 40 bd
       0.012949138 0.04511755 -0.008475891 -0.046916503
000380 76 39 e5 bd 09 7e 36 3c ea 71 85 3e 8b 43 52 3c
       -0.111926004 0.011138448 0.26063472 0.012833486
000390 3e 0b e8 bc ec 50 6f be ee f7 20 bd 50 89 92 3c
       -0.028325673 -0.23370713 -0.039298944 0.017887741
0003a0 db b3 f6 3c 20 84 0d 3d a3 e0 bb bc 87 48 76 3c
       0.030115059 0.034549832 -0.022934264 0.01503194
0003b0 00 d7 cc 3a 5c 96 d0 be 65 cd 5b 3d f7 1d 18 3d
       0.001562804 -0.40739715 0.053662676 0.03713795
0003c0 c4 76 1b bd 58 84 30 3d 93 a9 89 3c 63 ce 20 bd
       -0.03795506 0.043094963 0.016804492 -0.039259326
0003d0 e9 68 23 3c 76 12 5c bd 31 91 2a 3f f8 70 23 3f
       0.009973743 -0.053728543 0.66627795 0.6384425
0003e0 8c df 26 bd a1 7a b7 3c cc 26 b0 3c ca e4 f5 bc
       -0.040740535 0.022397341 0.021502875 -0.030016322
0003f0 a6 9e 27 3d 50 03 44 bf 9b 7b 51 3d 8c f3 5d 3d
       0.040922783 -0.76567554 0.05114327 0.054187343

net.4.bias f4 [4]
000000 d9 18 d7 bc 5f 61 e2 3d 94 de 33 be d4 ef 29 be
       -0.026256965 0.11053728 -0.17565376 -0.16595393
