logs/PointMaze-Right/airl_sac/seed0-20231226-1522/model/step635000/disc.pth (torch, 90839 bytes, 10 tensors)

g.0.weight f4 [100, 6]
00000000: 26b7 0f3f 35f4 e83e b430 abbe bee1 26bf
00000010: b8d3 033e 3cb9 43be 4d64 bebe 1077 053e
00000020: b9f2 943e 48b4 36be 624d 3d3e 0770 ad3e
00000030: 8ca9 76bf 9faa adbd 6d22 83be aaa0 a13e
00000040: 2572 da3d 6836 4f3e de3e a2bd f1ee 32be
00000050: 87bd 65be 9710 863e f2e9 af3e a0a4 b43e
00000060: 3dc2 9bbe 245d 7cbd 7633 e6bc 7818 44be
00000070: 6a56 80be f903 ac3e 5d5e 073c 364b cabe
00000080: bb63 0cbe dbb9 5bbe 7ae8 a33c c9fb dc3a
00000090: ff64 993c 475e a7be f75a 08be a4fb 8bbe
000000a0: 4e81 f9bd 79a2 083e 4bbb 0cbe 52c1 ddbe
000000b0: 31cc 273d 6ea6 063d 57dc e33d aa7f 9fbe
000000c0: 9e29 2d3e b17c 813e ac50 833e 52dd 6d3e
000000d0: 2e81 19be 058a e2bd eb30 da3d ac05 06bf
000000e0: 0654 723e a2f7 19be 169a 5dbe af8a 86bb
000000f0: e5c5 143f ec5e e53e 2152 923e dae7 3ebe
00000100: c1c9 9e3e d5f4 aabd c9ac d03e 73af 003f
00000110: 81d8 9a3d 0a4a d6be 47fd 993e 5326 1bbe
00000120: a38d 09be 6401 9dbe e118 9a3e 6949 dabd
00000130: 7949 ab3e 1096 473d 8385 a33e c093 06bf
00000140: 9d67 b4be 387e dcbe 463f 23be b459 153e
00000150: f7b0 31be 4a20 c43d d7e4 853e 272a 8b3e
00000160: b283 8fbd d71d 803e 24e8 2b3f c6fe 433e
00000170: 6e0a 78be 7ea5 96be 0854 e3bc 23b7 843c
00000180: dcce c5be 29eb 9dbe 8cdf 803e 2fea 7f3e
00000190: 6ca9 95be 1582 a03e e0e1 913e eb46 a53e
000001a0: bcaa 183d aa48 f83d 8ca4 24be 15af b83e
000001b0: ea02 02bf e36e 01bf e83a a53e b07b bf3e
000001c0: b8ca 793e 3ff7 803e 3a6f a83d 68cc 15bf
000001d0: a5c9 b83e c394 df3e deaf ee3e b67c 4c3d
000001e0: 9b54 813d 1c93 8e3d fc54 0bbe 1a43 4a3e
000001f0: e8f1 543d f816 923e b1db ef3e f85b 943d
00000200: 5228 c7be 8c1a b83e 1ae7 00be 9846 a23e
00000210: c88b db3e ba32 ce3e 8fbe c6bc 358c 82be
00000220: d167 5d3e d4bf e3bd 0fcb 043e 58be f5be
00000230: 3667 c8bd b53b c33d a23f 0abe 03e4 393e
00000240: 8b04 c43e 2355 3ebe a894 083e 11f9 06be
00000250: 0bfa 55bd 46dc 9cbd 371f 20be 716d dd3e
00000260: a079 75be 34fe cc3e fe23 883e a3e4 c23e
00000270: bc8f 70bf 5d37 c7bd 3bca 783e 3ebe 9a3e
00000280: 33ac d6be 246f 143e 5e94 fa3c 203c c2be
00000290: 4ea7 aebd 2823 c93e f12a eb3e dc81 e9bc
000002a0: 1241 31bf 3dc4 6a3d 1406 83be 80c9 b83d
000002b0: b67d 8ebe 921b 923e 949c 8bbe 3b91 c8be
000002c0: e706 3fbe c0fa bdbe 15ec 05bd 0d4f c8bd
000002d0: b285 293f dc17 053f 7ba5 d03e 8203 79be
000002e0: c933 2b3e ef4a 8b3e d226 cf3d 4ab2 5bbe
000002f0: e4f7 993e 1e1d d73e 43d2 6cbe 2b66 883d
00000300: a0a0 b33e 736f 903d af02 39be d09a c1be
00000310: 3e36 0e3d 7f22 053e 9248 97bd 16de f9bd
00000320: 624c 033e 3fb6 163f 8ba2 f4bd 6746 353e
00000330: 7965 f03e 8bf3 81bd fd18 b43e d3ef 04bf
00000340: 7308 dc3e 108c b33d a344 003e 08ae 9cbe
00000350: 0421 95be 3405 eebc 1049 05be e646 71bd
00000360: d2ec a1bc 8fa0 833d a6ed 61be fe27 413e
00000370: ea68 1dbe 9c93 d1bd 6710 903d bc2f e6be
00000380: f4e0 73bd 3809 c53e 1e28 d63e 386c a4be
00000390: 47c0 c0be 6fbe ccbe 39c9 19bc 11b0 8dbe
000003a0: 533e 7a3d ea96 cf3e be3e 253d 6fe8 a6be
000003b0: fd3e ca3e ff64 22be b587 b5be 8db9 9b3c
000003c0: 6562 34bd 87d4 3dbe 2695 97be a135 9d3c
000003d0: 03bd 62be 4f4e b23e f3d9 0a3f 3ec7 e53e
000003e0: 1963 533e fc19 f63c cb68 5b3e 705f 603e
000003f0: 9abc 243e c2ea 173d 2ebe 953e fe95 1bbe
0.5613884 0.45498815 -0.33435595 -0.65188205 0.12873733 -0.1911363 -0.37185898 0.130337
0.29091433 -0.1784221 0.1848655 0.33874533 -0.9635246 -0.08479809 -0.25612202 0.3156789
0.106663026 0.20235598 -0.07922147 -0.17473961 -0.2243558 0.26184532 0.34358174 0.3528185
-0.3042163 -0.061612263 -0.02810071 -0.19149959 -0.2506593 0.3359678 0.008262244 -0.39510506
-0.13709919 -0.21457617 0.020008314 0.0016859706 0.018724917 -0.32689115 -0.1331595 -0.27340424
-0.12182866 0.13343228 -0.13743322 -0.43311554 0.040966216 0.032873563 0.11126011 -0.31152087
0.16910407 0.25290444 0.25647485 0.23228958 -0.14990684 -0.110614814 0.106538616 -0.52352405
0.23664865 -0.1503587 -0.2164081 -0.004105888 0.58114463 0.44798982 0.28578284 -0.18643132
0.310133 -0.08347479 0.40756825 0.50267714 0.07560826 -0.41853362 0.30076048 -0.15151338
-0.13432936 -0.30665123 0.30097106 -0.10658533 0.33454493 0.048727095 0.319378 -0.525692
-0.352353 -0.43065047 -0.15942106 0.14585 -0.17352663 0.09576471 0.26151153 0.27180597
-0.07007541 0.25022766 0.67151093 0.19140157 -0.24222729 -0.29423136 -0.02775003 0.016200608
-0.38634384 -0.30843475 0.25170553 0.24991678 -0.2923082 0.31349245 0.2849264 0.3228067
0.0372722 0.121232346 -0.16078395 0.36071077 -0.50785697 -0.50559825 0.32271504 0.37399054
0.24393737 0.25188634 0.0822434 -0.58515024 0.36091343 0.43668184 0.4661855 0.04992362
0.06314965 0.06961653 -0.13606638 0.1975216 0.051988512 0.2853315 0.468473 0.07244104
-0.3889795 0.35957754 -0.12588158 0.31694484 0.42880082 0.40273076 -0.024260787 -0.25497594
0.21621634 -0.11120573 0.12968086 -0.47996783 -0.09785311 0.095328726 -0.13500836 0.18153386
0.38284716 -0.18587165 0.13337958 -0.13180949 -0.052240413 -0.07659201 -0.15636908 0.4324756
-0.23972178 0.40037692 0.2658996 0.3806506 -0.9396932 -0.097273566 0.24295895 0.30223268
-0.41928253 0.14495522 0.030588325 -0.37936497 -0.085280046 0.39284635 0.459312 -0.028504305
-0.69239914 0.057316054 -0.25590575 0.09022808 -0.27830285 0.2853666 -0.27267897 -0.39173302
-0.18654977 -0.3710537 -0.03269585 -0.09780703 0.6621963 0.5198953 0.40751252 -0.24317744
0.16718973 0.27205607 0.10114826 -0.2145473 0.30071938 0.42014402 -0.23127083 0.06660112
0.35083485 0.07052507 -0.1806743 -0.37813425 0.034719698 0.1300144 -0.073868886 -0.12200563
0.12822106 0.58871835 -0.11945065 0.17702638 0.46952417 -0.0634528 0.35175315 -0.5192844
0.42975196 0.08766949 0.12526183 -0.30601525 -0.2912675 -0.029055215 -0.13016152 -0.058905505
-0.019766245 0.064271085 -0.22063312 0.18862912 -0.15372053 -0.102332324 0.070343785 -0.44958293
-0.059540704 0.38483596 0.41827482 -0.32113814 -0.37646696 -0.3998904 -0.009386354 -0.2767339
0.061094593 0.40544826 0.04034304 -0.32599208 0.3950118 -0.1585884 -0.354551 0.019009376
-0.04403915 -0.18538104 -0.2960598 0.019190611 -0.22142415 0.3482537 0.54238814 0.44878572
0.20643272 0.030041687 0.21426694 0.21911407 0.16087571 0.037089117 0.29246658 -0.15193936

g.0.bias f4 [100]
00000000: bbe4 ec3d 1d30 113e 89a0 19bd 0ecb 343e
00000010: 7395 743d 5885 2ebe 9cb1 c4be 1e37 a03e
00000020: f0a6 cabe 2156 c93e 6336 91be 5c3d 10be
00000030: a439 bbbe e736 c03e 08f5 cdbe 10a1 d03d
00000040: a6d4 93be 6e41 b93c 9cfb 0b3e 6159 34be
00000050: 460b 7dbe f254 7cbe c879 bfbd 3c26 b13e
00000060: 11ac c5be 2485 a63e aeee 6e3e 64e5 4ebc
00000070: eb39 893e 9844 22be 92e5 373e cf60 b43e
00000080: 9931 86be b903 7b3e 5c04 cb3c 0d73 71be
00000090: a97d 7cbe 0b5d 873e 3674 c6be 4ba5 51bd
000000a0: 77cf 893d d40b 93be 46a6 703e 3c28 373e
000000b0: 6a2b 043e 910a d23d a5cc c83e f7f9 93be
000000c0: 2c8c a3bd bc2e 7bba 41b9 2dbd a3b7 31be
000000d0: af36 1ebe 63f7 52be 04b5 163e 97f4 c5be
000000e0: b457 99be 8cc3 aa3e d6ec 8f3d ea26 48be
000000f0: 2045 aa3e 8f7f 5d3e 4580 853e 2489 a03d
00000100: 81c8 6e3e 6532 a7be b474 bbbe 1db7 ed3d
00000110: 6d27 a7be 6db3 8d3e b8ef 973e ae03 9fbe
00000120: f828 c03e f75c 693e 4ab5 993e 8005 9abe
00000130: a9a1 ac3d 8e59 5a3e 93ef 973d cc24 a23d
00000140: 7feb d73e f04c 2f3c e29e bcbe a409 7b3e
00000150: e38a d63d 7d09 46be c6f0 ccbe cc97 163e
00000160: 0c1c aa3e 86ea c9bd cd0d e33e ef9f 5e3d
00000170: b030 c9be 2978 863e 645f 0f3e 64dc 1bbe
00000180: 31d3 8b3e 9c00 363e c1c6 c1be 56fe babe
0.115670644 0.1417851 -0.037506614 0.17655584 0.05971284 -0.17043054 -0.38416755 0.3129205
-0.39580488 0.39323524 -0.28361806 -0.14085907 -0.36567414 0.37541887 -0.40226007 0.1018697
-0.28873175 0.022614207 0.136702 -0.1761222 -0.24711332 -0.24641779 -0.093494 0.34599483
-0.3860784 0.32523453 0.23333237 -0.012627933 0.26802 -0.15846479 0.17958668 0.3523011
-0.26209715 0.24513139 0.024782352 -0.23579045 -0.2465731 0.26438174 -0.38760537 -0.051183026
0.06729024 -0.28719962 0.23500928 0.17886442 0.12907186 0.10255922 0.3921863 -0.28901646
-0.0798572 -0.0009581854 -0.042413 -0.17355208 -0.15450548 -0.20602183 0.1471749 -0.3866317
-0.29949725 0.33352315 0.07027595 -0.19546095 0.33255863 0.21630691 0.26074424 0.078386575
0.23318674 -0.32655635 -0.36612475 0.11607192 -0.32647267 0.27675954 0.29675078 -0.31057495
0.37531257 0.2278937 0.30021125 -0.3008232 0.08429272 0.21323225 0.07418742 0.07917175
0.42171857 0.010699496 -0.36839968 0.24515396 0.10475709 -0.19339557 -0.40027446 0.14706343
0.33224523 -0.09859185 0.44346467 0.054351743 -0.39294958 0.2626355 0.14001232 -0.15220791
0.27309564 0.1777367 -0.3784695 -0.36522168

g.2.weight f4 [100, 100]
00000000: 6ee4 c23d 5343 b9bc 9a9b d0be a922 93bd
00000010: b06a 92bd 1a93 b93c 1aab d7bb dc22 f13d
00000020: 93e8 debc bfae 90bf 03bf 2ebb caf2 ff3c
00000030: 6032 583d a11b 4abf b026 61bd 626a eb3d
00000040: 0da9 1d3c 547b 7abc 16a3 bdbf 035c 61bc
00000050: ad34 eb3c d279 2b3f 4241 fb3d 8467 b13e
00000060: 8061 c1bd 357a 3a3d e6b3 cbbe 21cc 343e
00000070: c654 e9be 5adc ca3d 4cac 123d 5099 363d
00000080: f827 703c 1612 14bd e97a b73d 1ac3 3c3d
00000090: a7cb f83c 3047 563d 0068 a93a 8031 983b
000000a0: 006f 8ebd e340 9d3c baed b43d 214c bfbf
000000b0: 72b8 46bf 4c12 873d 0a21 cb3d dab7 a0bd
000000c0: 0c81 34bf f4c9 053e 7ee3 b9ba a08e 61bd
000000d0: c99f 9f3c 8a54 98bd 8fde dcbe a242 783d
000000e0: c088 4d3d 41fb 2bbb d686 c73d ba0f 61bf
000000f0: 8f9c 6ebf f323 bd3d 362c 7c3d d11d f13d
00000100: 9010 5c3e e52d 7bbf 5db1 963d 64aa 24be
00000110: 67d8 bcbd 8930 2f3e 4fa2 87bf 01b7 6abd
00000120: 8cef 1e3e 09c6 f9be bbb5 a0bc 807d 093d
00000130: 924b 3dbf f351 79be 0d0a d6bd 0abc 14bd
00000140: a9ae a43d e37d 27bd ed1f 993d 59aa 1a3c
00000150: 814a 87bd 273a b4bd fdaa 81bd 77f6 433b
00000160: 9095 51bc 665e 6abe 37c8 1d3d aa87 66be
00000170: e3ba 0cbd 248b d1bb 3e40 8a3d 17a9 98bd
00000180: 6e6f 63bf 55c0 8fbf 3ddb 8ebd 5d78 86bd
00000190: 7ab8 a13d 2a97 69bd 2e0d 8abe 7258 233c
000001a0: c323 c03d 7ac3 583d d03c 14bd 0048 f53d
000001b0: 9aa1 8cbd 4bf9 8ebf 0cb1 9b3d 0969 dcbd
000001c0: a50a c53d 3d98 e1be 405a d73c 5f2b 0dbd
000001d0: 2d4b bcbc da98 0ebe 2d02 b8bf 9f6f 583d
000001e0: 7803 98bd d319 023f 62d5 693d 2537 1a3e
000001f0: b7e3 0cbd 2bbf 6b3c d814 88be 38bf a33d
00000200: e7f7 b3be 6782 523d 6d71 903d 4d8c 9ebd
00000210: 6aa7 923d 56b1 673d c3ba 393e 1719 34bd
00000220: a30e 60bd 409c 8a3b a07e a9bd 8804 b9bd
00000230: 7811 8a3d ea3c 633d 5188 733d 714a 9abf
00000240: 41e8 71bf 21df 86bc e2cb c4bc cbc3 a03d
00000250: 5c9a 47bf 11d9 b23d b976 93bd 58fe c73d
00000260: e21d 22bd 9397 b1bc 3708 91be ac1c 053d
00000270: e06b b8bc 0f8c 423e 2462 153e 8ce9 68bf
00000280: 41bb 41bf 9933 153e f145 473e 2173 1a3d
00000290: 1521 303e a0ae 81bf 6710 7c3c 5e42 98bd
000002a0: 9a2d 4eba a122 993e 710b 49bf f6c4 a5bd
000002b0: 254f cd3d 379b 0fbf 5957 5f3d 27fe b03c
000002c0: 3409 21bf 1fb3 27be 91ef aabd 4882 28be
000002d0: 1635 b23d d7f1 8d3d fd71 84bd bd6a 1e3d
000002e0: 8e06 633d 20ef 9f3d fa7d bdbc ae26 e4bb
000002f0: d4e8 863d 8244 78be b13c 0e3e 9a45 aebd
00000300: e7bc c2bb fe80 4fbd a851 923d 3388 c33b
00000310: 612b 3abf 5601 80bf 4742 e03c 93ff 7f3d
00000320: 36d4 bbbd ef28 873d bb6e cabd 5e29 44bc
00000330: 4011 393d 1218 89bd 5b75 b23d f9ce 5f3d
00000340: 7acd 8cbc 6930 49bd 8377 54bd d07d d13b
00000350: f32a 43bc ec74 71bc e0e6 d03c 2a08 2d3c
00000360: d324 22bd 02e1 71bd dfea ccbd ddb4 37bc
00000370: 73c1 13bd b312 283d 1af2 403d a3de 82bd
00000380: 6039 743d 908c 263c 8e4b d2bd e550 f4bc
00000390: dc6d 90bd a546 8cbd 6fbf b1bc e7bf 843c
000003a0: 9aad 9cbb 71f2 04bc 5a94 c9bd 8823 c83d
000003b0: cd21 96bc 9390 983d 18ec bc3d dabc 3dbd
000003c0: ab17 a73d d7d2 32bd 26c1 eebc 0c4c 613b
000003d0: 22cb b9bd ddf1 02bd 6f61 be3a 201f 093d
000003e0: 3a40 683d 459b 91bd 3017 9f3d cdd9 773b
000003f0: 40c6 9dbd 3301 a93b 741d 193d dd63 61bd
0.09516226 -0.02261511 -0.40743715 -0.07184345 -0.07149255 0.022653151 -0.006581676 0.11774227
-0.02721051 -1.1303328 -0.0026664145 0.0312437 0.052782416 -0.7894841 -0.054968536 0.114949
0.009622824 -0.015288193 -1.4815395 -0.013754847 0.028711641 0.6698276 0.12268306 0.3464929
-0.09442425 0.045526702 -0.3978569 0.17655994 -0.4557249 0.0990531 0.035808846 0.044579804
0.014657967 -0.03615006 0.0895899 0.0460845 0.030370547 0.052313983 0.0012924671 0.0046445727
-0.06954765 0.01919598 0.08834405 -1.4945108 -0.7762519 0.06595287 0.09918411 -0.07847567
-0.7050941 0.1306532 -0.0014182178 -0.05506766 0.019485371 -0.074379995 -0.4313855 0.06061042
0.050179243 -0.0026242288 0.09742515 -0.8791462 -0.9320764 0.092353724 0.0615656 0.11773265
0.21490693 -0.98116904 0.07358048 -0.16080624 -0.09220963 0.17108358 -1.0596408 -0.057303432
0.15521067 -0.487839 -0.019617906 0.03356695 -0.73943436 -0.24347667 -0.10451136 -0.03631214
0.08041126 -0.04089154 0.074767925 0.009440028 -0.06606007 -0.08800154 -0.063314416 0.0029901543
-0.012792006 -0.22887573 0.038521018 -0.22512689 -0.034357917 -0.0063947607 0.067505345 -0.07454126
-0.88841903 -1.123057 -0.0697541 -0.06565926 0.07896514 -0.057028927 -0.2696318 0.0099698175
0.09381821 0.052920796 -0.036190808 0.119766235 -0.068667606 -1.1169828 0.076021284 -0.10762221
0.09621171 -0.4406146 0.026288152 -0.03446519 -0.022985065 -0.13925496 -1.4375664 0.052840825
-0.074225366 0.50820655 0.057088263 0.15060098 -0.034396853 0.01438884 -0.26578403 0.079954565
-0.35150072 0.051393893 0.07052884 -0.07741604 0.07160838 0.056565605 0.1813765 -0.04396924
-0.05470146 0.004230052 -0.08276105 -0.090340674 0.06741613 0.055478014 0.059456173 -1.2053968
-0.94495016 -0.016463818 -0.024023 0.078498445 -0.7796991 0.087328084 -0.07200379 0.09765309
-0.03957928 -0.021678722 -0.2832658 0.032498047 -0.022512376 0.1899874 0.14588219 -0.90981364
-0.7567635 0.14570464 0.19460274 0.03770745 0.1720012 -1.0131416 0.01538477 -0.074345335
-0.00078650715 0.29909232 -0.78533083 -0.08094208 0.10024861 -0.56096214 0.05452666 0.021605564
-0.6290467 -0.16376923 -0.08346475 -0.16455948 0.087015316 0.06930893 -0.06467054 0.038676012
0.055426173 0.07809281 -0.02313136 -0.006962619 0.06587377 -0.24244884 0.1389034 -0.08509369
-0.005942929 -0.050660126 0.07144481 0.005967164 -0.7272244 -1.0000408 0.027375354 0.062499594
-0.091713354 0.06599604 -0.098844014 -0.011972753 0.045182467 -0.06694044 0.0871379 0.054640744
-0.017187823 -0.049118433 -0.051871788 0.006393172 -0.011912095 -0.014737349 0.025500715 0.0105610285
-0.0395859 -0.059052475 -0.100057356 -0.011212555 -0.03607316 0.041033458 0.047105886 -0.06390121
0.05962503 0.010165349 -0.10268317 -0.02982373 -0.07052204 -0.06849412 -0.021697728 0.016204787
-0.004781437 -0.008114443 -0.09842749 0.09772402 -0.018326664 0.0744945 0.09224719 -0.04632268
0.08158811 -0.043658104 -0.029144835 0.0034377603 -0.09071948 -0.03196894 0.0014524887 0.03347695
0.056701876 -0.071096934 0.077680945 0.0037819028 -0.07703829 0.0051576137 0.037381604 -0.055026878

g.2.bias f4 [100]
00000000: dab8 a33d 9f0a 683c e77f 7d3d 2392 08bd
00000010: c2b0 843c 85ac a73c 50bb efbc e8c3 dd3d
00000020: 80bc 95bd c06b d338 6a2b 803c 0191 4fbb
00000030: 8afb af3c b306 603c 5375 c7bc 0759 923d
00000040: 9a90 26bd 7dc9 8abd 25ec 9abd 3a2a 563d
00000050: 1f01 b1bd 9d1d 433d 30ab 413c 0eb7 ae3d
00000060: a712 afbd 0c2a cbbd 56ba 973d 43a8 cbbd
00000070: b098 693d 13cc f43d cdb8 b7bd d533 873c
00000080: 8d48 37bd 2726 5fbd 9971 acbd 0130 b83a
00000090: ed57 1bbd 9ce6 903d 07b5 db3c 175d 0ebd
000000a0: c7e9 fd3c 88ef 9ebd 5d76 99bd 2991 e7ba
000000b0: 4c33 dfbc 20da a0bd f4e3 c7bd f5ba 433c
000000c0: 36c0 84bd caa1 84bd 09ef 5bbc 4568 cabc
000000d0: 8d2d 003d 3ca9 f83d f9a7 87bd b9c1 38bd
000000e0: 0d95 b7bc 88e8 3b3d 0dda 4cbc 39f1 3ebc
000000f0: 36c3 c13b 8c13 f83b 2174 89bd b33a 0e3d
00000100: 75bc 68bd 5df3 3bbc 5980 b03c cabd 26be
00000110: a318 97bc d9ec 57bd dc23 e2bc 675b 6cbb
00000120: c008 acbc 9121 1c3d 3bf2 363d 709d a2bd
00000130: 167f 643d f75e 3d3d 33c4 aabb bd13 e6bc
00000140: 5852 b7bd 2428 ffbd 8aa2 8dbd 0bd4 3b3d
00000150: 3e91 6abd 9411 dc3c 9fa2 14bd 86d8 53bd
00000160: c29d 9dbd a72b 3e3c 9836 433d 5ad2 2ebd
00000170: 0d43 1cbc a115 0ebc 17ab 173d 53e8 afbc
00000180: 7766 373d ee23 3b3d 7e2a 3e3c 9cbb f3bb
0.07994242 0.0141626885 0.061889555 -0.03334249 0.016197566 0.020468006 -0.029264122 0.10828382
-0.07311344 0.00010081334 0.015645701 -0.0031672122 0.021482248 0.013673472 -0.024347937 0.07145887
-0.040665247 -0.06776712 -0.07564572 0.052286364 -0.08642792 0.047635663 0.011820599 0.08531009
-0.085484795 -0.09920129 0.07408588 -0.09944203 0.05703038 0.119529866 -0.08970795 0.016504208
-0.044746924 -0.054479744 -0.084201045 0.0014052392 -0.03792565 0.07075235 0.026819719 -0.034756746
0.030995263 -0.07760531 -0.07493279 -0.0017667162 -0.02724614 -0.07854104 -0.097602755 0.0119464295
-0.06481974 -0.06476171 -0.01342369 -0.024707923 0.03129344 0.12141654 -0.06623835 -0.045106623
-0.02240994 0.045876056 -0.012503159 -0.011654192 0.0059131635 0.0075706895 -0.06711603 0.03472395
-0.05682035 -0.011471597 0.021545576 -0.16283336 -0.018444365 -0.05271611 -0.02760499 -0.0036065222
-0.021000266 0.03811795 0.044664603 -0.07940185 0.05578526 0.046233144 -0.005211377 -0.028085584
-0.08951253 -0.12458828 -0.069157675 0.045856517 -0.05726742 0.02686385 -0.0362879 -0.051720165
-0.076961055 0.011607087 0.047659487 -0.042681076 -0.0095374705 -0.008672149 0.0370284 -0.021473086
0.044775452 0.045688562 0.011606811 -0.0074381363

g.4.weight f4 [1, 100]
00000000: 6724 3b3f 22e4 763f 8568 b73d ef58 24bf
00000010: 5a30 593c 94c3 8bbe 16ee bd3d 1b82 7f3f
00000020: f3e9 22bd 6c41 92bf fdc0 69bf 66cd 393f
00000030: 7473 55bf 05cd 98bd e5c6 2cbe 46e3 143d
00000040: 6165 f7bf f825 61bf 6756 b339 3508 3c3f
00000050: a0b9 c5bd 2345 92be 2371 d2be 1b2d ac3c
00000060: 9a99 d63b d91c 24bf 86df 253d 3d67 c3bd
00000070: f556 893f 0fb9 633f ef16 2abf f740 3a3f
00000080: 673b cc3c da79 8abc 98c8 cfbe b63c 823f
00000090: 3256 4e3f a65a 5e3f b1cc c4be a023 68bd
000000a0: 8ac0 9a3d efda aa3d 7e1b 753f fc5c 7e3f
000000b0: d410 9ebf 85d0 8dbe 2287 803d f908 7ebe
000000c0: 39af 5bbe 5882 803d 6685 ad3a 0baf 4c3d
000000d0: dbed a9be 80fd 5a3f 69ea bd3c 4ebd 393d
000000e0: 3a08 223d c05c cbbe f776 a0bd 80f1 403d
000000f0: 86a5 3c3c 7a23 663f c5e3 a7be 3193 d1be
00000100: 74a2 9fbf 1b87 9fbe 096c a23d 6109 fdbf
00000110: 0a27 a3be 92b7 443f 5bc3 563f b530 b83d
00000120: 2f73 b03d 3181 90bf 8a9a 65bf 2eb0 963d
00000130: a256 603f 6897 023c eaf0 0abd c1ec 30bd
00000140: aa53 49bd 71bd 8ebf 5367 a5bd 48d6 293d
00000150: d9b2 473d 5e7e 65bf 9e3a 8ebe 050d 2dbf
00000160: 6bb0 0dbf ed83 5abd 48be fabe cada 28bd
00000170: 90d4 b13d ca97 abbe b494 80bf ad56 cdbe
00000180: 794e 89bf ec43 433f 2202 5c3d fc4e aabe
0.7310242 0.96441853 0.089554824 -0.641982 0.013256157 -0.27297652 0.09273927 0.998079
-0.039773893 -1.1426215 -0.913101 0.7257904 -0.8337929 -0.07460979 -0.16872747 0.036349557
-1.9327813 -0.8794856 0.00034205915 0.7345002 -0.09654546 -0.28568372 -0.4110194 0.021017602
0.0065490725 -0.6410652 0.04049637 -0.095411755 1.0729662 0.8895425 -0.66441244 0.7275538
0.024930669 -0.016903806 -0.40582728 1.0174778 0.80600274 0.8685707 -0.38437417 -0.0566746
0.07556255 0.083425395 0.95745075 0.9936063 -1.2348886 -0.2769815 0.062757745 -0.2480811
-0.21453561 0.06274861 0.0013238608 0.04997162 -0.33189282 0.8554306 0.023183065 0.04534655
0.039558627 -0.397192 -0.07835191 0.047105312 0.011514073 0.8989788 -0.32790962 -0.4093261
-1.2471452 -0.31157765 0.07930762 -1.9768487 -0.31865722 0.76842606 0.8389184 0.08993665
0.086157195 -1.1289426 -0.8968893 0.07357822 0.8763219 0.007970668 -0.03392116 -0.043194536
-0.049152054 -1.1151563 -0.08076348 0.04146412 0.048754547 -0.89645946 -0.27779096 -0.6759799
-0.5534732 -0.05334847 -0.48973298 -0.04122428 0.08683121 -0.33514243 -1.004538 -0.4010519
-1.0727073 0.76275516 0.05371297 -0.33263385

h.0.weight f4 [100, 6]
00000000: aefb d03e d531 dabd 8c32 49be ba08 e5be
00000010: eaea ac3e 8845 313e fbf1 233f 1252 ae3e
00000020: df31 32bc ffec 7cbe 62c0 c03e e874 c1bd
00000030: e421 083f 68b3 b8be cdb4 a7be 7d21 673e
00000040: 8243 8bbe 8990 88be ba92 313b 7a3d 313e
00000050: fc91 a3be 2a7a a93e f321 c23b ea4b 70be
00000060: c012 323e f4f7 033f b307 2fbc d3a2 683e
00000070: 48d3 dd3c d6c0 95bd f873 dd3d c470 71bc
00000080: 62be 0ebe dce8 ff3e e53b bd3e 59cf 3c3e
00000090: 7365 60be 4037 0d3e ceae 0abd 08bb 523e
000000a0: 428f 70be a2a0 0e3e 0f4d a13e 8b28 903e
000000b0: 8cd9 28be 68df a2be 802c 5d3e 2952 a03e
000000c0: 7381 98bd c09a c9bc bb25 c63e 86b5 b7be
000000d0: 0042 993e eddd 0c3e bca3 c93e 7452 6f3e
000000e0: 6f30 0b3e 6507 00bf 383e 913d 4be6 8dbe
000000f0: c722 a43e 4f0e a03e 6d40 643d 7223 1a3e
00000100: ea5c b4be 1d96 c73c 6674 053f 8417 0dbf
00000110: 5dd6 b2be 6e0b 29be e6e5 0b3e afe1 a23e
00000120: e623 b73e a978 823d f346 bfbe f849 d9be
00000130: 080c 1f3d 4201 263e 578d 4a3f 3bd0 dd3d
00000140: 8432 1d3d 425f cfbe fcb4 093e 69ed 49be
00000150: 7822 b7be a2e1 eb3e e25e 86be 85af 3cbe
00000160: 7d0f cf3e 1928 a93e 64fb 973d cc88 063e
00000170: 75f7 533e 27ef 933c db61 b1be 3fdc b83c
00000180: d279 383f fc97 c93e d7d5 303e 2933 9ebd
00000190: 4d20 5dbe a32a a2be eba9 5bbe e93c d63d
000001a0: 25d8 88bd 0c09 163e eefd 20bd c628 a93e
000001b0: 28ac 2a3f 4795 943e 92db 213a 5475 a7be
000001c0: 77f3 ac3d 0953 263e 22a2 a1bd 3098 d93e
000001d0: 44b2 bbbd 7cea 623e 9297 cdbe ad0b 6dbe
000001e0: ca32 b23c f813 ccbe d731 21be 4e77 b9bd
000001f0: 1e93 9a3e a119 87be 2af5 933e 3c0a 5abe
00000200: c5df 77be d751 44be e1be c3be fd36 a3bc
00000210: e98d 62be 6ef1 44be 5f74 b23e d261 2bbe
00000220: 1b01 c63e 6a51 c9be 8847 1d3f 89f7 66be
00000230: 6963 513d 0422 d83c 4b84 ac3e 91f4 49bc
00000240: cdcb acbe ed3d b7be a161 07bd f638 7cbd
00000250: 78f1 7fbe ac3f b1be 6df8 083e a43b efbe
00000260: da2b 9f3e 2a41 bdbd db82 ad3e 3f06 413e
00000270: c742 50be e990 023e 458b 35be 4bbd 9ebd
00000280: 46e8 823e 3698 b2bd 145b 963d c4b9 77be
00000290: 1710 b8be aa09 0b3e 8958 a5be 1459 47bc
000002a0: c614 113e 0659 8dbe e3cb 4cbe 6b59 a03e
000002b0: c56a 9bbe fcec 1c3e 3de7 1abf 43f1 54be
000002c0: 4684 c83e f852 e33e a9f3 b9bc 6684 ac3e
000002d0: 68df 233f 8a18 6d3e d525 15bc c0eb 19bf
000002e0: 58dd 553e 37f3 3b3e 4da8 843e 53a7 79bd
000002f0: af3f a63c 469b 57be 9080 95be 8be7 4d3d
00000300: b948 33bf 1d2f 943d 3cd7 ab3e 3658 613e
00000310: 9448 743e ea3f 0abd 9909 03bf 01d2 bb3e
00000320: e563 963e 7496 0e3d 2e7b 22be d555 9c3d
00000330: 168a 323e cbc3 a33d f81e 9e3d dc4e 0ebd
00000340: e7a1 763e 21cd babe db68 a0be e326 82be
00000350: a784 8abd 075c 273c 05d8 70be 1999 5a3d
00000360: dd42 04be 4e0a 333e 32e0 bf3e 99c9 76be
00000370: e032 53be 0ffa 38be 6f9a 28be 64b0 b13e
00000380: 9337 af3e 146f eabd 6872 82be 02da b7be
00000390: 1c29 983e 1208 b4be a2d3 abbe 13e7 1ebe
000003a0: f358 b6be 4ae9 523c a1ea 94be 20ec 153e
000003b0: 3406 08bd ddb4 a6be a8c2 773e d984 0dbe
000003c0: 52d1 b5be 95cf 52be 146d 523e 250d ac3e
000003d0: 4905 473d 1939 5d3e f89a 753e be7a cfbe
000003e0: 2c58 4cbd 7994 82be 0b2b 01bd 19c7 cd3e
000003f0: 0aeb 0c3e f0c0 d5bd daef 5ebe e0f3 a7be
0.40817016 -0.10654036 -0.19648188 -0.4473322 0.33772975 0.1731168 0.6404111 0.3404699
-0.010876148 -0.24699782 0.37646776 -0.09446126 0.53176713 -0.36074376 -0.32755128 0.22571369
-0.27199942 -0.26672772 0.0027095512 0.17308608 -0.31947315 0.33101016 0.005924457 -0.23466459
0.17389965 0.5155022 -0.010682988 0.22718363 0.027078286 -0.07312171 0.10813135 -0.014736358
-0.13939813 0.49982345 0.36959758 0.18438472 -0.219137 0.13790607 -0.033858113 0.2057916
-0.23492149 0.13928464 0.31504104 0.28155932 -0.16489238 -0.3181107 0.21599007 0.31312683
-0.074465655 -0.024609923 0.3870066 -0.3588068 0.29933167 0.13756533 0.39382732 0.23371297
0.13592695 -0.50011283 0.070919454 -0.27714762 0.32057783 0.31260917 0.055725504 0.15052584
-0.35227138 0.024363572 0.52130735 -0.55114007 -0.3492917 -0.16508266 0.13661918 0.31812808
0.35769576 0.0637067 -0.37358817 -0.42439246 0.038829833 0.16211417 0.7912192 0.108307324
0.038378254 -0.40502363 0.13447946 -0.19719471 -0.35768485 0.46070582 -0.26244265 -0.1842633
0.40441504 0.33038405 0.07420996 0.13138121 0.20699866 0.018058373 -0.3464497 0.022565959
0.72060883 0.39373767 0.17269073 -0.07724602 -0.21594353 -0.31673154 -0.21451537 0.104608364
-0.06681851 0.14651889 -0.039304666 0.3303892 0.6666894 0.2902014 0.0006174381 -0.32706702
0.08444875 0.16242613 -0.078922525 0.42498922 -0.09164861 0.22159761 -0.401547 -0.23148985
0.021752734 -0.39858985 -0.15741669 -0.09055959 0.30190367 -0.2638674 0.28897983 -0.21292967
-0.24206455 -0.19171844 -0.38231567 -0.019923681 -0.22124447 -0.19232723 0.3485441 -0.16736534
0.38672718 -0.39319927 0.61437273 -0.22555365 0.051120196 0.026383407 0.33694682 -0.012326376
-0.33749238 -0.35789433 -0.03305209 -0.06157776 -0.24994457 -0.3461889 0.13376017 -0.4672519
0.31088144 -0.09240945 0.33888897 0.18850039 -0.20337974 0.12750591 -0.17728908 -0.077509485
0.25567836 -0.08720438 0.073415905 -0.24191958 -0.35949776 0.13577905 -0.3229411 -0.012167234
0.1416808 -0.27606982 -0.19999652 0.3131822 -0.30354896 0.15324777 -0.6050909 -0.20795159
0.39163417 0.44399238 -0.022699194 0.33694762 0.64012766 0.23153892 -0.009103258 -0.6012535
0.20885217 0.18354498 0.25909653 -0.06095059 0.020294039 -0.21055326 -0.29199648 0.050269645
-0.7003284 0.07235549 0.33562648 0.22006306 0.23855811 -0.03375236 -0.5118652 0.36683658
0.29373088 0.034811452 -0.15867302 0.07633559 0.17435488 0.07996329 0.077207506 -0.034743175
0.24085198 -0.36484626 -0.31329998 -0.25420293 -0.06763583 0.010214812 -0.23519905 0.05336866
-0.12916131 0.174844 0.37475735 -0.24100341 -0.20624876 -0.1806414 -0.16465162 0.34704888
0.34222087 -0.11446968 -0.2547791 -0.35908514 0.29718864 -0.35162407 -0.335599 -0.15517835
-0.35614738 0.012873003 -0.29085258 0.14640856 -0.03320904 -0.32559863 0.24195349 -0.13820209
-0.3551126 -0.20586999 0.20549423 0.33603778 0.048589025 0.21603812 0.23984897 -0.40523332
-0.049888775 -0.255039 -0.03153519 0.40190962 0.13761535 -0.104371905 -0.21771184 -0.3280325

h.0.bias f4 [100]
00000000: 9fd4 5b3e 6d42 513e 093a 253e b8f0 603d
00000010: a0cc 52be 35a6 f6bd f295 a13e 306e 7dbe
00000020: 5b8d aebe 3b03 0c3e 33f9 8abe ef2f 823c
00000030: 9e15 32bd 2ba4 563e 5598 7bbe c88b 34be
00000040: 2fef 6a3d 4647 ba3d bf10 283c 8d7a e4bd
00000050: 58ad 9cbe 0acf 2b3b f17c 90be 9745 143d
00000060: 1c49 f4bd e576 863e 70c0 60be 4327 86be
00000070: c2d7 acbe 2506 933e 784b dc3d 9661 04be
00000080: 718c ed3d 258f 973e 394a 583e 0fbc eabd
00000090: 0cbd 4cbe 3963 59be c6ed a2be ec68 63be
000000a0: 9d13 89be 76a8 933e c7f4 e2bd 991f 2bbe
000000b0: 3461 913d 7aac ac3e 19e0 a2be 2c37 e23b
000000c0: 8243 5e3e 5880 20be 64d1 a3be f7ca d13e
000000d0: 2091 893e af9f 96be be4a 923e 3c89 adbe
000000e0: 9033 65be 5b08 df3d 3355 f03d 2040 a63d
000000f0: f50b d43d 9129 9bbe 1522 64be e989 d53e
00000100: 8dfd be3e 4393 323e 091f 463d 4aa8 3abe
00000110: 0b32 ca3e b570 6c3e a8df 833e 2124 77be
00000120: 0dd1 993e 3332 69bd 6c8d aa3e 965f 0abe
00000130: 2973 a33e 3dc8 ddbc 56ba b83e e5a7 ec3d
00000140: c704 0a3e 005b 9cbe 47fe a13e 28f7 1abe
00000150: 4b2e b2be 7209 0b3d 878d 8b3e 37d2 c7be
00000160: f843 a3be c2ac 8abe aea3 233e 724c 8f3d
00000170: 8dd8 883e badb f2bc 0f13 843e d99b 9e3d
00000180: d2ab 763e e3bc a93e 63b5 773c dfd3 b13c
0.21467827 0.20435496 0.1613542 0.054917067 -0.2058587 -0.1204342 0.31559712 -0.24749064
-0.3409222 0.13673107 -0.2714325 0.015891997 -0.043477647 0.20961063 -0.24569829 -0.17631447
0.05735701 0.090956256 0.010257899 -0.11156187 -0.30601 0.0026215934 -0.28220323 0.03619918
-0.11928007 0.26262584 -0.21948409 -0.2620183 -0.3375836 0.28715625 0.10756582 -0.12927851
0.11599053 0.29601398 0.21122064 -0.114616506 -0.1999399 -0.21229257 -0.31822032 -0.22207993
-0.26772776 0.28839463 -0.11081844 -0.16711272 0.07098618 0.3372534 -0.31811598 0.0069035497
0.2170544 -0.1567396 -0.3199569 0.40975162 0.26868534 -0.29418704 0.2857265 -0.33893764
-0.22382951 0.108902656 0.117350005 0.081176996 0.10353843 -0.3030515 -0.22278626 0.4170678
0.3730282 0.17438988 0.04836944 -0.1822826 0.39491305 0.2308987 0.25756574 -0.24134876
0.30042306 -0.05693264 0.3331102 -0.13513026 0.31923798 -0.02707302 0.36079663 0.11555461
0.13478385 -0.30538177 0.3163931 -0.15133345 -0.34800944 0.033944555 0.27256414 -0.3902757
-0.31887794 -0.2708493 0.15980408 0.06997003 0.26727715 -0.02964579 0.2579579 0.07744569
0.24088982 0.33151922 0.01511893 0.021707473

h.2.weight f4 [100, 100]
00000000: 0299 a23d 2415 0f3e 635f 2f3e 529d 393c
00000010: a23e 423e 4251 e3bd 8db1 a4bd 2199 50be
00000020: 00d1 c1bd f00e 5d3d 3346 8abc 5a20 cd3e
00000030: 6804 3bbe 6ea3 5d3d f77e 8e3e 33a0 a5bc
00000040: a0fb 233d 36dd 353d 8a2b 913d 0f56 c93e
00000050: 679a f83c f548 a13d 001d ebbb 5ffe 873a
00000060: 47e1 9abd eff6 3d3d bf16 843d ba96 2ebd
00000070: b3c4 55bd ea7f d9bd 59ff 943d e02a 413d
00000080: 2364 d8be 5c80 783d 1cd1 59bd 2d1e 8abd
00000090: f314 80bd 1de7 0abd 5af9 5f3c 3a57 b0bc
000000a0: d08a 013d 4f72 c03e daa9 093d 8815 84be
000000b0: b96e 8d3e 8528 35bd 0a2d 3d3d 7305 d33d
000000c0: 5983 a9bd 4dbb c8bb 561c 5bbd c126 813d
000000d0: 6648 3abd 335f a2bc e333 ddbd 9aaf 1d3b
000000e0: 775e 73bd f8f8 aabd 360d 9bbe 3c17 18bd
000000f0: 8fce 81bd d8bb 27bd 6ff9 8e3d 7b99 3a3e
00000100: 3ab6 803d d160 683d 8a48 0e3d 60e9 453d
00000110: cec7 7cbd d6c1 50be 2b10 163b 005b f23c
00000120: 09d9 2a3c b735 40bd a519 783d 4896 c2bd
00000130: 497d 36bd 85ca 3f3f 5c89 a63c 9394 6cbd
00000140: 7021 f03d ba40 d3bc 3f36 39be edfc 28be
00000150: 58d6 9c3d 2f4b a4be 9031 cf3a 0747 d53c
00000160: 4077 1ebd efe4 91bd bbc3 17be 5c28 7fbd
00000170: 1db1 3cbd 82f0 8e3d 9058 c2bd f8e5 603d
00000180: a250 443d 4367 8cbb cfd8 ec3d 657f 843e
00000190: a3b8 67bd 374c 4ebd 1aee e03b cd71 b9bb
000001a0: 43bc 0e3d e07d b13d 6741 71bc 3748 03bd
000001b0: f3ae dabc 8ddf 8cbd 2dd2 f83c d028 3b3d
000001c0: 23c2 bebd a0b0 8fbc 2dd0 673d 7348 f03c
000001d0: 5772 3ebd 074e 3e3d f2d2 a73d 071e acbd
000001e0: 07d2 c43c 77ec 1ebd 4049 bfbd c06c 323c
000001f0: 87ae 3cbd 0d83 573d f723 6a3d 2748 4f3d
00000200: 6772 49ba 55d6 b8bd 6764 a2bd d3bb 293d
00000210: 2332 a0bd 9a42 68bd fa3a 0bbd 33bb cabc
00000220: ad4e 873d 80b3 16bc 0796 203d 454c c33d
00000230: 1a71 203c 3377 143b 20eb 5d3d d371 6f3d
00000240: 2dd3 c23d f32d 9abd 7027 2a3d 00d0 7139
00000250: 0322 133d f254 cbbd 8323 283d 7a90 213d
00000260: 9a79 e2bc d05c c8bd d521 b93d 8771 ab3c
00000270: c714 0e3d 88cf 87bd fd97 b5bd 5aa5 733d
00000280: 333e 44bd 52db b6bd b258 b4bd 2021 433d
00000290: 7787 493d 9d5e 933d bd84 313d 4ab2 36bd
000002a0: 1a5d cf3b ad1b 0dbd cbcd 90bd 7d9e 2cbd
000002b0: 60d5 87bc 805c 51bc c771 9fbc 05f9 adbd
000002c0: 6d84 1abd f7e2 54bd 807c f8bc 3a36 8abd
000002d0: da4e 32bd 0d96 863d 3887 c7bd ba46 7ebd
000002e0: 0044 2aba 2338 76bd b349 bebc 5a5e a6bd
000002f0: da24 25bd 530a 9d3c 002a 75bb 0897 bfbd
00000300: 00ae 88ba 9076 793d bf93 c8bd 1dae 1cbd
00000310: fae4 b3bd 600a 8d3c 5a7e 653d 93b4 fabc
00000320: 377f 4d3e 97ed 563d b61c 953d ccd0 033e
00000330: a1c4 ec3d 54ee 953d 5b7a e0bd 9fda 86bd
00000340: 1790 303d a15f 0f3e 9a71 493d 2cd3 8b3e
00000350: e148 bdbe bb9e 2d3e 8f9c 713e 6864 a03d
00000360: 4938 b13d 3827 07be 3c4a 823e c821 033f
00000370: f5af b9bd 3274 90bd 8d49 15bd 3a38 a43d
00000380: 3aa1 edbc 086f df3c fb24 bf3d 03b6 423d
00000390: a75f 07bc 81ee 1cbe 8b78 773e 938e 28bd
000003a0: bd5f 09bf d523 ba3c 4769 84bd 7dab 5a3d
000003b0: 60f4 ce3c 8a44 123d 6076 8fbc 90cf 7dbd
000003c0: 6040 b4bd 0555 a03e 9a50 5bbc 2aa0 7dbe
000003d0: 407b 2c3e ec88 67bd 8015 5dbc 729a 023e
000003e0: 322b df3d 4b22 bd3d cb64 26be 2463 8f3d
000003f0: 2320 95be aa57 a8bd 66a3 a9bb 6340 75bd
0.0793934 0.13972908 0.17126231 0.011329012 0.18969205 -0.11099483 -0.080416776 -0.20370914
-0.09463692 0.053969324 -0.016879177 0.40063745 -0.182634 0.054110937 0.2783124 -0.02021799
0.04003489 0.044400416 0.070883825 0.3932347 0.030347062 0.078752436 -0.007175088 0.0010375491
-0.075624995 0.046378072 0.06449651 -0.042624213 -0.05218954 -0.10620101 0.07275266 0.04716003
-0.42263898 0.060669288 -0.053177938 -0.06744037 -0.06253996 -0.033911813 0.01367029 -0.021525968
0.031626523 0.3758721 0.03360925 -0.25797677 0.27623537 -0.044228096 0.04618553 0.10303774
-0.08277006 -0.0061258436 -0.05349382 0.0630622 -0.0454792 -0.019820785 -0.10800912 0.0024060966
-0.05941626 -0.08348268 -0.30283517 -0.037131533 -0.06338226 -0.040950626 0.069811694 0.1822261
0.06284757 0.056732956 0.034737147 0.048318267 -0.061713986 -0.20386443 0.002289782 0.029584408
0.010427722 -0.046926226 0.06057133 -0.0950132 -0.044553075 0.74918395 0.02032917 -0.05775888
0.11725128 -0.0257877 -0.180871 -0.16502734 0.0765807 -0.3208861 0.0015807617 0.026034845
-0.038687944 -0.07123744 -0.14820759 -0.06229435 -0.046067346 0.06979467 -0.09489548 0.054906815
0.04792846 -0.0042847707 0.115647905 0.25878444 -0.056572568 -0.050365653 0.0068643214 -0.005659318
0.03484751 0.08666587 -0.014725066 -0.03205129 -0.02669475 -0.068785764 0.030373657 0.04569322
-0.093143724 -0.017540276 0.056595016 0.029331421 -0.04649576 0.04646113 0.081945315 -0.08404165
0.02402593 -0.03879973 -0.09340143 0.010890186 -0.04606488 0.052615214 0.057163205 0.05060592
-0.0007684589 -0.090252556 -0.079293065 0.04143889 -0.07822063 -0.05670414 -0.03399179 -0.024747467
0.06606803 -0.00919807 0.039205577 0.09536032 0.0097925905 0.0022654056 0.05417931 0.05845816
0.09512935 -0.07528295 0.041541517 0.00023061037 0.035921108 -0.099283114 0.04104949 0.039444424
-0.027645875 -0.097833276 0.09039656 0.020928157 0.034687784 -0.0663138 -0.0886688 0.059483863
-0.04791088 -0.08928551 -0.0880598 0.047639012 0.049201455 0.071957804 0.04333948 -0.044603623
0.0063282372 -0.03445022 -0.07070502 -0.042143334 -0.016581237 -0.012778401 -0.019463433 -0.08494762
-0.037723947 -0.051974263 -0.030332804 -0.06748624 -0.04353223 0.06571589 -0.09742588 -0.06207917
-0.0006495118 -0.06011213 -0.023228502 -0.08123465 -0.040318348 0.019169962 -0.0037409067 -0.09354979
-0.0010427833 0.060904086 -0.09793805 -0.038251985 -0.08783908 0.017216861 0.0560287 -0.030603683
0.2006806 0.052472677 0.07280867 0.12872618 0.115609415 0.07320848 -0.109608375 -0.065846674
0.043106165 0.14001323 0.049180605 0.2730955 -0.36969665 0.16955082 0.23594879 0.07831651
0.08653314 -0.13198555 0.2544726 0.5122342 -0.09066764 -0.070534125 -0.036447097 0.08018537
-0.029007543 0.027274624 0.09333225 0.04753686 -0.008262551 -0.15325357 0.24167077 -0.041151594
-0.5366171 0.022722164 -0.064653926 0.0533862 0.025263011 0.035709895 -0.0175125 -0.061965525
-0.08801341 0.31314865 -0.013385916 -0.24768129 0.16843891 -0.056527063 -0.0134938955 0.12754229
0.10896911 0.092350565 -0.16249387 0.070013314 -0.2912608 -0.082198456 -0.0051769493 -0.059875857

h.2.bias f4 [100]
00000000: 544c 2c3d b7e6 123d 8b08 3dbd 94a2 dbbc
00000010: 03d7 c8bd 1d73 4cbd dc5d 943c 550c 9ebd
00000020: 59a6 a1bd 79ab 86bd e945 9cbd 9d9b 25bd
00000030: d36c 283d 6f58 bfbc b142 923d 7bee c7bd
00000040: 08d2 f83c 95a4 81bd 97f4 6cbd 365a d9bc
00000050: 7994 1fbe 23a0 833d 1dda c5bd 9128 a0bd
00000060: 7a6b c8bd d0a6 8cbd 5388 61bd b9f3 5b3c
00000070: e1c7 8abd 5767 cd3d a9bf 473d 54e7 983d
00000080: f815 233b 1f51 6d3c 3701 93bd 3303 56b9
00000090: 1930 aebd 70b3 453d 2f33 02be 04b1 443e
000000a0: d330 2ebe e03c d8bc cf14 f43c 7e5f bebd
000000b0: 185b a83d 18d7 bcbd 3b14 75bb 2142 6f3d
000000c0: dc45 7c3d 95dd 97bd 4d61 64bd c308 67bd
000000d0: dd92 a9bd e08e f0bc 2036 38bd 1d07 b1bd
000000e0: 42f6 2bbc 77b0 3fbb 7160 aa3c b1ba cb3d
000000f0: 41c0 9f3d b4dc 97bd 2e5b 553c 2a3c 293e
00000100: 013c a4bd d78f 1abd 32ea 933d 077f 2dbd
00000110: aacd 1d3d 5afb 173d a3dc d0bc 70d1 6cbd
00000120: c050 013d b206 b6bc ef65 04bd 53c2 10be
00000130: 7d0f 833c 97cd 9fbd 2118 a5bd 0ff0 7f3d
00000140: 7aaf a8bd 869a a73d 1078 55bd fc26 f6bc
00000150: c713 81bd c328 cebd 5ab9 51bd 7039 e0bc
00000160: 128c b1bc b29d a9bd 82ef 93bd 5f92 a6bd
00000170: 1838 adbd a521 89bc d2d2 a13d 1703 a5bd
00000180: 05fd 91bd a7ba d93c 6c02 5cbd c45b d73b
0.04206498 0.035864558 -0.046150725 -0.026810922 -0.09806635 -0.049914468 0.018111162 -0.07717196
-0.078930564 -0.065756746 -0.07630522 -0.040431608 0.041119408 -0.023357598 0.071416266 -0.097622834
0.030373588 -0.0633022 -0.057850447 -0.026532274 -0.15583982 0.06427028 -0.096607424 -0.078202374
-0.097861245 -0.068677545 -0.05506165 0.013424807 -0.06776405 0.10029476 0.048766766 0.07465997
0.002488492 0.014484673 -0.07177966 -0.00020409822 -0.08505268 0.048266828 -0.12714837 0.19208151
-0.17010812 -0.026396215 0.029795079 -0.092955574 0.082205 -0.092207134 -0.0037396092 0.058412675
0.06159006 -0.0741531 -0.055756856 -0.05640484 -0.08279965 -0.029365003 -0.044973493 -0.08643935
-0.010495724 -0.0029249468 0.02079794 0.09947718 0.078003414 -0.07415143 0.013022227 0.16526857
-0.08019257 -0.037734833 0.072224036 -0.04235747 0.038526215 0.037104942 -0.025495833 -0.057816923
0.03157115 -0.02221999 -0.032323774 -0.14136629 0.015998596 -0.07802885 -0.08061243 0.062484797
-0.082365945 0.0818377 -0.052116454 -0.030047886 -0.063026 -0.100663684 -0.051202156 -0.027371138
-0.021673236 -0.08282031 -0.07223417 -0.08133387 -0.08457965 -0.016739676 0.07901539 -0.0805723
-0.07128338 0.02657826 -0.053713247 0.0065722186

h.4.weight f4 [1, 100]
00000000: 9742 cc3e 2763 0e3d 4276 e33e e5ff 42be
00000010: b0f7 4abd fadf a43d 7c9e a1bf 2a14 263d
00000020: 99da e33c 7cbc 923e dcc4 10bf 5084 b0bd
00000030: 2821 8fbd 6276 1abd d947 babd 40cc 073f
00000040: 2a6f 65bf 8054 06bc 3d59 c83e 7b6b 69bf
00000050: c65c eb3e 1b21 923d dddb 1bbd d5dd ef3e
00000060: 73ac 5e3d 8640 a43e 5243 b6bd 680c 9f3e
00000070: 3a07 5ebd 25eb 82bf 6462 bf3e dee2 11bd
00000080: 3567 e23e 67a9 b23e deff d43e fa28 8cbc
00000090: 2dff 053f c042 babc 52d5 ef3e fea3 12bf
000000a0: b08c 013f b7ea 6c3d 7635 5a3e df75 c63e
000000b0: 7ae3 903d ed40 b8bc b048 c33d de48 14bf
000000c0: 9d94 2cbf 008e debb ef9d aa3e df34 c13d
000000d0: e7e9 c4bd 0ac7 823d ff73 a33e 6dd0 d8bc
000000e0: da6e 8dbf 34ef 9a3e aa41 fbbe 35cd 5fbf
000000f0: c9d8 b7bd 5c53 aa3e 1bd5 aebd 4ba8 01bf
00000100: 5a76 073f 8fa1 d1bc 0206 68bf 9e69 80bf
00000110: c92a a23e b382 c9bd f375 81bc 96d0 22bd
00000120: 678f 97bb 1c74 e33e fd8c bb3d ab40 df3e
00000130: 0928 88bf fbb1 993d dabd d93e e4da 6ebd
00000140: bda9 54bd 86d0 35bf aa67 9fbd 602e f83e
00000150: 13f7 d33e 19fa 2b3d 30d3 99be 4cef 6bbf
00000160: 3801 72bf 10b0 0e3d 4d85 c53e 0bf3 e53e
00000170: 9f65 a03d 694a 8e3e 2854 64bf 37f3 ae3d
00000180: a705 123d 13e2 653e 60a8 0abc 2a32 343e
0.39894554 0.034762528 0.4442616 -0.19042929 -0.04955262 0.08050533 -1.262649 0.040546574
0.027814196 0.28659427 -0.56550384 -0.086189866 -0.06988746 -0.037710555 -0.09095735 0.53046036
-0.8962275 -0.008198857 0.39130583 -0.9117963 0.45969218 0.071352206 -0.038051475 0.46848932
0.05436368 0.32080477 -0.08899559 0.31064153 -0.05420611 -1.022801 0.37379754 -0.035616748
0.44219366 0.3489487 0.4160146 -0.017109383 0.5234249 -0.022736907 0.46842438 -0.5728148
0.506053 0.05784103 0.21309456 0.38761804 0.07074638 -0.022491897 0.095353484 -0.57923687
-0.67414266 -0.00679183 0.3332362 0.094339125 -0.09614926 0.0638562 0.31924435 -0.026466573
-1.1049454 0.30260623 -0.49073535 -0.87422496 -0.08976895 0.33266723 -0.085367404 -0.5064742
0.52914965 -0.025589732 -0.9063417 -1.0032232 0.31673267 -0.09839382 -0.015803313 -0.039749704
-0.004625249 0.44424522 0.09157751 0.43604025 -1.0637218 0.0750465 0.42527658 -0.05831422
-0.051919688 -0.71021307 -0.07783444 0.4847288 0.4139944 0.04198656 -0.30043936 -0.92162013
-0.9453311 0.034835875 0.38578263 0.4491199 0.07831883 0.27791145 -0.8919091 0.08542483
0.03564992 0.22449522 -0.008462995 0.17597261
