logs/PointMaze-Right/airl_sac/seed0-20231226-1522/model/step220000/actor.pth (torch, 276359 bytes, 6 tensors)

net.0.weight f4 [256, 6]
0	0xbb484f41	-0.0030564817
1	0x3e60421c	0.21900219
2	0xbeac0915	-0.3360068
3	0xbe99d40a	-0.30044585
4	0xbe210329	-0.15723862
5	0x3de03451	0.109474786
6	0xbf1800e3	-0.59376353
7	0x3e9fb499	0.31192473
8	0xbd14657f	-0.036229607
9	0xbdd47b09	-0.103750296
10	0xbe9c2111	-0.30493978
11	0xbda458cb	-0.080247484
12	0xbf83d3f1	-1.0299054
13	0xbf100c75	-0.5626901
14	0xbe2c540d	-0.16828938
15	0x3ecf8fa4	0.40539277
16	0x3e51f23e	0.20502564
17	0x3e7ad658	0.24495828
18	0xbf9420fe	-1.1572568
19	0x3d477dc5	0.048703928
20	0x3e17d770	0.14828277
21	0x3f496b0b	0.7867896
22	0x3d00d095	0.03144892
23	0x3e9c6a1b	0.30549702
24	0xbf9eec77	-1.2415913
25	0xbe3778c5	-0.17917164
26	0x3ebd43f6	0.36965913
27	0xbf5bbc85	-0.8583453
28	0xbeb7f798	-0.35931087
29	0xbdd3ab69	-0.10335428
30	0xbe22f454	-0.15913516
31	0x3eb4989d	0.35272685
32	0xbe877c0b	-0.26461825
33	0xbe4070c0	-0.1879301
34	0xbe920832	-0.28521878
35	0xbec3c34e	-0.38234943
36	0xbf189fa7	-0.5961861
37	0x3e59e18f	0.2127745
38	0x3e3a8a38	0.18216789
39	0x3d39181c	0.045189008
40	0xbe50d397	-0.20393215
41	0xbe56534f	-0.20930217
42	0xbe37f941	-0.17966177
43	0xbf141de7	-0.5785813
44	0xbe970877	-0.29498646
45	0xbeba7df3	-0.36424217
46	0x3e732ec5	0.2374831
47	0x3e751c02	0.23936465
48	0xbf61f5e5	-0.8826583
49	0x3dfcf0e9	0.123506375
50	0x3e85aed8	0.26109958
51	0x3f60f39d	0.87871724
52	0x3e073ac0	0.13206005
53	0x3d61e677	0.05515143
54	0x3f02b80b	0.5106208
55	0xbe9bd617	-0.30436775
56	0x3d9bcd04	0.07607463
57	0xbf002ea3	-0.5007116
58	0xbe78912d	-0.2427413
59	0xbe57f4b1	-0.21089436
60	0x3f43b9dc	0.76455474
61	0xbe3c1f93	-0.1837142
62	0xbe77a179	-0.2418269
63	0xbe972604	-0.2952119
64	0x3dd62ee7	0.10458165
65	0xbd530f0d	-0.051528025
66	0x3c7f62ed	0.015587551
67	0x3dc1ba01	0.094593056
68	0x3e81ac4d	0.25326768
69	0x3ec8b3e9	0.3919976
70	0xbea11402	-0.31460577
71	0xbe193389	-0.14961065
72	0xbeb4d216	-0.35316533
73	0x3efc3d91	0.4926572
74	0x3eb5e4ba	0.35526067
75	0x3e6969ad	0.22794218
76	0xbd8950d5	-0.067048706
77	0xbeb5c34d	-0.35500565
78	0xbe7a382b	-0.24435489
79	0xbeb6c55f	-0.35697457
80	0xbec2cccb	-0.3804687
81	0x3f19920b	0.5998847
82	0x3e75006c	0.23925942
83	0xbed081a5	-0.4072391
84	0x3d9c7e40	0.07641268
85	0xbd8cd921	-0.068773516
86	0xbd89969e	-0.06718181
87	0xbe3f5d12	-0.18687847
88	0x3e20c324	0.1569944
89	0xbe779c3b	-0.24180691
90	0x3eafeff0	0.34362745
91	0x3efea9eb	0.49739012
92	0x3e95a23b	0.29225335
93	0x3e9fb1fa	0.31190473
94	0xbf01be76	-0.50681245
95	0xbe8797b8	-0.2648294
96	0xbd2efcc4	-0.042721525
97	0xbe3b8a7a	-0.18314543
98	0xbea30e3c	-0.31846797
99	0xbf0832e0	-0.5320263
100	0x3e29e379	0.1659068
101	0x3e8cd7f1	0.275085
102	0xbe364758	-0.17800653
103	0xbdd26e88	-0.102749884
104	0xbec71d73	-0.38889655
105	0xbbf072dd	-0.0073379115
106	0xbe9d6820	-0.30743504
107	0xbea13b3d	-0.31490508
108	0xbcb84603	-0.022494322
109	0x3d7b1200	0.061296463
110	0xbe2b33de	-0.16719005
111	0x3e780f2d	0.24224539
112	0xbe7e65c3	-0.24843507
113	0x3ebda94d	0.3704323
114	0x3f06cde1	0.52657896
115	0xbee887b1	-0.45416024
116	0xbdd0171f	-0.1016066
117	0x3d946778	0.072462976
118	0x3d03806b	0.03210489
119	0x3dc64cb5	0.096825995
120	0x3e240d9d	0.16020818
121	0x3cc8540d	0.024454141
122	0xbe4bfa0f	-0.19919609
123	0x3e45d09d	0.19317861
124	0xbec88155	-0.39161173
125	0xbe77c760	-0.2419715
126	0xbdd14c86	-0.10219674
127	0xbe4ba2cc	-0.19886321
128	0xbe123f1d	-0.14281888
129	0xbeab51e4	-0.33460915
130	0xbdb1d97c	-0.0868406
131	0x3db2b85d	0.08726571
132	0xbe882be2	-0.2659598
133	0xbcaba185	-0.020951042
134	0x3e95a11f	0.29224488
135	0xbd2be6ab	-0.04196803
136	0x3c39e519	0.011346125
137	0xbd1041f0	-0.035219133
138	0xbf607099	-0.8767181
139	0x3ee07ae0	0.43843746
140	0x3ec5ff12	0.38671166
141	0x3e7a852a	0.2446486
142	0x3e6d9ea5	0.2320505
143	0xbcf1ded1	-0.029525192
144	0xbf45c2fd	-0.77250654
145	0xbf5f7761	-0.8729153
146	0x3e8e532f	0.2779784
147	0xbe4db67e	-0.20089146
148	0x3cf9520e	0.030434635
149	0xbea02d48	-0.31284547
150	0xbee0558a	-0.4381526
151	0xbf2fa58c	-0.6861198
152	0xbda9971d	-0.08280776
153	0x3f090b71	0.53533083
154	0x3eb1b870	0.34711027
155	0xbec996ad	-0.3937277
156	0x3e826287	0.25465795
157	0xbea39005	-0.31945816
158	0xbdb0c231	-0.08630789
159	0xbe29819e	-0.16553351
160	0xbda10b50	-0.07863486
161	0xbda42922	-0.08015658
162	0xbebb9120	-0.3663416
163	0xbeb47a7e	-0.35249704
164	0xbd82d4d2	-0.063882485
165	0x3bad0000	0.005279541
166	0xbe3de86e	-0.18545696
167	0x3e1d7a4a	0.15378681
168	0xbf5ee89c	-0.87073684
169	0xbe90e027	-0.28296015
170	0x3eb7d1aa	0.35902148
171	0x3e6c1b97	0.230574
172	0x3e8d7d4f	0.27634665
173	0x3e1765a4	0.14784867
174	0xbfb9e331	-1.4522458
175	0x3edd9eb3	0.4328514
176	0xbd40f5fe	-0.047109596
177	0xbef21109	-0.47278622
178	0x3ea6931b	0.32534108
179	0xbea8e91d	-0.3299035
180	0xbef64009	-0.4809573
181	0xbe9e80eb	-0.30957732
182	0x3e95441d	0.2915353
183	0x3f00a0a2	0.50245106
184	0x3e17de52	0.14830902
185	0x3e13a304	0.14417654
186	0xbdc90f21	-0.09817339
187	0xbdafd5b7	-0.08585685
188	0xbeac4088	-0.33642983
189	0x3e628413	0.22120695
190	0x3ea5f5b5	0.32414022
191	0x3e8f04d1	0.27933362
192	0xbe9370bd	-0.2879695
193	0x3c952896	0.01820783
194	0xbe9358f8	-0.28778815
195	0xbe6620bb	-0.22473423
196	0xbe73990d	-0.23788853
197	0x3e0edd80	0.13951683
198	0xbf65df82	-0.8979417
199	0x3e84eb79	0.259609
200	0x3c8cb0fe	0.01717424
201	0x3f46df3b	0.7768437
202	0xbec954cf	-0.39322516
203	0xbe8f7f37	-0.28026745
204	0xbe66a6b7	-0.22524534
205	0x3e8ac238	0.27101302
206	0xbe1645e3	-0.14675097
207	0x3ea9006b	0.3300813
208	0x3e088a7f	0.13334082
209	0x3d53bdfc	0.051694855
210	0xbb472a21	-0.00303901
211	0xbda547b2	-0.080703154
212	0x3d51cd8e	0.051221423
213	0xbdbeead3	-0.09322133
214	0xbb3bfdf1	-0.0028685296
215	0x3d555bf3	0.052089643
216	0xbf724998	-0.94643545
217	0xbf30a2e5	-0.6899856
218	0x3ea8c8e0	0.32965755
219	0xbea435d7	-0.32072327
220	0x3cc008eb	0.023441752
221	0x3ecec616	0.40385503
222	0x3e170388	0.14747441
223	0x3c3d60ea	0.011558751
224	0xbeb5243b	-0.35379204
225	0x3e4f1744	0.20223719
226	0xbe94e216	-0.2907874
227	0xbded5638	-0.115887105
228	0xbe0722e0	-0.13196898
229	0xbd60159f	-0.05470812
230	0x3b9253a4	0.004465537
231	0x3ea908af	0.33014438
232	0x3d35ca42	0.04438234
233	0x3ebb3874	0.36566508
234	0x3e7fb95f	0.24973057
235	0xbe8425b8	-0.25810027
236	0x3e3b7ed6	0.18310103
237	0xbe93c1f4	-0.28858912
238	0xbe312db3	-0.17302589
239	0x3df5e9ee	0.12007509
240	0xbe274143	-0.16333489
241	0x3e66a9d4	0.22525722
242	0xbe069363	-0.13142161
243	0xbe65f96e	-0.22458431
244	0xbd85096f	-0.0649594
245	0xbeca2507	-0.39481375
246	0x3e971ea3	0.2951556
247	0xbeacd88e	-0.33758968
248	0x3bb86009	0.0056266827
249	0xbd8e2656	-0.06940906
250	0xbe5c2c75	-0.21501334
251	0x3d5d03b2	0.053958602
252	0x3eab1537	0.33414623
253	0xbdecfbad	-0.11571441
254	0xbe78310d	-0.24237461
255	0xbe1a9c18	-0.15098608

net.0.bias f4 [256]
0	0xbe0b00c9	-0.13574518
1	0xbd4cdc45	-0.050014753
2	0x3e659844	0.22421366
3	0x3dcebc64	0.100945264
4	0x3e92c964	0.28669274
5	0xbe90abf9	-0.28256205
6	0xbd8d0ea6	-0.068875596
7	0x3eb1f88d	0.34759942
8	0xbdcec047	-0.10095268
9	0x3eba889b	0.36432347
10	0xbde706c0	-0.11280584
11	0xbe9c86a1	-0.30571464
12	0xbebe99dd	-0.37226763
13	0x3da57b04	0.08080104
14	0xbe34e8b9	-0.17666902
15	0xbb957e0c	-0.004562145
16	0x3e3c1354	0.18366748
17	0x3e0e008c	0.13867396
18	0xbd1c7fdb	-0.03820787
19	0x3d98c11d	0.074587084
20	0xbe70dad0	-0.2352097
21	0xbeafa1e1	-0.3430319
22	0xbe9d1f63	-0.3068801
23	0xbeff07d8	-0.49810672
24	0x3ea26360	0.31716442
25	0x3e52dc09	0.20591749
26	0xbe31a802	-0.17349246
27	0xbecc74c3	-0.39932832
28	0x3e03f0f5	0.12884887
29	0xbe6e8e9b	-0.23296587
30	0xbded99c9	-0.11601598
31	0xbeaf431a	-0.34230882
32	0xbe6bd81f	-0.23031662
33	0x3daf7c49	0.085686274
34	0xbeca25f7	-0.3948209
35	0xbe6e62f6	-0.23279938
36	0x3eb7b8ad	0.35883084
37	0xbe5664fe	-0.20936963
38	0xbe34b77c	-0.17648119
39	0xbdeac0ba	-0.11462541
40	0xbdce19de	-0.100635275
41	0xbe891ce2	-0.26779848
42	0x3d19432e	0.037417583
43	0x3d3978d2	0.04528124
44	0xbd9d352d	-0.07676158
45	0x3e696395	0.22791894
46	0xbe9f73ea	-0.31143123
47	0x3da2d010	0.07949841
48	0x3d408703	0.047003757
49	0x3e03bb02	0.12864307
50	0xbeacd5c4	-0.3375684
51	0x3d3389a9	0.043832455
52	0x3e64168c	0.22274226
53	0xbd923d3d	-0.071405865
54	0xbd677466	-0.05650749
55	0x3db837b3	0.08994999
56	0xbe9740ee	-0.29541725
57	0xbe95da44	-0.29268086
58	0x3eaabb6b	0.33346114
59	0xbdcb65bc	-0.09931514
60	0xbea667f9	-0.325012
61	0xbd24ece5	-0.040264983
62	0x3e785359	0.24250545
63	0xbea81897	-0.3283126
64	0xbeb6804b	-0.35644755
65	0x3eca3cf5	0.39499632
66	0x3aca3828	0.0015428113
67	0xbe7a6dd7	-0.24455963
68	0xbe3d8116	-0.18506274
69	0xbd30dad7	-0.043177452
70	0x3dae829f	0.08521008
71	0x3c6db6ec	0.014508944
72	0xbe835622	-0.25651652
73	0x3e7e61cd	0.24841996
74	0xbd0f513a	-0.034989573
75	0xbe155157	-0.1458181
76	0xbe1f4ff8	-0.1555785
77	0x3e143629	0.14473785
78	0xbea90697	-0.3301284
79	0x3e358037	0.17724691
80	0x3e66d25d	0.22541185
81	0xbe45ea32	-0.1932762
82	0xbea25e84	-0.31712735
83	0xbe814142	-0.252451
84	0xb8b0be70	-8.427806e-05
85	0xbeb4a388	-0.35281014
86	0xbe93d74f	-0.28875205
87	0x3e771e13	0.24132566
88	0x3e9771e5	0.29579082
89	0x3ec13d67	0.3774216
90	0x3df22feb	0.11825546
91	0x3dd37d5d	0.103266455
92	0x3e2357f0	0.15951514
93	0x3e6c5e58	0.23082864
94	0xbe8f015a	-0.2793072
95	0xbe2d0faf	-0.16900514
96	0x3ea2a0bf	0.31763265
97	0x3cd6cffc	0.026222222
98	0xbe88022f	-0.26564166
99	0xbed7fb52	-0.4218393
100	0x3ea605c5	0.32426277
101	0x3e72ebba	0.23722735
102	0x3e191926	0.14951
103	0xbdd695a4	-0.104777604
104	0x3ed9fc90	0.42575502
105	0xbebfe93d	-0.37482634
106	0xbe9697ea	-0.29412776
107	0xbec920e0	-0.39282894
108	0x3e83bdd2	0.2573076
109	0x3e297bf3	0.16551189
110	0xbe407edd	-0.18798395
111	0xbd8e88fc	-0.069597214
112	0xbe2f13ec	-0.17097443
113	0xbe860e47	-0.26182768
114	0xbd776a85	-0.06040432
115	0xbd235a86	-0.03988125
116	0xbe95af71	-0.29235414
117	0xbe89acf3	-0.26889762
118	0x3d990cc8	0.07473141
119	0x3de1e80c	0.110305876
120	0x3e83c2fc	0.257347
121	0xbe51fa76	-0.205057
122	0x3dcd0f54	0.10012689
123	0x3d717974	0.058953717
124	0xbeb6fed5	-0.35741296
125	0xbe8774d6	-0.26456326
126	0xbd9cabad	-0.07649932
127	0x3d1c7d87	0.03820565
128	0xbe064d9a	-0.1311554
129	0x3e1c5796	0.15267786
130	0xbe817361	-0.2528334
131	0x3ebcc66e	0.3687014
132	0x3e508bfd	0.20365901
133	0x3e00e50d	0.12587376
134	0xbbcaf6f8	-0.0061939918
135	0x3e5d73ef	0.21626256
136	0xbedb6ddf	-0.42857262
137	0x3d7b7b5b	0.061396938
138	0x3dcee045	0.1010137
139	0xbdbcb7cc	-0.09214744
140	0x3e49e504	0.19716269
141	0xbe88ef80	-0.26745224
142	0xbebaac16	-0.36459416
143	0xbe3a45a1	-0.18190624
144	0xbec1fdbf	-0.37888905
145	0x3e7986b6	0.24367794
146	0xbe17892e	-0.14798424
147	0xbeaf5008	-0.34240746
148	0xbe9aca8c	-0.30232656
149	0xbe8cd770	-0.27508116
150	0xbec73cd5	-0.389136
151	0x3e2c1580	0.16805077
152	0xbe9cef04	-0.30651104
153	0x3e8fbf89	0.28075817
154	0x3e94e5bb	0.2908152
155	0xbd56cb7a	-0.052440144
156	0x3e5fa97a	0.21841994
157	0xbe6a2c16	-0.2286838
158	0x3ed2ea21	0.4119425
159	0x3e596d7a	0.21233168
160	0x3dc6afaf	0.09701478
161	0x3e53b285	0.20673569
162	0xbec2d970	-0.38056517
163	0xbe04bc24	-0.12962395
164	0x3d9c951a	0.07645626
165	0xbeb5ae1f	-0.35484406
166	0x3e8fc669	0.28081062
167	0xbe1f52d0	-0.15558934
168	0xbe173335	-0.14765628
169	0xbea5d78a	-0.32391006
170	0x3e0920d1	0.13391425
171	0xbed60cab	-0.4180654
172	0xbdb16c6e	-0.086632594
173	0x3d17e4b1	0.03708333
174	0x3e60c166	0.21948776
175	0x3e58da1a	0.21176949
176	0xbe074064	-0.13208157
177	0xbdf26899	-0.11836357
178	0xbd00fe34	-0.031492427
179	0x3c57fc39	0.013182693
180	0x3e913f01	0.2836838
181	0x3e1f0de1	0.15532638
182	0x3e465274	0.19367391
183	0xbea86ec2	-0.32897002
184	0x3e23e491	0.1600516
185	0xbe4012b7	-0.18757139
186	0xbddfcf20	-0.10928178
187	0x3b20237a	0.0024435208
188	0xbb8ba789	-0.004261915
189	0x3d6a8b98	0.057262033
190	0x3e20134d	0.15632363
191	0xbe79c6c5	-0.24392231
192	0x3db016bc	0.08598086
193	0xbea7fe27	-0.3281109
194	0x3e64c6ec	0.22341508
195	0x3e64e8fc	0.22354501
196	0x3e375686	0.179041
197	0x3ec5913e	0.38587373
198	0x3e21b30d	0.15790959
199	0x3e0b182c	0.1358344
200	0x3d26d084	0.0407262
201	0xbe2eaebe	-0.17058846
202	0x3e96c4f4	0.29447138
203	0x3dec99d3	0.11552777
204	0xbec17aea	-0.37789088
205	0x3dc5b4f1	0.096536525
206	0xbbc682c0	-0.006058067
207	0xbc94aa22	-0.018147532
208	0xbe5db2b5	-0.21650203
209	0xbe37f3f3	-0.17964153
210	0xbd805be9	-0.062675305
211	0xbe893ae5	-0.26802745
212	0xbec26f4c	-0.37975538
213	0xbe2e53be	-0.17024133
214	0xbd886ef9	-0.06661791
215	0x3e3dae75	0.18523581
216	0x3e783a0c	0.24240893
217	0xbe5ff9c3	-0.2187262
218	0x3bcc5a81	0.006236375
219	0xbe4364e6	-0.19081458
220	0xbe5fa43f	-0.21839999
221	0xbd930653	-0.071789406
222	0xbe6cfbdd	-0.23142953
223	0x3da07b82	0.07836057
224	0xbe4f5337	-0.20246588
225	0xbdb85842	-0.09001209
226	0xbe6be8d6	-0.23038039
227	0xbe5e3a00	-0.21701813
228	0x3d86083f	0.065445416
229	0xbe4d3be9	-0.20042385
230	0x3c4a3352	0.012341337
231	0x3e89849c	0.26858985
232	0xbd1c780b	-0.03820042
233	0xbe54c8fb	-0.20779793
234	0xbe7aff0b	-0.24511354
235	0xbe7647d5	-0.24050839
236	0xbd127438	-0.035755366
237	0x3dc593b2	0.09647311
238	0x3e2e50c8	0.17023003
239	0x3f09135e	0.53545177
240	0xbe655fd2	-0.22399834
241	0xbe2801aa	-0.16406885
242	0x3e6b1f24	0.22961098
243	0x3de6306d	0.11239705
244	0x3e90492e	0.28180832
245	0xbe013cd6	-0.12620863
246	0x3cf68488	0.030092493
247	0xbe8c26d3	-0.2737337
248	0xbc453a1e	-0.012037782
249	0xbe9dc85c	-0.30816925
250	0xbddbc36c	-0.10730633
251	0xbeaeb36b	-0.3412126
252	0xbec8f166	-0.39246672
253	0x3e26f5fa	0.1630477
254	0xbd3f2fdf	-0.046676513
255	0x3e631611	0.22176386

net.2.weight f4 [256, 256]
0	0x3d4bb504	0.049733177
1	0x3c885638	0.016642675
2	0xbaa256d2	-0.0012385494
3	0x3caef70d	0.021358037
4	0x3d944e62	0.07241513
5	0x3cf6344c	0.030054234
6	0x3d57da7a	0.05269859
7	0xbdb42a5e	-0.087971434
8	0x3d316144	0.04330565
9	0xbddbb7cd	-0.107284166
10	0xbdb490cd	-0.08816681
11	0x3c6db5c0	0.014508665
12	0xbd880781	-0.06642056
13	0xbbcfa7fe	-0.006337165
14	0xbd1886fa	-0.0372381
15	0xbd1bc45c	-0.03802906
16	0xbd841d50	-0.064509034
17	0x3d4a104c	0.04933195
18	0xbd3447ac	-0.044013664
19	0xbd244a6b	-0.040110033
20	0x3d00644a	0.031345643
21	0x3d3502d4	0.04419215
22	0x3c8048a0	0.01565963
23	0x3c921fa4	0.017837353
24	0x3c5485a7	0.012971318
25	0xbd3b2b63	-0.045695674
26	0x3cae16cc	0.021251105
27	0xbd482cd4	-0.048870876
28	0xbc9a66f2	-0.018847916
29	0x3a939147	0.0011258506
30	0xbc645ffa	-0.013938898
31	0xbcb4e3e4	-0.022081323
32	0xbd7dc850	-0.06195861
33	0x3ba26056	0.004955332
34	0x3cc403bc	0.023927562
35	0x3d5c6f1e	0.053816907
36	0xbd5ab56f	-0.053395685
37	0x3cf4724c	0.029839657
38	0xbd72e966	-0.059304617
39	0xbd74d032	-0.059768863
40	0xbd205190	-0.039140284
41	0xbc0740d8	-0.008255206
42	0x3c8eff9c	0.017455868
43	0xbc881d3a	-0.016615499
44	0xbcbf4d2f	-0.023352234
45	0x3d05b67f	0.032644745
46	0x3b7c0300	0.0038453937
47	0x3d9fc6c4	0.078015834
48	0x3c188e89	0.009311327
49	0xbd957b6d	-0.07298932
50	0xbc042460	-0.008065313
51	0xbd0641aa	-0.032777466
52	0xbdccb439	-0.09995312
53	0xbd4cfd22	-0.050046094
54	0x39d8aba0	0.000413266
55	0xb879c9a7	-5.955403e-05
56	0x3d2788e1	0.040902022
57	0xbd9d4358	-0.076788604
58	0x3d141923	0.036156785
59	0xbd1d35ff	-0.038381573
60	0x3cfcbfa0	0.030853093
61	0xbb62e600	-0.0034621954
62	0x3c9b2cc3	0.018942242
63	0xbaf9fff8	-0.0019073477
64	0x3d3a19a7	0.04543462
65	0xbd96efdb	-0.073699676
66	0xbd20cad5	-0.039255936
67	0x3de20ea3	0.11037948
68	0xbd16eb89	-0.036845718
69	0x3d7174a6	0.058949135
70	0xba0a8613	-0.0005284261
71	0x3d748c6e	0.059704237
72	0xbcef2a78	-0.029195055
73	0xbe1bd1c5	-0.1521674
74	0x3c4c9810	0.012487426
75	0xbd08a187	-0.03335717
76	0x3d006aa2	0.031351693
77	0xbd38df36	-0.045134746
78	0x3d59fb36	0.05321809
79	0xbda21a37	-0.07915156
80	0xbb8b5218	-0.0042517297
81	0xbc628299	-0.013825082
82	0x3c8ead78	0.0174167
83	0xbd540eba	-0.051771857
84	0xbd9351fd	-0.071933724
85	0xbd425e32	-0.047453113
86	0xbc96347c	-0.018335573
87	0xbdd71d55	-0.105036415
88	0x3bed47af	0.0072412114
89	0xbd651f7d	-0.055938233
90	0x3c1e9c99	0.0096808905
91	0xbcfd2642	-0.030902032
92	0xbd977fc0	-0.07397413
93	0xbe18c0f7	-0.1491736
94	0xbc6b5dc7	-0.01436562
95	0xbdf10878	-0.117691934
96	0xbd5920c5	-0.053009767
97	0xbcc51f7f	-0.02406287
98	0x3c19abb0	0.009379312
99	0x3d799cb2	0.060940452
100	0x3dadc8a9	0.084855385
101	0xbd9c495f	-0.07631182
102	0xbdcd4ce4	-0.10024431
103	0xbdf3d15f	-0.11905169
104	0xbe00ecd4	-0.12590343
105	0xbc59cce8	-0.013293482
106	0x3cc3a11c	0.023880534
107	0x3d00d402	0.031452186
108	0x3cdf6af1	0.027272673
109	0xbc3a2451	-0.011361198
110	0xbccf459c	-0.025301747
111	0xbcb8e931	-0.022572132
112	0x3c025268	0.0079542175
113	0xbd02c328	-0.031924397
114	0xbbb734e0	-0.00559102
115	0xbd85757c	-0.06516549
116	0xbd71df40	-0.0590508
117	0x3d2d8c56	0.042370163
118	0xbbda32c1	-0.0066588824
119	0xbddd92ee	-0.1081904
120	0xbdab0f89	-0.083525725
121	0xbd09bf38	-0.033629626
122	0x3d284cd2	0.041088887
123	0xbd05a22a	-0.032625355
124	0x3b3d9d40	0.002893284
125	0x3c934de4	0.017981477
126	0x3dab928d	0.08377562
127	0x3ddeb96e	0.10875212
128	0xbc9d17e0	-0.019176424
129	0xbdf1a049	-0.1179815
130	0xbba04520	-0.004891053
131	0xbc625e1c	-0.013816383
132	0xbdea6507	-0.11445051
133	0xbd2c3356	-0.042041145
134	0xbd974575	-0.07386295
135	0xbcf40d05	-0.029791364
136	0xba9bd28d	-0.001188831
137	0xbe0cb967	-0.137426
138	0xbe25270e	-0.1612818
139	0xbd5fcdd0	-0.054639637
140	0xbc0fc839	-0.008775764
141	0x3c196f9e	0.0093649905
142	0x3d2bf7fa	0.041984536
143	0xbde1cc63	-0.11025312
144	0x3cd7d1b0	0.026345104
145	0xbc0195e9	-0.0079092765
146	0xbdeb1ab2	-0.11479701
147	0xbd1e6763	-0.038672816
148	0xbd090521	-0.033452157
149	0x3a8cd7c0	0.0010745451
150	0xbd8d0922	-0.068865076
151	0x3c59b8c9	0.013288685
152	0xbc193470	-0.009350881
153	0x3d2ba445	0.041904707
154	0xbda99adb	-0.082814895
155	0xbcbbc1fb	-0.022919646
156	0xbcb49329	-0.022042828
157	0xbd235122	-0.039872296
158	0xbdb65a67	-0.08903962
159	0xbca070c5	-0.019585023
160	0x3d5f7cd4	0.054562405
161	0xbd90fbd0	-0.070792794
162	0xbd93ac62	-0.07210614
163	0x3bc21f0e	0.005924112
164	0xbbdb63f0	-0.006695263
165	0xbc910db4	-0.01770673
166	0xbe00a58b	-0.1256315
167	0x3d2d268e	0.042273097
168	0x3d6b8fd8	0.057510227
169	0xbb2c9c60	-0.0026338324
170	0xbdf52e05	-0.11971668
171	0x3d3127eb	0.04325096
172	0xbcaf1b40	-0.021375299
173	0xbb7c6471	-0.0038512016
174	0xbdd0d8d6	-0.10197608
175	0xbc5b8360	-0.013398021
176	0xbdd6ff39	-0.104978986
177	0xbd8e5bc7	-0.06951099
178	0xbd9fc77c	-0.078017205
179	0xbdc92ea1	-0.09823347
180	0xbd33a167	-0.043855097
181	0xbe2f9db4	-0.17150003
182	0xbba7d2a1	-0.0051215445
183	0xbcbcce58	-0.023047611
184	0x3ca2a8db	0.019855907
185	0x3d5dba22	0.05413259
186	0xbc07be98	-0.008285187
187	0xbd00d840	-0.031456232
188	0xbdd799a1	-0.10527349
189	0xbd4e1478	-0.05031249
190	0xbc190e50	-0.009341791
191	0x3c6af330	0.014340207
192	0x3dccab5b	0.09993621
193	0xbc1827d8	-0.009286843
194	0xbd5c8520	-0.053837895
195	0xbd9fce0a	-0.07802971
196	0xbd4132d4	-0.047167614
197	0xbd2f0aa5	-0.04273476
198	0xbe1c253e	-0.15248582
199	0xbe0bef55	-0.13665517
200	0x3cd55a2e	0.026043978
201	0xbc2019e0	-0.009771794
202	0xbddcd109	-0.10782058
203	0x3d9ec283	0.07751944
204	0x398b012d	0.00026513022
205	0xbcef2327	-0.029191567
206	0xbc9b830c	-0.018983386
207	0x3d40e16a	0.04708997
208	0xbd6f4b36	-0.058421336
209	0x3d5151b8	0.051103324
210	0x3c1be285	0.009514456
211	0x3ba88739	0.005143073
212	0x3d1f7d94	0.03893812
213	0xbda0498c	-0.07826528
214	0xbdfa8691	-0.12232698
215	0xbdab04ba	-0.08350511
216	0xbde23434	-0.11045113
217	0x3c3bd5c3	0.011464539
218	0xbd714fb5	-0.058913905
219	0x3d566721	0.052344445
220	0xbd37e354	-0.04489453
221	0x3ca462d4	0.020066656
222	0xbc9f12c5	-0.01941813
223	0xbd438684	-0.047735706
224	0xbbcd4450	-0.006264247
225	0x3d7de1d7	0.061982956
226	0xbd37d18a	-0.044877566
227	0xbd554ea6	-0.052076958
228	0xbc86e98e	-0.01646879
229	0xbd1d94a0	-0.038471818
230	0xbde768b9	-0.11299271
231	0xbd4939ad	-0.04912727
232	0xbd499429	-0.049213562
233	0x3b0a3820	0.0021090582
234	0x3d550ed0	0.05201608
235	0xbde7b4c0	-0.11313772
236	0xbe23ad4c	-0.15984076
237	0x3cdd57a4	0.02701933
238	0xbd4d70a0	-0.050156236
239	0xbcb26f71	-0.021781655
240	0xbccb5b30	-0.024823755
241	0xba337000	-0.00068449974
242	0xbe20cc31	-0.15702893
243	0x3ced20fb	0.02894639
244	0xbc04bdc7	-0.008101887
245	0xbbcd8cf5	-0.006272907
246	0x3d88f916	0.06688134
247	0xbd0fcf58	-0.035109848
248	0xbd57502c	-0.052566692
249	0xbc918f33	-0.017768478
250	0x3d322980	0.04349661
251	0x3d7b1ef6	0.061308824
252	0x3cf92268	0.030411914
253	0xbc82e382	-0.015977625
254	0xbce19e22	-0.027541224
255	0xbda217b3	-0.079146765

net.2.bias f4 [256]
0	0xbd8a27b3	-0.06745853
1	0xbd4be9ad	-0.049783397
2	0xbb759021	-0.003746994
3	0xbcd5f45b	-0.026117494
4	0xbd0050ed	-0.031327177
5	0xbc99da3b	-0.018780818
6	0xbd60f4f0	-0.05492109
7	0xbc6290fd	-0.013828513
8	0x3c83a292	0.01606873
9	0xbd229dd5	-0.0397013
10	0xbd354005	-0.044250507
11	0x3c9f2521	0.019426884
12	0xbc77ef3f	-0.015132724
13	0x3e2cc4ef	0.16871999
14	0x3e32bbe6	0.1745449
15	0x3cb3df1e	0.021956977
16	0xbd3f0a40	-0.046640635
17	0x3e5e0bc9	0.21684183
18	0xbd093db0	-0.033506095
19	0xbd0630bc	-0.03276132
20	0xbdee16b7	-0.11625426
21	0x3c7bc838	0.01536756
22	0x3cb3c043	0.021942263
23	0xba9fd4b3	-0.0012194127
24	0xbcd60124	-0.02612359
25	0x3c8c795d	0.017147714
26	0xbd00cc7d	-0.031445015
27	0xbd48a340	-0.048983812
28	0xbd800326	-0.062506005
29	0xbd3cb362	-0.04606951
30	0x3cd9ac87	0.026571525
31	0xbd173bc8	-0.036922246
32	0xbd36331e	-0.044482343
33	0x3c3d355a	0.011548365
34	0xbd53ca30	-0.051706493
35	0x3e16c20d	0.14722462
36	0xbc2710a7	-0.010196841
37	0x3ce914c5	0.028452286
38	0x3c429462	0.0118761975
39	0xbd079729	-0.033103142
40	0xbd79ea80	-0.061014652
41	0xbd04ef67	-0.032454874
42	0x3cfa8d87	0.030585064
43	0x3bc9d274	0.006159121
44	0xbd184cfa	-0.037182786
45	0xbbacb99e	-0.0052711507
46	0xbcb6859b	-0.022280505
47	0x3d0ad74c	0.03389673
48	0xbdc55ab3	-0.0963644
49	0xbb81ef98	-0.0039653294
50	0xb8ad9259	-8.276542e-05
51	0xbd70d14e	-0.05879336
52	0xbd24f935	-0.040276725
53	0xbb2d24ff	-0.0026419756
54	0x3e3ca624	0.18422753
55	0xbd64e3c6	-0.055881284
56	0xbc4c472c	-0.012468141
57	0xbadce435	-0.0016852679
58	0xbc296e4a	-0.010341236
59	0x3cda95be	0.02668273
60	0x3cba62f9	0.022752272
61	0x3bdefe69	0.0068052304
62	0xbba30c2f	-0.0049758176
63	0xbc60fcd2	-0.013732152
64	0xbcc4c5ed	-0.02402016
65	0x3d29309a	0.041306116
66	0x3c1b0e0d	0.009463799
67	0xbd8710fb	-0.06595036
68	0x3e760cbd	0.24028297
69	0xbe5c6c9b	-0.21525805
70	0xbd423df8	-0.04742238
71	0xbe187241	-0.14887334
72	0x3c95c0d0	0.018280417
73	0xbc820697	-0.015872283
74	0xbd6ed3a2	-0.058307298
75	0x3ca6009f	0.020263968
76	0xbb4e64c7	-0.0031493173
77	0xbd73816f	-0.05944961
78	0xbd39704e	-0.045273118
79	0x3a27572e	0.0006383535
80	0x3c7429b1	0.014902518
81	0xbd7eae0d	-0.062177707
82	0xbc620ccb	-0.013796995
83	0xbd829bc6	-0.06377368
84	0xbd1c53bc	-0.038165793
85	0x3d842f34	0.06454316
86	0xbd6317d7	-0.055442657
87	0x3cd5dc59	0.026106047
88	0xbc3ef2e0	-0.011654586
89	0xbd3e4392	-0.04645116
90	0xbd74caf5	-0.059763867
91	0xbc61aab7	-0.013773612
92	0x3e4bb5df	0.19893597
93	0xbd036916	-0.03208264
94	0x3bfcafc4	0.0077113826
95	0x3e125981	0.14291956
96	0x3a61f319	0.0008619293
97	0xbd5f5c3d	-0.054531325
98	0xbd14a689	-0.036291633
99	0x3e009a9c	0.12558979
100	0xbc7c0729	-0.0153825665
101	0xbcbe470d	-0.023227239
102	0x3e1dd790	0.15414262
103	0x3c8dfcf0	0.017332524
104	0x3e15c4e8	0.14625895
105	0x3cc9fecf	0.024657635
106	0x3d0a802b	0.033813637
107	0xbd4234eb	-0.047413748
108	0x3cec84eb	0.028871974
109	0xbd71a6e9	-0.05899707
110	0xbd0a8f76	-0.03382822
111	0xbcef1508	-0.029184833
112	0xbcaea772	-0.021320079
113	0xbc3a49f9	-0.0113701755
114	0x3c421f22	0.011848243
115	0x3c925fe8	0.017867997
116	0xbd8965f1	-0.06708897
117	0x3c76ae58	0.015056215
118	0xbd64793e	-0.055779688
119	0xbc9301ee	-0.017945256
120	0xbd3d84e2	-0.046269305
121	0xbd868d35	-0.06569902
122	0x3bc35df0	0.005962126
123	0x3d0d32b1	0.03447217
124	0xbd3963ed	-0.045261312
125	0x3de5c562	0.112192884
126	0x3c795c16	0.015219709
127	0xbb36840a	-0.0027849698
128	0x3be4dd49	0.006984387
129	0x3c3fb4f3	0.0117008565
130	0xbd0eecfe	-0.034893982
131	0xbc675e19	-0.014121556
132	0x3c539c12	0.012915628
133	0xbceda7ea	-0.029010732
134	0xbd1b3f28	-0.037902027
135	0xbbd925fd	-0.006626843
136	0xbd7fe5a6	-0.06247487
137	0x3de00b87	0.10939699
138	0xbce92ab3	-0.028462743
139	0x3d4b05ec	0.049566194
140	0xbd575450	-0.05257064
141	0xbb9aa2a4	-0.0047190953
142	0xbb996a29	-0.0046818447
143	0xbd2edd8e	-0.04269176
144	0xbb101269	-0.002198363
145	0xbbe4c5fd	-0.00698161
146	0x3cd6f402	0.026239399
147	0xbcf026b1	-0.029315325
148	0xbabb896d	-0.0014307924
149	0x3de27ee1	0.110593565
150	0x3e39733a	0.18110362
151	0xbd40e44b	-0.047092717
152	0xbc59e612	-0.013299482
153	0xbd674bcd	-0.056468774
154	0xbd4b5856	-0.04964479
155	0xbd442b5c	-0.047892913
156	0x3d355e87	0.0442796
157	0x3c8bb5a3	0.017054385
158	0x3c8cd995	0.017193595
159	0xbd85335e	-0.06503938
160	0x3b155f69	0.0022792465
161	0xbd2891ed	-0.04115479
162	0xbd125e9a	-0.03573475
163	0x3d16e643	0.03684069
164	0x3d25c36e	0.04046958
165	0xbd7ea07a	-0.06216476
166	0xbd501dce	-0.050809674
167	0x3ca26b8a	0.01982667
168	0xbcf38c5a	-0.02973001
169	0x3d004ed5	0.03132518
170	0xbd357a7b	-0.04430626
171	0xbd2734e8	-0.04082194
172	0x3ce3ee67	0.02782364
173	0xbd95257e	-0.07282542
174	0x3cd5c910	0.02609685
175	0x3debd094	0.115143925
176	0xbd384d09	-0.04499534
177	0xbc8f5b3e	-0.017499562
178	0x3ccd4b02	0.02506018
179	0x3cf125d0	0.029436976
180	0x3c02f186	0.007992154
181	0x3c345123	0.011005673
182	0xbd527a08	-0.05138591
183	0xbd40c9fb	-0.047067624
184	0x3d14fd0c	0.036374137
185	0xbc1ee7f2	-0.009698855
186	0xbd4e8a6e	-0.050424986
187	0x3c919144	0.017769463
188	0xbd16daac	-0.036829636
189	0x3dbbd9d9	0.091724105
190	0x3cc2f874	0.023800112
191	0xbd5c1cf4	-0.05373855
192	0x3db5f86e	0.08885275
193	0xbc793935	-0.015211393
194	0xbd5456dd	-0.05184065
195	0xbd7bcf6f	-0.06147712
196	0xbc6e803e	-0.0145569425
197	0x3c2e7eb1	0.010650323
198	0xbd5b8c61	-0.053600673
199	0x3cdf7437	0.027277095
200	0x3cc012dc	0.023446493
201	0x3c466449	0.012108871
202	0xbcdc21c2	-0.026871566
203	0xbd55c5f1	-0.052190725
204	0xbd0ae39c	-0.03390847
205	0x3cc1bb98	0.023649022
206	0xbd313ec0	-0.043272734
207	0x3b01c164	0.0019799108
208	0xbcc37ae7	-0.023862315
209	0x3e2b4fc7	0.16729651
210	0x3d4905b5	0.04907771
211	0xbc086a61	-0.008326144
212	0x3e8cbb9a	0.2748688
213	0x3d337160	0.043809295
214	0xbcc6edd5	-0.024283329
215	0xbd005ffd	-0.03134154
216	0xbdc1420d	-0.09436426
217	0x3dc780e3	0.0974138
218	0xbce85527	-0.028360916
219	0xbc87ff10	-0.016601115
220	0xbda5775b	-0.08079406
221	0xbbfc5641	-0.007700712
222	0xbd166a65	-0.03672256
223	0xbdd64e84	-0.104641944
224	0x3e32326b	0.17402045
225	0xbdcb8747	-0.099379115
226	0xbd271533	-0.0407917
227	0xbd65a6c5	-0.056067247
228	0x3cc6df94	0.024276532
229	0x3d9a27fe	0.07527159
230	0xbc575db9	-0.013144904
231	0x3c7e5287	0.015522606
232	0xbd8fc38c	-0.070197195
233	0xbc7b1ebd	-0.015327153
234	0xba269820	-0.0006355066
235	0xbd739120	-0.059464574
236	0xbca33946	-0.019924771
237	0x3e068268	0.13135684
238	0x3d092259	0.033480022
239	0xbb931e45	-0.0044896924
240	0x3d2f0f03	0.042738926
241	0xbd5b9670	-0.053610265
242	0x3cd2b64b	0.02572169
243	0xbc4f9460	-0.012669653
244	0x3e0ad779	0.13558759
245	0xbc5af800	-0.013364792
246	0x3e3dff29	0.18554367
247	0x3e14f3c9	0.14546122
248	0x3ca2ef6b	0.019889554
249	0xbd3132cb	-0.04326133
250	0x3b0c66ef	0.0021423658
251	0x3b138d8d	0.002251479
252	0x3bfbea8d	0.0076878727
253	0xbbb9c1eb	-0.005668869
254	0xbd48d4a3	-0.04903091
255	0xbd12a074	-0.03579755

net.4.weight f4 [4, 256]
0	0x3d92d79b	0.0717003
1	0xbcac9fa7	-0.021072222
2	0x3c9f46b4	0.019442894
3	0x3d46dada	0.048548557
4	0x3d4701c5	0.048585672
5	0xbb90c9b7	-0.0044185775
6	0xbc2af3c8	-0.010434099
7	0x3d0185ae	0.031621628
8	0xbca6de2f	-0.020369617
9	0xbd1374e7	-0.03600016
10	0xbc9d55e0	-0.019205987
11	0x3bb85225	0.0056250268
12	0xbc6613b5	-0.014042784
13	0xbd8f1e5f	-0.06988215
14	0xbea4a46a	-0.32156688
15	0xbc4a930b	-0.012364159
16	0xbd3237d1	-0.043510262
17	0x3e87bf80	0.2651329
18	0xbd24c9e7	-0.04023161
19	0xbd14e17a	-0.036347844
20	0x3d76c322	0.060244687
21	0xbd4c8deb	-0.04994003
22	0xbc01c542	-0.007920565
23	0x3cde17d8	0.027110979
24	0x3ed328b4	0.41241992
25	0x3bab4ba7	0.0052275243
26	0xbc75bcc0	-0.014998615
27	0x3d046fa0	0.032333016
28	0xbc81b30a	-0.015832443
29	0x3d478fc9	0.04872111
30	0x3d0f358d	0.03496318
31	0xbd3a7e53	-0.04553063
32	0x3cec7ade	0.028867181
33	0xbd87b4b8	-0.06626266
34	0xbe8791ce	-0.26478428
35	0xbe776901	-0.2416115
36	0x3ce25972	0.027630541
37	0xbd1d758f	-0.03844219
38	0x3d5c1edd	0.05374037
39	0xbd4165e5	-0.047216315
40	0xbd3e3a6d	-0.046442438
41	0x3cff9727	0.031200005
42	0x3b927818	0.0044698827
43	0x3c4aed1f	0.012385636
44	0x3c221d36	0.00989466
45	0xbb314d5f	-0.0027054173
46	0x3c7d4bf1	0.01546
47	0x3cdf562a	0.027262766
48	0xbe0bfa45	-0.13669689
49	0x3d562775	0.052283723
50	0x3d25bec4	0.04046513
51	0xbd4d3ac1	-0.05010486
52	0xbd9519ac	-0.07280287
53	0xbd1e71ef	-0.038682874
54	0x3eb1a37e	0.34695047
55	0x3d743324	0.059619084
56	0xbd52b93c	-0.051446185
57	0xbb03411e	-0.0020027827
58	0x3b7d61f9	0.0038663133
59	0xbd33fa84	-0.043940082
60	0xbb85f8b9	-0.004088488
61	0x3d19f48e	0.03758674
62	0x3d423f8f	0.047423895
63	0xbba04d24	-0.0048920084
64	0xbe00dc9c	-0.12584156
65	0xbd6ba30b	-0.057528537
66	0x3c794cca	0.015216062
67	0x3cd37611	0.025813134
68	0xbe62985d	-0.22128434
69	0xbd05d16d	-0.032670427
70	0xbe180f3b	-0.1484956
71	0x3f1a2c73	0.60224074
72	0x3d216b9f	0.039409276
73	0xbc39fd41	-0.011351884
74	0xbd38e50d	-0.045140315
75	0xbac1a197	-0.0014772889
76	0xbce44a5d	-0.02786749
77	0x3d0b0b7d	0.033946503
78	0xbd3106e1	-0.04321945
79	0xbd77645a	-0.060398437
80	0x3d50288a	0.05081991
81	0x3d27187c	0.040794834
82	0x3c24f9ab	0.010069291
83	0x3c65f407	0.014035231
84	0x3c91bfce	0.017791655
85	0xbf9b8919	-1.2151214
86	0x3bbfe503	0.0058561577
87	0x3d53b9d6	0.0516909
88	0x3cbdc962	0.023167316
89	0xbcd5cbe1	-0.026098194
90	0x3d23ba7b	0.039972764
91	0xbcbfcbc7	-0.023412598
92	0x3e276b91	0.16349627
93	0xbbbd82d8	-0.00578342
94	0xbd057ed4	-0.032591656
95	0x3f1fad2a	0.623736
96	0xbd2f548f	-0.04280525
97	0x3bebbb41	0.0071939533
98	0x3c106756	0.0088137
99	0xbf506154	-0.8139851
100	0xbcd2854f	-0.025698332
101	0x3d3769ee	0.044778757
102	0xbded265b	-0.11579581
103	0xbd4992f0	-0.049212396
104	0xbe05f983	-0.13083462
105	0xbcff5b8f	-0.031171588
106	0x3d6a6fb4	0.057235435
107	0xbb830e3a	-0.0039994987
108	0x3ca44101	0.020050528
109	0xbd2f8b65	-0.042857546
110	0xbd61c93b	-0.05512355
111	0xbd2f2033	-0.042755317
112	0xbc46863f	-0.012116968
113	0xbcbbc214	-0.022919692
114	0x3c201b89	0.00977219
115	0x3d7213bd	0.059100855
116	0x3c1a001e	0.009399442
117	0xbbfe9cc0	-0.007770151
118	0x3b6db637	0.0036271939
119	0x3b4240cb	0.002964067
120	0xbd35623e	-0.044283144
121	0x3f06b3e6	0.52618253
122	0xbd0e43b1	-0.034732524
123	0x3c917075	0.017753819
124	0x3d0da0ac	0.034577057
125	0xbd2b48b7	-0.041817393
126	0x3d7705f8	0.060308427
127	0x3d200383	0.03906585
128	0x3d54d5da	0.051961757
129	0xbcb9cc95	-0.02268056
130	0xbc8ad2d2	-0.01694623
131	0x3d3a5741	0.045493368
132	0xbd576230	-0.052583873
133	0xbd4e7b22	-0.050410397
134	0x3a984480	0.0011617094
135	0xbc6b75fe	-0.014371393
136	0xbba947a7	-0.0051660123
137	0x3e364493	0.17799596
138	0xbcad10d5	-0.02112619
139	0xbe1afbb2	-0.15135077
140	0x3d171da6	0.03689351
141	0xbba24a54	-0.0049527083
142	0x3be5583d	0.006999044
143	0x3cb50e6c	0.022101603
144	0x3d65c048	0.056091577
145	0x3d4cd872	0.050011106
146	0x3b10cf88	0.0022096355
147	0x3b20dcd8	0.0024545696
148	0x3d145d7c	0.036221966
149	0x3e424e28	0.18975127
150	0xbdd34bb2	-0.10317172
151	0x3c80068e	0.015628126
152	0xbdb11a46	-0.086475894
153	0x3cad0303	0.0211196
154	0x3d0e9ff7	0.034820523
155	0xbd04d739	-0.032431815
156	0xbd2773ab	-0.040881794
157	0x3e10647a	0.14100829
158	0xbd46ee12	-0.048566885
159	0x3c8c86b9	0.017154085
160	0x3c5ab3c2	0.013348522
161	0x3d2ed76b	0.042685907
162	0x3ca72096	0.02040128
163	0xbcb84f89	-0.022498863
164	0xbe9c34e7	-0.3050911
165	0x3d15cc8f	0.036572035
166	0x3a5ded80	0.0008465871
167	0xbc14a160	-0.009071678
168	0x3cc24a31	0.023717018
169	0x3d1f77d1	0.038932625
170	0x3c3f97d5	0.011693914
171	0x3d579848	0.05263546
172	0x3d2809bf	0.04102492
173	0xbc2fe2f8	-0.010735266
174	0x3bd5afc4	0.006521197
175	0xbf27c422	-0.6553365
176	0xbb439571	-0.0029843713
177	0xbb7a5cd8	-0.0038202312
178	0xbc304786	-0.01075924
179	0x3acf9d91	0.0015839805
180	0xbbb225fa	-0.005436656
181	0xbd523a39	-0.051325057
182	0xbcfa2924	-0.030537196
183	0x3ce981a0	0.028504193
184	0xbcb8e341	-0.0225693
185	0xbd14d131	-0.036332313
186	0xbb3df260	-0.0028983578
187	0x3cdaaf5b	0.026694944
188	0x3d4af6b2	0.049551673
189	0x3de8ffce	0.11376916
190	0xbbe052f6	-0.006845827
191	0xbc518094	-0.012787003
192	0xbf5d0ab6	-0.8634447
193	0xbc467ed4	-0.012115199
194	0x3cea5273	0.028603768
195	0x3c8cefc4	0.017204173
196	0xbc1c8c5f	-0.009554951
197	0x3d3736c2	0.044729955
198	0xbc1c2163	-0.009529444
199	0x3c8bb2c2	0.017053012
200	0x3d022bba	0.031779982
201	0xbd5fa9bf	-0.054605242
202	0x3d4572c6	0.04820516
203	0xbc531c2a	-0.012885133
204	0xbd20ae01	-0.039228443
205	0xbcf42a0c	-0.029805206
206	0x3cb044f4	0.021517254
207	0x3cd10e81	0.025519611
208	0xbcd90aeb	-0.026494464
209	0x3e19c4f2	0.15016535
210	0xbd713b81	-0.058894638
211	0xbc1a28aa	-0.009409109
212	0x3f8130d0	1.0093021
213	0xbb228fe5	-0.0024805006
214	0xbd1e637b	-0.03866909
215	0xbce7ea2d	-0.028309906
216	0xbd86c9bc	-0.065814465
217	0x3dbe56dc	0.09293911
218	0xbc0c6a82	-0.008570315
219	0xbd0126a4	-0.03153099
220	0x3c65f1f6	0.014034739
221	0x3d38cd2e	0.04511755
222	0xbc0ade77	-0.008475891
223	0xbe09caa4	-0.13456208
224	0xbef797bb	-0.4835795
225	0xbc7a4562	-0.015275331
226	0x3eadbe3e	0.33934206
227	0x3c52438b	0.012833486
228	0xbce80b3e	-0.028325673
229	0xbe45719e	-0.19281623
230	0xbd20f7ee	-0.039298944
231	0x3c928950	0.017887741
232	0x3cf6b3db	0.030115059
233	0x3d0d8420	0.034549832
234	0xbcbbe0a3	-0.022934264
235	0x3c764887	0.01503194
236	0xbc5aa664	-0.013345335
237	0xbea1ba79	-0.3158758
238	0x3d5bcd65	0.053662676
239	0x3d497a89	0.049189124
240	0xbd1b76c4	-0.03795506
241	0x3d293a55	0.041315395
242	0x3c89a993	0.016804492
243	0xbd20ce63	-0.039259326
244	0xbde45cba	-0.11150499
245	0xbd5c1276	-0.053728543
246	0x3f3c91ef	0.73660177
247	0x3f2d81ef	0.6777639
248	0xbd1acc27	-0.03779235
249	0x3b16ace5	0.0022991237
250	0x3cb026cc	0.021502875
251	0xbcf5e4ca	-0.030016322
252	0x3d38f511	0.04515559
253	0xbf461e1d	-0.773897
254	0x3d517b9b	0.05114327
255	0x3d5df38c	0.054187343

net.4.bias f4 [4]
0	0xbc8c9134	-0.017159082
1	0x3e0d300d	0.13787861
2	0xbea489a4	-0.3213626
3	0xbe54912a	-0.207585
