logs/PointMaze-Right/airl_sac/seed0-20231226-1522/model/step150000/disc.pth (torch, 90839 bytes, 10 tensors)

g.0.weight f4 [100, 6]
0.4689559 0.3599796 -0.33435595 -0.5054776 0.1804018 -0.1911363 -0.27188218 0.2425093
0.29091433 -0.20829083 0.15001403 0.33874533 -0.5341084 -0.14180976 -0.25612202 0.106756054
0.13647136 0.20235598 0.01921375 -0.03822019 -0.2243558 0.2716135 0.32680425 0.3528185
-0.3042163 -0.061612263 -0.02810071 -0.19149959 -0.2506593 0.3359678 0.008262244 -0.39510506
-0.13709919 -0.21457617 0.020008314 0.0016859706 0.018724917 -0.32689115 -0.1331595 -0.27340424
-0.12182866 0.13343228 -0.029188307 -0.29455754 0.040966216 0.03462863 0.056695737 -0.31152087
0.16910407 0.25290444 0.25647485 0.23228958 -0.14990684 -0.110614814 0.25523627 -0.32629046
0.23664865 -0.31940407 -0.2940798 -0.004105888 0.44609207 0.30069327 0.28578284 -0.1494002
0.36994052 -0.08347479 0.3133417 0.33488205 0.07560826 -0.3570662 0.36862168 -0.15151338
-0.13432936 -0.30665123 0.30097106 -0.10658533 0.33454493 0.048727095 0.42505565 -0.39366758
-0.352353 -0.50836575 -0.21927275 0.14585 -0.17352663 0.09576471 0.26151153 0.27180597
-0.07007541 0.25022766 0.48730335 0.033459987 -0.24222729 -0.12922175 0.062439192 0.016200608
-0.38634384 -0.30843475 0.25170553 0.24991678 -0.2923082 0.31349245 0.14423335 0.20950677
0.0372722 0.10044767 -0.09703326 0.36071077 -0.3295564 -0.2801023 0.32271504 0.3205927
0.16467868 0.25188634 0.16011602 -0.28497642 0.36091343 0.37839064 0.3722637 0.04992362
0.06314965 0.06961653 -0.13606638 0.1975216 0.051988512 0.2853315 0.3324298 0.14687128
-0.3889795 0.26609272 -0.06660018 0.31694484 0.23172604 0.25546172 -0.024260787 -0.17722984
0.3122883 -0.11120573 0.19281961 -0.35636652 -0.09785311 0.08876446 -0.19004786 0.18153386
0.38284716 -0.18587165 0.13337958 -0.13180949 -0.052240413 -0.07659201 -0.41729176 0.5231046
-0.23972178 0.3334335 0.32454866 0.3806506 -0.5046297 -0.15875244 0.24295895 0.15656652
-0.39164436 0.14495522 0.14477909 -0.2049584 -0.085280046 0.36621815 0.39357445 -0.028504305
-0.48794907 -0.11492961 -0.25590575 0.19048819 -0.33701292 0.2853666 -0.27267897 -0.39173302
-0.18654977 -0.3710537 -0.03269585 -0.09780703 0.37420103 0.36918464 0.40751252 -0.24177493
0.26966494 0.27205607 0.09171917 -0.035494838 0.30071938 0.36435786 -0.25977397 0.06660112
0.35083485 0.07052507 -0.1806743 -0.37813425 0.034719698 0.1300144 -0.14918062 0.058818854
0.12822106 0.4911458 -0.12049334 0.17702638 0.5077457 -0.057436813 0.35175315 -0.46529707
0.4103725 0.08766949 0.12526183 -0.30601525 -0.2912675 -0.029055215 -0.13016152 -0.058905505
-0.019766245 0.064271085 -0.22063312 0.18862912 -0.15372053 -0.102332324 0.1682952 -0.27244487
-0.059540704 0.38624796 0.37624738 -0.32113814 -0.37646696 -0.3998904 -0.009386354 -0.2767339
0.061094593 0.40544826 0.04034304 -0.32599208 0.3950118 -0.1585884 -0.354551 0.019009376
-0.04403915 -0.18538104 -0.2960598 0.019190611 -0.22142415 0.3482537 0.42441738 0.29313052
0.20643272 0.048852634 0.2778968 0.21911407 0.06633347 0.1083117 0.29246658 -0.13442548
00000000: fd1a f03e 3f4f b83e b430 abbe fb66 01bf
00000010: 40bb 383e 3cb9 43be 2434 8bbe 5c54 783e
00000020: b9f2 943e 314a 55be 479d 193e 0770 ad3e
00000030: 54bb 08bf 9436 11be 6d22 83be eba2 da3d
00000040: 26bf 0b3e 6836 4f3e 2766 9d3c c68c 1cbd
00000050: 87bd 65be ed10 8b3e e352 a73e a0a4 b43e
00000060: 3dc2 9bbe 245d 7cbd 7633 e6bc 7818 44be
00000070: 6a56 80be f903 ac3e 5d5e 073c 364b cabe
00000080: bb63 0cbe dbb9 5bbe 7ae8 a33c c9fb dc3a
00000090: ff64 993c 475e a7be f75a 08be a4fb 8bbe
000000a0: 4e81 f9bd 79a2 083e 511c efbc 3fd0 96be
000000b0: 31cc 273d c0d6 0d3d ca39 683d aa7f 9fbe
000000c0: 9e29 2d3e b17c 813e ac50 833e 52dd 6d3e
000000d0: 2e81 19be 058a e2bd 54ae 823e 8b0f a7be
000000e0: 0654 723e ee88 a3be a191 96be af8a 86bb
000000f0: 2e66 e43e 78f4 993e 2152 923e 5efc 18be
00000100: d868 bd3e d5f4 aabd 536e a03e a975 ab3e
00000110: 81d8 9a3d 62d1 b6be fbbb bc3e 5326 1bbe
00000120: a38d 09be 6401 9dbe e118 9a3e 6949 dabd
00000130: 7949 ab3e 1096 473d e5a0 d93e cc8e c9be
00000140: 9d67 b4be 4224 02bf 0989 60be b459 153e
00000150: f7b0 31be 4a20 c43d d7e4 853e 272a 8b3e
00000160: b283 8fbd d71d 803e d37f f93e 570d 093d
00000170: 6e0a 78be b552 04be 3dc0 7f3d 23b7 843c
00000180: dcce c5be 29eb 9dbe 8cdf 803e 2fea 7f3e
00000190: 6ca9 95be 1582 a03e e8b1 133e f188 563e
000001a0: bcaa 183d 82b7 cd3d 60b9 c6bd 15af b83e
000001b0: 9ebb a8be 9269 8fbe e83a a53e ba24 a43e
000001c0: 87a1 283e 3ff7 803e 74f5 233e 6ee8 91be
000001d0: a5c9 b83e 6bbc c13e 5999 be3e b67c 4c3d
000001e0: 9b54 813d 1c93 8e3d fc54 0bbe 1a43 4a3e
000001f0: e8f1 543d f816 923e 3d34 aa3e 6d65 163e
00000200: 5228 c7be 4e3d 883e ad65 88bd 9846 a23e
00000210: 9749 6d3e e1cb 823e 8fbe c6bc bd7b 35be
00000220: 41e4 9f3e d4bf e3bd 8172 453e ac75 b6be
00000230: 3667 c8bd 24ca b53d e89b 42be 03e4 393e
00000240: 8b04 c43e 2355 3ebe a894 083e 11f9 06be
00000250: 0bfa 55bd 46dc 9cbd 44a7 d5be 2fea 053f
00000260: a079 75be ccb7 aa3e 3e2b a63e a3e4 c23e
00000270: 692f 01bf 0090 22be 3bca 783e f952 203e
00000280: 9c85 c8be 246f 143e f840 143e 9de0 51be
00000290: 4ea7 aebd f280 bb3e 9782 c93e dc81 e9bc
000002a0: 76d4 f9be 3760 ebbd 1406 83be 560f 433e
000002b0: f58c acbe 921b 923e 949c 8bbe 3b91 c8be
000002c0: e706 3fbe c0fa bdbe 15ec 05bd 0d4f c8bd
000002d0: 4797 bf3e c505 bd3e 7ba5 d03e d993 77be
000002e0: 8611 8a3e ef4a 8b3e 43d7 bb3d 0963 11bd
000002f0: e4f7 993e 1d8d ba3e 1801 85be 2b66 883d
00000300: a0a0 b33e 736f 903d af02 39be d09a c1be
00000310: 3e36 0e3d 7f22 053e cec2 18be 0aec 703d
00000320: 624c 033e 7677 fb3e 36c5 f6bd 6746 353e
00000330: 9ffb 013f dd42 6bbd fd18 b43e 6b3b eebe
00000340: 581c d23e 108c b33d a344 003e 08ae 9cbe
00000350: 0421 95be 3405 eebc 1049 05be e646 71bd
00000360: d2ec a1bc 8fa0 833d a6ed 61be fe27 413e
00000370: ea68 1dbe 9c93 d1bd 9455 2c3e e57d 8bbe
00000380: f4e0 73bd 4bc2 c53e 7fa3 c03e 386c a4be
00000390: 47c0 c0be 6fbe ccbe 39c9 19bc 11b0 8dbe
000003a0: 533e 7a3d ea96 cf3e be3e 253d 6fe8 a6be
000003b0: fd3e ca3e ff64 22be b587 b5be 8db9 9b3c
000003c0: 6562 34bd 87d4 3dbe 2695 97be a135 9d3c
000003d0: 03bd 62be 4f4e b23e 3c4d d93e 3415 963e
000003e0: 1963 533e b319 483d 7d48 8e3e 705f 603e
000003f0: d8d9 873d 86d2 dd3d 2ebe 953e d5a6 09be

g.0.bias f4 [100]
0.16733529 0.10693383 -0.0076976717 0.15977754 0.05971284 -0.17043054 -0.38416755 0.25835624
-0.39580488 0.31556386 -0.22381109 -0.0729969 -0.36567414 0.315568 -0.40226007 0.19205959
-0.28873175 0.086363986 0.057443336 -0.27004284 -0.24711332 -0.18713611 0.00257833 0.29095638
-0.3860784 0.38388357 0.26097155 -0.07836561 0.2093094 -0.15846479 0.28206164 0.3237973
-0.26209715 0.2440883 0.0054027485 -0.23579045 -0.2465731 0.22235414 -0.38760537 -0.051183026
0.06729024 -0.2235692 0.2415643 0.09653143 0.11603622 0.06845593 0.3395819 -0.28901646
0.09950846 -0.06730955 -0.03261129 -0.17355208 -0.06838941 -0.20602183 0.15603061 -0.3866317
-0.29949725 0.26967987 0.06794549 -0.15008628 0.189677 0.15803607 0.20100339 0.17565002
0.19689696 -0.31811205 -0.36612475 -0.041683674 -0.32647267 0.23611642 0.08916398 -0.24340773
0.36587384 0.2313174 0.24823636 -0.3008232 0.09177559 0.06030113 -0.011809946 0.13611875
0.39149243 0.0876341 -0.36839968 0.33377153 0.19729896 -0.19339557 -0.40027446 0.19883196
0.28277817 -0.06859584 0.39606592 -0.026451174 -0.39294958 0.23540755 0.12814696 -0.15220791
0.25624275 0.13697153 -0.3784695 -0.36522168
00000000: f159 2b3e 2000 db3d c03c fcbb b99c 233e
00000010: 7395 743d 5885 2ebe 9cb1 c4be 4547 843e
00000020: f0a6 cabe 9691 a13e bc2e 65be 667f 95bd
00000030: a439 bbbe 2192 a13e 08f5 cdbe 45ab 443e
00000040: a6d4 93be 9adf b03d b449 6b3d 0e43 8abe
00000050: 460b 7dbe 9ca0 3fbe 33f9 283b 3cf8 943e
00000060: 11ac c5be 638c c43e 109e 853e 267e a0bd
00000070: 3455 563e 9844 22be 626a 903e c2c8 a53e
00000080: 9931 86be 49f2 793e 8a09 b13b 0d73 71be
00000090: a97d 7cbe ceb0 633e 3674 c6be 4ba5 51bd
000000a0: 77cf 893d 53ef 64be a25c 773e 45b2 c53d
000000b0: 66a4 ed3d 9f32 8c3d aedd ad3e f7f9 93be
000000c0: 17cb cb3d 97d9 89bd 6b93 05bd a3b7 31be
000000d0: bf0f 8cbd 63f7 52be 7dc6 1f3e 97f4 c5be
000000e0: b457 99be 7b13 8a3e 0127 8b3d 38b0 19be
000000f0: b03a 423e 35d4 213e d5d3 4d3e 99dd 333e
00000100: 5b9f 493e 95df a2be b474 bbbe 80bc 2abd
00000110: 6d27 a7be 81c8 713e 9b9b b63d e03f 79be
00000120: d153 bb3e 78de 6c3e ac31 7e3e 8005 9abe
00000130: d7f4 bb3d 51fe 763d 817e 41bc b762 0b3e
00000140: b271 c83e 8279 b33d e29e bcbe 1ae4 aa3e
00000150: bd08 4a3e 7d09 46be c6f0 ccbe 9b9a 4b3e
00000160: 4dc8 903e fa7b 8cbd 27c9 ca3e 22b0 d8bc
00000170: b030 c9be ad0e 713e f538 033e 64dc 1bbe
00000180: 4032 833e 4442 0c3e c1c6 c1be 56fe babe

g.2.weight f4 [100, 100]
0.099470906 0.0072555887 -0.27032208 -0.10826195 -0.07149255 0.022653151 -0.006581676 -0.0053640697
-0.02721051 -0.29561353 0.03520505 0.059903067 0.052782416 -0.36447743 -0.054968536 0.085821405
0.009622824 0.007706995 -0.08424742 -0.032037508 0.028711641 0.25169653 0.13292626 0.13520691
-0.09442425 0.049823742 -0.26313645 0.050624833 -0.28818005 0.0990531 0.033106763 -0.0030387028
0.014657967 -0.059618168 0.032821197 0.0460845 0.030370547 -0.020565366 0.0012924671 0.0046445727
-0.06954765 0.0648759 0.07124399 -0.2393566 -0.2210637 0.000448761 0.03607821 -0.07847567
0.06447778 -0.0043048067 0.07806259 -0.05506766 -0.009641769 -0.074379995 -0.2715918 0.06061042
0.050179243 -0.09185402 0.014766236 -0.46615064 -0.25396222 -0.00857983 -0.045565747 0.122782394
0.131981 -0.4303359 0.07358048 -0.07396086 -0.09220963 -0.03527331 -0.24866848 -0.0009508284
0.111085445 -0.1203073 -0.07036602 0.03356695 -0.34310645 -0.18303016 -0.16995953 0.12765425
0.0084030405 -0.041547798 0.074767925 -0.007500106 -0.04078309 -0.08800154 -0.063314416 0.01878811
-0.09912598 -0.16733542 -0.05347264 -0.0333704 -0.034357917 -0.047344435 0.03925232 -0.07454126
-0.35168195 -0.4982181 -0.0697541 -0.06565926 0.083290115 -0.031862456 -0.1882256 -0.018137794
0.09381821 0.052920796 -0.036190808 -0.011996922 -0.068667606 -0.3983268 0.12763394 -0.07594926
0.09621171 -0.12605621 0.026288152 -0.056792565 -0.022985065 -0.095461674 -0.16390568 -0.06457222
-0.074225366 0.16564418 0.07577815 -0.05900619 -0.034396853 0.029699001 -0.19246544 -0.028483473
-0.23965375 0.051393893 0.07581549 -0.10836873 0.07160838 0.054183442 0.1116738 -0.04396924
-0.05470146 -0.05871832 -0.08276105 -0.090340674 0.06741613 0.12439416 0.046000205 -0.048295766
-0.29564857 -0.0690802 -0.081271306 0.078498445 -0.0005241478 -0.020358428 0.030341301 0.09765309
-0.05208563 -0.021678722 -0.18351634 0.032498047 -0.022512376 0.08870251 0.06788323 -0.53549314
-0.20180148 0.0477823 0.094229504 0.04968387 0.080239706 -0.39162475 0.01538477 -0.0599545
-0.00078650715 0.08448033 -0.14218381 -0.0031597796 0.04590266 -0.13488993 0.011288163 0.021605564
-0.2913221 -0.1798711 -0.19959593 -0.019748012 0.00457131 0.06403482 -0.06467054 0.02489437
0.083028436 0.07809281 -0.02313136 0.027259944 -0.012335587 -0.16596563 0.052350424 0.009533633
-0.005942929 -0.07975587 0.033029936 0.005967164 -0.2630203 -0.3051449 0.027375354 0.062499594
-0.091713354 0.06599604 -0.098844014 -0.011972753 0.045182467 -0.06694044 0.0871379 0.054640744
-0.017187823 -0.049118433 -0.051871788 0.006393172 -0.011912095 -0.014737349 0.025500715 0.0105610285
-0.0395859 -0.059052475 -0.100057356 -0.011212555 -0.03607316 0.041033458 0.047105886 -0.06390121
0.05962503 0.010165349 -0.10268317 -0.02982373 -0.07052204 -0.06849412 -0.021697728 0.016204787
-0.004781437 -0.008114443 -0.09842749 0.09772402 -0.018326664 0.0744945 0.09224719 -0.04632268
0.08158811 -0.043658104 -0.029144835 0.0034377603 -0.09071948 -0.03196894 0.0014524887 0.03347695
0.056701876 -0.071096934 0.077680945 0.0037819028 -0.07703829 0.0051576137 0.037381604 -0.055026878
00000000: 67b7 cb3d 4ac0 ed3b a867 8abe 71b8 ddbd
00000010: b06a 92bd 1a93 b93c 1aab d7bb 14c5 afbb
00000020: 93e8 debc a85a 97be 2c33 103d eb5c 753d
00000030: 6032 583d c99c babe b026 61bd 22c3 af3d
00000040: 0da9 1d3c f68a fc3b e989 acbd c339 03bd
00000050: ad34 eb3c 5ede 803e d21d 083e ae73 0a3e
00000060: 8061 c1bd fb13 4c3d d2b9 86be fc5b 4f3d
00000070: 568c 93be 5adc ca3d f59a 073d f924 47bb
00000080: f827 703c 2e32 74bd 856f 063d 1ac3 3c3d
00000090: a7cb f83c b378 a8bc 0068 a93a 8031 983b
000000a0: 006f 8ebd a8dd 843d 5ee8 913d e619 75be
000000b0: 865e 62be af47 eb39 bfc6 133d dab7 a0bd
000000c0: ed0c 843d 560f 8dbb 47df 9f3d a08e 61bd
000000d0: 83f8 1dbc 8a54 98bd 150e 8bbe a242 783d
000000e0: c088 4d3d f61d bcbd 15ee 713c 4cab eebe
000000f0: 5607 82be 6a92 0cbc 26a3 3abd 5675 fb3d
00000100: 0726 073e fd54 dcbe 5db1 963d cb78 97bd
00000110: 67d8 bcbd bf7a 10bd f3a2 7ebe 0441 79ba
00000120: c480 e33d ac63 f6bd 0f1c 90bd 807d 093d
00000130: a6ab afbe 426c 3bbe df09 2ebe ccb7 023e
00000140: e8ac 093c 062e 2abd ed1f 993d 73c3 f5bb
00000150: 2b0c 27bd 273a b4bd fdaa 81bd 86e9 993c
00000160: 9002 cbbd fa59 2bbe 2106 5bbd 67af 08bd
00000170: e3ba 0cbd 3dec 41bd 0ac7 203d 17a9 98bd
00000180: a80f b4be 7116 ffbe 3ddb 8ebd 5d78 86bd
00000190: 0294 aa3d 3582 02bd 36be 40be b695 94bc
000001a0: c323 c03d 7ac3 583d d03c 14bd bd8e 44bc
000001b0: 9aa1 8cbd 7ef1 cbbe 79b2 023e 498b 9bbd
000001c0: a50a c53d e114 01be 405a d73c 529f 68bd
000001d0: 2d4b bcbc 6981 c3bd e4d6 27be 713e 84bd
000001e0: 7803 98bd a19e 293e 9331 9b3d 7ab0 71bd
000001f0: b7e3 0cbd 524b f33c a915 45be 2c56 e9bc
00000200: cb67 75be 6782 523d 2745 9b3d 6df0 ddbd
00000210: 6aa7 923d 75ef 5d3d 3cb5 e43d 1719 34bd
00000220: a30e 60bd 9f82 70bd a07e a9bd 8804 b9bd
00000230: 7811 8a3d 5ec2 fe3d b66a 3c3d c8d1 45bd
00000240: 405f 97be eb79 8dbd 9271 a6bd cbc3 a03d
00000250: f766 09ba b8c6 a6bc 528e f83c 58fe c73d
00000260: be57 55bd 9397 b1bc b5eb 3bbe ac1c 053d
00000270: e06b b8bc a9a9 b53d 5d06 8b3d 1416 09bf
00000280: 0ca5 4ebe 5fb7 433d 66fb c03d 5081 4b3d
00000290: b754 a43d 0a83 c8be 6710 7c3c da92 75bd
000002a0: 9a2d 4eba 0604 ad3d a298 11be 4e14 4fbb
000002b0: 6d04 3c3d 9620 0abe fdf1 383c 27fe b03c
000002c0: 2c28 95be 2130 38be e062 4cbe 95c6 a1bc
000002d0: edca 953b b024 833d fd71 84bd 47ef cb3c
000002e0: d00a aa3d 20ef 9f3d fa7d bdbc 3f50 df3c
000002f0: 341b 4abc e5f2 29be 666d 563d f432 1c3c
00000300: e7bc c2bb 0c57 a3bd 664a 073d 3388 c33b
00000310: 99aa 86be f43b 9cbe 4742 e03c 93ff 7f3d
00000320: 36d4 bbbd ef28 873d bb6e cabd 5e29 44bc
00000330: 4011 393d 1218 89bd 5b75 b23d f9ce 5f3d
00000340: 7acd 8cbc 6930 49bd 8377 54bd d07d d13b
00000350: f32a 43bc ec74 71bc e0e6 d03c 2a08 2d3c
00000360: d324 22bd 02e1 71bd dfea ccbd ddb4 37bc
00000370: 73c1 13bd b312 283d 1af2 403d a3de 82bd
00000380: 6039 743d 908c 263c 8e4b d2bd e550 f4bc
00000390: dc6d 90bd a546 8cbd 6fbf b1bc e7bf 843c
000003a0: 9aad 9cbb 71f2 04bc 5a94 c9bd 8823 c83d
000003b0: cd21 96bc 9390 983d 18ec bc3d dabc 3dbd
000003c0: ab17 a73d d7d2 32bd 26c1 eebc 0c4c 613b
000003d0: 22cb b9bd ddf1 02bd 6f61 be3a 201f 093d
000003e0: 3a40 683d 459b 91bd 3017 9f3d cdd9 773b
000003f0: 40c6 9dbd 3301 a93b 741d 193d dd63 61bd

g.2.bias f4 [100]
0.052403573 -0.008297104 0.061889555 0.013199309 0.016424002 0.07309726 -0.019874692 0.07806708
-0.07311344 0.061061647 0.018159056 -0.031202255 0.09559275 0.013673472 0.000181286 0.07145887
0.016636478 -0.004329244 -0.07564572 0.022682335 -0.08642792 0.07526376 0.0570523 0.08587531
-0.085484795 -0.054420013 0.07408588 -0.09944203 0.025227427 0.095999464 -0.015075035 -0.007909982
-0.044746924 -0.054479744 -0.042466495 -0.025459023 -0.059804913 0.044462595 0.09950314 -0.034756746
0.030995263 -0.07760531 -0.10443167 -0.030202169 0.042711098 -0.06122122 -0.097306535 0.034877997
-0.047485236 -0.06476171 -0.013346451 -0.015376306 0.083910204 0.09538306 -0.05738885 -0.044896703
-0.02240994 0.066875435 -0.012503159 -0.0024174452 0.0059131635 -0.0137188 -0.021663185 0.081672624
-0.0059561953 0.04440507 0.021545576 -0.10831641 0.011057517 -0.0769672 -0.050819132 -0.0036065222
-0.021000266 0.10298973 0.11714459 -0.07940185 0.031802427 0.04629185 -0.005211377 -0.028085584
-0.08951253 -0.062074125 -0.069157675 0.046582557 -0.056252573 0.087607056 -0.017481197 -0.040546156
-0.01297133 0.011607087 0.08304469 -0.042681076 -0.0095374705 0.020981431 0.10296919 0.02513933
0.108693354 0.020824296 0.0117148645 0.037390754
00000000: 21a5 563d 94f0 07bc e77f 7d3d ea41 583c
00000010: a18b 863c 04b4 953d 40d0 a2bc a2e1 9f3d
00000020: 80bc 95bd c71b 7a3d 4dc2 943c df9b ffbc
00000030: 22c6 c33d b306 603c 9717 3e39 0759 923d
00000040: 3949 883c 55dc 8dbb 25ec 9abd 4ed0 b93c
00000050: 1f01 b1bd e323 9a3d acaf 693d 65df af3d
00000060: a712 afbd 85e7 5ebd 56ba 973d 43a8 cbbd
00000070: c0a9 ce3c 5e9b c43d 48fd 76bc df98 01bc
00000080: 8d48 37bd 2726 5fbd 59f1 2dbd 718f d0bc
00000090: fff5 74bd 691e 363d 4dc8 cb3d 175d 0ebd
000000a0: c7e9 fd3c 88ef 9ebd 45e0 d5bd 8a6a f7bc
000000b0: d5f1 2e3d 1ac3 7abd a648 c7bd 3bdc 0e3d
000000c0: e17f 42bd caa1 84bd 13ab 5abc e7ec 7bbc
000000d0: 1dd9 ab3d 3258 c33d 9210 6bbd 9be5 37bd
000000e0: 0d95 b7bc fdf5 883d 0dda 4cbc 006e 1ebb
000000f0: 36c3 c13b d1c4 60bc fe76 b1bc fa43 a73d
00000100: 302c c3bb 17e2 353d 5980 b03c fed4 ddbd
00000110: 962a 353c fba0 9dbd b927 50bd 675b 6cbb
00000120: c008 acbc 48ec d23d 81e9 ef3d 709d a2bd
00000130: 4343 023d 869c 3d3d 33c4 aabb bd13 e6bc
00000140: 5852 b7bd 7041 7ebd 8aa2 8dbd 5acd 3e3d
00000150: 1969 66bd 546b b33d ba34 8fbc ba13 26bd
00000160: b485 54bc a72b 3e3c 5613 aa3d 5ad2 2ebd
00000170: 0d43 1cbc 40e1 ab3c 83e1 d23d fff0 cd3c
00000180: 9f9a de3d b797 aa3c b4ef 3f3c 0c27 193d

g.4.weight f4 [1, 100]
0.18533069 0.27885726 0.089554824 -0.1708255 0.013267414 -0.12880719 0.09832495 0.21136937
-0.039773893 -0.22487855 -0.03863604 0.21817929 -0.13428484 -0.07460979 -0.13895844 0.036349557
-0.46536326 -0.19560987 0.00034205915 0.25393802 -0.09654546 -0.1781528 -0.1970213 0.021043658
0.0065490725 -0.14660786 0.04049637 -0.095411755 0.24079248 0.26755857 -0.107412994 0.21231885
0.024930669 -0.016903806 -0.20755623 0.3458328 0.24143228 0.20797834 -0.104579665 -0.0566746
0.07556255 0.083425395 0.23296586 0.21711063 -0.19825022 -0.2327915 0.06278 -0.25470018
-0.16411035 0.06274861 0.0013309973 0.05118805 -0.17470178 0.27998325 0.023572002 0.04535317
0.039558627 -0.33846378 -0.07835191 0.053489543 0.011514073 0.2410819 -0.15034615 -0.21411464
-0.14050134 -0.16606084 0.07930762 -0.48206213 -0.19409153 0.2565456 0.26199013 0.08993665
0.086157195 -0.1639486 -0.100100674 0.07357822 0.29046154 0.007980789 -0.03392116 -0.043194536
-0.049152054 -0.19597307 -0.08076348 0.0416075 0.048778296 -0.17780034 -0.21416345 -0.09335583
-0.1642123 -0.05334847 -0.22435364 -0.04122428 0.08683121 -0.21539322 -0.11933414 -0.2076552
-0.12180562 0.21315672 0.05371437 -0.15050672
00000000: 54c7 3d3e 61c6 8e3e 8568 b73d e1ec 2ebe
00000010: 915f 593c 08e6 03be 975e c93d 3671 583e
00000020: f3e9 22bd 9046 66be d340 1ebd 646a 5f3e
00000030: f781 09be 05cd 98bd 1f4b 0ebe 46e3 143d
00000040: 1844 eebe f44d 48be 6756 b339 2a04 823e
00000050: a0b9 c5bd b06d 36be f4bf 49be c063 ac3c
00000060: 9a99 d63b 5f20 16be 86df 253d 3d67 c3bd
00000070: 4e92 763e 70fd 883e 58fb dbbd 1d6a 593e
00000080: 673b cc3c da79 8abc 9f89 54be ff10 b13e
00000090: 063a 773e 46f8 543e dd2d d6bd a023 68bd
000000a0: 8ac0 9a3d efda aa3d 9a8e 6e3e 4052 5e3e
000000b0: 1b02 4bbe e560 6ebe cd92 803d 1068 82be
000000c0: 8b0c 28be 5882 803d dc74 ae3a 90aa 513d
000000d0: 06e5 32be f759 8f3e 121a c13c 3fc4 393d
000000e0: 3a08 223d 204b adbe f776 a0bd da17 5b3d
000000f0: 86a5 3c3c 2cde 763e 57f4 19be de40 5bbe
00000100: 95df 0fbe da0b 2abe 096c a23d d9d0 f6be
00000110: eebf 46be f259 833e 9223 863e b530 b83d
00000120: 2f73 b03d 24e2 27be 9501 cdbd 2eb0 963d
00000130: 60b7 943e dbc1 023c eaf0 0abd c1ec 30bd
00000140: aa53 49bd 2aad 48be 5367 a5bd a06c 2a3d
00000150: c0cb 473d 4b11 36be aa4d 5bbe 5731 bfbd
00000160: 4527 28be ed83 5abd f6bc 65be cada 28bd
00000170: 90d4 b13d 0a90 5cbe 7565 f4bd 91a3 54be
00000180: 3a75 f9bd c145 5a3e 9903 5c3d 6f1e 1abe

h.0.weight f4 [100, 6]
0.35390466 -0.09115108 -0.19648188 -0.19118364 0.34663853 0.1731168 0.28663233 0.37782502
-0.010876148 -0.007084441 0.4281287 -0.09446126 0.476101 -0.27401087 -0.32755128 0.32184708
-0.257278 -0.26672772 -0.11813387 0.19310646 -0.31947315 0.327484 0.059916213 -0.23466459
0.07609538 0.5027885 -0.010682988 0.4015788 0.1600373 -0.07312171 0.0011539669 0.038013853
-0.13939813 0.47212896 0.39594093 0.18438472 -0.22666144 0.10522358 -0.033858113 0.04219973
-0.2141606 0.13928464 0.26696154 0.2578542 -0.16489238 -0.33352244 0.20145151 0.31312683
-0.074465655 -0.024609923 0.3870066 -0.3588068 0.29933167 0.13756533 0.21449308 0.2278173
0.13592695 -0.28301716 0.089353316 -0.27714762 0.32057783 0.31260917 0.055725504 0.15052584
-0.35227138 0.024363572 0.413711 -0.28508165 -0.3492917 -0.2564196 -0.011502494 0.31812808
0.29738066 -0.003941417 -0.37358817 -0.33222732 0.09891953 0.16211417 0.6026203 0.17123525
0.038378254 -0.12477517 0.15622465 -0.19719471 -0.3573791 0.3901439 -0.26244265 -0.25695932
0.3730598 0.33038405 0.07420996 0.13138121 0.20699866 0.018058373 -0.3464497 0.022565959
0.52025396 0.38114223 0.17269073 0.18964802 -0.22036795 -0.31673154 -0.22540742 0.120149046
-0.06681851 -0.016545223 -0.019061225 0.3303892 0.3601804 0.30912745 0.0006174381 -0.008687998
0.08732212 0.16242613 -0.26512632 0.44755843 -0.09164861 0.12094728 -0.29112658 -0.23148985
0.021752734 -0.39858985 -0.15741669 -0.09055959 0.30190367 -0.2638674 0.28897983 -0.21292967
-0.24206455 -0.19171844 -0.38231567 -0.019923681 -0.22124447 -0.19232723 0.3485441 -0.16736534
0.38672718 -0.39319927 0.50913364 -0.16817027 0.051120196 0.33979958 0.33884737 -0.012326376
-0.33749238 -0.35789433 -0.03305209 -0.06157776 -0.24994457 -0.3461889 0.20445159 -0.42151323
0.31088144 0.11596735 0.33595413 0.18850039 -0.20337974 0.12750591 -0.17728908 -0.077509485
0.25567836 -0.08720438 0.073415905 -0.24191958 -0.35949776 0.13577905 -0.3229411 -0.012167234
0.1416808 -0.27606982 -0.19999652 0.3131822 -0.30354896 0.15324777 -0.40239283 -0.22082488
0.39163417 0.189346 -0.016798768 0.33694762 0.55450094 0.23394646 -0.009103258 -0.34404573
0.2075931 0.18354498 0.25909653 -0.06095059 0.020294039 -0.21055326 -0.29199648 0.050269645
-0.42509437 -0.086397074 0.33562648 0.027042463 0.18732391 -0.03375236 -0.52451694 0.3543545
0.29373088 -0.12718695 -0.13367905 0.07633559 0.071749635 0.18899296 0.077207506 -0.028139867
0.3248402 -0.36484626 -0.31329998 -0.25420293 -0.06763583 0.010214812 -0.23519905 0.05336866
-0.12916131 0.174844 0.37475735 -0.24100341 -0.20624876 -0.1806414 -0.16465162 0.34704888
0.34222087 -0.11446968 -0.2547791 -0.35908514 0.29718864 -0.35162407 -0.335599 -0.15517835
-0.35614738 0.012873003 -0.29085258 0.14640856 -0.03320904 -0.32559863 0.24195349 -0.13820209
-0.3551126 -0.20586999 0.20549423 0.33603778 0.048589025 0.21603812 0.17418431 -0.34574762
-0.049888775 -0.22502801 -0.100552514 0.40190962 0.13761535 -0.104371905 -0.21771184 -0.3280325
00000000: fe32 b53e 6bad babd 8c32 49be a5c5 43be
00000010: 9b7a b13e 8845 313e 79c1 923e 4872 c13e
00000020: df31 32bc 9924 e8bb af33 db3e e874 c1bd
00000030: 83c3 f33e 274b 8cbe cdb4 a7be 24c9 a43e
00000040: f1b9 83be 8990 88be 2cf0 f1bd b3bd 453e
00000050: fc91 a3be fcab a73e b46a 753d ea4b 70be
00000060: e5d7 9b3d bfb6 003f b307 2fbc bd9b cd3e
00000070: d1e0 233e d6c0 95bd b440 973a 6ab4 1b3d
00000080: 62be 0ebe e3ba f13e c5b8 ca3e 59cf 3c3e
00000090: f019 68be 767f d73d ceae 0abd a0d9 2c3d
000000a0: eb4c 5bbe a2a0 0e3e 2faf 883e 7705 843e
000000b0: 8cd9 28be 74c3 aabe 4e49 4e3e 2952 a03e
000000c0: 7381 98bd c09a c9bc bb25 c63e 86b5 b7be
000000d0: 0042 993e eddd 0c3e 13a4 5b3e f048 693e
000000e0: 6f30 0b3e a0e7 90be dffe b63d 4be6 8dbe
000000f0: c722 a43e 4f0e a03e 6d40 643d 7223 1a3e
00000100: ea5c b4be 1d96 c73c eed1 d33e 39f6 91be
00000110: 5dd6 b2be 6e49 83be f574 3cbc afe1 a23e
00000120: 4742 983e 0127 81bb f346 bfbe b319 aabe
00000130: 5396 ca3d 4201 263e 5345 1a3f 4b58 2f3e
00000140: 8432 1d3d 208a ffbd 5bf9 1f3e 69ed 49be
00000150: 65fa b6be f1c0 c73e e25e 86be 2c90 83be
00000160: b201 bf3e 1928 a93e 64fb 973d cc88 063e
00000170: 75f7 533e 27ef 933c db61 b1be 3fdc b83c
00000180: 5d2f 053f 1325 c33e d7d5 303e 1733 423e
00000190: 23a8 61be a32a a2be 34d1 66be b410 f63d
000001a0: 25d8 88bd d989 87bc 4926 9cbc c628 a93e
000001b0: 9169 b83e f445 9e3e 92db 213a 1b58 0ebc
000001c0: f1d5 b23d 0953 263e a3be 87be 6126 e53e
000001d0: 44b2 bbbd 35b3 f73d 8b0e 95be ad0b 6dbe
000001e0: ca32 b23c f813 ccbe d731 21be 4e77 b9bd
000001f0: 1e93 9a3e a119 87be 2af5 933e 3c0a 5abe
00000200: c5df 77be d751 44be e1be c3be fd36 a3bc
00000210: e98d 62be 6ef1 44be 5f74 b23e d261 2bbe
00000220: 1b01 c63e 6a51 c9be 9556 023f d434 2cbe
00000230: 6963 513d 36fa ad3e 677d ad3e 91f4 49bc
00000240: cdcb acbe ed3d b7be a161 07bd f638 7cbd
00000250: 78f1 7fbe ac3f b1be c25b 513e 95d0 d7be
00000260: da2b 9f3e 4a80 ed3d 2e02 ac3e 3f06 413e
00000270: c742 50be e990 023e 458b 35be 4bbd 9ebd
00000280: 46e8 823e 3698 b2bd 145b 963d c4b9 77be
00000290: 1710 b8be aa09 0b3e 8958 a5be 1459 47bc
000002a0: c614 113e 0659 8dbe e3cb 4cbe 6b59 a03e
000002b0: c56a 9bbe fcec 1c3e 6f06 cebe eb1f 62be
000002c0: 4684 c83e ebe3 413e 929d 89bc 6684 ac3e
000002d0: c6f3 0d3f a98f 6f3e d525 15bc c326 b0be
000002e0: 4993 543e 37f3 3b3e 4da8 843e 53a7 79bd
000002f0: af3f a63c 469b 57be 9080 95be 8be7 4d3d
00000300: f8a5 d9be f3f0 b0bd 3cd7 ab3e 2888 dd3c
00000310: d7d1 3f3e ea3f 0abd be46 06bf f46d b53e
00000320: e563 963e 4c3d 02be 29e3 08be d555 9c3d
00000330: 79f1 923d 5f87 413e f81e 9e3d 9485 e6bc
00000340: 7451 a63e 21cd babe db68 a0be e326 82be
00000350: a784 8abd 075c 273c 05d8 70be 1999 5a3d
00000360: dd42 04be 4e0a 333e 32e0 bf3e 99c9 76be
00000370: e032 53be 0ffa 38be 6f9a 28be 64b0 b13e
00000380: 9337 af3e 146f eabd 6872 82be 02da b7be
00000390: 1c29 983e 1208 b4be a2d3 abbe 13e7 1ebe
000003a0: f358 b6be 4ae9 523c a1ea 94be 20ec 153e
000003b0: 3406 08bd ddb4 a6be a8c2 773e d984 0dbe
000003c0: 52d1 b5be 95cf 52be 146d 523e 250d ac3e
000003d0: 4905 473d 1939 5d3e 5f5d 323e d505 b1be
000003e0: 2c58 4cbd be6d 66be 7aee cdbd 19c7 cd3e
000003f0: 0aeb 0c3e f0c0 d5bd daef 5ebe e0f3 a7be

h.0.bias f4 [100]
0.22358783 0.2560167 0.17607751 0.10890887 -0.07289923 -0.094089985 0.3363575 -0.2620321
-0.3409222 0.15516518 -0.2714325 -0.13223122 0.016612135 0.23135617 -0.27705374 -0.17631447
0.052932464 0.111199774 0.013131403 -0.0011423819 -0.30601 0.0026215934 -0.28220323 0.0380999
-0.11928007 0.25969085 -0.21948409 -0.2620183 -0.3375836 0.2930577 0.1063072 -0.12927851
0.0647559 0.32100755 0.2952096 -0.114616506 -0.1999399 -0.21229257 -0.31822032 -0.22207993
-0.26772776 0.21937771 -0.11081844 -0.117963314 0.045129303 0.37473938 -0.31811598 0.065444976
0.24888755 -0.1567396 -0.37690234 0.40796366 0.2791276 -0.29418704 0.32895473 -0.33893764
-0.22382951 0.17194065 0.19821237 0.04747095 0.15095302 -0.29091325 -0.23744594 0.38414416
0.3519768 0.20495065 0.04836944 -0.1822826 0.39135677 0.24773829 0.3119606 -0.24134876
0.3038567 -0.05693264 0.38554516 -0.13513026 0.28925446 0.03806243 0.34954113 0.11555461
0.20383298 -0.30538177 0.32207668 -0.14986713 -0.34800944 0.047319062 0.29359105 -0.3902757
-0.31887794 -0.2708493 0.17117618 0.109931424 0.3444325 -0.02964579 0.2251411 0.10919183
0.24481578 0.33927926 0.11604179 -0.06461144
00000000: 35f4 643e 9f14 833e aa4d 343e 9d0b df3d
00000010: 314c 95bd 40b2 c0bd 0d37 ac3e 1229 86be
00000020: 5b8d aebe 9fe3 1e3e 33f9 8abe 9f67 07be
00000030: 2c16 883c a2e8 6c3e fdd9 8dbe c88b 34be
00000040: b6cf 583d b5bc e33d 1925 573c fabb 95ba
00000050: 58ad 9cbe 0acf 2b3b f17c 90be a40e 1c3d
00000060: 1c49 f4bd 33f6 843e 70c0 60be 4327 86be
00000070: c2d7 acbe a90b 963e 97b7 d93d 9661 04be
00000080: be9e 843d 1a5b a43e b625 973e 0fbc eabd
00000090: 0cbd 4cbe 3963 59be c6ed a2be ec68 63be
000000a0: 9d13 89be 8da4 603e c7f4 e2bd c096 f1bd
000000b0: 81d9 383d d7dd bf3e 19e0 a2be 0408 863d
000000c0: 61dc 7e3e 5880 20be 58f9 c0be 9de0 d03e
000000d0: d0e9 8e3e af9f 96be c16c a83e 3c89 adbe
000000e0: 9033 65be 3611 303e 2ff8 4a3e e670 423d
000000f0: 6e93 1a3e 95f2 94be 0725 73be 8bae c43e
00000100: 4e36 b43e 95de 513e 091f 463d 4aa8 3abe
00000110: ea5f c83e 1baf 7d3e 4db9 9f3e 2124 77be
00000120: 1b93 9b3e 3332 69bd 2d66 c53e 965f 0abe
00000130: 2919 943e 5ae7 1b3d 0ef7 b23e e5a7 ec3d
00000140: 98b9 503e 005b 9cbe 3ce7 a43e c576 19be
00000150: 4b2e b2be a2d1 413d 9151 963e 37d2 c7be
00000160: f843 a3be c2ac 8abe cf48 2f3e ba23 e13d
00000170: 7559 b03e badb f2bc 638b 663e f79f df3d
00000180: fdb0 7a3e 03b6 ad3e 51a7 ed3d 0153 84bd

h.2.weight f4 [100, 100]
-0.040123187 0.09876386 0.0037873767 0.12300409 0.19940433 -0.027110638 0.062882334 -0.048753932
-0.09463692 -0.059466813 -0.016879177 0.08196883 -0.08642797 -0.07461134 0.048802793 -0.02021799
-0.06171144 0.2105669 -0.0542419 0.24810165 0.030347062 0.078752436 -0.007175088 -0.082027264
-0.075624995 0.008962428 0.06449651 -0.042624213 -0.05218954 0.092423126 -0.090137035 0.04716003
-0.039526135 0.18195313 -0.038420793 -0.06744037 -0.06253996 -0.033911813 0.01367029 -0.021525968
0.031626523 0.13535124 0.03360925 -0.30438253 0.5630306 0.019157555 0.04618553 0.10783706
-0.06139505 -0.0061258436 -0.086943984 -0.10661659 0.13841552 -0.019820785 0.0015508027 0.0024060966
-0.05941626 0.17688449 -0.19187373 -0.17390183 0.0040010433 0.29691175 -0.05759891 -0.03653383
0.010783673 0.1860485 0.034737147 0.048318267 0.12960972 0.03221505 0.074469104 0.029584408
-0.11760861 -0.046926226 0.110466436 -0.0950132 0.009308818 0.3507314 -0.061523553 -0.05775888
0.22255017 -0.0257877 -0.12910235 -0.152812 0.0765807 -0.1735823 0.1757662 0.026034845
-0.038687944 -0.07123744 -0.03514013 0.25084195 0.0076242266 0.06979467 0.012253247 -0.050807446
-0.056655213 0.12375015 0.15788786 0.006658034 -0.056572568 -0.050365653 0.0068643214 -0.005659318
0.03484751 0.08666587 -0.014725066 -0.03205129 -0.02669475 -0.068785764 0.030373657 0.04569322
-0.093143724 -0.017540276 0.056595016 0.029331421 -0.04649576 0.04646113 0.081945315 -0.08404165
0.02402593 -0.03879973 -0.09340143 0.010890186 -0.04606488 0.052615214 0.057163205 0.05060592
-0.0007684589 -0.090252556 -0.079293065 0.04143889 -0.07822063 -0.05670414 -0.03399179 -0.024747467
0.06606803 -0.00919807 0.039205577 0.09536032 0.0097925905 0.0022654056 0.05417931 0.05845816
0.09512935 -0.07528295 0.041541517 0.00023061037 0.035921108 -0.099283114 0.04104949 0.039444424
-0.027645875 -0.097833276 0.09039656 0.020928157 0.034687784 -0.0663138 -0.0886688 0.059483863
-0.04791088 -0.08928551 -0.0880598 0.047639012 0.049201455 0.071957804 0.04333948 -0.044603623
0.0063282372 -0.03445022 -0.07070502 -0.042143334 -0.016581237 -0.012778401 -0.019463433 -0.08494762
-0.037723947 -0.051974263 -0.030332804 -0.06748624 -0.04353223 0.06571589 -0.09742588 -0.06207917
-0.0006495118 -0.06011213 -0.023228502 -0.08123465 -0.040318348 0.019169962 -0.0037409067 -0.09354979
-0.0010427833 0.060904086 -0.09793805 -0.038251985 -0.08783908 0.017216861 0.0560287 -0.030603683
0.015194309 -0.013579871 -0.11868402 0.27043685 0.12494842 0.15770078 0.09720189 0.091333844
0.043106165 0.019128991 0.049180605 -0.054274146 -0.26662993 -0.056759536 0.021954149 0.07831651
-0.037878733 0.056432433 0.10175118 0.34784144 -0.09066764 -0.070534125 -0.036447097 -0.035083193
-0.029007543 -0.024568798 0.09333225 0.04753686 -0.008262551 0.089684196 0.015016349 -0.041151594
-0.120595284 0.1681534 -0.029486736 0.0533862 0.025263011 0.035709895 -0.0175125 -0.061965525
-0.08801341 0.058064114 -0.013385916 -0.29690528 0.46225464 -0.000919549 -0.0134938955 0.15095927
0.13326675 0.092350565 -0.19616202 -0.12161987 -0.05715412 -0.082198456 0.16938287 -0.059875857
00000000: 3658 24bd b544 ca3d a335 783b 91e9 fb3d
00000010: a630 4c3e 2117 debc 74c8 803d 34b2 47bd
00000020: 00d1 c1bd 7993 73bd 3346 8abc 46df a73d
00000030: 2601 b1bd d5cd 98bd 70e5 473d 33a0 a5bc
00000040: 23c5 7cbd d99e 573e c12c 5ebd 5c0e 7e3e
00000050: 679a f83c f548 a13d 001d ebbb e9fd a7bd
00000060: 47e1 9abd 26d7 123c bf16 843d ba96 2ebd
00000070: b3c4 55bd 5648 bd3d c499 b8bd e02a 413d
00000080: 28e6 21bd ec51 3a3e 1f5f 1dbd 2d1e 8abd
00000090: f314 80bd 1de7 0abd 5af9 5f3c 3a57 b0bc
000000a0: d08a 013d 8499 0a3e daa9 093d 07d8 9bbe
000000b0: c622 103f 4ef0 9c3c 0a2d 3d3d add9 dc3d
000000c0: 6079 7bbd 4dbb c8bb b00f b2bd cc59 dabd
000000d0: ccbc 0d3e 335f a2bc 4e44 cb3a 9aaf 1d3b
000000e0: 775e 73bd 3521 353e 8c7a 44be 5213 32be
000000f0: 2f1b 833b d104 983e d6ec 6bbd 7fa4 15bd
00000100: 01ae 303c 7f83 3e3e 8a48 0e3d 60e9 453d
00000110: 69b8 043e eef3 033d 4283 983d 005b f23c
00000120: c8dc f0bd b735 40bd 3a3c e23d 4896 c2bd
00000130: 0384 183c 1193 b33e 1f00 7cbd 9394 6cbd
00000140: 31e4 633e ba40 d3bc 6833 04be c07a 1cbe
00000150: 58d6 9c3d 8fbf 31be 0efc 333e 0747 d53c
00000160: 4077 1ebd efe4 91bd 19ef 0fbd 5b6e 803e
00000170: a6d4 f93b 82f0 8e3d d8c1 483c 781b 50bd
00000180: 4c0f 68bd b870 fd3d 5bad 213e a32b da3b
00000190: a3b8 67bd 374c 4ebd 1aee e03b cd71 b9bb
000001a0: 43bc 0e3d e07d b13d 6741 71bc 3748 03bd
000001b0: f3ae dabc 8ddf 8cbd 2dd2 f83c d028 3b3d
000001c0: 23c2 bebd a0b0 8fbc 2dd0 673d 7348 f03c
000001d0: 5772 3ebd 074e 3e3d f2d2 a73d 071e acbd
000001e0: 07d2 c43c 77ec 1ebd 4049 bfbd c06c 323c
000001f0: 87ae 3cbd 0d83 573d f723 6a3d 2748 4f3d
00000200: 6772 49ba 55d6 b8bd 6764 a2bd d3bb 293d
00000210: 2332 a0bd 9a42 68bd fa3a 0bbd 33bb cabc
00000220: ad4e 873d 80b3 16bc 0796 203d 454c c33d
00000230: 1a71 203c 3377 143b 20eb 5d3d d371 6f3d
00000240: 2dd3 c23d f32d 9abd 7027 2a3d 00d0 7139
00000250: 0322 133d f254 cbbd 8323 283d 7a90 213d
00000260: 9a79 e2bc d05c c8bd d521 b93d 8771 ab3c
00000270: c714 0e3d 88cf 87bd fd97 b5bd 5aa5 733d
00000280: 333e 44bd 52db b6bd b258 b4bd 2021 433d
00000290: 7787 493d 9d5e 933d bd84 313d 4ab2 36bd
000002a0: 1a5d cf3b ad1b 0dbd cbcd 90bd 7d9e 2cbd
000002b0: 60d5 87bc 805c 51bc c771 9fbc 05f9 adbd
000002c0: 6d84 1abd f7e2 54bd 807c f8bc 3a36 8abd
000002d0: da4e 32bd 0d96 863d 3887 c7bd ba46 7ebd
000002e0: 0044 2aba 2338 76bd b349 bebc 5a5e a6bd
000002f0: da24 25bd 530a 9d3c 002a 75bb 0897 bfbd
00000300: 00ae 88ba 9076 793d bf93 c8bd 1dae 1cbd
00000310: fae4 b3bd 600a 8d3c 5a7e 653d 93b4 fabc
00000320: 8df1 783c 1b7e 5ebc 9c10 f3bd b376 8a3e
00000330: f5e4 ff3d 507c 213e c911 c73d 3d0d bb3d
00000340: 1790 303d 67b4 9c3c 9a71 493d 914e 5ebd
00000350: b883 88be b07c 68bd 30d9 b33c 6864 a03d
00000360: bb26 1bbd b225 673d ec62 d03d 4618 b23e
00000370: f5af b9bd 3274 90bd 8d49 15bd 65b3 0fbd
00000380: 3aa1 edbc 8144 c9bc fb24 bf3d 03b6 423d
00000390: a75f 07bc 59ac b73d 2207 763c 938e 28bd
000003a0: a9fa f6bd 6830 2c3e 2b8e f1bc 7dab 5a3d
000003b0: 60f4 ce3c 8a44 123d 6076 8fbc 90cf 7dbd
000003c0: 6040 b4bd a3d4 6d3d 9a50 5bbc f803 98be
000003d0: a4ac ec3e e40d 71ba 8015 5dbc 1195 1a3e
000003e0: 1477 083e 4b22 bd3d b2de 48be d713 f9bd
000003f0: 701a 6abd aa57 a8bd b472 2d3e 6340 75bd

h.2.bias f4 [100]
0.09058484 0.035864558 0.0714726 -0.018040916 -0.09806635 -0.049914468 0.049576238 -0.07717196
-0.078930564 0.00909704 -0.05692886 -0.03216976 0.048587542 -0.023357598 0.071416266 0.0061233644
0.022318907 -0.0633022 0.052701086 -0.051366273 -0.068998255 0.06427028 -0.096607424 -0.08456517
-0.097861245 0.054518912 -0.05506165 0.049816437 -0.06776405 0.07688696 0.09243615 0.084169865
0.06728948 0.11512571 -0.013695669 -0.00020409822 -0.029927874 0.048266828 -0.021179676 0.078350276
-0.08038173 -0.026396215 0.0499196 -0.04933086 0.082205 -0.092207134 -0.0037396092 -0.035794962
0.07344948 -0.0741531 -0.038285073 -0.05640484 -0.08279965 -0.029365003 0.10345303 -0.08643935
-0.03347342 -0.0034786107 0.03857544 0.098762035 0.07917171 0.046719316 0.016724898 0.08162818
-0.018257236 -0.036983874 0.054607045 -0.04884266 0.112210095 0.037104942 -0.025495833 -0.057816923
0.03157115 0.0968979 -0.030261155 -0.041512538 0.0082864985 -0.07802885 0.052951626 0.062484797
-0.082365945 0.085608356 -0.052116454 0.046588775 0.013348072 -0.1002209 -0.038173806 -0.051576022
-0.018721258 -0.08282031 0.04890967 0.024570353 -0.08457965 0.11494136 0.072978385 -0.0805723
-0.07128338 0.103852265 -0.0498711 0.030660793
00000000: 8b84 b93d b7e6 123d 3a60 923d 8bca 93bc
00000010: 03d7 c8bd 1d73 4cbd 7410 4b3d 550c 9ebd
00000020: 59a6 a1bd c00b 153c 3c2e 69bd 70c4 03bd
00000030: bb03 473d 6f58 bfbc b142 923d 81a6 c83b
00000040: 24d6 b63c 95a4 81bd 18dd 573d 7165 52bd
00000050: f54e 8dbd 23a0 833d 1dda c5bd 8130 adbd
00000060: 7a6b c8bd 394f 5f3d 5388 61bd 520c 4c3d
00000070: e1c7 8abd e976 9d3d 2a4f bd3d 4061 ac3d
00000080: 11cf 893d 07c7 eb3d cd63 60bc 3303 56b9
00000090: 4d2b f5bc 70b3 453d 0081 adbc 1c76 a03d
000000a0: 2d9f a4bd e03c d8bc 7f78 4c3d 280f 4abd
000000b0: 185b a83d 18d7 bcbd 3b14 75bb bd9d 12bd
000000c0: ae6c 963d 95dd 97bd cfd0 1cbd c308 67bd
000000d0: dd92 a9bd e08e f0bc 2fdf d33d 1d07 b1bd
000000e0: 6d1b 09bd 67f9 63bb 4801 1e3d c043 ca3d
000000f0: c724 a23d c15c 3f3d a702 893c ad2c a73d
00000100: 3390 95bc 677c 17bd a3ab 5f3d 3e0f 48bd
00000110: 68ce e53d 5afb 173d a3dc d0bc 70d1 6cbd
00000120: c050 013d 6872 c63d 3ee6 f7bc 0d09 2abd
00000130: 18c4 073c 97cd 9fbd cee3 583d 0ff0 7f3d
00000140: 7aaf a8bd 6f53 af3d 1078 55bd dfd3 3e3d
00000150: dfb1 5a3c 9d40 cdbd 235c 1cbd 6141 53bd
00000160: 535d 99bc b29d a9bd 8255 483d c447 c93c
00000170: 1838 adbd 6066 eb3d b175 953d 1703 a5bd
00000180: 05fd 91bd 7fb0 d43d a345 4cbd 582c fb3c

h.4.weight f4 [1, 100]
0.3008324 0.034762528 0.31463158 -0.18845883 -0.04955262 0.08050533 -0.23652124 0.040546574
0.027814196 0.27067888 -0.23334047 -0.08881005 -0.0761421 -0.037710555 -0.09095735 0.28151157
-0.2561191 -0.008198857 0.28445336 -0.400236 0.25266406 0.071352206 -0.038051475 0.20379418
0.05436368 0.19217426 -0.08899559 0.26539764 -0.05420611 -0.39662185 0.2901427 -0.04349826
0.3189148 0.29140592 0.20327239 -0.017109383 0.28154776 -0.022736907 0.25760734 -0.29273698
0.1536736 0.05784103 0.21908376 0.30557573 0.07074638 -0.022491897 0.095353484 -0.2794543
-0.32304525 -0.00679183 0.25536576 0.094339125 -0.09614926 0.0638562 0.22895369 -0.026466573
-0.40205503 0.08569298 -0.15526408 -0.2946564 -0.08481285 0.25045565 -0.085429065 -0.33036223
0.27096167 -0.025728732 -0.1377351 -0.31611344 0.3045986 -0.09839382 -0.015803313 -0.039749704
-0.004625249 0.31073844 0.09181716 0.27502915 -0.2847939 0.0750465 0.25733992 -0.05831422
-0.051919688 -0.28469187 -0.07783444 0.22421251 0.30729786 0.04199335 -0.2865034 -0.3580269
-0.3605243 0.034835875 0.31904307 0.18209086 0.07831883 0.19153456 -0.27163607 0.08542483
0.03564992 0.1703068 -0.016218776 0.17141661
00000000: b406 9a3e 2763 0e3d 6417 a13e 5afb 40be
00000010: b0f7 4abd fadf a43d a032 72be 2a14 263d
00000020: 99da e33c 6c96 8a3e cef0 6ebe 0be2 b5bd
00000030: 64f0 9bbd 6276 1abd d947 babd 4922 903e
00000040: 0b22 83be 8054 06bc dfa3 913e bceb ccbe
00000050: 2f5d 813e 1b21 923d dddb 1bbd 6caf 503e
00000060: 73ac 5e3d 54c9 443e 5243 b6bd 33e2 873e
00000070: 3a07 5ebd 0512 cbbe 958d 943e 3b2b 32bd
00000080: cd48 a33e 2833 953e a326 503e fa28 8cbc
00000090: 0727 903e c042 babc 1ce5 833e 9fe1 95be
000000a0: 9d5c 1d3e b7ea 6c3d 7e57 603e 6c74 9c3e
000000b0: 7ae3 903d ed40 b8bc b048 c33d a214 8fbe
000000c0: 3066 a5be 008e debb 4dbf 823e df34 c13d
000000d0: e7e9 c4bd 0ac7 823d d672 6a3e 6dd0 d8bc
000000e0: 28da cdbe cd7f af3d 8cfd 1ebe 34dd 96be
000000f0: 5cb2 adbd b93b 803e 6ff5 aebd 3d25 a9be
00000100: 7dbb 8a3e 10c5 d2bc 6e0a 0dbe 9fd9 a1be
00000110: 59f4 9b3e b382 c9bd f375 81bc 96d0 22bd
00000120: 678f 97bb 1c19 9f3e a30a bc3d 9fd0 8c3e
00000130: 82d0 91be fbb1 993d 0fc2 833e e4da 6ebd
00000140: bda9 54bd 22c3 91be aa67 9fbd f797 653e
00000150: 2556 9d3e 3801 2c3d 93b0 92be 4d4f b7be
00000160: a496 b8be 10b0 0e3d 9d59 a33e 0776 3a3e
00000170: 9f65 a03d a321 443e e213 8bbe 37f3 ae3d
00000180: a705 123d e864 2e3e 3ddd 84bc d687 2f3e
