logs/PointMaze-Right/airl_sac/seed0-20231226-1522/model/step455000/actor.pth (torch, 276359 bytes, 6 tensors)

net.0.weight f4 [256, 6]
000000 41 4f 48 bb 1c 42 60 3e 15 09 ac be 0a d4 99 be
       -0.0030564817 0.21900219 -0.3360068 -0.30044585
000010 29 03 21 be 51 34 e0 3d eb ee 16 bf 13 5d 9b 3e
       -0.15723862 0.109474786 -0.5895831 0.30344447
000020 7f 65 14 bd 09 7b d4 bd b8 6c a0 be cb 58 a4 bd
       -0.036229607 -0.103750296 -0.31332946 -0.080247484
000030 50 1b 95 bf d8 ea 01 bf 0d 54 2c be 2d bc 2d 3f
       -1.164896 -0.5074897 -0.16828938 0.6786526
000040 b0 8b 59 3e 58 d6 7a 3e b2 f7 9c bf 0b 36 a4 bd
       0.21244693 0.24495828 -1.2263091 -0.080181204
000050 70 d7 17 3e 03 a9 5a 3f ea 55 7f 3d 1b 6a 9c 3e
       0.14828277 0.8541414 0.062337793 0.30549702
000060 cc fe 07 c0 9b 92 47 be f6 43 bd 3e 6f 4f 99 bf
       -2.1249266 -0.1948952 0.36965913 -1.1977366
000070 2d ff 9a be 69 ab d3 bd 54 f4 22 be 9d 98 b4 3e
       -0.3027281 -0.10335428 -0.15913516 0.35272685
000080 0b 7c 87 be c0 70 40 be 32 08 92 be 4e c3 c3 be
       -0.26461825 -0.1879301 -0.28521878 -0.38234943
000090 a7 9f 18 bf 8f e1 59 3e 38 8a 3a 3e 1c 18 39 3d
       -0.5961861 0.2127745 0.18216789 0.045189008
0000a0 97 d3 50 be 4f 53 56 be f8 2c 95 be ae 57 46 bf
       -0.20393215 -0.20930217 -0.2913587 -0.7747754
0000b0 77 08 97 be 0c cd ec be 47 f4 53 3e 02 1c 75 3e
       -0.29498646 -0.46250188 0.20698653 0.23936465
0000c0 97 17 59 bf dc 33 31 3e d8 ae 85 3e 49 75 84 3f
       -0.8480162 0.17304939 0.26109958 1.0348293
0000d0 84 5b 72 3d 77 e6 61 3d e4 e0 54 3e 36 d6 cd be
       0.059169307 0.05515143 0.20788914 -0.40202492
0000e0 04 cd 9b 3d ff 1a dc bf 4e 5f 88 be b1 f4 57 be
       0.07607463 -1.7195739 -0.26635212 -0.21089436
0000f0 58 f1 80 3f c2 7e ac be 79 a1 77 be 6c cb 62 bd
       1.0073652 -0.3369046 -0.2418269 -0.05536978
000100 1b ec e4 3d 0d 0f 53 bd ed 62 7f 3c 01 ba c1 3d
       0.11177846 -0.051528025 0.015587551 0.094593056
000110 4d ac 81 3e e9 b3 c8 3e 02 14 a1 be 89 33 19 be
       0.25326768 0.3919976 -0.31460577 -0.14961065
000120 16 d2 b4 be 91 3d fc 3e ba e4 b5 3e ad 69 69 3e
       -0.35316533 0.4926572 0.35526067 0.22794218
000130 d5 50 89 bd 4d c3 b5 be 07 f7 a1 be c1 46 21 bf
       -0.067048706 -0.35500565 -0.3163378 -0.62998587
000140 cb cc c2 be 75 6b 20 3f d1 9d 09 3e a5 81 d0 be
       -0.3804687 0.62663966 0.13439108 -0.4072391
000150 40 7e 9c 3d 21 d9 8c bd 9e 96 89 bd 12 5d 3f be
       0.07641268 -0.068773516 -0.06718181 -0.18687847
000160 24 c3 20 3e 3b 9c 77 be 9e 2a f0 3e 93 9c c5 3e
       0.1569944 -0.24180691 0.46907514 0.3859602
000170 3b a2 95 3e f8 30 0c 3f 5d ab 22 bf b8 97 87 be
       0.29225335 0.5476222 -0.6354273 -0.2648294
000180 ce 21 4d be 3f 60 b6 be 3c 0e a3 be 48 a3 09 bf
       -0.20032427 -0.35620305 -0.31846797 -0.5376477
000190 ee ea 4f 3e f1 d7 8c 3e 58 47 36 be 88 6e d2 bd
       0.20304462 0.275085 -0.17800653 -0.102749884
0001a0 73 1d c7 be dd 72 f0 bb 20 68 9d be 3d 3b a1 be
       -0.38889655 -0.0073379115 -0.30743504 -0.31490508
0001b0 03 46 b8 bc 00 12 7b 3d de 33 2b be 2d 0f 78 3e
       -0.022494322 0.061296463 -0.16719005 0.24224539
0001c0 c3 65 7e be 4d a9 bd 3e b3 92 39 3f 10 1a 04 bf
       -0.24843507 0.3704323 0.7248947 -0.5160227
0001d0 1f 17 d0 bd 2d b9 c6 ba 80 e8 4f bd b5 4c c6 3d
       -0.1016066 -0.0015161388 -0.05075884 0.096825995
0001e0 9d 0d 24 3e 0d 54 c8 3c 0f fa 4b be 9d d0 45 3e
       0.16020818 0.024454141 -0.19919609 0.19317861
0001f0 55 81 c8 be 60 c7 77 be 86 4c d1 bd cc a2 4b be
       -0.39161173 -0.2419715 -0.10219674 -0.19886321
000200 1d 3f 12 be e4 51 ab be 7c d9 b1 bd 5d b8 b2 3d
       -0.14281888 -0.33460915 -0.0868406 0.08726571
000210 e2 2b 88 be 85 a1 ab bc 1f a1 95 3e ab e6 2b bd
       -0.2659598 -0.020951042 0.29224488 -0.04196803
000220 19 e5 39 3c f0 41 10 bd 29 06 5e bf 22 76 db 3e
       0.011346125 -0.035219133 -0.8672815 0.42863566
000230 12 ff c5 3e a8 c7 6e 3e 36 b9 63 3e d1 de f1 bc
       0.38671166 0.2331835 0.22238621 -0.029525192
000240 3f d2 90 bf 55 4e 52 bf 2f 53 8e 3e 2c da c9 bd
       -1.1314162 -0.82150775 0.2779784 -0.09856066
000250 63 a9 c4 3d 48 2d a0 be 2b f7 ef be b4 5c 8c bf
       0.096026205 -0.31284547 -0.46868262 -1.0965791
000260 1d 97 a9 bd 5b 1b ed 3e 01 bb 8b 3e ad 96 c9 be
       -0.08280776 0.46309933 0.2729111 -0.3937277
000270 87 62 82 3e 05 90 a3 be 31 c2 b0 bd 9e 81 29 be
       0.25465795 -0.31945816 -0.08630789 -0.16553351
000280 50 0b a1 bd 22 29 a4 bd 20 91 bb be 7e 7a b4 be
       -0.07863486 -0.08015658 -0.3663416 -0.35249704
000290 d2 d4 82 bd 00 00 ad 3b 6e e8 3d be 4a 7a 1d 3e
       -0.063882485 0.005279541 -0.18545696 0.15378681
0002a0 c9 ab 9e bf bb f9 e7 be aa d1 b7 3e a8 78 12 3e
       -1.2396175 -0.45307717 0.35902148 0.14303839
0002b0 0f 02 93 3e a4 65 17 3e 6c 55 b1 bf 2f b0 a2 3e
       0.28712508 0.14784867 -1.3854194 0.31775042
0002c0 fe f5 40 bd 97 fb 1d bf a6 11 53 3e 1d e9 a8 be
       -0.047109596 -0.6171202 0.20612201 -0.3299035
0002d0 1b 6a 04 bf e4 ca d5 be 1d 44 95 3e 2c 78 3c 3f
       -0.51724404 -0.41756356 0.2915353 0.7362087
0002e0 26 2f 47 3e 04 a3 13 3e 21 0f c9 bd b7 d5 af bd
       0.1945158 0.14417654 -0.09817339 -0.08585685
0002f0 88 40 ac be 13 84 62 3e b5 f5 a5 3e d1 04 8f 3e
       -0.33642983 0.22120695 0.32414022 0.27933362
000300 bd 70 93 be 96 28 95 3c f8 58 93 be bb 20 66 be
       -0.2879695 0.01820783 -0.28778815 -0.22473423
000310 0d 99 73 be 80 dd 0e 3e dc 3b 4b bf 0f 7d e2 3e
       -0.23788853 0.13951683 -0.79388213 0.44236037
000320 fe b0 8c 3c 9c 60 69 3f 41 d8 01 bf 37 7f 8f be
       0.01717424 0.9116304 -0.507206 -0.28026745
000330 b7 a6 66 be 38 c2 8a 3e e3 45 16 be 6b 00 a9 3e
       -0.22524534 0.27101302 -0.14675097 0.3300813
000340 7f 8a 08 3e fc bd 53 3d 21 2a 47 bb b2 47 a5 bd
       0.13334082 0.051694855 -0.00303901 -0.080703154
000350 8e cd 51 3d d3 ea be bd f1 fd 3b bb f3 5b 55 3d
       0.051221423 -0.09322133 -0.0028685296 0.052089643
000360 8b 30 92 bf 82 8a 85 bf e0 c8 a8 3e 56 8e 88 be
       -1.1421064 -1.0432894 0.32965755 -0.26671094
000370 18 90 d7 3d 16 c6 ce 3e 88 03 17 3e ea 60 3d 3c
       0.105255306 0.40385503 0.14747441 0.011558751
000380 3b 24 b5 be 44 17 4f 3e 16 e2 94 be 38 56 ed bd
       -0.35379204 0.20223719 -0.2907874 -0.115887105
000390 e0 22 07 be 9f 15 60 bd a4 53 92 3b af 08 a9 3e
       -0.13196898 -0.05470812 0.004465537 0.33014438
0003a0 42 ca 35 3d 74 38 bb 3e 5f b9 7f 3e b8 25 84 be
       0.04438234 0.36566508 0.24973057 -0.25810027
0003b0 d6 7e 3b 3e f4 c1 93 be b3 2d 31 be ee e9 f5 3d
       0.18310103 -0.28858912 -0.17302589 0.12007509
0003c0 43 41 27 be d4 a9 66 3e 63 93 06 be 6e f9 65 be
       -0.16333489 0.22525722 -0.13142161 -0.22458431
0003d0 6f 09 85 bd 07 25 ca be a3 1e 97 3e 8e d8 ac be
       -0.0649594 -0.39481375 0.2951556 -0.33758968
0003e0 09 60 b8 3b 56 26 8e bd 75 2c 5c be b2 03 5d 3d
       0.0056266827 -0.06940906 -0.21501334 0.053958602
0003f0 37 15 ab 3e ad fb ec bd 0d 31 78 be 18 9c 1a be
       0.33414623 -0.11571441 -0.24237461 -0.15098608

net.0.bias f4 [256]
000000 c9 00 0b be 2f 69 71 bd b7 31 6d 3e 82 ff 06 3e
       -0.13574518 -0.0589382 0.23163496 0.13183406
000010 26 c2 af 3e f9 ab 90 be a6 0e 8d bd e6 5b a2 3e
       0.3432781 -0.28256205 -0.068875596 0.31710738
000020 86 03 32 be 0d 72 ae 3e 21 49 d8 bd a1 86 9c be
       -0.17384157 0.3407139 -0.10560823 -0.30571464
000030 dd 99 be be 3e 29 c5 bc b9 e8 34 be 45 61 08 be
       -0.37226763 -0.024067517 -0.17666902 -0.13318355
000040 b3 1a 62 3e 8c 00 0e 3e db 7f 1c bd 7e 9a 07 bc
       0.22080497 0.13867396 -0.03820787 -0.00827658
000050 d0 da 70 be e1 a1 af be 63 1f 9d be 42 fd 01 bf
       -0.2352097 -0.3430319 -0.3068801 -0.50777066
000060 63 f8 c3 3e 8e e2 06 3e 02 a8 31 be c3 74 cc be
       0.38275442 0.13172361 -0.17349246 -0.39932832
000070 be fc 0e 3e cb 51 b4 be 5f f8 8e bd 1a 43 af be
       0.13963601 -0.35218653 -0.06980967 -0.34230882
000080 1f d8 6b be 0b ca e7 bc f7 25 ca be f6 62 6e be
       -0.23031662 -0.028294584 -0.3948209 -0.23279938
000090 85 9b e1 3e fe 64 56 be 7c b7 34 be ba c0 ea bd
       0.44063964 -0.20936963 -0.17648119 -0.11462541
0000a0 de 19 ce bd e2 1c 89 be 2e 43 19 3d 5f 1b e9 bd
       -0.100635275 -0.26779848 0.037417583 -0.11382174
0000b0 5d 6e 0b 3d 5f 64 8f 3e ea 73 9f be 6d 96 0a 3d
       0.034040798 0.28006265 -0.31143123 0.033834863
0000c0 69 b5 a1 bc 6a ee f3 3d c4 d5 ac be ba ed 0c 3d
       -0.019739823 0.11910708 -0.3375684 0.0344064
0000d0 e1 20 16 bc 3d 3d 92 bd ab b2 10 bd b3 37 b8 3d
       -0.009163112 -0.071405865 -0.03532664 0.08994999
0000e0 6c 45 e1 be a0 16 84 be fc 40 93 3e a7 bf 47 be
       -0.43998277 -0.25798512 0.28760517 -0.19506703
0000f0 f9 67 a6 be e5 ec 24 bd 5b 50 7b 3e b0 95 99 be
       -0.325012 -0.040264983 0.24542372 -0.29997015
000100 9e dc b7 be 6f 0a 01 3f 74 1b 73 bd 04 61 82 be
       -0.35910505 0.50406545 -0.059352353 -0.25464642
000110 03 3f 47 be d7 da 30 bd 27 9d b6 3d ec b6 6d 3c
       -0.19457631 -0.043177452 0.08916693 0.014508944
000120 22 56 83 be d1 9e 8c 3e 1a 46 24 be 68 2d 49 be
       -0.25651652 0.27464917 -0.16042367 -0.19646227
000130 f8 4f 1f be 2c 0f e5 3d 97 06 a9 be da e5 5e 3e
       -0.1555785 0.111845344 -0.3301284 0.21767369
000140 d1 d8 6b 3e 41 06 34 be 84 5e a2 be 68 85 c5 be
       0.23031928 -0.1758051 -0.31712735 -0.38578343
000150 78 6a 37 ba 88 a3 b4 be 4f d7 93 be bc 99 9e 3e
       -0.0006996761 -0.35281014 -0.28875205 0.30976665
000160 4b 02 49 3e 4d 60 b4 3e 6a 59 89 3e 5e 59 8a 3c
       0.19629781 0.35229722 0.2682603 0.016888317
000170 3f 2c 54 3d b4 5f 7d 3e 5a 01 8f be 06 7f f9 bd
       0.05180001 0.24743539 -0.2793072 -0.12182431
000180 6f 98 a1 3e ab aa c8 bc 2f 02 88 be de fe 14 bf
       0.3156161 -0.024495443 -0.26564166 -0.58201396
000190 38 d6 60 3e 1f 47 ad 3e 20 f6 1d 3e 32 e0 00 be
       0.21956718 0.33843324 0.1542592 -0.12585524
0001a0 7b 5f c1 3e 3d e9 bf be ea 97 96 be e0 20 c9 be
       0.37768158 -0.37482634 -0.29412776 -0.39282894
0001b0 75 b5 a6 3e 85 49 20 3e dd 7e 40 be b5 7a 48 3d
       0.32560316 0.15653045 -0.18798395 0.048945148
0001c0 ec 13 2f be 47 0e 86 be 85 6a 77 bd a0 72 d1 3b
       -0.17097443 -0.26182768 -0.06040432 0.006391838
0001d0 71 af 95 be f3 ac 89 be c8 0c 99 3d 49 6b 6a bc
       -0.29235414 -0.26889762 0.07473141 -0.014307805
0001e0 e7 8f 95 3e 76 fa 51 be e4 ea 53 3d 52 6d 16 3e
       0.2921135 -0.205057 0.05173768 0.1469014
0001f0 d5 fe b6 be d6 74 87 be ad ab 9c bd 99 aa ef 3c
       -0.35741296 -0.26456326 -0.07649932 0.029256152
000200 9a 4d 06 be ac fb de 3d 61 73 81 be 7b cf c9 3e
       -0.1311554 0.10887846 -0.2528334 0.39416108
000210 3e a8 47 3c d1 9e 24 3e 80 f2 9c ba cc 8a 91 3e
       0.012186108 0.16076209 -0.0011974126 0.28426206
000220 df 6d db be ac 76 c0 3d 22 fe be 3d cc b7 bc bd
       -0.42857262 0.09397635 0.09325816 -0.09214744
000230 21 34 58 3e 80 ef 88 be 16 ac ba be e2 af 63 be
       0.21113636 -0.26745224 -0.36459416 -0.22235063
000240 bf fd c1 be 78 fa 94 3e 6c 7b 94 be ae df d1 be
       -0.37888905 0.29097342 -0.29000413 -0.40990967
000250 8c ca 9a be 70 d7 8c be a0 7b d7 be 72 3f 81 3e
       -0.30232656 -0.27508116 -0.42086506 0.25243717
000260 04 ef 9c be 97 8a 78 3e 97 25 93 3e 6d b0 02 be
       -0.30651104 0.24271618 0.28739616 -0.12762614
000270 32 6e 5f 3e 16 2c 6a be 52 4a af 3e 7c d0 24 3e
       0.2181938 -0.2286838 0.3423639 0.16095155
000280 af af c6 3d 8b e7 43 3e 05 39 cd be 24 bc 04 be
       0.09701478 0.19131295 -0.40082565 -0.12962395
000290 20 87 06 3e 1f ae b5 be 62 7e 8e 3e d0 52 1f be
       0.13137484 -0.35484406 0.27830797 -0.15558934
0002a0 35 33 17 be 8a d7 a5 be 48 e7 a9 3d 75 4c c5 be
       -0.14765628 -0.32391006 0.082960665 -0.38534895
0002b0 6e 6c b1 bd c4 57 66 bd 28 7b 64 3d 18 ee ac 3d
       -0.086632594 -0.056236044 0.055781513 0.0844385
0002c0 17 8e 15 be 13 11 05 be 34 fe 00 bd 16 c2 ca bd
       -0.14604984 -0.12994795 -0.031492427 -0.099003
0002d0 60 4e 9c 3e 9a 92 bc 3d 3c 4f 73 3d c2 6e a8 be
       0.30528545 0.092076495 0.059401736 -0.32897002
0002e0 a1 3a 57 3e b7 12 40 be 20 cf df bd 7a 23 20 3b
       0.21018459 -0.18757139 -0.10928178 0.0024435208
0002f0 bf c5 fb bd d5 e7 e4 3d 90 99 0e 3e c5 c6 79 be
       -0.122935764 0.11177031 0.13925767 -0.24392231
000300 bc 16 b0 3d 27 fe a7 be a9 d8 92 3e 9b 1a fa 3d
       0.08598086 -0.3281109 0.28680924 0.12212106
000310 bc d0 98 3e f2 26 bc 3e da e9 bb 3d a4 60 d4 3c
       0.29846752 0.36748463 0.09175463 0.025924988
000320 43 12 67 be be ae 2e be a8 38 8b 3e 15 e3 c7 3d
       -0.2256556 -0.17058846 0.27191663 0.09760109
000330 f3 f3 e5 be ec 87 04 3d c0 82 c6 bb 22 aa 94 bc
       -0.4491268 0.032356188 -0.006058067 -0.018147532
000340 f4 13 c1 be 72 40 38 be 35 84 98 3d 40 2c 98 be
       -0.37710536 -0.17993334 0.074470915 -0.2972126
000350 4c 6f c2 be d1 49 78 be 9a ee 22 be 5f c2 82 3d
       -0.37975538 -0.24246909 -0.15911332 0.063847296
000360 c9 38 1b 3e 5e 9c 80 be ec be 9b bd b8 bf 9c be
       0.1515838 -0.251193 -0.07604775 -0.3061502
000370 3f a4 5f be 53 06 93 bd ac 22 5b be a2 b4 c5 ba
       -0.21839999 -0.071789406 -0.21399945 -0.001508374
000380 37 53 4f be 04 72 fe bd d6 e8 6b be de 1a 9e be
       -0.20246588 -0.124240905 -0.23038039 -0.30879873
000390 3f 08 86 3d e9 3b 4d be 1d 1c 72 3c 44 14 6b 3e
       0.065445416 -0.20042385 0.014777211 0.2295695
0003a0 db e1 02 bd fb c8 54 be 0b ff 7a be fd 50 94 be
       -0.031953674 -0.20779793 -0.24511354 -0.2896804
0003b0 06 88 aa bd 45 df 99 bc 8d f3 69 3e 34 89 07 3f
       -0.08326726 -0.018783221 0.22846813 0.5294373
0003c0 d2 5f 65 be aa 01 28 be fb 1d 74 3e 00 b2 d2 3d
       -0.22399834 -0.16406885 0.23839562 0.10287857
0003d0 bc 2c 7d 3e 9e 8f 64 3c c0 d5 85 bd 17 6e cd be
       0.24724096 0.013950257 -0.0653491 -0.40123054
0003e0 d8 da 2a 3c 1d a9 a2 be 6c c3 db bd 6b b3 ae be
       0.010428153 -0.31769648 -0.10730633 -0.3412126
0003f0 66 f1 c8 be 20 c3 5c 3e 18 9c 09 be 6b aa 14 3e
       -0.39246672 0.2155881 -0.13438451 0.14518134

net.2.weight f4 [256, 256]
000000 04 b5 4b 3d 38 56 88 3c fa 6d 03 3e 33 70 0e 3e
       0.049733177 0.016642675 0.12834921 0.13909988
000010 ac 88 19 be 4c 34 f6 3c 7a da 57 3d 1b 11 a2 bd
       -0.14993542 0.030054234 0.05269859 -0.07913419
000020 04 f8 2a 3e aa bf 04 bf 3a d4 dd 3e c0 b5 6d 3c
       0.16696173 -0.51854956 0.4332598 0.014508665
000030 81 07 88 bd c5 6f ae be fa 86 18 bd d2 fe aa be
       -0.06642056 -0.34069648 -0.0372381 -0.33397537
000040 10 ec ca 3d 4c 10 4a 3d ac 47 34 bd 8b db 02 3d
       0.099083066 0.04933195 -0.044013664 0.031947654
000050 4a 64 00 3d d4 02 35 3d a0 48 80 3c a4 1f 92 3c
       0.031345643 0.04419215 0.01565963 0.017837353
000060 a1 ae ac 3e 7d 32 01 bf cc 16 ae 3c d4 2c 48 bd
       0.3372698 -0.50467664 0.021251105 -0.048870876
000070 39 94 08 3e 47 91 93 3a e7 b2 9c 3e e4 e3 b4 bc
       0.13337792 0.0011258506 0.30605242 -0.022081323
000080 50 c8 7d bd ea f6 c8 3c bc 03 c4 3c 1e 6f 5c 3d
       -0.06195861 0.0245318 0.023927562 0.053816907
000090 f5 ac 8f bc 4c 72 f4 3c 66 e9 72 bd 32 d0 74 bd
       -0.017538527 0.029839657 -0.059304617 -0.059768863
0000a0 90 51 20 bd d8 40 07 bc 9c ff 8e 3c fc da 21 bc
       -0.039140284 -0.008255206 0.017455868 -0.00987887
0000b0 10 c4 58 be 10 ce f8 be 00 03 7c 3b b3 60 28 3e
       -0.21168542 -0.48594713 0.0038453937 0.16443138
0000c0 93 66 ac 3e 5c dc 8f bd 60 24 04 bc aa 41 06 bd
       0.33672008 -0.07024452 -0.008065313 -0.032777466
0000d0 53 11 01 be 22 fd 4c bd 6b 1a d4 be a7 c9 79 b8
       -0.12604265 -0.050046094 -0.41426405 -5.955403e-05
0000e0 78 9f 76 be e1 cf b3 3c b9 37 3a 3e 12 82 36 be
       -0.2408427 0.02194971 0.18185319 -0.17823055
0000f0 a0 bf fc 3c 00 e6 62 bb ce a3 af 3d fb 18 aa 3d
       0.030853093 -0.0034621954 0.08576165 0.08305546
000100 a7 19 3a 3d bb ba 01 bf 6d c6 40 bf a3 0e e2 3d
       0.04543462 -0.50675553 -0.75302774 0.11037948
000110 89 eb 16 bd a6 74 71 3d 60 40 2c 3e 6e 8c 74 3d
       -0.036845718 0.058949135 0.16821432 0.059704237
000120 78 2a ef bc 2a 9b 47 be bf 0d 57 3d 8d 51 ba be
       -0.029195055 -0.19492784 0.052503344 -0.36390343
000130 a2 6a 00 3d 22 ea e2 3d 36 fb 59 3d 18 dd c1 bd
       0.031351693 0.110798135 0.05321809 -0.094659984
000140 2f 3b e0 3d 6d de 2a 3b 78 ad 8e 3c d4 9b 8e be
       0.109487884 0.0026072518 0.0174167 -0.27853262
000150 a3 cb 99 3e 32 5e 42 bd 7c 34 96 bc ff 77 0b 3e
       0.30038175 -0.047453113 -0.018335573 0.13619994
000160 a7 5e 4c 3e 0a 97 9d 3d 44 52 bf 3d dc c1 f7 bb
       0.19957982 0.07694824 0.09341863 -0.0075609516
000170 69 f6 03 3d ba d6 3d bf c7 5d 6b bc 9b f1 4a bf
       0.032217417 -0.7415577 -0.01436562 -0.7927491
000180 63 8a 2d 3d ae 01 20 be b0 ab 19 3c 85 27 dc be
       0.042368304 -0.15625641 0.009379312 -0.429989
000190 8d e9 78 3e 7d 1e 5b 3e 49 ad e0 3d 84 f7 2c 3e
       0.24307843 0.21398349 0.109705515 0.16891295
0001a0 c4 ea ef be e8 cc 59 bc 1c a1 c3 3c 02 d4 00 3d
       -0.468588 -0.013293482 0.023880534 0.031452186
0001b0 e6 2b b9 3e 8d 74 00 bd 9c 45 cf bc 2f 15 d0 bb
       0.36166304 -0.03136115 -0.025301747 -0.0063501815
0001c0 68 52 02 3c 28 c3 02 bd e0 34 b7 bb af 21 0b be
       0.0079542175 -0.031924397 -0.00559102 -0.13587068
0001d0 40 df 71 bd 56 8c 2d 3d c1 32 da bb de 0d 30 be
       -0.0590508 0.042370163 -0.0066588824 -0.1719279
0001e0 cd fc 7d be 38 bf 09 bd b7 04 8e 3d 8a 86 9f be
       -0.24803467 -0.033629626 0.06934493 -0.31157333
0001f0 40 9d 3d 3b e4 4d 93 3c 8d 92 ab 3d 6e b9 de 3d
       0.002893284 0.017981477 0.08377562 0.10875212
000200 e0 17 9d bc 3e 6d 85 be 20 45 a0 bb 7a d7 1c bd
       -0.019176424 -0.26059908 -0.004891053 -0.038291432
000210 07 65 ea bd de 1b b5 bd 8a eb a4 be e8 b0 8e 3e
       -0.11445051 -0.08843206 -0.32210952 0.27869344
000220 8d d2 9b ba f5 cd af be b2 e4 13 bf d0 cd 5f bd
       -0.001188831 -0.3433682 -0.57770836 -0.054639637
000230 e5 1a b8 3d 9e 6f 19 3c fa f7 2b 3d a4 0a 25 bd
       0.08989505 0.0093649905 0.041984536 -0.04029335
000240 b0 d1 d7 3c 7e 7d c2 3c 87 4c 4e be f1 c9 c5 bd
       0.026345104 0.02374148 -0.2014638 -0.09657658
000250 21 05 09 bd c0 d7 8c 3a 3e 25 97 be 6b aa e5 3d
       -0.033452157 0.0010745451 -0.295206 0.11214145
000260 70 34 19 bc 5e ef 23 bf 62 b9 c3 3e fb b3 66 bf
       -0.009350881 -0.6403712 0.38227373 -0.9011838
000270 d4 54 fb be 22 51 23 bd 2c 28 ce be 08 70 40 bd
       -0.49088156 -0.039872296 -0.40265024 -0.04698184
000280 d4 7c 5f 3d ba ce 98 bf cf 44 4e bf 0e 1f c2 3b
       0.054562405 -1.1938088 -0.80573744 0.005924112
000290 3b e2 35 bf b4 0d 91 bc be 37 bf bd 8e 26 2d 3d
       -0.71048325 -0.01770673 -0.09336804 0.042273097
0002a0 d8 8f 6b 3d 60 9c 2c bb 7e d6 74 bf 3b b9 29 3d
       0.057510227 -0.0026338324 -0.9563979 0.041436415
0002b0 40 1b af bc c6 b8 41 3c 9e 9b a8 3c 57 70 0b 3e
       -0.021375299 0.011823839 0.020582017 0.13617073
0002c0 13 61 60 bf 23 13 f0 bd 7c c7 9f bd 90 71 d0 be
       -0.87648124 -0.117224 -0.078017205 -0.4071164
0002d0 5e 55 17 be 8a b1 2c be 00 bb 01 3d 58 ce bc bc
       -0.14778659 -0.16864601 0.031672478 -0.023047611
0002e0 27 84 5f be 22 ba 5d 3d 98 be 07 bc 40 d8 00 bd
       -0.21827756 0.05413259 -0.008285187 -0.031456232
0002f0 30 1f 5c 3e 4f 8e d2 3c bc 7b 80 be 30 f3 6a 3c
       0.21496272 0.025702624 -0.25094402 0.014340207
000300 5b ab cc 3d d8 27 18 bc 4b f0 87 be 75 83 e4 be
       0.09993621 -0.009286843 -0.26550516 -0.44631544
000310 bf 03 56 be 97 6d a9 3e e3 a7 97 bf c2 ea 67 be
       -0.20899867 0.33091423 -1.184811 -0.22648147
000320 2e 5a d5 3c e0 19 20 bc 6f 9f ed be d3 ef b2 3d
       0.026043978 -0.009771794 -0.464107 0.08737149
000330 f9 be e9 be d1 7f 04 bf 0c 83 9b bc 6a e1 40 3d
       -0.45653513 -0.5175753 -0.018983386 0.04708997
000340 fe 1c 7f be da 58 b6 be b4 c8 7e be 70 51 c4 bd
       -0.24913403 -0.35614663 -0.2488125 -0.095858455
000350 94 7d 1f 3d 2c 85 e6 bd d2 7a e5 be ad ac 9f bd
       0.03893812 -0.11255869 -0.44820267 -0.07796607
000360 57 02 a1 be 1a a6 f1 be c6 31 c2 be 57 06 eb 3c
       -0.31447098 -0.47197038 -0.379286 0.028689547
000370 54 e3 37 bd d4 62 a4 3c 26 f1 0a bf 84 86 43 bd
       -0.04489453 0.020066656 -0.54274213 -0.047735706
000380 50 44 cd bb 70 b6 24 3e 8a d1 37 bd f4 f8 ba bd
       -0.006264247 0.1608522 -0.044877566 -0.09129515
000390 8e e9 86 bc a0 94 1d bd 33 75 e6 be 9f 61 a5 3d
       -0.01646879 -0.038471818 -0.4501129 0.0807526
0003a0 7b b1 45 bf 20 38 0a 3b d0 0e 55 3d c7 7c 9d be
       -0.7722394 0.0021090582 0.05201608 -0.3075926
0003b0 94 d8 ef bd 23 23 1f 3f be c4 b6 be 5f 91 03 3d
       -0.11711231 0.6216299 -0.35696977 0.03212106
0003c0 30 5b cb bc 00 70 33 ba f4 2a 06 bf fb 20 ed 3c
       -0.024823755 -0.00068449974 -0.5240929 0.02894639
0003d0 17 3e 48 3e 3d 4c 0d 3e f0 05 2c 3f ae dc a4 be
       0.19554935 0.13798614 0.6719656 -0.32199615
0003e0 1e 3f c0 bd 33 8f 91 bc 80 29 32 3d f6 1e 7b 3d
       -0.09387039 -0.017768478 0.04349661 0.061308824
0003f0 68 22 f9 3c c8 3b 63 3d 71 f8 6b be 7b 83 ed bd
       0.030411914 0.055476934 -0.23043992 -0.115973435

net.2.bias f4 [256]
000000 cc de b0 3d ad e9 4b bd 21 90 75 bb e9 4f 11 bd
       0.08636245 -0.049783397 -0.003746994 -0.0354766
000010 ed 50 00 bd e1 e5 d8 bc fd e4 83 bd fd 90 62 bc
       -0.031327177 -0.026476802 -0.064401604 -0.013828513
000020 96 bd 7a ba d5 9d 22 bd 05 40 35 bd 21 25 9f 3c
       -0.00095649937 -0.0397013 -0.044250507 0.019426884
000030 3f ef 77 bc a1 48 78 3d fd 19 5f 3e e3 a4 94 bc
       -0.015132724 0.06061614 0.21787257 -0.01814503
000040 40 0a 3f bd 98 c5 e9 3d b0 3d 09 bd c2 ee 22 bd
       -0.046640635 0.11414641 -0.033506095 -0.03977848
000050 6a 79 0a be f8 50 98 3e c8 d6 8e 3c 2c f0 2f bc
       -0.13522878 0.29749274 0.0174364 -0.010738414
000060 de 85 9f 3d 56 21 a2 3a 4b 62 27 bd 40 a3 48 bd
       0.07789205 0.0012369554 -0.040865224 -0.048983812
000070 7a 5d 91 bd 62 b3 3c bd ee cc 90 bd c8 3b 17 bd
       -0.07097907 -0.04606951 -0.07070337 -0.036922246
000080 1e 33 36 bd 30 26 f2 bb 39 c6 46 3d 95 c1 b6 3e
       -0.044482343 -0.007389806 0.048528884 0.35694566
000090 a7 10 27 bc 9f c0 6b 3c ea 23 ad ba 70 95 2e bd
       -0.010196841 0.014389186 -0.0013209556 -0.042622983
0000a0 80 ea 79 bd 6e f9 28 bd e8 c3 93 bb be 03 d7 bb
       -0.061014652 -0.0412535 -0.004509438 -0.0065617254
0000b0 3b a7 4a bd 9e b9 ac bb 9b 85 b6 bc 91 c4 9c 3c
       -0.04947589 -0.0052711507 -0.022280505 0.019136699
0000c0 7d 14 de 3b 98 ef 81 bb 78 63 ef bb 58 ea 8b bd
       0.0067773447 -0.0039653294 -0.007305559 -0.06831807
0000d0 07 b9 bb bd 01 fc 45 bc 23 06 93 3e 70 e9 85 bd
       -0.091661505 -0.012084008 0.2871562 -0.06538665
0000e0 2c 47 4c bc 6c b9 41 bd 32 2d ae bc 11 b7 29 3c
       -0.012468141 -0.047295973 -0.021261785 0.010358588
0000f0 6f 86 59 3c 69 fe de 3b bd 32 6d bc d2 fc 60 bc
       0.01327668 0.0068052304 -0.014477429 -0.013732152
000100 8b d1 16 bd 0a 19 c8 3d 66 c3 15 3b fb 10 87 bd
       -0.03682093 0.09770401 0.0022852062 -0.06595036
000110 a1 e4 b5 3e 55 f4 ba be 45 64 eb bd 5c 02 2e be
       0.35525993 -0.36514536 -0.11493734 -0.16993088
000120 1a f2 0f 3c 97 06 82 bc cb 8e 88 bd a1 27 ae 3a
       0.008785749 -0.015872283 -0.066678606 0.0013286957
000130 2b ec 4d bc 6f 81 73 bd 4e 70 39 bd 2e 57 27 3a
       -0.012568514 -0.05944961 -0.045273118 0.0006383535
000140 65 63 d2 3c bd cd 86 bd 3c f5 ac bc c6 9b 82 bd
       0.02568216 -0.0658221 -0.02111303 -0.06377368
000150 f1 8f 42 bd ac 8b d0 3d d7 17 63 bd a3 30 ad 3c
       -0.047500554 0.1018289 -0.055442657 0.021141356
000160 e0 f2 3e bc 92 43 3e bd f5 ca 74 bd 8a 9f b0 bc
       -0.011654586 -0.04645116 -0.059763867 -0.02156045
000170 ed a9 a3 3e f5 6a 2a bd c4 af fc 3b eb 49 c0 3e
       0.3196558 -0.04160591 0.0077113826 0.37556395
000180 e8 a1 11 bc 3d 5c 5f bd 89 a6 14 bd 4c 49 b4 3e
       -0.008888699 -0.054531325 -0.036291633 0.3521217
000190 ec bf eb bc 0d 47 be bc 8a a1 8d 3e 90 bf 85 3e
       -0.028778039 -0.023227239 0.27662307 0.26122713
0001a0 22 a0 48 3e dd 80 78 3c 0a f7 c7 3c eb 34 42 bd
       0.19592336 0.015167442 0.02440979 -0.047413748
0001b0 01 d1 dd 3a 50 32 8c bd 76 8f 0a bd 08 15 ef bc
       0.001692325 -0.06845534 -0.03382822 -0.029184833
0001c0 72 a7 ae bc 2c f9 aa bc 57 f5 19 3b a0 12 97 3d
       -0.021320079 -0.020870768 0.0023492181 0.07376599
0001d0 20 18 8a bd 3d 2b bb 3b 3e 79 64 bd ee 01 93 bc
       -0.06742883 0.0057119415 -0.055779688 -0.017945256
0001e0 e2 84 3d bd 86 3f eb bd 9e f2 16 bb 73 2e 76 3c
       -0.046269305 -0.114867255 -0.0023032795 0.015025723
0001f0 ed 63 39 bd 15 c9 dc 3d 16 5c 79 3c 28 88 1f bc
       -0.045261312 0.10780541 0.015219709 -0.009737052
000200 75 1b 5c 3b f3 b4 3f 3c fe ec 0e bd 8c 53 8f 3e
       0.0033585702 0.0117008565 -0.034893982 0.2799343
000210 12 9c 53 3c ea a7 ed bc 67 41 42 bd fd 25 d9 bb
       0.012915628 -0.029010732 -0.047425654 -0.006626843
000220 a6 e5 7f bd ce a2 54 3e 91 8b 1b bd 73 1e fa 3c
       -0.06247487 0.2076523 -0.037974898 0.030532097
000230 50 54 57 bd a4 e5 66 bc 29 6a 99 bb 8e dd 2e bd
       -0.05257064 -0.0140928365 -0.0046818447 -0.04269176
000240 69 12 10 bb fd c5 e4 bb e7 cb 89 3c 1a 3c 3a bd
       -0.002198363 -0.00698161 0.016820861 -0.045467474
000250 55 da 32 bc 60 6c 4b 3e 4f 12 1c 3d 4b e4 40 bd
       -0.010916312 0.1986556 0.038103398 -0.047092717
000260 4e cb ba bc 96 10 87 bd b7 55 72 bd 5f 21 6b bd
       -0.022802021 -0.065949604 -0.059163775 -0.057404872
000270 e9 cb cb 3c d7 d4 8e 3d 79 6f bd 3b d3 14 4e bc
       0.024877505 0.0697419 0.005781111 -0.012578207
000280 8a b4 7c bb 30 5a 43 bd 9a 5e 12 bd 9c 93 f9 3c
       -0.0038559758 -0.04769343 -0.03573475 0.030465893
000290 1d 62 c1 3d 7a a0 7e bd ce 1d 50 bd bc 9a 56 3c
       0.09442542 -0.06216476 -0.050809674 0.013098415
0002a0 5a 8c f3 bc 5f e2 b2 3c 43 76 5c bd e8 34 27 bd
       -0.02973001 0.021836458 -0.05382372 -0.04082194
0002b0 31 21 13 3c 4a 84 a8 bd 08 33 44 bd 6d 06 4d 3c
       0.008980081 -0.08228357 -0.04790023 0.012513739
0002c0 09 4d 38 bd 05 16 e8 bc 1b 37 5a 3b 04 d3 69 3e
       -0.04499534 -0.028330812 0.0033297006 0.22834402
0002d0 bd 2c 9f ba 23 51 34 3c 08 7a 52 bd 0b 2f 66 bd
       -0.001214407 0.011005673 -0.05138591 -0.056197207
0002e0 3e 33 dd 3c f2 e7 1e bc 6e 8a 4e bd 27 3e b7 3b
       0.027001973 -0.009698855 -0.050424986 0.005592126
0002f0 ac da 16 bd 5a 8c 07 3e ee 64 94 3c f4 1c 5c bd
       -0.036829636 0.13237134 0.018114533 -0.05373855
000300 1a ae ee 3d 6b fa c8 bc dd 56 54 bd 6f cf 7b bd
       0.11654301 -0.024533471 -0.05184065 -0.06147712
000310 3e 80 6e bc 37 6c 9b 3b 3d dd 8a bd 93 f0 0b 3c
       -0.0145569425 0.004743125 -0.06780479 0.008541244
000320 07 fa 66 3c 28 3d 29 bb 77 0e 15 bd cb 5a 49 bd
       0.014097697 -0.0025823805 -0.036390748 -0.049158853
000330 9c e3 0a bd d2 90 89 3c c0 3e 31 bd 64 c1 01 3b
       -0.03390847 0.016792689 -0.043272734 0.0019799108
000340 e7 7a c3 bc 2b de 9e 3e fd 5c 60 3e 61 6a 08 bc
       -0.023862315 0.31028876 0.21910472 -0.008326144
000350 e1 6b 80 3e 9d 72 0c 3d d5 ed c6 bc 7d 4e d2 bc
       0.25082305 0.03428899 -0.024283329 -0.025672192
000360 0d 42 c1 bd 7d 64 66 3e 54 20 1b bd 10 ff 87 bc
       -0.09436426 0.2249927 -0.037872627 -0.016601115
000370 ce 3f b5 bd 41 56 fc bb 65 6a 16 bd b8 26 a3 be
       -0.088500604 -0.007700712 -0.03672256 -0.31865478
000380 b0 35 15 3e 53 0d dc bd 22 32 8f bd 4d 24 7e bd
       0.14571261 -0.10744729 -0.06991984 -0.062046338
000390 94 df c6 3c 72 f3 2e 3e da ff b8 bc 22 5a ff b9
       0.024276532 0.17085055 -0.022582937 -0.00048704544
0003a0 8c c3 8f bd bd 1e 7b bc 43 9f 25 bc 20 91 73 bd
       -0.070197195 -0.015327153 -0.010108772 -0.059464574
0003b0 46 39 a3 bc f0 cf 8e 3e b3 f2 0e 3c b2 24 65 bc
       -0.019924771 0.2789302 0.008724856 -0.0139858
0003c0 03 0f 2f 3d 70 96 5b bd f9 c0 85 bd 60 94 4f bc
       0.042738926 -0.053610265 -0.06530947 -0.012669653
0003d0 07 8a 90 3e 74 a6 e6 bc 23 c6 2b 3e 0f 87 40 3e
       0.28230307 -0.028155543 0.16774802 0.18801521
0003e0 bf f7 29 3c 0a fe 57 bd ef 66 0c 3b 61 5d ed bb
       0.010374009 -0.052732505 0.0021423658 -0.0072437976
0003f0 8d ea fb 3b 44 c3 0a 3e 96 cf 6f bd 74 a0 12 bd
       0.0076878727 0.1355105 -0.05854758 -0.03579755

net.4.weight f4 [4, 256]
000000 f1 a6 61 be a7 9f ac bc b4 46 9f 3c 2a 6e 53 3d
       -0.2203634 -0.021072222 0.019442894 0.051618733
000010 c5 01 47 3d ad c7 86 3c 1b e5 3c bb ae 85 01 3d
       0.048585672 0.016452635 -0.002882308 0.031621628
000020 4d fe ee bb e7 74 13 bd e0 55 9d bc 25 52 b8 3b
       -0.0072934986 -0.03600016 -0.019205987 0.0056250268
000030 b5 13 66 bc df 79 5a 3e f5 8d a3 bf 77 59 6a bc
       -0.014042784 0.21335553 -1.2777697 -0.014303557
000040 d1 37 32 bd 34 5f b5 3f e7 c9 24 bd ea 8f ed bc
       -0.043510262 1.4169679 -0.04023161 -0.028999288
000050 01 a7 73 3d 60 0c 7d bf 03 15 c9 3a b7 97 9f 3c
       0.05948544 -0.9884701 0.0015341345 0.019481523
000060 e5 9b 59 3f fc 2a 56 bc c0 3e 81 bc a0 6f 04 3d
       0.850035 -0.013071772 -0.015776992 0.032333016
000070 5b 4c 56 bb c9 8f 47 3d 0f 08 49 bd 53 7e 3a bd
       -0.003269932 0.04872111 -0.04907995 -0.04553063
000080 de 7a ec 3c 89 24 82 bd 19 ee 94 be f7 34 0f 3b
       0.028867181 -0.06354625 -0.29087904 0.0021851638
000090 72 59 e2 3c 7c 97 a2 bc ae 12 1a 3d 08 73 20 bd
       0.027630541 -0.019847624 0.03761547 -0.039172202
0000a0 6d 3a 3e bd 28 c9 08 3d c2 85 90 bc 68 eb 1f 3c
       -0.046442438 0.033394963 -0.017641906 0.009760715
0000b0 f5 19 29 3c 5f 4d 31 bb f1 4b 7d 3c b1 b1 09 3d
       0.01032113 -0.0027054173 0.01546 0.033616725
0000c0 33 c1 a2 be 75 27 56 3d db d8 1a 3d 17 03 5a bd
       -0.31788024 0.052283723 0.037804466 -0.053225603
0000d0 f6 52 71 3b 10 f0 12 bd eb 88 78 3f 85 7e 5d 3d
       0.003682313 -0.035873473 0.9708392 0.054075737
0000e0 3c b9 52 bd d7 c6 17 bb 64 a4 85 3b 24 2e d3 bc
       -0.051446185 -0.002315929 0.004078435 -0.025778838
0000f0 8f 85 9c bb 8e f4 19 3d 87 72 45 3d 24 4d a0 bb
       -0.0047766636 0.03758674 0.048204925 -0.0048920084
000100 97 cc 28 be b9 2e 53 be fc 9f d5 3c 11 76 d3 3c
       -0.16484295 -0.20623292 0.026077263 0.025813134
000110 20 42 7e bf c0 93 08 be eb 11 6e bd ff 5e 34 3f
       -0.9931965 -0.13337612 -0.058122557 0.7045745
000120 bc 97 3c 3d 41 fd 39 bc 76 67 40 bd c0 01 ae bb
       0.046043143 -0.011351884 -0.046973668 -0.005310267
000130 f0 27 07 bd 7d 0b 0b 3d e1 06 31 bd 5a 64 77 bd
       -0.03299707 0.033946503 -0.04321945 -0.060398437
000140 f2 a7 65 3d a1 f0 0c 3d e7 f9 b4 3b 07 f4 65 3c
       0.05606837 0.03440917 0.0055229547 0.014035231
000150 9a 22 8d 3c ef 3a 92 bf 03 e5 bf 3b 8e 53 47 3d
       0.017228413 -1.1424235 0.0058561577 0.04866367
000160 62 c9 bd 3c e1 cb d5 bc 7b ba 23 3d 84 d5 78 bc
       0.023167316 -0.026098194 0.039972764 -0.015187625
000170 6a 68 6c 3f e7 07 c9 bb d4 7e 05 bd 29 bb cc 3f
       0.92346823 -0.0061349752 -0.032591656 1.5994617
000180 ca b8 6b bc 41 bb eb 3b 56 67 10 3c 47 bb 89 bf
       -0.014387319 0.0071939533 0.0088137 -1.0760278
000190 13 06 18 bd ee 69 37 3d 99 24 58 bb 80 1f b6 be
       -0.037115168 0.044778757 -0.0032980798 -0.35570908
0001a0 0c d1 0c bf a1 07 ea bc 17 8b 8d 3d 3a 0e 83 bb
       -0.5500648 -0.02856809 0.06911295 -0.0039994987
0001b0 b0 10 f4 3c 57 64 22 bd 3b c9 61 bd 33 20 2f bd
       0.029793113 -0.039646473 -0.05512355 -0.042755317
0001c0 3f 86 46 bc 92 d6 71 bc a2 14 a5 3b d3 f8 11 bf
       -0.012116968 -0.01476063 0.00503786 -0.570203
0001d0 9b e9 2c 3a 1d 4e 5f bc 37 b6 6d 3b cb 40 42 3b
       0.0006596089 -0.0136294635 0.0036271939 0.002964067
0001e0 3e 62 35 bd e1 a5 f9 3e 95 eb 1c bd 98 4b d2 3c
       -0.044283144 0.48759368 -0.038310606 0.025670812
0001f0 ac a0 0d 3d 2a f1 99 3e f8 05 77 3d ee 18 1a 3d
       0.034577057 0.30066806 0.060308427 0.03762143
000200 d0 79 43 3d 95 cc b9 bc d2 d2 8a bc 10 0a 72 3d
       0.04772359 -0.02268056 -0.01694623 0.059091628
000210 30 62 57 bd 22 7b 4e bd c6 32 ea bb fe 75 6b bc
       -0.052583873 -0.050410397 -0.007147166 -0.014371393
000220 a7 47 a9 bb 00 c1 a3 3e bc fc 58 bc df 87 25 be
       -0.0051660123 0.31983185 -0.01324385 -0.16165112
000230 a6 1d 17 3d f4 c0 c1 bb 3d 58 e5 3b 6c 0e b5 3c
       0.03689351 -0.0059128944 0.006999044 0.022101603
000240 48 c0 65 3d 72 d8 4c 3d 40 c8 14 bb a8 64 b9 3c
       0.056091577 0.050011106 -0.0022702366 0.022631004
000250 5b 99 13 3d 20 d7 eb 3e 3b ca 66 3d 8e 06 80 3c
       0.036034923 0.46062565 0.056345206 0.015628126
000260 d9 04 a3 bd 0a e3 ec 3c e6 da d1 3c 7b 3c f2 bc
       -0.07959909 0.028916854 0.025617074 -0.029569855
000270 5c 5e db bc 60 69 98 3e a1 fa 87 bd c2 8b 8b bd
       -0.026778392 0.29767895 -0.066396005 -0.06813766
000280 5b f2 8a 3b 39 f6 97 3c 96 20 a7 3c b8 11 e8 bc
       0.004240317 0.018550025 0.02040128 -0.028328761
000290 76 c2 a3 bf 8f cc 15 3d 80 ed 5d 3a f2 1f f3 b9
       -1.279372 0.036572035 0.0008465871 -0.00046372373
0002a0 31 4a c2 3c e1 f9 fc 3c a2 ce 91 3c 48 98 57 3d
       0.023717018 0.03088087 0.017798726 0.05263546
0002b0 57 b7 24 3d d1 d8 0a bc 61 00 b0 bd f9 5c 7d bf
       0.04021391 -0.008474545 -0.08593822 -0.9896999
0002c0 71 95 43 bb 63 7b f9 3d fb 92 cb bc 67 89 90 be
       -0.0029843713 0.12181737 -0.02485036 -0.2822983
0002d0 56 c7 fb 3b 39 3a 52 bd 24 29 fa bc d8 a0 b6 3c
       0.007683675 -0.051325057 -0.030537196 0.022293493
0002e0 02 02 93 bc 31 d1 14 bd 60 f2 3d bb 7c c7 24 ba
       -0.017945293 -0.036332313 -0.0028983578 -0.0006285829
0002f0 b2 f6 4a 3d 30 ce 0a 3f 76 8d 25 bc 94 80 51 bc
       0.049551673 0.5422087 -0.010104528 -0.012787003
000300 03 f6 6f bf 0c 59 16 bc 73 52 ea 3c c4 ef 8c 3c
       -0.9373476 -0.009176504 0.028603768 0.017204173
000310 5f 8c 1c bc 0e 25 2b 3d 2a 93 53 3b 09 c5 1c 3c
       -0.009554951 0.041783385 0.0032283762 0.009568461
000320 73 a3 0f 3d 07 e2 2d bd 28 3a 39 3d eb de 18 bc
       0.035067987 -0.042451885 0.045221478 -0.009330492
000330 01 ae 20 bd ab bc 9a bc f4 44 b0 3c 81 0e d1 3c
       -0.039228443 -0.018888792 0.021517254 0.025519611
000340 eb 0a d9 bc 6b 01 e5 3d 97 3b 5a 3d aa 28 1a bc
       -0.026494464 0.11181911 0.053279486 -0.009409109
000350 65 96 84 3f 17 5e d7 bb 7b 63 1e bd 0a 7b c9 be
       1.0358397 -0.0065724957 -0.03866909 -0.39351684
000360 bc c9 86 bd 7b 03 08 3e 1c 1e 4d bc a4 26 01 bd
       -0.065814465 0.13282578 -0.012519386 -0.03153099
000370 f8 03 79 bc 2e cd 38 3d 77 de 0a bc 63 77 41 3c
       -0.0151987 0.04511755 -0.008475891 0.011808249
000380 8b 07 3d bf 61 fe f8 bc c5 bd 35 3f 72 6a 07 3d
       -0.73839635 -0.030394735 0.7099269 0.0330605
000390 3e 0b e8 bc 74 89 1e bf 86 98 23 bd de f0 ac 3c
       -0.028325673 -0.61928487 -0.03994038 0.021110948
0003a0 db b3 f6 3c 20 84 0d 3d ed f9 bb bc 87 48 76 3c
       0.030115059 0.034549832 -0.022946322 0.01503194
0003b0 64 a6 5a bc 3a 5b 26 bd b0 1f 23 3d ea cd 4b 3d
       -0.013345335 -0.040614344 0.03982514 0.04975692
0003c0 c4 76 1b bd 55 3a 29 3d 1f ca b3 3d 63 ce 20 bd
       -0.03795506 0.041315395 0.08778786 -0.039259326
0003d0 38 d3 2d be 02 ff 19 bd a6 78 5c 3f da 74 51 3f
       -0.16975105 -0.03759671 0.86121595 0.81818926
0003e0 44 0f ed bc 3d 0a 20 3c cc 26 b0 3c 97 38 f6 bc
       -0.028937943 0.009768066 0.021502875 -0.030056281
0003f0 11 f5 38 3d 7f bd 27 bf 07 87 38 3d 8c f3 5d 3d
       0.04515559 -0.65523523 0.045050647 0.054187343

net.4.bias f4 [4]
000000 bb 56 48 bd 75 0b e4 3d 94 5d 1b bf bd 4a fc bd
       -0.048910838 0.11134998 -0.60689664 -0.12318943
