logs/PointMaze-Right/airl_sac/seed0-20231226-1522/model/step1345000/actor.pth (torch, 276359 bytes, 6 tensors)

net.0.weight f4 [256, 6]
0	0xbb484f41	-0.0030564817
1	0x3e60421c	0.21900219
2	0xbeac0915	-0.3360068
3	0xbe99d40a	-0.30044585
4	0xbe210329	-0.15723862
5	0x3de03451	0.109474786
6	0xbf16eeeb	-0.5895831
7	0x3e9b5d13	0.30344447
8	0xbd14657f	-0.036229607
9	0xbdd47b09	-0.103750296
10	0xbea06cb8	-0.31332946
11	0xbda458cb	-0.080247484
12	0xbfc2d41b	-1.522098
13	0xbf1440aa	-0.5791117
14	0xbe2c540d	-0.16828938
15	0x3ee627a0	0.44952106
16	0x3e4d217e	0.20032308
17	0x3e7ad658	0.24495828
18	0xbfbabef6	-1.4589527
19	0xbcea4180	-0.028595686
20	0x3e17d770	0.14828277
21	0x3f9af84c	1.2107024
22	0x3d4b9644	0.04970385
23	0x3e9c6a1b	0.30549702
24	0xc005b048	-2.0888844
25	0x3de79f27	0.11309653
26	0x3ebd43f6	0.36965913
27	0xbf907d34	-1.1288209
28	0xbeaf6ee7	-0.342643
29	0xbdd3ab69	-0.10335428
30	0xbe22f454	-0.15913516
31	0x3eb4989d	0.35272685
32	0xbe877c0b	-0.26461825
33	0xbe4070c0	-0.1879301
34	0xbe920832	-0.28521878
35	0xbec3c34e	-0.38234943
36	0xbf189fa7	-0.5961861
37	0x3e59e18f	0.2127745
38	0x3e3a8a38	0.18216789
39	0x3d39181c	0.045189008
40	0xbe50d397	-0.20393215
41	0xbe56534f	-0.20930217
42	0xbee1deb6	-0.44115227
43	0xbf6e9dbc	-0.93209434
44	0xbe970877	-0.29498646
45	0xbf1d56ca	-0.61460555
46	0x3e8878b6	0.26654595
47	0x3e751c02	0.23936465
48	0xbf41f80f	-0.7576913
49	0x3ea240be	0.3169002
50	0x3e85aed8	0.26109958
51	0x3f9bb503	1.2164615
52	0xbda624b6	-0.08112471
53	0x3d61e677	0.05515143
54	0x3e618534	0.22023469
55	0xbf1972a3	-0.59940547
56	0x3d9bcd04	0.07607463
57	0xc0573c50	-3.3630562
58	0xbea1f580	-0.31632614
59	0xbe57f4b1	-0.21089436
60	0x3f9ae389	1.2100688
61	0xbf19ea18	-0.60122824
62	0xbe77a179	-0.2418269
63	0xbdda40cb	-0.106568895
64	0x3e1c9186	0.15289888
65	0xbd530f0d	-0.051528025
66	0x3c7f62ed	0.015587551
67	0x3dc1ba01	0.094593056
68	0x3e81ac4d	0.25326768
69	0x3ec8b3e9	0.3919976
70	0xbea11402	-0.31460577
71	0xbe193389	-0.14961065
72	0xbeb4d216	-0.35316533
73	0x3efc3d91	0.4926572
74	0x3eb5e4ba	0.35526067
75	0x3e6969ad	0.22794218
76	0xbd8950d5	-0.067048706
77	0xbeb5c34d	-0.35500565
78	0xbeeda9f4	-0.46418726
79	0xbf96e7cb	-1.1789488
80	0xbec2cccb	-0.3804687
81	0x3f185566	0.5950531
82	0x3ce7d906	0.028301727
83	0xbed081a5	-0.4072391
84	0x3d9c7e40	0.07641268
85	0xbd8cd921	-0.068773516
86	0xbd89969e	-0.06718181
87	0xbe3f5d12	-0.18687847
88	0x3e20c324	0.1569944
89	0xbe779c3b	-0.24180691
90	0x3ee9baeb	0.4565042
91	0x3edded59	0.43345144
92	0x3e95a23b	0.29225335
93	0x3f46303c	0.7741735
94	0xbf3e22c6	-0.7427181
95	0xbe8797b8	-0.2648294
96	0xbe8456f9	-0.25847605
97	0xbef949a6	-0.48689002
98	0xbea30e3c	-0.31846797
99	0xbf73765b	-0.9510247
100	0x3e42f63d	0.19039245
101	0x3e8cd7f1	0.275085
102	0xbe364758	-0.17800653
103	0xbdd26e88	-0.102749884
104	0xbec71d73	-0.38889655
105	0xbbf072dd	-0.0073379115
106	0xbe9d6820	-0.30743504
107	0xbea13b3d	-0.31490508
108	0xbcb84603	-0.022494322
109	0x3d7b1200	0.061296463
110	0xbe2b33de	-0.16719005
111	0x3e780f2d	0.24224539
112	0xbe7e65c3	-0.24843507
113	0x3ebda94d	0.3704323
114	0x3f59855a	0.84969103
115	0xbfcfbe4b	-1.6229948
116	0xbdd0171f	-0.1016066
117	0xbef3edde	-0.47642416
118	0xbd9dc16a	-0.077029064
119	0x3dc64cb5	0.096825995
120	0x3e240d9d	0.16020818
121	0x3cc8540d	0.024454141
122	0xbe4bfa0f	-0.19919609
123	0x3e45d09d	0.19317861
124	0xbec88155	-0.39161173
125	0xbe77c760	-0.2419715
126	0xbdd14c86	-0.10219674
127	0xbe4ba2cc	-0.19886321
128	0xbe123f1d	-0.14281888
129	0xbeab51e4	-0.33460915
130	0xbdb1d97c	-0.0868406
131	0x3db2b85d	0.08726571
132	0xbe882be2	-0.2659598
133	0xbcaba185	-0.020951042
134	0x3e95a11f	0.29224488
135	0xbd2be6ab	-0.04196803
136	0x3c39e519	0.011346125
137	0xbd1041f0	-0.035219133
138	0xbf5e0629	-0.8672815
139	0x3edb7622	0.42863566
140	0x3ec5ff12	0.38671166
141	0x3e6ec7a8	0.2331835
142	0x3e63b936	0.22238621
143	0xbcf1ded1	-0.029525192
144	0xbf9fd2fc	-1.2486262
145	0xbf688500	-0.9082794
146	0x3e8e532f	0.2779784
147	0xbee8b80c	-0.45452917
148	0x3e1afe40	0.15136051
149	0xbea02d48	-0.31284547
150	0xbf33fd0b	-0.7030799
151	0xbf995215	-1.1978174
152	0xbda9971d	-0.08280776
153	0x3ed80e77	0.42198536
154	0x3ebb73c1	0.3661175
155	0xbec996ad	-0.3937277
156	0x3e826287	0.25465795
157	0xbea39005	-0.31945816
158	0xbdb0c231	-0.08630789
159	0xbe29819e	-0.16553351
160	0xbda10b50	-0.07863486
161	0xbda42922	-0.08015658
162	0xbebb9120	-0.3663416
163	0xbeb47a7e	-0.35249704
164	0xbd82d4d2	-0.063882485
165	0x3bad0000	0.005279541
166	0xbe3de86e	-0.18545696
167	0x3e1d7a4a	0.15378681
168	0xbff282eb	-1.8946203
169	0xbe14b7e3	-0.14523272
170	0x3eb7d1aa	0.35902148
171	0x3cdcab6c	0.02693721
172	0x3ec2854c	0.37992322
173	0x3e1765a4	0.14784867
174	0xbfb1556c	-1.3854194
175	0x3ea2b02f	0.31775042
176	0xbd40f5fe	-0.047109596
177	0xbf1dfb97	-0.6171202
178	0x3e5311a6	0.20612201
179	0xbea8e91d	-0.3299035
180	0xbf563cad	-0.83686334
181	0xbf06fa26	-0.52725446
182	0x3e95441d	0.2915353
183	0x3f56c337	0.83891624
184	0x3e305d18	0.17223012
185	0x3e13a304	0.14417654
186	0xbdc90f21	-0.09817339
187	0xbdafd5b7	-0.08585685
188	0xbeac4088	-0.33642983
189	0x3e628413	0.22120695
190	0x3ea5f5b5	0.32414022
191	0x3e8f04d1	0.27933362
192	0xbe9370bd	-0.2879695
193	0x3c952896	0.01820783
194	0xbe9358f8	-0.28778815
195	0xbe6620bb	-0.22473423
196	0xbe73990d	-0.23788853
197	0x3e0edd80	0.13951683
198	0xbf8dc7fd	-1.1076657
199	0x3f180f57	0.59398407
200	0x3c8cb0fe	0.01717424
201	0x3f8825ed	1.0636574
202	0xbf065e4a	-0.52487624
203	0xbe8f7f37	-0.28026745
204	0xbe66a6b7	-0.22524534
205	0x3e8ac238	0.27101302
206	0xbe1645e3	-0.14675097
207	0x3ea9006b	0.3300813
208	0x3e088a7f	0.13334082
209	0x3d53bdfc	0.051694855
210	0xbb472a21	-0.00303901
211	0xbda547b2	-0.080703154
212	0x3d51cd8e	0.051221423
213	0xbdbeead3	-0.09322133
214	0xbb3bfdf1	-0.0028685296
215	0x3d555bf3	0.052089643
216	0xbfb366fd	-1.4015805
217	0xbf918301	-1.1368104
218	0x3ea8c8e0	0.32965755
219	0xbd0b5c11	-0.03402335
220	0x3dfbb8a4	0.12291077
221	0x3ecec616	0.40385503
222	0x3e170388	0.14747441
223	0x3c3d60ea	0.011558751
224	0xbeb5243b	-0.35379204
225	0x3e4f1744	0.20223719
226	0xbe94e216	-0.2907874
227	0xbded5638	-0.115887105
228	0xbe0722e0	-0.13196898
229	0xbd60159f	-0.05470812
230	0x3b9253a4	0.004465537
231	0x3ea908af	0.33014438
232	0x3d35ca42	0.04438234
233	0x3ebb3874	0.36566508
234	0x3e7fb95f	0.24973057
235	0xbe8425b8	-0.25810027
236	0x3e3b7ed6	0.18310103
237	0xbe93c1f4	-0.28858912
238	0xbe312db3	-0.17302589
239	0x3df5e9ee	0.12007509
240	0xbe29215e	-0.16516635
241	0x3e65d410	0.22444177
242	0xbe069363	-0.13142161
243	0xbe65f96e	-0.22458431
244	0xbd86da14	-0.06584564
245	0xbeca2507	-0.39481375
246	0x3e971ea3	0.2951556
247	0xbeacd88e	-0.33758968
248	0x3bb86009	0.0056266827
249	0xbd8e2656	-0.06940906
250	0xbe5c2c75	-0.21501334
251	0x3d5d03b2	0.053958602
252	0x3eab1537	0.33414623
253	0xbdecfbad	-0.11571441
254	0xbe78310d	-0.24237461
255	0xbe1a9c18	-0.15098608

net.0.bias f4 [256]
0	0xbe0b00c9	-0.13574518
1	0xbd71692f	-0.0589382
2	0x3e60c7f3	0.21951275
3	0x3df41ee4	0.119199544
4	0x3e9b5263	0.30336294
5	0xbe90abf9	-0.28256205
6	0xbd8d0ea6	-0.068875596
7	0x3ec0d992	0.37665993
8	0xbea0d570	-0.3141284
9	0x3e94dc68	0.29074407
10	0xbd841267	-0.064488225
11	0xbe9c86a1	-0.30571464
12	0xbebe99dd	-0.37226763
13	0xbe054868	-0.13015902
14	0xbe34e8b9	-0.17666902
15	0xbe763c6d	-0.24046488
16	0x3e552613	0.20815305
17	0x3e0e008c	0.13867396
18	0xbd1c7fdb	-0.03820787
19	0xbd0d8049	-0.03454617
20	0xbe70dad0	-0.2352097
21	0xbeafa1e1	-0.3430319
22	0xbe9d1f63	-0.3068801
23	0xbf01fd42	-0.50777066
24	0x3ee04cd7	0.43808624
25	0x3e665106	0.22491845
26	0xbe31a802	-0.17349246
27	0xbecc74c3	-0.39932832
28	0x3e6e0330	0.23243403
29	0xbeb451cb	-0.35218653
30	0xbdbc9cbf	-0.092095844
31	0xbeaf431a	-0.34230882
32	0xbe6bd81f	-0.23031662
33	0xbd3c3ca6	-0.045956276
34	0xbeca25f7	-0.3948209
35	0xbe6e62f6	-0.23279938
36	0x3eeaa552	0.45829254
37	0xbe5664fe	-0.20936963
38	0xbe34b77c	-0.17648119
39	0xbdeac0ba	-0.11462541
40	0xbdcfea17	-0.10152071
41	0xbe891ce2	-0.26779848
42	0x3d19432e	0.037417583
43	0xbc0e9a34	-0.008703757
44	0x3dc0d368	0.094153225
45	0x3ea00e4f	0.31260917
46	0xbe9f73ea	-0.31143123
47	0x3c8ecb59	0.017430948
48	0x3ca96cf4	0.020681836
49	0x3e0a2113	0.1348918
50	0xbeacd5c4	-0.3375684
51	0x3d0cedba	0.0344064
52	0xbb0e710c	-0.0021734862
53	0xbd923d3d	-0.071405865
54	0xbe2a1841	-0.16610815
55	0x3db837b3	0.08994999
56	0xbf1bf753	-0.6092426
57	0xbebab3fa	-0.36465436
58	0x3d189e40	0.037260294
59	0xbe8d7065	-0.27624813
60	0xbea667f9	-0.325012
61	0xbd24ece5	-0.040264983
62	0x3eb1cec6	0.34728068
63	0xbeb19f98	-0.34692073
64	0xbeb7dc9e	-0.35910505
65	0x3f1e5786	0.618523
66	0xbe39f75e	-0.1816077
67	0xbe826104	-0.25464642
68	0xbe473f03	-0.19457631
69	0xbd30dad7	-0.043177452
70	0xbe2ce38c	-0.16883677
71	0x3c6db6ec	0.014508944
72	0xbe835622	-0.25651652
73	0x3e8db70b	0.27678713
74	0xbe8fcda6	-0.28086585
75	0xbe691deb	-0.22765319
76	0xbe1f4ff8	-0.1555785
77	0xbdddacdb	-0.10823985
78	0xbea90697	-0.3301284
79	0x3e4c2853	0.19937257
80	0x3ea15cdd	0.31516162
81	0xbe74af27	-0.2389494
82	0xbea25e84	-0.31712735
83	0xbf0147de	-0.50500286
84	0xbd5c0f12	-0.05372531
85	0xbeb4a388	-0.35281014
86	0xbe93d74f	-0.28875205
87	0x3ecfa561	0.40555862
88	0x3dd62885	0.10456947
89	0x3e640656	0.22268042
90	0x3ea3ac0d	0.31967202
91	0x3c9cb084	0.019127138
92	0xbd0a0378	-0.033694714
93	0x3e6a739a	0.22895661
94	0xbe8f015a	-0.2793072
95	0xbe08e7be	-0.13369653
96	0x3ed37015	0.4129645
97	0xbdf061a8	-0.117373765
98	0xbe88022f	-0.26564166
99	0xbf167a61	-0.58780485
100	0x3e3a698f	0.1820433
101	0x3edbe5ac	0.42948663
102	0x3dfa8fb0	0.122344375
103	0xbe24a717	-0.16079365
104	0x3ec13644	0.37736714
105	0xbebfe93d	-0.37482634
106	0xbe9697ea	-0.29412776
107	0xbec920e0	-0.39282894
108	0x3ec7de81	0.39036945
109	0xbcbd4ce3	-0.023107952
110	0xbe407edd	-0.18798395
111	0x3d725de4	0.059171572
112	0xbe2f13ec	-0.17097443
113	0xbe860e47	-0.26182768
114	0xbd776a85	-0.06040432
115	0x3cb51b5e	0.022107776
116	0xbe95af71	-0.29235414
117	0xbe89acf3	-0.26889762
118	0x3d97940e	0.07401286
119	0x3c724446	0.0147867855
120	0x3ea17d41	0.31540874
121	0xbe51fa76	-0.205057
122	0x3a3fe297	0.00073198363
123	0x3e64c53b	0.22340862
124	0xbeb6fed5	-0.35741296
125	0xbe8774d6	-0.26456326
126	0xbd9cabad	-0.07649932
127	0x3cefaa99	0.029256152
128	0xbe064d9a	-0.1311554
129	0x3e37a5b6	0.17934307
130	0xbe817361	-0.2528334
131	0x3ef1b180	0.47205734
132	0xbce7c8b2	-0.028293941
133	0x3e3a0d12	0.18169048
134	0xbdd485b4	-0.10377064
135	0x3ea6c0e7	0.32569048
136	0xbedb6ddf	-0.42857262
137	0x3dbd40e7	0.09240895
138	0x3d54ff75	0.052001435
139	0xbdbcb7cc	-0.09214744
140	0x3e58c8e2	0.2117038
141	0xbe8dd68b	-0.27702746
142	0xbebaac16	-0.36459416
143	0xbe77cacf	-0.24198459
144	0xbec1fdbf	-0.37888905
145	0x3ebe4baa	0.37167102
146	0xbe944682	-0.28960043
147	0xbf00f005	-0.5036624
148	0xbe9aca8c	-0.30232656
149	0xbe8cd770	-0.27508116
150	0xbf080468	-0.53131723
151	0x3e8e7523	0.27823743
152	0xbe9cef04	-0.30651104
153	0x3e340b8f	0.17582534
154	0x3e9c58bc	0.3053645
155	0xbea7264a	-0.326464
156	0x3e9985ca	0.29984885
157	0xbe6a2c16	-0.2286838
158	0x3ee42aa2	0.44563776
159	0x3dd2a23e	0.102848515
160	0x3dc6afaf	0.09701478
161	0x3dd6c7d4	0.10487333
162	0xbf01c612	-0.50692856
163	0xbe0966ac	-0.13418072
164	0x3d78123e	0.060564272
165	0xbeb5ae1f	-0.35484406
166	0x3e97230f	0.29518935
167	0xbe1f52d0	-0.15558934
168	0xbe173335	-0.14765628
169	0xbea5d78a	-0.32391006
170	0x3ca1ddc8	0.019759074
171	0xbed28075	-0.4111363
172	0xbdb16c6e	-0.086632594
173	0xbe0a5821	-0.13510181
174	0x3bee688a	0.0072756456
175	0xbc806cef	-0.015676944
176	0xbe69bf92	-0.22826985
177	0xbe3ebff3	-0.1862791
178	0xbd00fe34	-0.031492427
179	0xbe3f2ef5	-0.18670256
180	0x3eb1c789	0.34722546
181	0xbde7c8f1	-0.113176234
182	0x3b3c455f	0.0028727872
183	0xbea86ec2	-0.32897002
184	0x3e5ae9b7	0.21378218
185	0xbe4012b7	-0.18757139
186	0xbddfcf20	-0.10928178
187	0x3b20237a	0.0024435208
188	0xbe134f0e	-0.14385626
189	0x3e2c822d	0.16846533
190	0xba608510	-0.000856475
191	0xbe79c6c5	-0.24392231
192	0x3db016bc	0.08598086
193	0xbea7fe27	-0.3281109
194	0x3e894169	0.26807716
195	0xbcd40bd2	-0.025884543
196	0x3e8851ec	0.26625
197	0x3ef3efcd	0.4764389
198	0x3dc20208	0.09473044
199	0xbcb65913	-0.02225927
200	0xbe671243	-0.2256556
201	0xbe2eaebe	-0.17058846
202	0x3e86b0ba	0.26306707
203	0x3d73b82c	0.05950181
204	0xbf0ecaf2	-0.5577842
205	0xbd8db609	-0.06919486
206	0xbbc682c0	-0.006058067
207	0xbc94aa22	-0.018147532
208	0xbeac56b5	-0.33659902
209	0xbe64afbe	-0.22332665
210	0x3d16576a	0.03670446
211	0xbecabb70	-0.39596128
212	0xbec26f4c	-0.37975538
213	0xbebb7c82	-0.3661843
214	0xbe80cdd4	-0.25157034
215	0xbdca3ec6	-0.09875254
216	0x3e7aedf1	0.2450483
217	0xbecbd5a4	-0.39811432
218	0xbd2b2fdd	-0.041793693
219	0xbeb9b54e	-0.36271137
220	0xbe5fa43f	-0.21839999
221	0xbd930653	-0.071789406
222	0xbea4991c	-0.32148063
223	0xbac5b4a2	-0.001508374
224	0xbe4f5337	-0.20246588
225	0xbe824333	-0.25441894
226	0xbe6be8d6	-0.23038039
227	0xbed19c69	-0.40939644
228	0x3d86083f	0.065445416
229	0xbe4d3be9	-0.20042385
230	0xbd113d86	-0.035459064
231	0x3e7829bd	0.24234672
232	0xbdeef5cf	-0.11667978
233	0xbe54c8fb	-0.20779793
234	0xbe7aff0b	-0.24511354
235	0xbed1db03	-0.40987405
236	0xbde271d4	-0.11056867
237	0xbdb96722	-0.09052874
238	0x3e354eae	0.17705795
239	0x3f01b3e2	0.50665104
240	0xbe655fd2	-0.22399834
241	0xbe2801aa	-0.16406885
242	0x3ea851fd	0.32875052
243	0x3dd2b200	0.10287857
244	0x3e8b40bb	0.27197823
245	0xbdfe3dd6	-0.12414138
246	0x3d9a1785	0.07524017
247	0xbf00a50b	-0.50251836
248	0xbde8ccd3	-0.11367192
249	0xbea2a91d	-0.31769648
250	0xbddbc36c	-0.10730633
251	0xbeaeb36b	-0.3412126
252	0xbec8f166	-0.39246672
253	0x3e97734b	0.2958015
254	0xbe18735b	-0.14887755
255	0x3e19180c	0.1495058

net.2.weight f4 [256, 256]
0	0x3d4bb504	0.049733177
1	0x3c885638	0.016642675
2	0xbe742590	-0.23842454
3	0x3e06694d	0.13126107
4	0x3e96a14e	0.2941994
5	0x3cf6344c	0.030054234
6	0x3d57da7a	0.05269859
7	0x3e85c7c9	0.26128986
8	0x3eb65732	0.356134
9	0xbf32a619	-0.69784695
10	0x3f6185da	0.88094866
11	0x3c6db5c0	0.014508665
12	0xbd880781	-0.06642056
13	0xbf33a041	-0.70166403
14	0xbd1886fa	-0.0372381
15	0xbefe1394	-0.49624312
16	0x3f119b06	0.5687717
17	0x3d4a104c	0.04933195
18	0xbd3447ac	-0.044013664
19	0xbebec892	-0.37262398
20	0x3d00644a	0.031345643
21	0x3d3502d4	0.04419215
22	0x3c8048a0	0.01565963
23	0x3c921fa4	0.017837353
24	0xbe3a1202	-0.18170932
25	0xbf2e5438	-0.6809726
26	0x3cae16cc	0.021251105
27	0xbd482cd4	-0.048870876
28	0x3e21cf20	0.15801668
29	0x3a939147	0.0011258506
30	0xbe56e58d	-0.20986004
31	0xbcb4e3e4	-0.022081323
32	0xbd7dc850	-0.06195861
33	0xbeed94cd	-0.46402588
34	0x3cc403bc	0.023927562
35	0x3d5c6f1e	0.053816907
36	0xbfa3a2ef	-1.2784098
37	0x3cf4724c	0.029839657
38	0xbd72e966	-0.059304617
39	0xbd74d032	-0.059768863
40	0xbd205190	-0.039140284
41	0xbc0740d8	-0.008255206
42	0x3c8eff9c	0.017455868
43	0x3c64653e	0.013940154
44	0xbf2d35df	-0.67660326
45	0xbf35f5d5	-0.71078235
46	0x3b7c0300	0.0038453937
47	0x3dd64075	0.10461513
48	0xbe147325	-0.14497049
49	0x3e0e7d18	0.13914907
50	0xbc042460	-0.008065313
51	0xbd0641aa	-0.032777466
52	0x3e046cf0	0.12932181
53	0xbd4cfd22	-0.050046094
54	0x3ed84534	0.42240298
55	0xb879c9a7	-5.955403e-05
56	0xbef4b1a0	-0.47791767
57	0xbf1b2cab	-0.6061503
58	0xbc5a7c22	-0.01333526
59	0xbe26dd9c	-0.16295475
60	0x3cfcbfa0	0.030853093
61	0xbb62e600	-0.0034621954
62	0x3e591237	0.21198355
63	0x3ee0f0e8	0.43933797
64	0x3d3a19a7	0.04543462
65	0xbe9f5863	-0.3112212
66	0xbebd9da7	-0.37034342
67	0x3de20ea3	0.11037948
68	0xbd16eb89	-0.036845718
69	0x3d7174a6	0.058949135
70	0x3dee6546	0.1164041
71	0x3d748c6e	0.059704237
72	0xbcef2a78	-0.029195055
73	0xbf3309da	-0.6993691
74	0x3f23ac73	0.6393501
75	0xbe9ccae4	-0.30623543
76	0x3d006aa2	0.031351693
77	0x3f04bf9d	0.5185488
78	0x3d59fb36	0.05321809
79	0xb9063c60	-0.00012801727
80	0x3d95b800	0.07310486
81	0x3ede3993	0.434033
82	0x3c8ead78	0.0174167
83	0xbe815089	-0.25256756
84	0x3e9238cd	0.2855896
85	0xbd425e32	-0.047453113
86	0xbc96347c	-0.018335573
87	0x3eaaaac8	0.3333342
88	0x3f1d60d9	0.614759
89	0x3e33669e	0.17519614
90	0x3f2b92e7	0.6702103
91	0xbe496c26	-0.19670162
92	0xbe8f6ba5	-0.28011814
93	0xbe9c0a7d	-0.30476752
94	0xbc6b5dc7	-0.01436562
95	0xc0314bd2	-2.7702527
96	0x3df39aac	0.11894736
97	0xbe57007c	-0.20996279
98	0x3c19abb0	0.009379312
99	0xbedc2785	-0.429989
100	0xbd99cda9	-0.0750993
101	0xbe289001	-0.16461183
102	0xbdfd982a	-0.123825386
103	0x3ef0ac3c	0.47006404
104	0xbf822d28	-1.017003
105	0xbc59cce8	-0.013293482
106	0x3cc3a11c	0.023880534
107	0x3d00d402	0.031452186
108	0x3f8c10be	1.0942609
109	0xbed4c83e	-0.41559023
110	0xbccf459c	-0.025301747
111	0xbd43c77f	-0.047797676
112	0x3c025268	0.0079542175
113	0xbd02c328	-0.031924397
114	0xbbb734e0	-0.00559102
115	0xbf57f65f	-0.8436031
116	0xbd71df40	-0.0590508
117	0x3d2d8c56	0.042370163
118	0xbc4d3ae8	-0.012526251
119	0xbe36063c	-0.17775816
120	0x3e67d881	0.22641183
121	0xbd09bf38	-0.033629626
122	0x3dca883d	0.09889267
123	0xbe1f3d29	-0.15550674
124	0x3b3d9d40	0.002893284
125	0x3c934de4	0.017981477
126	0x3dab928d	0.08377562
127	0x3ddeb96e	0.10875212
128	0xbc9d17e0	-0.019176424
129	0xbd3b7c51	-0.045772854
130	0xbba04520	-0.004891053
131	0xbeef4c76	-0.46738023
132	0xbdea6507	-0.11445051
133	0xbf97bdeb	-1.1854833
134	0xbebb2558	-0.3655193
135	0x3ea9f507	0.33194754
136	0xba9bd28d	-0.001188831
137	0xbf11ffc8	-0.57030916
138	0xbf05f954	-0.5233357
139	0xbd5fcdd0	-0.054639637
140	0xbd41f8a1	-0.04735625
141	0x3c196f9e	0.0093649905
142	0x3d2bf7fa	0.041984536
143	0x3e98c1bf	0.29835317
144	0x3cd7d1b0	0.026345104
145	0x3e784ed7	0.24248825
146	0x3e9075c3	0.28214845
147	0xbe564814	-0.20925933
148	0xbd090521	-0.033452157
149	0x3a8cd7c0	0.0010745451
150	0xbeb18bcb	-0.34676966
151	0xbfbd77a8	-1.4802141
152	0xbc193470	-0.009350881
153	0xbf9ea9c0	-1.2395554
154	0x3f1dac07	0.6159062
155	0xbf013d6d	-0.50484353
156	0x3c726b3a	0.014796073
157	0xbd235122	-0.039872296
158	0x3e6d1dcb	0.23155896
159	0x3f4d2b72	0.8014442
160	0x3d5f7cd4	0.054562405
161	0xbf0f4de8	-0.5597825
162	0xc0010b6c	-2.0163221
163	0x3bc21f0e	0.005924112
164	0xbf2288df	-0.634901
165	0xbc910db4	-0.01770673
166	0x3ef18e9e	0.4717912
167	0x3d2d268e	0.042273097
168	0x3d6b8fd8	0.057510227
169	0xbb2c9c60	-0.0026338324
170	0xbf8fbcde	-1.1229513
171	0x3f0e5b76	0.5560831
172	0xbcaf1b40	-0.021375299
173	0xbf620bf9	-0.8829952
174	0xbf0c01dd	-0.54690343
175	0x3ec08aba	0.3760584
176	0x3f096b8c	0.5367973
177	0xbe975f26	-0.2956478
178	0xbd9fc77c	-0.078017205
179	0xbf147136	-0.57985246
180	0x3dae1ec1	0.085019596
181	0xbe2cb18a	-0.16864601
182	0xbd4537e2	-0.048148997
183	0xbcbcce58	-0.023047611
184	0x3f012c18	0.50457907
185	0x3d5dba22	0.05413259
186	0xbc07be98	-0.008285187
187	0xbd00d840	-0.031456232
188	0xbdba954d	-0.09110508
189	0xbfc71644	-1.555367
190	0x3d68bb37	0.056819167
191	0x3c6af330	0.014340207
192	0x3dccab5b	0.09993621
193	0xbc1827d8	-0.009286843
194	0xbfa65baa	-1.2996724
195	0x3e5e834b	0.21729772
196	0x3e1fde57	0.1561216
197	0x3ee9aff2	0.45642048
198	0xbf8004d7	-1.0001477
199	0xbe8eaad4	-0.27864707
200	0x3cd55a2e	0.026043978
201	0xbc2019e0	-0.009771794
202	0xbfa4f208	-1.2886362
203	0x3dece85f	0.11567759
204	0xbe795005	-0.24346931
205	0x3eab5273	0.3346134
206	0xbc9b830c	-0.018983386
207	0x3d40e16a	0.04708997
208	0xbdb9403b	-0.09045454
209	0xbf0d2015	-0.5512708
210	0xbe02b137	-0.12762915
211	0xbec99a01	-0.39375308
212	0x3d1f7d94	0.03893812
213	0xbde6852c	-0.11255869
214	0xbf6cbb7a	-0.92473567
215	0x3cf4ada6	0.029867958
216	0xbf5e3172	-0.867942
217	0xc09c9916	-4.8936872
218	0x3ee95dc5	0.45579353
219	0x3d9c0858	0.07618779
220	0xbd37e354	-0.04489453
221	0x3ca462d4	0.020066656
222	0xbfe32100	-1.7744446
223	0xbd438684	-0.047735706
224	0xbbcd4450	-0.006264247
225	0xbf2178a0	-0.63074684
226	0xbd37d18a	-0.044877566
227	0xbe9a9605	-0.3019258
228	0xbc86e98e	-0.01646879
229	0xbd1d94a0	-0.038471818
230	0xbe52ce73	-0.20586567
231	0xbed5167e	-0.41618723
232	0x3df489af	0.119403236
233	0x3b0a3820	0.0021090582
234	0x3d550ed0	0.05201608
235	0xbefd6aa2	-0.49495417
236	0x3f44805b	0.76758355
237	0x3dfaf59b	0.12253877
238	0xbd5418bb	-0.051781397
239	0xbd26903b	-0.040664893
240	0xbccb5b30	-0.024823755
241	0xba337000	-0.00068449974
242	0xbe0d1355	-0.13776906
243	0x3ced20fb	0.02894639
244	0xbe616444	-0.22010905
245	0x3e717224	0.23578697
246	0x3ef7c31b	0.4839104
247	0x3e5f6d4d	0.21819039
248	0x3e0ab198	0.13544309
249	0xbc918f33	-0.017768478
250	0x3d322980	0.04349661
251	0x3d7b1ef6	0.061308824
252	0x3cf92268	0.030411914
253	0xbf32f710	-0.6990824
254	0xbe6bf871	-0.23043992
255	0xbded837b	-0.115973435

net.2.bias f4 [256]
0	0x3e511963	0.2041984
1	0xbd79b789	-0.06096605
2	0xbb759021	-0.003746994
3	0xbd114fe9	-0.0354766
4	0xbd0050ed	-0.031327177
5	0xbcd8e5e1	-0.026476802
6	0xbd83e4fd	-0.064401604
7	0xbd302438	-0.04300329
8	0xbc2a1227	-0.010380304
9	0xbd229dd5	-0.0397013
10	0xbd67421c	-0.05645953
11	0x3bc22c74	0.0059257094
12	0xbcc9e35e	-0.02464455
13	0x3d9361ce	0.07196389
14	0x3e7b4e5d	0.24541612
15	0x3d49b82a	0.0492479
16	0xbd3f0a40	-0.046640635
17	0x3e9b8be5	0.3038017
18	0xbd093db0	-0.033506095
19	0xbd22eec2	-0.03977848
20	0xbe0a796a	-0.13522878
21	0x3eaba2a0	0.3352251
22	0x3c03af96	0.008037468
23	0xbc2ff02c	-0.010738414
24	0xbcef30c0	-0.02919805
25	0xbc10dbe8	-0.008841492
26	0xbd402ad3	-0.04691584
27	0xbd48a340	-0.048983812
28	0xbd915d7a	-0.07097907
29	0xbd542f58	-0.051802963
30	0xbeb78b52	-0.3584848
31	0x3d632bb4	0.0554616
32	0xbd36331e	-0.044482343
33	0xbda84f3b	-0.08218237
34	0xbd956b4d	-0.072958566
35	0x3ee4c7c6	0.44683665
36	0xbca1691a	-0.019703437
37	0xbb966c53	-0.00459055
38	0xbaad23ea	-0.0013209556
39	0xbd2e9570	-0.042622983
40	0xbd906b0c	-0.070516676
41	0xbd28f96e	-0.0412535
42	0xbb93c3e8	-0.004509438
43	0xbc32d75d	-0.010915604
44	0xbd4aa73b	-0.04947589
45	0xbc71a620	-0.01474908
46	0xbcb6859b	-0.022280505
47	0x3c1ec0b4	0.009689499
48	0xbc45016a	-0.012024263
49	0xbc5bed22	-0.013423236
50	0xbc8955f7	-0.016764624
51	0xbd8bea58	-0.06831807
52	0xbdf6332a	-0.120214775
53	0xbc45fc01	-0.012084008
54	0x3ecd0d99	0.40049437
55	0xbd85e970	-0.06538665
56	0xbc4c472c	-0.012468141
57	0xbd41b96c	-0.047295973
58	0xbcae2d32	-0.021261785
59	0x3a8721dd	0.0010309775
60	0xbbbb857b	-0.005722699
61	0xbb31ca87	-0.0027128772
62	0xbcc296ff	-0.023753641
63	0xbc60fcd2	-0.013732152
64	0x3dd88dd6	0.10573928
65	0x3e343221	0.17597248
66	0xbbebe5f5	-0.007199044
67	0xbd8710fb	-0.06595036
68	0x3ec07246	0.37587184
69	0xbeecf655	-0.46281686
70	0xbee00c35	-0.43759313
71	0xbe97db3f	-0.2965946
72	0x3c0ff21a	0.008785749
73	0xbccfc5a9	-0.025362806
74	0xbd888ecb	-0.066678606
75	0x3aae27a1	0.0013286957
76	0xbc4dec2b	-0.012568514
77	0xbd73816f	-0.05944961
78	0xbd39704e	-0.045273118
79	0xbc4a2586	-0.012338048
80	0xbe90869b	-0.28227696
81	0xbd86cdbd	-0.0658221
82	0xbcacf53c	-0.02111303
83	0xbd95eca2	-0.07320525
84	0xbd428ff1	-0.047500554
85	0x3d1dca1a	0.038522817
86	0xbd6317d7	-0.055442657
87	0x3c42d04c	0.011890482
88	0xbc3ef2e0	-0.011654586
89	0xbd3e4392	-0.04645116
90	0xbd74caf5	-0.059763867
91	0xbd815c26	-0.06316404
92	0x3ed00161	0.40626052
93	0xbd2a6af5	-0.04160591
94	0xbae89dff	-0.0017747282
95	0x3e7f35f4	0.24922925
96	0xbce574a4	-0.02800972
97	0xbd5f5c3d	-0.054531325
98	0xbd14a689	-0.036291633
99	0x3ebfe66f	0.37480494
100	0xbd1eeee3	-0.03880204
101	0xbcbe470d	-0.023227239
102	0x3f170e27	0.5900597
103	0x3ecd798f	0.40131804
104	0x3d02ac9d	0.031902898
105	0x3bba0a19	0.0056774733
106	0x3bb6cbfb	0.0055785156
107	0xbd4234eb	-0.047413748
108	0xbb10d598	-0.0022099968
109	0xbd8c3250	-0.06845534
110	0xbd0a8f76	-0.03382822
111	0xbd26ac30	-0.040691555
112	0xbcaea772	-0.021320079
113	0xbcf677cd	-0.030086422
114	0xbbe76b8d	-0.0070623816
115	0x3e12e600	0.1434555
116	0xbd8a1820	-0.06742883
117	0xbb7564f0	-0.0037444197
118	0xbd64793e	-0.055779688
119	0xbc9301ee	-0.017945256
120	0xbd3d84e2	-0.046269305
121	0xbdeb3f86	-0.114867255
122	0xbcae6fa2	-0.021293465
123	0xb8a2e795	-7.7678975e-05
124	0xbd3963ed	-0.045261312
125	0x3e5876ca	0.21139064
126	0xbb72e320	-0.0037061647
127	0xbc1f8828	-0.009737052
128	0xbb1c3266	-0.002383375
129	0xbb31b1bf	-0.0027114002
130	0xbd355ff0	-0.044280946
131	0x3ec37fd0	0.3818345
132	0x3e03ba92	0.1286414
133	0xbceda7ea	-0.029010732
134	0xbd424167	-0.047425654
135	0xbcde27f6	-0.027118664
136	0xbd7fe5a6	-0.06247487
137	0x3ebff006	0.3748781
138	0xbd4250bb	-0.04744027
139	0x3b029877	0.0019927302
140	0xbd575450	-0.05257064
141	0xbc66e5a4	-0.0140928365
142	0xbc820f58	-0.015876457
143	0xbd2edd8e	-0.04269176
144	0xbc3ef256	-0.011654457
145	0xbbe4c5fd	-0.00698161
146	0x3c2eed13	0.01067664
147	0xbd3a3c1a	-0.045467474
148	0xbca7188c	-0.020397447
149	0x3e84f524	0.25968277
150	0x3e71a954	0.2359975
151	0xbd40e44b	-0.047092717
152	0xbd06ff68	-0.032958418
153	0xbd871096	-0.065949604
154	0xbd7255b7	-0.059163775
155	0xbd6b215f	-0.057404872
156	0xbb0a4ae4	-0.0021101767
157	0x3e6bc9b2	0.2302616
158	0xbc23f32e	-0.010006709
159	0xbcbf2bea	-0.02333637
160	0xbb7cb48a	-0.0038559758
161	0xbd435a30	-0.04769343
162	0xbd125e9a	-0.03573475
163	0x3af26852	0.0018494225
164	0x3e258208	0.16162884
165	0xbd7ea07a	-0.06216476
166	0xbd501dce	-0.050809674
167	0xbb8280e3	-0.0039826497
168	0xbcf38c5a	-0.02973001
169	0xbbbb41fc	-0.005714653
170	0xbd5c7643	-0.05382372
171	0xbd2734e8	-0.04082194
172	0xbbbf81e2	-0.0058443407
173	0xbda8844a	-0.08228357
174	0x3e5fcba4	0.21855026
175	0xbc4320bd	-0.011909661
176	0xbd384d09	-0.04499534
177	0x3e63b2fa	0.22236243
178	0xbbc86030	-0.006114982
179	0x3e52e8e6	0.20596656
180	0xba9f2cbd	-0.001214407
181	0x3b15c1a7	0.0022851021
182	0xbd527a08	-0.05138591
183	0xbd662f0b	-0.056197207
184	0x3c05b58b	0.008160959
185	0xbc8fc09f	-0.017547904
186	0xbd4e8a6e	-0.050424986
187	0xbe93e9e8	-0.28889394
188	0xbd16daac	-0.036829636
189	0x3e40347c	0.18770021
190	0x3c286e52	0.010280209
191	0xbd5c1cf4	-0.05373855
192	0x3e1fb245	0.15595348
193	0xbcc8fa6b	-0.024533471
194	0xbd5456dd	-0.05184065
195	0xbd7bcf6f	-0.06147712
196	0xbc6e803e	-0.0145569425
197	0xbb99b487	-0.00469071
198	0xbd8add3d	-0.06780479
199	0x3c0bf093	0.008541244
200	0xbb98d76f	-0.0046643536
201	0xbc460390	-0.01208581
202	0xbd150e77	-0.036390748
203	0xbd495acb	-0.049158853
204	0xbd1dd3a5	-0.038531918
205	0x3beeceed	0.007287851
206	0xbd313ec0	-0.043272734
207	0xbbf3fa32	-0.007445597
208	0xbcc37ae7	-0.023862315
209	0x3ddbe3e9	0.1073683
210	0x3e9200cb	0.2851623
211	0xbc9168b7	-0.017750127
212	0x3ecda3de	0.40164083
213	0x3dfacbc0	0.122458935
214	0xbd09a86a	-0.033607878
215	0xbe1fb210	-0.15595269
216	0xbdd4c50d	-0.10389147
217	0xbcb23ee6	-0.021758508
218	0xbd1b2054	-0.037872627
219	0xbc87ff10	-0.016601115
220	0xbe87b719	-0.2650688
221	0xbc8c8125	-0.017151425
222	0xbd3d5438	-0.046222895
223	0xbec33509	-0.381264
224	0x3e422564	0.18959576
225	0xbddc0d53	-0.10744729
226	0xbd8f3222	-0.06991984
227	0xbd7e244d	-0.062046338
228	0x3bb71030	0.0055866465
229	0x3d04f2bc	0.032458052
230	0xbcf5379c	-0.029933743
231	0xb9ff5a22	-0.00048704544
232	0xbd8fc38c	-0.070197195
233	0xbc7b1ebd	-0.015327153
234	0xbc9facf6	-0.019491654
235	0xbd8d3b5b	-0.06896087
236	0xbca33946	-0.019924771
237	0x3e39cea5	0.18145235
238	0xba4ea40b	-0.00078827207
239	0xbcb065f3	-0.021532988
240	0x3e83b1cd	0.2572159
241	0xbd7ef6e4	-0.062247172
242	0xbda9cb12	-0.08290686
243	0xbcb2acf3	-0.021810984
244	0x3eaaa136	0.3332612
245	0xbd1a5821	-0.037681703
246	0x3e90a1de	0.28248495
247	0x3ee1dcfc	0.4411391
248	0x3a7a3089	0.00095439755
249	0xbd57fe0a	-0.052732505
250	0xbbf17a48	-0.0073693134
251	0xbbed5d61	-0.0072437976
252	0xbba3ceed	-0.0049990327
253	0x3e40cda6	0.18828449
254	0xbd6fcf96	-0.05854758
255	0xbd12a074	-0.03579755

net.4.weight f4 [4, 256]
0	0x3f4f3b88	0.8095021
1	0xbd06700e	-0.032821707
2	0x3c9f46b4	0.019442894
3	0x3d536e2a	0.051618733
4	0x3d4701c5	0.048585672
5	0x3c86c7ad	0.016452635
6	0xbb3ce51b	-0.002882308
7	0x3c102d38	0.0087998435
8	0xbc02a0db	-0.007972921
9	0xbd1374e7	-0.03600016
10	0xbcf69b71	-0.030103417
11	0x3c085626	0.008321321
12	0xbc98ee35	-0.018668273
13	0x3ea3017e	0.31837076
14	0xc019d2c0	-2.4034882
15	0x3e852092	0.26001412
16	0xbd3237d1	-0.043510262
17	0x3fcd74cf	1.6051272
18	0xbd24c9e7	-0.04023161
19	0xbced8fea	-0.028999288
20	0x3d73a701	0.05948544
21	0xbf6af7d9	-0.91784436
22	0xbb57beda	-0.0032920153
23	0x3c9f97b7	0.019481523
24	0x3fcdffcf	1.6093692
25	0x3b832564	0.00400226
26	0x3faac2b3	1.3340667
27	0x3d046fa0	0.032333016
28	0xbb564c5b	-0.003269932
29	0x3d7d490d	0.061837245
30	0xbd54614e	-0.05185061
31	0xbf557ef3	-0.83396834
32	0x3cec7ade	0.028867181
33	0x3f683163	0.9070036
34	0xbeb29e7a	-0.34886533
35	0x3e2ca259	0.16858806
36	0x3ca6bc9b	0.020353606
37	0xbc09d966	-0.008413648
38	0x3d1a12ae	0.03761547
39	0xbd207308	-0.039172202
40	0xbd2a540f	-0.04158407
41	0x3d08c928	0.033394963
42	0xbc9085c2	-0.017641906
43	0x3a8387d8	0.0010034991
44	0x3c2919f5	0.01032113
45	0xbb22d1de	-0.002484433
46	0x3c7d4bf1	0.01546
47	0x3d004dc6	0.03132417
48	0xbeb90a53	-0.3614069
49	0x3d570987	0.05249932
50	0x3d22df5d	0.039763797
51	0xbd5a0317	-0.053225603
52	0x3c63a194	0.013893504
53	0xbd12f010	-0.035873473
54	0x3f898a23	1.0745281
55	0x3d5d7e85	0.054075737
56	0xbd52b93c	-0.051446185
57	0xbb17c6d7	-0.002315929
58	0x3b85a464	0.004078435
59	0xbcf11e3f	-0.029433368
60	0x3b1f5573	0.0024312406
61	0x3d1f0a9c	0.038828477
62	0x3d10a2f8	0.03531167
63	0xbba04d24	-0.0048920084
64	0x3de734d5	0.11289374
65	0x3eeadc6a	0.45871288
66	0x3c9de104	0.019272335
67	0x3cd37611	0.025813134
68	0xbf6170fb	-0.8806302
69	0xbdf9002a	-0.121582344
70	0x3d92699d	0.071490504
71	0x3f370b89	0.71501976
72	0x3d3c97bc	0.046043143
73	0xbc3d0126	-0.011535918
74	0xbd406776	-0.046973668
75	0xbbae01c0	-0.005310267
76	0xbd0727f0	-0.03299707
77	0x3d0b0b7d	0.033946503
78	0xbd3106e1	-0.04321945
79	0xbd8a85df	-0.06763815
80	0xbbe82051	-0.0070839305
81	0x3d0cf0a1	0.03440917
82	0x3bb4f9e7	0.0055229547
83	0x3c710cde	0.01471254
84	0x3c8d229a	0.017228413
85	0xbf34b413	-0.7058727
86	0x3bbfe503	0.0058561577
87	0x3d47437f	0.048648354
88	0x3cbdc962	0.023167316
89	0xbcd5cbe1	-0.026098194
90	0x3d23ba7b	0.039972764
91	0x3ca6b04c	0.020347737
92	0x3ffb15c9	1.9616023
93	0xbbc907e7	-0.0061349752
94	0xbcdfbf25	-0.027312825
95	0x3fc0d50f	1.506502
96	0x3a17997e	0.0005783065
97	0x3bebbb41	0.0071939533
98	0x3c106756	0.0088137
99	0xbf7383d8	-0.9512305
100	0xbcbf05bc	-0.023318164
101	0x3d3769ee	0.044778757
102	0xbd930556	-0.07178752
103	0xbe74878d	-0.23879834
104	0x3c949908	0.018139377
105	0xbccc1e58	-0.024916813
106	0x3d829110	0.06375325
107	0xbb830e3a	-0.0039994987
108	0x3d11eaf3	0.035624456
109	0xbd226457	-0.039646473
110	0xbd61c93b	-0.05512355
111	0xbcdd7515	-0.027033368
112	0xbc46863f	-0.012116968
113	0xbc33ad6b	-0.010966639
114	0xba3f8bb2	-0.0007306888
115	0xbefc2774	-0.4924885
116	0x3a2ce99b	0.0006596089
117	0xbc9567e0	-0.018238008
118	0x3b6db637	0.0036271939
119	0x3b4240cb	0.002964067
120	0xbd35623e	-0.044283144
121	0x3ef9a5e1	0.48759368
122	0xbd0f8570	-0.035039365
123	0x3cabbc8b	0.020963928
124	0x3d0da0ac	0.034577057
125	0x3f943782	1.157944
126	0x3d58b8f2	0.052910753
127	0x3d1a18ee	0.03762143
128	0x3d20b7ff	0.039237972
129	0xbcfbeb76	-0.030751925
130	0xbc9b25d8	-0.018938944
131	0xbe2caae0	-0.16862059
132	0xbd699034	-0.05702229
133	0xbd4e7b22	-0.050410397
134	0xbbea32c6	-0.007147166
135	0x3bec71a9	0.007215698
136	0xbba947a7	-0.0051660123
137	0x3ea56f99	0.32311705
138	0xbc803d17	-0.01565413
139	0xbe2c5b3a	-0.16831675
140	0x3d171da6	0.03689351
141	0xbbc1c0f4	-0.0059128944
142	0xbb25a0e2	-0.0025272896
143	0x3cb50e6c	0.022101603
144	0x3d614d70	0.05500549
145	0x3d4cd872	0.050011106
146	0xbaaf07cf	-0.0013353768
147	0x3cb964a8	0.022631004
148	0x3d1121df	0.035432693
149	0x3f41cbd3	0.75701636
150	0x3e2b188b	0.16708581
151	0x3c80068e	0.015628126
152	0xbd902ff7	-0.070403986
153	0x3cece30a	0.028916854
154	0x3cd1dae6	0.025617074
155	0xbcf23c7b	-0.029569855
156	0xbd33e77c	-0.043921933
157	0x3edec779	0.4351156
158	0xbd4cdfa4	-0.050017968
159	0xbed60586	-0.4180109
160	0x3b8af25b	0.004240317
161	0x3c97f639	0.018550025
162	0x3ca72096	0.02040128
163	0xbd2cf903	-0.042229664
164	0xbf82275d	-1.0168263
165	0x3d15cc8f	0.036572035
166	0x3a5ded80	0.0008465871
167	0xbbd4d727	-0.0064953747
168	0x3cc24a31	0.023717018
169	0x3ca7a525	0.02046449
170	0x3c91cea2	0.017798726
171	0x3d579848	0.05263546
172	0x3ca4528f	0.020058898
173	0xbc0ad8d1	-0.008474545
174	0x3de94bb6	0.11391394
175	0xbf7b2332	-0.9810058
176	0xbb439571	-0.0029843713
177	0x3e89d3f6	0.26919526
178	0xbcb565cb	-0.022143265
179	0xbda9c854	-0.08290163
180	0x3bfbc756	0.007683675
181	0xbd20d4dd	-0.039265502
182	0xbcfa2924	-0.030537196
183	0x3cb6a0d8	0.022293493
184	0xbca461ab	-0.020066103
185	0xbd2e13ce	-0.042499356
186	0xbb3df260	-0.0028983578
187	0xbe8ff6ae	-0.2811789
188	0x3d4af6b2	0.049551673
189	0x3f26799f	0.6502933
190	0x3a01550b	0.0004933632
191	0xbc518094	-0.012787003
192	0xbee12ea5	-0.439809
193	0xbc16590c	-0.009176504
194	0x3cea5273	0.028603768
195	0x3c8cefc4	0.017204173
196	0xbc1c8c5f	-0.009554951
197	0x3d194840	0.03742242
198	0x3b53932a	0.0032283762
199	0x3c1cc509	0.009568461
200	0x3d049bfb	0.032375317
201	0xbd1565ab	-0.03647391
202	0x3d393a28	0.045221478
203	0xbc18deeb	-0.009330492
204	0xbce512c9	-0.027963059
205	0xbc9c139d	-0.019052321
206	0x3cb044f4	0.021517254
207	0x3c89ab13	0.016805207
208	0xbcd90aeb	-0.026494464
209	0xbd58d4cf	-0.052937325
210	0xbd879a6c	-0.066212505
211	0xbb945536	-0.0045267595
212	0x3fa18550	1.2618809
213	0xbe966c0d	-0.2937931
214	0xbd192f6f	-0.03739875
215	0xbfae0a62	-1.3596919
216	0xbd69e151	-0.057099644
217	0xbcc71b21	-0.024304928
218	0xbc4d1e1c	-0.012519386
219	0xbd0126a4	-0.03153099
220	0x3e14281d	0.14468427
221	0x3d2c090c	0.042000815
222	0xbb9dc526	-0.0048147617
223	0x3ecca5ad	0.3997015
224	0xbf7f045c	-0.99616027
225	0xbcf8fe61	-0.030394735
226	0x3f35bdc5	0.7099269
227	0x3d076a72	0.0330605
228	0xbd03d673	-0.032186937
229	0xbf9365d1	-1.1515447
230	0xbd0722c6	-0.032992147
231	0x3cacf0de	0.021110948
232	0x3cf6b3db	0.030115059
233	0x3d0d8420	0.034549832
234	0xbc824614	-0.015902556
235	0x3c7540d2	0.014969068
236	0xbc5aa664	-0.013345335
237	0x3ccca55a	0.02498119
238	0x3d14c55c	0.03632103
239	0x3d11769e	0.035513513
240	0xbf989d46	-1.1922996
241	0x3d2ee1b4	0.042695716
242	0x3ecdd9df	0.40205285
243	0xbd2e4eb5	-0.04255553
244	0x3ec6a614	0.38798583
245	0xbcebcec0	-0.02878511
246	0x3f125c59	0.5717216
247	0x3f213d54	0.62984204
248	0xbcec0a5d	-0.028813535
249	0x3c200a3d	0.009768066
250	0x3cc494a4	0.023996659
251	0xbcf63897	-0.030056281
252	0x3d383181	0.044969086
253	0xbec7d99f	-0.3903322
254	0x3d388707	0.045050647
255	0x3d5df38c	0.054187343

net.4.bias f4 [4]
0	0x3b6242d6	0.00345247
1	0x3e8499a2	0.25898463
2	0xbf73f4a4	-0.95295167
3	0xbef5365f	-0.47893044
