logs/PointMaze-Right/airl_sac/seed0-20231226-1522/model/step1345000/disc.pth (torch, 90839 bytes, 10 tensors)

g.0.weight f4 [100, 6]
0.53295016 0.44129083 -0.33435595 -0.6490901 0.117969394 -0.1911363 -0.44245082 0.11286289
0.29091433 -0.2509147 0.16604389 0.33874533 -1.2779611 -0.08046993 -0.25612202 0.25476903
0.09740216 0.20235598 -0.07012828 -0.18997525 -0.2243558 0.24330875 0.34028077 0.3528185
-0.3042163 -0.061612263 -0.02810071 -0.19149959 -0.2506593 0.3359678 0.008262244 -0.39510506
-0.13709919 -0.21457617 0.020008314 0.0016859706 0.018724917 -0.32689115 -0.1331595 -0.27340424
-0.12182866 0.13343228 -0.12609896 -0.440837 0.040966216 0.025451392 0.116084665 -0.31152087
0.16910407 0.25290444 0.25647485 0.23228958 -0.14990684 -0.110614814 0.14172672 -0.524
0.23664865 -0.1607132 -0.21500659 -0.004105888 0.5867895 0.45116884 0.28578284 -0.1670353
0.3125376 -0.08347479 0.3969202 0.5043785 0.07560826 -0.3835636 0.3014778 -0.15151338
-0.13432936 -0.30665123 0.30097106 -0.10658533 0.33454493 0.048727095 0.40307927 -0.5259603
-0.352353 -0.48249063 -0.15793858 0.14585 -0.17352663 0.09576471 0.26151153 0.27180597
-0.07007541 0.25022766 0.65411276 0.18129237 -0.24222729 -0.3001764 -0.0443796 0.016200608
-0.38634384 -0.30843475 0.25170553 0.24991678 -0.2923082 0.31349245 0.2787795 0.32884383
0.0372722 0.12517253 -0.1695983 0.36071077 -0.5401337 -0.5477692 0.32271504 0.38076386
0.25803524 0.25188634 0.20482469 -0.5655767 0.36091343 0.52415144 0.47767368 0.04992362
0.06314965 0.06961653 -0.13606638 0.1975216 0.051988512 0.2853315 0.52162474 0.054556254
-0.3889795 0.38657993 -0.1438992 0.31694484 0.41820055 0.40634334 -0.024260787 -0.22580148
0.20250589 -0.11120573 0.14963709 -0.4859621 -0.09785311 0.09059187 -0.12867908 0.18153386
0.38284716 -0.18587165 0.13337958 -0.13180949 -0.052240413 -0.07659201 -0.11566853 0.40930003
-0.23972178 0.3662615 0.22194673 0.3806506 -1.2505441 -0.09301899 0.24295895 0.2449505
-0.42810583 0.14495522 0.05432197 -0.38537583 -0.085280046 0.38400528 0.4644682 -0.028504305
-0.73298174 0.076871626 -0.25590575 0.078801244 -0.27160573 0.2853666 -0.27267897 -0.39173302
-0.18654977 -0.3710537 -0.03269585 -0.09780703 0.6733578 0.51927876 0.40751252 -0.23217863
0.14655818 0.27205607 0.13575761 -0.2234246 0.30071938 0.40905452 -0.23237665 0.06660112
0.35083485 0.07052507 -0.1806743 -0.37813425 0.034719698 0.1300144 -0.015576977 -0.124050245
0.12822106 0.59260225 -0.12542532 0.17702638 0.46160614 -0.07741264 0.35175315 -0.52642214
0.4298628 0.08766949 0.12526183 -0.30601525 -0.2912675 -0.029055215 -0.13016152 -0.058905505
-0.019766245 0.064271085 -0.22063312 0.18862912 -0.15372053 -0.102332324 0.09270853 -0.45988157
-0.059540704 0.3734151 0.42029393 -0.32113814 -0.37646696 -0.3998904 -0.009386354 -0.2767339
0.061094593 0.40544826 0.04034304 -0.32599208 0.3950118 -0.1585884 -0.354551 0.019009376
-0.04403915 -0.18538104 -0.2960598 0.019190611 -0.22142415 0.3482537 0.5538014 0.45675528
0.20643272 0.0440739 0.22314854 0.21911407 0.16749366 0.02264659 0.29246658 -0.15881494
00000000: 6c6f 083f dff0 e13e b430 abbe c52a 26bf
00000010: f099 f13d 3cb9 43be ea88 e2be a924 e73d
00000020: b9f2 943e e477 80be 6907 2a3e 0770 ad3e
00000030: 3b94 a3bf 6bcd a4bd 6d22 83be 1671 823e
00000040: c97a c73d 6836 4f3e 6a9f 8fbd df88 42be
00000050: 87bd 65be ee25 793e 4839 ae3e a0a4 b43e
00000060: 3dc2 9bbe 245d 7cbd 7633 e6bc 7818 44be
00000070: 6a56 80be f903 ac3e 5d5e 073c 364b cabe
00000080: bb63 0cbe dbb9 5bbe 7ae8 a33c c9fb dc3a
00000090: ff64 993c 475e a7be f75a 08be a4fb 8bbe
000000a0: 4e81 f9bd 79a2 083e 1620 01be 63b5 e1be
000000b0: 31cc 273d 707f d03c ccbd ed3d aa7f 9fbe
000000c0: 9e29 2d3e b17c 813e ac50 833e 52dd 6d3e
000000d0: 2e81 19be 058a e2bd cf20 113e dd24 06bf
000000e0: 0654 723e 0092 24be b02a 5cbe af8a 86bb
000000f0: d637 163f 9aff e63e 2152 923e 4d0b 2bbe
00000100: ee04 a03e d5f4 aabd 2039 cb3e f31e 013f
00000110: 81d8 9a3d 7362 c4be 4c5b 9a3e 5326 1bbe
00000120: a38d 09be 6401 9dbe e118 9a3e 6949 dabd
00000130: 7949 ab3e 1096 473d 6860 ce3e 56a5 06bf
00000140: 9d67 b4be 0309 f7be a7ba 21be b459 153e
00000150: f7b0 31be 4a20 c43d d7e4 853e 272a 8b3e
00000160: b283 8fbd d71d 803e ef73 273f b5a4 393e
00000170: 6e0a 78be b9b0 99be 62c7 35bd 23b7 843c
00000180: dcce c5be 29eb 9dbe 8cdf 803e 2fea 7f3e
00000190: 6ca9 95be 1582 a03e 30bc 8e3e 385e a83e
000001a0: bcaa 183d 3a2d 003e 2dab 2dbe 15af b83e
000001b0: 3446 0abf 9a3a 0cbf e83a a53e 7bf3 c23e
000001c0: 321d 843e 3ff7 803e 90bd 513e a2c9 10bf
000001d0: a5c9 b83e ca2e 063f a591 f43e b67c 4c3d
000001e0: 9b54 813d 1c93 8e3d fc54 0bbe 1a43 4a3e
000001f0: e8f1 543d f816 923e 3389 053f 6176 5f3d
00000200: 5228 c7be ceed c53e 505a 13be 9846 a23e
00000210: 621e d63e 3c0c d03e 8fbe c6bc 8138 67be
00000220: b45d 4f3e d4bf e3bd 773a 193e 06d0 f8be
00000230: 3667 c8bd 3b88 b93d 73c4 03be 03e4 393e
00000240: 8b04 c43e 2355 3ebe a894 083e 11f9 06be
00000250: 0bfa 55bd 46dc 9cbd 9fe3 ecbd c68f d13e
00000260: a079 75be a186 bb3e 0146 633e a3e4 c23e
00000270: d411 a0bf bd80 bebd 3bca 783e 4ed4 7a3e
00000280: b030 dbbe 246f 143e b780 5e3d fb4f c5be
00000290: 4ea7 aebd 579c c43e c7ce ed3e dc81 e9bc
000002a0: b1a4 3bbf df6e 9d3d 1406 83be 8c62 a13d
000002b0: e80f 8bbe 921b 923e 949c 8bbe 3b91 c8be
000002c0: e706 3fbe c0fa bdbe 15ec 05bd 0d4f c8bd
000002d0: 2d61 2c3f 74ef 043f 7ba5 d03e 3cc0 6dbe
000002e0: 5913 163e ef4a 8b3e 0b04 0b3e 6bc9 64be
000002f0: e4f7 993e 986f d13e 25f4 6dbe 2b66 883d
00000300: a0a0 b33e 736f 903d af02 39be d09a c1be
00000310: 3e36 0e3d 7f22 053e 9436 7fbc 0e0e febd
00000320: 624c 033e c8b4 173f 7f6f 00be 6746 353e
00000330: a457 ec3e 858a 9ebd fd18 b43e 9ac3 06bf
00000340: fa16 dc3e 108c b33d a344 003e 08ae 9cbe
00000350: 0421 95be 3405 eebc 1049 05be e646 71bd
00000360: d2ec a1bc 8fa0 833d a6ed 61be fe27 413e
00000370: ea68 1dbe 9c93 d1bd f8dd bd3d 9975 ebbe
00000380: f4e0 73bd 4430 bf3e c430 d73e 386c a4be
00000390: 47c0 c0be 6fbe ccbe 39c9 19bc 11b0 8dbe
000003a0: 533e 7a3d ea96 cf3e be3e 253d 6fe8 a6be
000003b0: fd3e ca3e ff64 22be b587 b5be 8db9 9b3c
000003c0: 6562 34bd 87d4 3dbe 2695 97be a135 9d3c
000003d0: 03bd 62be 4f4e b23e eec5 0d3f d4db e93e
000003e0: 1963 533e d586 343d 0d81 643e 705f 603e
000003f0: 7583 2b3e 5785 b93c 2ebe 953e 62a0 22be

g.0.bias f4 [100]
0.10490301 0.12296372 -0.04676793 0.17325482 0.05971284 -0.17043054 -0.38416755 0.317744
-0.39580488 0.3946371 -0.28121343 -0.14014234 -0.36567414 0.3769016 -0.40226007 0.08524045
-0.28873175 0.013800174 0.15080056 -0.16463438 -0.24711332 -0.26443553 -0.10720476 0.3523239
-0.3860784 0.28128132 0.22451064 -0.0074727186 0.2747171 -0.15846479 0.15895513 0.3511955
-0.26209715 0.23915666 0.02489339 -0.23579045 -0.2465731 0.26640084 -0.38760537 -0.051183026
0.06729024 -0.2783167 0.2296247 0.19808643 0.12736401 0.10390421 0.39544624 -0.28901646
-0.091730036 0.0045370045 -0.039157834 -0.17355208 -0.16526575 -0.20602183 0.16046175 -0.3866317
-0.29949725 0.33787745 0.06812192 -0.17085801 0.3293786 0.22147536 0.26568714 0.05947939
0.23574972 -0.3258629 -0.36612475 0.13634251 -0.32647267 0.28092405 0.29928565 -0.300814
0.3738738 0.22679147 0.3028567 -0.3008232 0.10864997 0.21228157 0.05973416 0.076689854
0.42371738 -0.0038593635 -0.36839968 0.22748175 0.0926319 -0.19339557 -0.40027446 0.13548696
0.33527917 -0.09825336 0.4471759 0.07005971 -0.39294958 0.26025927 0.13948898 -0.15220791
0.29831296 0.18142085 -0.3784695 -0.36522168
00000000: 64d7 d63d 67d4 fb3d bb8f 3fbd b669 313e
00000010: 7395 743d 5885 2ebe 9cb1 c4be 57af a23e
00000020: f0a6 cabe e00d ca3e 35fb 8fbe 7981 0fbe
00000030: a439 bbbe 3ff9 c03e 08f5 cdbe 8c92 ae3d
00000040: a6d4 93be 201a 623c 766b 1a3e ea95 28be
00000050: 460b 7dbe 1864 87be 2b8e dbbd cc63 b43e
00000060: 11ac c5be 1b04 903e 1ee6 653e b5dd f4bb
00000070: b8a7 8c3e 9844 22be 22c5 223e e6cf b33e
00000080: 9931 86be 7ce5 743e 39ed cb3c 0d73 71be
00000090: a97d 7cbe b165 883e 3674 c6be 4ba5 51bd
000000a0: 77cf 893d 877f 8ebe bd22 6b3e 2bd7 4a3e
000000b0: b66b 023e bbcb d43d ee77 ca3e f7f9 93be
000000c0: f5dc bbbd 27ab 943b f763 20bd a3b7 31be
000000d0: 6d3b 29be 63f7 52be 1650 243e 97f4 c5be
000000e0: b457 99be 46fe ac3e 8183 8b3d 67f5 2ebe
000000f0: 50a4 a83e 70ca 623e 2508 883e a9a0 733d
00000100: 6068 713e 81d7 a6be b474 bbbe 5f9d 0b3e
00000110: 6d27 a7be 47d5 8f3e f83b 993e 4b04 9abe
00000120: 636c bf3e 063c 683e 0910 9b3e 8005 9abe
00000130: e083 de3d 5760 593e ceab 743d 920f 9d3d
00000140: 7cf1 d83e 60ed 7cbb e29e bcbe faf0 683e
00000150: cbb5 bd3d 7d09 46be c6f0 ccbe 18bd 0a3e
00000160: b6a9 ab3e 0f39 c9bd 3df4 e43e 777b 8f3d
00000170: b030 c9be b440 853e 33d6 0e3e 64dc 1bbe
00000180: 7abc 983e 63c6 393e c1c6 c1be 56fe babe

g.2.weight f4 [100, 100]
0.097687796 -0.008987558 -0.9277298 -0.06669437 -0.07149255 0.022653151 -0.006581676 0.1280443
-0.02721051 -1.1412649 0.005091345 0.034400254 0.052782416 -1.1643535 -0.054968536 0.12362038
0.009622824 -0.0077787167 -2.7290742 0.054632533 0.028711641 0.8968251 0.12729324 0.37178275
-0.09442425 0.048813507 -0.9076968 0.19251104 -0.4859075 0.0990531 0.041778367 0.053741146
0.014657967 -0.027524475 0.09800653 0.0460845 0.030370547 0.06276857 0.0012924671 0.0046445727
-0.06954765 0.027644018 0.091959566 -2.2427673 -0.766065 0.07502931 0.1055172 -0.07847567
-1.4665792 0.14648616 0.005753195 -0.05506766 0.033892654 -0.074379995 -0.913243 0.06061042
0.050179243 0.0012365964 0.11208478 -0.5785145 -1.0432359 0.099800706 0.07231004 0.12215194
0.2248906 -1.0320122 0.07358048 -0.12646882 -0.09220963 0.17509918 -1.0680993 -0.051514067
0.16102092 -0.5041259 -0.0142117655 0.03356695 -1.2752941 0.23524618 -0.20406479 -0.048224285
0.08790268 -0.038996425 0.074767925 0.015506978 -0.06605173 -0.08800154 -0.063314416 0.0072356327
-0.0023489299 -0.23009805 0.050049026 -0.76640815 -0.034357917 -0.00061329256 0.0685797 -0.07454126
-1.6266835 -1.1051255 -0.0697541 -0.06565926 0.079253145 -0.037289243 -0.7822876 0.010757107
0.09381821 0.052920796 -0.036190808 0.13925147 -0.068667606 -1.1027098 0.070128545 -0.109856
0.09621171 -0.8270887 0.026288152 -0.032547515 -0.022985065 -0.14647314 -2.624699 0.12325388
-0.074225366 0.7079094 0.05392602 0.17982638 -0.034396853 0.010815778 -0.76608014 0.08700698
-0.36981854 0.051393893 0.06989867 -0.077651836 0.07160838 0.053128805 0.19466466 -0.04396924
-0.05470146 0.009992289 -0.08276105 -0.090340674 0.06741613 0.045238007 0.06073198 -1.8639643
-0.9643332 -0.01374831 -0.019008491 0.078498445 -1.6669728 0.09345902 -0.08318297 0.09765309
-0.038626052 -0.021678722 -0.67901003 0.032498047 -0.022512376 0.20572641 0.15436627 -0.61745566
-0.87053233 0.15497787 0.20499797 0.036105614 0.18796383 -1.1237695 0.01538477 0.018650148
-0.00078650715 0.30536342 -0.74782616 -0.09191277 0.11109701 -0.6168272 0.05652519 0.021605564
-1.1838596 0.396339 -0.18903658 -0.17172657 0.1028793 0.07245076 -0.06467054 0.040851466
0.053216413 0.07809281 -0.02313136 -0.014568104 0.073842265 -0.25355014 0.14891498 -0.44145998
-0.005942929 -0.050151054 0.0797697 0.005967164 -1.4844375 -1.0066288 0.027375354 0.062499594
-0.091713354 0.06599604 -0.098844014 -0.011972753 0.045182467 -0.06694044 0.0871379 0.054640744
-0.017187823 -0.049118433 -0.051871788 0.006393172 -0.011912095 -0.014737349 0.025500715 0.0105610285
-0.0395859 -0.059052475 -0.100057356 -0.011212555 -0.03607316 0.041033458 0.047105886 -0.06390121
0.05962503 0.010165349 -0.10268317 -0.02982373 -0.07052204 -0.06849412 -0.021697728 0.016204787
-0.004781437 -0.008114443 -0.09842749 0.09772402 -0.018326664 0.0744945 0.09224719 -0.04632268
0.08158811 -0.043658104 -0.029144835 0.0034377603 -0.09071948 -0.03196894 0.0014524887 0.03347695
0.056701876 -0.071096934 0.077680945 0.0037819028 -0.07703829 0.0051576137 0.037381604 -0.055026878
00000000: 8a10 c83d 8d40 13bc b37f 6dbf 0f97 88bd
00000010: b06a 92bd 1a93 b93c 1aab d7bb 0c1e 033e
00000020: 93e8 debc f814 92bf 4cd5 a63b 48e7 0c3d
00000030: 6032 583d 8909 95bf b026 61bd af2c fd3d
00000040: 0da9 1d3c 9be4 febb 27a9 2ec0 5dc6 5f3d
00000050: ad34 eb3c 5496 653f 2959 023e 4f5a be3e
00000060: 8061 c1bd acf0 473d d15e 68bf 9d21 453e
00000070: dec8 f8be 5adc ca3d cb1f 2b3d ad1f 5c3d
00000080: f827 703c 027b e1bc a6b7 c83d 1ac3 3c3d
00000090: a7cb f83c cf8c 803d 0068 a93a 8031 983b
000000a0: 006f 8ebd b575 e23c 4c55 bc3d 8089 0fc0
000000b0: d61c 44bf f8a8 993d 6719 d83d dab7 a0bd
000000c0: deb8 bbbf 7800 163e 4c85 bc3b a08e 61bd
000000d0: 06d3 0a3d 8a54 98bd 4bca 69bf a242 783d
000000e0: c088 4d3d 4a15 a23a b58c e53d 8719 14bf
000000f0: c188 85bf 5064 cc3d 4917 943d cc2a fa3d
00000100: b949 663e fa18 84bf 5db1 963d 0b81 01be
00000110: 67d8 bcbd 334d 333e 7ab7 88bf 6a00 53bd
00000120: abe2 243e 650e 01bf 77d8 68bc 807d 093d
00000130: d63c a3bf 60e4 703e 5cf6 50be d486 45bd
00000140: 5206 b43d b7ba 1fbd ed1f 993d fb10 7e3c
00000150: 2146 87bd 273a b4bd fdaa 81bd e318 ed3b
00000160: 81f0 19bb d39e 6bbe 3500 4d3d 5333 44bf
00000170: e3ba 0cbd 5ec5 20ba 8473 8c3d 17a9 98bd
00000180: 2a37 d0bf c174 8dbf 3ddb 8ebd 5d78 86bd
00000190: 794f a23d 9bbc 18bd 0044 48bf 943e 303c
000001a0: c323 c03d 7ac3 583d d03c 14bd f097 0e3e
000001b0: 9aa1 8cbd 9825 8dbf 8e9f 8f3d 2ffc e0bd
000001c0: a50a c53d 16bc 53bf 405a d73c 8b50 05bd
000001d0: 2d4b bcbc 0efd 15be 12fb 27c0 886c fc3d
000001e0: 7803 98bd 8d39 353f 88e1 5c3d 6824 383e
000001f0: b7e3 0cbd a934 313c d41d 44bf b730 b23d
00000200: db58 bdbe 6782 523d 0927 8f3d ed07 9fbd
00000210: 6aa7 923d 979d 593d 2c56 473e 1719 34bd
00000220: a30e 60bd b3b6 233c a07e a9bd 8804 b9bd
00000230: 7811 8a3d 7d4b 393d 19c2 783d 6296 eebf
00000240: 8ade 76bf 9740 61bc b2b7 9bbc cbc3 a03d
00000250: 5d5f d5bf 7167 bf3d d55b aabd 58fe c73d
00000260: 5a36 1ebd 9397 b1bc 9ad3 2dbf ac1c 053d
00000270: e06b b8bc f2a9 523e 3112 1e3e 9311 1ebf
00000280: 35db 5ebf 85b2 1e3e fdea 513e 7be3 133d
00000290: 9779 403e aed7 8fbf 6710 7c3c 32c8 983c
000002a0: 9a2d 4eba 9858 9c3e 8971 3fbf c33c bcbd
000002b0: d486 e33d 63e8 1dbf f586 673d 27fe b03c
000002c0: b688 97bf f2ec ca3e ce92 41be 17d9 2fbe
000002d0: 62b2 d23d 1061 943d fd71 84bd de53 273d
000002e0: 74f9 593d 20ef 9f3d fa7d bdbc 0faf 6ebc
000002f0: 9d3a 973d 53d1 81be 2b7d 183e 0b07 e2be
00000300: e7bc c2bb 316b 4dbd 4c5e a33d 3388 c33b
00000310: 0c02 bebf 36d9 80bf 4742 e03c 93ff 7f3d
00000320: 36d4 bbbd ef28 873d bb6e cabd 5e29 44bc
00000330: 4011 393d 1218 89bd 5b75 b23d f9ce 5f3d
00000340: 7acd 8cbc 6930 49bd 8377 54bd d07d d13b
00000350: f32a 43bc ec74 71bc e0e6 d03c 2a08 2d3c
00000360: d324 22bd 02e1 71bd dfea ccbd ddb4 37bc
00000370: 73c1 13bd b312 283d 1af2 403d a3de 82bd
00000380: 6039 743d 908c 263c 8e4b d2bd e550 f4bc
00000390: dc6d 90bd a546 8cbd 6fbf b1bc e7bf 843c
000003a0: 9aad 9cbb 71f2 04bc 5a94 c9bd 8823 c83d
000003b0: cd21 96bc 9390 983d 18ec bc3d dabc 3dbd
000003c0: ab17 a73d d7d2 32bd 26c1 eebc 0c4c 613b
000003d0: 22cb b9bd ddf1 02bd 6f61 be3a 201f 093d
000003e0: 3a40 683d 459b 91bd 3017 9f3d cdd9 773b
000003f0: 40c6 9dbd 3301 a93b 741d 193d dd63 61bd

g.2.bias f4 [100]
0.08522304 0.016638076 0.061889555 -0.0391071 0.016185228 0.021776492 -0.029264122 0.112299666
-0.07311344 -0.006257782 0.011141622 0.01799253 0.005892566 0.013673472 -0.038059447 0.07128377
-0.04966976 -0.07174567 -0.07564572 0.07767508 -0.08642792 0.038354676 0.01418903 0.08531009
-0.085484795 -0.10464725 0.07408588 -0.09944203 0.054266695 0.120776944 -0.10271024 0.022124013
-0.044746924 -0.054479744 -0.0813424 0.00511834 -0.037330844 0.07173163 0.020493228 -0.034756746
0.030995263 -0.07760531 -0.07007657 0.0011811343 -0.03357361 -0.08420462 -0.097602755 -0.03813648
-0.07069224 -0.06476171 -0.013545742 -0.024707923 0.033486743 0.12770596 -0.06623835 -0.046469707
-0.02240994 0.039063632 -0.012503159 -0.011654192 0.0059131635 0.011789549 -0.06446255 0.038645275
-0.06402972 -0.008357561 0.021545576 -0.17177545 -0.02478114 -0.04709416 -0.025813289 -0.0036065222
-0.021000266 0.033218134 0.037767287 -0.07940185 0.06035274 0.046233144 -0.005211377 -0.028085584
-0.08951253 -0.12916459 -0.069157675 0.04579735 -0.05726742 0.007212875 -0.0392379 -0.053402998
-0.08321619 0.011607087 0.049541112 -0.042681076 -0.0095374705 -0.011475155 0.031555027 -0.019994121
0.02596077 0.04780311 0.011606811 -0.004948871
00000000: 6b89 ae3d 934c 883c e77f 7d3d c42e 20bd
00000010: e296 843c 9d64 b23c 50bb efbc 5efd e53d
00000020: 80bc 95bd 150e cdbb 5a8b 363c 1265 933c
00000030: 6d16 c13b b306 603c 39e4 1bbd 3afd 913d
00000040: 8572 4bbd 65ef 92bd 25ec 9abd 1d14 9f3d
00000050: 1f01 b1bd cb19 1d3d 1b79 683c 0eb7 ae3d
00000060: a712 afbd 4c51 d6bd 56ba 973d 43a8 cbbd
00000070: c146 5e3d e759 f73d bf59 d2bd 6b3d b53c
00000080: 8d48 37bd 2726 5fbd d896 a6bd bfb7 a73b
00000090: 3ae8 18bd 08e8 923d 6ae1 a73c 175d 0ebd
000000a0: c7e9 fd3c 88ef 9ebd 4e84 8fbd 4ad0 9a3a
000000b0: 7b84 09bd 7973 acbd f4e3 c7bd ff34 1cbd
000000c0: 18c7 90bd caa1 84bd f6ee 5dbc 4568 cabc
000000d0: 6529 093d 5ac5 023e f9a7 87bd 0557 3ebd
000000e0: 0d95 b7bc 3001 203d 0dda 4cbc 39f1 3ebc
000000f0: 36c3 c13b f428 413c f104 84bd 824a 1e3d
00000100: 0422 83bd 27ee 08bc 5980 b03c e7e5 2fbe
00000110: d101 cbbc cee5 40bd 6476 d3bc 675b 6cbb
00000120: c008 acbc bd0f 083d dfb1 1a3d 709d a2bd
00000130: 6f34 773d f75e 3d3d 33c4 aabb bd13 e6bc
00000140: 5852 b7bd b943 04be 8aa2 8dbd 0196 3b3d
00000150: 3e91 6abd fb59 ec3b ecb7 20bd 1abd 5abd
00000160: 406d aabd a72b 3e3c 9feb 4a3d 5ad2 2ebd
00000170: 0d43 1cbc 4a02 3cbc d83f 013d b6ca a3bc
00000180: aeab d43c 32cd 433d 7e2a 3e3c 242a a2bb

g.4.weight f4 [1, 100]
0.8676394 1.2218482 0.089554824 -0.8897653 0.013255816 -0.32622132 0.09273927 1.2745178
-0.039773893 -1.478201 -1.9445273 0.81814003 -1.153727 -0.07460979 -0.427635 0.036347244
-2.2012415 -1.2337167 0.00034205915 0.8182881 -0.09654546 -0.3601021 -0.4675478 0.021017602
0.0065490725 -0.8988118 0.04049637 -0.095411755 1.2780073 1.0680662 -1.0739017 0.8331468
0.024930669 -0.016903806 -0.4601041 1.2441614 0.9635555 1.0838716 -0.62458634 -0.0566746
0.07556255 0.083425395 1.2183869 1.2571999 -1.5972611 -0.27920765 0.062757745 -0.650241
-0.2282623 0.06274861 0.0013237995 0.04997162 -0.39017037 0.97985995 0.023183065 0.04526101
0.039558627 -0.3803072 -0.07835191 0.047105312 0.011514073 1.1677969 -0.38732538 -0.46262538
-1.5784094 -0.37068456 0.07930762 -2.201719 -0.4221211 0.9112511 1.0026973 0.08993665
0.086157195 -1.4816576 -1.199867 0.07357822 1.0183219 0.007970668 -0.03392116 -0.043194536
-0.049152054 -1.4502788 -0.08076348 0.0414624 0.048754547 -1.3119035 -0.2918535 -0.74370474
-0.7622608 -0.05334847 -0.5401541 -0.04122428 0.08683121 -0.36691812 -1.3389703 -0.45813867
-1.3832403 0.8962352 0.05371297 -0.3887853
00000000: 9e1d 5e3f 8665 9c3f 8568 b73d a9c7 63bf
00000010: ec2e 593c 7b06 a7be 16ee bd3d 6623 a33f
00000020: f3e9 22bd b135 bdbf 45e6 f8bf a071 513f
00000030: 54ad 93bf 05cd 98bd faf2 dabe d9e0 143d
00000040: 24e1 0cc0 6eea 9dbf 6756 b339 547b 513f
00000050: a0b9 c5bd 4d5f b8be 6d62 efbe 1b2d ac3c
00000060: 9a99 d63b 8818 66bf 86df 253d 3d67 c3bd
00000070: be95 a33f 65b6 883f 9c75 89bf 1c49 553f
00000080: 673b cc3c da79 8abc c492 ebbe ae40 9f3f
00000090: 93ab 763f 4ebc 8a3f e4e4 1fbf a023 68bd
000000a0: 8ac0 9a3d efda aa3d 1af4 9b3f edeb a03f
000000b0: 0d73 ccbf 4ef4 8ebe 2287 803d 3276 26bf
000000c0: 98bd 69be 5882 803d 5783 ad3a 0baf 4c3d
000000d0: 69c4 c7be 1ad8 7a3f 69ea bd3c 9c63 393d
000000e0: 3a08 223d a0b7 c2be f776 a0bd 80f1 403d
000000f0: 86a5 3c3c 5e7a 953f 834f c6be 3cdd ecbe
00000100: 5209 cabf 5eca bdbe 096c a23d f7e8 0cc0
00000110: 4220 d8be c147 693f 6358 803f b530 b83d
00000120: 2f73 b03d f5a6 bdbf 3e95 99bf 2eb0 963d
00000130: 5f58 823f 6897 023c eaf0 0abd c1ec 30bd
00000140: aa53 49bd bca2 b9bf 5367 a5bd 7ad4 293d
00000150: d9b2 473d 74ec a7bf d26d 95be 6f63 3ebf
00000160: 8623 43bf ed83 5abd 8a47 0abf cada 28bd
00000170: 90d4 b13d b1dc bbbe 6163 abbf 2791 eabe
00000180: 050e b1bf ac6f 653f 2202 5c3d de0e c7be

h.0.weight f4 [100, 6]
0.4294256 -0.11139197 -0.19648188 -0.5061767 0.32916465 0.1731168 0.6552708 0.3648042
-0.010876148 -0.33289465 0.35226193 -0.09446126 0.54472995 -0.45532516 -0.32755128 0.25628027
-0.26367208 -0.26672772 -0.030308055 0.20086624 -0.31947315 0.34570166 -0.011923382 -0.23466459
0.07962998 0.6779544 -0.010682988 0.1442748 0.00071341154 -0.07312171 0.08987529 -0.05723973
-0.13939813 0.5362336 0.36619613 0.18438472 -0.25961727 0.1780961 -0.033858113 0.26526275
-0.25699165 0.13928464 0.29269907 0.35904738 -0.16489238 -0.2926542 0.18829167 0.31312683
-0.074465655 -0.024609923 0.3870066 -0.3588068 0.29933167 0.13756533 0.4021902 0.26651987
0.13592695 -0.5689653 0.05931789 -0.27714762 0.32057783 0.31260917 0.055725504 0.15052584
-0.35227138 0.024363572 0.49948025 -0.7230062 -0.3492917 -0.19595295 0.20002446 0.31812808
0.41756102 0.07865726 -0.37358817 -0.41288695 0.02818303 0.16211417 0.8063554 0.10572343
0.038378254 -0.48559147 0.12442777 -0.19719471 -0.32991675 0.5134408 -0.26244265 -0.2114534
0.3916702 0.33038405 0.07420996 0.13138121 0.20699866 0.018058373 -0.3464497 0.022565959
0.7377075 0.43197408 0.17269073 -0.11006041 -0.22914296 -0.31673154 -0.24536319 0.091752745
-0.06681851 0.15771878 -0.04239885 0.3303892 0.68073493 0.31253445 0.0006174381 -0.38909325
0.07265728 0.16242613 -0.08295453 0.4183591 -0.09164861 0.2131665 -0.40786323 -0.23148985
0.021752734 -0.39858985 -0.15741669 -0.09055959 0.30190367 -0.2638674 0.28897983 -0.21292967
-0.24206455 -0.19171844 -0.38231567 -0.019923681 -0.22124447 -0.19232723 0.3485441 -0.16736534
0.38672718 -0.39319927 0.63490987 -0.2819475 0.051120196 -0.03181161 0.33319953 -0.012326376
-0.33749238 -0.35789433 -0.03305209 -0.06157776 -0.24994457 -0.3461889 0.15266995 -0.57896763
0.31088144 -0.1449907 0.33902973 0.18850039 -0.20337974 0.12750591 -0.17728908 -0.077509485
0.25567836 -0.08720438 0.073415905 -0.24191958 -0.35949776 0.13577905 -0.3229411 -0.012167234
0.1416808 -0.27606982 -0.19999652 0.3131822 -0.30354896 0.15324777 -0.6311442 -0.23544654
0.39163417 0.48395446 -0.019384496 0.33694762 0.6602296 0.2464486 -0.009103258 -0.6548579
0.20071271 0.18354498 0.25909653 -0.06095059 0.020294039 -0.21055326 -0.29199648 0.050269645
-0.73052365 0.07768179 0.33562648 0.3062723 0.2396031 -0.03375236 -0.55369073 0.40322578
0.29373088 0.040972847 -0.17070995 0.07633559 0.14094736 -0.04486356 0.077207506 -0.14085846
0.22170001 -0.36484626 -0.31329998 -0.25420293 -0.06763583 0.010214812 -0.23519905 0.05336866
-0.12916131 0.174844 0.37475735 -0.24100341 -0.20624876 -0.1806414 -0.16465162 0.34704888
0.34222087 -0.11446968 -0.2547791 -0.35908514 0.29718864 -0.35162407 -0.335599 -0.15517835
-0.35614738 0.012873003 -0.29085258 0.14640856 -0.03320904 -0.32559863 0.24195349 -0.13820209
-0.3551126 -0.20586999 0.20549423 0.33603778 0.048589025 0.21603812 0.26077402 -0.4809944
-0.049888775 -0.28336513 0.008500848 0.40190962 0.13761535 -0.104371905 -0.21771184 -0.3280325
00000000: acdd db3e 7921 e4bd 8c32 49be cc94 01bf
00000010: 4588 a83e 8845 313e d4bf 273f 9ec7 ba3e
00000020: df31 32bc 2b71 aabe ad5b b43e e874 c1bd
00000030: 6c73 0b3f 6120 e9be cdb4 a7be 2b37 833e
00000040: 0700 87be 8990 88be 9948 f8bc e1af 4d3e
00000050: fc91 a3be cfff b03e 4a5a 43bc ea4b 70be
00000060: 0b15 a33d 6b8e 2d3f b307 2fbc c6bc 133e
00000070: 3d04 3b3a d6c0 95bd 8910 b83d 3574 6abd
00000080: 62be 0ebe 9b46 093f 0f7e bb3e 59cf 3c3e
00000090: 8eec 84be d35e 363e ceae 0abd 85d0 873e
000000a0: 6994 83be a2a0 0e3e a7dc 953e 0fd5 b73e
000000b0: 8cd9 28be c5d6 95be 88cf 403e 2952 a03e
000000c0: 7381 98bd c09a c9bc bb25 c63e 86b5 b7be
000000d0: 0042 993e eddd 0c3e e0eb cd3e 4b75 883e
000000e0: 6f30 0b3e b6a7 11bf 51f7 723d 4be6 8dbe
000000f0: c722 a43e 4f0e a03e 6d40 643d 7223 1a3e
00000100: ea5c b4be 1d96 c73c e0bb ff3e ef16 39bf
00000110: 5dd6 b2be e4a7 48be 36d3 4c3e afe1 a23e
00000120: 8fca d53e 0f17 a13d f346 bfbe eb65 d3be
00000130: 19e0 e63c 4201 263e 4f6d 4e3f 8785 d83d
00000140: 8432 1d3d 729f f8be fdd3 fe3d 69ed 49be
00000150: d9ea a8be db70 033f e25e 86be 3d87 58be
00000160: ff88 c83e 1928 a93e 64fb 973d cc88 063e
00000170: 75f7 533e 27ef 933c db61 b1be 3fdc b83c
00000180: 66da 3c3f b52b dd3e d7d5 303e 5a67 e1bd
00000190: 74a4 6abe a32a a2be 7d40 7bbe dde8 bb3d
000001a0: 25d8 88bd 0881 213e 6baa 2dbd c628 a93e
000001b0: a544 2e3f 8404 a03e 92db 213a 3b37 c7be
000001c0: 57cd 943d 0953 263e 11e4 a9bd 2a33 d63e
000001d0: 44b2 bbbd 5248 5a3e 73d3 d0be ad0b 6dbe
000001e0: ca32 b23c f813 ccbe d731 21be 4e77 b9bd
000001f0: 1e93 9a3e a119 87be 2af5 933e 3c0a 5abe
00000200: c5df 77be d751 44be e1be c3be fd36 a3bc
00000210: e98d 62be 6ef1 44be 5f74 b23e d261 2bbe
00000220: 1b01 c63e 6a51 c9be 7489 223f 6c5b 90be
00000230: 6963 513d e44c 02bd 2199 aa3e 91f4 49bc
00000240: cdcb acbe ed3d b7be a161 07bd f638 7cbd
00000250: 78f1 7fbe ac3f b1be 8355 1c3e 3937 14bf
00000260: da2b 9f3e 7178 14be 4e95 ad3e 3f06 413e
00000270: c742 50be e990 023e 458b 35be 4bbd 9ebd
00000280: 46e8 823e 3698 b2bd 145b 963d c4b9 77be
00000290: 1710 b8be aa09 0b3e 8958 a5be 1459 47bc
000002a0: c614 113e 0659 8dbe e3cb 4cbe 6b59 a03e
000002b0: c56a 9bbe fcec 1c3e ab92 21bf e618 71be
000002c0: 4684 c83e e1c8 f73e 3ccc 9ebc 6684 ac3e
000002d0: cf04 293f 065d 7c3e d525 15bc c4a4 27bf
000002e0: a287 4d3e 37f3 3b3e 4da8 843e 53a7 79bd
000002f0: af3f a63c 469b 57be 9080 95be 8be7 4d3d
00000300: 9903 3bbf a117 9f3d 3cd7 ab3e b9cf 9c3e
00000310: 845a 753e ea3f 0abd adbe 0dbf 9c73 ce3e
00000320: e563 963e 25d3 273d 97ce 2ebe d555 9c3d
00000330: 8154 103e dac2 37bd f81e 9e3d 333d 10be
00000340: 5405 633e 21cd babe db68 a0be e326 82be
00000350: a784 8abd 075c 273c 05d8 70be 1999 5a3d
00000360: dd42 04be 4e0a 333e 32e0 bf3e 99c9 76be
00000370: e032 53be 0ffa 38be 6f9a 28be 64b0 b13e
00000380: 9337 af3e 146f eabd 6872 82be 02da b7be
00000390: 1c29 983e 1208 b4be a2d3 abbe 13e7 1ebe
000003a0: f358 b6be 4ae9 523c a1ea 94be 20ec 153e
000003b0: 3406 08bd ddb4 a6be a8c2 773e d984 0dbe
000003c0: 52d1 b5be 95cf 52be 146d 523e 250d ac3e
000003d0: 4905 473d 1939 5d3e 2c84 853e e644 f6be
000003e0: 2c58 4cbd 3c15 91be 2447 0b3c 19c7 cd3e
000003f0: 0aeb 0c3e f0c0 d5bd daef 5ebe e0f3 a7be

h.0.bias f4 [100]
0.2061106 0.18015018 0.16968177 0.03706917 -0.23222272 -0.12383504 0.2935266 -0.27518895
-0.3409222 0.12512955 -0.2714325 0.07929865 -0.054124348 0.19955948 -0.25844276 -0.17631447
0.044157926 0.08786209 -0.0015335901 -0.117876425 -0.30601 0.0026215934 -0.28220323 0.032451045
-0.11928007 0.2627667 -0.21948409 -0.2620183 -0.3375836 0.29047272 0.099426106 -0.12927851
0.11703588 0.28397706 0.19206862 -0.114616506 -0.1999399 -0.21229257 -0.31822032 -0.22207993
-0.26772776 0.3284314 -0.11081844 -0.16711272 0.0591276 0.32571077 -0.31811598 -0.025359657
0.1826596 -0.1567396 -0.33124048 0.41177613 0.27107382 -0.29418704 0.2693281 -0.33893764
-0.22382951 0.09699039 0.09911388 0.096331395 0.15955913 -0.30157873 -0.21475682 0.45344543
0.4002949 0.16357279 0.04836944 -0.1822826 0.3997977 0.23099458 0.21746719 -0.24134876
0.29019925 -0.05693264 0.2978707 -0.13513026 0.30757776 -0.029573172 0.35861948 0.11555461
0.10423044 -0.30538177 0.32572564 -0.1638948 -0.34800944 0.03165284 0.2721148 -0.3902757
-0.31887794 -0.2708493 0.1651489 0.06825757 0.2280862 -0.02964579 0.26697284 0.06512074
0.23113993 0.33384904 -0.012138873 0.059921246
00000000: a80e 533e 4a79 383e 0fc1 2d3e d8d5 173d
00000010: cbcb 6dbe 3a9d fdbd 1e49 963e 91e5 8cbe
00000020: 5b8d aebe f621 003e 33f9 8abe 5567 a23d
00000030: 7eb1 5dbd 5259 4c3e 9c52 84be c88b 34be
00000040: f1de 343d 0af1 b33d bf02 c9ba 3269 f1bd
00000050: 58ad 9cbe 0acf 2b3b f17c 90be 63eb 043d
00000060: 1c49 f4bd 5b89 863e 70c0 60be 4327 86be
00000070: c2d7 acbe d7b8 943e ea9f cb3d 9661 04be
00000080: 82b0 ef3d 7165 913e a3ad 443e 0fbc eabd
00000090: 0cbd 4cbe 3963 59be c6ed a2be ec68 63be
000000a0: 9d13 89be 2928 a83e c7f4 e2bd 991f 2bbe
000000b0: c82f 723d 90c3 a63e 19e0 a2be 0ebf cfbc
000000c0: 1e0b 3b3e 5880 20be 5a98 a9be 52d4 d23e
000000d0: 30ca 8a3e af9f 96be 5fe5 893e 3c89 adbe
000000e0: 9033 65be e6a2 c63d 38fc ca3d 6549 c53d
000000f0: 7863 233e 8768 9abe 36e9 5bbe 002a e83e
00000100: 74f3 cc3e a07f 273e 091f 463d 4aa8 3abe
00000110: 49b2 cc3e d889 6c3e b8af 5e3e 2124 77be
00000120: ff94 943e 3332 69bd 8282 983e 965f 0abe
00000130: d57a 9d3e 7043 f2bc f99c b73e e5a7 ec3d
00000140: c576 d53d 005b 9cbe 83c5 a63e 0ad4 27be
00000150: 4b2e b2be 69a6 013d a252 8b3e 37d2 c7be
00000160: f843 a3be c2ac 8abe cb1c 293e a0ca 8b3d
00000170: 6e8f 693e badb f2bc aab0 883e 065e 853d
00000180: f2af 6c3e 43ee aa3e 20e2 46bc fb6f 753d

h.2.weight f4 [100, 100]
0.1187453 0.14845508 0.045168504 -0.057832465 0.24001786 -0.25445062 -0.10424303 -1.1842874
-0.09463692 0.16629228 -0.016879177 0.50780916 -0.4420841 0.07118169 0.6036632 -0.02021799
0.033764385 0.02728401 0.11401087 0.39311433 0.030347062 0.078752436 -0.007175088 -0.07711034
-0.075624995 -0.0014389165 0.06449651 -0.042624213 -0.05218954 -0.21099734 0.15420446 0.04716003
-0.41497102 0.119903184 -0.055320464 -0.06744037 -0.06253996 -0.033911813 0.01367029 -0.021525968
0.031626523 0.35821354 0.03360925 -0.25797677 0.13483106 -0.21853198 0.04618553 0.15902653
-0.09676972 -0.0061258436 -0.15699339 0.19211845 -0.16452448 -0.019820785 -0.15845416 0.0024060966
-0.05941626 -0.20729272 -0.24535532 -0.0060123834 -0.26659545 -0.143519 -0.115723506 0.35896206
-0.10874316 0.050228428 0.034737147 0.048318267 -0.23921828 -0.31670287 0.020540774 0.029584408
0.05185789 -0.046926226 0.017320868 -0.0950132 -0.018711187 0.7488634 -0.017365454 -0.05775888
0.11185955 -0.0257877 -0.34838727 0.31069854 0.0765807 -0.30391037 3.2961154e-07 0.026034845
-0.038687944 -0.07123744 -0.30613285 -0.15082148 -0.041274812 0.06979467 -0.20469466 0.06679949
-0.016324956 -0.12019475 0.1843834 0.24527054 -0.056572568 -0.050365653 0.0068643214 -0.005659318
0.03484751 0.08666587 -0.014725066 -0.03205129 -0.02669475 -0.068785764 0.030373657 0.04569322
-0.093143724 -0.017540276 0.056595016 0.029331421 -0.04649576 0.04646113 0.081945315 -0.08404165
0.02402593 -0.03879973 -0.09340143 0.010890186 -0.04606488 0.052615214 0.057163205 0.05060592
-0.0007684589 -0.090252556 -0.079293065 0.04143889 -0.07822063 -0.05670414 -0.03399179 -0.024747467
0.06606803 -0.00919807 0.039205577 0.09536032 0.0097925905 0.0022654056 0.05417931 0.05845816
0.09512935 -0.07528295 0.041541517 0.00023061037 0.035921108 -0.099283114 0.04104949 0.039444424
-0.027645875 -0.097833276 0.09039656 0.020928157 0.034687784 -0.0663138 -0.0886688 0.059483863
-0.04791088 -0.08928551 -0.0880598 0.047639012 0.049201455 0.071957804 0.04333948 -0.044603623
0.0063282372 -0.03445022 -0.07070502 -0.042143334 -0.016581237 -0.012778401 -0.019463433 -0.08494762
-0.037723947 -0.051974263 -0.030332804 -0.06748624 -0.04353223 0.06571589 -0.09742588 -0.06207917
-0.0006495118 -0.06011213 -0.023228502 -0.08123465 -0.040318348 0.019169962 -0.0037409067 -0.09354979
-0.0010427833 0.060904086 -0.09793805 -0.038251985 -0.08783908 0.017216861 0.0560287 -0.030603683
0.21544093 0.058447998 0.23301628 0.11224294 0.24596901 0.061450828 -0.13108271 -1.0606107
0.043106165 0.16603729 0.049180605 0.5563995 -0.66879576 0.19376531 0.4245608 0.07831651
0.11460741 -0.16598795 0.29067895 0.5096601 -0.09066764 -0.070534125 -0.036447097 0.101445116
-0.029007543 0.030974388 0.09333225 0.04753686 -0.008262551 -0.18721366 0.2727729 -0.041151594
-0.57584465 -0.006533825 -0.06927736 0.0533862 0.025263011 0.035709895 -0.0175125 -0.061965525
-0.08801341 0.33220077 -0.013385916 -0.24768129 0.16005172 -0.07058615 -0.0134938955 0.13163921
0.107213415 0.092350565 -0.30289456 0.09909946 -0.32260504 -0.082198456 -0.018491149 -0.059875857
00000000: bc30 f33d 9c04 183e 9c02 393d bce1 6cbd
00000010: 3ec7 753e 5a47 82be 5f7d d5bd bb96 97bf
00000020: 00d1 c1bd 8648 2a3e 3346 8abc c8ff 013f
00000030: d958 e2be b5c7 913d ac89 1a3f 33a0 a5bc
00000040: 864c 0a3d b782 df3c 887e e93d 4846 c93e
00000050: 679a f83c f548 a13d 001d ebbb 07ec 9dbd
00000060: 47e1 9abd 079a bcba bf16 843d ba96 2ebd
00000070: b3c4 55bd b00f 58be c6e7 1d3e e02a 413d
00000080: 1577 d4be cd8f f53d b697 62bd 2d1e 8abd
00000090: f314 80bd 1de7 0abd 5af9 5f3c 3a57 b0bc
000000a0: d08a 013d c467 b73e daa9 093d 8815 84be
000000b0: 2711 0a3e d9c6 5fbe 0a2d 3d3d dad7 223e
000000c0: 342f c6bd 4dbb c8bb e0c2 20be b3ba 443e
000000d0: 1b79 28be 335f a2bc cf41 22be 9aaf 1d3b
000000e0: 775e 73bd 8b44 54be 6d3e 7bbe 8703 c5bb
000000f0: 337f 88be a5f6 12be 7200 edbd e0c9 b73e
00000100: bcb4 debd 53bc 4d3d 8a48 0e3d 60e9 453d
00000110: a3f5 74be e126 a2be 2045 a83c 005b f23c
00000120: f068 543d b735 40bd 7ee4 8d3c 4896 c2bd
00000130: 3448 99bc 83b5 3f3f ff41 8ebc 9394 6cbd
00000140: 9f16 e53d ba40 d3bc d15f b2be e113 9f3e
00000150: 58d6 9c3d 249a 9bbe 77f5 b034 0747 d53c
00000160: 4077 1ebd efe4 91bd 72bd 9cbe f270 1abe
00000170: c70f 29bd 82f0 8e3d 7a9b 51be 2cce 883d
00000180: eabb 85bc aa28 f6bd 01cf 3c3e 3328 7b3e
00000190: a3b8 67bd 374c 4ebd 1aee e03b cd71 b9bb
000001a0: 43bc 0e3d e07d b13d 6741 71bc 3748 03bd
000001b0: f3ae dabc 8ddf 8cbd 2dd2 f83c d028 3b3d
000001c0: 23c2 bebd a0b0 8fbc 2dd0 673d 7348 f03c
000001d0: 5772 3ebd 074e 3e3d f2d2 a73d 071e acbd
000001e0: 07d2 c43c 77ec 1ebd 4049 bfbd c06c 323c
000001f0: 87ae 3cbd 0d83 573d f723 6a3d 2748 4f3d
00000200: 6772 49ba 55d6 b8bd 6764 a2bd d3bb 293d
00000210: 2332 a0bd 9a42 68bd fa3a 0bbd 33bb cabc
00000220: ad4e 873d 80b3 16bc 0796 203d 454c c33d
00000230: 1a71 203c 3377 143b 20eb 5d3d d371 6f3d
00000240: 2dd3 c23d f32d 9abd 7027 2a3d 00d0 7139
00000250: 0322 133d f254 cbbd 8323 283d 7a90 213d
00000260: 9a79 e2bc d05c c8bd d521 b93d 8771 ab3c
00000270: c714 0e3d 88cf 87bd fd97 b5bd 5aa5 733d
00000280: 333e 44bd 52db b6bd b258 b4bd 2021 433d
00000290: 7787 493d 9d5e 933d bd84 313d 4ab2 36bd
000002a0: 1a5d cf3b ad1b 0dbd cbcd 90bd 7d9e 2cbd
000002b0: 60d5 87bc 805c 51bc c771 9fbc 05f9 adbd
000002c0: 6d84 1abd f7e2 54bd 807c f8bc 3a36 8abd
000002d0: da4e 32bd 0d96 863d 3887 c7bd ba46 7ebd
000002e0: 0044 2aba 2338 76bd b349 bebc 5a5e a6bd
000002f0: da24 25bd 530a 9d3c 002a 75bb 0897 bfbd
00000300: 00ae 88ba 9076 793d bf93 c8bd 1dae 1cbd
00000310: fae4 b3bd 600a 8d3c 5a7e 653d 93b4 fabc
00000320: 8c9c 5c3e 2b67 6f3d d29b 6e3e a0df e53d
00000330: 4ddf 7b3e ddb3 7b3d 8c3a 06be 17c2 87bf
00000340: 1790 303d ae05 2a3e 9a71 493d 3370 0e3f
00000350: 3336 2bbf 6a6a 463e 0860 d93e 6864 a03d
00000360: 4ab7 ea3d bff8 29be dfd3 943e 1679 023f
00000370: f5af b9bd 3274 90bd 8d49 15bd 75c2 cf3d
00000380: 3aa1 edbc 00be fd3c fb24 bf3d 03b6 423d
00000390: a75f 07bc f0b4 3fbe e4a8 8b3e 938e 28bd
000003a0: 8e6a 13bf b219 d6bb 4ae1 8dbd 7dab 5a3d
000003b0: 60f4 ce3c 8a44 123d 6076 8fbc 90cf 7dbd
000003c0: 6040 b4bd 3816 aa3e 9a50 5bbc 2aa0 7dbe
000003d0: 99e4 233e 798f 90bd 8015 5dbc 6ecc 063e
000003e0: b592 db3d 4b22 bd3d ff14 9bbe a8f4 ca3d
000003f0: 7d2c a5be aa57 a8bd c07a 97bc 6340 75bd

h.2.bias f4 [100]
0.032459695 0.035864558 -0.05557583 -0.026810298 -0.09806635 -0.049914468 0.0024834636 -0.07717196
-0.078930564 -0.07432298 0.048176143 -0.040431608 0.041478537 -0.023357598 0.061931588 -0.09576548
0.024987483 -0.0633022 -0.0659852 -0.034313712 -0.17038009 0.06427028 -0.096607424 -0.095480636
-0.097861245 -0.08194522 -0.05506165 0.017003823 -0.06776405 0.09653415 0.042577766 0.07465997
-0.0053375955 0.005048164 -0.08755306 -0.00020409822 -0.07741701 0.048266828 -0.1343554 0.31549215
-0.15145867 -0.026396215 0.021601021 -0.10179291 0.082205 -0.092207134 -0.0037396092 0.17525999
0.044986885 -0.0741531 -0.06429168 -0.05640484 -0.08279965 -0.029365003 -0.058355626 -0.08643935
-0.013393542 -0.004645797 0.0043283673 0.09708391 0.069977015 -0.11889072 0.013022227 0.29039365
-0.09718063 -0.044156503 0.10288873 -0.043727297 0.03458501 0.037104942 -0.025495833 -0.057816923
0.028045744 -0.04716371 -0.05215333 -0.16017433 0.012147643 -0.07802885 -0.09511413 0.062484797
-0.082365945 0.07543178 -0.060446896 -0.02331515 -0.03867655 -0.100663684 -0.061744697 -0.032779764
-0.0069526774 -0.08282031 -0.109137446 -0.0971424 -0.08457965 -0.089484125 0.07244524 -0.0805723
-0.07128338 0.051906757 -0.058684174 -0.0015962896
00000000: 75f4 043d b7e6 123d 7ba3 63bd 45a1 dbbc
00000010: 03d7 c8bd 1d73 4cbd 9bc1 223b 550c 9ebd
00000020: 59a6 a1bd a636 98bd 5954 453d 9d9b 25bd
00000030: 66e5 293d 6f58 bfbc faab 7d3d b120 c4bd
00000040: 8db2 cc3c 95a4 81bd 4023 87bd 898c 0cbd
00000050: 1e78 2ebe 23a0 833d 1dda c5bd 5a8b c3bd
00000060: 7a6b c8bd e5d2 a7bd 5388 61bd 9a4b 8b3c
00000070: e1c7 8abd b2b3 c53d 0666 2e3d 54e7 983d
00000080: ffe6 aebb 126b a53b 054f b3bd 3303 56b9
00000090: cf8c 9ebd 70b3 453d 7694 09be 3088 a13e
000000a0: fb17 1bbe e03c d8bc a0f4 b03c cd78 d0bd
000000b0: 185b a83d 18d7 bcbd 3b14 75bb 5b77 333e
000000c0: 2b44 383d 95dd 97bd 5bab 83bd c308 67bd
000000d0: dd92 a9bd e08e f0bc 4f06 6fbd 1d07 b1bd
000000e0: 9670 5bbc c53b 98bb fad4 8d3b eed3 c63d
000000f0: 1c50 8f3d fa7c f3bd 2e5b 553c 7aae 943e
00000100: a306 c7bd 73dd 34bd 54b7 d23d 651b 33bd
00000110: 03a9 0d3d 5afb 173d a3dc d0bc 70d1 6cbd
00000120: 30c0 e53c bc2e 41bd bb9e 55bd bd04 24be
00000130: e806 473c 97cd 9fbd 32cb c2bd 0ff0 7f3d
00000140: 7aaf a8bd fa7b 9a3d 2a97 77bd 6aff bebc
00000150: 4d6b 1ebd c328 cebd 02e8 7cbd 1344 06bd
00000160: 49d3 e3bb b29d a9bd 7483 dfbd 98f2 c6bd
00000170: 1838 adbd 7443 b7bd 2c5e 943d 1703 a5bd
00000180: 05fd 91bd 2e9c 543d d15e 70bd 973a d1ba

h.4.weight f4 [1, 100]
1.042366 0.034762528 0.6382593 -0.19042929 -0.04955262 0.08050533 -3.4187205 0.040546574
0.027814196 0.5612553 -0.68085164 -0.086189866 -0.064670905 -0.037710555 -0.0897481 0.92265546
-1.3046697 -0.008198857 0.61098415 -1.3612862 0.66537845 0.071352206 -0.038051475 0.6729927
0.05436368 0.6905182 -0.08899559 0.672294 -0.05420611 -1.422436 0.6137135 -0.035616748
0.83282375 0.86996347 0.61803585 -0.017109383 0.81219155 -0.022736907 0.72372156 -0.73671675
0.60268396 0.05784103 0.19740738 0.6836722 0.07074638 -0.022491897 0.095353484 -0.78715056
-0.65761733 -0.00679183 0.63799155 0.094339125 -0.09614926 0.0638562 0.6337495 -0.026466573
-1.5025985 0.91554654 -0.49479145 -1.3218952 -0.089736834 0.55276173 -0.085367404 -0.89672303
0.7634134 -0.023355566 -0.9411407 -1.4706379 0.6263247 -0.09839382 -0.015803313 -0.039749704
0.0022639052 0.7576296 0.25168458 0.77741325 -1.447258 0.0750465 0.6259945 -0.05831422
-0.051919688 -1.1745888 -0.0769383 0.71723235 0.87167525 0.04198656 -0.3001146 -1.3512651
-1.6475325 0.034835875 0.56270665 0.63115376 0.07831883 0.4806013 -1.3188956 0.08542483
0.03564992 0.38499907 -0.008045929 0.16967171
00000000: 406c 853f 2763 0e3d f664 233f e5ff 42be
00000010: b0f7 4abd fadf a43d 51cc 5ac0 2a14 263d
00000020: 99da e33c 6dae 0f3f 4b4c 2ebf 5084 b0bd
00000030: 2e72 84bd 6276 1abd dacd b7bd 2633 6c3f
00000040: 6bff a6bf 8054 06bc 7569 1c3f a03e aebf
00000050: 3e56 2a3f 1b21 923d dddb 1bbd 4049 2c3f
00000060: 73ac 5e3d cdc5 303f 5243 b6bd 761b 2c3f
00000070: 3a07 5ebd 6212 b6bf 541c 1d3f dee2 11bd
00000080: f033 553f edb5 5e3f 9937 1e3f fa28 8cbc
00000090: c9eb 4f3f c042 babc d145 393f 7899 3cbf
000000a0: 7f49 1a3f b7ea 6c3d 2925 4a3e 2405 2f3f
000000b0: 7ae3 903d ed40 b8bc b048 c33d b382 49bf
000000c0: 9c59 28bf 008e debb 6a53 233f df34 c13d
000000d0: e7e9 c4bd 0ac7 823d 683d 223f 6dd0 d8bc
000000e0: 2655 c0bf 4261 6a3f 4e55 fdbe dd33 a9bf
000000f0: f2c7 b7bd cb81 0d3f 1bd5 aebd a48f 65bf
00000100: 106f 433f 2c54 bfbc 99ee 70bf dd3d bcbf
00000110: d156 203f b382 c9bd f375 81bc 96d0 22bd
00000120: 075e 143b 03f4 413f cddc 803e 8e04 473f
00000130: c03f b9bf fbb1 993d 2d41 203f e4da 6ebd
00000140: bda9 54bd ed58 96bf d491 9dbd 8a9c 373f
00000150: 1c26 5f3f 19fa 2b3d 9fa8 99be 41f6 acbf
00000160: 58e2 d2bf 10b0 0e3d 8b0d 103f 4b93 213f
00000170: 9f65 a03d 6011 f63e 92d1 a8bf 37f3 ae3d
00000180: a705 123d 991e c53e 12d3 03bc 6cbe 2d3e
