logs/PointMaze-Right/airl_sac/seed0-20231226-1522/model/step1440000/disc.pth (torch, 90839 bytes, 10 tensors)

g.0.weight f4 [100, 6]
0	0x3f086c06	0.5328983
1	0x3edf7efb	0.43651566
2	0xbeab30b4	-0.33435595
3	0xbf27000e	-0.6523446
4	0x3ded0c28	0.11574584
5	0xbe43b93c	-0.1911363
6	0xbee04298	-0.43800807
7	0x3de923e5	0.113837995
8	0x3e94f2b9	0.29091433
9	0xbe82587d	-0.25458136
10	0x3e2ad9fa	0.16684714
11	0x3ead7007	0.33874533
12	0xbfa5e61b	-1.2960848
13	0xbda2f142	-0.079561725
14	0xbe83226d	-0.25612202
15	0x3e860d71	0.2618213
16	0x3dc9c412	0.098518506
17	0x3e4f3668	0.20235598
18	0xbd911210	-0.07083523
19	0xbe464be1	-0.19364883
20	0xbe65bd87	-0.2243558
21	0x3e774e72	0.24151018
22	0x3ead1c44	0.33810627
23	0x3eb4a4a0	0.3528185
24	0xbe9bc23d	-0.3042163
25	0xbd7c5d24	-0.061612263
26	0xbce63376	-0.02810071
27	0xbe441878	-0.19149959
28	0xbe80566a	-0.2506593
29	0x3eac03f9	0.3359678
30	0x3c075e5d	0.008262244
31	0xbeca4b36	-0.39510506
32	0xbe0c63bb	-0.13709919
33	0xbe5bb9db	-0.21457617
34	0x3ca3e87a	0.020008314
35	0x3adcfbc9	0.0016859706
36	0x3c9964ff	0.018724917
37	0xbea75e47	-0.32689115
38	0xbe085af7	-0.1331595
39	0xbe8bfba4	-0.27340424
40	0xbdf9814e	-0.12182866
41	0x3e08a279	0.13343228
42	0xbdff53bf	-0.12467145
43	0xbee28d49	-0.44248417
44	0x3d27cc31	0.040966216
45	0x3cd3a479	0.025835263
46	0x3dedc460	0.11609721
47	0xbe9f7faa	-0.31152087
48	0x3e2d299e	0.16910407
49	0x3e817cb1	0.25290444
50	0x3e8350ac	0.25647485
51	0x3e6ddd52	0.23228958
52	0xbe19812e	-0.14990684
53	0xbde28a05	-0.110614814
54	0x3e1365da	0.14394322
55	0xbf05db2f	-0.5228757
56	0x3e725406	0.23664865
57	0xbe22c1af	-0.15894197
58	0xbe5d589d	-0.21615835
59	0xbb868aaf	-0.004105888
60	0x3f168aa0	0.58805275
61	0x3ee731db	0.45155224
62	0x3e925221	0.28578284
63	0xbe28bf59	-0.16479243
64	0x3ea0e3d1	0.3142381
65	0xbdaaf4d5	-0.08347479
66	0x3ecb1b05	0.39669052
67	0x3f00f835	0.50378734
68	0x3d9ad881	0.07560826
69	0xbec4189d	-0.38300028
70	0x3e9a0209	0.30079678
71	0xbe1b2653	-0.15151338
72	0xbe098da3	-0.13432936
73	0xbe9d0164	-0.30665123
74	0x3e9a18e1	0.30097106
75	0xbdda4969	-0.10658533
76	0x3eab4979	0.33454493
77	0x3d479610	0.048727095
78	0x3ed3724f	0.41298148
79	0xbf058bf8	-0.521667
80	0xbeb4679d	-0.352353
81	0xbef8d722	-0.48601633
82	0xbe22c73b	-0.15896313
83	0x3e1559b4	0.14585
84	0xbe31b0f7	-0.17352663
85	0x3dc4204a	0.09576471
86	0x3e85e4d7	0.26151153
87	0x3e8b2a27	0.27180597
88	0xbd8f83b2	-0.07007541
89	0x3e801dd7	0.25022766
90	0x3f27533d	0.65361387
91	0x3e32fe7b	0.17479889
92	0xbe780a6e	-0.24222729
93	0xbe9c2759	-0.3049877
94	0xbd433fda	-0.047668315
95	0x3c84b723	0.016200608
96	0xbec5cedc	-0.38634384
97	0xbe9deb29	-0.30843475
98	0x3e80df8c	0.25170553
99	0x3e7fea2f	0.24991678
100	0xbe95a96c	-0.2923082
101	0x3ea08215	0.31349245
102	0x3e8dbc2c	0.27682626
103	0x3ea889d9	0.3291767
104	0x3d18aabc	0.0372722
105	0x3dfbfd04	0.12304118
106	0xbe2ee88c	-0.17080897
107	0x3eb8af15	0.36071077
108	0xbf091cba	-0.5355946
109	0xbf0d1adc	-0.5511911
110	0x3ea53ae8	0.32271504
111	0x3ec75cdd	0.38938037
112	0x3e84988c	0.25897634
113	0x3e80f73f	0.25188634
114	0x3e5ae768	0.21377337
115	0xbf11be61	-0.5693112
116	0x3eb8c9a5	0.36091343
117	0x3f088231	0.53323656
118	0x3ef47153	0.4774271
119	0x3d4c7cb6	0.04992362
120	0x3d81549b	0.06314965
121	0x3d8e931c	0.06961653
122	0xbe0b54fc	-0.13606638
123	0x3e4a431a	0.1975216
124	0x3d54f1e8	0.051988512
125	0x3e9216f8	0.2853315
126	0x3f04f321	0.51933485
127	0x3d5ffbfd	0.054683674
128	0xbec72852	-0.3889795
129	0x3ec6571c	0.38738334
130	0xbe177721	-0.14791538
131	0x3ea24698	0.31694484
132	0x3ed70be4	0.4200126
133	0x3ececf72	0.40392643
134	0xbcc6be8f	-0.024260787
135	0xbe685526	-0.22688732
136	0x3e4d3d2b	0.20042865
137	0xbde3bfd4	-0.11120573
138	0x3e1af42d	0.15132208
139	0xbef9ac39	-0.48764208
140	0xbdc86736	-0.09785311
141	0x3dbb277c	0.091383904
142	0xbe038d17	-0.1284679
143	0x3e39e403	0.18153386
144	0x3ec4048b	0.38284716
145	0xbe3e5523	-0.18587165
146	0x3e0894a8	0.13337958
147	0xbe06f911	-0.13180949
148	0xbd55fa0b	-0.052240413
149	0xbd9cdc46	-0.07659201
150	0xbdfee118	-0.12445277
151	0x3ecbdc1d	0.3981637
152	0xbe7579a0	-0.23972178
153	0x3eb82037	0.35962078
154	0x3e59b4d1	0.21260382
155	0x3ec2e4a3	0.3806506
156	0xbfa239f0	-1.2673931
157	0xbdbf48b8	-0.09340042
158	0x3e78ca3b	0.24295895
159	0x3e815a58	0.2526424
160	0xbedb42f4	-0.4282452
161	0x3e146f24	0.14495522
162	0x3d629206	0.05531504
163	0xbec62b72	-0.3870502
164	0xbdaea74e	-0.085280046
165	0x3ec4d7f8	0.3844602
166	0x3eedb28a	0.46425277
167	0xbce981dc	-0.028504305
168	0xbf3da3b7	-0.74077934
169	0x3da6b9d1	0.081409104
170	0xbe830614	-0.25590575
171	0x3da74953	0.08168282
172	0xbe8b492f	-0.27204272
173	0x3e921b92	0.2853666
174	0xbe8b9c94	-0.27267897
175	0xbec8913b	-0.39173302
176	0xbe3f06e7	-0.18654977
177	0xbebdfac0	-0.3710537
178	0xbd05ec15	-0.03269585
179	0xbdc84f0d	-0.09780703
180	0x3f2ba6be	0.67051303
181	0x3f0381f6	0.5137018
182	0x3ed0a57b	0.40751252
183	0xbe71f254	-0.23627597
184	0x3e114779	0.14187421
185	0x3e8b4aef	0.27205607
186	0x3e0bf1b2	0.13666418
187	0xbe67e2ac	-0.22645062
188	0x3e99f7e4	0.30071938
189	0x3ed1c23d	0.40968505
190	0xbe6f4e17	-0.23369633
191	0x3d88662b	0.06660112
192	0x3eb3a0a0	0.35083485
193	0x3d906f73	0.07052507
194	0xbe3902af	-0.1806743
195	0xbec19ad0	-0.37813425
196	0x3d0e363e	0.034719698
197	0x3e05227f	0.1300144
198	0xbc93df8f	-0.018050937
199	0xbe02bc3f	-0.12767123
200	0x3e034c62	0.12822106
201	0x3f16f26a	0.58963645
202	0xbe04264b	-0.12905233
203	0x3e354667	0.17702638
204	0x3eed16d7	0.46306488
205	0xbda48cca	-0.08034666
206	0x3eb418fd	0.35175315
207	0xbf06c206	-0.52639806
208	0x3edbe4ee	0.42948097
209	0x3db38c10	0.08766949
210	0x3e0044a3	0.12526183
211	0xbe9cae08	-0.30601525
212	0xbe952104	-0.2912675
213	0xbcee0534	-0.029055215
214	0xbe054910	-0.13016152
215	0xbd7146e6	-0.058905505
216	0xbca1ecd2	-0.019766245
217	0x3d83a08f	0.064271085
218	0xbe61eda6	-0.22063312
219	0x3e4127fe	0.18862912
220	0xbe1d68ea	-0.15372053
221	0xbdd1939c	-0.102332324
222	0x3dbe9f38	0.09307712
223	0xbeeca4cc	-0.4621948
224	0xbd73e0f4	-0.059540704
225	0x3ebf01b4	0.37305987
226	0x3ed6c488	0.41946816
227	0xbea46c38	-0.32113814
228	0xbec0c047	-0.37646696
229	0xbeccbe6f	-0.3998904
230	0xbc19c939	-0.009386354
231	0xbe8db011	-0.2767339
232	0x3d7a3e53	0.061094593
233	0x3ecf96ea	0.40544826
234	0x3d253ebe	0.04034304
235	0xbea6e86f	-0.32599208
236	0x3eca3efd	0.3950118
237	0xbe2264ff	-0.1585884
238	0xbeb587b5	-0.354551
239	0x3c9bb98d	0.019009376
240	0xbd346265	-0.04403915
241	0xbe3dd487	-0.18538104
242	0xbe979526	-0.2960598
243	0x3c9d35a1	0.019190611
244	0xbe62bd03	-0.22142415
245	0x3eb24e4f	0.3482537
246	0x3f0e8336	0.5566896
247	0x3ee9f9d7	0.45698425
248	0x3e536319	0.20643272
249	0x3d3a76bc	0.04552339
250	0x3e667667	0.22506104
251	0x3e605f70	0.21911407
252	0x3e2c94fd	0.1685371
253	0x3c977cec	0.018492185
254	0x3e95be2e	0.29246658
255	0xbe22a52d	-0.15883322

g.0.bias f4 [100]
0	0x3dd2499c	0.10267946
1	0x3dfd7988	0.12376696
2	0xbd3afd6e	-0.045651846
3	0x3e2f2fad	0.1710803
4	0x3d749573	0.05971284
5	0xbe2e8558	-0.17043054
6	0xbec4b19c	-0.38416755
7	0x3ea2b103	0.31775674
8	0xbecaa6f0	-0.39580488
9	0x3ec976e9	0.39348534
10	0xbe8f1c53	-0.27951297
11	0xbe103432	-0.14082411
12	0xbebb39a4	-0.36567414
13	0x3ec072f5	0.37587705
14	0xbecdf508	-0.40226007
15	0x3da7d640	0.08195162
16	0xbe93d4a6	-0.28873175
17	0x3c4e446e	0.012589557
18	0x3e1b6254	0.15174228
19	0xbe28d677	-0.16488062
20	0xbe7d0b46	-0.24711332
21	0xbe897283	-0.26845178
22	0xbddfcf5f	-0.10928225
23	0x3eb47f7b	0.3525351
24	0xbec5ac11	-0.3860784
25	0x3e8b3b72	0.2719379
26	0x3e65c1a9	0.22437157
27	0xbbfbecf8	-0.007688161
28	0x3e8c6e71	0.2742801
29	0xbe224498	-0.15846479
30	0x3e1df947	0.15427123
31	0x3eb322e5	0.3498756
32	0xbe863199	-0.26209715
33	0x3e712eb2	0.23552969
34	0x3cc8cc05	0.024511347
35	0xbe71730d	-0.23579045
36	0xbe7c7da9	-0.2465731
37	0x3e87f974	0.26557505
38	0xbec67436	-0.38760537
39	0xbd51a54b	-0.051183026
40	0x3d89cf77	0.06729024
41	0xbe8d84ed	-0.27640477
42	0x3e69904b	0.2280895
43	0x3e4d5251	0.20050932
44	0x3e0150ff	0.12628554
45	0x3dd2da25	0.10295514
46	0x3eca2806	0.3948366
47	0xbe93f9f7	-0.28901646
48	0xbdbda1d5	-0.09259383
49	0x3b92f899	0.0044852016
50	0xbd1ba9b4	-0.03800364
51	0xbe31b7a3	-0.17355208
52	0xbe2e5ba5	-0.17027147
53	0xbe52f763	-0.20602183
54	0x3e279f35	0.16369326
55	0xbec5f497	-0.3866317
56	0xbe9957b4	-0.29949725
57	0x3eaceb58	0.33773303
58	0x3d8ba7cb	0.06819113
59	0xbe2fa70c	-0.17153567
60	0x3ea8ccde	0.329688
61	0x3e629382	0.22126582
62	0x3e87fb28	0.26558805
63	0x3d66d4e5	0.056355376
64	0x3e7103d5	0.23536618
65	0xbea7466d	-0.32670918
66	0xbebb74b4	-0.36612475
67	0x3e0a768b	0.13521783
68	0xbea7276d	-0.32647267
69	0x3e8ed977	0.27900288
70	0x3e988ff3	0.29797325
71	0xbe9987f4	-0.29986537
72	0x3ebed3ea	0.37271053
73	0x3e66dc1d	0.22544904
74	0x3e9ac1ce	0.30225986
75	0xbe9a0580	-0.3008232
76	0x3de478a0	0.1115582
77	0x3e5dbf03	0.21654896
78	0x3d751b2f	0.059840377
79	0x3d9a1829	0.075241394
80	0x3ed8cb35	0.42342535
81	0xbbe5136b	-0.00699084
82	0xbebc9ee2	-0.36839968
83	0x3e646ede	0.22307917
84	0x3db8610b	0.090028845
85	0xbe46097d	-0.19339557
86	0xbeccf0c6	-0.40027446
87	0x3e08f040	0.13372898
88	0x3eab7174	0.33484995
89	0xbdc9d98b	-0.09855946
90	0x3ee4d2d6	0.44692105
91	0x3d95fb62	0.07323338
92	0xbec930b0	-0.39294958
93	0x3e842dcd	0.25816193
94	0x3e0e00bd	0.13867469
95	0xbe1bdc64	-0.15220791
96	0x3e992873	0.29913673
97	0x3e38a0eb	0.18030135
98	0xbec1c6c1	-0.3784695
99	0xbebafe56	-0.36522168

g.2.weight f4 [100, 100]
0	0x3dc3fb07	0.09569364
1	0xbc68203c	-0.0141678415
2	0xbf75a451	-0.9595385
3	0xbd878b2e	-0.06618343
4	0xbd926ab0	-0.07149255
5	0x3cb9931a	0.022653151
6	0xbbd7ab1a	-0.006581676
7	0x3e0435fd	0.1291122
8	0xbcdee893	-0.02721051
9	0xbf8d1f65	-1.1025206
10	0x3bbf454d	0.0058371187
11	0x3d0775e7	0.033071425
12	0x3d583260	0.052782416
13	0xbf933670	-1.1500988
14	0xbd6126b0	-0.054968536
15	0x3dfddda3	0.123957895
16	0x3c1da90d	0.009622824
17	0xbbd193cb	-0.006395792
18	0xc0361fbf	-2.8456876
19	0x3d38faa8	0.04516092
20	0x3ceb34ad	0.028711641
21	0x3f67266c	0.90293
22	0x3e01d6ce	0.12679598
23	0x3ec11e88	0.37718606
24	0xbdc16180	-0.09442425
25	0x3d472d59	0.04862723
26	0xbf6febdc	-0.9371927
27	0x3e49d928	0.19711745
28	0xbefd0073	-0.49414405
29	0x3dcadc5a	0.0990531
30	0x3d2b6ae8	0.04185
31	0x3d659ec2	0.056059606
32	0x3c7027f8	0.014657967
33	0xbcccaded	-0.024985278
34	0x3dc690c5	0.09695581
35	0x3d3cc31a	0.0460845
36	0x3cf8cba7	0.030370547
37	0x3d84d5f1	0.064861186
38	0x3aa96800	0.0012924671
39	0x3b983180	0.0046445727
40	0xbd8e6f00	-0.06954765
41	0x3cefca3e	0.029271241
42	0x3dbade93	0.09124484
43	0xc00bbcd9	-2.1834013
44	0xbf41b635	-0.7566865
45	0x3d9e5239	0.077305265
46	0x3dd9d08f	0.106354825
47	0xbda0b7da	-0.07847567
48	0xbfbbb85d	-1.4665638
49	0x3e1b0333	0.15137939
50	0x3be78ee7	0.007066596
51	0xbd618ea0	-0.05506766
52	0x3d171102	0.036881454
53	0xbd98548a	-0.074379995
54	0xbf6e6aeb	-0.93131894
55	0x3d7842a2	0.06061042
56	0x3d4d88c0	0.050179243
57	0x39835ba5	0.00025054548
58	0x3dea8cc0	0.11452627
59	0xbf1497b5	-0.58043987
60	0xbf804248	-1.0020227
61	0x3dd00982	0.101580635
62	0x3d98b597	0.074565105
63	0x3df89be3	0.12139108
64	0x3e669dcd	0.22521134
65	0xbf8483a8	-1.0352678
66	0x3d96b15d	0.07358048
67	0xbe1b787c	-0.1518268
68	0xbdbcd867	-0.09220963
69	0x3e44594f	0.19174694
70	0xbf83d6cb	-1.0299925
71	0xbd4facd7	-0.050701942
72	0x3e236849	0.1595775
73	0xbeffbe2d	-0.4994978
74	0xbc5af905	-0.013365035
75	0x3d097d80	0.03356695
76	0xbfaf7617	-1.3707913
77	0x3e66e2fa	0.22547522
78	0xbe58b109	-0.21161284
79	0xbd66740a	-0.056263007
80	0x3db285bd	0.08716915
81	0xbd2c0540	-0.041997194
82	0x3d991fed	0.074767925
83	0x3c72c918	0.014818452
84	0xbd8c86f8	-0.06861681
85	0xbdb43a27	-0.08800154
86	0xbd81aafd	-0.063314416
87	0x3c008ee9	0.007846572
88	0xb9af21f7	-0.00033403907
89	0xbe6d22f8	-0.23157871
90	0x3d559270	0.052141607
91	0xbf478337	-0.7793459
92	0xbd0cbae3	-0.034357917
93	0x39eecdc2	0.000455482
94	0x3d8714ea	0.06595786
95	0xbd98a917	-0.07454126
96	0xbfddaf20	-1.7319069
97	0xbf8c495b	-1.0959886
98	0xbd8edb3d	-0.0697541
99	0xbd86785d	-0.06565926
100	0x3da12596	0.07868497
101	0xbd1b2108	-0.037873298
102	0xbf4dabad	-0.8034008
103	0x3c46cb43	0.012133422
104	0x3dc023c3	0.09381821
105	0x3d58c37a	0.052920796
106	0xbd143cd0	-0.036190808
107	0x3e1347c1	0.1438284
108	0xbd8ca19a	-0.068667606
109	0xbf874208	-1.0567026
110	0x3d8ecb28	0.06972343
111	0xbde2458a	-0.1104842
112	0x3dc50aa5	0.09621171
113	0xbf4ff9ff	-0.8124084
114	0x3cd75a40	0.026288152
115	0xbd0335a6	-0.032033585
116	0xbcbc4b2d	-0.022985065
117	0xbe1603eb	-0.14649932
118	0xc02f557a	-2.739592
119	0x3ded4481	0.11585332
120	0xbd980378	-0.074225366
121	0x3f361675	0.71128017
122	0x3d5b402a	0.05352799
123	0x3e3f7191	0.18695666
124	0xbd0ce3b7	-0.034396853
125	0x3c3527a9	0.011056819
126	0xbf491166	-0.7854217
127	0x3dba8181	0.09106732
128	0xbebea5a7	-0.37235758
129	0x3d528267	0.051393893
130	0x3d9010ec	0.070344776
131	0xbd9b22c2	-0.07574989
132	0x3d92a76a	0.07160838
133	0x3d600f0c	0.05470185
134	0x3e48fed4	0.19628459
135	0xbd341917	-0.04396924
136	0xbd600ea3	-0.05470146
137	0x3c5022fc	0.012703653
138	0xbda97ea0	-0.08276105
139	0xbdb90488	-0.090340674
140	0x3d8a1178	0.06741613
141	0x3d3783a3	0.044803273
142	0x3d7b4993	0.061349463
143	0xbfe343a6	-1.775502
144	0xbf757bed	-0.9589222
145	0xbc38d908	-0.011282213
146	0xbc888f61	-0.01666993
147	0x3da0c3cb	0.078498445
148	0xbfd55ec0	-1.666954
149	0x3dc80730	0.09766996
150	0xbdabe7f0	-0.08393848
151	0x3dc7fe58	0.09765309
152	0xbd1842f8	-0.03717324
153	0xbcb19793	-0.021678722
154	0xbf2ddc55	-0.67914325
155	0x3d051cac	0.032498047
156	0xbcb86be0	-0.022512376
157	0x3e5631b1	0.20917393
158	0x3e2068b9	0.15664949
159	0xbf1de668	-0.616797
160	0xbf53dba4	-0.8275702
161	0x3e2295da	0.15877476
162	0x3e55ca1c	0.2087788
163	0x3d132547	0.035924222
164	0x3e43b076	0.19110283
165	0xbf915325	-1.1353499
166	0x3c7c1067	0.01538477
167	0x3abbef74	0.001433833
168	0xba4e2d9a	-0.00078650715
169	0x3ea7b97b	0.32758698
170	0xbf33198c	-0.69960856
171	0xbdbdc93e	-0.092668995
172	0x3de64ec3	0.11245491
173	0xbf1e2330	-0.6177244
174	0x3d6f3586	0.058400653
175	0x3cb0fe27	0.021605564
176	0xbfa2d4c9	-1.2721187
177	0x3ec73af4	0.38912165
178	0xbe47f31e	-0.19526336
179	0xbe350886	-0.17679033
180	0x3dd87646	0.10569434
181	0x3d931d56	0.0718333
182	0xbd8471fd	-0.06467054
183	0x3d280dd5	0.041028816
184	0x3d56001a	0.05224619
185	0x3d9fef20	0.07809281
186	0xbcbd7dfa	-0.02313136
187	0xbc6f47b2	-0.014604496
188	0x3d9d9f68	0.0769642
189	0xbe829835	-0.2550675
190	0x3e1be982	0.15225795
191	0xbeddf69d	-0.43352214
192	0xbbc2bce7	-0.005942929
193	0xbd4665c2	-0.048436888
194	0x3da52a0e	0.08064662
195	0x3bc38833	0.005967164
196	0xbfca96b8	-1.5827246
197	0xbf80044c	-1.0001311
198	0x3ce04247	0.027375354
199	0x3d7fff93	0.062499594
200	0xbdbbd436	-0.091713354
201	0x3d8728ef	0.06599604
202	0xbdca6ebb	-0.098844014
203	0xbc44295e	-0.011972753
204	0x3d391140	0.045182467
205	0xbd891812	-0.06694044
206	0x3db2755b	0.0871379
207	0x3d5fcef9	0.054640744
208	0xbc8ccd7a	-0.017187823
209	0xbd493069	-0.049118433
210	0xbd547783	-0.051871788
211	0x3bd17dd0	0.006393172
212	0xbc432af3	-0.011912095
213	0xbc7174ec	-0.014737349
214	0x3cd0e6e0	0.025500715
215	0x3c2d082a	0.0105610285
216	0xbd2224d3	-0.0395859
217	0xbd71e102	-0.059052475
218	0xbdcceadf	-0.100057356
219	0xbc37b4dd	-0.011212555
220	0xbd13c173	-0.03607316
221	0x3d2812b3	0.041033458
222	0x3d40f21a	0.047105886
223	0xbd82dea3	-0.06390121
224	0x3d743960	0.05962503
225	0x3c268c90	0.010165349
226	0xbdd24b8e	-0.10268317
227	0xbcf450e5	-0.02982373
228	0xbd906ddc	-0.07052204
229	0xbd8c46a5	-0.06849412
230	0xbcb1bf6f	-0.021697728
231	0x3c84bfe7	0.016204787
232	0xbb9cad9a	-0.004781437
233	0xbc04f271	-0.008114443
234	0xbdc9945a	-0.09842749
235	0x3dc82388	0.09772402
236	0xbc9621cd	-0.018326664
237	0x3d989093	0.0744945
238	0x3dbcec18	0.09224719
239	0xbd3dbcda	-0.04632268
240	0x3da717ab	0.08158811
241	0xbd32d2d7	-0.043658104
242	0xbceec126	-0.029144835
243	0x3b614c0c	0.0034377603
244	0xbdb9cb22	-0.09071948
245	0xbd02f1dd	-0.03196894
246	0x3abe616f	0.0014524887
247	0x3d091f20	0.03347695
248	0x3d68403a	0.056701876
249	0xbd919b45	-0.071096934
250	0x3d9f1730	0.077680945
251	0x3b77d9cd	0.0037819028
252	0xbd9dc640	-0.07703829
253	0x3ba90133	0.0051576137
254	0x3d191d74	0.037381604
255	0xbd6163dd	-0.055026878

g.2.bias f4 [100]
0	0x3dae53c7	0.08512073
1	0x3c91ad68	0.017782882
2	0x3d7d7fe7	0.061889555
3	0xbd20464f	-0.03912955
4	0x3c8496e2	0.016185228
5	0x3cb17726	0.02166326
6	0xbcefbb50	-0.029264122
7	0x3de86f0f	0.11349308
8	0xbd95bc80	-0.07311344
9	0xbbc004dd	-0.0058599547
10	0x3c2af16e	0.010433538
11	0x3ca1dff2	0.019760106
12	0x3b049c08	0.0020234603
13	0x3c6006b3	0.013673472
14	0xbd1a1d37	-0.037625518
15	0x3d91fd3a	0.07128377
16	0xbd4c05cf	-0.049810227
17	0xbd91a5a8	-0.071116745
18	0xbd9aec25	-0.07564572
19	0x3da323ea	0.079658344
20	0xbdb1011f	-0.08642792
21	0x3d30019a	0.042970277
22	0x3c66ad1f	0.014079361
23	0x3daeb70e	0.08531009
24	0xbdaf12a7	-0.085484795
25	0xbdd5ed3e	-0.10445641
26	0x3d97ba56	0.07408588
27	0xbdcba843	-0.09944203
28	0x3d5d6270	0.054048955
29	0x3df9d445	0.1219869
30	0xbdda7cdd	-0.10668347
31	0x3cb59937	0.022167785
32	0xbd37488d	-0.044746924
33	0xbd5f2627	-0.054479744
34	0xbda6a200	-0.08136368
35	0x3be08041	0.0068512266
36	0xbd1320ce	-0.035919957
37	0x3d95e269	0.07318575
38	0x3ca9e769	0.020740228
39	0xbd0e5d17	-0.034756746
40	0x3cfde9c7	0.030995263
41	0xbd9eef88	-0.07760531
42	0xbd8ba431	-0.068184264
43	0x3b182704	0.0023216614
44	0xbd09a9fb	-0.03360937
45	0xbda8d5ba	-0.0824389
46	0xbdc7e3f4	-0.097602755
47	0xbbedecee	-0.0072609102
48	0xbd8fb28d	-0.07016478
49	0xbd84a1ca	-0.06476171
50	0xbc5deef6	-0.013545742
51	0xbcca6845	-0.024707923
52	0x3d07f4ab	0.033192318
53	0x3e02ad8a	0.12761512
54	0xbd87a7f9	-0.06623835
55	0xbd3e5705	-0.046469707
56	0xbcb7950d	-0.02240994
57	0x3d1dc1a9	0.038514767
58	0xbc4cda0d	-0.012503159
59	0xbc3ef139	-0.011654192
60	0x3bc1c336	0.0059131635
61	0x3c55ce9f	0.013049751
62	0xbd8470e7	-0.06466847
63	0x3d1d750d	0.038441706
64	0xbd8315c0	-0.06400633
65	0xbc1331ea	-0.008984068
66	0x3cb08059	0.021545576
67	0xbe2f8a86	-0.17142686
68	0xbca0365d	-0.019557172
69	0xbd3f8aae	-0.046763115
70	0xbcc9b70d	-0.024623418
71	0xbb6c5b67	-0.0036065222
72	0xbcac08c0	-0.021000266
73	0x3d07e098	0.033173174
74	0x3d1b5818	0.03792581
75	0xbda29d70	-0.07940185
76	0x3d78ef36	0.060775004
77	0x3d3d5ef7	0.046233144
78	0xbbaac433	-0.005211377
79	0xbce613bd	-0.028085584
80	0xbdb75258	-0.08951253
81	0xbe041b9e	-0.1290116
82	0xbd8da28a	-0.069157675
83	0x3d3b9601	0.04579735
84	0xbd6a913e	-0.05726742
85	0x3b955ca2	0.004558162
86	0xbd1b614f	-0.037934598
87	0xbd5cab91	-0.053874556
88	0xbdaa3735	-0.08311311
89	0x3c3e2ba7	0.011607087
90	0x3d48cb0b	0.049021762
91	0xbd2ed25a	-0.042681076
92	0xbc1c430d	-0.0095374705
93	0xbc3009a4	-0.010744486
94	0x3d01c8c7	0.031685617
95	0xbcaae188	-0.020859495
96	0x3ca9a053	0.020706331
97	0x3d44df5c	0.048064575
98	0x3c3e2a7e	0.011606811
99	0xbbb4600d	-0.005504614

g.4.weight f4 [1, 100]
0	0x3f5ba518	0.8579879
1	0x3f9a94ea	1.2076695
2	0x3db76885	0.089554824
3	0xbf678ece	-0.9045228
4	0x3c592eec	0.013255816
5	0xbea73f74	-0.32665598
6	0x3dbdee16	0.09273927
7	0x3fa17127	1.2612656
8	0xbd22e9f3	-0.039773893
9	0xbfc64e09	-1.5492564
10	0xc0020577	-2.0315835
11	0x3f50729f	0.814249
12	0xbf99bfae	-1.2011621
13	0xbd98cd05	-0.07460979
14	0xbeead7d8	-0.458678
15	0x3d14e0d9	0.036347244
16	0xc01035b0	-2.2532768
17	0xbfa3563c	-1.2760692
18	0x39b35667	0.00034205915
19	0x3f50eb0f	0.8160867
20	0xbdc5b9a0	-0.09654546
21	0xbeba2360	-0.36355114
22	0xbeef7382	-0.46767813
23	0x3cac2d1b	0.021017602
24	0x3bd6999a	0.0065490725
25	0xbf6a0bce	-0.9142426
26	0x3d25df86	0.04049637
27	0xbdc3673d	-0.095411755
28	0x3fa1adb8	1.263114
29	0x3f86b74b	1.0524687
30	0xbf9139e0	-1.1345787
31	0x3f530c26	0.8244041
32	0x3ccc3b67	0.024930669
33	0xbc8a79da	-0.016903806
34	0xbeebd6cf	-0.46062323
35	0x3f9d5995	1.2292963
36	0x3f725170	0.94655514
37	0x3f888296	1.0664852
38	0xbf237e78	-0.6386485
39	0xbd6823a0	-0.0566746
40	0x3d9ac08a	0.07556255
41	0x3daadaef	0.083425395
42	0x3f9a16e7	1.2038239
43	0x3f9efbab	1.2420553
44	0xbfd40642	-1.656441
45	0xbe8fbf7a	-0.28075773
46	0x3d808722	0.062757745
47	0xbf3c6a4d	-0.735997
48	0xbe6bb822	-0.2301946
49	0x3d808258	0.06274861
50	0x3aad8357	0.0013237995
51	0x3d4caf0b	0.04997162
52	0xbec7f145	-0.39051262
53	0x3f78c6db	0.9717843
54	0x3cbdea69	0.023183065
55	0x3d39639c	0.04526101
56	0x3d22083a	0.039558627
57	0xbec2d681	-0.38054278
58	0xbda076f7	-0.07835191
59	0x3d40f180	0.047105312
60	0x3c3ca586	0.011514073
61	0x3f93814c	1.1523833
62	0xbec6a312	-0.38796288
63	0xbeed10da	-0.4630192
64	0xbfd1fd56	-1.6405437
65	0xbebe22e8	-0.37136006
66	0x3da26c09	0.07930762
67	0xc0102cd8	-2.252737
68	0xbedb6323	-0.42849073
69	0x3f66c3ab	0.90142316
70	0x3f7d2136	0.988788
71	0x3db830b5	0.08993665
72	0x3db0732f	0.086157195
73	0xbfc32f69	-1.5248843
74	0xbf9ef946	-1.2419822
75	0x3d96b02e	0.07357822
76	0x3f80ea0b	1.0071424
77	0x3c029768	0.007970668
78	0xbd0af0ea	-0.03392116
79	0xbd30ecc1	-0.043194536
80	0xbd4953aa	-0.049152054
81	0xbfc18812	-1.511965
82	0xbda56753	-0.08076348
83	0x3d29d47a	0.0414624
84	0x3d47b2d9	0.048754547
85	0xbfb0ac62	-1.3802607
86	0xbe963b20	-0.29341984
87	0xbf3ef928	-0.7459893
88	0xbf464518	-0.7744918
89	0xbd5a83ed	-0.05334847
90	0xbf0a5b7e	-0.54045856
91	0xbd28daca	-0.04122428
92	0x3db1d490	0.08683121
93	0xbebd8ba6	-0.37020606
94	0xbfb2aedf	-1.3959616
95	0xbeeb26fa	-0.45928174
96	0xbfb782e9	-1.4336826
97	0x3f620932	0.8829528
98	0x3d5c0222	0.05371297
99	0xbec742b7	-0.38918087

h.0.weight f4 [100, 6]
0	0x3eda66dc	0.426566
1	0xbde9f021	-0.11422754
2	0xbe49328c	-0.19648188
3	0xbf03df46	-0.51512563
4	0x3ea7cba2	0.32772547
5	0x3e314588	0.1731168
6	0x3f271b6a	0.65276206
7	0x3ebdd412	0.3707586
8	0xbc3231df	-0.010876148
9	0xbeafd120	-0.34339237
10	0x3eb40a3f	0.35164067
11	0xbdc174e8	-0.09446126
12	0x3f0822c5	0.53178054
13	0xbeea646f	-0.4577975
14	0xbea7b4cd	-0.32755128
15	0x3e7df76e	0.24801418
16	0xbe832581	-0.2561455
17	0xbe889089	-0.26672772
18	0xbcff816f	-0.031189648
19	0x3e5660c0	0.20935345
20	0xbea391fc	-0.31947315
21	0x3eb2d9ae	0.349317
22	0xbc48064b	-0.012208532
23	0xbe704bea	-0.23466459
24	0x3d946181	0.0724516
25	0x3f3006c1	0.68760306
26	0xbc2f07b3	-0.010682988
27	0x3e0af8ed	0.1357152
28	0xbc4cbf2c	-0.012496751
29	0xbd95c0d6	-0.07312171
30	0x3db6b23a	0.08920713
31	0xbd8114e4	-0.06302813
32	0xbe0ebe62	-0.13939813
33	0x3f0ae315	0.5425275
34	0x3ebb6da8	0.366071
35	0x3e3ccf59	0.18438472
36	0xbe84cfc9	-0.25939777
37	0x3e3ccc9c	0.18437427
38	0xbd0aaece	-0.033858113
39	0x3e8a5b25	0.27022663
40	0xbe84cb63	-0.25936422
41	0x3e0ea0a2	0.13928464
42	0x3e9149ca	0.2837661
43	0x3ebce3f7	0.36892673
44	0xbe28d98c	-0.16489238
45	0xbe94efcd	-0.29089203
46	0x3e3e647f	0.18593024
47	0x3ea05229	0.31312683
48	0xbd988173	-0.074465655
49	0xbcc99ac0	-0.024609923
50	0x3ec625bb	0.3870066
51	0xbeb7b586	-0.3588068
52	0x3e994200	0.29933167
53	0x3e0cdded	0.13756533
54	0x3eccbb43	0.3998662
55	0x3e8b0286	0.27150363
56	0x3e0b306f	0.13592695
57	0xbf13de0c	-0.5776069
58	0x3d6e96bc	0.05824922
59	0xbe8de64b	-0.27714762
60	0x3ea422c7	0.32057783
61	0x3ea00e4f	0.31260917
62	0x3d64406d	0.055725504
63	0x3e1a2372	0.15052584
64	0xbeb45cea	-0.35227138
65	0x3cc7961d	0.024363572
66	0x3ef73e44	0.48289692
67	0xbf3a8840	-0.7286415
68	0xbeb2d65d	-0.3492917
69	0xbe5718d1	-0.2100556
70	0x3e588042	0.21142676
71	0x3ea2e1af	0.31812808
72	0x3ed5bfd7	0.41747925
73	0x3da5b96a	0.080920056
74	0xbebf46f3	-0.37358817
75	0xbed514d6	-0.4161746
76	0x3ce7d89f	0.028301535
77	0x3e260142	0.16211417
78	0x3f4d9bec	0.8031604
79	0x3dd5e30c	0.104436964
80	0x3d1d3284	0.038378254
81	0xbefd6194	-0.4948851
82	0x3dfcc000	0.123413086
83	0xbe49ed69	-0.19719471
84	0xbeaa98d0	-0.33319712
85	0x3f032667	0.5123047
86	0xbe865ee2	-0.26244265
87	0xbe6163b7	-0.22010694
88	0x3ec5da65	0.38643184
89	0x3ea92819	0.33038405
90	0x3d97fb64	0.07420996
91	0x3e0688cc	0.13138121
92	0x3e53f775	0.20699866
93	0x3c93ef27	0.018058373
94	0xbeb161db	-0.3464497
95	0x3cb8dc3f	0.022565959
96	0x3f3ca11b	0.7368333
97	0x3ee06b03	0.43831643
98	0x3e30d5d7	0.17269073
99	0xbde80f6c	-0.113310665
100	0xbe6b048d	-0.22950955
101	0xbea22aa3	-0.31673154
102	0xbe79bd72	-0.24388674
103	0x3dbb921e	0.09158729
104	0xbd88d825	-0.06681851
105	0x3e246733	0.16054992
106	0xbd2a851d	-0.041630853
107	0x3ea928c6	0.3303892
108	0x3f2dc8ca	0.67884505
109	0x3ea2440c	0.3169254
110	0x3a21db92	0.0006174381
111	0xbecae2f4	-0.39626276
112	0x3d9467ce	0.07246362
113	0x3e265309	0.16242613
114	0xbda9e411	-0.08295453
115	0x3ed6332a	0.4183591
116	0xbdbbb244	-0.09164861
117	0x3e5a4852	0.2131665
118	0xbed0d373	-0.40786323
119	0xbe6d0bad	-0.23148985
120	0x3cb232ca	0.021752734
121	0xbecc13f8	-0.39858985
122	0xbe2131d7	-0.15741669
123	0xbdb9774e	-0.09055959
124	0x3e9a931e	0.30190367
125	0xbe8719a1	-0.2638674
126	0x3e93f52a	0.28897983
127	0xbe5a0a3c	-0.21292967
128	0xbe77dfc5	-0.24206455
129	0xbe4451d7	-0.19171844
130	0xbec3bee1	-0.38231567
131	0xbca336fd	-0.019923681
132	0xbe628de9	-0.22124447
133	0xbe44f16e	-0.19232723
134	0x3eb2745f	0.3485441
135	0xbe2b61d2	-0.16736534
136	0x3ec6011b	0.38672718
137	0xbec9516a	-0.39319927
138	0x3f222d33	0.6335022
139	0xbe95e9bb	-0.29279885
140	0x3d516369	0.051120196
141	0xbd173e23	-0.036924493
142	0x3eaa20fd	0.33228293
143	0xbc49f491	-0.012326376
144	0xbeaccbcd	-0.33749238
145	0xbeb73ded	-0.35789433
146	0xbd0761a1	-0.03305209
147	0xbd7c38f6	-0.06157776
148	0xbe7ff178	-0.24994457
149	0xbeb13fac	-0.3461889
150	0x3e1aee56	0.1512998
151	0xbf182f5d	-0.5944727
152	0x3e9f2bda	0.31088144
153	0xbe1903e2	-0.14942887
154	0x3ead1035	0.33801427
155	0x3e41063f	0.18850039
156	0xbe5042c7	-0.20337974
157	0x3e0290e9	0.12750591
158	0xbe358b45	-0.17728908
159	0xbd9ebd4b	-0.077509485
160	0x3e82e846	0.25567836
161	0xbdb29836	-0.08720438
162	0x3d965b14	0.073415905
163	0xbe77b9c4	-0.24191958
164	0xbeb81017	-0.35949776
165	0x3e0b09aa	0.13577905
166	0xbea55889	-0.3229411
167	0xbc475914	-0.012167234
168	0x3e1114c6	0.1416808
169	0xbe8d5906	-0.27606982
170	0xbe4ccbe3	-0.19999652
171	0x3ea0596b	0.3131822
172	0xbe9b6ac5	-0.30354896
173	0x3e1cecfc	0.15324777
174	0xbf215b7c	-0.6303022
175	0xbe764752	-0.24050644
176	0x3ec88446	0.39163417
177	0x3efa332a	0.4886716
178	0xbca51369	-0.020150857
179	0x3eac8466	0.33694762
180	0x3f2888bb	0.65833634
181	0x3e7e3d4a	0.24828067
182	0xbc1525d5	-0.009103258
183	0xbf299122	-0.6623708
184	0x3e4cc969	0.19998707
185	0x3e3bf337	0.18354498
186	0x3e84a84d	0.25909653
187	0xbd79a753	-0.06095059
188	0x3ca63faf	0.020294039
189	0xbe579b46	-0.21055326
190	0xbe958090	-0.29199648
191	0x3d4de78b	0.050269645
192	0xbf3af809	-0.7303472
193	0x3d9d8d2d	0.07692943
194	0x3eabd73c	0.33562648
195	0x3ea0bcfe	0.3139419
196	0x3e708245	0.23487194
197	0xbd0a3fea	-0.03375236
198	0xbf0e86c5	-0.5567439
199	0x3ed1ff61	0.4101515
200	0x3e9663e5	0.29373088
201	0x3d248f87	0.04017594
202	0xbe30ba4b	-0.17258565
203	0x3d9c55d5	0.07633559
204	0x3e0bf0ec	0.13666123
205	0xbd81df34	-0.06341401
206	0x3d9e1ef8	0.077207506
207	0xbe1e44d1	-0.15455939
208	0x3e5b20e3	0.21399264
209	0xbebacd21	-0.36484626
210	0xbea068db	-0.31329998
211	0xbe8226e3	-0.25420293
212	0xbd8a84a7	-0.06763583
213	0x3c275c07	0.010214812
214	0xbe70d805	-0.23519905
215	0x3d5a9919	0.05336866
216	0xbe0442dd	-0.12916131
217	0x3e330a4e	0.174844
218	0x3ebfe032	0.37475735
219	0xbe76c999	-0.24100341
220	0xbe5332e0	-0.20624876
221	0xbe38fa0f	-0.1806414
222	0xbe289a6f	-0.16465162
223	0x3eb1b064	0.34704888
224	0x3eaf3793	0.34222087
225	0xbdea6f14	-0.11446968
226	0xbe827268	-0.2547791
227	0xbeb7da02	-0.35908514
228	0x3e98291c	0.29718864
229	0xbeb40812	-0.35162407
230	0xbeabd3a2	-0.335599
231	0xbe1ee713	-0.15517835
232	0xbeb658f3	-0.35614738
233	0x3c52e94a	0.012873003
234	0xbe94eaa1	-0.29085258
235	0x3e15ec20	0.14640856
236	0xbd080634	-0.03320904
237	0xbea6b4dd	-0.32559863
238	0x3e77c2a8	0.24195349
239	0xbe0d84d9	-0.13820209
240	0xbeb5d152	-0.3551126
241	0xbe52cf95	-0.20586999
242	0x3e526d14	0.20549423
243	0x3eac0d25	0.33603778
244	0x3d470549	0.048589025
245	0x3e5d3919	0.21603812
246	0x3e85613d	0.2605075
247	0xbefb439f	-0.49075028
248	0xbd4c582c	-0.049888775
249	0xbe91ac81	-0.28451923
250	0x3c2f2e36	0.01069217
251	0x3ecdc719	0.40190962
252	0x3e0ceb0a	0.13761535
253	0xbdd5c0f0	-0.104371905
254	0xbe5eefda	-0.21771184
255	0xbea7f3e0	-0.3280325

h.0.bias f4 [100]
0	0x3e519560	0.20467138
1	0x3e37d688	0.17952931
2	0x3e357602	0.17720798
3	0x3d16aacf	0.03678399
4	0xbe7b52bd	-0.24543281
5	0xbdfdded7	-0.12396019
6	0x3e951225	0.29115406
7	0xbe8e1b17	-0.27755043
8	0xbeae8d5b	-0.3409222
9	0x3dfe139a	0.124060825
10	0xbe8af933	-0.2714325
11	0x3db9c181	0.09070111
12	0xbd5d3522	-0.05400575
13	0x3e4b4f55	0.19854482
14	0xbe870135	-0.26368108
15	0xbe348bc8	-0.17631447
16	0x3d335e61	0.04379118
17	0x3db583c0	0.0886302
18	0xbae266bd	-0.001727305
19	0xbdf16932	-0.117876425
20	0xbe9cad58	-0.30601
21	0x3b2bcf0a	0.0026215934
22	0xbe907cf1	-0.28220323
23	0x3d012aa0	0.03153479
24	0xbdf4491c	-0.11928007
25	0x3e860442	0.26175123
26	0xbe60c070	-0.21948409
27	0xbe862743	-0.2620183
28	0xbeacd7c2	-0.3375836
29	0x3e94545b	0.28970608
30	0x3dca2374	0.098700434
31	0xbe046196	-0.12927851
32	0x3de6001e	0.11230491
33	0x3e906fa4	0.28210175
34	0x3e3cc933	0.18436126
35	0xbdeabc0f	-0.114616506
36	0xbe4cbd0c	-0.1999399
37	0xbe596339	-0.21229257
38	0xbea2edc6	-0.31822032
39	0xbe6368ec	-0.22207993
40	0xbe89139d	-0.26772776
41	0x3ea94763	0.33062276
42	0xbde2f4c7	-0.11081844
43	0xbe2b1f99	-0.16711272
44	0x3d73f71c	0.059561834
45	0x3ea88cd0	0.3291993
46	0xbea2e019	-0.31811598
47	0xbcd6bad2	-0.02621213
48	0x3e32eec3	0.17473893
49	0xbe208058	-0.1567396
50	0xbea89b3a	-0.32930928
51	0x3ed2c8dc	0.4116887
52	0x3e8a3b6c	0.2699846
53	0xbe969faf	-0.29418704
54	0x3e870b61	0.2637587
55	0xbead893c	-0.33893764
56	0xbe653390	-0.22382951
57	0x3dc6f381	0.097144134
58	0x3ddd60f5	0.10809509
59	0x3dc82005	0.09771732
60	0x3e286831	0.16445996
61	0xbe9abd5a	-0.3022259
62	0xbe476524	-0.19472176
63	0x3eee7ce9	0.46579674
64	0x3ece1711	0.40251973
65	0x3e270ef2	0.16314295
66	0x3d461f09	0.04836944
67	0xbe3aa84a	-0.1822826
68	0x3eccb0f2	0.3997875
69	0x3e6c3dbe	0.23070428
70	0x3e5be218	0.21472967
71	0xbe772421	-0.24134876
72	0x3e945ed9	0.28978613
73	0xbd693233	-0.05693264
74	0x3e95ff97	0.29296562
75	0xbe0a5f96	-0.13513026
76	0x3e9b7cba	0.30368596
77	0xbcf1f42f	-0.029535381
78	0x3eb6b858	0.35687518
79	0x3deca7e5	0.11555461
80	0x3dcfbba9	0.10143215
81	0xbe9c5b00	-0.30538177
82	0x3ea65e2b	0.3249372
83	0xbe2a0134	-0.16602021
84	0xbeb22e4b	-0.34800944
85	0x3d32d408	0.04365924
86	0x3e8a6892	0.27032906
87	0xbec7d237	-0.3902757
88	0xbea343f8	-0.31887794
89	0xbe8aacc2	-0.2708493
90	0x3e28b315	0.16474564
91	0x3d8d2c9b	0.068932734
92	0x3e66c5b7	0.2253636
93	0xbcf2dbba	-0.02964579
94	0x3e8882e7	0.2666237
95	0x3d84483b	0.06459089
96	0x3e6c5865	0.23080595
97	0x3eaad067	0.33362123
98	0xbc9c945e	-0.019113716
99	0x3d803c20	0.06261468

h.2.weight f4 [100, 100]
0	0x3dfae170	0.1225003
1	0x3e1a2926	0.1505476
2	0x3ccac2f5	0.024751166
3	0xbd748444	-0.05969645
4	0x3e78ed98	0.24309385
5	0xbe850364	-0.2597915
6	0xbdd6357e	-0.104594216
7	0xbfa536da	-1.2907364
8	0xbdc1d100	-0.09463692
9	0x3e30af59	0.1725439
10	0xbc8a4633	-0.016879177
11	0x3f01c0bb	0.5068471
12	0xbee70a2e	-0.45124954
13	0x3d97c2ef	0.074102275
14	0x3f1d3007	0.6140141
15	0xbca5a033	-0.02021799
16	0x3d11e9a1	0.035623197
17	0x3cd2227f	0.025651215
18	0x3df19023	0.1179507
19	0x3ec94648	0.39311433
20	0x3cf89a67	0.030347062
21	0x3da148f5	0.078752436
22	0xbbeb1d00	-0.007175088
23	0xbd9fbb56	-0.07799403
24	0xbd9ae147	-0.075624995
25	0xbb036663	-0.002005004
26	0x3d8416bf	0.06449651
27	0xbd2e96ba	-0.042624213
28	0xbd55c4b3	-0.05218954
29	0xbe5f10d1	-0.21783759
30	0x3e2326f0	0.15932822
31	0x3d412ae0	0.04716003
32	0xbed4dff7	-0.41577122
33	0x3dfaca34	0.122455984
34	0xbd5b9084	-0.053604618
35	0xbd8a1e2d	-0.06744037
36	0xbd8014f3	-0.06253996
37	0xbd0ae71d	-0.033911813
38	0x3c5ff95a	0.01367029
39	0xbcb0573a	-0.021525968
40	0x3d018ad0	0.031626523
41	0x3eb83544	0.35978138
42	0x3d09a9da	0.03360925
43	0xbe841588	-0.25797677
44	0x3e01c823	0.12674002
45	0xbe6afd84	-0.22948271
46	0x3d3d2d0a	0.04618553
47	0x3e268f8d	0.16265698
48	0xbdc34173	-0.09533968
49	0xbbc8bb4d	-0.0061258436
50	0xbe25973e	-0.16170976
51	0x3e4d3530	0.2003982
52	0xbe2fd7a0	-0.17172098
53	0xbca25f33	-0.019820785
54	0xbe2345b5	-0.1594456
55	0x3b1daf9a	0.0024060966
56	0xbd735e77	-0.05941626
57	0xbe5c5afd	-0.21519084
58	0xbe977b88	-0.29586434
59	0xba93b8fa	-0.0011270337
60	0xbe96ea79	-0.29475763
61	0xbe188d86	-0.14897737
62	0xbe086eef	-0.13323568
63	0x3ebd9d3f	0.37034032
64	0xbdf40aed	-0.119161464
65	0x3d4f30a8	0.05058351
66	0x3d0e488a	0.034737147
67	0x3d45e960	0.048318267
68	0xbe811c7b	-0.2521704
69	0xbea4bf68	-0.3217728
70	0x3cb7708b	0.022392532
71	0x3cf25b00	0.029584408
72	0x3d63b0d6	0.055588566
73	0xbd4035b7	-0.046926226
74	0x3c8b786f	0.0170252
75	0xbdc29648	-0.0950132
76	0xbc87764d	-0.016535902
77	0x3f3fb583	0.7488634
78	0xbc88e40e	-0.016710307
79	0xbd6c9493	-0.05775888
80	0x3de69391	0.11258615
81	0xbcd340ba	-0.0257877
82	0xbeb8d9b3	-0.3610359
83	0x3ea8864b	0.32914957
84	0x3d9cd658	0.0765807
85	0xbeb7672d	-0.35820904
86	0x3908e364	0.0001305468
87	0x3cd54707	0.026034845
88	0xbd1e7740	-0.038687944
89	0xbd91e4ef	-0.07123744
90	0xbea1e669	-0.31621101
91	0xbe2093d0	-0.15681386
92	0xbd2332f6	-0.039843522
93	0x3d8ef082	0.06979467
94	0xbe5ae98a	-0.2137815
95	0x3d8e789d	0.06956599
96	0xbc85a6bb	-0.016314855
97	0xbe008e67	-0.12554322
98	0x3e3ef5df	0.1864848
99	0x3e7d1e6c	0.24718636
100	0xbd67b8a3	-0.056572568
101	0xbd4e4c37	-0.050365653
102	0x3be0ee1a	0.0068643214
103	0xbbb971cd	-0.005659318
104	0x3d0ebc43	0.03484751
105	0x3db17de0	0.08666587
106	0xbc714167	-0.014725066
107	0xbd034837	-0.03205129
108	0xbcdaaef3	-0.02669475
109	0xbd8cdf8d	-0.068785764
110	0x3cf8d22d	0.030373657
111	0x3d3b28d0	0.04569322
112	0xbdbec223	-0.093143724
113	0xbc8fb0a0	-0.017540276
114	0x3d67d02d	0.056595016
115	0x3cf04873	0.029331421
116	0xbd3e7257	-0.04649576
117	0x3d3e4e07	0.04646113
118	0x3da7d2f2	0.081945315
119	0xbdac1e07	-0.08404165
120	0x3cc4d207	0.02402593
121	0xbd1eec77	-0.03879973
122	0xbdbf4940	-0.09340143
123	0x3c326cc0	0.010890186
124	0xbd3cae87	-0.04606488
125	0x3d57830d	0.052615214
126	0x3d6a23f7	0.057163205
127	0x3d4f4827	0.05060592
128	0xba497267	-0.0007684589
129	0xbdb8d655	-0.090252556
130	0xbda26467	-0.079293065
131	0x3d29bbd3	0.04143889
132	0xbda03223	-0.07822063
133	0xbd68429a	-0.05670414
134	0xbd0b3afa	-0.03399179
135	0xbccabb33	-0.024747467
136	0x3d874ead	0.06606803
137	0xbc16b380	-0.00919807
138	0x3d209607	0.039205577
139	0x3dc34c45	0.09536032
140	0x3c20711a	0.0097925905
141	0x3b147733	0.0022654056
142	0x3d5deb20	0.05417931
143	0x3d6f71d3	0.05845816
144	0x3dc2d32d	0.09512935
145	0xbd9a2df3	-0.07528295
146	0x3d2a2770	0.041541517
147	0x3971d000	0.00023061037
148	0x3d132203	0.035921108
149	0xbdcb54f2	-0.099283114
150	0x3d282383	0.04104949
151	0x3d21907a	0.039444424
152	0xbce2799a	-0.027645875
153	0xbdc85cd0	-0.097833276
154	0x3db921d5	0.09039656
155	0x3cab7187	0.020928157
156	0x3d0e14c7	0.034687784
157	0xbd87cf88	-0.0663138
158	0xbdb597fd	-0.0886688
159	0x3d73a55a	0.059483863
160	0xbd443e33	-0.04791088
161	0xbdb6db52	-0.08928551
162	0xbdb458b2	-0.0880598
163	0x3d432120	0.047639012
164	0x3d498777	0.049201455
165	0x3d935e9d	0.071957804
166	0x3d3184bd	0.04333948
167	0xbd36b24a	-0.044603623
168	0x3bcf5d1a	0.0063282372
169	0xbd0d1bad	-0.03445022
170	0xbd90cdcb	-0.07070502
171	0xbd2c9e7d	-0.042143334
172	0xbc87d560	-0.016581237
173	0xbc515c80	-0.012778401
174	0xbc9f71c7	-0.019463433
175	0xbdadf905	-0.08494762
176	0xbd1a846d	-0.037723947
177	0xbd54e2f7	-0.051974263
178	0xbcf87c80	-0.030332804
179	0xbd8a363a	-0.06748624
180	0xbd324eda	-0.04353223
181	0x3d86960d	0.06571589
182	0xbdc78738	-0.09742588
183	0xbd7e46ba	-0.06207917
184	0xba2a4400	-0.0006495118
185	0xbd763823	-0.06011213
186	0xbcbe49b3	-0.023228502
187	0xbda65e5a	-0.08123465
188	0xbd2524da	-0.040318348
189	0x3c9d0a53	0.019169962
190	0xbb752a00	-0.0037409067
191	0xbdbf9708	-0.09354979
192	0xba88ae00	-0.0010427833
193	0x3d797690	0.060904086
194	0xbdc893bf	-0.09793805
195	0xbd1cae1d	-0.038251985
196	0xbdb3e4fa	-0.08783908
197	0x3c8d0a60	0.017216861
198	0x3d657e5a	0.0560287
199	0xbcfab493	-0.030603683
200	0x3e6c63c6	0.23084936
201	0x3d90a662	0.07062985
202	0x3e568427	0.2094885
203	0x3dee377f	0.11631679
204	0x3e85f65d	0.26164523
205	0x3d655716	0.055991255
206	0xbdf36418	-0.11884326
207	0xbf96bbc9	-1.1776057
208	0x3d309017	0.043106165
209	0x3e40d5b2	0.18831518
210	0x3d49719a	0.049180605
211	0x3f11c6c6	0.5694393
212	0xbf30ccd3	-0.69062537
213	0x3e50bb13	0.20383863
214	0x3ede9070	0.43469572
215	0x3da06468	0.07831651
216	0x3defb95d	0.11705277
217	0xbe1c0b9f	-0.15238808
218	0x3e995aaa	0.29951984
219	0x3f027916	0.5096601
220	0xbdb9aff5	-0.09066764
221	0xbd907432	-0.070534125
222	0xbd15498d	-0.036447097
223	0x3dcbcf35	0.09951631
224	0xbceda13a	-0.029007543
225	0x3d17b1f5	0.037034947
226	0x3dbf24fb	0.09333225
227	0x3d42b603	0.04753686
228	0xbc075fa7	-0.008262551
229	0xbe37b094	-0.17938453
230	0x3e941d69	0.28928688
231	0xbd288e93	-0.041151594
232	0xbf0f4740	-0.55968094
233	0x3c7733fa	0.015088076
234	0xbd670803	-0.056404125
235	0x3d5aab7d	0.0533862
236	0x3ccef460	0.025263011
237	0x3d12448a	0.035709895
238	0xbc8f7660	-0.0175125
239	0xbd7dcf90	-0.061965525
240	0xbdb44060	-0.08801341
241	0x3ead2eff	0.33824918
242	0xbc5b509a	-0.013385916
243	0xbe7da02a	-0.24768129
244	0x3e247f1c	0.16064113
245	0xbda872ba	-0.08225007
246	0xbc5d1580	-0.0134938955
247	0x3e18bd66	0.14916
248	0x3df1437f	0.11780452
249	0x3dbd224b	0.092350565
250	0xbea5bf13	-0.3237234
251	0x3df5fe19	0.12011356
252	0xbea22a6b	-0.31672987
253	0xbda857aa	-0.082198456
254	0xbc37e64c	-0.011224341
255	0xbd754063	-0.059875857

h.2.bias f4 [100]
0	0x3d088e19	0.03333864
1	0x3d12e6b7	0.035864558
2	0xbd2e16de	-0.042502277
3	0xbcdba145	-0.026810298
4	0xbdc8d703	-0.09806635
5	0xbd4c731d	-0.049914468
6	0x3b20e953	0.0024553135
7	0xbd9e0c55	-0.07717196
8	0xbda1a659	-0.078930564
9	0xbd701b65	-0.058619875
10	0x3d75ea97	0.060038175
11	0xbd259b9d	-0.040431608
12	0x3d126fd9	0.035751197
13	0xbcbf586f	-0.023357598
14	0x3d7dabfa	0.061931588
15	0xbdc65b23	-0.09685352
16	0x3cd0a0e4	0.025467344
17	0xbd81a495	-0.0633022
18	0xbd86b3d8	-0.06577271
19	0xbd0b9cc5	-0.034085054
20	0xbe234d72	-0.15947512
21	0x3d83a023	0.06427028
22	0xbdc5da1d	-0.096607424
23	0xbdab8c3b	-0.08376356
24	0xbdc86b7a	-0.097861245
25	0xbdb0d627	-0.08634596
26	0xbd618853	-0.05506165
27	0x3c88b9c4	0.016690142
28	0xbd8ac7e1	-0.06776405
29	0x3dc71785	0.09721283
30	0x3d379c9b	0.044827085
31	0x3d98e754	0.07465997
32	0xbbc810c0	-0.0061055124
33	0x3bc3a07b	0.0059700585
34	0xbd9427c1	-0.07234145
35	0xb9560333	-0.00020409822
36	0xbd9f5282	-0.07779409
37	0x3d45b370	0.048266828
38	0xbe19885e	-0.14993426
39	0x3ea60009	0.32421902
40	0xbe27c494	-0.16383582
41	0xbcd83ce0	-0.026396215
42	0x3cb0f4a0	0.021601021
43	0xbdade6db	-0.08491298
44	0x3da85b18	0.082205
45	0xbdbcd718	-0.092207134
46	0xbb75143b	-0.0037396092
47	0x3e3c71cf	0.1840279
48	0x3d38442b	0.044986885
49	0xbd97dd95	-0.0741531
50	0xbd527471	-0.05138058
51	0xbd6708c3	-0.05640484
52	0xbda992dd	-0.08279965
53	0xbcf08ee0	-0.029365003
54	0xbd8216b1	-0.06351984
55	0xbdb1071d	-0.08643935
56	0xbc5fe991	-0.013666526
57	0xbc0394cd	-0.008031082
58	0x3b8dd4fa	0.0043283673
59	0x3dc0da3c	0.09416625
60	0x3d8f501c	0.069977015
61	0xbddef00d	-0.1088563
62	0x3c555b2e	0.013022227
63	0x3e9935c5	0.29923835
64	0xbdbb84b6	-0.09156172
65	0xbd34dd73	-0.044156503
66	0x3dc16a3d	0.094440915
67	0xbd42d764	-0.047568694
68	0x3ce2c457	0.027681513
69	0x3d17fb5a	0.037104942
70	0xbcd0dca3	-0.025495833
71	0xbd6cd170	-0.057816923
72	0x3ce5c030	0.028045744
73	0xbd40a139	-0.047028754
74	0xbd6f24a1	-0.05838454
75	0xbe27b870	-0.16378951
76	0x3c5806d2	0.01318522
77	0xbd9fcd97	-0.07802885
78	0xbdb20ec6	-0.08694224
79	0x3d7ff00f	0.062484797
80	0xbda8af7a	-0.082365945
81	0x3d9a6798	0.0753929
82	0xbd77972a	-0.060446896
83	0xbc630da7	-0.013858235
84	0xbd3ef3c7	-0.046619203
85	0xbdce28c3	-0.100663684
86	0xbd7ce802	-0.061744697
87	0xbd0356b7	-0.03206512
88	0xbc331025	-0.010929142
89	0xbda99db2	-0.08282031
90	0xbdc6f21e	-0.09714149
91	0xbdc8b0f0	-0.09799373
92	0xbdad3818	-0.08457965
93	0xbda496e1	-0.0803659
94	0x3d937dc1	0.0720172
95	0xbda50317	-0.0805723
96	0xbd91fd05	-0.07128338
97	0x3d5a23af	0.053256687
98	0xbd705ed1	-0.058684174
99	0xbad13a97	-0.0015962896

h.4.weight f4 [1, 100]
0	0x3f8ea35d	1.1143605
1	0x3d0e6327	0.034762528
2	0x3f282e99	0.656961
3	0xbe42ffe5	-0.19042929
4	0xbd4af7b0	-0.04955262
5	0x3da4dffa	0.08050533
6	0xc06a0f5d	-3.6571877
7	0x3d26142a	0.040546574
8	0x3ce3da99	0.027814196
9	0x3f175f41	0.5912972
10	0xbf37b279	-0.717567
11	0xbdb08450	-0.086189866
12	0xbd80d1be	-0.06290005
13	0xbd1a7662	-0.037710555
14	0xbdb7cdda	-0.0897481
15	0x3f771511	0.9651652
16	0xbfa9d0b8	-1.3266821
17	0xbc065480	-0.008198857
18	0x3f231910	0.6371012
19	0xbfb212ef	-1.3912028
20	0x3f2ee018	0.6831069
21	0x3d92211b	0.071352206
22	0xbd1bdbdd	-0.038051475
23	0x3f31b3d0	0.69415
24	0x3d5eac73	0.05436368
25	0x3f3ad1d8	0.72976446
26	0xbdb64352	-0.08899559
27	0x3f352737	0.7076296
28	0xbd5e073a	-0.05420611
29	0xbfb92faa	-1.4467671
30	0x3f234b99	0.6378723
31	0xbd11e2de	-0.035616748
32	0x3f5de3e4	0.8667586
33	0x3f70fabe	0.941326
34	0x3f230607	0.6368107
35	0xbc8c28fa	-0.017109383
36	0x3f56f3ee	0.8396596
37	0xbcba42c0	-0.022736907
38	0x3f3f5db1	0.74752337
39	0xbf479fc6	-0.7797817
40	0x3f18e39c	0.59722304
41	0x3d6ceab7	0.05784103
42	0x3e4a2529	0.19740738
43	0x3f36800e	0.71289146
44	0x3d90e37a	0.07074638
45	0xbcb840ed	-0.022491897
46	0x3dc348b0	0.095353484
47	0xbf55fe53	-0.8359119
48	0xbf28599c	-0.65761733
49	0xbbde8e00	-0.00679183
50	0x3f2bdde5	0.6713546
51	0x3dc134df	0.094339125
52	0xbdc4e9e7	-0.09614926
53	0x3d82c70a	0.0638562
54	0x3f2b308d	0.6687096
55	0xbcd8d06d	-0.026466573
56	0xbfc32a7e	-1.5247343
57	0x3f7571fd	0.9587706
58	0xbefd554e	-0.49479145
59	0xbfacc852	-1.3498633
60	0xbdb7c7f2	-0.089736834
61	0x3f128c58	0.572454
62	0xbdaed51b	-0.085367404
63	0xbf75d424	-0.96026826
64	0x3f4a8b9d	0.7911928
65	0xbcbf542c	-0.023355566
66	0xbf74b740	-0.9559212
67	0xbfc02e0c	-1.5014052
68	0x3f24efa4	0.6442816
69	0xbdc982b3	-0.09839382
70	0xbc8175f3	-0.015803313
71	0xbd22d096	-0.039749704
72	0x3b145e07	0.0022639052
73	0x3f4c00b6	0.79688585
74	0x3e97ed1b	0.29673085
75	0x3f51c4bf	0.81940836
76	0xbfbbc5d0	-1.4669743
77	0x3d99b1fb	0.0750465
78	0x3f24f1ab	0.64431256
79	0xbd6edae4	-0.05831422
80	0xbd54a9bd	-0.051919688
81	0xbf9a2435	-1.20423
82	0xbd9d91d4	-0.0769383
83	0x3f3b70e5	0.7321914
84	0x3f7137b3	0.94225615
85	0x3d2bfa19	0.04198656
86	0xbe99a89f	-0.3001146
87	0xbfb0b3cc	-1.380487
88	0xbfdef61d	-1.7418858
89	0x3d0eb010	0.034835875
90	0x3f141a6d	0.5785282
91	0x3f267986	0.6502918
92	0x3da0659f	0.07831883
93	0x3f0b4018	0.54394674
94	0xbfac34d1	-1.3453618
95	0x3daef337	0.08542483
96	0x3d1205a7	0.03564992
97	0x3ed4a910	0.41535234
98	0xbc03d312	-0.008045929
99	0x3e2dbe6c	0.16967171
