logs/PointMaze-Right/airl_sac/seed0-20231226-1522/model/step1165000/disc.pth (torch, 90839 bytes, 10 tensors)

g.0.weight f4 [100, 6]
0.533368 0.44697073 -0.33435595 -0.64633584 0.119466 -0.1911363 -0.44322744 0.112741895
0.29091433 -0.24466605 0.1650347 0.33874533 -1.2373573 -0.0795044 -0.25612202 0.26945677
0.09886762 0.20235598 -0.06852443 -0.18819253 -0.2243558 0.24548133 0.34241265 0.3528185
-0.3042163 -0.061612263 -0.02810071 -0.19149959 -0.2506593 0.3359678 0.008262244 -0.39510506
-0.13709919 -0.21457617 0.020008314 0.0016859706 0.018724917 -0.32689115 -0.1331595 -0.27340424
-0.12182866 0.13343228 -0.1277499 -0.44019854 0.040966216 0.025424365 0.11608559 -0.31152087
0.16910407 0.25290444 0.25647485 0.23228958 -0.14990684 -0.110614814 0.13687225 -0.52506894
0.23664865 -0.16540338 -0.21469702 -0.004105888 0.58634895 0.4512933 0.28578284 -0.16824347
0.31017518 -0.08347479 0.3973137 0.5050239 0.07560826 -0.3908365 0.30045098 -0.15151338
-0.13432936 -0.30665123 0.30097106 -0.10658533 0.33454493 0.048727095 0.3818054 -0.5309436
-0.352353 -0.4668229 -0.1559335 0.14585 -0.17352663 0.09576471 0.26151153 0.27180597
-0.07007541 0.25022766 0.6592229 0.18677714 -0.24222729 -0.2872911 -0.04162657 0.016200608
-0.38634384 -0.30843475 0.25170553 0.24991678 -0.2923082 0.31349245 0.28365058 0.3282008
0.0372722 0.12764037 -0.16859733 0.36071077 -0.52951264 -0.54062897 0.32271504 0.38294512
0.25563908 0.25188634 0.17920806 -0.56129444 0.36091343 0.5162821 0.4813406 0.04992362
0.06314965 0.06961653 -0.13606638 0.1975216 0.051988512 0.2853315 0.5153985 0.05452034
-0.3889795 0.3808746 -0.14245446 0.31694484 0.41442722 0.40846777 -0.024260787 -0.2325268
0.20471534 -0.11120573 0.14791933 -0.48548278 -0.09785311 0.09193848 -0.12900254 0.18153386
0.38284716 -0.18587165 0.13337958 -0.13180949 -0.052240413 -0.07659201 -0.09856875 0.41678008
-0.23972178 0.38846293 0.23485847 0.3806506 -1.210727 -0.09185502 0.24295895 0.25711548
-0.42638594 0.14495522 0.05406795 -0.38571438 -0.085280046 0.38536727 0.4644043 -0.028504305
-0.7161483 0.06894493 -0.25590575 0.08921026 -0.27194908 0.2853666 -0.27267897 -0.39173302
-0.18654977 -0.3710537 -0.03269585 -0.09780703 0.6772131 0.52245045 0.40751252 -0.22433704
0.15121315 0.27205607 0.13528909 -0.22162893 0.30071938 0.4136446 -0.23023559 0.06660112
0.35083485 0.07052507 -0.1806743 -0.37813425 0.034719698 0.1300144 -0.011455242 -0.1265584
0.12822106 0.59169215 -0.12269835 0.17702638 0.45963994 -0.07356132 0.35175315 -0.52417535
0.43065143 0.08766949 0.12526183 -0.30601525 -0.2912675 -0.029055215 -0.13016152 -0.058905505
-0.019766245 0.064271085 -0.22063312 0.18862912 -0.15372053 -0.102332324 0.09273064 -0.4588738
-0.059540704 0.37616298 0.4210512 -0.32113814 -0.37646696 -0.3998904 -0.009386354 -0.2767339
0.061094593 0.40544826 0.04034304 -0.32599208 0.3950118 -0.1585884 -0.354551 0.019009376
-0.04403915 -0.18538104 -0.2960598 0.019190611 -0.22142415 0.3482537 0.54579306 0.45570403
0.20643272 0.037734505 0.21471171 0.21911407 0.16466258 0.027352279 0.29246658 -0.15516864
00000000: ce8a 083f 59d9 e43e b430 abbe 4476 25bf
00000010: 97aa f43d 3cb9 43be b5ee e2be 39e5 e63d
00000020: b9f2 943e bd89 7abe dbfe 283e 0770 ad3e
00000030: b961 9ebf 34d3 a2bd 6d22 83be 3df6 893e
00000040: 1b7b ca3d 6836 4f3e 8956 8cbd 8bb5 40be
00000050: 87bd 65be 755f 7b3e b650 af3e a0a4 b43e
00000060: 3dc2 9bbe 245d 7cbd 7633 e6bc 7818 44be
00000070: 6a56 80be f903 ac3e 5d5e 073c 364b cabe
00000080: bb63 0cbe dbb9 5bbe 7ae8 a33c c9fb dc3a
00000090: ff64 993c 475e a7be f75a 08be a4fb 8bbe
000000a0: 4e81 f9bd 79a2 083e dfd0 02be b461 e1be
000000b0: 31cc 273d c246 d03c 48be ed3d aa7f 9fbe
000000c0: 9e29 2d3e b17c 813e ac50 833e 52dd 6d3e
000000d0: 2e81 19be 058a e2bd 3d28 0c3e eb6a 06bf
000000e0: 0654 723e 815f 29be 89d9 5bbe af8a 86bb
000000f0: f71a 163f ea0f e73e 2152 923e 0448 2cbe
00000100: 48cf 9e3e d5f4 aabd b46c cb3e 3f49 013f
00000110: 81d8 9a3d b91b c8be b6d4 993e 5326 1bbe
00000120: a38d 09be 6401 9dbe e118 9a3e 6949 dabd
00000130: 7949 ab3e 1096 473d ff7b c33e ebeb 07bf
00000140: 9d67 b4be 6903 efbe 08ad 1fbe b459 153e
00000150: f7b0 31be 4a20 c43d d7e4 853e 272a 8b3e
00000160: b283 8fbd d71d 803e d5c2 283f 8242 3f3e
00000170: 6e0a 78be d217 93be 9f80 2abd 23b7 843c
00000180: dcce c5be 29eb 9dbe 8cdf 803e 2fea 7f3e
00000190: 6ca9 95be 1582 a03e a63a 913e ef09 a83e
000001a0: bcaa 183d 28b4 023e c7a4 2cbe 15af b83e
000001b0: 248e 07bf a966 0abf e83a a53e 6211 c43e
000001c0: 20e3 823e 3ff7 803e 5182 373e feb0 0fbf
000001d0: a5c9 b83e 102b 043f 4672 f63e b67c 4c3d
000001e0: 9b54 813d 1c93 8e3d fc54 0bbe 1a43 4a3e
000001f0: e8f1 543d f816 923e 28f1 033f b850 5f3d
00000200: 5228 c7be ff01 c33e 95df 11be 9846 a23e
00000210: ce2f d43e b022 d13e 8fbe c6bc 811b 6ebe
00000220: e6a0 513e d4bf e3bd 2a78 173e 3391 f8be
00000230: 3667 c8bd 3e4a bc3d 3e19 04be 03e4 393e
00000240: 8b04 c43e 2355 3ebe a894 083e 11f9 06be
00000250: 0bfa 55bd 46dc 9cbd 6ade c9bd 3364 d53e
00000260: a079 75be 9de4 c63e bd7e 703e a3e4 c23e
00000270: 1af9 9abf 7c1e bcbd 3bca 783e a4a4 833e
00000280: 424f dabe 246f 143e 5b76 5d3d 5b7c c5be
00000290: 4ea7 aebd dc4e c53e 67c6 ed3e dc81 e9bc
000002a0: 7f55 37bf 0033 8d3d 1406 83be deb3 b63d
000002b0: e93c 8bbe 921b 923e 949c 8bbe 3b91 c8be
000002c0: e706 3fbe c0fa bdbe 15ec 05bd 0d4f c8bd
000002d0: d65d 2d3f 50bf 053f 7ba5 d03e 9cb8 65be
000002e0: 9fd7 1a3e ef4a 8b3e 3989 0a3e b2f2 62be
000002f0: e4f7 993e 3ac9 d33e e1c2 6bbe 2b66 883d
00000300: a0a0 b33e 736f 903d af02 39be d09a c1be
00000310: 3e36 0e3d 7f22 053e c4ae 3bbc 8698 01be
00000320: 624c 033e 2379 173f 4649 fbbd 6746 353e
00000330: ed55 eb3e 51a7 96bd fd18 b43e 5b30 06bf
00000340: 587e dc3e 108c b33d a344 003e 08ae 9cbe
00000350: 0421 95be 3405 eebc 1049 05be e646 71bd
00000360: d2ec a1bc 8fa0 833d a6ed 61be fe27 413e
00000370: ea68 1dbe 9c93 d1bd 90e9 bd3d 82f1 eabe
00000380: f4e0 73bd 6f98 c03e 0694 d73e 386c a4be
00000390: 47c0 c0be 6fbe ccbe 39c9 19bc 11b0 8dbe
000003a0: 533e 7a3d ea96 cf3e be3e 253d 6fe8 a6be
000003b0: fd3e ca3e ff64 22be b587 b5be 8db9 9b3c
000003c0: 6562 34bd 87d4 3dbe 2695 97be a135 9d3c
000003d0: 03bd 62be 4f4e b23e 18b9 0b3f 0a52 e93e
000003e0: 1963 533e 7f8f 1a3d 63dd 5b3e 705f 603e
000003f0: 4f9d 283e e311 e03c 2ebe 953e 87e4 1ebe

g.0.bias f4 [100]
0.106399626 0.12195399 -0.0453024 0.17538726 0.05971284 -0.17043054 -0.38416755 0.31774518
-0.39580488 0.39494747 -0.2835759 -0.14116897 -0.36567414 0.37890595 -0.40226007 0.087993436
-0.28873175 0.014800987 0.1484037 -0.16096808 -0.24711332 -0.26299107 -0.10499491 0.35200086
-0.3860784 0.29419366 0.2262307 -0.007537236 0.2743737 -0.15846479 0.1636101 0.35333604
-0.26209715 0.24188372 0.025681753 -0.23579045 -0.2465731 0.26715812 -0.38760537 -0.051183026
0.06729024 -0.28675407 0.23211482 0.19354065 0.12841491 0.10487159 0.39613807 -0.28901646
-0.08767467 0.0044706124 -0.04100725 -0.17355208 -0.16310571 -0.20602183 0.1581015 -0.3866317
-0.29949725 0.33806327 0.06881412 -0.16960458 0.33107117 0.22143246 0.26563728 0.06409452
0.23630752 -0.3252663 -0.36612475 0.14150493 -0.32647267 0.27863273 0.2986688 -0.3060338
0.37487242 0.22752284 0.3037114 -0.3008232 0.10485809 0.23703244 0.061677113 0.07697269
0.4243784 0.0006144731 -0.36839968 0.23190093 0.09606748 -0.19339557 -0.40027446 0.13741525
0.33591187 -0.098177016 0.4476343 0.06794748 -0.39294958 0.26268634 0.14067987 -0.15220791
0.29423875 0.1820975 -0.3784695 -0.36522168
00000000: 0ce8 d93d 03c3 f93d 028f 39bd b898 333e
00000010: 7395 743d 5885 2ebe 9cb1 c4be 7faf a23e
00000020: f0a6 cabe 8e36 ca3e dc30 91be 998e 10be
00000030: a439 bbbe f6ff c13e 08f5 cdbe e735 b43d
00000040: a6d4 93be d77f 723c 24f7 173e d1d4 24be
00000050: 460b 7dbe c4a6 86be 9207 d7bd 7539 b43e
00000060: 11ac c5be 8da0 963e 05a9 673e ebfa f6bb
00000070: b67a 8c3e 9844 22be 6889 273e 76e8 b43e
00000080: 9931 86be 5eb0 773e 8a62 d23c 0d73 71be
00000090: a97d 7cbe f3c8 883e 3674 c6be 4ba5 51bd
000000a0: 77cf 893d 6ed1 92be 82af 6d3e 852f 463e
000000b0: 337f 033e ebc6 d63d 9cd2 ca3e f7f9 93be
000000c0: c78e b3bd 377e 923b 38f7 27bd a3b7 31be
000000d0: 2f05 27be 63f7 52be 5ce5 213e 97f4 c5be
000000e0: b457 99be a116 ad3e 6bee 8c3d d3ac 2dbe
000000f0: 2982 a93e 31bf 623e 9c01 883e fd43 833d
00000100: 99fa 713e 4e89 a6be b474 bbbe abe6 103e
00000110: 6d27 a7be f3a8 8e3e 1eeb 983e 76b0 9cbe
00000120: 47ef bf3e bffb 683e 1080 9b3e 8005 9abe
00000130: d7bf d63d a2b8 723e 24a1 7c3d dca3 9d3d
00000140: 2048 d93e 9714 213a e29e bcbe 7077 6d3e
00000150: 07bf c43d 7d09 46be c6f0 ccbe 95b6 0c3e
00000160: a4fc ab3e 0811 c9bd 5330 e53e 0c28 8b3d
00000170: b030 c9be d37e 863e 620e 103e 64dc 1bbe
00000180: 76a6 963e c477 3a3e c1c6 c1be 56fe babe

g.2.weight f4 [100, 100]
0.096472986 -0.009153495 -0.8188706 -0.067078136 -0.07149255 0.022653151 -0.006581676 0.12705716
-0.02721051 -1.1887884 0.000983221 0.03267615 0.052782416 -1.1356363 -0.054968536 0.11996239
0.009622824 -0.0103340885 -2.465242 0.08687136 0.028711641 0.8765374 0.12525177 0.3656577
-0.09442425 0.048725896 -0.8054014 0.18949543 -0.46787852 0.0990531 0.03987942 0.05186327
0.014657967 -0.028869534 0.09439344 0.0460845 0.030370547 0.06071075 0.0012924671 0.0046445727
-0.06954765 0.023620442 0.09128306 -2.1554372 -0.7609884 0.07366648 0.10546154 -0.07847567
-1.4619431 0.14392869 0.0022067819 -0.05506766 0.028260035 -0.074379995 -0.82816714 0.06061042
0.050179243 0.0028101846 0.10555643 -0.5946654 -1.0754483 0.10084005 0.071169585 0.1205526
0.22228852 -1.0086553 0.07358048 -0.07212681 -0.09220963 0.16575322 -1.1094424 -0.05429962
0.15887035 -0.49034822 -0.014174383 0.03356695 -1.1179165 0.22987305 -0.17074785 -0.046660747
0.086495236 -0.039893225 0.074767925 0.012977509 -0.065813355 -0.08800154 -0.063314416 0.006612525
-0.0040312167 -0.22922802 0.047774803 -0.6578382 -0.034357917 -0.0007414657 0.068893656 -0.07454126
-1.4294789 -1.09899 -0.0697541 -0.06565926 0.07828274 -0.03931367 -0.70108056 0.011225737
0.09381821 0.052920796 -0.036190808 0.13595878 -0.068667606 -1.152855 0.06860743 -0.11042668
0.09621171 -0.7891853 0.026288152 -0.035302762 -0.022985065 -0.14588535 -2.3435373 0.15210953
-0.074225366 0.6957631 0.05347802 0.17178985 -0.034396853 0.012327621 -0.6919016 0.08526623
-0.35389873 0.051393893 0.069301136 -0.07780554 0.07160838 0.05434706 0.18925889 -0.04396924
-0.05470146 0.008655374 -0.08276105 -0.090340674 0.06741613 0.044803325 0.06040883 -1.791809
-0.95095974 -0.014073506 -0.01880459 0.078498445 -1.6272527 0.092405535 -0.08309244 0.09765309
-0.04205931 -0.021678722 -0.6356202 0.032498047 -0.022512376 0.20473665 0.14793018 -0.6330891
-0.8943972 0.15562524 0.20369163 0.03564165 0.1835715 -1.0838534 0.01538477 0.05580386
-0.00078650715 0.29513025 -0.7982344 -0.09134005 0.10735734 -0.5915491 0.057230234 0.021605564
-1.0338321 0.37849855 -0.15765052 -0.17102244 0.09929594 0.07091317 -0.06467054 0.038748525
0.054029293 0.07809281 -0.02313136 -0.0124999145 0.072451726 -0.2502021 0.14660941 -0.3896574
-0.005942929 -0.04911571 0.07822556 0.005967164 -1.2953126 -0.99380565 0.027375354 0.062499594
-0.091713354 0.06599604 -0.098844014 -0.011972753 0.045182467 -0.06694044 0.0871379 0.054640744
-0.017187823 -0.049118433 -0.051871788 0.006393172 -0.011912095 -0.014737349 0.025500715 0.0105610285
-0.0395859 -0.059052475 -0.100057356 -0.011212555 -0.03607316 0.041033458 0.047105886 -0.06390121
0.05962503 0.010165349 -0.10268317 -0.02982373 -0.07052204 -0.06849412 -0.021697728 0.016204787
-0.004781437 -0.008114443 -0.09842749 0.09772402 -0.018326664 0.0744945 0.09224719 -0.04632268
0.08158811 -0.043658104 -0.029144835 0.0034377603 -0.09071948 -0.03196894 0.0014524887 0.03347695
0.056701876 -0.071096934 0.077680945 0.0037819028 -0.07703829 0.0051576137 0.037381604 -0.055026878
00000000: a193 c53d 8af8 15bc 81a1 51bf 4360 89bd
00000010: b06a 92bd 1a93 b93c 1aab d7bb 461b 023e
00000020: 93e8 debc 382a 98bf 6cdf 803a 6dd7 053d
00000030: 6032 583d 885c 91bf b026 61bd d7ae f53d
00000040: 0da9 1d3c 4f50 29bc 86c6 1dc0 9de9 b13d
00000050: ad34 eb3c c164 603f 0042 003e 7c37 bb3e
00000060: 8061 c1bd ce94 473d c92e 4ebf 170b 423e
00000070: c68d efbe 5adc ca3d 9a58 233d 956e 543d
00000080: f827 703c cd7f ecbc 5951 c13d 1ac3 3c3d
00000090: a7cb f83c d6ab 783d 0068 a93a 8031 983b
000000a0: 006f 8ebd a87f c13c 9df2 ba3d aff2 09c0
000000b0: 23d0 42bf 74de 963d 38fc d73d dab7 a0bd
000000c0: f420 bbbf 0b62 133e a89f 103b a08e 61bd
000000d0: 9781 e73c 8a54 98bd c302 54bf a242 783d
000000e0: c088 4d3d 132b 383b f82d d83d fe3b 18bf
000000f0: 4aa8 89bf 3a85 ce3d 5cc1 913d 48e4 f63d
00000100: 9a9f 633e 9e1b 81bf 5db1 963d 39b7 93bd
00000110: 67d8 bcbd 36bb 293e 3502 8ebf 4769 5ebd
00000120: e9ae 223e ec0e fbbe ac3b 68bc 807d 093d
00000130: e317 8fbf d763 6b3e 86d8 2ebe 571f 3fbd
00000140: 6a24 b13d 1467 23bd ed1f 993d 9e9f 543c
00000150: 27c9 86bd 273a b4bd fdaa 81bd e1ad d83b
00000160: 4c18 84bb c0ba 6abe 83af 433d 1668 28bf
00000170: e3ba 0cbd ec5e 42ba 1e18 8d3d 17a9 98bd
00000180: 2af9 b6bf b4ab 8cbf 3ddb 8ebd 5d78 86bd
00000190: b452 a03d 5f07 21bd 047a 33bf 27ec 373c
000001a0: c323 c03d 7ac3 583d d03c 14bd c738 0b3e
000001b0: 9aa1 8cbd c190 93bf 0d82 8c3d 6227 e2bd
000001c0: a50a c53d 0c08 4abf 405a d73c a199 10bd
000001d0: 2d4b bcbc f862 15be 84fc 15c0 9ac2 1b3e
000001e0: 7803 98bd 881d 323f c50b 5b3d aee9 2f3e
000001f0: b7e3 0cbd caf9 493c 7720 31bf 10a0 ae3d
00000200: 3732 b5be 6782 523d c1ed 8d3d 8358 9fbd
00000210: 6aa7 923d 069b 5e3d 15cd 413e 1719 34bd
00000220: a30e 60bd 45cf 0d3c a07e a9bd 8804 b9bd
00000230: 7811 8a3d b183 373d 406f 773d ff59 e5bf
00000240: 1972 73bf 9094 66bc 150c 9abc cbc3 a03d
00000250: d149 d0bf 1d3f bd3d 5f2c aabd 58fe c73d
00000260: 6246 2cbd 9397 b1bc 01b8 22bf ac1c 053d
00000270: e06b b8bc 7ca6 513e 027b 173e 2112 22bf
00000280: 37f7 64bf 395c 1f3e 8a94 503e fbfc 113d
00000290: 2bfa 3b3e b5bb 8abf 6710 7c3c 9792 643d
000002a0: 9a2d 4eba 501b 973e 1759 4cbf 7e10 bbbd
000002b0: 2ade db3d c36f 17bf 406a 6a3d 27fe b03c
000002c0: 9c54 84bf 90ca c13e 236f 21be 8220 2fbe
000002d0: ab5b cb3d ed3a 913d fd71 84bd c6b6 1e3d
000002e0: d24d 5d3d 20ef 9f3d fa7d bdbc 71cc 4cbc
000002f0: 9261 943d 7d1a 80be c720 163e 2d81 c7be
00000300: e7bc c2bb 8e2d 49bd b934 a03d 3388 c33b
00000310: cecc a5bf 0c6a 7ebf 4742 e03c 93ff 7f3d
00000320: 36d4 bbbd ef28 873d bb6e cabd 5e29 44bc
00000330: 4011 393d 1218 89bd 5b75 b23d f9ce 5f3d
00000340: 7acd 8cbc 6930 49bd 8377 54bd d07d d13b
00000350: f32a 43bc ec74 71bc e0e6 d03c 2a08 2d3c
00000360: d324 22bd 02e1 71bd dfea ccbd ddb4 37bc
00000370: 73c1 13bd b312 283d 1af2 403d a3de 82bd
00000380: 6039 743d 908c 263c 8e4b d2bd e550 f4bc
00000390: dc6d 90bd a546 8cbd 6fbf b1bc e7bf 843c
000003a0: 9aad 9cbb 71f2 04bc 5a94 c9bd 8823 c83d
000003b0: cd21 96bc 9390 983d 18ec bc3d dabc 3dbd
000003c0: ab17 a73d d7d2 32bd 26c1 eebc 0c4c 613b
000003d0: 22cb b9bd ddf1 02bd 6f61 be3a 201f 093d
000003e0: 3a40 683d 459b 91bd 3017 9f3d cdd9 773b
000003f0: 40c6 9dbd 3301 a93b 741d 193d dd63 61bd

g.2.bias f4 [100]
0.0844838 0.016478898 0.061889555 -0.038861517 0.016185228 0.02118764 -0.029264122 0.111913025
-0.07311344 -0.0064457213 0.014545419 0.013584879 0.016499221 0.013673472 -0.035528187 0.07145887
-0.049520757 -0.072424814 -0.07564572 0.07310029 -0.08642792 0.03842999 0.0123392595 0.08531009
-0.085484795 -0.10484512 0.07408588 -0.09944203 0.05719003 0.12342202 -0.09517837 0.023685602
-0.044746924 -0.054479744 -0.082848825 0.0052689957 -0.03487337 0.072393894 0.020852337 -0.034756746
0.030995263 -0.07760531 -0.07071564 0.0008143431 -0.033741403 -0.08049026 -0.097602755 -0.025844665
-0.06789506 -0.06476171 -0.013545742 -0.024707923 0.032328434 0.12656316 -0.06623835 -0.045273867
-0.02240994 0.041194968 -0.012503159 -0.011654192 0.0059131635 0.011634437 -0.06588765 0.036787868
-0.06407664 -0.009349838 0.021545576 -0.17135061 -0.025022238 -0.0475871 -0.023963181 -0.0036065222
-0.021000266 0.03296588 0.038088392 -0.07940185 0.06035481 0.046233144 -0.005211377 -0.028085584
-0.08951253 -0.13013518 -0.069157675 0.04579735 -0.05726742 0.016825512 -0.0369968 -0.05319374
-0.08266974 0.011607087 0.04755571 -0.042681076 -0.0095374705 -0.008877361 0.031516053 -0.021656457
0.036273986 0.04836675 0.011606811 -0.006549705
00000000: d805 ad3d c1fe 863c e77f 7d3d 412d 1fbd
00000010: e296 843c b491 ad3c 50bb efbc a832 e53d
00000020: 80bc 95bd a136 d3bb e94f 6e3c 1d93 5e3c
00000030: 6029 873c b306 603c 0186 11bd 0759 923d
00000040: 47d6 4abd 7653 94bd 25ec 9abd 9bb5 953d
00000050: 1f01 b1bd c468 1d3d 9b2a 4a3c 0eb7 ae3d
00000060: a712 afbd 0ab9 d6bd 56ba 973d 43a8 cbbd
00000070: 1840 6a3d afc4 fc3d e1ec c2bd 4f08 c23c
00000080: 8d48 37bd 2726 5fbd a5ac a9bd 8aa7 ac3b
00000090: 61d7 0ebd 4043 943d 85d2 aa3c 175d 0ebd
000000a0: c7e9 fd3c 88ef 9ebd 5dd3 90bd a479 553a
000000b0: 6d34 0abd 14d8 a4bd f4e3 c7bd 31b8 d3bc
000000c0: 910c 8bbd caa1 84bd f6ee 5dbc 4568 cabc
000000d0: d26a 043d c699 013e f9a7 87bd 1771 39bd
000000e0: 0d95 b7bc 0ebc 283d 0dda 4cbc 39f1 3ebc
000000f0: 36c3 c13b 5e9e 3e3c 1bf0 86bd e0ae 163d
00000100: 9d3a 83bd 1030 19bc 5980 b03c 8976 2fbe
00000110: 70fb ccbc b1ea 42bd 6f4e c4bc 675b 6cbb
00000120: c008 acbc 3b07 073d 9302 1c3d 709d a2bd
00000130: 9b36 773d f75e 3d3d 33c4 aabb bd13 e6bc
00000140: 5852 b7bd 2842 05be 8aa2 8dbd 0196 3b3d
00000150: 3e91 6abd a8d5 893c f589 17bd aee1 59bd
00000160: c14e a9bd a72b 3e3c c7c9 423d 5ad2 2ebd
00000170: 0d43 1cbc 5a72 11bc fa16 013d e268 b1bc
00000180: 0894 143d 371c 463d 7e2a 3e3c e89e d6bb

g.4.weight f4 [1, 100]
0.848584 1.1703694 0.089554824 -0.87308353 0.013255816 -0.3298086 0.09273927 1.219553
-0.039773893 -1.3945014 -1.7051293 0.8051404 -1.162684 -0.07460979 -0.39187595 0.036349557
-2.1419697 -1.1953009 0.00034205915 0.8055832 -0.09654546 -0.36730194 -0.47126877 0.021017602
0.0065490725 -0.87984776 0.04049637 -0.095411755 1.2404759 1.0387878 -1.0383327 0.81847984
0.024930669 -0.016903806 -0.4634792 1.1975675 0.9373097 1.0417068 -0.60517377 -0.0566746
0.07556255 0.083425395 1.1670773 1.2063924 -1.5321002 -0.2916322 0.062757745 -0.5632721
-0.23731253 0.06274861 0.0013237995 0.04997162 -0.3936963 0.96202046 0.023183065 0.045339428
0.039558627 -0.39770582 -0.07835191 0.047105312 0.011514073 1.1147599 -0.39016202 -0.46630922
-1.5073082 -0.3733686 0.07930762 -2.1450791 -0.42766085 0.8898308 0.9771685 0.08993665
0.086157195 -1.4434185 -1.1584665 0.07357822 0.9981956 0.007970668 -0.03392116 -0.043194536
-0.049152054 -1.3847537 -0.08076348 0.0414624 0.048754547 -1.2745141 -0.29839674 -0.745257
-0.74848074 -0.05334847 -0.5437262 -0.04122428 0.08683121 -0.37455833 -1.280039 -0.46039107
-1.3893048 0.87732106 0.05371297 -0.39192972
00000000: cd3c 593f aace 953f 8568 b73d 6782 5fbf
00000010: ec2e 593c acdc a8be 16ee bd3d 501a 9c3f
00000020: f3e9 22bd 067f b2bf ad41 dabf ae1d 4e3f
00000030: d4d2 94bf 05cd 98bd f7a3 c8be 46e3 143d
00000040: 0816 09c0 9fff 98bf 6756 b339 b33a 4e3f
00000050: a0b9 c5bd 000f bcbe 244a f1be 1b2d ac3c
00000060: 9a99 d63b b43d 61bf 86df 253d 3d67 c3bd
00000070: eac7 9e3f 00f7 843f 16e8 84bf e587 513f
00000080: 673b cc3c da79 8abc 254d edbe e449 993f
00000090: 87f3 6f3f a656 853f abec 1abf a023 68bd
000000a0: 8ac0 9a3d efda aa3d ca62 953f 116b 9a3f
000000b0: dc1b c4bf d150 95be 2287 803d 9a32 10bf
000000c0: 0e02 73be 5882 803d 5783 ad3a 0baf 4c3d
000000d0: 9092 c9be f946 763f 69ea bd3c d6b5 393d
000000e0: 3a08 223d 19a0 cbbe f776 a0bd 80f1 403d
000000f0: 86a5 3c3c 74b0 8e3f 51c3 c7be 15c0 eebe
00000100: 7aef c0bf 2b2a bfbe 096c a23d fa48 09c0
00000110: 5df6 dabe f4cb 633f b727 7a3f b530 b83d
00000120: 2f73 b03d f0c1 b8bf a148 94bf 2eb0 963d
00000130: bf89 7f3f 6897 023c eaf0 0abd c1ec 30bd
00000140: aa53 49bd 9c3f b1bf 5367 a5bd 7ad4 293d
00000150: d9b2 473d 4723 a3bf 75c7 98be 2ac9 3ebf
00000160: 6f9c 3fbf ed83 5abd a431 0bbf cada 28bd
00000170: 90d4 b13d 1cc6 bfbe 51d8 a3bf 61b8 ebbe
00000180: bdd4 b1bf 1d98 603f 2202 5c3d 03ab c8be

h.0.weight f4 [100, 6]
0.42353967 -0.11101959 -0.19648188 -0.49805257 0.33059365 0.1731168 0.64727825 0.35567236
-0.010876148 -0.32045487 0.3590149 -0.09446126 0.56534857 -0.42942962 -0.32755128 0.2704839
-0.26185098 -0.26672772 -0.02578562 0.19167307 -0.31947315 0.34323722 -0.0064039375 -0.23466459
0.086499475 0.64796525 -0.010682988 0.14969938 0.01526955 -0.07312171 0.097338475 -0.043564864
-0.13939813 0.5324008 0.3683584 0.18438472 -0.24910645 0.17016254 -0.033858113 0.2597236
-0.25181252 0.13928464 0.29853046 0.33999738 -0.16489238 -0.30605555 0.19350903 0.31312683
-0.074465655 -0.024609923 0.3870066 -0.3588068 0.29933167 0.13756533 0.39361218 0.25547537
0.13592695 -0.5627664 0.061917763 -0.27714762 0.32057783 0.31260917 0.055725504 0.15052584
-0.35227138 0.024363572 0.5003552 -0.7118177 -0.3492917 -0.17943881 0.16480085 0.31812808
0.4153857 0.07620383 -0.37358817 -0.40983826 0.0297208 0.16211417 0.7985651 0.10535881
0.038378254 -0.4744923 0.12695213 -0.19719471 -0.3385094 0.49763364 -0.26244265 -0.20671058
0.38695922 0.33038405 0.07420996 0.13138121 0.20699866 0.018058373 -0.3464497 0.022565959
0.7332569 0.42067567 0.17269073 -0.108753785 -0.22592822 -0.31673154 -0.24021214 0.09511158
-0.06681851 0.15783976 -0.040769845 0.3303892 0.67413855 0.30412737 0.0006174381 -0.38233408
0.0753968 0.16242613 -0.08295453 0.4183591 -0.09164861 0.2131665 -0.40786323 -0.23148985
0.021752734 -0.39858985 -0.15741669 -0.09055959 0.30190367 -0.2638674 0.28897983 -0.21292967
-0.24206455 -0.19171844 -0.38231567 -0.019923681 -0.22124447 -0.19232723 0.3485441 -0.16736534
0.38672718 -0.39319927 0.6327301 -0.26505223 0.051120196 -0.024011167 0.33431035 -0.012326376
-0.33749238 -0.35789433 -0.03305209 -0.06157776 -0.24994457 -0.3461889 0.15549205 -0.5506443
0.31088144 -0.13453789 0.33783427 0.18850039 -0.20337974 0.12750591 -0.17728908 -0.077509485
0.25567836 -0.08720438 0.073415905 -0.24191958 -0.35949776 0.13577905 -0.3229411 -0.012167234
0.1416808 -0.27606982 -0.19999652 0.3131822 -0.30354896 0.15324777 -0.6230121 -0.22524154
0.39163417 0.48179597 -0.019736132 0.33694762 0.65374595 0.24079949 -0.009103258 -0.64859444
0.20227207 0.18354498 0.25909653 -0.06095059 0.020294039 -0.21055326 -0.29199648 0.050269645
-0.7163809 0.08017185 0.33562648 0.29548028 0.2410792 -0.03375236 -0.54720366 0.393718
0.29373088 0.043726698 -0.1663362 0.07633559 0.138538 -0.016723339 0.077207506 -0.12685247
0.22437426 -0.36484626 -0.31329998 -0.25420293 -0.06763583 0.010214812 -0.23519905 0.05336866
-0.12916131 0.174844 0.37475735 -0.24100341 -0.20624876 -0.1806414 -0.16465162 0.34704888
0.34222087 -0.11446968 -0.2547791 -0.35908514 0.29718864 -0.35162407 -0.335599 -0.15517835
-0.35614738 0.012873003 -0.29085258 0.14640856 -0.03320904 -0.32559863 0.24195349 -0.13820209
-0.3551126 -0.20586999 0.20549423 0.33603778 0.048589025 0.21603812 0.25738382 -0.46362647
-0.049888775 -0.2786905 0.0023670446 0.40190962 0.13761535 -0.104371905 -0.21771184 -0.3280325
00000000: 31da d83e 3d5e e3bd 8c32 49be bf00 ffbe
00000010: 9243 a93e 8845 313e 07b4 253f b01a b63e
00000020: df31 32bc a912 a4be cdd0 b73e e874 c1bd
00000030: afba 103f 33de dbbe cdb4 a7be de7c 8a3e
00000040: 5511 86be 8990 88be 5d3c d3bc f245 443e
00000050: fc91 a3be cabc af3e 1fd8 d1bb ea4b 70be
00000060: a326 b13d 0de1 253f b307 2fbc cb4a 193e
00000070: 222d 7a3c d6c0 95bd 6559 c73d 1271 32bd
00000080: 62be 0ebe 6b4b 083f 7999 bc3e 59cf 3c3e
00000090: c315 7fbe 173f 2e3e ceae 0abd 7efa 843e
000000a0: 92ed 80be a2a0 0e3e fcd8 983e 2314 ae3e
000000b0: 8cd9 28be 50b3 9cbe 3b27 463e 2952 a03e
000000c0: 7381 98bd c09a c9bc bb25 c63e 86b5 b7be
000000d0: 0042 993e eddd 0c3e 8987 c93e abcd 823e
000000e0: 6f30 0b3e 7511 10bf 7b9d 7d3d 4be6 8dbe
000000f0: c722 a43e 4f0e a03e 6d40 643d 7223 1a3e
00000100: ea5c b4be 1d96 c73c 4717 003f af39 36bf
00000110: 5dd6 b2be cfbe 37be 8ec1 283e afe1 a23e
00000120: 6fad d43e c110 9c3d f346 bfbe 52d6 d1be
00000130: 0979 f33c 4201 263e c36e 4c3f 5cc6 d73d
00000140: 8432 1d3d a8f0 f2be bdff 013e 69ed 49be
00000150: 1b51 adbe d6c9 fe3e e25e 86be f0ab 53be
00000160: 851f c63e 1928 a93e 64fb 973d cc88 063e
00000170: 75f7 533e 27ef 933c db61 b1be 3fdc b83c
00000180: b9b6 3b3f cd62 d73e d7d5 303e 4eba debd
00000190: ba59 67be a32a a2be 2cfa 75be dcc9 c23d
000001a0: 25d8 88bd bfa0 213e 48fe 26bd c628 a93e
000001b0: 5894 2c3f 95b6 9b3e 92db 213a 4bc1 c3be
000001c0: a369 9a3d 0953 263e 11e4 a9bd 2a33 d63e
000001d0: 44b2 bbbd 5248 5a3e 73d3 d0be ad0b 6dbe
000001e0: ca32 b23c f813 ccbe d731 21be 4e77 b9bd
000001f0: 1e93 9a3e a119 87be 2af5 933e 3c0a 5abe
00000200: c5df 77be d751 44be e1be c3be fd36 a3bc
00000210: e98d 62be 6ef1 44be 5f74 b23e d261 2bbe
00000220: 1b01 c63e 6a51 c9be 9afa 213f edb4 87be
00000230: 6963 513d 11b3 c4bc ba2a ab3e 91f4 49bc
00000240: cdcb acbe ed3d b7be a161 07bd f638 7cbd
00000250: 78f1 7fbe ac3f b1be 4f39 1f3e 06f7 0cbf
00000260: da2b 9f3e 4dc4 09be 9df8 ac3e 3f06 413e
00000270: c742 50be e990 023e 458b 35be 4bbd 9ebd
00000280: 46e8 823e 3698 b2bd 145b 963d c4b9 77be
00000290: 1710 b8be aa09 0b3e 8958 a5be 1459 47bc
000002a0: c614 113e 0659 8dbe e3cb 4cbe 6b59 a03e
000002b0: c56a 9bbe fcec 1c3e b97d 1fbf b8a5 66be
000002c0: 4684 c83e f6ad f63e abad a1bc 6684 ac3e
000002d0: e55b 273f 2494 763e d525 15bc 490a 26bf
000002e0: 6920 4f3e 37f3 3b3e 4da8 843e 53a7 79bd
000002f0: af3f a63c 469b 57be 9080 95be 8be7 4d3d
00000300: bd64 37bf 2431 a43d 3cd7 ab3e 3149 973e
00000310: 77dd 763e ea3f 0abd 8a15 0cbf 6895 c93e
00000320: e563 963e c41a 333d 0954 2abe d555 9c3d
00000330: e8dc 0d3e 62ff 88bc f81e 9e3d 9de5 01be
00000340: 5ec2 653e 21cd babe db68 a0be e326 82be
00000350: a784 8abd 075c 273c 05d8 70be 1999 5a3d
00000360: dd42 04be 4e0a 333e 32e0 bf3e 99c9 76be
00000370: e032 53be 0ffa 38be 6f9a 28be 64b0 b13e
00000380: 9337 af3e 146f eabd 6872 82be 02da b7be
00000390: 1c29 983e 1208 b4be a2d3 abbe 13e7 1ebe
000003a0: f358 b6be 4ae9 523c a1ea 94be 20ec 153e
000003b0: 3406 08bd ddb4 a6be a8c2 773e d984 0dbe
000003c0: 52d1 b5be 95cf 52be 146d 523e 250d ac3e
000003d0: 4905 473d 1939 5d3e d0c7 833e 7360 edbe
000003e0: 2c58 4cbd 85b0 8ebe 6b20 1b3b 19c7 cd3e
000003f0: 0aeb 0c3e f0c0 d5bd daef 5ebe e0f3 a7be

h.0.bias f4 [100]
0.20753975 0.18690272 0.17150317 0.042588614 -0.21766675 -0.12167221 0.29870558 -0.26997116
-0.3409222 0.12772907 -0.2714325 0.0440746 -0.052586615 0.20208336 -0.26315388 -0.17631447
0.047372464 0.08949097 0.0012061452 -0.117876425 -0.30601 0.0026215934 -0.28220323 0.033562567
-0.11928007 0.2615713 -0.21948409 -0.2620183 -0.3375836 0.29012048 0.10098542 -0.12927851
0.11851162 0.28835067 0.19474287 -0.114616506 -0.1999399 -0.21229257 -0.31822032 -0.22207993
-0.26772776 0.32229698 -0.11081844 -0.16711272 0.060273815 0.33778965 -0.31811598 -0.017656323
0.18779105 -0.1567396 -0.32786703 0.40937263 0.27071968 -0.29418704 0.27436462 -0.33893764
-0.22382951 0.09932891 0.11269911 0.08963338 0.15874127 -0.3008334 -0.20955555 0.42848244
0.3941399 0.16728191 0.04836944 -0.1822826 0.39913246 0.2311854 0.22549136 -0.24134876
0.29253906 -0.05693264 0.30413714 -0.13513026 0.30997536 -0.029573172 0.35829306 0.11555461
0.111944154 -0.30538177 0.3232676 -0.1590662 -0.34800944 0.042006675 0.27294773 -0.3902757
-0.31887794 -0.2708493 0.16423726 0.06440205 0.23709272 -0.02964579 0.26502404 0.06728898
0.23385687 0.33343992 -0.0014615481 0.05212156
00000000: 4d85 543e 6d63 3f3e 879e 2f3e 6671 2e3d
00000010: 08e4 5ebe 482f f9bd f0ef 983e a939 8abe
00000020: 5b8d aebe 69cb 023e 33f9 8abe 9187 343d
00000030: 1065 57bd f1ee 4e3e 1bbc 86be c88b 34be
00000040: a109 423d 0b47 b73d 8417 9e3a 3269 f1bd
00000050: 58ad 9cbe 0acf 2b3b f17c 90be e778 093d
00000060: 1c49 f4bd acec 853e 70c0 60be 4327 86be
00000070: c2d7 acbe ac8a 943e 72d1 ce3d 9661 04be
00000080: 38b6 f23d b3a2 933e ad6a 473e 0fbc eabd
00000090: 0cbd 4cbe 3963 59be c6ed a2be ec68 63be
000000a0: 9d13 89be 1c04 a53e c7f4 e2bd 991f 2bbe
000000b0: ade1 763d c4f2 ac3e 19e0 a2be fea3 90bc
000000c0: 4c4c 403e 5880 20be 30de a7be 4a99 d13e
000000d0: c59b 8a3e af9f 96be 8579 8c3e 3c89 adbe
000000e0: 9033 65be f56c cb3d cace e63d b591 b73d
000000f0: 128d 223e d606 9abe bb95 56be 0d62 db3e
00000100: b4cc c93e f34b 2b3e 091f 463d 4aa8 3abe
00000110: 175b cc3e debb 6c3e 35e7 663e 2124 77be
00000120: aec7 953e 3332 69bd ddb7 9b3e 965f 0abe
00000130: 17b5 9e3e 7043 f2bc 3072 b73e e5a7 ec3d
00000140: fa42 e53d 005b 9cbe 5583 a53e 40e2 22be
00000150: 4b2e b2be 310f 2c3d cebf 8b3e 37d2 c7be
00000160: f843 a3be c2ac 8abe d02d 283e 39e5 833d
00000170: 6fc8 723e badb f2bc 3bb1 873e cece 893d
00000180: 2d78 6f3e a3b8 aa3e 6b91 bfba 6b7d 553d

h.2.weight f4 [100, 100]
0.116986044 0.14952569 0.07295596 -0.04651424 0.23206842 -0.23217084 -0.09630986 -0.98381495
-0.09463692 0.15468207 -0.016879177 0.4792693 -0.43733674 0.07036977 0.5463812 -0.02021799
0.033656932 0.03678944 0.108571105 0.39311433 0.030347062 0.078752436 -0.007175088 -0.065252095
-0.075624995 0.013462629 0.06449651 -0.042624213 -0.05218954 -0.18099709 0.146309 0.04716003
-0.40506858 0.11833263 -0.05169201 -0.06744037 -0.06253996 -0.033911813 0.01367029 -0.021525968
0.031626523 0.36894718 0.03360925 -0.25797677 0.15980193 -0.18621367 0.04618553 0.15387471
-0.09304734 -0.0061258436 -0.14405665 0.17921655 -0.13395515 -0.019820785 -0.147939 0.0024060966
-0.05941626 -0.18282546 -0.28513962 -0.0062244344 -0.22058152 -0.1272677 -0.08379943 0.34605107
-0.060496204 0.055533186 0.034737147 0.048318267 -0.18965279 -0.2934104 0.022001816 0.029584408
0.048871003 -0.046926226 0.025580583 -0.0950132 -0.016250655 0.7488634 -0.008308455 -0.05775888
0.11624575 -0.0257877 -0.29881778 0.249788 0.0765807 -0.33956698 0.007662429 0.026034845
-0.038687944 -0.07123744 -0.26536506 -0.13400851 -0.03879105 0.06979467 -0.1658209 0.066419885
-0.0074884747 -0.094396904 0.17494112 0.25466388 -0.056572568 -0.050365653 0.0068643214 -0.005659318
0.03484751 0.08666587 -0.014725066 -0.03205129 -0.02669475 -0.068785764 0.030373657 0.04569322
-0.093143724 -0.017540276 0.056595016 0.029331421 -0.04649576 0.04646113 0.081945315 -0.08404165
0.02402593 -0.03879973 -0.09340143 0.010890186 -0.04606488 0.052615214 0.057163205 0.05060592
-0.0007684589 -0.090252556 -0.079293065 0.04143889 -0.07822063 -0.05670414 -0.03399179 -0.024747467
0.06606803 -0.00919807 0.039205577 0.09536032 0.0097925905 0.0022654056 0.05417931 0.05845816
0.09512935 -0.07528295 0.041541517 0.00023061037 0.035921108 -0.099283114 0.04104949 0.039444424
-0.027645875 -0.097833276 0.09039656 0.020928157 0.034687784 -0.0663138 -0.0886688 0.059483863
-0.04791088 -0.08928551 -0.0880598 0.047639012 0.049201455 0.071957804 0.04333948 -0.044603623
0.0063282372 -0.03445022 -0.07070502 -0.042143334 -0.016581237 -0.012778401 -0.019463433 -0.08494762
-0.037723947 -0.051974263 -0.030332804 -0.06748624 -0.04353223 0.06571589 -0.09742588 -0.06207917
-0.0006495118 -0.06011213 -0.023228502 -0.08123465 -0.040318348 0.019169962 -0.0037409067 -0.09354979
-0.0010427833 0.060904086 -0.09793805 -0.038251985 -0.08783908 0.017216861 0.0560287 -0.030603683
0.21553689 0.057544135 0.2227696 0.11929224 0.20504262 0.073788546 -0.12320554 -0.83813936
0.043106165 0.15337098 0.049180605 0.5081482 -0.6366979 0.1897511 0.3941261 0.07831651
0.105114646 -0.15637833 0.2785699 0.5096601 -0.09066764 -0.070534125 -0.036447097 0.1055564
-0.029007543 0.041823674 0.09333225 0.04753686 -0.008262551 -0.16954969 0.2625578 -0.041151594
-0.56400466 -0.0028301887 -0.06493869 0.0533862 0.025263011 0.035709895 -0.0175125 -0.061965525
-0.08801341 0.340106 -0.013385916 -0.24768129 0.16418816 -0.052021645 -0.0134938955 0.124216124
0.10973857 0.092350565 -0.27578762 0.09596122 -0.30485207 -0.082198456 -0.010068781 -0.059875857
00000000: 6196 ef3d 431d 193e ef69 953d b785 3ebd
00000010: 58a3 6d3e 31be 6dbe 1b3e c5bd 4cdb 7bbf
00000020: 00d1 c1bd fa64 1e3e 3346 8abc c962 f53e
00000030: 9aea dfbe 071e 903d a3df 0b3f 33a0 a5bc
00000040: dadb 093d 86b0 163d 875a de3d 4846 c93e
00000050: 679a f83c f548 a13d 001d ebbb e4a2 85bd
00000060: 47e1 9abd 5c92 5c3c bf16 843d ba96 2ebd
00000070: b3c4 55bd 4d57 39be 07d2 153e e02a 413d
00000080: 2665 cfbe 6158 f23d 00bb 53bd 2d1e 8abd
00000090: f314 80bd 1de7 0abd 5af9 5f3c 3a57 b0bc
000000a0: d08a 013d a5e6 bc3e daa9 093d 8815 84be
000000b0: 1ea3 233e ccae 3ebe 0a2d 3d3d 5591 1d3e
000000c0: 9b8f bebd 4dbb c8bb 9683 13be 8b84 373e
000000d0: 8a2b 09be 335f a2bc 527d 17be 9aaf 1d3b
000000e0: 775e 73bd 9936 3bbe d2fd 91be 57f6 cbbb
000000f0: 1fe0 61be 7752 02be 099f abbd 9b2d b13e
00000100: deca 77bd c476 633d 8a48 0e3d 60e9 453d
00000110: 5734 42be e339 96be 273d b43c 005b f23c
00000120: f62c 483d b735 40bd 5f8e d13c 4896 c2bd
00000130: 1820 85bc 83b5 3f3f 3020 08bc 9394 6cbd
00000140: 4012 ee3d ba40 d3bc a5fe 98be 6dc8 7f3e
00000150: 58d6 9c3d b9db adbe 1d15 fb3b 0747 d53c
00000160: 4077 1ebd efe4 91bd eedd 87be 8739 09be
00000170: 5de3 1ebd 82f0 8e3d f4cc 29be 2607 883d
00000180: e161 f5bb 2a53 c1bd c423 333e 4e63 823e
00000190: a3b8 67bd 374c 4ebd 1aee e03b cd71 b9bb
000001a0: 43bc 0e3d e07d b13d 6741 71bc 3748 03bd
000001b0: f3ae dabc 8ddf 8cbd 2dd2 f83c d028 3b3d
000001c0: 23c2 bebd a0b0 8fbc 2dd0 673d 7348 f03c
000001d0: 5772 3ebd 074e 3e3d f2d2 a73d 071e acbd
000001e0: 07d2 c43c 77ec 1ebd 4049 bfbd c06c 323c
000001f0: 87ae 3cbd 0d83 573d f723 6a3d 2748 4f3d
00000200: 6772 49ba 55d6 b8bd 6764 a2bd d3bb 293d
00000210: 2332 a0bd 9a42 68bd fa3a 0bbd 33bb cabc
00000220: ad4e 873d 80b3 16bc 0796 203d 454c c33d
00000230: 1a71 203c 3377 143b 20eb 5d3d d371 6f3d
00000240: 2dd3 c23d f32d 9abd 7027 2a3d 00d0 7139
00000250: 0322 133d f254 cbbd 8323 283d 7a90 213d
00000260: 9a79 e2bc d05c c8bd d521 b93d 8771 ab3c
00000270: c714 0e3d 88cf 87bd fd97 b5bd 5aa5 733d
00000280: 333e 44bd 52db b6bd b258 b4bd 2021 433d
00000290: 7787 493d 9d5e 933d bd84 313d 4ab2 36bd
000002a0: 1a5d cf3b ad1b 0dbd cbcd 90bd 7d9e 2cbd
000002b0: 60d5 87bc 805c 51bc c771 9fbc 05f9 adbd
000002c0: 6d84 1abd f7e2 54bd 807c f8bc 3a36 8abd
000002d0: da4e 32bd 0d96 863d 3887 c7bd ba46 7ebd
000002e0: 0044 2aba 2338 76bd b349 bebc 5a5e a6bd
000002f0: da24 25bd 530a 9d3c 002a 75bb 0897 bfbd
00000300: 00ae 88ba 9076 793d bf93 c8bd 1dae 1cbd
00000310: fae4 b3bd 600a 8d3c 5a7e 653d 93b4 fabc
00000320: b4b5 5c3e 66b3 6b3d b71d 643e 7d4f f43d
00000330: b1f6 513e 731e 973d 3053 fcbd 4d90 56bf
00000340: 1790 303d 480d 1d3e 9a71 493d 0016 023f
00000350: a2fe 22bf 1d4e 423e e5ca c93e 6864 a03d
00000360: 5946 d73d a421 20be b7a0 8e3e 1679 023f
00000370: f5af b9bd 3274 90bd 8d49 15bd f42d d83d
00000380: 3aa1 edbc 4d4f 2b3d fb24 bf3d 03b6 423d
00000390: a75f 07bc 6f9e 2dbe fa6d 863e 938e 28bd
000003a0: 9c62 10bf b07a 39bb 93fe 84bd 7dab 5a3d
000003b0: 60f4 ce3c 8a44 123d 6076 8fbc 90cf 7dbd
000003c0: 6040 b4bd 6022 ae3e 9a50 5bbc 2aa0 7dbe
000003d0: f120 283e a614 55bd 8015 5dbc 0665 fe3d
000003e0: 9ebe e03d 4b22 bd3d 0934 8dbe 5187 c43d
000003f0: 9215 9cbe aa57 a8bd 87f7 24bc 6340 75bd

h.2.bias f4 [100]
0.03814952 0.035864558 -0.049049508 -0.026810298 -0.09806635 -0.049914468 0.006360676 -0.07717196
-0.078930564 -0.07319965 0.020186448 -0.040431608 0.041119408 -0.023357598 0.071416266 -0.09428621
0.026314981 -0.0633022 -0.063489996 -0.03260155 -0.16870448 0.06427028 -0.096607424 -0.092400074
-0.097861245 -0.08178025 -0.05506165 0.016477372 -0.06776405 0.09631351 0.041122142 0.07465997
-0.008447132 0.010226194 -0.08954312 -0.00020409822 -0.09029781 0.048266828 -0.13468127 0.2823669
-0.14311844 -0.026396215 0.021601021 -0.09867202 0.082205 -0.092207134 -0.0037396092 0.14203349
0.044986885 -0.0741531 -0.06266889 -0.05640484 -0.08279965 -0.029365003 -0.053668737 -0.08643935
-0.013379515 0.005550763 0.0043283673 0.09556178 0.069977015 -0.118733115 0.013022227 0.25649908
-0.0990537 -0.044156503 0.101799905 -0.046314202 0.03536163 0.037104942 -0.025495833 -0.057816923
0.028045744 -0.04566773 -0.024757044 -0.153447 0.012216043 -0.07802885 -0.08951125 0.062484797
-0.082365945 0.07893544 -0.060446896 -0.024578026 -0.034281526 -0.100663684 -0.061744697 -0.032361727
-0.009773664 -0.08282031 -0.10996135 -0.08615314 -0.08457965 -0.08807839 0.07344336 -0.0805723
-0.07128338 0.039037954 -0.053713247 -0.0015962896
00000000: ac42 1c3d b7e6 123d 23e8 48bd 45a1 dbbc
00000010: 03d7 c8bd 1d73 4cbd 386d d03b 550c 9ebd
00000020: 59a6 a1bd b3e9 95bd 0d5e a53c 9d9b 25bd
00000030: d36c 283d 6f58 bfbc b142 923d 2119 c1bd
00000040: 8492 d73c 95a4 81bd 0b07 82bd 3489 05bd
00000050: dec0 2cbe 23a0 833d 1dda c5bd 403c bdbd
00000060: 7a6b c8bd 677c a7bd 5388 61bd 8efb 863c
00000070: e1c7 8abd 0440 c53d b16f 283d 54e7 983d
00000080: d765 0abc c48b 273c 6262 b7bd 3303 56b9
00000090: 0fee b8bd 70b3 453d e3e9 09be 6592 903e
000000a0: a48d 12be e03c d8bc a0f4 b03c 8e14 cabd
000000b0: 185b a83d 18d7 bcbd 3b14 75bb 3a71 113e
000000c0: 2b44 383d 95dd 97bd 8c58 80bd c308 67bd
000000d0: dd92 a9bd e08e f0bc c0d3 5bbd 1d07 b1bd
000000e0: c135 5bbc 2de3 b53b fad4 8d3b e5b5 c33d
000000f0: 1c50 8f3d 592a f3bd 2e5b 553c d953 833e
00000100: abdc cabd 73dd 34bd 787c d03d f6b3 3dbd
00000110: 5bd7 103d 5afb 173d a3dc d0bc 70d1 6cbd
00000120: 30c0 e53c 160e 3bbd 49cf cabc 3621 1dbe
00000130: cc25 483c 97cd 9fbd ad51 b7bd 0ff0 7f3d
00000140: 7aaf a8bd e7a8 a13d 2a97 77bd db57 c9bc
00000150: c96a 0cbd c328 cebd 02e8 7cbd bb8d 04bd
00000160: b821 20bc b29d a9bd 6b33 e1bd 0f71 b0bd
00000170: 1838 adbd 7162 b4bd 7969 963d 1703 a5bd
00000180: 05fd 91bd 43e6 1f3d 6c02 5cbd 973a d1ba

h.4.weight f4 [1, 100]
0.848044 0.034762528 0.5833853 -0.19042929 -0.04955262 0.08050533 -2.945506 0.040546574
0.027814196 0.48362026 -0.61392224 -0.086189866 -0.06988746 -0.037710555 -0.09095735 0.76580375
-1.2624342 -0.008198857 0.5443743 -1.3065879 0.6083617 0.071352206 -0.038051475 0.6140073
0.05436368 0.5812348 -0.08899559 0.5841285 -0.05420611 -1.3842567 0.54857945 -0.035616748
0.7126993 0.6911482 0.5599467 -0.017109383 0.7420859 -0.022736907 0.6211723 -0.67747843
0.5787754 0.05784103 0.19740738 0.60733914 0.07074638 -0.022491897 0.095353484 -0.7128786
-0.65761733 -0.00679183 0.5610853 0.094339125 -0.09614926 0.0638562 0.53963727 -0.026466573
-1.4647638 0.8029732 -0.49479145 -1.2657024 -0.089736834 0.4908499 -0.085367404 -0.773504
0.69360864 -0.023355566 -0.93928796 -1.4080336 0.5438504 -0.09839382 -0.015803313 -0.039749704
0.0022639052 0.6545644 0.166659 0.6711998 -1.4192348 0.0750465 0.57006794 -0.05831422
-0.051919688 -1.1145042 -0.0769383 0.6223538 0.70873225 0.04198656 -0.3001146 -1.2995894
-1.4785746 0.034835875 0.50972927 0.5800229 0.07831883 0.40392908 -1.2731954 0.08542483
0.03564992 0.33376315 -0.008462995 0.16967171
00000000: 6919 593f 2763 0e3d bd58 153f e5ff 42be
00000010: b0f7 4abd fadf a43d 2c83 3cc0 2a14 263d
00000020: 99da e33c 139d f73e 022a 1dbf 5084 b0bd
00000030: 2821 8fbd 6276 1abd d947 babd b70b 443f
00000040: 7297 a1bf 8054 06bc 1d5c 0b3f 463e a7bf
00000050: 98bd 1b3f 1b21 923d dddb 1bbd 952f 1d3f
00000060: 73ac 5e3d cecb 143f 5243 b6bd 7289 153f
00000070: 3a07 5ebd 532f b1bf b46f 0c3f dee2 11bd
00000080: 7673 363f 17ef 303f ab58 0f3f fa28 8cbc
00000090: 57f9 3d3f c042 babc 2605 1f3f 3a6f 2dbf
000000a0: a02a 143f b7ea 6c3d 2925 4a3e 947a 1b3f
000000b0: 7ae3 903d ed40 b8bc b048 c33d 367f 36bf
000000c0: 9c59 28bf 008e debb 49a3 0f3f df34 c13d
000000d0: e7e9 c4bd 0ac7 823d ab25 0a3f 6dd0 d8bc
000000e0: 617d bbbf a78f 4d3f 4e55 fdbe 8902 a2bf
000000f0: f2c7 b7bd ae50 fb3e 1bd5 aebd 5c04 46bf
00000100: 5690 313f 2c54 bfbc 2d75 70bf 723a b4bf
00000110: c839 0b3f b382 c9bd f375 81bc 96d0 22bd
00000120: 075e 143b 8891 273f a8a8 2a3e c0d3 2b3f
00000130: 7ca9 b5bf fbb1 993d f9ef 113f e4da 6ebd
00000140: bda9 54bd 13a8 8ebf d491 9dbd 9452 1f3f
00000150: 7a6f 353f 19fa 2b3d 9fa8 99be f258 a6bf
00000160: ef41 bdbf 10b0 0e3d 9e7d 023f 617c 143f
00000170: 9f65 a03d cbcf ce3e 11f8 a2bf 37f3 ae3d
00000180: a705 123d 01e3 aa3e 60a8 0abc 6cbe 2d3e
