logs/PointMaze-Right/sac/seed0-20230805-1354/model/step380000/actor.pth (torch, 276901 bytes, 6 tensors)

net.0.weight f4 [256, 6]
-0.0030564817 0.21900219 -0.3360068 -0.30044585 -0.15723862 0.109474786 -1.6119719 0.5036641
-0.036229607 -0.71647555 -0.10797898 -0.080247484 -0.9366456 -0.6029046 -0.16828938 0.36386612
0.23931147 0.24495828 -0.46448365 -2.2445033 0.14828277 0.45415437 -0.09706995 0.30549702
-0.11873029 -0.015233866 0.36965913 -1.018264 -0.2466417 -0.10335428 -0.15913516 0.35272685
-0.26461825 -0.1879301 -0.28521878 -0.38234943 -0.59747434 0.15083316 0.18216789 0.775346
-0.21663359 -0.20930217 -0.11976413 -0.5121365 -0.29498646 -0.3677817 0.20234285 0.23936465
-1.0418317 -0.022475312 0.26109958 0.6505856 0.1254786 0.05515143 0.7564073 -0.22044998
0.07607463 -0.69552976 -0.31928775 -0.21089436 0.8176777 -0.24761261 -0.2418269 0.34004477
-0.0804934 -0.051528025 0.015587551 0.094593056 0.25326768 0.3919976 -0.31460577 -0.14961065
0.7300483 0.54023546 0.35526067 0.22437227 -0.160432 -0.35500565 -0.6938553 -0.52920544
-0.3804687 0.62317705 0.2930567 -0.4072391 0.07641268 -0.068773516 -0.06718181 -0.18687847
0.1569944 -0.24180691 -0.0110073 0.8971455 0.29225335 -0.18584694 -0.5949003 -0.2648294
-0.075033166 -0.12995431 -0.31846797 -0.29180014 0.03787709 0.275085 -0.17800653 -0.102749884
-0.38889655 -0.0073379115 -0.30743504 -0.31490508 -0.022494322 0.061296463 -0.16719005 0.24224539
-0.24843507 0.3704323 0.3167939 -0.2874288 -0.1016066 0.037707545 -0.053901218 0.096825995
0.16020818 0.024454141 -0.19919609 0.19317861 -0.39161173 -0.2419715 -0.10219674 -0.19886321
-0.14281888 -0.33460915 -0.0868406 0.08726571 -0.2659598 -0.020951042 0.29224488 -0.04196803
0.011346125 -0.035219133 0.4504294 0.6044454 0.38671166 0.18696062 0.12852594 -0.029525192
-0.77511543 -0.26879987 0.2779784 0.7828125 -0.10509251 -0.31284547 -0.6513985 -0.92884076
-0.08280776 0.74986213 0.07057341 -0.3937277 0.25465795 -0.31945816 -0.08630789 -0.16553351
-0.07863486 -0.08015658 -0.3663416 -0.35249704 -0.063882485 0.005279541 -0.18545696 0.15378681
-0.7590698 -0.39143106 0.35902148 -0.19135533 0.3239012 0.14784867 -0.9178764 0.7668807
-0.047109596 0.066444114 0.33615184 -0.3299035 0.41660452 -1.731376 0.2915353 0.13573453
0.17771605 0.14417654 -0.09817339 -0.08585685 -0.33642983 0.22120695 0.32414022 0.27933362
-0.2879695 0.01820783 -0.28778815 -0.22473423 -0.23788853 0.13951683 -0.69653654 0.5117652
0.01717424 0.45075077 -0.40111512 -0.28026745 -0.2370541 0.28574663 -0.14675097 0.34435284
0.14762567 0.051694855 -0.00303901 -0.080703154 0.051221423 -0.09322133 -0.0028685296 0.052089643
-0.6109935 -0.60292387 0.32965755 -0.13306853 0.0013985842 0.40385503 0.14747441 0.011558751
-0.35379204 0.20223719 -0.2907874 -0.115887105 -0.3119552 -0.18390183 0.004465537 0.7560474
0.041592807 0.36566508 0.24973057 -0.25810027 0.18310103 -0.28858912 -0.17302589 0.12007509
-1.5127478 0.027936397 -0.13142161 -1.9639859 -0.040155366 -0.39481375 0.2951556 -0.33758968
0.0056266827 -0.06940906 -0.21501334 0.053958602 0.94181776 -0.36647084 -0.24237461 -0.1829388
00000000: 414f 48bb 1c42 603e 1509 acbe 0ad4 99be
00000010: 2903 21be 5134 e03d 1855 cebf 21f0 003f
00000020: 7f65 14bd f16a 37bf 1524 ddbd cb58 a4bd
00000030: 02c8 6fbf f557 1abf 0d54 2cbe a94c ba3e
00000040: 110e 753e 58d6 7a3e cdd0 edbe f1a5 0fc0
00000050: 70d7 173e ec86 e83e 9ccc c6bd 1b6a 9c3e
00000060: de28 f3bd 7797 79bc f643 bd3e 7a56 82bf
00000070: a48f 7cbe 69ab d3bd 54f4 22be 9d98 b43e
00000080: 0b7c 87be c070 40be 3208 92be 4ec3 c3be
00000090: 14f4 18bf 0274 1a3e 388a 3a3e 137d 463f
000000a0: 32d5 5dbe 4f53 56be e546 f5bd 611b 03bf
000000b0: 7708 97be e24d bcbe f732 4f3e 021c 753e
000000c0: be5a 85bf 251e b8bc d8ae 853e c78c 263f
000000d0: 767d 003e 77e6 613d e9a3 413f a4bd 61be
000000e0: 04cd 9b3d 3d0e 32bf af79 a3be b1f4 57be
000000f0: 5353 513f 298e 7dbe 79a1 77be 591a ae3e
00000100: b9d9 a4bd 0d0f 53bd ed62 7f3c 01ba c13d
00000110: 4dac 813e e9b3 c83e 0214 a1be 8933 19be
00000120: 72e4 3a3f df4c 0a3f bae4 b53e d8c1 653e
00000130: 4948 24be 4dc3 b5be 80a0 31bf 027a 07bf
00000140: cbcc c2be 8888 1f3f 870b 963e a581 d0be
00000150: 407e 9c3d 21d9 8cbd 9e96 89bd 125d 3fbe
00000160: 24c3 203e 3b9c 77be f657 34bc 54ab 653f
00000170: 3ba2 953e a94e 3ebe 634b 18bf b897 87be
00000180: fdaa 99bd be12 05be 3c0e a3be d466 95be
00000190: 0225 1b3d f1d7 8c3e 5847 36be 886e d2bd
000001a0: 731d c7be dd72 f0bb 2068 9dbe 3d3b a1be
000001b0: 0346 b8bc 0012 7b3d de33 2bbe 2d0f 783e
000001c0: c365 7ebe 4da9 bd3e cf32 a23e de29 93be
000001d0: 1f17 d0bd 3a73 1a3d 86c7 5cbd b54c c63d
000001e0: 9d0d 243e 0d54 c83c 0ffa 4bbe 9dd0 453e
000001f0: 5581 c8be 60c7 77be 864c d1bd cca2 4bbe
00000200: 1d3f 12be e451 abbe 7cd9 b1bd 5db8 b23d
00000210: e22b 88be 85a1 abbc 1fa1 953e abe6 2bbd
00000220: 19e5 393c f041 10bd af9e e63e efbc 1a3f
00000230: 12ff c53e 9b72 3f3e 4e9c 033e d1de f1bc
00000240: f76d 46bf 23a0 89be 2f53 8e3e 6666 483f
00000250: be3a d7bd 482d a0be 0dc2 26bf 82c8 6dbf
00000260: 1d97 a9bd f7f6 3f3f cb88 903d ad96 c9be
00000270: 8762 823e 0590 a3be 31c2 b0bd 9e81 29be
00000280: 500b a1bd 2229 a4bd 2091 bbbe 7e7a b4be
00000290: d2d4 82bd 0000 ad3b 6ee8 3dbe 4a7a 1d3e
000002a0: 6652 42bf a769 c8be aad1 b73e a7f2 43be
000002b0: 61d6 a53e a465 173e f3f9 6abf 4b52 443f
000002c0: fef5 40bd da13 883d 181c ac3e 1de9 a8be
000002d0: 304d d53e bb9d ddbf 1d44 953e fefd 0a3e
000002e0: 32fb 353e 04a3 133e 210f c9bd b7d5 afbd
000002f0: 8840 acbe 1384 623e b5f5 a53e d104 8f3e
00000300: bd70 93be 9628 953c f858 93be bb20 66be
00000310: 0d99 73be 80dd 0e3e 3850 32bf 0b03 033f
00000320: feb0 8c3c cec8 e63e f65e cdbe 377f 8fbe
00000330: 4fbe 72be 624d 923e e345 16be 044f b03e
00000340: 2f2b 173e fcbd 533d 212a 47bb b247 a5bd
00000350: 8ecd 513d d3ea bebd f1fd 3bbb f35b 553d
00000360: 126a 1cbf 3859 1abf e0c8 a83e 1e43 08be
00000370: b350 b73a 16c6 ce3e 8803 173e ea60 3d3c
00000380: 3b24 b5be 4417 4f3e 16e2 94be 3856 edbd
00000390: 98b8 9fbe c350 3cbe a453 923b 538c 413f
000003a0: 385d 2a3d 7438 bb3e 5fb9 7f3e b825 84be
000003b0: d67e 3b3e f4c1 93be b32d 31be eee9 f53d
000003c0: b8a1 c1bf dfda e43c 6393 06be e463 fbbf
000003d0: f479 24bd 0725 cabe a31e 973e 8ed8 acbe
000003e0: 0960 b83b 5626 8ebd 752c 5cbe b203 5d3d
000003f0: f81a 713f 11a2 bbbe 0d31 78be 4f54 3bbe

net.0.bias f4 [256]
-0.13574518 0.1469706 0.2584881 -0.027551081 0.3993377 -0.28256205 -0.081633784 0.31245455
-0.107577346 0.28775883 -0.297939 -0.30571464 -0.46572077 0.13461702 -0.17666902 -0.09268132
0.05567853 0.13867396 -0.03820787 -0.011370919 -0.2352097 -0.3430319 -0.3068801 -0.6016517
0.18159659 -0.070615456 -0.17349246 -0.39932832 0.17639807 -0.22189137 -0.08657593 -0.34230882
-0.23031662 0.0777737 -0.38037595 -0.23279938 0.3367437 -0.20936963 -0.1793208 -0.11462541
-0.07584772 -0.26779848 0.16305983 0.17528984 -0.1609914 0.06785431 -0.31143123 0.042384256
0.100473665 0.13652006 -0.3375684 0.17771713 0.082590744 -0.071405865 -0.15456666 0.09454371
-0.43494672 -0.30543432 0.19511084 -0.19034055 -0.325012 0.1360282 0.2253046 -0.21597184
-0.3720347 0.26808843 -0.032934953 -0.026907844 0.061679423 -0.043177452 -0.04247603 0.014508944
-0.24704532 0.15516828 -0.0017621215 -0.15298857 -0.1555785 0.06780804 -0.33185026 0.17319654
0.31682864 -0.09886653 -0.31712735 -0.2351068 -0.1964701 -0.35281014 -0.28875205 0.24772374
0.309214 0.28834173 0.2504261 0.12253496 0.1886924 0.19592321 -0.23796293 -0.040079825
0.34078833 0.13687167 -0.26564166 -0.5250918 0.074674666 0.34208375 0.16942793 -0.14096847
0.27501756 -0.37482634 -0.29412776 -0.39282894 0.24200617 0.09446346 -0.18798395 -0.08284834
-0.27685094 -0.26182768 0.089719355 -0.039863538 -0.29235414 -0.26889762 0.21073683 0.13296421
-0.08745423 -0.205057 0.054665018 0.03917185 -0.35741296 -0.26456326 0.100285016 0.2350062
-0.1311554 -0.010514472 -0.2528334 0.4039357 0.15724352 0.06115804 0.10918421 0.31039393
-0.4069207 -0.14418732 0.0893683 -0.09214744 0.13889377 -0.36390236 -0.36459416 -0.32213497
-0.37888905 0.22074248 -0.26912418 -0.3185884 -0.20528701 -0.27508116 -0.5561246 0.12147263
-0.30651104 0.16951065 0.21440485 -0.16456257 0.20647983 -0.2286838 0.2315127 0.17730722
0.09701478 0.2503127 -0.5765614 0.03441691 0.26778018 -0.35484406 0.24255972 -0.15558934
-0.14765628 -0.32391006 0.08654066 -0.3955156 -0.086632594 0.068236 0.069612585 0.05970356
-0.15229405 -0.17477717 0.09525542 0.13242541 0.27192023 0.13545576 0.20984307 -0.32897002
0.13771531 -0.18757139 -0.10928178 0.0024435208 -0.19256905 0.10269139 0.24849355 -0.24392231
0.29788762 -0.3281109 -0.09882685 0.32231095 0.16061705 0.37945622 0.030438647 0.048634212
0.18579769 -0.17058846 0.2899689 -0.01295983 -0.3083506 0.13665293 -0.006058067 -0.018147532
-0.3378934 -0.079264395 0.102519795 -0.39456704 -0.37975538 -0.19322638 -0.24114242 0.11550435
0.22398268 -0.26352593 -0.02618619 -0.16581258 -0.21839999 -0.071789406 -0.2238966 0.057804186
-0.20246588 -0.18345635 -0.23038039 -0.16037808 0.19063187 -0.20042385 -0.0030193885 0.28936017
0.11412008 -0.20779793 -0.24511354 -0.36198875 -0.0058151325 0.12559253 -0.045026354 0.46113703
-0.22399834 -0.061314307 0.09697059 0.21761416 0.24577445 -0.05364438 0.118257284 -0.2939414
-0.022725798 -0.17966583 -0.10847432 -0.3412126 -0.39246672 0.2673713 -0.08735295 0.13637508
00000000: c900 0bbe 767f 163e 8d58 843e ceb2 e1bc
00000010: fe75 cc3e f9ab 90be 9d2f a7bd 0bfa 9f3e
00000020: 8351 dcbd 2055 933e 768b 98be a186 9cbe
00000030: f472 eebe 0bd9 093e b9e8 34be b4cf bdbd
00000040: 2c0f 643d 8c00 0e3e db7f 1cbd 174d 3abc
00000050: d0da 70be e1a1 afbe 631f 9dbe d905 1abf
00000060: 75f4 393e d69e 90bd 02a8 31be c374 ccbe
00000070: b2a1 343e 7e37 63be b94e b1bd 1a43 afbe
00000080: 1fd8 6bbe d147 9f3d a3c0 c2be f662 6ebe
00000090: ac69 ac3e fe64 56be df9f 37be bac0 eabd
000000a0: 0d56 9bbd e21c 89be 28f9 263e 2e7f 333e
000000b0: eeda 24be 33f7 8a3d ea73 9fbe 1d9b 2d3d
000000c0: 23c5 cd3d eacb 0b3e c4d5 acbe 7bfb 353e
000000d0: 5625 a93d 3d3d 92bd b946 1ebe 22a0 c13d
000000e0: 56b1 debe e361 9cbe 23cb 473e a2e8 42be
000000f0: f967 a6be fa4a 0b3e 40b6 663e b927 5dbe
00000100: 557b bebe e342 893e cde6 06bd d76d dcbc
00000110: 90a3 7c3d d7da 30bd 58fb 2dbd ecb6 6d3c
00000120: 73f9 7cbe 6fe4 1e3e fcf6 e6ba 09a9 1cbe
00000130: f84f 1fbe f1de 8a3d 47e8 a9be 6f5a 313e
00000140: 5d37 a23e 897a cabd 845e a2be d6bf 70be
00000150: 752f 49be 88a3 b4be 4fd7 93be 4bab 7d3e
00000160: 4c51 9e3e 87a1 933e da37 803e 9cf3 fa3d
00000170: 9538 413e 18a0 483e 8eac 73be be2a 24bd
00000180: cf7b ae3e 1628 0c3e 2f02 88be 6b6c 06bf
00000190: 08ef 983d 9a25 af3e 847e 2d3e 0a5a 10be
000001a0: 1acf 8c3e 3de9 bfbe ea97 96be e020 c9be
000001b0: 77d0 773e 0f76 c13d dd7e 40be 64ac a9bd
000001c0: 68bf 8dbe 470e 86be c8be b73d f347 23bd
000001d0: 71af 95be f3ac 89be 65cb 573e c527 083e
000001e0: 341b b3bd 76fa 51be 6de8 5f3d a972 203d
000001f0: d5fe b6be d674 87be 3b62 cd3d 77a5 703e
00000200: 9a4d 06be e444 2cbc 6173 81be a9d0 ce3e
00000210: 7204 213e da80 7a3d f99b df3d f4eb 9e3e
00000220: e957 d0be d7a5 13be ba06 b73d ccb7 bcbd
00000230: 2b3a 0e3e 6951 babe 16ac babe e0ee a4be
00000240: bffd c1be 510a 623e a5ca 89be 051e a3be
00000250: c236 52be 70d7 8cbe 2f5e 0ebf a4c6 f83d
00000260: 04ef 9cbe 3394 2d3e f28c 5b3e 1783 28be
00000270: 736f 533e 162c 6abe aa11 6d3e 0690 353e
00000280: afaf c63d fc28 803e 8799 13bf bff8 0c3d
00000290: 7c1a 893e 1fae b5be 9361 783e d052 1fbe
000002a0: 3533 17be 8ad7 a5be 3b3c b13d 0581 cabe
000002b0: 6e6c b1bd 51bf 8b3d 0b91 8e3d b88b 743d
000002c0: f9f2 1bbe c9f8 32be 4615 c33d 879a 073e
000002d0: 2139 8b3e eab4 0a3e 1ae1 563e c26e a8be
000002e0: 3e05 0d3e b712 40be 20cf dfbd 7a23 203b
000002f0: d230 45be dd4f d23d 1875 7e3e c5c6 79be
00000300: ba84 983e 27fe a7be bb65 cabd f105 a53e
00000310: cc78 243e 1648 c23e 785a f93c ab34 473d
00000320: c041 3e3e beae 2ebe ce76 943e 7855 54bc
00000330: 21e0 9dbe bfee 0b3e c082 c6bb 22aa 94bc
00000340: 5d00 adbe 5f55 a2bd e6f5 d13d b104 cabe
00000350: 4c6f c2be 23dd 45be 0aee 76be 8b8d ec3d
00000360: b75b 653e dfec 86be 6c84 d6bc c6ca 29be
00000370: 3fa4 5fbe 5306 93bd 2645 65be 15c4 6c3d
00000380: 3753 4fbe fbdb 3bbe d6e8 6bbe 273a 24be
00000390: 0035 433e e93b 4dbe efe0 45bb 0427 943e
000003a0: cab7 e93d fbc8 54be 0bff 7abe 9756 b9be
000003b0: de8c bebb 549b 003e 8e6d 38bd 271a ec3e
000003c0: d25f 65be b624 7bbd 8498 c63d 3fd6 5e3e
000003d0: 4cac 7b3e 36ba 5bbd e030 f23d 7d7f 96be
000003e0: 742b babc 52fa 37be c927 debd 6bb3 aebe
000003f0: 66f1 c8be e4e4 883e 1ae6 b2bd e9a5 0b3e

net.2.weight f4 [256, 256]
0.049733177 -0.2695038 0.19779448 0.17040159 0.047350883 0.030054234 0.1903547 0.012241432
0.8603815 -0.26102948 -1.6199261 0.014508665 -0.059084192 0.07665657 -0.0372381 0.039355993
-0.055415653 0.04933195 -0.044013664 -0.19248463 0.031345643 0.04419215 0.01565963 0.0007996342
0.22659248 0.31255355 0.021251105 -0.048870876 0.078111656 -2.455899 0.20267595 -0.022081323
-0.06195861 0.083129816 0.023927562 0.053816907 0.04523858 0.029839657 -0.024899635 -0.059768863
0.02804688 -0.008255206 -0.45102367 0.04608398 0.2029018 0.22743987 0.0038453937 0.26000854
0.07824507 0.18143569 -0.008065313 0.19061334 -0.2034575 -0.050046094 -0.012666529 0.11320773
0.063806295 0.024081368 0.16288319 -0.015938234 0.030853093 -0.2112485 0.10273457 -0.44898382
0.039588705 -0.22494139 -0.082708284 0.013173871 -0.03289508 0.058949135 0.003764967 0.059704237
-0.029195055 -0.12574288 -0.21329626 -0.043096818 0.031351693 0.08664141 0.05321809 -0.030017802
0.16686991 -0.9355736 0.0174167 0.058384627 -1.2497554 -0.047453113 -0.018335573 -0.057062343
0.24173285 0.073804915 0.02797267 0.17847443 -0.18668443 -0.14345922 -2.0340717 -0.823511
0.02995592 0.020222668 0.009379312 0.05743005 0.082143016 -0.026885921 -0.11264291 -0.42563245
0.17585663 -0.013293482 0.023880534 0.031452186 0.11768819 0.16340876 -0.025301747 -0.75748676
-1.4741563 -0.031924397 -0.29714152 -0.3252261 -0.0590508 0.042370163 -0.4136201 -0.13648571
0.041341268 -0.033629626 0.073514685 0.14048351 0.002893284 0.017981477 -0.11217748 -0.024614707
-0.019176424 -0.033817712 -0.004891053 0.101830274 -0.9011815 0.09012402 -0.09053339 0.043822538
-2.530946 -0.26407355 -0.49946225 -0.054639637 0.09810145 -0.0034623924 0.041984536 0.052407283
0.026345104 0.117462285 -0.05549934 -1.4864004 0.2072203 0.0010745451 -0.07329265 0.032253075
-0.009350881 -0.7991251 -0.035792753 -0.14077479 0.1523563 -0.039872296 -0.20759735 0.12747434
0.054562405 -0.05766024 -0.020397969 -0.10911113 0.22175698 -0.01770673 -0.054708663 0.042273097
0.057510227 -0.0026338324 -0.40049478 -0.1403924 -0.021375299 0.052584145 0.19075407 0.19428235
-0.04894782 -0.6642864 -0.059695844 -0.12404302 0.11345996 -0.84893316 0.011053481 -0.023047611
0.049263075 0.05413259 -0.008285187 -0.031456232 0.04649815 0.06928627 0.18342182 0.014340207
0.050189603 -0.009286843 0.025482897 -0.0633346 -0.011608057 -0.04878753 -0.1425631 -0.07800221
-0.58759904 -0.009771794 -0.04590801 -0.078741066 0.0041895956 0.17760141 -0.018983386 0.04708997
0.034668572 -0.42146948 0.07883902 -0.0026240346 0.03893812 -0.5606539 -0.00684759 -0.0060175657
-0.24929024 0.05844062 -0.04281245 -0.3064198 -0.04489453 0.020066656 -0.8457849 0.0075343475
-0.006264247 -0.36816883 -0.044877566 0.2813872 0.09019901 -0.038471818 -0.22072504 0.031213433
-0.24348345 0.0021090582 0.05201608 -0.21711087 -0.28677702 0.17158973 0.32499102 0.2030012
-0.024823755 -0.09133199 -0.43406287 0.13903886 0.1157107 0.05291932 0.23674077 0.117863156
-0.0050867135 -0.17970613 0.04349661 0.061308824 0.030411914 0.10953136 -1.2858819 -0.3935669
00000000: 04b5 4b3d 67fc 89be a38a 4a3e c17d 2e3e
00000010: 00f3 413d 4c34 f63c 58ec 423e 4a90 483c
00000020: f641 5c3f a8a5 85be bd59 cfbf c0b5 6d3c
00000030: 4402 72bd 1ffe 9c3d fa86 18bd c033 213d
00000040: 86fb 62bd 4c10 4a3d ac47 34bd b11a 45be
00000050: 4a64 003d d402 353d a048 803c 8b9e 513a
00000060: dc07 683e 0507 a03e cc16 ae3c d42c 48bd
00000070: 01f9 9f3d 732d 1dc0 498a 4f3e e4e3 b4bc
00000080: 50c8 7dbd f73f aa3d bc03 c43c 1e6f 5c3d
00000090: 174c 393d 4c72 f43c 52fa cbbc 32d0 74bd
000000a0: 92c2 e53c d840 07bc 93ec e6be 8ec2 3c3d
000000b0: 7dc5 4f3e ffe5 683e 0003 7c3b d71f 853e
000000c0: f43e a03d 47ca 393e 6024 04bc 2530 433e
000000d0: 2a57 50be 22fd 4cbd 4687 4fbc 74d9 e73d
000000e0: e0ac 823d 4a46 c53c daca 263e e690 82bc
000000f0: a0bf fc3c 8751 58be 8166 d23d 35e1 e5be
00000100: c427 223d 0957 66be f662 a9bd 38d7 573c
00000110: febc 06bd a674 713d aabd 763b 6e8c 743d
00000120: 782a efbc bec2 00be 566a 5abe 4a86 30bd
00000130: a26a 003d 0d71 b13d 36fb 593d e5e7 f5bc
00000140: f2df 2a3e c081 6fbf 78ad 8e3c b824 6f3d
00000150: fcf7 9fbf 325e 42bd 7c34 96bc 34ba 69bd
00000160: d188 773e 0827 973d f126 e53c 00c2 363e
00000170: 342a 3fbe f9e6 12be 3b2e 02c0 9ed1 52bf
00000180: 1e66 f53c 02aa a53c b0ab 193c c63b 6b3d
00000190: 993a a83d dd3f dcbc 53b1 e6bd 7fec d9be
000001a0: c313 343e e8cc 59bc 1ca1 c33c 02d4 003d
000001b0: 8106 f13d a054 273e 9c45 cfbc a7ea 41bf
000001c0: 27b1 bcbf 28c3 02bd ef22 98be 0984 a6be
000001d0: 40df 71bd 568c 2d3d 04c6 d3be e9c2 0bbe
000001e0: 7655 293d 38bf 09bd de8e 963d e9da 0f3e
000001f0: 409d 3d3b e44d 933c 4ebd e5bd c8a4 c9bc
00000200: e017 9dbc 7184 0abd 2045 a0bb 648c d03d
00000210: d5b3 66bf f192 b83d 9269 b9bd 437f 333d
00000220: 05fb 21c0 a634 87be 84b9 ffbe d0cd 5fbd
00000230: 6ae9 c83d 4ee9 62bb faf7 2b3d 05a9 563d
00000240: b0d1 d73c 1190 f03d 4753 63bd 5e42 bebf
00000250: 8f31 543e c0d7 8c3a 751a 96bd cd1b 043d
00000260: 7034 19bc 7693 4cbf 6c9b 12bd 4427 10be
00000270: 4a03 1c3e 2251 23bd 6694 54be a288 023e
00000280: d47c 5f3d 252d 6cbd a419 a7bc a875 dfbd
00000290: 4314 633e b40d 91bc 3116 60bd 8e26 2d3d
000002a0: d88f 6b3d 609c 2cbb a70d cdbe 06c3 0fbe
000002b0: 401b afbc 7962 573d 0955 433e f4f1 463e
000002c0: 827d 48bd ac0e 2abf a183 74bd 440a febd
000002d0: b25d e83d af53 59bf a919 353c 58ce bcbc
000002e0: 14c8 493d 22ba 5d3d 98be 07bc 40d8 00bd
000002f0: d874 3e3d f6e5 8d3d eed2 3b3e 30f3 6a3c
00000300: 9d93 4d3d d827 18bc 82c1 d03c 92b5 81bd
00000310: b82f 3ebc 6fd5 47bd 10fc 11be 9fbf 9fbd
00000320: e46c 16bf e019 20bc 0a0a 3cbd ff42 a1bd
00000330: e048 893b 25dd 353e 0c83 9bbc 6ae1 403d
00000340: a200 0e3d d9ca d7be 5a76 a13d fff7 2bbb
00000350: 947d 1f3d 0487 0fbf c061 e0bb 002f c5bb
00000360: f145 7fbe 6e5f 6f3d 1c5c 2fbd 0ee3 9cbe
00000370: 54e3 37bd d462 a43c 5c85 58bf b0e2 f63b
00000380: 5044 cdbb a080 bcbe 8ad1 37bd fc11 903e
00000390: 42ba b83d a094 1dbd bf05 62be 50b3 ff3c
000003a0: ba53 79be 2038 0a3b d00e 553d 5052 5ebe
000003b0: 70d4 92be 38b5 2f3e 3965 a63e 8cdf 4f3e
000003c0: 305b cbbc 440c bbbd 7d3d debe 3460 0e3e
000003d0: bbf9 ec3d eec1 583d 2c6c 723e 3d62 f13d
000003e0: 72ae a6bb e204 38be 8029 323d f61e 7b3d
000003f0: 6822 f93c fa51 e03d c797 a4bf 9a81 c9be

net.2.bias f4 [256]
-0.12962139 -0.15188168 -0.2043604 -0.106925726 -0.02879147 -0.018241595 -0.05492109 -0.017439144
0.40654257 -0.117454775 -0.04088996 0.011871691 -0.009281025 0.33585674 0.14245258 0.12792535
-0.046645008 0.27864116 -0.32436582 -0.021034628 0.111677244 0.040571705 0.026249403 0.112452365
-0.003583137 0.022136398 -0.0232908 0.0023378357 -0.05789137 -0.045875356 0.026783476 -0.043139808
-0.04436939 -0.34878537 0.012249908 0.013145708 0.19531979 0.28884053 -0.0006013109 -0.03434558
0.065953024 -0.03385904 0.03045053 0.0065606725 -0.10841606 -0.0051335935 -0.020650411 -0.10572855
-0.035102475 -0.017695118 -0.009290275 -0.05350381 0.26938754 0.06675844 -0.11638848 -0.05715687
0.07009594 -0.060386457 0.25037795 -0.10994679 0.2836912 -0.017639296 0.00592892 0.19415781
0.11214084 0.026500532 -0.23140591 -0.05439976 0.004859504 0.014194817 0.22220877 0.3058744
-0.13364942 -0.24140884 -0.058260053 0.040782046 -0.0026934855 -0.20836954 -0.041460592 -0.011665691
0.005736534 -0.052777067 0.13151553 -0.059636068 -0.038144343 0.3323858 -0.053503543 -0.028004242
-0.026338844 -0.043949604 -0.06438537 -0.0042892992 -0.12347566 -0.03192809 -0.16874678 0.01741253
-0.06267161 -0.11209819 -0.03411066 0.17609258 -0.02173447 -0.04644553 0.027259525 0.22272329
0.051970195 -0.013527221 0.026574602 -0.039673574 0.17535233 -0.06265624 -0.025922097 -0.03534291
-0.021146612 -0.018944396 -0.13084368 0.029380575 -0.067951 -0.006752771 0.0012098702 -0.008114848
-0.04228676 -0.2034453 0.0029100203 0.019437363 -0.046144005 -0.044008363 0.004975644 -0.0012379336
0.012635439 0.008347535 -0.033403154 0.2854772 0.00285644 0.03893606 -0.037902027 0.0011793216
-0.062171776 0.014229039 -0.0059196763 -0.03240582 -0.05749471 0.34182593 -0.01257566 -0.04197165
-0.019328695 0.0005057785 0.02553638 -0.01875682 -0.005868079 -0.06954369 -0.011032875 -0.3010773
-0.053452644 -0.06253031 -0.04814657 0.076830916 0.21109593 -0.038055424 0.061197586 -0.23236546
-0.010779919 -0.049423352 -0.08175057 0.11422853 0.13548686 -0.057892237 -0.050809674 0.21247768
-0.029975982 0.026395736 -0.0555177 -0.031546146 0.0737479 -0.06820319 0.09255213 -0.052392572
-0.04498515 -0.026490318 0.006244575 -0.07545233 0.006253403 -0.002854805 -0.05138591 -0.048332497
0.017037384 -0.02012378 -0.049818013 0.014204267 -0.03507726 0.031812202 -0.029870402 -0.042660214
0.10976371 -0.01452667 -0.049412727 -0.055141058 -0.018816343 0.00946392 -0.06159968 0.0217125
0.003744628 0.23489402 0.0447198 -0.06203456 0.12490842 0.37387058 -0.03397166 0.0004605912
-0.021822926 0.25768784 0.011679552 0.12646052 0.013859756 -0.01881037 -0.01715023 -0.03855019
0.121868744 -0.02631674 -0.03764303 -0.01216906 -0.069274485 -0.012762793 -0.042025592 -0.03895842
0.029278817 0.2831623 -0.032439906 -0.05639604 0.20916899 -0.039680377 -0.017361226 0.06482283
-0.07378861 -0.022518132 0.0005196103 -0.05924873 -0.020272493 0.031346016 0.0205663 -0.01393711
0.02500095 -0.04855053 0.15409604 -0.017212953 -0.0035861426 -0.016162997 -0.023256626 -0.056461632
0.008808202 -0.0343783 -0.0053950846 0.011625633 0.017398931 0.15006764 -0.0507199 -0.035270773
00000000: 78bb 04be df86 1bbe da43 51be e0fb dabd
00000010: 17dc ebbc 666f 95bc f0f4 60bd 89dc 8ebc
00000020: 5926 d03e 218c f0bd 3b7c 27bd 7b81 423c
00000030: 710f 18bc 6af5 ab3e 17df 113e ddfe 023e
00000040: d60e 3fbd 0eaa 8e3e 4713 a6be d050 acbc
00000050: 0ab7 e43d 842e 263d fd08 d73c 6d4d e63d
00000060: 10d3 6abb 6457 b53c 59cc bebc 6036 193b
00000070: 801f 6dbd cce7 3bbd 0569 db3c 5eb3 30bd
00000080: adbc 35bd ff93 b2be d7b3 483c 1861 573c
00000090: e901 483e e8e2 933e 4ba1 1dba f3ad 0cbd
000000a0: 6112 873d c7af 0abd 6473 f93c e9fa d63b
000000b0: 3d09 debd b437 a8bb 0d2b a9bc 3688 d8bd
000000c0: 9dc7 0fbd 5af5 90bc 3d36 18bc d026 5bbd
000000d0: 2aed 893e a6b8 883d 155d eebd 521d 6abd
000000e0: 768e 8f3d ca57 77bd 8a31 803e c82b e1bd
000000f0: f93f 913e 4980 90bc 6347 c23b 4ed1 463e
00000100: 19aa e53d a517 d93c acf5 6cbe 48d2 5ebd
00000110: 793c 9f3b 6191 683c b28a 633e 929b 9c3e
00000120: 65db 08be e133 77be 18a2 6ebd 130b 273d
00000130: 3085 30bb d35e 55be 95d2 29bd 7421 3fbc
00000140: 89f9 bb3b c42c 58bd 02ac 063e f344 74bd
00000150: 3e3d 1cbd 792e aa3e 8826 5bbd 2769 e5bc
00000160: 8fc4 d7bc 8004 34bd 7adc 83bd 408d 8cbb
00000170: cfe0 fcbd 07c7 02bd f5cb 2cbe b9a4 8e3c
00000180: f959 80bd bc93 e5bd 9fb7 0bbd 9d51 343e
00000190: 7d0c b2bc ab3d 3ebd 5e4f df3c 9311 643e
000001a0: b3de 543d 47a1 5dbc fbb2 d93c c280 22bd
000001b0: 908f 333e ea51 80bd 945a d4bc bac3 10bd
000001c0: a93b adbc 4731 9bbc e3fb 05be 88af f03c
000001d0: e529 8bbd 5946 ddbb 8294 9e3a 24f4 04bc
000001e0: e234 2dbd f753 50be 0ab6 3e3b 1b3b 9f3c
000001f0: 7f01 3dbd 1d42 34bd ba0a a33b 2942 a2ba
00000200: df04 4f3c 19c4 083c bfd1 08bd 112a 923e
00000210: 1c33 3b3b 6b7b 1f3d 283f 1bbd 7793 9a3a
00000220: d5a7 7ebd ea20 693c d8f9 c1bb f7bb 04bd
00000230: 937f 6bbd cf03 af3e 240a 4ebc 77ea 2bbd
00000240: 3657 9ebc 3896 043a ac31 d13c e7a7 99bc
00000250: 0449 c0bb ec6c 8ebd 3bc3 34bc ce26 9abe
00000260: 29f1 5abd e40f 80bd 5635 45bd 8759 9d3d
00000270: 8829 583e 01e0 1bbd 52aa 7a3d 36f1 6dbe
00000280: 429e 30bc 2470 4abd d86c a7bd a6f0 e93d
00000290: 11bd 0a3e 6920 6dbd ce1d 50bd c093 593e
000002a0: 3190 f5bc df3b d83c 8766 63bd 8836 01bd
000002b0: 2409 973d 1dae 8bbd f98b bd3d 9899 56bd
000002c0: 5942 38bd 3902 d9bc 4b9f cc3b c086 9abd
000002d0: 59e9 cc3b ae17 3bbb 087a 52bd 4cf8 45bd
000002e0: fc91 8b3c a0da a4bc f90d 4cbd 04b9 683c
000002f0: 2cad 0fbd 834d 023d c6b2 f4bc 7abc 2ebd
00000300: cccb e03d 4501 6ebc 0065 4abd 97db 61bd
00000310: bb24 9abc 8f0e 1b3c f24f 7cbd 6ade b13c
00000320: 6f68 753b 0f88 703e 1c2c 373d f317 7ebd
00000330: fccf ff3d f76b bf3e de25 0bbd 817b f139
00000340: fec5 b2bc a9ef 833e 975b 3f3c de7e 013e
00000350: 0814 633c 3418 9abc a47e 8cbc cee6 1dbd
00000360: 5296 f93d 3496 d7bc 942f 1abd bd60 47bc
00000370: c8df 8dbd 091b 51bc 0723 2cbd dd92 1fbd
00000380: 21da ef3c a6fa 903e b5df 04bd 89ff 66bd
00000390: 6530 563e e487 22bd 2139 8ebc d5c1 843d
000003a0: 7c1e 97bd f277 b8bc 7536 083a ccae 72bd
000003b0: 8012 a6bc ae64 003d a87a a83c 7a58 64bc
000003c0: cbce cc3c ecdc 46bd 5acb 1d3e 2e02 8dbc
000003d0: 7d05 6bbb 4368 84bc ae84 bebc 5044 67bd
000003e0: 4750 103c 43d0 0cbd 40c9 b0bb 7079 3e3c
000003f0: 3488 8e3c 55ab 193e abbf 4fbd 1678 10bd

net.4.weight f4 [4, 256]
-0.34192675 -0.34614772 0.22293018 0.5537962 0.059604336 -0.0042555546 -0.010434099 0.02043622
0.0128372 -0.39037538 -0.02922882 -0.0003860446 -0.020923655 -0.27873254 -0.07319601 0.47960606
-0.0479288 0.08774616 -0.8369999 -0.007044743 0.16552897 0.24806345 -0.013415878 0.003767882
0.015115408 0.014627519 0.2555966 0.7735777 -0.033434287 0.0578139 0.021008939 -0.023596209
0.025036748 -2.26402 -0.033152264 0.018762179 2.985088 -0.11606024 0.0441522 -0.03881997
-0.37788433 0.01322526 0.0068489793 0.0071801376 -0.5350946 0.005548618 0.01611996 2.5652595
-0.25171763 0.037824772 0.029916815 -0.04184394 -0.047735352 -0.55752474 1.9396327 0.050107412
-0.108101 -0.5663764 0.059947573 -0.98928946 0.11772783 1.3500886 0.0016029254 0.77683157
-0.24499515 -0.06898849 -0.18196987 0.04629196 3.012689 -0.020307042 -0.2220941 0.06617419
2.5979521 -2.9346507 -0.048781622 -0.16719116 -0.034450267 2.9510922 -0.025441246 -5.524072
0.05530759 0.041668497 0.48853096 0.0052879704 0.014314106 0.48898083 0.025363563 -0.43239152
0.01715085 -0.03760475 0.033690386 -0.01923652 -0.10235271 -0.014388145 0.051341817 0.030533098
0.086167075 0.32458743 0.0025661078 -0.076692194 -0.03868693 0.20910653 -0.000642234 -0.37181813
-0.2331732 -0.4076792 0.060891174 -0.0062835803 0.7504983 -0.047889523 -0.04520928 -0.04154258
-0.0072194193 -0.032824025 -0.5487595 0.020605145 0.023828896 0.00425778 -0.055110555 -0.005812027
-0.056229055 3.1156635 -0.028392237 0.01228468 0.019653412 -0.25761908 0.04181661 0.05178892
0.0547372 -0.016319226 -0.027989993 0.070635 -0.057958666 -0.36413252 0.0011617094 -0.0013810473
-0.01398587 0.021911269 -0.019582443 -2.2546568 0.036992285 -0.0032734966 -0.0012495699 0.017156009
0.022224616 0.05788622 -0.029598128 -0.036548417 -0.04864748 -1.3136853 0.039249193 -2.1761982
-0.28804457 0.01459158 0.046717234 -0.7082593 0.030759096 0.058535017 -0.824068 0.3793136
0.012546571 0.042563803 0.7688983 0.09449889 -1.6286577 0.03721035 0.0008465871 -1.8186792
0.019244833 0.040866237 0.009624483 0.05336094 -0.23026647 -0.01948944 1.3625509 -0.00078476995
-0.0067637363 -0.019885434 -0.011984565 0.44908187 -0.041431986 -0.73138624 -0.030537196 0.032131195
-0.03271796 -0.027917365 -0.0070254835 0.018956957 0.033530947 0.014383014 0.96749276 -0.018346483
-2.0421228 -0.0044604917 0.040784936 0.031737484 -0.0005520892 0.05230039 -0.016893502 -0.18368162
0.042177204 0.042073436 0.26959768 -0.010158003 -0.06601354 -1.3995247 0.027271912 0.012776864
-0.004935315 -0.28844082 0.044349022 0.3177407 -0.0007915863 0.21532796 -0.03061908 -0.024577264
0.85749656 0.0146303605 -0.010285676 -0.018109415 0.013297824 0.06304512 -0.0145658385 -0.0021744845
-0.03672782 0.6949239 0.02162189 0.032402284 -0.43483242 -0.06891845 -0.040295716 -0.017906383
0.022667196 0.0033835352 -0.025417296 0.015388481 0.0021174834 -0.041503318 0.04488405 0.042938884
-0.043199934 0.04828432 0.024309514 -0.033059116 0.033273347 -0.042063404 -0.049662407 0.0017923196
-0.00851297 0.019776223 0.01334253 -0.0393164 0.030891642 -0.7570357 0.039789427 0.06115233
00000000: 0611 afbe 463a b1be cf47 643e 96c5 0d3f
00000010: ad23 743d 2e72 8bbb c8f3 2abc dc69 a73c
00000020: 1f53 523c 48df c7be 4771 efbc 0766 cab9
00000030: 1668 abbc 08b6 8ebe cae7 95bd ed8e f53e
00000040: fd50 44bd 42b4 b33d a045 56bf 96d7 e6bb
00000050: 6d80 293e 5804 7e3e 45ce 5bbc 92ee 763b
00000060: 9ea6 773c 43a8 6f3c 8fdd 823e 3009 463f
00000070: 64f2 08bd 45ce 6c3d f01a ac3c d64c c1bc
00000080: de19 cd3c b4e5 10c0 abca 07bd 24b3 993c
00000090: af0b 3f40 feb0 edbd f0d8 343d b001 1fbd
000000a0: 0e7a c1be c3ae 583c 676d e03b 5c47 eb3b
000000b0: f6fb 08bf 2ed1 b53b 020e 843c 362d 2440
000000c0: 22e1 80be 26ee 1a3d 1c14 f53c 8d64 2bbd
000000d0: 2586 43bd f1b9 0ebf e245 f83f 6e3d 4d3d
000000e0: 0f64 ddbd 0bfe 10bf 968b 753d 1342 7dbf
000000f0: 4a1b f13d b4cf ac3f 4019 d23a 6fde 463f
00000100: 02e0 7abe d649 8dbd 4f56 3abe a39c 3d3d
00000110: e6cf 4040 f45a a6bc a36c 63be 5586 873d
00000120: d944 2640 51d1 3bc0 3dcf 47bd 2934 2bbe
00000130: b91b 0dbd b2de 3c40 296a d0bc 33c5 b0c0
00000140: 368a 623d 96ac 2a3d bb20 fa3e b646 ad3b
00000150: b685 6a3c b25b fa3e 3fc7 cf3c 6c62 ddbe
00000160: f07f 8c3c 7007 1abd eefe 093d e895 9dbc
00000170: 4c9e d1bd 41bc 6bbc cc4b 523d 8c20 fa3c
00000180: 5d78 b03d 5330 a63e 252c 283b cc10 9dbd
00000190: 3076 1ebd 0620 563e 985b 28ba f25e bebe
000001a0: f5c4 6ebe 54bb d0be 0669 793d 7ee6 cdbb
000001b0: a820 403f ce27 44bd 5e2d 39bd 8d28 2abd
000001c0: e190 ecbb 7c72 06bd 817b 0cbf 1fcc a83c
000001d0: d134 c33c d984 8b3b 9bbb 61bd d172 bebb
000001e0: 7050 66bd 0867 4740 d696 e8bc af45 493c
000001f0: 3100 a13c a6e6 83be e547 2b3d 9e20 543d
00000200: 1d34 603d e6af 85bc 454b e5bc 15a9 903d
00000210: 1166 6dbd 946f babe 8044 983a 4204 b5ba
00000220: fe24 65bc 437f b33c 5c6b a0bc 4c4c 10c0
00000230: 3985 173d 2988 56bb 9cc8 a3ba c28a 8c3c
00000240: 6610 b63c 1a1a 6d3d c677 f2bc cbb3 15bd
00000250: 9442 47bd d726 a8bf c3c3 203d d546 0bc0
00000260: 947a 93be 8611 6f3c 925a 3f3d 7b50 35bf
00000270: 80fa fb3c 6ac2 6f3d 1ff6 52bf 6435 c23e
00000280: 2290 4d3c 6257 2e3d 85d6 443f a288 c13d
00000290: db77 d0bf e169 183d 80ed 5d3a 7bca e8bf
000002a0: 57a7 9d3c 5b63 273d 02b0 1d3c 0091 5a3d
000002b0: f9ca 6bbe 51a8 9fbc 1168 ae3f 05b9 4dba
000002c0: 55a2 ddbb c7e6 a2bc e95a 44bc 0fee e53e
000002d0: 96b4 29bd 213c 3bbf 2429 fabc 009c 033d
000002e0: 4503 06bd f5b2 e4bc 0736 e6bb 9f4b 9b3c
000002f0: bf57 093d bca6 6b3c 9bad 773f 5d4b 96bc
00000300: 24b2 02c0 5129 92bb 1b0e 273d 2aff 013d
00000310: 14ba 10ba ef38 563d 3e64 8abc 0917 3cbe
00000320: 01c2 2c3d 3255 2c3d b508 8a3e c16d 26bc
00000330: 1b32 87bd a023 b3bf 5869 df3c 0d56 513c
00000340: 6cb8 a1bb 84ae 93be 52a7 353d e9ae a23e
00000350: 7582 4fba ef7e 5c3e ddd4 fabc 4256 c9bc
00000360: e584 5b3f 2eb4 6f3c 4185 28bc 325a 94bc
00000370: 1edf 593c cd1d 813d 8ea5 6ebc cc81 0ebb
00000380: e96f 16bd 88e6 313f 6420 b13c 42b8 043d
00000390: 5ba2 debe 1e25 8dbd 1f0d 25bd 68b0 92bc
000003a0: 8eb0 b93c 4dbe 5d3b ef37 d0bc f81f 7c3c
000003b0: 7ac5 0a3b 62ff 29bd 56d8 373d afe0 2f3d
000003c0: 6af2 30bd c7c5 453d bf24 c73c ff68 07bd
000003d0: a249 083d ad4a 2cbd cf6a 4bbd 44ec ea3a
000003e0: fc79 0bbc bf01 a23c a09a 5a3c 3c0a 21bd
000003f0: 7810 fd3c 17cd 41bf 3dfa 223d de7a 7a3d

net.4.bias f4 [4]
0.10556127 -0.11459811 -0.643569 -0.37397653
00000000: 8230 d83d 6ab2 eabd f0c0 24bf da79 bfbe
