logs/PointMaze-Right/airl_sac/seed0-20231226-1522/model/step380000/actor.pth (torch, 276359 bytes, 6 tensors)

net.0.weight f4 [256, 6]
00000000: 414f 48bb 1c42 603e 1509 acbe 0ad4 99be
00000010: 2903 21be 5134 e03d ebee 16bf 135d 9b3e
00000020: 7f65 14bd 097b d4bd b86c a0be cb58 a4bd
00000030: 3d82 94bf 842b ffbe 0d54 2cbe 5d04 3e3f
00000040: 4525 2d3e 58d6 7a3e 831b a0bf 9bf7 91bd
00000050: 70d7 173e ce3b 613f 11a5 b73c 1b6a 9c3e
00000060: c51e 06c0 5c5b 7abe f643 bd3e 5a4b 8cbf
00000070: 7c71 a2be 69ab d3bd 54f4 22be 9d98 b43e
00000080: 0b7c 87be c070 40be 3208 92be 4ec3 c3be
00000090: a79f 18bf 8fe1 593e 388a 3a3e 1c18 393d
000000a0: 97d3 50be 4f53 56be 9ae3 96be 5313 3dbf
000000b0: 7708 97be 912b b3be 2a35 3f3e 021c 753e
000000c0: 679d 65bf 449f 313e d8ae 853e 4049 7e3f
000000d0: d516 c83d 77e6 613d 933d 083e 37f4 acbe
000000e0: 04cd 9b3d 8638 adbf cf08 73be b1f4 57be
000000f0: b901 6e3f aaf6 b0be 79a1 77be b0b6 87bd
00000100: 0af0 f63d 0d0f 53bd ed62 7f3c 01ba c13d
00000110: 4dac 813e e9b3 c83e 0214 a1be 8933 19be
00000120: 16d2 b4be 913d fc3e bae4 b53e ad69 693e
00000130: d550 89bd 4dc3 b5be def2 d3be 2bd3 fbbe
00000140: cbcc c2be 12d9 113f fbb8 213e a581 d0be
00000150: 407e 9c3d 21d9 8cbd 9e96 89bd 125d 3fbe
00000160: 24c3 203e 3b9c 77be 9183 c13e f233 f23e
00000170: 3ba2 953e cc86 fa3e 377d 11bf b897 87be
00000180: de1d 63be 3482 9fbe 3c0e a3be 5afe 04bf
00000190: 10e6 623e f1d7 8c3e 5847 36be 886e d2bd
000001a0: 731d c7be dd72 f0bb 2068 9dbe 3d3b a1be
000001b0: 0346 b8bc 0012 7b3d de33 2bbe 2d0f 783e
000001c0: c365 7ebe 4da9 bd3e 340e 353f f9ef 09bf
000001d0: 1f17 d0bd be4e cd3d 206c 9cbc b54c c63d
000001e0: 9d0d 243e 0d54 c83c 0ffa 4bbe 9dd0 453e
000001f0: 5581 c8be 60c7 77be 864c d1bd cca2 4bbe
00000200: 1d3f 12be e451 abbe 7cd9 b1bd 5db8 b23d
00000210: e22b 88be 85a1 abbc 1fa1 953e abe6 2bbd
00000220: 19e5 393c f041 10bd 2906 5ebf 2276 db3e
00000230: 12ff c53e a8c7 6e3e 36b9 633e d1de f1bc
00000240: 6399 8dbf c79e 40bf 2f53 8e3e 9276 01be
00000250: 1057 c53d 482d a0be 33ec 01bf 36c6 70bf
00000260: 1d97 a9bd 8168 ed3e 9df0 8e3e ad96 c9be
00000270: 8762 823e 0590 a3be 31c2 b0bd 9e81 29be
00000280: 500b a1bd 2229 a4bd 2091 bbbe 7e7a b4be
00000290: d2d4 82bd 0000 ad3b 6ee8 3dbe 4a7a 1d3e
000002a0: 23f0 9ebf ccec d4be aad1 b73e f23c 533e
000002b0: f7b7 833e a465 173e 6c55 b1bf 2fb0 a23e
000002c0: fef5 40bd 97fb 1dbf a611 533e 1de9 a8be
000002d0: 79dd ddbe 1350 fcbe 1d44 953e 1a47 2d3f
000002e0: d11e 493e 04a3 133e 210f c9bd b7d5 afbd
000002f0: 8840 acbe 1384 623e b5f5 a53e d104 8f3e
00000300: bd70 93be 9628 953c f858 93be bb20 66be
00000310: 0d99 73be 80dd 0e3e 07c9 55bf 1b32 ce3e
00000320: feb0 8c3c 276a 673f 373d eabe 377f 8fbe
00000330: b7a6 66be 38c2 8a3e e345 16be 6b00 a93e
00000340: 7f8a 083e fcbd 533d 212a 47bb b247 a5bd
00000350: 8ecd 513d d3ea bebd f1fd 3bbb f35b 553d
00000360: c44e 95bf 3f7e 6bbf e0c8 a83e b950 95be
00000370: 9ca6 933d 16c6 ce3e 8803 173e ea60 3d3c
00000380: 3b24 b5be 4417 4f3e 16e2 94be 3856 edbd
00000390: e022 07be 9f15 60bd a453 923b af08 a93e
000003a0: 42ca 353d 7438 bb3e 5fb9 7f3e b825 84be
000003b0: d67e 3b3e f4c1 93be b32d 31be eee9 f53d
000003c0: 4341 27be d4a9 663e 6393 06be 6ef9 65be
000003d0: 6f09 85bd 0725 cabe a31e 973e 8ed8 acbe
000003e0: 0960 b83b 5626 8ebd 752c 5cbe b203 5d3d
000003f0: 3715 ab3e adfb ecbd 0d31 78be 189c 1abe
-0.0030564817 0.21900219 -0.3360068 -0.30044585 -0.15723862 0.109474786 -0.5895831 0.30344447
-0.036229607 -0.103750296 -0.31332946 -0.080247484 -1.1602246 -0.49837887 -0.16828938 0.7422541
0.16908748 0.24495828 -1.2508396 -0.07127305 0.14828277 0.8798188 0.022417577 0.30549702
-2.095628 -0.24448913 0.36965913 -1.0960495 -0.31727207 -0.10335428 -0.15913516 0.35272685
-0.26461825 -0.1879301 -0.28521878 -0.38234943 -0.5961861 0.2127745 0.18216789 0.045189008
-0.20393215 -0.20930217 -0.2947052 -0.7385761 -0.29498646 -0.34994176 0.18672624 0.23936465
-0.896933 0.17345911 0.26109958 0.9933052 0.0976998 0.05515143 0.13304739 -0.3378007
0.07607463 -1.3532875 -0.23733829 -0.21089436 0.9297138 -0.3456319 -0.2418269 -0.06626642
0.120575026 -0.051528025 0.015587551 0.094593056 0.25326768 0.3919976 -0.31460577 -0.14961065
-0.35316533 0.4926572 0.35526067 0.22794218 -0.067048706 -0.35500565 -0.4139623 -0.49184546
-0.3804687 0.5697185 0.1579322 -0.4072391 0.07641268 -0.068773516 -0.06718181 -0.18687847
0.1569944 -0.24180691 0.3779569 0.47305256 0.29225335 0.48930967 -0.5683169 -0.2648294
-0.22179362 -0.31154025 -0.31846797 -0.5195061 0.22158074 0.275085 -0.17800653 -0.102749884
-0.38889655 -0.0073379115 -0.30743504 -0.31490508 -0.022494322 0.061296463 -0.16719005 0.24224539
-0.24843507 0.3704323 0.707248 -0.53881794 -0.1016066 0.100247845 -0.019094527 0.096825995
0.16020818 0.024454141 -0.19919609 0.19317861 -0.39161173 -0.2419715 -0.10219674 -0.19886321
-0.14281888 -0.33460915 -0.0868406 0.08726571 -0.2659598 -0.020951042 0.29224488 -0.04196803
0.011346125 -0.035219133 -0.8672815 0.42863566 0.38671166 0.2331835 0.22238621 -0.029525192
-1.1062435 -0.75242275 0.2779784 -0.12642887 0.096357465 -0.31284547 -0.50751036 -0.94052446
-0.08280776 0.46368793 0.27917948 -0.3937277 0.25465795 -0.31945816 -0.08630789 -0.16553351
-0.07863486 -0.08015658 -0.3663416 -0.35249704 -0.063882485 0.005279541 -0.18545696 0.15378681
-1.2417034 -0.41586912 0.35902148 0.20628718 0.25726292 0.14784867 -1.3854194 0.31775042
-0.047109596 -0.6171202 0.20612201 -0.3299035 -0.43333033 -0.49279842 0.2915353 0.6768662
0.19640662 0.14417654 -0.09817339 -0.08585685 -0.33642983 0.22120695 0.32414022 0.27933362
-0.2879695 0.01820783 -0.28778815 -0.22473423 -0.23788853 0.13951683 -0.8350987 0.40272602
0.01717424 0.9039635 -0.45749828 -0.28026745 -0.22524534 0.27101302 -0.14675097 0.3300813
0.13334082 0.051694855 -0.00303901 -0.080703154 0.051221423 -0.09322133 -0.0028685296 0.052089643
-1.1664662 -0.9198951 0.32965755 -0.2916315 0.072095126 0.40385503 0.14747441 0.011558751
-0.35379204 0.20223719 -0.2907874 -0.115887105 -0.13196898 -0.05470812 0.004465537 0.33014438
0.04438234 0.36566508 0.24973057 -0.25810027 0.18310103 -0.28858912 -0.17302589 0.12007509
-0.16333489 0.22525722 -0.13142161 -0.22458431 -0.0649594 -0.39481375 0.2951556 -0.33758968
0.0056266827 -0.06940906 -0.21501334 0.053958602 0.33414623 -0.11571441 -0.24237461 -0.15098608

net.0.bias f4 [256]
00000000: c900 0bbe 2f69 71bd 48cb 403e 233d bc3d
00000010: d64f a83e f9ab 90be a60e 8dbd 1efc 973e
00000020: 0a8f 0abe ed4c bd3e 4c45 c6bd a186 9cbe
00000030: dd99 bebe 200e 0aba b9e8 34be e451 87bd
00000040: e115 753e 8c00 0e3e db7f 1cbd 6f97 bf3c
00000050: d0da 70be e1a1 afbe 631f 9dbe 42fd 01bf
00000060: d023 c43e 754c 0d3e 02a8 31be c374 ccbe
00000070: 56cf e03d cb51 b4be db18 8bbd 1a43 afbe
00000080: 1fd8 6bbe 5b68 af3c f725 cabe f662 6ebe
00000090: 90a1 d03e fe64 56be 7cb7 34be bac0 eabd
000000a0: de19 cebd e21c 89be 2e43 193d 8ca8 f2bc
000000b0: 8754 03bc 482d ac3e ea73 9fbe f3de 113d
000000c0: e996 3b3d 77a9 f83d c4d5 acbe baed 0c3d
000000d0: 2422 653d 3d3d 92bd 80a0 0bbd b337 b83d
000000e0: cb9d d9be 636a 82be 5718 ad3e c621 1fbe
000000f0: f967 a6be e5ec 24bd 8586 6d3e ebde 87be
00000100: 4b80 b6be b82b dc3e c0c5 eabc 0461 82be
00000110: 033f 47be d7da 30bd 2861 453d ecb6 6d3c
00000120: 2256 83be b612 873e 9139 fabd 217c 23be
00000130: f84f 1fbe 04ef ba3d 9706 a9be 7047 393e
00000140: 8ef7 393e 54cc 39be 845e a2be aaf5 a7be
00000150: d6e5 cc3c 88a3 b4be 4fd7 93be 5442 913e
00000160: dab2 503e f08e b73e 88ed 7d3e 1d3e 4a3d
00000170: 00d3 883d 2ef1 763e 5a01 8fbe 8351 09be
00000180: 25d7 8d3e 8657 f6bc 2f02 88be 0016 00bf
00000190: bc79 803e a6a2 a23e 4d88 ec3d 5ffd 37be
000001a0: a151 d03e 3de9 bfbe ea97 96be e020 c9be
000001b0: ee41 a43e f22d 223e dd7e 40be 505c 093d
000001c0: ec13 2fbe 470e 86be 856a 77bd 1d4d f7bc
000001d0: 71af 95be f3ac 89be c80c 993d 4db8 f63c
000001e0: afac 8d3e 76fa 51be a6af a33d e228 e83d
000001f0: d5fe b6be d674 87be adab 9cbd 99aa ef3c
00000200: 9a4d 06be 479b cf3d 6173 81be 03f2 bb3e
00000210: e10f afbc 3368 0e3e eb4a 723c 1932 8f3e
00000220: df6d dbbe eb08 c33d 36b4 ca3d ccb7 bcbd
00000230: 7a58 373e 80ef 88be 16ac babe a88d 46be
00000240: bffd c1be 2dcf 8b3e 3f26 82be 3ed6 b4be
00000250: 8cca 9abe 70d7 8cbe c235 cabe bfb9 893e
00000260: 04ef 9cbe b48e 863e 66e9 8a3e ee30 c8bd
00000270: bfaf 4b3e 162c 6abe a0f9 c33e 1f21 343e
00000280: afaf c63d 2438 2b3e f745 c4be 24bc 04be
00000290: 44e0 123e 1fae b5be 2847 803e d052 1fbe
000002a0: 3533 17be 8ad7 a5be 3cbc e23d 57f1 a3be
000002b0: 6e6c b1bd de7a 80bc a76a 593d b63a 023e
000002c0: d2c5 0fbe 4892 efbd 34fe 00bd efa0 e5bc
000002d0: 3621 913e 6790 e23d d7bc a63d c26e a8be
000002e0: dad6 293e b712 40be 20cf dfbd 7a23 203b
000002f0: 37e2 c4bd cb38 d23d d79f 373e c5c6 79be
00000300: bc16 b03d 27fe a7be 6d20 963e c0a9 203e
00000310: 2c03 9e3e 5eb2 bc3e 546d b83d e35a de3c
00000320: 29e8 ffbd beae 2ebe 897a 913e 0fdd af3d
00000330: 44c2 d4be 6fca 753d c082 c6bb 22aa 94bc
00000340: f529 88be 0675 10be f3d0 d03c d9d1 8dbe
00000350: 4c6f c2be cab2 4fbe 72fb b6bd 49c8 063e
00000360: 6f58 323e c78a 5ebe 8bb7 6abc e9a1 9ebe
00000370: 3fa4 5fbe 5306 93bd f70d 4abe a2b4 c5ba
00000380: 3753 4fbe 13a3 54bd d6e8 6bbe 7f9b 81be
00000390: 3f08 863d e93b 4dbe 8708 8a3c 0db6 613e
000003a0: 9257 13bd fbc8 54be 0bff 7abe b9a0 91be
000003b0: 2ac8 babd bd53 b7ba d0a5 6a3e 622a 043f
000003c0: d25f 65be aa01 28be 7d49 683e 00b2 d23d
000003d0: f611 7c3e 78c2 963a 7ad9 16bd 94e7 b7be
000003e0: e1cd 13bc 1da9 a2be 6cc3 dbbd 6bb3 aebe
000003f0: 66f1 c8be 2d68 2c3e 0cc3 9abc 176d 293e
-0.13574518 -0.0589382 0.18827546 0.091913484 0.3287341 -0.28256205 -0.068875596 0.29684538
-0.13531128 0.36972752 -0.09681186 -0.30571464 -0.37226763 -0.0005266387 -0.17666902 -0.06607416
0.23934127 0.13867396 -0.03820787 0.023387639 -0.2352097 -0.3430319 -0.3068801 -0.50777066
0.38308573 0.13798697 -0.17349246 -0.39932832 0.10977046 -0.35218653 -0.0679185 -0.34230882
-0.23031662 0.021412065 -0.3948209 -0.23279938 0.40748262 -0.20936963 -0.17648119 -0.11462541
-0.100635275 -0.26779848 0.037417583 -0.029621385 -0.008015758 0.33628297 -0.31143123 0.03561301
0.045798216 0.12141698 -0.3375684 0.0344064 0.055940762 -0.071405865 -0.03408861 0.08994999
-0.425032 -0.25471792 0.33807632 -0.15540227 -0.325012 -0.040264983 0.23195846 -0.2653726
-0.35644755 0.43002105 -0.028658748 -0.25464642 -0.19457631 -0.043177452 0.04818836 0.014508944
-0.25651652 0.26381463 -0.12218011 -0.1596532 -0.1555785 0.0912762 -0.3301284 0.18093657
0.18160841 -0.18144351 -0.31712735 -0.32804614 0.025011938 -0.35281014 -0.28875205 0.28370917
0.20380726 0.3585124 0.24797642 0.049375642 0.0668087 0.2411544 -0.2793072 -0.1341
0.27703205 -0.030071031 -0.26564166 -0.5003357 0.25092876 0.31764716 0.11549435 -0.17967747
0.40687278 -0.37482634 -0.29412776 -0.39282894 0.3208155 0.15837839 -0.18798395 0.0335353
-0.17097443 -0.26182768 -0.06040432 -0.030188138 -0.29235414 -0.26889762 0.07473141 0.030117178
0.2767081 -0.205057 0.07992487 0.11335923 -0.35741296 -0.26456326 -0.07649932 0.029256152
-0.1311554 0.10137039 -0.2528334 0.36708078 -0.021369876 0.13906936 0.01478837 0.2796791
-0.42857262 0.09523185 0.09897654 -0.09214744 0.17904845 -0.26745224 -0.36459416 -0.19389975
-0.37888905 0.273065 -0.25419804 -0.35319704 -0.30232656 -0.27508116 -0.3949414 0.26899526
-0.30651104 0.2628075 0.27131194 -0.097749576 0.1989126 -0.2286838 0.38276386 0.1759076
0.09701478 0.16720635 -0.3833463 -0.12962395 0.14343363 -0.35484406 0.25054288 -0.15558934
-0.14765628 -0.32391006 0.11071059 -0.32020065 -0.086632594 -0.015683588 0.053080227 0.12717709
-0.14040306 -0.11697823 -0.031492427 -0.02803084 0.2834565 0.11062699 0.08141487 -0.32897002
0.16585866 -0.18757139 -0.10928178 0.0024435208 -0.096134596 0.10264739 0.17932068 -0.24392231
0.08598086 -0.3281109 0.29321614 0.15689754 0.30861795 0.36854833 0.09005228 0.027142948
-0.12495453 -0.17058846 0.284138 0.085870855 -0.41554463 0.06000751 -0.006058067 -0.018147532
-0.2659451 -0.14107141 0.02549026 -0.27699164 -0.37975538 -0.20283046 -0.08934678 0.1316234
0.17416547 -0.21732627 -0.014325987 -0.30982903 -0.21839999 -0.071789406 -0.1973189 -0.001508374
-0.20246588 -0.051913332 -0.23038039 -0.25313947 0.065445416 -0.20042385 0.01684977 0.22042103
-0.035972185 -0.20779793 -0.24511354 -0.28442934 -0.091202095 -0.0013986748 0.22914815 0.5162717
-0.22399834 -0.16406885 0.22684284 0.10287857 0.24616227 0.0011502048 -0.036828496 -0.35918868
-0.009021253 -0.31769648 -0.10730633 -0.3412126 -0.39246672 0.16836615 -0.018891834 0.1654552

net.2.weight f4 [256, 256]
00000000: 04b5 4b3d 3856 883c ccca 393d 4be7 6d3d
00000010: bc41 19be 4c34 f63c 7ada 573d 9ea9 1bbc
00000020: 17c7 b33d b54d 87be aea0 86be c0b5 6d3c
00000030: 8107 88bd 4a71 8bbe fa86 18bd 745a 7dbc
00000040: ce4b 973c 4c10 4a3d ac47 34bd 4647 edbb
00000050: 4a64 003d d402 353d a048 803c a41f 923c
00000060: 8ade f43e a9e2 2cbe cc16 ae3c d42c 48bd
00000070: 1147 953d 4791 933a 97b4 653d e4e3 b4bc
00000080: 50c8 7dbd 3ff0 f63a bc03 c43c 1e6f 5c3d
00000090: aefd f4bd 4c72 f43c 66e9 72bd 32d0 74bd
000000a0: 9051 20bd d840 07bc 9cff 8e3c d105 863b
000000b0: 1715 bfbe d8dd 6ebe 0003 7c3b 0f04 c63d
000000c0: 486f 183d bea2 05be 6024 04bc aa41 06bd
000000d0: d9b8 a8bd 22fd 4cbd 3193 87be a7c9 79b8
000000e0: 0abe db3d 8cd5 6cbd c7a3 ea3d 94bd bfbd
000000f0: a0bf fc3c 00e6 62bb fb61 4c3e 12fe 1c3d
00000100: a719 3a3d 4a90 12bf fb06 5bbe a30e e23d
00000110: 89eb 16bd a674 713d 149b 863d 6e8c 743d
00000120: 782a efbc 571e 80bc d726 f43c a158 9abd
00000130: a26a 003d d6c5 453c 36fb 593d fb24 3cbe
00000140: 665e 133d 5787 00bc 78ad 8e3c 5c12 0cbe
00000150: fc4d 67bd 325e 42bd 7c34 96bc ab16 1a3e
00000160: 0f9f e8bb ea90 923d f3e4 923a 3094 f1bc
00000170: 69f6 033d 4c1d fabe c75d 6bbc f176 b0be
00000180: 2b97 1fbd df91 66bd b0ab 193c 2b4a b7bd
00000190: 5abe 1d3e 0647 de3d 735c a4bc 60a5 ea3d
000001a0: 5f68 d0be e8cc 59bc 1ca1 c33c 02d4 003d
000001b0: 99f3 483e c4be 0bbe 9c45 cfbc e7c9 25bd
000001c0: 6852 023c 28c3 02bd e034 b7bb 082e 023d
000001d0: 40df 71bd 568c 2d3d c132 dabb d58f 38be
000001e0: 2014 f83c 38bf 09bd af8e 913b b858 dabd
000001f0: 409d 3d3b e44d 933c 8d92 ab3d 6eb9 de3d
00000200: e017 9dbc e1e2 adbe 2045 a0bb 3042 2a3e
00000210: 0765 eabd e5ef 2d3e 2edb 5cbe 43b8 883e
00000220: 8dd2 9bba ef66 c0be 533f f8be d0cd 5fbd
00000230: 5454 ba3d 9e6f 193c faf7 2b3d 1982 26bd
00000240: b0d1 d73c 714a e63d 874c 4ebe ffe9 64bd
00000250: 2105 09bd c0d7 8c3a 79b1 53be 09f5 413e
00000260: 7034 19bc 7df3 c4be 47df 613e 73db 9fbe
00000270: 6768 cfbd 2251 23bd b003 93be 8ddb dbbd
00000280: d47c 5f3d 132a b5be fa20 a0be 0e1f c23b
00000290: 3521 b4be b40d 91bc 308a 4bbe 8e26 2d3d
000002a0: d88f 6b3d 609c 2cbb 6301 c2be 776a 163d
000002b0: 401b afbc f491 12bc 9e9b a83c 8e17 3d3d
000002c0: 9aa6 d1be 6d94 dabd 7cc7 9fbd 97d8 ccbe
000002d0: d5b9 93bc 8ab1 2cbe fa48 3a37 58ce bcbc
000002e0: d886 27be 22ba 5d3d 98be 07bc 40d8 00bd
000002f0: 0c7a 083e 6c5f 7ebd 532d 2dbe 30f3 6a3c
00000300: 5bab cc3d d827 18bc 0c39 95be 7843 8dbe
00000310: 8985 f4bd b3b2 553e 7f81 e8be fda1 aabe
00000320: 2e5a d53c e019 20bc 453e dcbe 28e2 0e3d
00000330: d3cc 0dbd 4d74 91be 0c83 9bbc 6ae1 403d
00000340: 234c 50be 2be5 78be 438e 0ebe 18e8 0bbd
00000350: 947d 1f3d 2c85 e6bd 862e afbe adac 9fbd
00000360: 4908 873a df42 c0bc 7380 86be 5706 eb3c
00000370: 54e3 37bd d462 a43c bc4d 61be 8486 43bd
00000380: 5044 cdbb cf33 e53d 8ad1 37bd 2a2b 8ebd
00000390: 8ee9 86bc a094 1dbd fe1a d9be c8c0 673c
000003a0: db0e c3be 2038 0a3b d00e 553d 969f 79be
000003b0: 3a0e acbe 8825 a33e a587 c5be 8551 0f3d
000003c0: 305b cbbc 0070 33ba 0af6 cbbd fb20 ed3c
000003d0: ec78 e73d af6a 913d 25c4 d83e 2b8d 79be
000003e0: de35 e4bd 338f 91bc 8029 323d f61e 7b3d
000003f0: 6822 f93c d662 6fbb 9116 63be 7b83 edbd
0.049733177 0.016642675 0.045359418 0.058081906 -0.14966482 0.030054234 0.05269859 -0.009500889
0.08778208 -0.26426473 -0.26294464 0.014508665 -0.06642056 -0.2723487 -0.0372381 -0.01546346
0.018468764 0.04933195 -0.044013664 -0.0072411625 0.031345643 0.04419215 0.01565963 0.017837353
0.47826034 -0.16883339 0.021251105 -0.048870876 0.072889455 0.0011258506 0.056080427 -0.022081323
-0.06195861 0.001883991 0.023927562 0.053816907 -0.11962448 0.029839657 -0.059304617 -0.059768863
-0.039140284 -0.008255206 0.017455868 0.004090049 -0.37320778 -0.23326814 0.0038453937 0.09668743
0.0372155 -0.13050362 -0.008065313 -0.032777466 -0.08238382 -0.050046094 -0.26479486 -5.955403e-05
0.107296064 -0.05782084 0.11457019 -0.09362331 0.030853093 -0.0034621954 0.19959252 0.038328238
0.04543462 -0.5725142 -0.21389382 0.11037948 -0.036845718 0.058949135 0.065725476 0.059704237
-0.029195055 -0.015639467 0.029803677 -0.07536436 0.031351693 0.012071094 0.05321809 -0.18373482
0.035978697 -0.0078447675 0.0174167 -0.13678879 -0.056470856 -0.047453113 -0.018335573 0.1504771
-0.0070990394 0.071565464 0.0011207148 -0.029489607 0.032217417 -0.48850477 -0.01436562 -0.34465745
-0.038962524 -0.056291457 0.009379312 -0.08949693 0.15404645 0.108533904 -0.020063614 0.11457324
-0.4070463 -0.013293482 0.023880534 0.031452186 0.19624175 -0.1364699 -0.025301747 -0.040475752
0.0079542175 -0.031924397 -0.00559102 0.03178218 -0.0590508 0.042370163 -0.0066588824 -0.18023618
0.030283034 -0.033629626 0.004442058 -0.10661453 0.002893284 0.017981477 0.08377562 0.10875212
-0.019176424 -0.33962157 -0.004891053 0.16626811 -0.11445051 0.16986044 -0.21567985 0.2670308
-0.001188831 -0.37578532 -0.48485813 -0.054639637 0.090981156 0.0093649905 0.041984536 -0.040651415
0.026345104 0.11244667 -0.2014638 -0.05588722 -0.033452157 0.0010745451 -0.20673169 0.1894113
-0.009350881 -0.38467017 0.2205783 -0.31222114 -0.10127335 -0.039872296 -0.2871375 -0.10735235
0.054562405 -0.35383663 -0.3127516 0.005924112 -0.35181585 -0.01770673 -0.19876933 0.042273097
0.057510227 -0.0026338324 -0.37891683 0.036722627 -0.021375299 -0.008945931 0.020582017 0.04616504
-0.4094742 -0.10672841 -0.078017205 -0.40008995 -0.018032948 -0.16864601 1.1103455e-05 -0.023047611
-0.16360033 0.05413259 -0.008285187 -0.031456232 0.13327807 -0.06210272 -0.16911821 0.014340207
0.09993621 -0.009286843 -0.29145086 -0.27590537 -0.11939532 0.2086895 -0.45411298 -0.33326712
0.026043978 -0.009771794 -0.43016258 0.03488365 -0.034619164 -0.28409043 -0.018983386 0.04708997
-0.20341544 -0.2430617 -0.13921456 -0.03415689 0.03893812 -0.11255869 -0.34215182 -0.07796607
0.0010302152 -0.023469387 -0.26269874 0.028689547 -0.04489453 0.020066656 -0.2200231 -0.047735706
-0.006264247 0.11191522 -0.044877566 -0.06941827 -0.01646879 -0.038471818 -0.42403406 0.014145084
-0.3809727 0.0021090582 0.05201608 -0.24377283 -0.33604604 0.31864572 -0.3858005 0.034989852
-0.024823755 -0.00068449974 -0.099590376 0.02894639 0.11302361 0.071004264 0.42337146 -0.24370258
-0.11143087 -0.017768478 0.04349661 0.061308824 0.030411914 -0.0036527417 -0.22176577 -0.115973435

net.2.bias f4 [256]
00000000: ee86 803c ade9 4bbd 2190 75bb e94f 11bd
00000010: ed50 00bd e1e5 d8bc f0f4 60bd fd90 62bc
00000020: 96bd 7aba d59d 22bd 0540 35bd 2125 9f3c
00000030: 3fef 77bc 7063 623e e14b 783e 1edf b33c
00000040: 400a 3fbd abc4 393e b03d 09bd c2ee 22bd
00000050: 6a79 0abe 57e2 5c3e c8d6 8e3c 2cf0 2fbc
00000060: 4aff a43d 5621 a23a 4b62 27bd 40a3 48bd
00000070: 7a5d 91bd 62b3 3cbd 14c2 a7bd c83b 17bd
00000080: 1e33 36bd 9c76 0b3b 1401 57bd 36d2 923e
00000090: a710 27bc dc2a 9b3c 6294 423c 2997 07bd
000000a0: 80ea 79bd 6ef9 28bd 5fe7 9e3b be03 d7bb
000000b0: 3ba7 4abd 9eb9 acbb 9b85 b6bc 2e5c ca3c
000000c0: 2bd1 e8bd 98ef 81bb 5992 adb8 4ed1 70bd
000000d0: 3073 83bd 01fc 45bc aca1 683e 70e9 85bd
000000e0: 2c47 4cbc 52e2 37bc 322d aebc 0c1e a13c
000000f0: 6f86 593c 69fe de3b 2f0c a3bb d2fc 60bc
00000100: a0c0 c23c 9edb e53c 66c3 153b fb10 87bd
00000110: da5b aa3e 602b b5be b21b 9abd 6c32 52be
00000120: 1af2 0f3c 9706 82bc cb8e 88bd a127 ae3a
00000130: c764 4ebb 6f81 73bd 4e70 39bd 2e57 273a
00000140: b129 743c bdcd 86bd cb0c 62bc c69b 82bd
00000150: bc53 1cbd 367b d13d d717 63bd a330 ad3c
00000160: e0f2 3ebc 9243 3ebd f5ca 74bd b7aa 61bc
00000170: 5498 623e 1669 03bd c4af fc3b 88f6 b33e
00000180: e8a1 11bc 3d5c 5fbd 89a6 14bd a559 9c3e
00000190: dc11 d5bc 0d47 bebc 06e8 6c3e 650c 6c3e
000001a0: ba3c 1e3e dd80 783c 2b80 0a3d eb34 42bd
000001b0: f40c 333c 5032 8cbd 768f 0abd 0815 efbc
000001c0: 72a7 aebc 2cf9 aabc 221f 423c 506e 3cbd
000001d0: f165 89bd 3d2b bb3b 3e79 64bd ee01 93bc
000001e0: e284 3dbd 863f ebbd 9ef2 16bb 732e 763c
000001f0: ed63 39bd 20eb 2e3e 165c 793c 2888 1fbc
00000200: 751b 5c3b f3b4 3f3c feec 0ebd e455 533e
00000210: 129c 533c eaa7 edbc 6741 42bd fd25 d9bb
00000220: a6e5 7fbd 9f41 3b3e 918b 1bbd 160d 243d
00000230: 5054 57bd a4e5 66bc 296a 99bb 8edd 2ebd
00000240: 6912 10bb fdc5 e4bb 02f4 d63c 1a3c 3abd
00000250: 55da 32bc 7a3c 803e 00ee b53d 4be4 40bd
00000260: 4ecb babc 9610 87bd b755 72bd 5f21 6bbd
00000270: e9cb cb3c ea40 f13d 796f bd3b 7c34 c0bc
00000280: 8ab4 7cbb 305a 43bd 9a5e 12bd 9c93 f93c
00000290: b49c e93d 7aa0 7ebd ce1d 50bd 8a6b a23c
000002a0: 5a8c f3bc 5fe2 b23c 4376 5cbd e834 27bd
000002b0: 3121 133c 4a84 a8bd df79 80bd 9182 b43c
000002c0: 094d 38bd f933 21bc 78b1 3d3c 29d0 f83d
000002d0: bd2c 9fba 2351 343c 087a 52bd 0b2f 66bd
000002e0: 3e33 dd3c f2e7 1ebc 6e8a 4ebd 5d14 f63b
000002f0: acda 16bd b532 003e ee64 943c f41c 5cbd
00000300: 4ad5 243e 6bfa c8bc dd56 54bd 6fcf 7bbd
00000310: 3e80 6ebc b17e 2e3c 3ddd 8abd aa00 933c
00000320: 07fa 663c 283d 29bb 770e 15bd cb5a 49bd
00000330: 9ce3 0abd d290 893c c03e 31bd 64c1 013b
00000340: e77a c3bc 8fd4 8e3e 725d 473e 616a 08bc
00000350: 085f 8f3e 9d72 0c3d d5ed c6bc 57bd b2bc
00000360: 0d42 c1bd 1c47 403e 5420 1bbd 10ff 87bc
00000370: ce3f b5bd 4156 fcbb 656a 16bd de3c acbe
00000380: 1cc1 523e 530d dcbd db19 84bd 4d24 7ebd
00000390: 94df c63c 13ee 3f3e daff b8bc 79a4 113c
000003a0: 8cc3 8fbd bd1e 7bbc 439f 25bc 2091 73bd
000003b0: 4639 a3bc 32cb 263e 276e 953c 451e 93bb
000003c0: 030f 2f3d 7096 5bbd 13ac 17bd 6094 4fbc
000003d0: 62d6 813e 86ef b2bc 52b5 233e 6504 003e
000003e0: bff7 293c 0afe 57bd ef66 0c3b 8d8d 133b
000003f0: 8dea fb3b f238 133e a3d4 48bd 74a0 12bd
0.01568934 -0.049783397 -0.003746994 -0.0354766 -0.031327177 -0.026476802 -0.05492109 -0.013828513
-0.00095649937 -0.0397013 -0.044250507 0.019426884 -0.015132724 0.22108245 0.24247696 0.021956977
-0.046640635 0.18141429 -0.033506095 -0.03977848 -0.13522878 0.21570717 0.0174364 -0.010738414
0.08056505 0.0012369554 -0.040865224 -0.048983812 -0.07097907 -0.04606951 -0.08191314 -0.036922246
-0.044482343 0.0021280413 -0.052491263 0.28676003 -0.010196841 0.018941335 0.0118761975 -0.033103142
-0.061014652 -0.0412535 0.004849359 -0.0065617254 -0.04947589 -0.0052711507 -0.022280505 0.024702158
-0.113680206 -0.0039653294 -8.276542e-05 -0.05879336 -0.06418455 -0.012084008 0.22717923 -0.06538665
-0.012468141 -0.011223393 -0.021261785 0.019667648 0.01327668 0.0068052304 -0.0049758176 -0.013732152
0.023773491 0.028058823 0.0022852062 -0.06595036 0.33273202 -0.35384655 -0.07524814 -0.20527047
0.008785749 -0.015872283 -0.066678606 0.0013286957 -0.0031493173 -0.05944961 -0.045273118 0.0006383535
0.014902518 -0.0658221 -0.013796995 -0.06377368 -0.038165793 0.10228579 -0.055442657 0.021141356
-0.011654586 -0.04645116 -0.059763867 -0.013773612 0.22128421 -0.03208264 0.0077113826 0.35149026
-0.008888699 -0.054531325 -0.036291633 0.30537143 -0.026009493 -0.023227239 0.23135385 0.23051603
0.15452853 0.015167442 0.033813637 -0.047413748 0.010928381 -0.06845534 -0.03382822 -0.029184833
-0.021320079 -0.020870768 0.011848243 -0.04600364 -0.06708897 0.0057119415 -0.055779688 -0.017945256
-0.046269305 -0.114867255 -0.0023032795 0.015025723 -0.045261312 0.1708188 0.015219709 -0.009737052
0.0033585702 0.0117008565 -0.034893982 0.20638233 0.012915628 -0.029010732 -0.047425654 -0.006626843
-0.06247487 0.18286751 -0.037974898 0.040051542 -0.05257064 -0.0140928365 -0.0046818447 -0.04269176
-0.002198363 -0.00698161 0.026239399 -0.045467474 -0.010916312 0.2504614 0.088832855 -0.047092717
-0.022802021 -0.065949604 -0.059163775 -0.057404872 0.024877505 0.117799595 0.005781111 -0.023462527
-0.0038559758 -0.04769343 -0.03573475 0.030465893 0.11406842 -0.06216476 -0.050809674 0.01982667
-0.02973001 0.021836458 -0.05382372 -0.04082194 0.008980081 -0.08228357 -0.06273245 0.022034915
-0.04499534 -0.009839051 0.011577956 0.121490784 -0.001214407 0.011005673 -0.05138591 -0.056197207
0.027001973 -0.009698855 -0.050424986 0.0075097517 -0.036829636 0.12519343 0.018114533 -0.05373855
0.16096988 -0.024533471 -0.05184065 -0.06147712 -0.0145569425 0.010650323 -0.06780479 0.017944653
0.014097697 -0.0025823805 -0.036390748 -0.049158853 -0.03390847 0.016792689 -0.043272734 0.0019799108
-0.023862315 0.27896544 0.1946924 -0.008326144 0.2800219 0.03428899 -0.024283329 -0.0218188
-0.09436426 0.18777126 -0.037872627 -0.016601115 -0.088500604 -0.007700712 -0.03672256 -0.33640188
0.20581478 -0.10744729 -0.06450244 -0.062046338 0.024276532 0.18743162 -0.022582937 0.008889311
-0.070197195 -0.015327153 -0.010108772 -0.059464574 -0.019924771 0.1628845 0.018241001 -0.0044896924
0.042738926 -0.053610265 -0.037029337 -0.012669653 0.25358874 -0.02184273 0.15987137 0.12501676
0.010374009 -0.052732505 0.0021423658 0.002251479 0.0076878727 0.14377192 -0.04903091 -0.03579755

net.4.weight f4 [4, 256]
00000000: 4cc9 2fbd a79f acbc b446 9f3c 2a6e 533d
00000010: c501 473d adc7 863c c8f3 2abc ae85 013d
00000020: 4dfe eebb e774 13bd e055 9dbc 2552 b83b
00000030: b513 66bc 3547 493e a058 a9bf 0b93 4abc
00000040: d137 32bd ab99 843f e7c9 24bd ea8f edbc
00000050: 01a7 733d 30a0 28bf 0315 c93a b797 9f3c
00000060: feed 3d3f fc2a 56bc c03e 81bc a06f 043d
00000070: 5b4c 56bb c98f 473d b11e 8fbd 537e 3abd
00000080: de7a ec3c d971 91bd 2b74 9bbe 08b3 a43e
00000090: 7259 e23c 4cae 18bd dd1e 5c3d e565 41bd
000000a0: 6d3a 3ebd 28c9 083d 7a03 93bc 68eb 1f3c
000000b0: f519 293c 5f4d 31bb f14b 7d3c ec83 e33c
000000c0: 089b b3be 7527 563d c4be 253d c13a 4dbd
000000d0: 0a14 79bd 10f0 12bd dfee 503f 857e 5d3d
000000e0: 3cb9 52bd 0e2b 2a3c 64a4 853b 4e96 ccbc
000000f0: 8f85 9cbb 8ef4 193d 8f3f 423d 244d a0bb
00000100: c1d8 33be f1a9 95bd fc9f d53c 1176 d33c
00000110: 78b7 45bf 5849 10be e7b4 ffbd ca06 2f3f
00000120: bc97 3c3d 41fd 39bc 7667 40bd c001 aebb
00000130: 5d4a e4bc 7d0b 0b3d e106 31bd 5a64 77bd
00000140: 8a28 503d a1f0 0c3d abf9 243c 07f4 653c
00000150: cebf 913c 1aa9 96bf 03e5 bf3b 8e53 473d
00000160: 62c9 bd3c e1cb d5bc 7bba 233d c7cb bfbc
00000170: 594e 403f d882 bdbb d47e 05bd 5555 be3f
00000180: cab8 6bbc 41bb eb3b 5667 103c 220e 8ebf
00000190: 7938 25bd ee69 373d 8573 a5bd b282 a7be
000001a0: b8a0 b7be a107 eabc b46f 6a3d 3a0e 83bb
000001b0: 354a 0a3d 5764 22bd 3bc9 61bd 3320 2fbd
000001c0: 3f86 46bc 92d6 71bc 891b 203c 85d4 ddbe
000001d0: 1e00 1a3c 1d4e 5fbc 37b6 6d3b cb40 423b
000001e0: 3e62 35bd e1a5 f93e 95eb 1cbd 984b d23c
000001f0: aca0 0d3d fbc5 793e f805 773d ee18 1a3d
00000200: d079 433d 95cc b9bc d2d2 8abc fe08 a83d
00000210: 3062 57bd 227b 4ebd c632 eabb fe75 6bbc
00000220: a747 a9bb 79b4 933e bcfc 58bc de47 22be
00000230: a61d 173d f4c0 c1bb 3d58 e53b 6c0e b53c
00000240: 48c0 653d 72d8 4c3d 88cf 103b a864 b93c
00000250: 5b99 133d df6b c03e 8573 733c 8e06 803c
00000260: d904 a3bd 0ae3 ec3c e6da d13c 7b3c f2bc
00000270: 5c5e dbbc 583e 973e a1fa 87bd b695 44bd
00000280: 5bf2 8a3b 39f6 973c 9620 a73c b811 e8bc
00000290: c2a0 93bf 8fcc 153d 80ed 5d3a 60a1 14bc
000002a0: 314a c23c e1f9 fc3c a2ce 913c 4898 573d
000002b0: 57b7 243d d1d8 0abc 4a85 943d 8023 7dbf
000002c0: 7195 43bb d6fa a93d 99e1 9cbc 614c 4ebe
000002d0: 56c7 fb3b 393a 52bd 2429 fabc d8a0 b63c
000002e0: 0202 93bc 31d1 14bd 60f2 3dbb 7571 e23b
000002f0: b2f6 4a3d fd6e 233f 768d 25bc 9480 51bc
00000300: e566 8fbf 0c59 16bc 7352 ea3c c4ef 8c3c
00000310: 5f8c 1cbc c236 373d 2a93 533b 5bec 873c
00000320: 73a3 0f3d 07e2 2dbd 283a 393d ebde 18bc
00000330: 01ae 20bd abbc 9abc f444 b03c 810e d13c
00000340: eb0a d9bc 953c 1b3e b57c 79bd aa28 1abc
00000350: 7a82 843f 175e d7bb 7b63 1ebd 93da 3fbd
00000360: bcc9 86bd 5e3c dd3d 1c1e 4dbc a426 01bd
00000370: f803 79bc 2ecd 383d 77de 0abc c76d 83bd
00000380: af0c 38bf 61fe f8bc 5807 343f 726a 073d
00000390: 3e0b e8bc 044a 1ebf 8698 23bd 5bae b53c
000003a0: dbb3 f63c 2084 0d3d edf9 bbbc 8748 763c
000003b0: 64a6 5abc e13b 8dbe 1de7 3b3d 897a 493d
000003c0: c476 1bbd 553a 293d 53db ed3d 63ce 20bd
000003d0: e1e1 01be 2156 01bd bbc5 5c3f 02ad 563f
000003e0: 440f edbc 3d0a 203c cc26 b03c cae4 f5bc
000003f0: 11f5 383d 2b62 2ebf 9b7b 513d 8cf3 5d3d
-0.04291658 -0.021072222 0.019442894 0.051618733 0.048585672 0.016452635 -0.010434099 0.031621628
-0.0072934986 -0.03600016 -0.019205987 0.0056250268 -0.014042784 0.1965607 -1.3230171 -0.012364159
-0.043510262 1.0359396 -0.04023161 -0.028999288 0.05948544 -0.65869427 0.0015341345 0.019481523
0.7419127 -0.013071772 -0.015776992 0.032333016 -0.003269932 0.04872111 -0.06988276 -0.04553063
0.028867181 -0.07101793 -0.30362067 0.3216784 0.027630541 -0.037275597 0.05374037 -0.047216315
-0.046442438 0.033394963 -0.017945994 0.009760715 0.01032113 -0.0027054173 0.01546 0.027772866
-0.35079217 0.052283723 0.04046513 -0.05010486 -0.060810126 -0.035873473 0.8161449 0.054075737
-0.051446185 0.010386242 0.004078435 -0.024974015 -0.0047766636 0.03758674 0.047423895 -0.0048920084
-0.17563154 -0.073078044 0.026077263 0.025813134 -0.77233076 -0.14090478 -0.12485676 0.68369734
0.046043143 -0.011351884 -0.046973668 -0.005310267 -0.02786749 0.033946503 -0.04321945 -0.060398437
0.05081991 0.03440917 0.010069291 0.014035231 0.017791655 -1.1770356 0.0058561577 0.04866367
0.023167316 -0.026098194 0.039972764 -0.023412598 0.7511955 -0.00578342 -0.032591656 1.4869791
-0.014387319 0.0071939533 0.0088137 -1.1098063 -0.04033706 0.044778757 -0.08078674 -0.327169
-0.35864806 -0.02856809 0.057235435 -0.0039994987 0.033762176 -0.039646473 -0.05512355 -0.042755317
-0.012116968 -0.01476063 0.00977219 -0.43326202 0.009399442 -0.0136294635 0.0036271939 0.002964067
-0.044283144 0.48759368 -0.038310606 0.025670812 0.034577057 0.2439193 0.060308427 0.03762143
0.04772359 -0.02268056 -0.01694623 0.0820484 -0.052583873 -0.050410397 -0.007147166 -0.014371393
-0.0051660123 0.28848627 -0.01324385 -0.15847728 0.03689351 -0.0059128944 0.006999044 0.022101603
0.056091577 0.050011106 0.0022096355 0.022631004 0.036034923 0.375823 0.014859085 0.015628126
-0.07959909 0.028916854 0.025617074 -0.029569855 -0.026778392 0.29539752 -0.066396005 -0.047994338
0.004240317 0.018550025 0.02040128 -0.028328761 -1.1533434 0.036572035 0.0008465871 -0.009071678
0.023717018 0.03088087 0.017798726 0.05263546 0.04021391 -0.008474545 0.07251985 -0.98882294
-0.0029843713 0.08299796 -0.019150542 -0.20146324 0.007683675 -0.051325057 -0.030537196 0.022293493
-0.017945293 -0.036332313 -0.0028983578 0.006910498 0.049551673 0.6384123 -0.010104528 -0.012787003
-1.1203276 -0.009176504 0.028603768 0.017204173 -0.009554951 0.044729955 0.0032283762 0.016592195
0.035067987 -0.042451885 0.045221478 -0.009330492 -0.039228443 -0.018888792 0.021517254 0.025519611
-0.026494464 0.15159829 -0.060909946 -0.009409109 1.0352318 -0.0065724957 -0.03866909 -0.046839308
-0.065814465 0.1080253 -0.012519386 -0.03153099 -0.0151987 0.04511755 -0.008475891 -0.06417423
-0.71894354 -0.030394735 0.70323706 0.0330605 -0.028325673 -0.6183169 -0.03994038 0.022177866
0.030115059 0.034549832 -0.022946322 0.01503194 -0.013345335 -0.27584746 0.045874704 0.049189124
-0.03795506 0.041315395 0.116140984 -0.039259326 -0.12683822 -0.03157628 0.8623921 0.8385774
-0.028937943 0.009768066 0.021502875 -0.030016322 0.04515559 -0.6811854 0.05114327 0.054187343

net.4.bias f4 [4]
00000000: 1bc0 c1bc 127e e73d 88b7 16bf 7f1e 82be
-0.023651173 0.11303343 -0.58873796 -0.25413892
