logs/PointMaze-Right/airl_sac/seed0-20231226-1522/model/step1355000/actor.pth (torch, 276359 bytes, 6 tensors)

net.0.weight f4 [256, 6]
000000 41 4f 48 bb 1c 42 60 3e 15 09 ac be 0a d4 99 be
       -0.0030564817 0.21900219 -0.3360068 -0.30044585
000010 29 03 21 be 51 34 e0 3d eb ee 16 bf 13 5d 9b 3e
       -0.15723862 0.109474786 -0.5895831 0.30344447
000020 7f 65 14 bd 09 7b d4 bd b8 6c a0 be cb 58 a4 bd
       -0.036229607 -0.103750296 -0.31332946 -0.080247484
000030 b0 b8 c2 bf a6 c3 15 bf 0d 54 2c be e1 c9 e6 3e
       -1.5212612 -0.5850166 -0.16828938 0.45075896
000040 c0 a7 4a 3e 58 d6 7a 3e 1a b7 bb bf 06 07 e7 bc
       0.19790554 0.24495828 -1.4665253 -0.028201591
000050 70 d7 17 3e ac 65 9a 3f 89 c6 4f 3d 1b 6a 9c 3e
       0.14828277 1.2062278 0.050726447 0.30549702
000060 65 80 07 c0 b9 c7 97 3d f6 43 bd 3e c1 82 90 bf
       -2.1172116 0.07411141 0.36965913 -1.1289903
000070 81 b5 c3 be 69 ab d3 bd 54 f4 22 be 9d 98 b4 3e
       -0.38224414 -0.10335428 -0.15913516 0.35272685
000080 0b 7c 87 be c0 70 40 be 32 08 92 be 4e c3 c3 be
       -0.26461825 -0.1879301 -0.28521878 -0.38234943
000090 a7 9f 18 bf 8f e1 59 3e 38 8a 3a 3e 1c 18 39 3d
       -0.5961861 0.2127745 0.18216789 0.045189008
0000a0 97 d3 50 be 4f 53 56 be 20 35 d7 be 2f 7e 73 bf
       -0.20393215 -0.20930217 -0.4203272 -0.95114416
0000b0 77 08 97 be bc 0b 1c bf 05 31 82 3e 02 1c 75 3e
       -0.29498646 -0.60955405 0.25428024 0.23936465
0000c0 dc fd 42 bf 90 7c a5 3e d8 ae 85 3e 27 17 9b 3f
       -0.7616861 0.32321596 0.26109958 1.211644
0000d0 de 92 b1 bd 77 e6 61 3d 37 52 57 3e 4d 5e 10 bf
       -0.08670591 0.05515143 0.21027456 -0.5639389
0000e0 04 cd 9b 3d e9 c2 52 c0 b2 2e a2 be b1 f4 57 be
       0.07607463 -3.2931464 -0.3167625 -0.21089436
0000f0 5e f6 99 3f 87 03 1d bf 79 a1 77 be cc 65 ee bd
       1.202831 -0.6133351 -0.2418269 -0.1164051
000100 1c f4 23 3e 0d 0f 53 bd ed 62 7f 3c 01 ba c1 3d
       0.16011089 -0.051528025 0.015587551 0.094593056
000110 4d ac 81 3e e9 b3 c8 3e 02 14 a1 be 89 33 19 be
       0.25326768 0.3919976 -0.31460577 -0.14961065
000120 16 d2 b4 be 91 3d fc 3e ba e4 b5 3e ad 69 69 3e
       -0.35316533 0.4926572 0.35526067 0.22794218
000130 d5 50 89 bd 4d c3 b5 be 06 e0 f3 be 59 a3 9a bf
       -0.067048706 -0.35500565 -0.47631854 -1.20811
000140 cb cc c2 be 45 d6 17 3f 38 b6 b1 3c a5 81 d0 be
       -0.3804687 0.59311324 0.021693334 -0.4072391
000150 40 7e 9c 3d 21 d9 8c bd 9e 96 89 bd 12 5d 3f be
       0.07641268 -0.068773516 -0.06718181 -0.18687847
000160 24 c3 20 3e 3b 9c 77 be 2c 4f f4 3e b0 15 e3 3e
       0.1569944 -0.24180691 0.47716653 0.44352484
000170 3b a2 95 3e 33 a7 4b 3f b3 3c 3c bf b8 97 87 be
       0.29225335 0.79552 -0.7353012 -0.2648294
000180 c0 6e 89 be 53 d7 ec be 3c 0e a3 be 7f ee 7c bf
       -0.26842308 -0.4625803 -0.31846797 -0.98801416
000190 35 d9 50 3e f1 d7 8c 3e 58 47 36 be 88 6e d2 bd
       0.20395358 0.275085 -0.17800653 -0.102749884
0001a0 73 1d c7 be dd 72 f0 bb 20 68 9d be 3d 3b a1 be
       -0.38889655 -0.0073379115 -0.30743504 -0.31490508
0001b0 03 46 b8 bc 00 12 7b 3d de 33 2b be 2d 0f 78 3e
       -0.022494322 0.061296463 -0.16719005 0.24224539
0001c0 c3 65 7e be 4d a9 bd 3e 70 fb 5b 3f df 85 d2 bf
       -0.24843507 0.3704323 0.8593054 -1.6447104
0001d0 1f 17 d0 bd b0 f5 00 bf 67 0a 79 bd b5 4c c6 3d
       -0.1016066 -0.5037489 -0.060800936 0.096825995
0001e0 9d 0d 24 3e 0d 54 c8 3c 0f fa 4b be 9d d0 45 3e
       0.16020818 0.024454141 -0.19919609 0.19317861
0001f0 55 81 c8 be 60 c7 77 be 86 4c d1 bd cc a2 4b be
       -0.39161173 -0.2419715 -0.10219674 -0.19886321
000200 1d 3f 12 be e4 51 ab be 7c d9 b1 bd 5d b8 b2 3d
       -0.14281888 -0.33460915 -0.0868406 0.08726571
000210 e2 2b 88 be 85 a1 ab bc 1f a1 95 3e ab e6 2b bd
       -0.2659598 -0.020951042 0.29224488 -0.04196803
000220 19 e5 39 3c f0 41 10 bd 29 06 5e bf 22 76 db 3e
       0.011346125 -0.035219133 -0.8672815 0.42863566
000230 12 ff c5 3e a8 c7 6e 3e 36 b9 63 3e d1 de f1 bc
       0.38671166 0.2331835 0.22238621 -0.029525192
000240 cf 7e a1 bf 15 19 66 bf 2f 53 8e 3e 75 06 ed be
       -1.2616824 -0.8988202 0.2779784 -0.4629399
000250 66 c0 1d 3e 48 2d a0 be 16 19 36 bf 3f a9 98 bf
       0.15405425 -0.31284547 -0.7113203 -1.192665
000260 1d 97 a9 bd 2b 73 da 3e da 41 b9 3e ad 96 c9 be
       -0.08280776 0.4266599 0.36183053 -0.3937277
000270 87 62 82 3e 05 90 a3 be 31 c2 b0 bd 9e 81 29 be
       0.25465795 -0.31945816 -0.08630789 -0.16553351
000280 50 0b a1 bd 22 29 a4 bd 20 91 bb be 7e 7a b4 be
       -0.07863486 -0.08015658 -0.3663416 -0.35249704
000290 d2 d4 82 bd 00 00 ad 3b 6e e8 3d be 4a 7a 1d 3e
       -0.063882485 0.005279541 -0.18545696 0.15378681
0002a0 6f 4d f4 bf 5e 92 09 be aa d1 b7 3e 68 73 e0 3c
       -1.9086131 -0.13434741 0.35902148 0.02739878
0002b0 37 de c0 3e a4 65 17 3e 6c 55 b1 bf 2f b0 a2 3e
       0.37669536 0.14784867 -1.3854194 0.31775042
0002c0 fe f5 40 bd 97 fb 1d bf a6 11 53 3e 1d e9 a8 be
       -0.047109596 -0.6171202 0.20612201 -0.3299035
0002d0 44 a4 58 bf 9b ec 02 bf 1d 44 95 3e 62 9d 59 3f
       -0.8462565 -0.5114228 0.2915353 0.8500577
0002e0 7f b9 2e 3e 04 a3 13 3e 21 0f c9 bd b7 d5 af bd
       0.17062949 0.14417654 -0.09817339 -0.08585685
0002f0 88 40 ac be 13 84 62 3e b5 f5 a5 3e d1 04 8f 3e
       -0.33642983 0.22120695 0.32414022 0.27933362
000300 bd 70 93 be 96 28 95 3c f8 58 93 be bb 20 66 be
       -0.2879695 0.01820783 -0.28778815 -0.22473423
000310 0d 99 73 be 80 dd 0e 3e e9 bc 8f bf a0 57 16 3f
       -0.23788853 0.13951683 -1.1229526 0.58727455
000320 fe b0 8c 3c b2 10 87 3f e8 36 08 bf 37 7f 8f be
       0.01717424 1.055197 -0.5320878 -0.28026745
000330 b7 a6 66 be 38 c2 8a 3e e3 45 16 be 6b 00 a9 3e
       -0.22524534 0.27101302 -0.14675097 0.3300813
000340 7f 8a 08 3e fc bd 53 3d 21 2a 47 bb b2 47 a5 bd
       0.13334082 0.051694855 -0.00303901 -0.080703154
000350 8e cd 51 3d d3 ea be bd f1 fd 3b bb f3 5b 55 3d
       0.051221423 -0.09322133 -0.0028685296 0.052089643
000360 5e 9f b4 bf c8 f0 8f bf e0 c8 a8 3e 97 fc f9 bc
       -1.4111135 -1.1245356 0.32965755 -0.030515952
000370 06 4b fe 3d 16 c6 ce 3e 88 03 17 3e ea 60 3d 3c
       0.12416653 0.40385503 0.14747441 0.011558751
000380 3b 24 b5 be 44 17 4f 3e 16 e2 94 be 38 56 ed bd
       -0.35379204 0.20223719 -0.2907874 -0.115887105
000390 e0 22 07 be 9f 15 60 bd a4 53 92 3b af 08 a9 3e
       -0.13196898 -0.05470812 0.004465537 0.33014438
0003a0 42 ca 35 3d 74 38 bb 3e 5f b9 7f 3e b8 25 84 be
       0.04438234 0.36566508 0.24973057 -0.25810027
0003b0 d6 7e 3b 3e f4 c1 93 be b3 2d 31 be ee e9 f5 3d
       0.18310103 -0.28858912 -0.17302589 0.12007509
0003c0 5e 21 29 be 10 d4 65 3e 63 93 06 be 6e f9 65 be
       -0.16516635 0.22444177 -0.13142161 -0.22458431
0003d0 14 da 86 bd 07 25 ca be a3 1e 97 3e 8e d8 ac be
       -0.06584564 -0.39481375 0.2951556 -0.33758968
0003e0 09 60 b8 3b 56 26 8e bd 75 2c 5c be b2 03 5d 3d
       0.0056266827 -0.06940906 -0.21501334 0.053958602
0003f0 37 15 ab 3e ad fb ec bd 0d 31 78 be 18 9c 1a be
       0.33414623 -0.11571441 -0.24237461 -0.15098608

net.0.bias f4 [256]
000000 c9 00 0b be 2f 69 71 bd 34 4e 5e 3e ec 36 f6 3d
       -0.13574518 -0.0589382 0.2170952 0.12022194
000010 c7 0b 87 3e f9 ab 90 be a6 0e 8d bd e5 91 ba 3e
       0.26376173 -0.28256205 -0.068875596 0.36439434
000020 02 b1 a3 be 37 a3 94 3e 54 9b 6a bd a1 86 9c be
       -0.31970984 0.29030773 -0.05727704 -0.30571464
000030 dd 99 be be be 0c 0c be b9 e8 34 be 81 a4 6e be
       -0.37226763 -0.13676736 -0.17666902 -0.23304941
000040 0a 09 63 3e 8c 00 0e 3e db 7f 1c bd 0e 10 96 bc
       0.22171417 0.13867396 -0.03820787 -0.018318202
000050 d0 da 70 be e1 a1 af be 63 1f 9d be 42 fd 01 bf
       -0.2352097 -0.3430319 -0.3068801 -0.50777066
000060 e7 ad e1 3e 0f ed 61 3e 02 a8 31 be c3 74 cc be
       0.4407799 0.22063087 -0.17349246 -0.39932832
000070 e8 b4 6a 3e cb 51 b4 be be e3 bf bd 1a 43 af be
       0.22920573 -0.35218653 -0.0936961 -0.34230882
000080 1f d8 6b be 8c c6 59 bd f7 25 ca be f6 62 6e be
       -0.23031662 -0.053167865 -0.3948209 -0.23279938
000090 df 49 eb 3e fe 64 56 be 7c b7 34 be ba c0 ea bd
       0.45954797 -0.20936963 -0.17648119 -0.11462541
0000a0 17 ea cf bd e2 1c 89 be 2e 43 19 3d 68 e9 bc ba
       -0.10152071 -0.26779848 0.037417583 -0.0014412822
0000b0 dc 3f ba 3d c7 33 9c 3e ea 73 9f be 74 d6 83 3c
       0.090942115 0.30508253 -0.31143123 0.01609347
0000c0 f7 57 e3 3c 27 9c 08 3e c4 d5 ac be ba ed 0c 3d
       0.027751906 0.13340817 -0.3375684 0.0344064
0000d0 9d 43 6c 3b 3d 3d 92 bd a5 11 18 be b3 37 b8 3d
       0.0036051043 -0.071405865 -0.14850481 0.08994999
0000e0 53 f7 1b bf 6d 90 b6 be 40 9e 18 3d 65 70 8d be
       -0.6092426 -0.35657063 0.037260294 -0.27624813
0000f0 f9 67 a6 be e5 ec 24 bd 40 02 ac 3e a7 5a b3 be
       -0.325012 -0.040264983 0.33595467 -0.350301
000100 9e dc b7 be 5b 9a 1e 3f b4 33 39 be 04 61 82 be
       -0.35910505 0.6195428 -0.1808613 -0.25464642
000110 03 3f 47 be d7 da 30 bd a9 c6 3d be ec b6 6d 3c
       -0.19457631 -0.043177452 -0.18532814 0.014508944
000120 22 56 83 be ac bd 90 3e a6 cd 8f be fe b9 69 be
       -0.25651652 0.28269708 -0.28086585 -0.22824857
000130 f8 4f 1f be 5b ca de bd 97 06 a9 be ec 37 43 3e
       -0.1555785 -0.1087844 -0.3301284 0.19064301
000140 53 96 a0 3e e2 fd 81 be 84 5e a2 be de 47 01 bf
       0.31364688 -0.2538901 -0.31712735 -0.50500286
000150 f2 2a 66 bd 88 a3 b4 be 4f d7 93 be 2e df d1 3e
       -0.0561933 -0.35281014 -0.28875205 0.40990585
000160 82 75 bd 3d 5f 64 64 3e e8 a5 a2 3e ab 37 6f 3c
       0.092509285 0.22303914 0.317672 0.014600675
000170 64 17 0c bd 40 cd 60 3e 5a 01 8f be 69 85 06 be
       -0.034201995 0.21953297 -0.2793072 -0.1313683
000180 a2 6c d4 3e a8 61 f0 bd 2f 02 88 be 61 7a 16 bf
       0.4148913 -0.117373765 -0.26564166 -0.58780485
000190 7c f4 50 3e 24 ce dc 3e a3 92 f2 3d 3f 88 20 be
       0.20405763 0.43126023 0.11844375 -0.15676974
0001a0 e4 2b c3 3e 3d e9 bf be ea 97 96 be e0 20 c9 be
       0.38119423 -0.37482634 -0.29412776 -0.39282894
0001b0 f6 1d c3 3e fd e2 54 bc dd 7e 40 be 02 7d 63 3d
       0.38108796 -0.012993571 -0.18798395 0.05553914
0001c0 ec 13 2f be 47 0e 86 be 85 6a 77 bd a7 f3 ec 3b
       -0.17097443 -0.26182768 -0.06040432 0.007231194
0001d0 71 af 95 be f3 ac 89 be 0e 94 97 3d 07 ab 90 bc
       -0.29235414 -0.26889762 0.07401286 -0.017659677
0001e0 ae 9a a2 3e 76 fa 51 be ef bd 77 3c f7 64 6b 3e
       0.31758636 -0.205057 0.015120967 0.22987734
0001f0 d5 fe b6 be d6 74 87 be ad ab 9c bd 99 aa ef 3c
       -0.35741296 -0.26456326 -0.07649932 0.029256152
000200 9a 4d 06 be 0b bc 36 3e 61 73 81 be 22 55 f8 3e
       -0.1311554 0.1784517 -0.2528334 0.4850245
000210 b2 c8 e7 bc 4c e1 3b 3e 72 a5 d9 bd 9c fb a6 3e
       -0.028293941 0.18347663 -0.10627259 0.32613838
000220 df 6d db be f9 e9 cf 3d 74 8d 4c 3d cc b7 bc bd
       -0.42857262 0.101520486 0.049939588 -0.09214744
000230 0a c3 58 3e 8b d6 8d be 16 ac ba be 3e 0a 7c be
       0.21168151 -0.27702746 -0.36459416 -0.24613282
000240 bf fd c1 be b0 8e c0 3e be c6 92 be f2 df 02 bf
       -0.37888905 0.37608862 -0.28667253 -0.51122963
000250 8c ca 9a be 70 d7 8c be 6b 0c 05 bf 8c 11 8f 3e
       -0.30232656 -0.27508116 -0.51972073 0.27943075
000260 04 ef 9c be e3 99 33 3e de fc 9b 3e 79 cd a3 be
       -0.30651104 0.17539172 0.3046636 -0.319927
000270 86 63 9b 3e 16 2c 6a be af 9e e0 3e b3 b8 d1 3d
       0.30349368 -0.2286838 0.43871066 0.10240307
000280 af af c6 3d cd 04 d4 3d 06 40 01 bf ac 66 09 be
       0.09701478 0.10352478 -0.50488317 -0.13418072
000290 9c 97 bf 3d 1f ae b5 be 21 51 8b 3e d0 52 1f be
       0.09355089 -0.35484406 0.27210334 -0.15558934
0002a0 35 33 17 be 8a d7 a5 be 48 02 13 3c 9c 59 d9 be
       -0.14765628 -0.32391006 0.008972712 -0.4245118
0002b0 6e 6c b1 bd e9 08 15 be 42 69 83 3c ef 6c 80 bc
       -0.086632594 -0.1455418 0.016041402 -0.015676944
0002c0 c4 b7 71 be c6 e4 31 be 34 fe 00 bd 0d d4 36 be
       -0.23605257 -0.17372426 -0.031492427 -0.17854328
0002d0 d7 04 ad 3e f1 c8 e7 bd 5f 45 3c 3b c2 6e a8 be
       0.33792755 -0.113176234 0.0028727872 -0.32897002
0002e0 7f 78 69 3e b7 12 40 be 20 cf df bd 7a 23 20 3b
       0.22799872 -0.18757139 -0.10928178 0.0024435208
0002f0 f1 35 1e be f5 12 1d 3e 10 85 60 ba c5 c6 79 be
       -0.15450265 0.15339263 -0.000856475 -0.24392231
000300 bc 16 b0 3d 27 fe a7 be 09 88 8f 3e 03 2d 0a 3a
       0.08598086 -0.3281109 0.28033474 0.00052709895
000310 dd c3 88 3e 3d 4c f4 3e 6b a5 b9 3d b6 98 ad bc
       0.26711932 0.47714415 0.09064754 -0.021190982
000320 43 12 67 be be ae 2e be de 04 86 3e f8 b4 82 3d
       -0.2256556 -0.17058846 0.26175588 0.06382173
000330 f2 ca 0e bf a8 46 75 bd c0 82 c6 bb 22 aa 94 bc
       -0.5577842 -0.059881836 -0.006058067 -0.018147532
000340 67 22 ad be 26 8a 5e be 7c 64 12 3d 64 4b c9 be
       -0.3381531 -0.21732387 0.03574036 -0.3931533
000350 4c 6f c2 be 82 7c bb be 6d 83 80 be c6 3e ca bd
       -0.37975538 -0.3661843 -0.2510027 -0.09875254
000360 0a fe 7b 3e 11 ad ce be cf 83 74 bd be 0c a9 be
       0.24608627 -0.40366414 -0.059696015 -0.33017534
000370 3f a4 5f be 53 06 93 bd c2 98 a4 be a2 b4 c5 ba
       -0.21839999 -0.071789406 -0.32147795 -0.001508374
000380 37 53 4f be e0 43 81 be d6 e8 6b be 5f 56 d7 be
       -0.20246588 -0.25247097 -0.23038039 -0.42058083
000390 3f 08 86 3d e9 3b 4d be 6c fd e0 bc bb e2 74 3e
       0.065445416 -0.20042385 -0.027464591 0.23914616
0003a0 41 c6 df bd fb c8 54 be 0b ff 7a be c3 11 df be
       -0.10926486 -0.20779793 -0.24511354 -0.4356824
0003b0 f6 82 d1 bd fd 53 94 bd dc d5 3d 3e ac 29 fd 3e
       -0.10230057 -0.07242582 0.18538612 0.49445856
0003c0 d2 5f 65 be aa 01 28 be 5e 19 ab 3e 00 b2 d2 3d
       -0.22399834 -0.16406885 0.3341779 0.10287857
0003d0 09 c2 86 3e d6 3d fe bd ed d7 aa 3d f1 a2 fd be
       0.26319912 -0.12414138 0.08341966 -0.49538377
0003e0 e4 0b ff bd 1d a9 a2 be 6c c3 db bd 6b b3 ae be
       -0.1245344 -0.31769648 -0.10730633 -0.3412126
0003f0 66 f1 c8 be f3 79 a0 3e 5b 73 18 be c2 9d eb 3d
       -0.39246672 0.3134304 -0.14887755 0.11504699

net.2.weight f4 [256, 256]
000000 04 b5 4b 3d 38 56 88 3c 45 a8 62 be ea 04 f6 3d
       0.049733177 0.016642675 -0.22134502 0.12012656
000010 a6 b9 8b 3e 4c 34 f6 3c 7a da 57 3d e8 1b 89 3e
       0.27290076 0.030054234 0.05269859 0.26779103
000020 1f 75 b7 3e 7b 8e 30 bf f2 7e 60 3f c0 b5 6d 3c
       0.35831544 -0.6896741 0.87693703 0.014508665
000030 81 07 88 bd 41 a0 33 bf fa 86 18 bd 82 ac 03 bf
       -0.06642056 -0.70166403 -0.0372381 -0.514351
000040 54 90 11 3f 4c 10 4a 3d ac 47 34 bd 92 c8 be be
       0.5686085 0.04933195 -0.044013664 -0.37262398
000050 4a 64 00 3d d4 02 35 3d a0 48 80 3c a4 1f 92 3c
       0.031345643 0.04419215 0.01565963 0.017837353
000060 b9 dc 31 be ec d2 45 bf cc 16 ae 3c d4 2c 48 bd
       -0.17369355 -0.77274966 0.021251105 -0.048870876
000070 a7 94 1e 3e 47 91 93 3a 8d e5 56 be e4 e3 b4 bc
       0.15486394 0.0011258506 -0.20986004 -0.022081323
000080 50 c8 7d bd 50 92 ee be bc 03 c4 3c 1e 6f 5c 3d
       -0.06195861 -0.46596003 0.023927562 0.053816907
000090 df 44 a1 bf 4c 72 f4 3c 66 e9 72 bd 32 d0 74 bd
       -1.2599143 0.029839657 -0.059304617 -0.059768863
0000a0 90 51 20 bd d8 40 07 bc 9c ff 8e 3c 3e 65 64 3c
       -0.039140284 -0.008255206 0.017455868 0.013940154
0000b0 c5 72 2b bf d5 f5 35 bf 00 03 7c 3b 2f 0f b9 3d
       -0.66972 -0.71078235 0.0038453937 0.09036099
0000c0 25 73 14 be 4a 85 13 3e 60 24 04 bc aa 41 06 bd
       -0.14497049 0.14406314 -0.008065313 -0.032777466
0000d0 5a 88 3e 3d 22 fd 4c bd 20 aa aa 3e a7 c9 79 b8
       0.046516754 -0.050046094 0.3333292 -5.955403e-05
0000e0 a0 b1 f4 be c5 08 26 bf 22 7c 5a bc 9c dd 26 be
       -0.47791767 -0.6485713 -0.01333526 -0.16295475
0000f0 a0 bf fc 3c 00 e6 62 bb c6 25 6c 3e 10 b4 dd 3e
       0.030853093 -0.0034621954 0.23061284 0.4330144
000100 a7 19 3a 3d 1e 2c 96 be a7 9d bd be a3 0e e2 3d
       0.04543462 -0.29330534 -0.37034342 0.11037948
000110 89 eb 16 bd a6 74 71 3d 46 65 ee 3d 6e 8c 74 3d
       -0.036845718 0.058949135 0.1164041 0.059704237
000120 78 2a ef bc 3e ce 46 bf 73 ac 23 3f c8 78 a1 be
       -0.029195055 -0.7765845 0.6393501 -0.3153746
000130 a2 6a 00 3d 9d bf 04 3f 36 fb 59 3d a9 b2 0d bd
       0.031351693 0.5185488 0.05321809 -0.03459421
000140 3a b3 98 3d 3c 0e db 3e 78 ad 8e 3c 89 50 81 be
       0.0745606 0.42784297 0.0174167 -0.25256756
000150 0a 42 80 3e 32 5e 42 bd 7c 34 96 bc 08 a9 b1 3e
       0.25050384 -0.047453113 -0.018335573 0.34699273
000160 d9 60 1d 3f 94 c3 2e 3e 2a e3 34 3f a0 8f 62 be
       0.614759 0.17066795 0.70659125 -0.22125101
000170 a5 6b 8f be 69 c9 b6 be c7 5d 6b bc 92 4c 36 c0
       -0.28011814 -0.3570054 -0.01436562 -2.8484235
000180 ec 71 fa 3d 7c 00 57 be b0 ab 19 3c 85 27 dc be
       0.1222876 -0.20996279 0.009379312 -0.429989
000190 95 5d b0 bd 8f 5d 25 be 2a 98 fd bd 96 bd eb 3e
       -0.08611599 -0.16148971 -0.123825386 0.4604308
0001a0 28 2d 82 bf e8 cc 59 bc 1c a1 c3 3c 02 d4 00 3d
       -1.017003 -0.013293482 0.023880534 0.031452186
0001b0 a3 77 8e 3f f3 99 ed be 9c 45 cf bc 38 db 91 bd
       1.113026 -0.46406516 -0.025301747 -0.07121891
0001c0 68 52 02 3c 28 c3 02 bd e0 34 b7 bb 5f f6 57 bf
       0.0079542175 -0.031924397 -0.00559102 -0.8436031
0001d0 40 df 71 bd 56 8c 2d 3d e8 3a 4d bc 3c 06 36 be
       -0.0590508 0.042370163 -0.012526251 -0.17775816
0001e0 ee 90 6c 3e 38 bf 09 bd e3 3f d4 3d a2 4d 1f be
       0.23102161 -0.033629626 0.10363748 -0.15556958
0001f0 40 9d 3d 3b e4 4d 93 3c 8d 92 ab 3d 6e b9 de 3d
       0.002893284 0.017981477 0.08377562 0.10875212
000200 e0 17 9d bc 33 cc aa bc 20 45 a0 bb 33 92 d8 be
       -0.019176424 -0.020849323 -0.004891053 -0.4229904
000210 07 65 ea bd 7b a1 91 bf 94 9b ca be 32 d2 b1 3e
       -0.11445051 -1.1377405 -0.39571822 0.3473068
000220 8d d2 9b ba 91 71 23 bf 00 2e 18 bf d0 cd 5f bd
       -0.001188831 -0.63845164 -0.5944519 -0.054639637
000230 79 1a 80 bd 9e 6f 19 3c fa f7 2b 3d 88 7a 3d 3e
       -0.06255049 0.0093649905 0.041984536 0.18503773
000240 b0 d1 d7 3c 75 2c 85 3e f7 a9 60 3e c3 11 2c be
       0.026345104 0.2601048 0.21939836 -0.1680365
000250 21 05 09 bd c0 d7 8c 3a 23 58 be be e7 56 c0 bf
       -0.033452157 0.0010745451 -0.37176618 -1.502652
000260 70 34 19 bc 33 f6 a2 bf 3b 2a 1f 3f 6d 3d 01 bf
       -0.009350881 -1.2731384 0.62173814 -0.50484353
000270 91 4e 97 3c 22 51 23 bd a9 c0 6e 3e f0 3c 4b 3f
       0.01847008 -0.039872296 0.23315682 0.7938986
000280 d4 7c 5f 3d d9 44 2e bf 45 72 02 c0 0e 1f c2 3b
       0.054562405 -0.68073803 -2.0382245 0.005924112
000290 71 ac 36 bf b4 0d 91 bc 6c d3 f6 3e 8e 26 2d 3d
       -0.71356875 -0.01770673 0.48208177 0.042273097
0002a0 d8 8f 6b 3d 60 9c 2c bb de bc 8f bf 78 52 0d 3f
       0.057510227 -0.0026338324 -1.1229513 0.5520396
0002b0 40 1b af bc 36 2b 5f bf 4f 36 16 bf ba 8a c0 3e
       -0.021375299 -0.8717531 -0.5867662 0.3760584
0002c0 c5 bb 0c 3f 00 c8 a3 be 7c c7 9f bd 70 1b 1f bf
       0.54974014 -0.31988525 -0.078017205 -0.6215124
0002d0 cf 4f b0 3d 8a b1 2c be e2 37 45 bd 58 ce bc bc
       0.08608972 -0.16864601 -0.048148997 -0.023047611
0002e0 5d 02 f9 3e 22 ba 5d 3d 98 be 07 bc 40 d8 00 bd
       0.48634616 0.05413259 -0.008285187 -0.031456232
0002f0 4d 95 ba bd 1f 51 ca bf 37 bb 68 3d 30 f3 6a 3c
       -0.09110508 -1.5806006 0.056819167 0.014340207
000300 5b ab cc 3d d8 27 18 bc a6 12 ad bf 55 7a ff 3d
       0.09993621 -0.009286843 -1.3521316 0.12474505
000310 04 ff 0e 3e a3 b8 f2 3e 6b 51 90 bf 2a 3a d3 be
       0.13964468 0.47406492 -1.1274847 -0.41255313
000320 2e 5a d5 3c e0 19 20 bc 08 f2 a4 bf 46 ed e5 3d
       0.026043978 -0.009771794 -1.2886362 0.11226897
000330 05 50 79 be 1d 9e 84 3e 0c 83 9b bc 6a e1 40 3d
       -0.24346931 0.2590188 -0.018983386 0.04708997
000340 db 1c 47 be 9f dc 14 bf 60 f6 12 be 5d ab d3 be
       -0.19444601 -0.5814914 -0.14351797 -0.41341677
000350 94 7d 1f 3d 2c 85 e6 bd 7a bb 6c bf a6 ad f4 3c
       0.03893812 -0.11255869 -0.92473567 0.029867958
000360 32 5f 5c bf 7c e8 9e c0 5a ba cd 3e b0 22 0b bd
       -0.86082757 -4.9658794 0.40181237 -0.033968627
000370 54 e3 37 bd d4 62 a4 3c 86 b0 f0 bf 84 86 43 bd
       -0.04489453 0.020066656 -1.8803871 -0.047735706
000380 50 44 cd bb 8c a9 1b bf 8a d1 37 bd cb a6 94 be
       -0.006264247 -0.60805583 -0.044877566 -0.29033503
000390 8e e9 86 bc a0 94 1d bd 81 c0 e6 bd c3 10 c1 be
       -0.01646879 -0.038471818 -0.11267186 -0.377081
0003a0 f1 b1 d0 3d 20 38 0a 3b d0 0e 55 3d a2 6a fd be
       0.1019019 0.0021090582 0.05201608 -0.49495417
0003b0 bd 08 29 3f 9b f5 fa 3d 3f 53 82 bd 59 dd 3d bd
       0.6602896 0.12253877 -0.06363534 -0.04635367
0003c0 30 5b cb bc 00 70 33 ba b9 b7 0a be fb 20 ed 3c
       -0.024823755 -0.00068449974 -0.13546647 0.02894639
0003d0 da e4 5f be 24 72 71 3e 77 98 01 3f cf 5c 00 3e
       -0.21864644 0.23578697 0.5062327 0.12535404
0003e0 98 b1 0a 3e 33 8f 91 bc 80 29 32 3d f6 1e 7b 3d
       0.13544309 -0.017768478 0.04349661 0.061308824
0003f0 68 22 f9 3c 70 09 36 bf 71 f8 6b be 7b 83 ed bd
       0.030411914 -0.7110815 -0.23043992 -0.115973435

net.2.bias f4 [256]
000000 7f 49 45 3e 89 b7 79 bd 21 90 75 bb e9 4f 11 bd
       0.19266318 -0.06096605 -0.003746994 -0.0354766
000010 ed 50 00 bd e1 e5 d8 bc fd e4 83 bd 38 24 30 bd
       -0.031327177 -0.026476802 -0.064401604 -0.04300329
000020 27 12 2a bc d5 9d 22 bd 1c 42 67 bd 74 2c c2 3b
       -0.010380304 -0.0397013 -0.05645953 0.0059257094
000030 5e e3 c9 bc d1 cc 3d 3d 5c 2b 83 3e 94 07 cb 3c
       -0.02464455 0.046337906 0.25619018 0.024783887
000040 40 0a 3f bd a1 76 9c 3e b0 3d 09 bd c2 ee 22 bd
       -0.046640635 0.30559257 -0.033506095 -0.03977848
000050 6a 79 0a be 81 59 ac 3e 96 af 03 3c 2c f0 2f bc
       -0.13522878 0.33662036 0.008037468 -0.010738414
000060 bb cc 14 bd e8 db 10 bc 0a fa 66 bd 40 a3 48 bd
       -0.03632806 -0.008841492 -0.0563908 -0.048983812
000070 7a 5d 91 bd 58 2f 54 bd df 27 bc be 4c 19 6c 3d
       -0.07097907 -0.051802963 -0.3674917 0.057641312
000080 1e 33 36 bd f0 e0 b4 bd 74 9a 8b bd 7a 5e f1 3e
       -0.044482343 -0.08831966 -0.06816569 0.47142392
000090 1a 69 a1 bc 53 6c 96 bb ea 23 ad ba 70 95 2e bd
       -0.019703437 -0.00459055 -0.0013209556 -0.042622983
0000a0 0c 6b 90 bd 6e f9 28 bd e8 c3 93 bb 5d d7 32 bc
       -0.070516676 -0.0412535 -0.004509438 -0.010915604
0000b0 3b a7 4a bd 20 a6 71 bc 9b 85 b6 bc b4 c0 1e 3c
       -0.04947589 -0.01474908 -0.022280505 0.009689499
0000c0 ff 1f 1f bb 22 ed 5b bc f7 55 89 bc 58 ea 8b bd
       -0.0024280546 -0.013423236 -0.016764624 -0.06831807
0000d0 2a 33 f6 bd 01 fc 45 bc da b6 c8 3e 70 e9 85 bd
       -0.120214775 -0.012084008 0.39202005 -0.06538665
0000e0 2c 47 4c bc 6c b9 41 bd 32 2d ae bc dd 21 87 3a
       -0.012468141 -0.047295973 -0.021261785 0.0010309775
0000f0 7b 85 bb bb 87 ca 31 bb ff 96 c2 bc d2 fc 60 bc
       -0.005722699 -0.0027128772 -0.023753641 -0.013732152
000100 cc cf e4 3d e2 75 35 3e f5 e5 eb bb fb 10 87 bd
       0.111724466 0.1772075 -0.007199044 -0.06595036
000110 28 b9 c2 3e 55 f6 ec be a1 a6 d5 be 48 a0 96 be
       0.38031888 -0.46281686 -0.4172869 -0.2941916
000120 1a f2 0f 3c a9 c5 cf bc cb 8e 88 bd a1 27 ae 3a
       0.008785749 -0.025362806 -0.066678606 0.0013286957
000130 2b ec 4d bc 6f 81 73 bd 4e 70 39 bd 86 25 4a bc
       -0.012568514 -0.05944961 -0.045273118 -0.012338048
000140 66 2d 97 be bd cd 86 bd 3c f5 ac bc a2 ec 95 bd
       -0.29526824 -0.0658221 -0.02111303 -0.07320525
000150 f1 8f 42 bd e9 ed 80 3d d7 17 63 bd 4c d0 42 3c
       -0.047500554 0.06295378 -0.055442657 0.011890482
000160 e0 f2 3e bc 92 43 3e bd f5 ca 74 bd 26 5c 81 bd
       -0.011654586 -0.04645116 -0.059763867 -0.06316404
000170 f7 6f d5 3e f5 6a 2a bd ff 9d e8 ba 5e 9a 81 3e
       0.41686985 -0.04160591 -0.0017747282 0.25313085
000180 a4 74 e5 bc 3d 5c 5f bd 89 a6 14 bd a8 05 c2 3e
       -0.02800972 -0.054531325 -0.036291633 0.3789494
000190 e3 ee 1e bd 0d 47 be bc c9 7e 16 3f 5d 18 d0 3e
       -0.03880204 -0.023227239 0.5878721 0.40643588
0001a0 0d 87 fc 3c 19 0a ba 3b fb cb b6 3b eb 34 42 bd
       0.030826116 0.0056774733 0.0055785156 -0.047413748
0001b0 98 d5 10 bb 50 32 8c bd 76 8f 0a bd 30 ac 26 bd
       -0.0022099968 -0.06845534 -0.03382822 -0.040691555
0001c0 72 a7 ae bc cd 77 f6 bc 8d 6b e7 bb 09 f7 24 3e
       -0.021320079 -0.030086422 -0.0070623816 0.16109861
0001d0 20 18 8a bd f0 64 75 bb 3e 79 64 bd ee 01 93 bc
       -0.06742883 -0.0037444197 -0.055779688 -0.017945256
0001e0 e2 84 3d bd 86 3f eb bd a2 6f ae bc 95 e7 a2 b8
       -0.046269305 -0.114867255 -0.021293465 -7.7678975e-05
0001f0 ed 63 39 bd ac 3d 41 3e 20 e3 72 bb 28 88 1f bc
       -0.045261312 0.18871182 -0.0037061647 -0.009737052
000200 66 32 1c bb bf b1 31 bb f0 5f 35 bd e1 d3 be 3e
       -0.002383375 -0.0027114002 -0.044280946 0.37271026
000210 3b 22 11 3e ea a7 ed bc 67 41 42 bd f6 27 de bc
       0.14173214 -0.029010732 -0.047425654 -0.027118664
000220 a6 e5 7f bd 3a cd c8 3e bb 50 42 bd 77 98 02 3b
       -0.06247487 0.39219075 -0.04744027 0.0019927302
000230 50 54 57 bd a4 e5 66 bc 58 0f 82 bc 8e dd 2e bd
       -0.05257064 -0.0140928365 -0.015876457 -0.04269176
000240 56 f2 3e bc fd c5 e4 bb 13 ed 2e 3c 1a 3c 3a bd
       -0.011654457 -0.00698161 0.01067664 -0.045467474
000250 8c 18 a7 bc 23 34 77 3e 59 2c 65 3e 4b e4 40 bd
       -0.020397447 0.24140982 0.22380199 -0.047092717
000260 68 ff 06 bd 96 10 87 bd b7 55 72 bd 5f 21 6b bd
       -0.032958418 -0.065949604 -0.059163775 -0.057404872
000270 e4 4a 0a bb 89 d8 72 3e 2e f3 23 bc f0 1a 75 bb
       -0.0021101767 0.23715414 -0.010006709 -0.003740009
000280 8a b4 7c bb 30 5a 43 bd 9a 5e 12 bd 52 68 f2 3a
       -0.0038559758 -0.04769343 -0.03573475 0.0018494225
000290 62 48 3f 3e 7a a0 7e bd ce 1d 50 bd e3 80 82 bb
       0.18679956 -0.06216476 -0.050809674 -0.0039826497
0002a0 5a 8c f3 bc fc 41 bb bb 43 76 5c bd e8 34 27 bd
       -0.02973001 -0.005714653 -0.05382372 -0.04082194
0002b0 e2 81 bf bb 4a 84 a8 bd e5 a1 69 3e bd 20 43 bc
       -0.0058443407 -0.08228357 0.22815664 -0.011909661
0002c0 09 4d 38 bd 2d 42 4b 3e 30 60 c8 bb 55 34 5c 3e
       -0.04499534 0.19849463 -0.006114982 0.21504338
0002d0 bd 2c 9f ba a7 c1 15 3b 08 7a 52 bd 0b 2f 66 bd
       -0.001214407 0.0022851021 -0.05138591 -0.056197207
0002e0 8b b5 05 3c 9f c0 8f bc 6e 8a 4e bd 53 eb 8f be
       0.008160959 -0.017547904 -0.050424986 -0.28109226
0002f0 ac da 16 bd 57 0d 3a 3e 52 6e 28 3c f4 1c 5c bd
       -0.036829636 0.18169151 0.010280209 -0.05373855
000300 76 f8 08 3e 6b fa c8 bc dd 56 54 bd 6f cf 7b bd
       0.1337603 -0.024533471 -0.05184065 -0.06147712
000310 3e 80 6e bc 87 b4 99 bb 3d dd 8a bd 93 f0 0b 3c
       -0.0145569425 -0.00469071 -0.06780479 0.008541244
000320 6f d7 98 bb 90 03 46 bc 77 0e 15 bd cb 5a 49 bd
       -0.0046643536 -0.01208581 -0.036390748 -0.049158853
000330 a5 d3 1d bd ed ce ee 3b c0 3e 31 bd 32 fa f3 bb
       -0.038531918 0.007287851 -0.043272734 -0.007445597
000340 e7 7a c3 bc 64 57 d0 3d f4 b8 91 3e b7 68 91 bc
       -0.023862315 0.101729184 0.2846142 -0.017750127
000350 38 1e ce 3e f6 9e 16 3e 6a a8 09 bd 7c 6e 23 be
       0.4025743 0.14709076 -0.033607878 -0.15960115
000360 0d c5 d4 bd 5a c5 90 bc 54 20 1b bd 10 ff 87 bc
       -0.10389147 -0.01767223 -0.037872627 -0.016601115
000370 8a 45 91 be 25 81 8c bc 38 54 3d bd 25 1a c6 be
       -0.28373367 -0.017151425 -0.046222895 -0.38691822
000380 16 8b 39 3e 53 0d dc bd 22 32 8f bd 4d 24 7e bd
       0.18119463 -0.10744729 -0.06991984 -0.062046338
000390 30 10 b7 3b 89 db 32 3d 9c 37 f5 bc 22 5a ff b9
       0.0055866465 0.043666396 -0.029933743 -0.00048704544
0003a0 8c c3 8f bd bd 1e 7b bc f6 ac 9f bc 5b 3b 8d bd
       -0.070197195 -0.015327153 -0.019491654 -0.06896087
0003b0 46 39 a3 bc 83 54 61 3e 0b a4 4e ba f3 65 b0 bc
       -0.019924771 0.22004895 -0.00078827207 -0.021532988
0003c0 17 1b 76 3e e4 f6 7e bd 26 c6 91 bd f3 ac b2 bc
       0.24033771 -0.062247172 -0.07117872 -0.021810984
0003d0 4e 84 a1 3e 21 58 1a bd 5b a3 93 3e 3e 4d e1 3e
       0.31546253 -0.037681703 0.28835568 0.44004244
0003e0 89 30 7a 3a 0a fe 57 bd 48 7a f1 bb 61 5d ed bb
       0.00095439755 -0.052732505 -0.0073693134 -0.0072437976
0003f0 ed ce a3 bb 9c 04 2d 3e 96 cf 6f bd 74 a0 12 bd
       -0.0049990327 0.1689629 -0.05854758 -0.03579755

net.4.weight f4 [4, 256]
000000 8f 4b 5f 3f 0e 70 06 bd b4 46 9f 3c 2a 6e 53 3d
       0.8722467 -0.032821707 0.019442894 0.051618733
000010 c5 01 47 3d ad c7 86 3c 1b e5 3c bb 38 2d 10 3c
       0.048585672 0.016452635 -0.002882308 0.0087998435
000020 db a0 02 bc e7 74 13 bd 71 9b f6 bc 26 56 08 3c
       -0.007972921 -0.03600016 -0.030103417 0.008321321
000030 35 ee 98 bc 16 d1 9a 3e 6a 62 17 c0 e6 1b 92 3e
       -0.018668273 0.30237645 -2.3653817 0.2853691
000040 d1 37 32 bd 2c 52 d7 3f e7 c9 24 bd ea 8f ed bc
       -0.043510262 1.6821952 -0.04023161 -0.028999288
000050 01 a7 73 3d 60 5f 68 bf da be 57 bb b7 97 9f 3c
       0.05948544 -0.9077053 -0.0032920153 0.019481523
000060 df e7 d0 3f 64 25 83 3b be 2a a5 3f a0 6f 04 3d
       1.6320761 0.00400226 1.2903669 0.032333016
000070 5b 4c 56 bb 0d 49 7d 3d 13 3a b0 bd e7 9c 55 bf
       -0.003269932 0.061837245 -0.08604827 -0.8344254
000080 de 7a ec 3c 66 47 6d 3f 64 55 c8 be 08 f6 0d 3e
       0.028867181 0.9268707 -0.39127648 0.13863385
000090 9b bc a6 3c 66 d9 09 bc ae 12 1a 3d 08 73 20 bd
       0.020353606 -0.008413648 0.03761547 -0.039172202
0000a0 0f 54 2a bd 28 c9 08 3d c2 85 90 bc d8 87 83 3a
       -0.04158407 0.033394963 -0.017641906 0.0010034991
0000b0 f5 19 29 3c de d1 22 bb f1 4b 7d 3c c6 4d 00 3d
       0.01032113 -0.002484433 0.01546 0.03132417
0000c0 86 54 c0 be 87 09 57 3d 5d df 22 3d 17 03 5a bd
       -0.37564486 0.05249932 0.039763797 -0.053225603
0000d0 94 a1 63 3c 10 f0 12 bd 77 98 88 3f 85 7e 5d 3d
       0.013893504 -0.035873473 1.0671529 0.054075737
0000e0 3c b9 52 bd d7 c6 17 bb 64 a4 85 3b 3f 1e f1 bc
       -0.051446185 -0.002315929 0.004078435 -0.029433368
0000f0 73 55 1f 3b 9c 0a 1f 3d f8 a2 10 3d 24 4d a0 bb
       0.0024312406 0.038828477 0.03531167 -0.0048920084
000100 ea 33 f1 3d 63 e7 00 3f 04 e1 9d 3c 11 76 d3 3c
       0.1177748 0.5035307 0.019272335 0.025813134
000110 0b 9a 62 bf 2a 00 f9 bd 6c 55 a6 3d 99 45 31 3f
       -0.885163 -0.121582344 0.08121762 0.6924682
000120 bc 97 3c 3d 26 01 3d bc 76 67 40 bd c0 01 ae bb
       0.046043143 -0.011535918 -0.046973668 -0.005310267
000130 f0 27 07 bd 7d 0b 0b 3d e1 06 31 bd df 85 8a bd
       -0.03299707 0.033946503 -0.04321945 -0.06763815
000140 17 62 c6 3b a1 f0 0c 3d e7 f9 b4 3b de 0c 71 3c
       0.0060541737 0.03440917 0.0055229547 0.01471254
000150 9a 22 8d 3c 64 46 33 bf 03 e5 bf 3b 7f 43 47 3d
       0.017228413 -0.7002928 0.0058561577 0.048648354
000160 62 c9 bd 3c e1 cb d5 bc 7b ba 23 3d 4c b0 a6 3c
       0.023167316 -0.026098194 0.039972764 0.020347737
000170 af 20 f4 3f e7 07 c9 bb 25 bf df bc 58 7b c0 3f
       1.9072474 -0.0061349752 -0.027312825 1.5037642
000180 7e 99 17 3a 41 bb eb 3b 56 67 10 3c 85 02 75 bf
       0.0005783065 0.0071939533 0.0088137 -0.9570697
000190 bc 05 bf bc ee 69 37 3d 02 60 9c bd 59 25 71 be
       -0.023318164 0.044778757 -0.076354995 -0.23549403
0001a0 c7 34 32 3d 58 1e cc bc 10 91 82 3d 3a 0e 83 bb
       0.043507364 -0.024916813 0.06375325 -0.0039994987
0001b0 f3 ea 11 3d 57 64 22 bd 3b c9 61 bd 15 75 dd bc
       0.035624456 -0.039646473 -0.05512355 -0.027033368
0001c0 3f 86 46 bc 6b ad 33 bc b2 8b 3f ba 4c 4a fd be
       -0.012116968 -0.010966639 -0.0007306888 -0.49470747
0001d0 9b e9 2c 3a e0 67 95 bc 37 b6 6d 3b cb 40 42 3b
       0.0006596089 -0.018238008 0.0036271939 0.002964067
0001e0 3e 62 35 bd e1 a5 f9 3e 70 85 0f bd 8b bc ab 3c
       -0.044283144 0.48759368 -0.035039365 0.020963928
0001f0 ac a0 0d 3d f2 06 93 3f f2 b8 58 3d ee 18 1a 3d
       0.034577057 1.1486495 0.052910753 0.03762143
000200 ff b7 20 3d 76 eb fb bc d8 25 9b bc a9 7f 3b be
       0.039237972 -0.030751925 -0.018938944 -0.18310417
000210 f6 fd 25 bd 22 7b 4e bd c6 32 ea bb a9 71 ec 3b
       -0.0405254 -0.050410397 -0.007147166 0.007215698
000220 a7 47 a9 bb 32 6f bd 3e 17 3d 80 bc 3a 5b 2c be
       -0.0051660123 0.36998898 -0.01565413 -0.16831675
000230 a6 1d 17 3d f4 c0 c1 bb e2 a0 25 bb 6c 0e b5 3c
       0.03689351 -0.0059128944 -0.0025272896 0.022101603
000240 70 4d 61 3d 72 d8 4c 3d cf 07 af ba a8 64 b9 3c
       0.05500549 0.050011106 -0.0013353768 0.022631004
000250 df 21 11 3d 5b fb 3d 3f 63 13 2b 3e 8e 06 80 3c
       0.035432693 0.74211663 0.16706614 0.015628126
000260 f7 2f 90 bd 0a e3 ec 3c e6 da d1 3c 7b 3c f2 bc
       -0.070403986 0.028916854 0.025617074 -0.029569855
000270 7c e7 33 bd 5c fb eb 3e a4 df 4c bd 33 97 dc be
       -0.043921933 0.4609021 -0.050017968 -0.43084106
000280 5b f2 8a 3b 39 f6 97 3c 96 20 a7 3c 03 f9 2c bd
       0.004240317 0.018550025 0.02040128 -0.042229664
000290 a4 1e 83 bf 8f cc 15 3d 80 ed 5d 3a 27 d7 d4 bb
       -1.0243726 0.036572035 0.0008465871 -0.0064953747
0002a0 31 4a c2 3c 25 a5 a7 3c a2 ce 91 3c 48 98 57 3d
       0.023717018 0.02046449 0.017798726 0.05263546
0002b0 8f 52 a4 3c d1 d8 0a bc bd fe 10 3e 32 23 7b bf
       0.020058898 -0.008474545 0.14159675 -0.9810058
0002c0 71 95 43 bb a4 c0 91 3e cb 65 b5 bc 8a d4 e6 bd
       -0.0029843713 0.28467286 -0.022143265 -0.11271007
0002d0 56 c7 fb 3b dd d4 20 bd 24 29 fa bc d8 a0 b6 3c
       0.007683675 -0.039265502 -0.030537196 0.022293493
0002e0 ab 61 a4 bc ce 13 2e bd 60 f2 3d bb f4 f6 90 be
       -0.020066103 -0.042499356 -0.0028983578 -0.2831341
0002f0 b2 f6 4a 3d a8 c8 25 3f 0b 55 01 3a 94 80 51 bc
       0.049551673 0.647593 0.0004933632 -0.012787003
000300 84 c6 e0 be 0c 59 16 bc 73 52 ea 3c c4 ef 8c 3c
       -0.43901455 -0.009176504 0.028603768 0.017204173
000310 5f 8c 1c bc 40 48 19 3d 2a 93 53 3b 09 c5 1c 3c
       -0.009554951 0.03742242 0.0032283762 0.009568461
000320 fb 9b 04 3d ab 65 15 bd 28 3a 39 3d eb de 18 bc
       0.032375317 -0.03647391 0.045221478 -0.009330492
000330 c9 12 e5 bc 9d 13 9c bc f4 44 b0 3c 13 ab 89 3c
       -0.027963059 -0.019052321 0.021517254 0.016805207
000340 eb 0a d9 bc d2 1d 56 bd e5 30 ae bd 36 55 94 bb
       -0.026494464 -0.052274533 -0.0850542 -0.0045267595
000350 73 50 9e 3f c5 51 cd be 6f 2f 19 bd a3 14 b4 bf
       1.2368301 -0.40101448 -0.03739875 -1.4068798
000360 51 e1 69 bd c5 4a f2 bb 1c 1e 4d bc a4 26 01 bd
       -0.057099644 -0.007394167 -0.012519386 -0.03153099
000370 42 db 24 3e 0c 09 2c 3d 26 c5 9d bb f3 13 dc 3e
       0.16099265 0.042000815 -0.0048147617 0.4298397
000380 41 bd 7b bf 61 fe f8 bc c5 bd 35 3f 72 6a 07 3d
       -0.98335654 -0.030394735 0.7099269 0.0330605
000390 73 d6 03 bd 39 92 94 bf c6 22 07 bd de f0 ac 3c
       -0.032186937 -1.1607124 -0.032992147 0.021110948
0003a0 db b3 f6 3c 20 84 0d 3d 14 46 82 bc d2 40 75 3c
       0.030115059 0.034549832 -0.015902556 0.014969068
0003b0 64 a6 5a bc 4d 33 e4 3d 5c c5 14 3d 9e 76 11 3d
       -0.013345335 0.11142597 0.03632103 0.035513513
0003c0 5e 59 99 bf b4 e1 2e 3d 24 94 e2 3e b5 4e 2e bd
       -1.1980398 0.042695716 0.44253647 -0.04255553
0003d0 68 99 c9 3e c0 ce eb bc 22 f6 14 3f d2 4e 22 3f
       0.39374852 -0.02878511 0.5818807 0.6340152
0003e0 5d 0a ec bc 3d 0a 20 3c a4 94 c4 3c 97 38 f6 bc
       -0.028813535 0.009768066 0.023996659 -0.030056281
0003f0 81 31 38 3d 5f 53 c7 be 07 87 38 3d 8c f3 5d 3d
       0.044969086 -0.38930795 0.045050647 0.054187343

net.4.bias f4 [4]
000000 96 f4 8c 3a 93 49 86 3e 42 d3 75 bf 2a 71 f6 be
       0.0010754045 0.26228008 -0.9602548 -0.48133212
