logs/PointMaze-Right/airl_sac/seed0-20231226-1522/model/step745000/disc.pth (torch, 90839 bytes, 10 tensors)

g.0.weight f4 [100, 6]
0.5575972 0.45229644 -0.33435595 -0.63501316 0.12518667 -0.1911363 -0.3823621 0.12365438
0.29091433 -0.18343239 0.18512368 0.33874533 -1.0607344 -0.08319171 -0.25612202 0.31324393
0.10271064 0.20235598 -0.07904794 -0.18043385 -0.2243558 0.25816864 0.34354123 0.3528185
-0.3042163 -0.061612263 -0.02810071 -0.19149959 -0.2506593 0.3359678 0.008262244 -0.39510506
-0.13709919 -0.21457617 0.020008314 0.0016859706 0.018724917 -0.32689115 -0.1331595 -0.27340424
-0.12182866 0.13343228 -0.13831256 -0.4368022 0.040966216 0.03333359 0.11261046 -0.31152087
0.16910407 0.25290444 0.25647485 0.23228958 -0.14990684 -0.110614814 0.11802695 -0.5251013
0.23664865 -0.15635403 -0.21762113 -0.004105888 0.58751327 0.45094156 0.28578284 -0.17733738
0.3097699 -0.08347479 0.40855893 0.5051359 0.07560826 -0.40905434 0.30020815 -0.15151338
-0.13432936 -0.30665123 0.30097106 -0.10658533 0.33454493 0.048727095 0.33559406 -0.53015596
-0.352353 -0.43792245 -0.16062507 0.14585 -0.17352663 0.09576471 0.26151153 0.27180597
-0.07007541 0.25022766 0.67516303 0.19078375 -0.24222729 -0.27338538 -0.032245327 0.016200608
-0.38634384 -0.30843475 0.25170553 0.24991678 -0.2923082 0.31349245 0.28938386 0.32577977
0.0372722 0.12196692 -0.16302828 0.36071077 -0.51978904 -0.5135507 0.32271504 0.3703984
0.24651583 0.25188634 0.11514417 -0.55184674 0.36091343 0.47647357 0.49959347 0.04992362
0.06314965 0.06961653 -0.13606638 0.1975216 0.051988512 0.2853315 0.47354352 0.061135948
-0.3889795 0.36628535 -0.13547122 0.31694484 0.4306512 0.40597397 -0.024260787 -0.24035917
0.21337983 -0.11120573 0.13181642 -0.48307487 -0.09785311 0.09816286 -0.13328157 0.18153386
0.38284716 -0.18587165 0.13337958 -0.13180949 -0.052240413 -0.07659201 -0.1279451 0.42774102
-0.23972178 0.4016549 0.25829956 0.3806506 -1.0353948 -0.09587352 0.24295895 0.29883578
-0.42304367 0.14495522 0.033504594 -0.3826388 -0.085280046 0.3919217 0.46089673 -0.028504305
-0.6963677 0.06435441 -0.25590575 0.088574946 -0.27483806 0.2853666 -0.27267897 -0.39173302
-0.18654977 -0.3710537 -0.03269585 -0.09780703 0.6759309 0.5220029 0.40751252 -0.22649434
0.16297789 0.27205607 0.10915765 -0.21783744 0.30071938 0.42195296 -0.23017316 0.06660112
0.35083485 0.07052507 -0.1806743 -0.37813425 0.034719698 0.1300144 -0.05760398 -0.12316005
0.12822106 0.58502614 -0.118415035 0.17702638 0.4644364 -0.06794708 0.35175315 -0.5125989
0.42922342 0.08766949 0.12526183 -0.30601525 -0.2912675 -0.029055215 -0.13016152 -0.058905505
-0.019766245 0.064271085 -0.22063312 0.18862912 -0.15372053 -0.102332324 0.07285159 -0.45323583
-0.059540704 0.38437533 0.41954514 -0.32113814 -0.37646696 -0.3998904 -0.009386354 -0.2767339
0.061094593 0.40544826 0.04034304 -0.32599208 0.3950118 -0.1585884 -0.354551 0.019009376
-0.04403915 -0.18538104 -0.2960598 0.019190611 -0.22142415 0.3482537 0.5448709 0.45237714
0.20643272 0.028409664 0.21150339 0.21911407 0.16226305 0.03323788 0.29246658 -0.1437282
00000000: b1be 0e3f 6693 e73e b430 abbe 3990 22bf
00000010: ef30 003e 3cb9 43be f7c4 c3be 823e fd3d
00000020: b9f2 943e b3d5 3bbe 1091 3d3e 0770 ad3e
00000030: 25c6 87bf 6a60 aabd 6d22 83be 8261 a03e
00000040: f559 d23d 6836 4f3e e3e3 a1bd a7c3 38be
00000050: 87bd 65be ae2e 843e a3e4 af3e a0a4 b43e
00000060: 3dc2 9bbe 245d 7cbd 7633 e6bc 7818 44be
00000070: 6a56 80be f903 ac3e 5d5e 073c 364b cabe
00000080: bb63 0cbe dbb9 5bbe 7ae8 a33c c9fb dc3a
00000090: ff64 993c 475e a7be f75a 08be a4fb 8bbe
000000a0: 4e81 f9bd 79a2 083e cfa1 0dbe 8aa4 dfbe
000000b0: 31cc 273d cd88 083d 50a0 e63d aa7f 9fbe
000000c0: 9e29 2d3e b17c 813e ac50 833e 52dd 6d3e
000000d0: 2e81 19be 058a e2bd 1db8 f13d 0a6d 06bf
000000e0: 0654 723e 451b 20be 13d8 5ebe af8a 86bb
000000f0: 4567 163f d0e1 e63e 2152 923e ee97 35be
00000100: 299a 9e3e d5f4 aabd a32e d13e 9650 013f
00000110: 81d8 9a3d 926f d1be e2b4 993e 5326 1bbe
00000120: a38d 09be 6401 9dbe e118 9a3e 6949 dabd
00000130: 7949 ab3e 1096 473d fcd2 ab3e 4db8 07bf
00000140: 9d67 b4be 5f37 e0be e67a 24be b459 153e
00000150: f7b0 31be 4a20 c43d d7e4 853e 272a 8b3e
00000160: b283 8fbd d71d 803e 7cd7 2c3f d15c 433e
00000170: 6e0a 78be 2bf9 8bbe ad13 04bd 23b7 843c
00000180: dcce c5be 29eb 9dbe 8cdf 803e 2fea 7f3e
00000190: 6ca9 95be 1582 a03e 1f2a 943e 9bcc a63e
000001a0: bcaa 183d cbc9 f93d e3f0 26be 15af b83e
000001b0: e510 05bf 0f78 03bf e83a a53e dca4 bd3e
000001c0: a56e 7c3e 3ff7 803e b5d0 eb3d d445 0dbf
000001d0: a5c9 b83e 58f4 f33e b7ca ff3e b67c 4c3d
000001e0: 9b54 813d 1c93 8e3d fc54 0bbe 1a43 4a3e
000001f0: e8f1 543d f816 923e 4c74 f23e b069 7a3d
00000200: 5228 c7be c189 bb3e f8b8 0abe 9846 a23e
00000210: 507e dc3e d2db cf3e 8fbe c6bc b720 76be
00000220: 3e80 5a3e d4bf e3bd e2fa 063e 9755 f7be
00000230: 3667 c8bd 9c09 c93d f77a 08be 03e4 393e
00000240: 8b04 c43e 2355 3ebe a894 083e 11f9 06be
00000250: 0bfa 55bd 46dc 9cbd 0a04 03be df00 db3e
00000260: a079 75be b6a5 cd3e d73f 843e a3e4 c23e
00000270: d187 84bf 5659 c4bd 3bca 783e 0101 993e
00000280: 2e99 d8be 246f 143e 1d3c 093d 3ce9 c3be
00000290: 4ea7 aebd f6a9 c83e a8fa eb3e dc81 e9bc
000002a0: 2745 32bf 3fcc 833d 1406 83be c866 b53d
000002b0: 93b7 8cbe 921b 923e 949c 8bbe 3b91 c8be
000002c0: e706 3fbe c0fa bdbe 15ec 05bd 0d4f c8bd
000002d0: cf09 2d3f fba1 053f 7ba5 d03e 22ee 67be
000002e0: ade3 263e ef4a 8b3e 0c8e df3d c710 5fbe
000002f0: e4f7 993e 380a d83e 83b2 6bbe 2b66 883d
00000300: a0a0 b33e 736f 903d af02 39be d09a c1be
00000310: 3e36 0e3d 7f22 053e 27f2 6bbd 563b fcbd
00000320: 624c 033e 46c4 153f 9583 f2bd 6746 353e
00000330: 9cca ed3e d727 8bbd fd18 b43e ae39 03bf
00000340: 2cc3 db3e 108c b33d a344 003e 08ae 9cbe
00000350: 0421 95be 3405 eebc 1049 05be e646 71bd
00000360: d2ec a1bc 8fa0 833d a6ed 61be fe27 413e
00000370: ea68 1dbe 9c93 d1bd 3733 953d 870e e8be
00000380: f4e0 73bd d8cc c43e 9fce d63e 386c a4be
00000390: 47c0 c0be 6fbe ccbe 39c9 19bc 11b0 8dbe
000003a0: 533e 7a3d ea96 cf3e be3e 253d 6fe8 a6be
000003b0: fd3e ca3e ff64 22be b587 b5be 8db9 9b3c
000003c0: 6562 34bd 87d4 3dbe 2695 97be a135 9d3c
000003d0: 03bd 62be 4f4e b23e a97c 0b3f fa9d e73e
000003e0: 1963 533e 62bb e83c 5894 583e 705f 603e
000003f0: 4928 263e 7124 083d 2ebe 953e 7c2d 13be

g.0.bias f4 [100]
0.112120144 0.14204328 -0.041459132 0.17651543 0.05971284 -0.17043054 -0.38416755 0.31427044
-0.39580488 0.39202303 -0.28398117 -0.14141175 -0.36567414 0.3742148 -0.40226007 0.09737447
-0.28873175 0.020369776 0.13928047 -0.14271392 -0.24711332 -0.2560072 -0.09633046 0.34772074
-0.3860784 0.31763455 0.22957179 -0.011043412 0.2714848 -0.15846479 0.17537485 0.35339862
-0.26209715 0.2461667 0.02425455 -0.23579045 -0.2465731 0.2656521 -0.38760537 -0.051183026
0.06729024 -0.2899629 0.23451817 0.18105355 0.12932402 0.10341395 0.3934979 -0.28901646
-0.08150813 0.00070962205 -0.04409877 -0.17355208 -0.15757295 -0.20602183 0.14944641 -0.3866317
-0.29949725 0.33497015 0.06755209 -0.19479749 0.33062997 0.21792182 0.26213703 0.07428659
0.23408264 -0.32653248 -0.36612475 0.12449521 -0.32647267 0.278443 0.29586104 -0.3119467
0.37492698 0.22858936 0.30157438 -0.3008232 0.08379713 0.21757862 0.06863883 0.0787197
0.42223328 0.0078345025 -0.36839968 0.24165988 0.10147001 -0.19339557 -0.40027446 0.14452198
0.3335959 -0.10051897 0.4446222 0.056952965 -0.39294958 0.263991 0.14022154 -0.15220791
0.27629852 0.18253464 -0.3784695 -0.36522168
00000000: 3f9f e53d cb73 113e 0dd1 29bd 76c0 343e
00000010: 7395 743d 5885 2ebe 9cb1 c4be 0ee8 a03e
00000020: f0a6 cabe 3eb7 c83e fb65 91be 3ece 10be
00000030: a439 bbbe 1599 bf3e 08f5 cdbe 446c c73d
00000040: a6d4 93be 84de a63c 8a9f 0e3e 9923 12be
00000050: 460b 7dbe 6013 83be e748 c5bd 7408 b23e
00000060: 11ac c5be ffa0 a23e de14 6b3e 6def 34bc
00000070: 0e00 8b3e 9844 22be 7795 333e aaf0 b43e
00000080: 9931 86be 2013 7c3e 7ab1 c63c 0d73 71be
00000090: a97d 7cbe 8d03 883e 3674 c6be 4ba5 51bd
000000a0: 77cf 893d 0476 94be 8825 703e 1a66 393e
000000b0: 846d 043e b1ca d33d 8f78 c93e f7f9 93be
000000c0: bced a6bd ee05 3a3a e9a0 34bd a3b7 31be
000000d0: ce5a 21be 63f7 52be 7b08 193e 97f4 c5be
000000e0: b457 99be 3581 ab3e c058 8a3d fe78 47be
000000f0: 5548 a93e e626 5f3e d336 863e 9123 983d
00000100: 5cb3 6f3e 442f a7be b474 bbbe 58f7 fe3d
00000110: 6d27 a7be 1590 8e3e 197b 973e 7ab7 9fbe
00000120: 6ef6 bf3e 5413 6a3e f567 9a3e 8005 9abe
00000130: d49d ab3d eecc 5e3e 8492 8c3d cb37 a13d
00000140: f62e d83e 495c 003c e29e bcbe b075 773e
00000150: 82cf cf3d 7d09 46be c6f0 ccbe 92fd 133e
00000160: 15cd aa3e e4dc cdbd 85a5 e33e 8347 693d
00000170: b030 c9be d429 873e 3c96 0f3e 64dc 1bbe
00000180: 0077 8d3e 5cea 3a3e c1c6 c1be 56fe babe

g.2.weight f4 [100, 100]
0.09070539 -0.027595673 -0.4994482 -0.06814669 -0.07149255 0.022653151 -0.006581676 0.12337203
-0.02721051 -1.1440667 -0.005236673 0.026335904 0.052782416 -0.86968726 -0.054968536 0.11385785
0.009622824 -0.013576523 -1.6798205 0.14143907 0.028711641 0.70796806 0.120012335 0.3599729
-0.09442425 0.0469599 -0.49164924 0.19042256 -0.4605544 0.0990531 0.035409007 0.051581427
0.014657967 -0.028147392 0.085200444 0.0460845 0.030370547 0.058419354 0.0012924671 0.0046445727
-0.06954765 0.01946641 0.088069454 -1.6469548 -0.74710804 0.07439657 0.10434921 -0.07847567
-0.88212144 0.14594829 -0.0017363997 -0.05506766 0.022292368 -0.074379995 -0.55386555 0.06061042
0.050179243 -0.00023062382 0.099258766 -0.7943124 -0.9607915 0.10312854 0.07000349 0.11562688
0.21570873 -0.96464187 0.07358048 -0.05601583 -0.09220963 0.1645995 -1.0673594 -0.057922274
0.15149735 -0.46161085 -0.014044287 0.03356695 -0.8160664 -0.15275645 -0.09961612 -0.05441676
0.079578765 -0.047345147 0.074767925 0.007091231 -0.07081637 -0.08800154 -0.063314416 0.005489879
-0.0063540093 -0.2305119 0.044589303 -0.34911817 -0.034357917 -0.00090730033 0.064032905 -0.07454126
-0.9939403 -1.0830798 -0.0697541 -0.06565926 0.073613495 -0.0606178 -0.36142674 0.011760754
0.09381821 0.052920796 -0.036190808 0.12612522 -0.068667606 -1.1255374 0.0697369 -0.113934636
0.09621171 -0.51924986 0.026288152 -0.037988726 -0.022985065 -0.14151004 -1.6162068 0.21235408
-0.074225366 0.5428963 0.052244354 0.16243929 -0.034396853 0.0137527855 -0.358363 0.08974555
-0.35198435 0.051393893 0.0680269 -0.0738543 0.07160838 0.060689304 0.17719679 -0.04396924
-0.05470146 0.008010047 -0.08276105 -0.090340674 0.06741613 0.05076476 0.05797994 -1.3406715
-0.9230218 -0.010943237 -0.020139422 0.078498445 -0.96365917 0.098338924 -0.07715108 0.09765309
-0.04115563 -0.021678722 -0.3819896 0.032498047 -0.022512376 0.19436686 0.1445638 -0.82543015
-0.7820294 0.15544184 0.20152853 0.03375064 0.17303793 -1.0077921 0.01538477 0.025262952
-0.00078650715 0.2955247 -0.7858843 -0.085934274 0.096954286 -0.54309785 0.0582693 0.021605564
-0.711187 -0.06574993 -0.08092896 -0.1807394 0.087270714 0.06290196 -0.06467054 0.034741063
0.050127827 0.07809281 -0.02313136 -0.0077132 0.07049257 -0.24640515 0.14328487 -0.17051548
-0.005942929 -0.047316507 0.06910186 0.005967164 -0.8378387 -0.96723115 0.027375354 0.062499594
-0.091713354 0.06599604 -0.098844014 -0.011972753 0.045182467 -0.06694044 0.0871379 0.054640744
-0.017187823 -0.049118433 -0.051871788 0.006393172 -0.011912095 -0.014737349 0.025500715 0.0105610285
-0.0395859 -0.059052475 -0.100057356 -0.011212555 -0.03607316 0.041033458 0.047105886 -0.06390121
0.05962503 0.010165349 -0.10268317 -0.02982373 -0.07052204 -0.06849412 -0.021697728 0.016204787
-0.004781437 -0.008114443 -0.09842749 0.09772402 -0.018326664 0.0744945 0.09224719 -0.04632268
0.08158811 -0.043658104 -0.029144835 0.0034377603 -0.09071948 -0.03196894 0.0014524887 0.03347695
0.056701876 -0.071096934 0.077680945 0.0037819028 -0.07703829 0.0051576137 0.037381604 -0.055026878
00000000: bfc3 b93d 5210 e2bc adb7 ffbe 7e90 8bbd
00000010: b06a 92bd 1a93 b93c 1aab d7bb 7aaa fc3d
00000020: 93e8 debc c770 92bf 6698 abbb 65be d73c
00000030: 6032 583d d3a3 5ebf b026 61bd 4e2e e93d
00000040: 0da9 1d3c 1170 5ebc 5c04 d7bf 67d5 103e
00000050: ad34 eb3c 653d 353f 07c9 f53d 5e4e b83e
00000060: 8061 c1bd 0659 403d 73b9 fbbe 22fe 423e
00000070: c9cd ebbe 5adc ca3d 0909 113d 0c47 533d
00000080: f827 703c 5c95 e6bc 927d ae3d 1ac3 3c3d
00000090: a7cb f83c 2249 6f3d 0068 a93a 8031 983b
000000a0: 006f 8ebd 0578 9f3c c25d b43d 6acf d2bf
000000b0: 7942 3fbf 3b5d 983d 0ab5 d53d dab7 a0bd
000000c0: b6d2 61bf 7873 153e e897 e3ba a08e 61bd
000000d0: 7c9e b63c 8a54 98bd 22ca 0dbf a242 783d
000000e0: c088 4d3d 9cd3 71b9 2e48 cb3d 0f58 4bbf
000000f0: 6ff6 75bf 0e35 d33d fd5d 8f3d c9cd ec3d
00000100: c0e2 5c3e c5f2 76bf 5db1 963d db70 65bd
00000110: 67d8 bcbd c58c 283e 3c9f 88bf e83f 6dbd
00000120: 1f22 1b3e 4258 ecbe 021a 66bc 807d 093d
00000130: bae9 50bf 306c 1cbe 8903 ccbd 1ce4 5ebd
00000140: 31fa a23d fcec 41bd ed1f 993d 8f5d e83b
00000150: 2c08 91bd 273a b4bd fdaa 81bd 71e4 b33b
00000160: 4b35 d0bb 500b 6cbe 46a3 363d 9ebf b2be
00000170: e3ba 0cbd e5d7 6dba af23 833d 17a9 98bd
00000180: df72 7ebf 5ca2 8abf 3ddb 8ebd 5d78 86bd
00000190: acc2 963d 5f4a 78bd ed0c b9be 2db0 403c
000001a0: c323 c03d 7ac3 583d d03c 14bd f826 013e
000001b0: 9aa1 8cbd 9c11 90bf 38d2 8e3d 9056 e9bd
000001c0: a50a c53d 8fed 04bf 405a d73c 119a 1bbd
000001d0: 2d4b bcbc 02e8 10be dddf cebf 5973 593e
000001e0: 7803 98bd 40fb 0a3f 2dfe 553d 7c56 263e
000001f0: b7e3 0cbd 5d53 613c 5b7b b7be 84cc b73d
00000200: 4b37 b4be 6782 523d b051 8b3d ec40 97bd
00000210: 6aa7 923d 5995 783d 1373 353e 1719 34bd
00000220: a30e 60bd 923c 033c a07e a9bd 8804 b9bd
00000230: 7811 8a3d b5ee 4f3d 607c 6d3d 209b abbf
00000240: 284b 6cbf 434b 33bc 6efb a4bc cbc3 a03d
00000250: 5eb2 76bf eb65 c93d 6301 9ebd 58fe c73d
00000260: ce92 28bd 9397 b1bc 2494 c3be ac1c 053d
00000270: e06b b8bc 1b08 473e 8808 143e 644f 53bf
00000280: 1433 48bf 252c 1f3e 7f5d 4e3e 1c3e 0a3d
00000290: db30 313e 55ff 80bf 6710 7c3c 40f4 ce3c
000002a0: 9a2d 4eba 034f 973e b72f 49bf 4ffe afbd
000002b0: f88f c63d 7608 0bbf caab 6e3d 27fe b03c
000002c0: 5a10 36bf e6a7 86bd 15be a5bd c013 39be
000002d0: fdba b23d bed2 803d fd71 84bd a54c 0e3d
000002e0: d652 4d3d 20ef 9f3d fa7d bdbc 03bf fcbb
000002f0: 695e 903d a251 7cbe 45b9 123e 9c9b 2ebe
00000300: e7bc c2bb f4ce 41bd 4785 8d3d 3388 c33b
00000310: 997c 56bf 769c 77bf 4742 e03c 93ff 7f3d
00000320: 36d4 bbbd ef28 873d bb6e cabd 5e29 44bc
00000330: 4011 393d 1218 89bd 5b75 b23d f9ce 5f3d
00000340: 7acd 8cbc 6930 49bd 8377 54bd d07d d13b
00000350: f32a 43bc ec74 71bc e0e6 d03c 2a08 2d3c
00000360: d324 22bd 02e1 71bd dfea ccbd ddb4 37bc
00000370: 73c1 13bd b312 283d 1af2 403d a3de 82bd
00000380: 6039 743d 908c 263c 8e4b d2bd e550 f4bc
00000390: dc6d 90bd a546 8cbd 6fbf b1bc e7bf 843c
000003a0: 9aad 9cbb 71f2 04bc 5a94 c9bd 8823 c83d
000003b0: cd21 96bc 9390 983d 18ec bc3d dabc 3dbd
000003c0: ab17 a73d d7d2 32bd 26c1 eebc 0c4c 613b
000003d0: 22cb b9bd ddf1 02bd 6f61 be3a 201f 093d
000003e0: 3a40 683d 459b 91bd 3017 9f3d cdd9 773b
000003f0: 40c6 9dbd 3301 a93b 741d 193d dd63 61bd

g.2.bias f4 [100]
0.080947205 0.0138891945 0.061889555 -0.03462659 0.016185228 0.020837657 -0.029264122 0.10761244
-0.07311344 -0.0033161202 0.01259674 0.0026845506 0.020439895 0.013673472 -0.030655956 0.07145887
-0.045055274 -0.068334326 -0.07564572 0.058012214 -0.08642792 0.046517417 0.013286591 0.08531009
-0.085484795 -0.10042991 0.07408588 -0.09944203 0.0565438 0.11921536 -0.09139275 0.020572877
-0.044746924 -0.054479744 -0.08313851 0.00065722206 -0.03575133 0.06895766 0.025463812 -0.034756746
0.030995263 -0.07760531 -0.07613239 -0.0027046783 -0.029340085 -0.07987305 -0.097602755 -0.007952798
-0.06598129 -0.06476171 -0.013545742 -0.024707923 0.031474818 0.12315528 -0.06623835 -0.045106623
-0.02240994 0.043284267 -0.012503159 -0.011654192 0.0059131635 0.0055763875 -0.0665666 0.036125857
-0.059805244 -0.010725344 0.021545576 -0.16594052 -0.021426972 -0.05159696 -0.026681105 -0.0036065222
-0.021000266 0.036710367 0.042957652 -0.07940185 0.05668129 0.046233144 -0.005211377 -0.028085584
-0.08951253 -0.12658225 -0.069157675 0.045856517 -0.05726742 0.026046472 -0.034936506 -0.054982167
-0.078315794 0.011607087 0.048608113 -0.042681076 -0.0095374705 -0.007451561 0.034597408 -0.020265583
0.042841922 0.048426647 0.011606811 -0.006313846
00000000: a6c7 a53d 818f 633c e77f 7d3d 9cd4 0dbd
00000010: e296 843c bcb3 aa3c 50bb efbc e963 dc3d
00000020: 80bc 95bd 4453 59bb 8f62 4e3c 49ef 2f3b
00000030: 9171 a73c b306 603c 3322 fbbc 0759 923d
00000040: e18b 38bd def2 8bbd 25ec 9abd 379e 6d3d
00000050: 1f01 b1bd 0c89 3e3d 00b0 593c 0eb7 ae3d
00000060: a712 afbd 32ae cdbd 56ba 973d 43a8 cbbd
00000070: 799a 673d 2f27 f43d 1f2c bbbd 7388 a83c
00000080: 8d48 37bd 2726 5fbd 8644 aabd 6d49 2c3a
00000090: fd6f 12bd ac39 8d3d 7c99 d03c 175d 0ebd
000000a0: c7e9 fd3c 88ef 9ebd 4ceb 9bbd f940 31bb
000000b0: 9e5a f0bc 7b94 a3bd f4e3 c7bd 744c 02bc
000000c0: 3321 87bd caa1 84bd f6ee 5dbc 4568 cabc
000000d0: bdeb 003d d638 fc3d f9a7 87bd b9c1 38bd
000000e0: 0d95 b7bc d84a 313d 0dda 4cbc 39f1 3ebc
000000f0: 36c3 c13b 21ba b63b 1254 88bd b5f8 133d
00000100: 58f6 74bd 5ab9 2fbc 5980 b03c 50ec 29be
00000110: 9e87 afbc 5557 53bd 5592 dabc 675b 6cbb
00000120: c008 acbc 9c5d 163d 5df4 2f3d 709d a2bd
00000130: a42a 683d f75e 3d3d 33c4 aabb bd13 e6bc
00000140: 5852 b7bd c79e 01be 8aa2 8dbd 0bd4 3b3d
00000150: 3e91 6abd 695f d53c 9519 0fbd fb34 61bd
00000160: 0864 a0bd a72b 3e3c 4d19 473d 5ad2 2ebd
00000170: 0d43 1cbc 392c f4bb 03b6 0d3d 0204 a6bc
00000180: 037b 2f3d 055b 463d 7e2a 3e3c 61e4 cebb

g.4.weight f4 [1, 100]
0.7440166 0.9803971 0.089554824 -0.7352429 0.013255816 -0.29721236 0.09273927 1.0184112
-0.039773893 -1.244429 -1.1296777 0.7388767 -0.9571725 -0.07460979 -0.1898939 0.036349557
-2.0190146 -0.9996363 0.00034205915 0.7471892 -0.09654546 -0.2960636 -0.43666714 0.021017602
0.0065490725 -0.7352409 0.04049637 -0.095411755 1.0827308 0.90428025 -0.785735 0.7396014
0.024930669 -0.016903806 -0.4298294 1.0341114 0.8205006 0.8842146 -0.45862696 -0.0566746
0.07556255 0.083425395 0.97614545 1.0119402 -1.3504232 -0.27714798 0.062757745 -0.25749618
-0.21540396 0.06274861 0.0013237995 0.04997162 -0.35804358 0.8686184 0.023183065 0.04534655
0.039558627 -0.39254212 -0.07835191 0.047105312 0.011514073 0.91711366 -0.35349137 -0.4339687
-1.3523387 -0.33692577 0.07930762 -2.0474453 -0.3433807 0.7799088 0.8544485 0.08993665
0.086157195 -1.2527678 -1.0070765 0.07357822 0.8896376 0.007970668 -0.03392116 -0.043194536
-0.049152054 -1.2267019 -0.08076348 0.04146412 0.048754547 -1.0393137 -0.28682175 -0.70365745
-0.63290286 -0.05334847 -0.51368755 -0.04122428 0.08683121 -0.34512758 -1.1165022 -0.42574903
-1.1947623 0.77669644 0.05371297 -0.35743085
00000000: df77 3e3f 4efb 7a3f 8568 b73d e138 3cbf
00000010: ec2e 593c 382c 98be 16ee bd3d 4c5b 823f
00000020: f3e9 22bd 7349 9fbf 4799 90bf 0627 3d3f
00000030: 4209 75bf 05cd 98bd 8c73 42be 46e3 143d
00000040: 8937 01c0 2ae8 7fbf 6756 b339 cb47 3f3f
00000050: a0b9 c5bd a695 97be d692 dfbe 1b2d ac3c
00000060: 9a99 d63b bf38 3cbf 86df 253d 3d67 c3bd
00000070: ec96 8a3f e97e 673f ee25 49bf 8456 3d3f
00000080: 673b cc3c da79 8abc 9912 dcbe c35d 843f
00000090: 540c 523f e35b 623f 27d1 eabe a023 68bd
000000a0: 8ac0 9a3d efda aa3d abe4 793f 4287 813f
000000b0: abda acbf 57e6 8dbe 2287 803d 8ad6 83be
000000c0: db92 5cbe 5882 803d 5783 ad3a 0baf 4c3d
000000d0: 7d51 b7be c75d 5e3f 69ea bd3c 4ebd 393d
000000e0: 3a08 223d 48fb c8be f776 a0bd 80f1 403d
000000f0: 86a5 3c3c f6c7 6a3f d2fc b4be 2531 debe
00000100: 6f19 adbf 8981 acbe 096c a23d 5809 03c0
00000110: 98cf afbe 1aa8 473f 23bd 5a3f b530 b83d
00000120: 2f73 b03d b25a a0bf e2e7 80bf 2eb0 963d
00000130: 4abf 633f 6897 023c eaf0 0abd c1ec 30bd
00000140: aa53 49bd 9104 9dbf 5367 a5bd 48d6 293d
00000150: d9b2 473d 3b08 85bf 4dda 92be e522 34bf
00000160: ec05 22bf ed83 5abd 0781 03bf cada 28bd
00000170: 90d4 b13d 90b4 b0be 8be9 8ebf c7fb d9be
00000180: f9ed 98bf 94d5 463f 2202 5c3d 2d01 b7be

h.0.weight f4 [100, 6]
0.41618338 -0.11117103 -0.19648188 -0.46881855 0.33553085 0.1731168 0.64353245 0.3357391
-0.010876148 -0.2781254 0.37131068 -0.09446126 0.54645765 -0.3817791 -0.32755128 0.23800635
-0.2691287 -0.26672772 -0.011063778 0.17556354 -0.31947315 0.33355635 0.0033703225 -0.23466459
0.14041333 0.5450314 -0.010682988 0.19954838 0.027001025 -0.07312171 0.10030751 -0.019717686
-0.13939813 0.5086215 0.3700681 0.18438472 -0.22925471 0.15064907 -0.033858113 0.23292166
-0.23806803 0.13928464 0.3201061 0.29091686 -0.16489238 -0.31808868 0.20886774 0.31312683
-0.074465655 -0.024609923 0.3870066 -0.3588068 0.29933167 0.13756533 0.39816645 0.23552158
0.13592695 -0.52215207 0.068718895 -0.27714762 0.32057783 0.31260917 0.055725504 0.15052584
-0.35227138 0.024363572 0.51358104 -0.60181284 -0.3492917 -0.15745252 0.15309817 0.31812808
0.37596202 0.06627172 -0.37358817 -0.42692205 0.038079653 0.16211417 0.796117 0.103435874
0.038378254 -0.4334121 0.13245183 -0.19719471 -0.35253668 0.47210684 -0.26244265 -0.19153929
0.3975618 0.33038405 0.07420996 0.13138121 0.20699866 0.018058373 -0.3464497 0.022565959
0.72713226 0.39630565 0.17269073 -0.09240501 -0.21764536 -0.31673154 -0.22533326 0.102914535
-0.06681851 0.15387729 -0.040122487 0.3303892 0.67169416 0.28933778 0.0006174381 -0.35029936
0.08211701 0.16242613 -0.080970645 0.4218637 -0.09164861 0.2176629 -0.40452242 -0.23148985
0.021752734 -0.39858985 -0.15741669 -0.09055959 0.30190367 -0.2638674 0.28897983 -0.21292967
-0.24206455 -0.19171844 -0.38231567 -0.019923681 -0.22124447 -0.19232723 0.3485441 -0.16736534
0.38672718 -0.39319927 0.6224607 -0.2361707 0.051120196 0.0019686706 0.33624732 -0.012326376
-0.33749238 -0.35789433 -0.03305209 -0.06157776 -0.24994457 -0.3461889 0.14377175 -0.4835897
0.31088144 -0.11089144 0.3379422 0.18850039 -0.20337974 0.12750591 -0.17728908 -0.077509485
0.25567836 -0.08720438 0.073415905 -0.24191958 -0.35949776 0.13577905 -0.3229411 -0.012167234
0.1416808 -0.27606982 -0.19999652 0.3131822 -0.30354896 0.15324777 -0.61316764 -0.2079052
0.39163417 0.46185863 -0.021974394 0.33694762 0.6477639 0.23079017 -0.009103258 -0.6201991
0.20715567 0.18354498 0.25909653 -0.06095059 0.020294039 -0.21055326 -0.29199648 0.050269645
-0.7046882 0.082480595 0.33562648 0.25479043 0.23997897 -0.03375236 -0.5248177 0.3715749
0.29373088 0.043658834 -0.16016066 0.07633559 0.16312878 0.06590838 0.077207506 -0.059409887
0.23509727 -0.36484626 -0.31329998 -0.25420293 -0.06763583 0.010214812 -0.23519905 0.05336866
-0.12916131 0.174844 0.37475735 -0.24100341 -0.20624876 -0.1806414 -0.16465162 0.34704888
0.34222087 -0.11446968 -0.2547791 -0.35908514 0.29718864 -0.35162407 -0.335599 -0.15517835
-0.35614738 0.012873003 -0.29085258 0.14640856 -0.03320904 -0.32559863 0.24195349 -0.13820209
-0.3551126 -0.20586999 0.20549423 0.33603778 0.048589025 0.21603812 0.24311274 -0.41927335
-0.049888775 -0.2699251 -0.021225853 0.40190962 0.13761535 -0.104371905 -0.21771184 -0.3280325
00000000: fd15 d53e a3ad e3bd 8c32 49be fc08 f0be
00000010: b3ca ab3e 8845 313e 8bbe 243f ffe5 ab3e
00000020: df31 32bc 7466 8ebe 6f1c be3e e874 c1bd
00000030: a6e4 0b3f 8d78 c3be cdb4 a7be f0b7 733e
00000040: 3dcb 89be 8990 88be d944 35bc eec6 333e
00000050: fc91 a3be e6c7 aa3e a1e0 5c3b ea4b 70be
00000060: 83c8 0f3e 2e87 0b3f b307 2fbc 6956 4c3e
00000070: 4131 dd3c d6c0 95bd 066e cd3d fc86 a1bc
00000080: 62be 0ebe 0535 023f 9179 bd3e 59cf 3c3e
00000090: bfc1 6abe c043 1a3e ceae 0abd 0483 6e3e
000000a0: 1bc8 73be a2a0 0e3e f2e4 a33e 0ef3 943e
000000b0: 8cd9 28be 85dc a2be 6de1 553e 2952 a03e
000000c0: 7381 98bd c09a c9bc bb25 c63e 86b5 b7be
000000d0: 0042 993e eddd 0c3e 79dc cb3e 922c 713e
000000e0: 6f30 0b3e c2ab 05bf 7ebc 8c3d 4be6 8dbe
000000f0: c722 a43e 4f0e a03e 6d40 643d 7223 1a3e
00000100: ea5c b4be 1d96 c73c 0c7a 033f 6810 1abf
00000110: 5dd6 b2be 3c3b 21be c4c5 1c3e afe1 a23e
00000120: 187e c03e 78b9 873d f346 bfbe 8795 dabe
00000130: 69f9 1b3d 4201 263e 53ce 4b3f 30d6 d33d
00000140: 8432 1d3d 31e8 ddbe 74a1 073e 69ed 49be
00000150: b07f b4be fdb7 f13e e25e 86be e022 44be
00000160: 388d cb3e 1928 a93e 64fb 973d cc88 063e
00000170: 75f7 533e 27ef 933c db61 b1be 3fdc b83c
00000180: 5725 3a3f 93e8 ca3e d7d5 303e d63e bdbd
00000190: 6dde 5ebe a32a a2be c3bd 66be dbc4 d23d
000001a0: 25d8 88bd 0292 1d3e 7a57 24bd c628 a93e
000001b0: 26f4 2b3f 1524 943e 92db 213a 705a b3be
000001c0: f72c a83d 0953 263e f0d3 a5bd 85fe d73e
000001d0: 44b2 bbbd 06e3 5e3e 901d cfbe ad0b 6dbe
000001e0: ca32 b23c f813 ccbe d731 21be 4e77 b9bd
000001f0: 1e93 9a3e a119 87be 2af5 933e 3c0a 5abe
00000200: c5df 77be d751 44be e1be c3be fd36 a3bc
00000210: e98d 62be 6ef1 44be 5f74 b23e d261 2bbe
00000220: 1b01 c63e 6a51 c9be 9659 1f3f bbd6 71be
00000230: 6963 513d d004 013b 9c28 ac3e 91f4 49bc
00000240: cdcb acbe ed3d b7be a161 07bd f638 7cbd
00000250: 78f1 7fbe ac3f b1be e738 133e 1299 f7be
00000260: da2b 9f3e 0d1b e3bd c306 ad3e 3f06 413e
00000270: c742 50be e990 023e 458b 35be 4bbd 9ebd
00000280: 46e8 823e 3698 b2bd 145b 963d c4b9 77be
00000290: 1710 b8be aa09 0b3e 8958 a5be 1459 47bc
000002a0: c614 113e 0659 8dbe e3cb 4cbe 6b59 a03e
000002b0: c56a 9bbe fcec 1c3e 8ef8 1cbf 1ae5 54be
000002c0: 4684 c83e bc78 ec3e a503 b4bc 6684 ac3e
000002d0: dbd3 253f 4254 6c3e d525 15bc 5ec5 1ebf
000002e0: 9e20 543e 37f3 3b3e 4da8 843e 53a7 79bd
000002f0: af3f a63c 469b 57be 9080 95be 8be7 4d3d
00000300: 7266 34bf 96eb a83d 3cd7 ab3e e473 823e
00000310: 0cbd 753e ea3f 0abd 745a 06bf 113f be3e
00000320: e563 963e 9bd3 323d 2801 24be d555 9c3d
00000330: 3b0b 273e f9fa 863d f81e 9e3d c857 73bd
00000340: 57bd 703e 21cd babe db68 a0be e326 82be
00000350: a784 8abd 075c 273c 05d8 70be 1999 5a3d
00000360: dd42 04be 4e0a 333e 32e0 bf3e 99c9 76be
00000370: e032 53be 0ffa 38be 6f9a 28be 64b0 b13e
00000380: 9337 af3e 146f eabd 6872 82be 02da b7be
00000390: 1c29 983e 1208 b4be a2d3 abbe 13e7 1ebe
000003a0: f358 b6be 4ae9 523c a1ea 94be 20ec 153e
000003b0: 3406 08bd ddb4 a6be a8c2 773e d984 0dbe
000003c0: 52d1 b5be 95cf 52be 146d 523e 250d ac3e
000003d0: 4905 473d 1939 5d3e 8cf2 783e ffaa d6be
000003e0: 2c58 4cbd 9f33 8abe d7e1 adbc 19c7 cd3e
000003f0: 0aeb 0c3e f0c0 d5bd daef 5ebe e0f3 a7be

h.0.bias f4 [100]
0.21247926 0.19919802 0.16422547 0.05236293 -0.20593593 -0.11996335 0.31245044 -0.25461257
-0.3409222 0.1345306 -0.2714325 0.032371033 -0.044227827 0.20758303 -0.25255147 -0.17631447
0.055655114 0.090138346 0.007926146 -0.11453705 -0.30601 0.0026215934 -0.28220323 0.03549984
-0.11928007 0.2616791 -0.21948409 -0.2620183 -0.3375836 0.28788176 0.10586939 -0.12927851
0.11741134 0.29452643 0.20546584 -0.114616506 -0.1999399 -0.21229257 -0.31822032 -0.22207993
-0.26772776 0.2987041 -0.11081844 -0.16711272 0.0720547 0.33813217 -0.31811598 -0.0008979518
0.21200176 -0.1567396 -0.32150143 0.40890893 0.26906648 -0.29418704 0.2851215 -0.33893764
-0.22382951 0.10723825 0.101183966 0.081426434 0.104897104 -0.30239668 -0.21998584 0.4199384
0.37767383 0.17260188 0.04836944 -0.1822826 0.39546883 0.23081347 0.24947338 -0.24134876
0.29888 -0.05693264 0.3257068 -0.13513026 0.3186135 -0.029573172 0.36026073 0.11555461
0.12890856 -0.30538177 0.31795457 -0.15142457 -0.34800944 0.030263843 0.27259466 -0.3902757
-0.31887794 -0.2708493 0.16084263 0.06961187 0.25757885 -0.02964579 0.2591936 0.07449967
0.23910029 0.33177173 0.008806619 0.031613957
00000000: 2a94 593e 91fa 4b3e b92a 283e 837a 563d
00000010: dee0 52be 58af f5bd 81f9 9f3e 945c 82be
00000020: 5b8d aebe 64c2 093e 33f9 8abe 7d97 043d
00000030: 3d28 35bd a590 543e 6d4e 81be c88b 34be
00000040: 9ef6 633d 749a b83d aadc 013c 6792 eabd
00000050: 58ad 9cbe 0acf 2b3b f17c 90be 4868 113d
00000060: 1c49 f4bd cefa 853e 70c0 60be 4327 86be
00000070: c2d7 acbe 3d65 933e 0dd2 d83d 9661 04be
00000080: 5b75 f03d 2bcc 963e a365 523e 0fbc eabd
00000090: 0cbd 4cbe 3963 59be c6ed a2be ec68 63be
000000a0: 9d13 89be beef 983e c7f4 e2bd 991f 2bbe
000000b0: 6a91 933d a91f ad3e 19e0 a2be 8664 6bba
000000c0: fd16 593e 5880 20be d69b a4be 835c d13e
000000d0: 15c3 893e af9f 96be 72fb 913e 3c89 adbe
000000e0: 9033 65be ba9f db3d 8a39 cf3d e7c2 a63d
000000f0: 4bd4 d63d bdd3 9abe f843 61be 2a02 d73e
00000100: 775e c13e 8cbe 303e 091f 463d 4aa8 3abe
00000110: e47a ca3e 5e5a 6c3e f375 7f3e 2124 77be
00000120: cd06 993e 3332 69bd 0bc3 a63e 965f 0abe
00000130: 4f21 a33e 7043 f2bc 1874 b83e e5a7 ec3d
00000140: 9b00 043e 005b 9cbe f1ca a23e 0b0f 1bbe
00000150: 4b2e b2be e1eb f73c 8791 8b3e 37d2 c7be
00000160: f843 a3be c2ac 8abe eeb3 243e ab90 8e3d
00000170: 60e1 833e badb f2bc 06b5 843e 4893 983d
00000180: b5d6 743e fcdd a93e a349 103c a37d 013d

h.2.weight f4 [100, 100]
0.09326452 0.1428717 0.14493749 -0.008778224 0.20125774 -0.14927953 -0.08542163 -0.40254834
-0.09463692 0.08828064 -0.016879177 0.43593913 -0.27524054 0.059814543 0.355336 -0.02021799
0.035777733 0.041004065 0.08286849 0.39311433 0.030347062 0.078752436 -0.007175088 -0.01957391
-0.075624995 0.03951188 0.06449651 -0.042624213 -0.05218954 -0.12514447 0.098896034 0.04716003
-0.4173409 0.07767241 -0.053442888 -0.06744037 -0.06253996 -0.033911813 0.01367029 -0.021525968
0.031626523 0.37811956 0.03360925 -0.25797677 0.238006 -0.08506932 0.04618553 0.11820415
-0.08727874 -0.0061258436 -0.07708139 0.102315426 -0.068022914 -0.019820785 -0.12042428 0.0024060966
-0.05941626 -0.11330215 -0.2827898 -0.0244545 -0.04855263 -0.07074511 0.024388088 0.23232938
0.03685514 0.05580141 0.034737147 0.048318267 -0.09113138 -0.22935006 0.0076891547 0.029584408
0.024250858 -0.046926226 0.049098037 -0.0950132 -0.034355108 0.7488634 0.013466545 -0.05775888
0.11566803 -0.0257877 -0.2059049 -0.03887017 0.0765807 -0.30547252 0.0038511576 0.026034845
-0.038687944 -0.07123744 -0.1759742 -0.079890974 -0.044388033 0.06979467 -0.11005306 0.05868543
0.030178865 -0.02806964 0.13647905 0.26167172 -0.056572568 -0.050365653 0.0068643214 -0.005659318
0.03484751 0.08666587 -0.014725066 -0.03205129 -0.02669475 -0.068785764 0.030373657 0.04569322
-0.093143724 -0.017540276 0.056595016 0.029331421 -0.04649576 0.04646113 0.081945315 -0.08404165
0.02402593 -0.03879973 -0.09340143 0.010890186 -0.04606488 0.052615214 0.057163205 0.05060592
-0.0007684589 -0.090252556 -0.079293065 0.04143889 -0.07822063 -0.05670414 -0.03399179 -0.024747467
0.06606803 -0.00919807 0.039205577 0.09536032 0.0097925905 0.0022654056 0.05417931 0.05845816
0.09512935 -0.07528295 0.041541517 0.00023061037 0.035921108 -0.099283114 0.04104949 0.039444424
-0.027645875 -0.097833276 0.09039656 0.020928157 0.034687784 -0.0663138 -0.0886688 0.059483863
-0.04791088 -0.08928551 -0.0880598 0.047639012 0.049201455 0.071957804 0.04333948 -0.044603623
0.0063282372 -0.03445022 -0.07070502 -0.042143334 -0.016581237 -0.012778401 -0.019463433 -0.08494762
-0.037723947 -0.051974263 -0.030332804 -0.06748624 -0.04353223 0.06571589 -0.09742588 -0.06207917
-0.0006495118 -0.06011213 -0.023228502 -0.08123465 -0.040318348 0.019169962 -0.0037409067 -0.09354979
-0.0010427833 0.060904086 -0.09793805 -0.038251985 -0.08783908 0.017216861 0.0560287 -0.030603683
0.21494666 0.054352194 0.110893406 0.11857812 0.12326601 0.066821836 -0.115032524 -0.25784302
0.043106165 0.14837621 0.049180605 0.341463 -0.45788008 0.1784686 0.29182172 0.07831651
0.08335167 -0.1425424 0.2586259 0.50970846 -0.09066764 -0.070534125 -0.036447097 0.09022651
-0.029007543 0.04176989 0.09333225 0.04753686 -0.008262551 -0.15525132 0.25198087 -0.041151594
-0.5433051 0.014301791 -0.06228837 0.0533862 0.025263011 0.035709895 -0.0175125 -0.061965525
-0.08801341 0.33637726 -0.013385916 -0.24768129 0.15249051 -0.058027204 -0.0134938955 0.12320337
0.10935836 0.092350565 -0.1900859 0.09748968 -0.2933882 -0.082198456 -0.007958928 -0.059875857
00000000: 7801 bf3d f54c 123e 7e6a 143e 8ad2 0fbc
00000010: 8216 4e3e bcdc 18be 89f1 aebd d11a cebe
00000020: 00d1 c1bd 7bcc b43d 3346 8abc 6a33 df3e
00000030: 54ec 8cbe 1800 753d 9aee b53e 33a0 a5bc
00000040: ac8b 123d e1f3 273d f4b6 a93d 4846 c93e
00000050: 679a f83c f548 a13d 001d ebbb 7759 a0bc
00000060: 47e1 9abd 36d7 213d bf16 843d ba96 2ebd
00000070: b3c4 55bd df25 00be 018a ca3d e02a 413d
00000080: b5ad d5be b612 9f3d eee6 5abd 2d1e 8abd
00000090: f314 80bd 1de7 0abd 5af9 5f3c 3a57 b0bc
000000a0: d08a 013d e398 c13e daa9 093d 8815 84be
000000b0: d8b7 733e d338 aebd 0a2d 3d3d 0415 f23d
000000c0: 32bf b2bd 4dbb c8bb d9dc 9dbd c08a d13d
000000d0: 994f 8bbd 335f a2bc 01a1 f6bd 9aaf 1d3b
000000e0: 775e 73bd f50a e8bd d3c9 90be ce54 c8bc
000000f0: 1fdf 46bd d0e2 90bd 87c9 c73c c1e7 6d3e
00000100: 6af5 163d 0590 643d 8a48 0e3d 60e9 453d
00000110: 17a3 babd beda 6abe 4ef5 fb3b 005b f23c
00000120: bca9 c63c b735 40bd 061b 493d 4896 c2bd
00000130: f1b7 0cbd 83b5 3f3f c9a2 5c3c 9394 6cbd
00000140: 5ce3 ec3d ba40 d3bc bcd8 52be 5436 1fbd
00000150: 58d6 9c3d e566 9cbe b463 7c3b 0747 d53c
00000160: 4077 1ebd efe4 91bd 9532 34be e19d a3bd
00000170: 3ad0 35bd 82f0 8e3d 8063 e1bd 2260 703d
00000180: ab39 f73c 4df2 e5bc 2ac1 0b3e d6f9 853e
00000190: a3b8 67bd 374c 4ebd 1aee e03b cd71 b9bb
000001a0: 43bc 0e3d e07d b13d 6741 71bc 3748 03bd
000001b0: f3ae dabc 8ddf 8cbd 2dd2 f83c d028 3b3d
000001c0: 23c2 bebd a0b0 8fbc 2dd0 673d 7348 f03c
000001d0: 5772 3ebd 074e 3e3d f2d2 a73d 071e acbd
000001e0: 07d2 c43c 77ec 1ebd 4049 bfbd c06c 323c
000001f0: 87ae 3cbd 0d83 573d f723 6a3d 2748 4f3d
00000200: 6772 49ba 55d6 b8bd 6764 a2bd d3bb 293d
00000210: 2332 a0bd 9a42 68bd fa3a 0bbd 33bb cabc
00000220: ad4e 873d 80b3 16bc 0796 203d 454c c33d
00000230: 1a71 203c 3377 143b 20eb 5d3d d371 6f3d
00000240: 2dd3 c23d f32d 9abd 7027 2a3d 00d0 7139
00000250: 0322 133d f254 cbbd 8323 283d 7a90 213d
00000260: 9a79 e2bc d05c c8bd d521 b93d 8771 ab3c
00000270: c714 0e3d 88cf 87bd fd97 b5bd 5aa5 733d
00000280: 333e 44bd 52db b6bd b258 b4bd 2021 433d
00000290: 7787 493d 9d5e 933d bd84 313d 4ab2 36bd
000002a0: 1a5d cf3b ad1b 0dbd cbcd 90bd 7d9e 2cbd
000002b0: 60d5 87bc 805c 51bc c771 9fbc 05f9 adbd
000002c0: 6d84 1abd f7e2 54bd 807c f8bc 3a36 8abd
000002d0: da4e 32bd 0d96 863d 3887 c7bd ba46 7ebd
000002e0: 0044 2aba 2338 76bd b349 bebc 5a5e a6bd
000002f0: da24 25bd 530a 9d3c 002a 75bb 0897 bfbd
00000300: 00ae 88ba 9076 793d bf93 c8bd 1dae 1cbd
00000310: fae4 b3bd 600a 8d3c 5a7e 653d 93b4 fabc
00000320: fa1a 5c3e 68a0 5e3d 151c e33d 16d9 f23d
00000330: e472 fc3d e3d9 883d 2c96 ebbd 0004 84be
00000340: 1790 303d efef 173e 9a71 493d 3dd4 ae3e
00000350: 426f eabe 79c0 363e a869 953e 6864 a03d
00000360: 48b4 aa3d a3f6 11be 9d6a 843e 417c 023f
00000370: f5af b9bd 3274 90bd 8d49 15bd adc8 b83d
00000380: 3aa1 edbc e716 2b3d fb24 bf3d 03b6 423d
00000390: a75f 07bc 34fa 1ebe a303 813e 938e 28bd
000003a0: 0b16 0bbf 0f52 6a3c 1722 7fbd 7dab 5a3d
000003b0: 60f4 ce3c 8a44 123d 6076 8fbc 90cf 7dbd
000003c0: 6040 b4bd a439 ac3e 9a50 5bbc 2aa0 7dbe
000003d0: 7926 1c3e efad 6dbd 8015 5dbc 0c52 fc3d
000003e0: 47f7 df3d 4b22 bd3d e1a5 42be aba8 c73d
000003f0: fa36 96be aa57 a8bd 2a66 02bc 6340 75bd

h.2.bias f4 [100]
0.04177709 0.035864558 -0.04351748 -0.02681075 -0.09806635 -0.049914468 0.015381103 -0.07717196
-0.078930564 -0.06553296 -0.077275105 -0.040431608 0.041119408 -0.023357598 0.071416266 -0.097937755
0.028917842 -0.0633022 -0.06228113 -0.027116792 -0.1616362 0.06427028 -0.096607424 -0.08664032
-0.097861245 -0.07132923 -0.05506165 0.019285584 -0.06776405 0.10037277 0.049089078 0.07465997
-0.0028895526 0.014720866 -0.076313 -0.00020409822 -0.08156568 0.048266828 -0.13555554 0.21897404
-0.15081048 -0.026396215 0.025176669 -0.09356856 0.082205 -0.092207134 -0.0037396092 0.085209034
0.05411821 -0.0741531 -0.056646675 -0.05640484 -0.08279965 -0.029365003 -0.04227618 -0.08643935
-0.009775741 -0.001200564 0.01484103 0.099904366 0.07767554 -0.11646757 0.013022227 0.19285884
-0.09724419 -0.037735693 0.09080323 -0.042961963 0.03634373 0.037104942 -0.025495833 -0.057816923
0.031553164 -0.02514057 -0.032323774 -0.14461221 0.016074155 -0.07802885 -0.08391669 0.062484797
-0.082365945 0.08072923 -0.052116454 -0.037744597 -0.036829367 -0.100663684 -0.052317906 -0.028989196
-0.017986517 -0.08282031 -0.107904345 -0.08727251 -0.08457965 -0.042330544 0.077887 -0.0805723
-0.07128338 0.027154708 -0.053713247 0.0029747544
00000000: 741e 2b3d b7e6 123d 633f 32bd 38a2 dbbc
00000010: 03d7 c8bd 1d73 4cbd 0601 7c3c 550c 9ebd
00000020: 59a6 a1bd 2536 86bd 6942 9ebd 9d9b 25bd
00000030: d36c 283d 6f58 bfbc b142 923d 9793 c8bd
00000040: 1ce5 ec3c 95a4 81bd 801a 7fbd 0924 debc
00000050: f683 25be 23a0 833d 1dda c5bd 7b70 b1bd
00000060: 7a6b c8bd 0f15 92bd 5388 61bd cdfc 9d3c
00000070: e1c7 8abd 3d90 cd3d a111 493d 54e7 983d
00000080: a65e 3dbb ca2f 713c fd49 9cbd 3303 56b9
00000090: e80b a7bd 70b3 453d 12cf 0abe bb3a 603e
000000a0: 106e 1abe e03c d8bc 4d3f ce3c e0a0 bfbd
000000b0: 185b a83d 18d7 bcbd 3b14 75bb 1382 ae3d
000000c0: 0eab 5d3d 95dd 97bd 5806 68bd c308 67bd
000000d0: dd92 a9bd e08e f0bc ca29 2dbd 1d07 b1bd
000000e0: 6e2a 20bc 3e5c 9dba cb27 733c a99a cc3d
000000f0: 5a14 9f3d 8d86 eebd 2e5b 553c ca7c 453e
00000100: f627 c7bd be90 1abd 0bf7 b93d e2f8 2fbd
00000110: 2add 143d 5afb 173d a3dc d0bc 70d1 6cbd
00000120: e43d 013d 99f3 cdbc ef65 04bd 3915 14be
00000130: f2ad 833c 97cd 9fbd 83dc abbd 0ff0 7f3d
00000140: 7aaf a8bd 5e55 a53d 1078 55bd 149a 1abd
00000150: 64da 16bd c328 cebd 4d4b 56bd c07a edbc
00000160: 7658 93bc b29d a9bd f4fc dcbd eebb b2bd
00000170: 1838 adbd cb62 2dbd 3883 9f3d 1703 a5bd
00000180: 05fd 91bd 8d73 de3c 6c02 5cbd 19f4 423b

h.4.weight f4 [1, 100]
0.47405484 0.034762528 0.47385836 -0.19042929 -0.04955262 0.08050533 -1.6735545 0.040546574
0.027814196 0.32349366 -0.55710965 -0.086189866 -0.06988746 -0.037710555 -0.09095735 0.5237759
-1.0486966 -0.008198857 0.4238257 -1.0691131 0.49425635 0.071352206 -0.038051475 0.505476
0.05436368 0.37123048 -0.08899559 0.37865067 -0.05420611 -1.1701462 0.42045176 -0.035616748
0.4888238 0.39852482 0.45255524 -0.017109383 0.57400584 -0.022736907 0.47981054 -0.5994279
0.5217434 0.05784103 0.2007769 0.43902975 0.07074638 -0.022491897 0.095353484 -0.6147809
-0.67003 -0.00679183 0.38887736 0.094339125 -0.09614926 0.0638562 0.35713744 -0.026466573
-1.2556868 0.46565154 -0.4943439 -1.0329245 -0.09067312 0.3620523 -0.085367404 -0.569471
0.5667982 -0.025588326 -0.9176859 -1.1599172 0.3579706 -0.09839382 -0.015803313 -0.039749704
-0.003669971 0.48045877 0.09157751 0.48219 -1.2123334 0.0750465 0.46123198 -0.05831422
-0.051919688 -0.8705059 -0.07783444 0.48831293 0.44973055 0.04198656 -0.30041492 -1.0723794
-1.0896676 0.034835875 0.40480134 0.48889247 0.07831883 0.29749545 -1.0500929 0.08542483
0.03564992 0.2351135 -0.008462995 0.17220178
00000000: 51b7 f23e 2763 0e3d 909d f23e e5ff 42be
00000010: b0f7 4abd fadf a43d 0937 d6bf 2a14 263d
00000020: 99da e33c f6a0 a53e bd9e 0ebf 5084 b0bd
00000030: 2821 8fbd 6276 1abd d947 babd 2d16 063f
00000040: b13b 86bf 8054 06bc afff d83e b3d8 88bf
00000050: 2b0f fd3e 1b21 923d dddb 1bbd e066 013f
00000060: 73ac 5e3d ec11 be3e 5243 b6bd 80de c13e
00000070: 3a07 5ebd 5ac7 95bf 7445 d73e dee2 11bd
00000080: 1d47 fa3e 720b cc3e 52b5 e73e fa28 8cbc
00000090: 0cf2 123f c042 babc baa9 f53e 1b74 19bf
000000a0: fa90 053f b7ea 6c3d 7698 4d3e 82c8 e03e
000000b0: 7ae3 903d ed40 b8bc b048 c33d 4862 1dbf
000000c0: 1687 2bbf 008e debb ef1a c73e df34 c13d
000000d0: e7e9 c4bd 0ac7 823d b8da b63e 6dd0 d8bc
000000e0: 58ba a0bf e169 ee3e a51a fdbe df36 84bf
000000f0: d4b2 b9bd eb5e b93e 1bd5 aebd dac8 11bf
00000100: b019 113f 9c9e d1bc 77ed 6abf 2b78 94bf
00000110: ec47 b73e b382 c9bd f375 81bc 96d0 22bd
00000120: e583 70bb b1fe f53e fd8c bb3d 9ce1 f63e
00000130: be2d 9bbf fbb1 993d 9926 ec3e e4da 6ebd
00000140: bda9 54bd 7ad9 5ebf aa67 9fbd 2704 fa3e
00000150: 1543 e63e 19fa 2b3d fccf 99be ba43 89bf
00000160: 3a7a 8bbf 10b0 0e3d 1f42 cf3e 1d50 fa3e
00000170: 9f65 a03d 5351 983e 7269 86bf 37f3 ae3d
00000180: a705 123d 98c1 703e 60a8 0abc aa55 303e
