logs/PointMaze-Right/airl_sac/seed0-20231226-1522/model/step575000/disc.pth (torch, 90839 bytes, 10 tensors)

g.0.weight f4 [100, 6]
000000 04 59 0f 3f 8a 34 e7 3e b4 30 ab be 33 fd 28 bf
       0.559952 0.45157272 -0.33435595 -0.6601135
000010 04 ac 03 3e 3c b9 43 be 35 05 bc be dd 2f 0b 3e
       0.12858588 -0.1911363 -0.36722723 0.13592477
000020 b9 f2 94 3e 4d be 33 be a9 f7 3c 3e 07 70 ad 3e
       0.29091433 -0.17553063 0.1845385 0.33874533
000030 64 e8 67 bf b4 1d af bd 6d 22 83 be 84 1c 95 3e
       -0.90588975 -0.08550587 -0.25612202 0.29123318
000040 29 99 dd 3d 68 36 4f 3e fc 2a a5 bd 0f ef 2d be
       0.108202286 0.20235598 -0.08064839 -0.16985725
000050 87 bd 65 be f2 f0 86 3e e8 91 af 3e a0 a4 b4 3e
       -0.2243558 0.26355702 0.34291005 0.3528185
000060 3d c2 9b be 24 5d 7c bd 76 33 e6 bc 78 18 44 be
       -0.3042163 -0.061612263 -0.02810071 -0.19149959
000070 6a 56 80 be f9 03 ac 3e 5d 5e 07 3c 36 4b ca be
       -0.2506593 0.3359678 0.008262244 -0.39510506
000080 bb 63 0c be db b9 5b be 7a e8 a3 3c c9 fb dc 3a
       -0.13709919 -0.21457617 0.020008314 0.0016859706
000090 ff 64 99 3c 47 5e a7 be f7 5a 08 be a4 fb 8b be
       0.018724917 -0.32689115 -0.1331595 -0.27340424
0000a0 4e 81 f9 bd 79 a2 08 3e 40 16 0e be e5 1e dc be
       -0.12182866 0.13343228 -0.13875675 -0.4299232
0000b0 31 cc 27 3d 4f 02 03 3d 3d 50 e0 3d aa 7f 9f be
       0.040966216 0.031984624 0.10952804 -0.31152087
0000c0 9e 29 2d 3e b1 7c 81 3e ac 50 83 3e 52 dd 6d 3e
       0.16910407 0.25290444 0.25647485 0.23228958
0000d0 2e 81 19 be 05 8a e2 bd 2e ca d2 3d c3 01 06 bf
       -0.14990684 -0.110614814 0.10292469 -0.5234644
0000e0 06 54 72 3e cd 16 17 be 94 f0 5e be af 8a 86 bb
       0.23664865 -0.14754792 -0.21771461 -0.004105888
0000f0 66 91 14 3f 07 4e e3 3e 21 52 92 3e dd bd 3f be
       0.5803436 0.44395468 0.28578284 -0.18724771
000100 27 c3 9f 3e d5 f4 aa bd 1b e8 d0 3e b6 7a ff 3e
       0.31203577 -0.08347479 0.40802082 0.4989831
000110 81 d8 9a 3d 2e fd d7 be 65 48 9a 3e 53 26 1b be
       0.07560826 -0.42185348 0.30133358 -0.15151338
000120 a3 8d 09 be 64 01 9d be e1 18 9a 3e 69 49 da bd
       -0.13432936 -0.30665123 0.30097106 -0.10658533
000130 79 49 ab 3e 10 96 47 3d c7 43 a2 3e 45 77 06 bf
       0.33454493 0.048727095 0.31692335 -0.5252574
000140 9d 67 b4 be 93 0a dc be 34 72 26 be b4 59 15 3e
       -0.352353 -0.42976817 -0.16254503 0.14585
000150 f7 b0 31 be 4a 20 c4 3d d7 e4 85 3e 27 2a 8b 3e
       -0.17352663 0.09576471 0.26151153 0.27180597
000160 b2 83 8f bd d7 1d 80 3e 44 e4 2a 3f 91 dc 3e 3e
       -0.07007541 0.25022766 0.66754556 0.18638827
000170 6e 0a 78 be 91 77 9a be f9 cb df bc 23 b7 84 3c
       -0.24222729 -0.30169347 -0.027318941 0.016200608
000180 dc ce c5 be 29 eb 9d be 8c df 80 3e 2f ea 7f 3e
       -0.38634384 -0.30843475 0.25170553 0.24991678
000190 6c a9 95 be 15 82 a0 3e 23 9c 91 3e 4b ab a3 3e
       -0.2923082 0.31349245 0.28439435 0.31966624
0001a0 bc aa 18 3d b0 e5 f9 3d d4 b7 22 be 15 af b8 3e
       0.0372722 0.122020125 -0.15890437 0.36071077
0001b0 68 1a f7 be 1a 75 00 bf e8 3a a5 3e 0d 06 ca 3e
       -0.48262334 -0.5017868 0.32271504 0.3945774
0001c0 46 03 78 3e 3f f7 80 3e 71 c8 b4 3d 52 69 16 bf
       0.24219999 0.25188634 0.08827294 -0.58754456
0001d0 a5 c9 b8 3e cc 0d d9 3e 3e 3a eb 3e b6 7c 4c 3d
       0.36091343 0.4239334 0.45942873 0.04992362
0001e0 9b 54 81 3d 1c 93 8e 3d fc 54 0b be 1a 43 4a 3e
       0.06314965 0.06961653 -0.13606638 0.1975216
0001f0 e8 f1 54 3d f8 16 92 3e 7b 0b f6 3e 40 36 bc 3d
       0.051988512 0.2853315 0.48055634 0.09190035
000200 52 28 c7 be a9 6a be 3e 71 5f de bd 98 46 a2 3e
       -0.3889795 0.3719075 -0.10858048 0.31694484
000210 38 fc da 3e 0b d1 cb 3e 8f be c6 bc e3 15 85 be
       0.42770553 0.39807925 -0.024260787 -0.2599326
000220 2e 51 5f 3e d4 bf e3 bd fe 87 01 3e 73 67 f4 be
       0.21808311 -0.11120573 0.12649533 -0.47735175
000230 36 67 c8 bd 16 49 be 3d af 6b 0c be 03 e4 39 3e
       -0.09785311 0.09291284 -0.13712953 0.18153386
000240 8b 04 c4 3e 23 55 3e be a8 94 08 3e 11 f9 06 be
       0.38284716 -0.18587165 0.13337958 -0.13180949
000250 0b fa 55 bd 46 dc 9c bd 3a c0 2d be 3d 60 dd 3e
       -0.052240413 -0.07659201 -0.1696786 0.43237486
000260 a0 79 75 be c4 73 cd 3e 64 88 89 3e a3 e4 c2 3e
       -0.23972178 0.40127385 0.2686187 0.3806506
000270 e1 f1 61 bf 93 e3 c8 bd 3b ca 78 3e 2e 2c 8e 3e
       -0.882597 -0.09809031 0.24295895 0.2776808
000280 fe fe d5 be 24 6f 14 3e e3 f8 e2 3c 84 7b c0 be
       -0.41796106 0.14495522 0.027706569 -0.37594235
000290 4e a7 ae bd 58 de c8 3e aa 45 ea 3e dc 81 e9 bc
       -0.085280046 0.39232135 0.45756274 -0.028504305
0002a0 8d af 2e bf 73 a7 5a 3d 14 06 83 be bc 7a d0 3d
       -0.6823662 0.05338235 -0.25590575 0.1017966
0002b0 d5 03 8f be 92 1b 92 3e 94 9c 8b be 3b 91 c8 be
       -0.2793261 0.2853666 -0.27267897 -0.39173302
0002c0 e7 06 3f be c0 fa bd be 15 ec 05 bd 0d 4f c8 bd
       -0.18654977 -0.3710537 -0.03269585 -0.09780703
0002d0 6a c8 27 3f 5d d5 03 3f 7b a5 d0 3e c2 99 80 be
       0.6554018 0.5149744 0.40751252 -0.25117308
0002e0 ef 50 2d 3e ef 4a 8b 3e db a9 c2 3d 16 9b 58 be
       0.16925405 0.27205607 0.095050536 -0.2115291
0002f0 e4 f7 99 3e 2e eb d5 3e 26 7c 6e be 2b 66 88 3d
       0.30071938 0.4178099 -0.23289546 0.06660112
000300 a0 a0 b3 3e 73 6f 90 3d af 02 39 be d0 9a c1 be
       0.35083485 0.07052507 -0.1806743 -0.37813425
000310 3e 36 0e 3d 7f 22 05 3e f9 88 a8 bd 47 3f f1 bd
       0.034719698 0.1300144 -0.082292505 -0.11779647
000320 62 4c 03 3e 9e f8 16 3f 02 e2 f3 bd 67 46 35 3e
       0.12822106 0.5897311 -0.11908342 0.17702638
000330 aa 90 f0 3e 7e 51 80 bd fd 18 b4 3e 5f f8 05 bf
       0.4698537 -0.062655434 0.35175315 -0.5233211
000340 08 1a db 3e 10 8c b3 3d a3 44 00 3e 08 ae 9c be
       0.42793298 0.08766949 0.12526183 -0.30601525
000350 04 21 95 be 34 05 ee bc 10 49 05 be e6 46 71 bd
       -0.2912675 -0.029055215 -0.13016152 -0.058905505
000360 d2 ec a1 bc 8f a0 83 3d a6 ed 61 be fe 27 41 3e
       -0.019766245 0.064271085 -0.22063312 0.18862912
000370 ea 68 1d be 9c 93 d1 bd 6c 2d 8a 3d f1 55 e4 be
       -0.15372053 -0.102332324 0.06746945 -0.44596818
000380 f4 e0 73 bd 10 82 c4 3e db 58 d5 3e 38 6c a4 be
       -0.059540704 0.3838048 0.41669354 -0.32113814
000390 47 c0 c0 be 6f be cc be 39 c9 19 bc 11 b0 8d be
       -0.37646696 -0.3998904 -0.009386354 -0.2767339
0003a0 53 3e 7a 3d ea 96 cf 3e be 3e 25 3d 6f e8 a6 be
       0.061094593 0.40544826 0.04034304 -0.32599208
0003b0 fd 3e ca 3e ff 64 22 be b5 87 b5 be 8d b9 9b 3c
       0.3950118 -0.1585884 -0.354551 0.019009376
0003c0 65 62 34 bd 87 d4 3d be 26 95 97 be a1 35 9d 3c
       -0.04403915 -0.18538104 -0.2960598 0.019190611
0003d0 03 bd 62 be 4f 4e b2 3e 99 63 0b 3f 70 fe e3 3e
       -0.22142415 0.3482537 0.5444885 0.44530058
0003e0 19 63 53 3e 6d b0 0b 3d 2e 43 5f 3e 70 5f 60 3e
       0.20643272 0.0341038 0.21802971 0.21911407
0003f0 fa f7 20 3e c7 f0 1d 3d 2e be 95 3e 4b 5d 20 be
       0.15719596 0.0385597 0.29246658 -0.15660588

g.0.bias f4 [100]
000000 41 95 ec 3d 64 da 10 3e 3d 52 13 bd ee 1a 34 3e
       0.115519054 0.1414581 -0.0359671 0.17588398
000010 73 95 74 3d 58 85 2e be 9c b1 c4 be 10 54 9f 3e
       0.05971284 -0.17043054 -0.38416755 0.31118822
000020 f0 a6 ca be e2 aa c8 3e fd 3c 90 be 2b a7 0f be
       -0.39580488 0.39192873 -0.2817153 -0.14028613
000030 a4 39 bb be 72 9d be 3e 08 f5 cd be 10 83 d1 3d
       -0.36567414 0.37229496 -0.40226007 0.10230076
000040 a6 d4 93 be 03 a7 c8 3c 2a 34 0a 3e 87 44 3b be
       -0.28873175 0.0244937 0.13496462 -0.1828786
000050 46 0b 7d be 96 9d 6a be 0a a7 bb bd 38 10 b0 3e
       -0.24711332 -0.22911677 -0.091627195 0.34387374
000060 11 ac c5 be 8a e9 a7 3e 3b 49 70 3e 4d 8f 6b bc
       -0.3860784 0.32795364 0.23465435 -0.014377427
000070 cc b3 88 3e 98 44 22 be b7 02 3a 3e e1 8b b3 3e
       0.26699674 -0.15846479 0.18165098 0.35067657
000080 99 31 86 be f5 63 7b 3e a5 1d bc 3c 0d 73 71 be
       -0.26209715 0.2454985 0.022963354 -0.23579045
000090 a9 7d 7c be c8 8d 86 3e 36 74 c6 be 4b a5 51 bd
       -0.2465731 0.26280046 -0.38760537 -0.051183026
0000a0 77 cf 89 3d 97 1e 91 be b0 bb 6f 3e e2 9f 32 3e
       0.06729024 -0.2834365 0.23411441 0.17443803
0000b0 56 1c 06 3e 51 f2 ce 3d f8 ef c7 3e f7 f9 93 be
       0.13096747 0.10104812 0.3905027 -0.28901646
0000c0 8b 2b 9b bd 5f 8d 36 bb 0b 8f 24 bd a3 b7 31 be
       -0.075766645 -0.002785526 -0.04017548 -0.17355208
0000d0 b1 47 1d be 63 f7 52 be 6c d1 14 3e 97 f4 c5 be
       -0.1535938 -0.20602183 0.14533013 -0.3866317
0000e0 b4 57 99 be e8 f2 a9 3e 8b 7f 8e 3d 5b 32 4a be
       -0.29949725 0.33193135 0.06957921 -0.19745772
0000f0 8c 87 a9 3e ad db 5b 3e 36 ac 84 3e 02 4a a3 3d
       0.33111227 0.21470518 0.25912637 0.079731
000100 78 fa 6c 3e 07 68 a6 be b4 74 bb be c1 ea db 3d
       0.23142421 -0.32501242 -0.36612475 0.10738135
000110 6d 27 a7 be 1f 61 8e 3e fe 36 97 3e 60 fc 9d be
       -0.32647267 0.27808473 0.29534143 -0.3085661
000120 b1 48 bf 3e 50 14 6b 3e 09 df 98 3e 80 05 9a be
       0.37360147 0.22956967 0.29857662 -0.3008232
000130 c0 52 aa 3d eb ad 52 3e 8d 38 a5 3d ed 48 a5 3d
       0.083165646 0.20574157 0.08067427 0.0807055
000140 4f 23 d7 3e 9c b4 27 3c e2 9e bc be cd cc 7b 3e
       0.42019126 0.010235932 -0.36839968 0.24589844
000150 ac a0 da 3d 7d 09 46 be c6 f0 cc be 9b fb 18 3e
       0.10675177 -0.19339557 -0.40027446 0.1493973
000160 5d 27 a9 3e 0e 18 c5 bd 5e 37 e2 3e ef c0 51 3d
       0.33037844 -0.09623729 0.44182867 0.051209386
000170 b0 30 c9 be 3e ec 85 3e fc d3 0d 3e 64 dc 1b be
       -0.39294958 0.261568 0.13850397 -0.15220791
000180 3e f9 8a 3e f4 65 2e 3e c1 c6 c1 be 56 fe ba be
       0.27143282 0.1703108 -0.3784695 -0.36522168

g.2.weight f4 [100, 100]
000000 07 58 c2 3d 28 36 af bc 9f 0b c2 be ce a7 9a bd
       0.09489446 -0.021388128 -0.3789949 -0.075515375
000010 b0 6a 92 bd 1a 93 b9 3c 1a ab d7 bb c1 73 e6 3d
       -0.07149255 0.022653151 -0.006581676 0.11252547
000020 93 e8 de bc b5 f6 8d bf ff 74 81 bb 9e 72 00 3d
       -0.02721051 -1.1090914 -0.0039507146 0.031359307
000030 60 32 58 3d 89 28 3f bf b0 26 61 bd 4c b9 e6 3d
       0.052782416 -0.74671227 -0.054968536 0.11265811
000040 0d a9 1d 3c de 9b 93 bc 59 2c b0 bf 4e a8 ab bd
       0.009622824 -0.01801866 -1.3763534 -0.08381711
000050 ad 34 eb 3c f0 1a 2b 3f 44 41 f9 3d 91 dd ab 3e
       0.028711641 0.6683798 0.121706516 0.3356748
000060 80 61 c1 bd 62 1f 31 3d e0 74 bc be a2 70 2b 3e
       -0.09442425 0.04324282 -0.3680792 0.16742185
000070 1f 28 e6 be 5a dc ca 3d 4e 93 0a 3d 55 35 20 3d
       -0.44952485 0.0990531 0.033831887 0.03911336
000080 f8 27 70 3c 4f 45 2a bd 21 ca b4 3d 1a c3 3c 3d
       0.014657967 -0.041570004 0.088276155 0.0460845
000090 a7 cb f8 3c 4a d4 40 3d 00 68 a9 3a 80 31 98 3b
       0.030370547 0.047077455 0.0012924671 0.0046445727
0000a0 00 6f 8e bd 73 16 8a 3c da d0 b0 3d fa e3 b3 bf
       -0.06954765 0.016856408 0.08633585 -1.4053948
0000b0 0d bf 49 bf 83 dd 74 3d 73 4c c2 3d da b7 a0 bd
       -0.78807145 0.059781563 0.09487238 -0.07847567
0000c0 db 8f 17 bf 96 de f7 3d 91 6a 5c bb a0 8e 61 bd
       -0.5920388 0.12103002 -0.0033632854 -0.05506766
0000d0 4b 9d 79 3c 8a 54 98 bd 6c 48 c2 be a2 42 78 3d
       0.0152352555 -0.074379995 -0.37945879 0.06061042
0000e0 c0 88 4d 3d b9 7e b2 bb 32 eb bd 3d 61 dd 68 bf
       0.050179243 -0.0054472354 0.092733756 -0.909628
0000f0 be d7 67 bf af 31 af 3d 29 9a 62 3d fa a2 ee 3d
       -0.9056357 0.08554398 0.0553228 0.11652179
000100 51 9b 58 3e c0 35 7b bf 5d b1 96 3d 1d 9c 44 be
       0.21152999 -0.9812889 0.07358048 -0.19200177
000110 67 d8 bc bd a5 d8 33 3e 4b 19 85 bf 50 94 71 bd
       -0.09220963 0.17563112 -1.0398344 -0.058979332
000120 88 ca 1d 3e 75 f0 fd be 1f 9c c5 bc 80 7d 09 3d
       0.15409291 -0.49597517 -0.024122296 0.03356695
000130 ff 4d 35 bf cb c9 8e be 09 3c e9 bd 2b da f3 bc
       -0.7082214 -0.2788833 -0.11388404 -0.029767117
000140 de 29 a0 3d e0 ca 24 bd ed 1f 99 3d e5 a4 01 3c
       0.078204855 -0.04023254 0.074767925 0.007912849
000150 ee 65 86 bd 27 3a b4 bd fd aa 81 bd 5e 55 73 39
       -0.0656241 -0.08800154 -0.063314416 0.00023206088
000160 4a 95 94 bc 86 e6 6a be af 8b 07 3d b0 0b 35 be
       -0.018137593 -0.229395 0.033092197 -0.1768024
000170 e3 ba 0c bd 92 91 2f bc 97 09 89 3d 17 a9 98 bd
       -0.034357917 -0.010715859 0.06691282 -0.07454126
000180 ca f8 56 bf 97 d7 92 bf 3d db 8e bd 5d 78 86 bd
       -0.8397337 -1.1472043 -0.0697541 -0.06565926
000190 c9 02 a4 3d 51 c4 60 bd 62 ee 76 be a1 f9 01 3c
       0.08008344 -0.054874722 -0.24114373 0.007933051
0001a0 c3 23 c0 3d 7a c3 58 3d d0 3c 14 bd 5d 6a ec 3d
       0.09381821 0.052920796 -0.036190808 0.11543725
0001b0 9a a1 8c bd a7 f3 8b bf 51 2f 9d 3d 74 fc d8 bd
       -0.068667606 -1.0933732 0.076750405 -0.105950266
0001c0 a5 0a c5 3d 0f 94 c8 be 40 5a d7 3c 18 dc 0f bd
       0.09621171 -0.3917546 0.026288152 -0.035122007
0001d0 2d 4b bc bc 3b 37 0f be 52 e5 aa bf 0c 27 9a bc
       -0.022985065 -0.13985913 -1.3351233 -0.018817447
0001e0 78 03 98 bd 81 96 02 3f bb ca 6c 3d a1 44 10 3e
       -0.074225366 0.510109 0.057810526 0.1408868
0001f0 b7 e3 0c bd 52 8f 62 3c 0b 51 72 be 58 e3 94 3d
       -0.034396853 0.013828116 -0.23663728 0.07269925
000200 20 87 b0 be 67 82 52 3d 55 d7 8f 3d 22 cf a5 bd
       -0.34478092 0.051393893 0.07023493 -0.08096148
000210 6a a7 92 3d 96 fd 59 3d a5 65 39 3e 17 19 34 bd
       0.07160838 0.053220354 0.1810518 -0.04396924
000220 a3 0e 60 bd f2 08 2e 3a a0 7e a9 bd 88 04 b9 bd
       -0.05470146 0.0006638906 -0.08276105 -0.090340674
000230 78 11 8a 3d c6 ea 62 3d e2 4d 71 3d 7a 4d 8f bf
       0.06741613 0.05539968 0.058912165 -1.1195519
000240 12 0c 74 bf 41 d2 aa bc 7c df db bc cb c3 a0 3d
       -0.9533092 -0.02085221 -0.026839964 0.078498445
000250 20 a0 29 bf de 1d a3 3d cc c7 92 bd 58 fe c7 3d
       -0.66259956 0.07964681 -0.071670145 0.09765309
000260 83 68 2b bd 93 97 b1 bc 08 19 77 be ac 1c 05 3d
       -0.041847717 -0.021678722 -0.24130642 0.032498047
000270 e0 6b b8 bc 17 55 40 3e 86 27 12 3e 30 56 70 bf
       -0.022512376 0.18782459 0.1427289 -0.9388151
000280 22 f4 39 bf 78 a9 0f 3e 64 62 42 3e 89 27 1c 3d
       -0.7263814 0.14029491 0.18982846 0.03812364
000290 f5 b1 2d 3e e9 03 81 bf 67 10 7c 3c 46 85 c9 bd
       0.16962416 -1.0079318 0.01538477 -0.09839873
0002a0 9a 2d 4e ba f8 94 9c 3e b6 d3 43 bf 24 a7 a4 bd
       -0.00078650715 0.30582404 -0.7649492 -0.08039692
0002b0 a3 07 cd 3d ba b6 10 bf cc 83 53 3d 27 fe b0 3c
       0.10011222 -0.5652882 0.051639363 0.021605564
0002c0 6a 47 16 bf 20 55 4b be 0d b2 ba bd 32 13 21 be
       -0.5870272 -0.19856691 -0.09115992 -0.15729979
0002d0 e7 66 af 3d ee ab 91 3d fd 71 84 bd 30 33 1e 3d
       0.08564549 0.07112871 -0.06467054 0.038623035
0002e0 a0 77 6a 3d 20 ef 9f 3d fa 7d bd bc 4e 5c fc bb
       0.05724299 0.07809281 -0.02313136 -0.0077014333
0002f0 ec 4d 7e 3d 14 e1 76 be ba 34 0a 3e 43 1c 2a bd
       0.06208603 -0.24109298 0.13496676 -0.04153086
000300 e7 bc c2 bb b9 2e 5a bd a3 de 92 3d 33 88 c3 3b
       -0.005942929 -0.053267214 0.07171371 0.005967164
000310 5f 52 2a bf 64 a7 82 bf 47 42 e0 3c 93 ff 7f 3d
       -0.6653194 -1.0207334 0.027375354 0.062499594
000320 36 d4 bb bd ef 28 87 3d bb 6e ca bd 5e 29 44 bc
       -0.091713354 0.06599604 -0.098844014 -0.011972753
000330 40 11 39 3d 12 18 89 bd 5b 75 b2 3d f9 ce 5f 3d
       0.045182467 -0.06694044 0.0871379 0.054640744
000340 7a cd 8c bc 69 30 49 bd 83 77 54 bd d0 7d d1 3b
       -0.017187823 -0.049118433 -0.051871788 0.006393172
000350 f3 2a 43 bc ec 74 71 bc e0 e6 d0 3c 2a 08 2d 3c
       -0.011912095 -0.014737349 0.025500715 0.0105610285
000360 d3 24 22 bd 02 e1 71 bd df ea cc bd dd b4 37 bc
       -0.0395859 -0.059052475 -0.100057356 -0.011212555
000370 73 c1 13 bd b3 12 28 3d 1a f2 40 3d a3 de 82 bd
       -0.03607316 0.041033458 0.047105886 -0.06390121
000380 60 39 74 3d 90 8c 26 3c 8e 4b d2 bd e5 50 f4 bc
       0.05962503 0.010165349 -0.10268317 -0.02982373
000390 dc 6d 90 bd a5 46 8c bd 6f bf b1 bc e7 bf 84 3c
       -0.07052204 -0.06849412 -0.021697728 0.016204787
0003a0 9a ad 9c bb 71 f2 04 bc 5a 94 c9 bd 88 23 c8 3d
       -0.004781437 -0.008114443 -0.09842749 0.09772402
0003b0 cd 21 96 bc 93 90 98 3d 18 ec bc 3d da bc 3d bd
       -0.018326664 0.0744945 0.09224719 -0.04632268
0003c0 ab 17 a7 3d d7 d2 32 bd 26 c1 ee bc 0c 4c 61 3b
       0.08158811 -0.043658104 -0.029144835 0.0034377603
0003d0 22 cb b9 bd dd f1 02 bd 6f 61 be 3a 20 1f 09 3d
       -0.09071948 -0.03196894 0.0014524887 0.03347695
0003e0 3a 40 68 3d 45 9b 91 bd 30 17 9f 3d cd d9 77 3b
       0.056701876 -0.071096934 0.077680945 0.0037819028
0003f0 40 c6 9d bd 33 01 a9 3b 74 1d 19 3d dd 63 61 bd
       -0.07703829 0.0051576137 0.037381604 -0.055026878

g.2.bias f4 [100]
000000 34 a3 9e 3d 5a 29 58 3c e7 7f 7d 3d 41 66 04 bd
       0.07745972 0.013193453 0.061889555 -0.03232408
000010 c2 b0 84 3c f4 73 a5 3c 40 d0 a2 bc e9 81 da 3d
       0.016197566 0.020196892 -0.019874692 0.1066931
000020 80 bc 95 bd ce 77 da 3a 22 5f 8b 3c db 4f b3 bb
       -0.07311344 0.0016667785 0.017013136 -0.005472166
000030 08 f8 bd 3c b3 06 60 3c 55 1d ad bc 07 59 92 3d
       0.02318956 0.013673472 -0.02113215 0.07145887
000040 83 e6 1f bd c7 9f 87 bd 25 ec 9a bd e8 6c 4e 3d
       -0.039038192 -0.06622272 -0.07564572 0.05039683
000050 1f 01 b1 bd ec 55 53 3d 79 c8 29 3c 0e b7 ae 3d
       -0.08642792 0.051595613 0.010362738 0.08531009
000060 a7 12 af bd 0c 08 c9 bd 56 ba 97 3d 43 a8 cb bd
       -0.085484795 -0.09815988 0.07408588 -0.09944203
000070 e2 e9 5a 3d 1c b4 ef 3d 36 27 b5 bd 3f 98 67 3c
       0.053445704 0.11704275 -0.088453695 0.014135419
000080 8d 48 37 bd 27 26 5f bd 4c 48 b0 bd b8 8d 0a b8
       -0.044746924 -0.054479744 -0.086075395 -3.303375e-05
000090 4a 4e 26 bd 73 8e 8c 3d 1b b2 ee 3c 17 5d 0e bd
       -0.040602006 0.068631075 0.029137662 -0.034756746
0000a0 c7 e9 fd 3c 88 ef 9e bd b3 81 9c bd 2e 37 40 bb
       0.030995263 -0.07760531 -0.07641926 -0.0029329765
0000b0 e9 9c ca bc 25 67 9e bd f4 e3 c7 bd 83 4e 84 3c
       -0.024733024 -0.07734517 -0.097602755 0.016150719
0000c0 74 dc 82 bd ca a1 84 bd 35 8d 5b bc 45 68 ca bc
       -0.06389704 -0.06476171 -0.013400366 -0.024707923
0000d0 26 19 fc 3c a3 da f3 3d f9 a7 87 bd b9 c1 38 bd
       0.03077371 0.11906936 -0.06623835 -0.045106623
0000e0 0d 95 b7 bc 6b b0 40 3d 0d da 4c bc 39 f1 3e bc
       -0.02240994 0.047043245 -0.012503159 -0.011654192
0000f0 36 c3 c1 3b ef d1 ca 3b 61 45 8c bd 6f 3a 09 3d
       0.0059131635 0.006189577 -0.068491705 0.033502992
000100 eb f3 5d bd eb a7 4d bc 59 80 b0 3c 7b 57 24 be
       -0.054187696 -0.012552242 0.021545576 -0.16048996
000110 03 b7 36 bc 6f b8 62 bd 5d 92 f8 bc 67 5b 6c bb
       -0.011152032 -0.05535167 -0.030343229 -0.0036065222
000120 c0 08 ac bc d1 16 24 3d a3 d5 3d 3d 70 9d a2 bd
       -0.021000266 0.040060822 0.046346318 -0.07940185
000130 93 dc 58 3d f7 5e 3d 3d 33 c4 aa bb bd 13 e6 bc
       0.05294473 0.046233144 -0.005211377 -0.028085584
000140 58 52 b7 bd cd 98 fb bd 8a a2 8d bd 53 ab 3c 3d
       -0.08951253 -0.12285004 -0.069157675 0.046061825
000150 4f 11 67 bd 14 5b e1 3c 4c 4c 14 bd d0 62 56 bd
       -0.05641299 0.02750925 -0.036205575 -0.05234033
000160 4e 1a 9b bd a7 2b 3e 3c a6 15 3f 3d 5a d2 2e bd
       -0.075733766 0.011607087 0.046651505 -0.042681076
000170 0d 43 1c bc 69 da be bb a0 74 1e 3d 97 2d b6 bc
       -0.0095374705 -0.0058243764 0.03868544 -0.022238536
000180 4c c4 40 3d 84 6d 31 3d 7e 2a 3e 3c f7 3a 07 bc
       0.047062203 0.043317333 0.011606811 -0.008253804

g.4.weight f4 [1, 100]
000000 49 78 36 3f b8 ba 70 3f 85 68 b7 3d 0a c5 10 bf
       0.7127729 0.9403491 0.089554824 -0.5655066
000010 5a 30 59 3c 94 f3 82 be 97 5e c9 3d cd af 78 3f
       0.013256157 -0.2557646 0.09832495 0.9714325
000020 f3 e9 22 bd a3 83 85 bf 67 18 3d bf 1c 94 35 3f
       -0.039773893 -1.0430797 -0.7386536 0.7092912
000030 0b 8f 3a bf 05 cd 98 bd 5b e2 20 be 46 e3 14 3d
       -0.72874516 -0.07460979 -0.15711348 0.036349557
000040 92 c9 eb bf e8 ed 46 bf 67 56 b3 39 4d 34 38 3f
       -1.8420889 -0.77706766 0.00034205915 0.71954805
000050 a0 b9 c5 bd ba 90 8e be e5 3b c9 be 1b 2d ac 3c
       -0.09654546 -0.27844793 -0.39303508 0.021017602
000060 9a 99 d6 3b d9 7d 0e bf 86 df 25 3d 3d 67 c3 bd
       0.0065490725 -0.5566078 0.04049637 -0.095411755
000070 e3 79 86 3f fc e9 5d 3f f8 45 10 bf d2 d4 35 3f
       1.0505947 0.86685157 -0.56356764 0.71027863
000080 67 3b cc 3c da 79 8a bc 25 c2 c6 be 5f 6d 7e 3f
       0.024930669 -0.016903806 -0.38819996 0.9938564
000090 79 d5 48 3f 42 85 58 3f 50 7f ab be a0 23 68 bd
       0.78450733 0.84578335 -0.3349557 -0.0566746
0000a0 8a c0 9a 3d ef da aa 3d 70 bb 6e 3f 24 95 77 3f
       0.07556255 0.083425395 0.93254757 0.96711946
0000b0 68 1f 90 bf b7 af 8e be 22 87 80 3d 9b 70 82 be
       -1.1259584 -0.27868435 0.062757745 -0.25476536
0000c0 52 1b 5d be 58 82 80 3d 00 ab ad 3a 0b af 4c 3d
       -0.21592453 0.06274861 0.0013249815 0.04997162
0000d0 fa ee a0 be fb 35 56 3f 69 ea bd 3c 4e bd 39 3d
       -0.31432325 0.8367612 0.023183065 0.04534655
0000e0 3a 08 22 3d ec 5d cd be f7 76 a0 bd 80 f1 40 3d
       0.039558627 -0.4011072 -0.07835191 0.047105312
0000f0 86 a5 3c 3c 59 f4 5f 3f c4 d4 9e be e5 d9 c8 be
       0.011514073 0.8748222 -0.31021702 -0.3922874
000100 26 58 92 bf 72 5d 96 be 09 6c a2 3d f2 ac f2 bf
       -1.1433151 -0.29368168 0.07930762 -1.8959029
000110 3c 14 9e be 26 14 40 3f 32 35 51 3f b5 30 b8 3d
       -0.30874813 0.75030744 0.81721795 0.08993665
000120 2f 73 b0 3d 42 2c 82 bf 08 6d 4b bf 2e b0 96 3d
       0.086157195 -1.0169756 -0.79463243 0.07357822
000130 b6 fe 5a 3f 68 97 02 3c ea f0 0a bd c1 ec 30 bd
       0.8554491 0.007970668 -0.03392116 -0.043194536
000140 aa 53 49 bd f4 3f 81 bf 53 67 a5 bd 95 17 2a 3d
       -0.049152054 -1.0097642 -0.08076348 0.041526396
000150 a1 c8 47 3d d7 71 47 bf 07 d0 8c be bb f3 27 bf
       0.04877532 -0.7790808 -0.27502462 -0.6560628
000160 3f 0b fb be ed 83 5a bd 92 2f f2 be ca da 28 bd
       -0.49032018 -0.05334847 -0.47301918 -0.04122428
000170 90 d4 b1 3d c4 d1 a7 be 1a 29 66 bf 89 b1 c4 be
       0.08683121 -0.32777226 -0.89906466 -0.384167
000180 85 57 76 bf e5 37 3e 3f 22 02 5c 3d 3f 3d a1 be
       -0.96227294 0.7430404 0.05371297 -0.3149204

h.0.weight f4 [100, 6]
000000 e3 6c cd 3e 4e ad d0 bd 8c 32 49 be 27 37 dc be
       0.40122136 -0.10189305 -0.19648188 -0.43010828
000010 e8 97 ac 3e 88 45 31 3e 87 f4 21 3f ed 5a b1 3e
       0.33709645 0.1731168 0.63263744 0.34639683
000020 df 31 32 bc ae 97 67 be 93 e9 c0 3e e8 74 c1 bd
       -0.010876148 -0.22616455 0.37678203 -0.09446126
000030 81 bd 06 3f c7 5c ae be cd b4 a7 be ef aa 66 3e
       0.5263291 -0.34055158 -0.32755128 0.22526143
000040 08 7a 8c be 89 90 88 be e0 c3 ce 3b ca 21 2f 3e
       -0.27436852 -0.26672772 0.006309971 0.17102733
000050 fc 91 a3 be 11 31 a6 3e 9c 30 13 3c ea 4b 70 be
       -0.31947315 0.3245931 0.008983757 -0.23466459
000060 64 35 43 3e 8a 35 fd 3e b3 07 2f bc a4 d0 80 3e
       0.19063336 0.4945491 -0.010682988 0.2515918
000070 d8 ea 00 3d d6 c0 95 bd 5b 31 e3 3d 49 0f 5a bc
       0.031473964 -0.07312171 0.11093398 -0.013309308
000080 62 be 0e be ec 03 fd 3e 4d 7b be 3e 59 cf 3c 3e
       -0.13939813 0.49417055 0.37203446 0.18438472
000090 fe 21 4f be ec 4c 05 3e ce ae 0a bd e9 16 40 3e
       -0.2022781 0.13017625 -0.033858113 0.1875874
0000a0 31 66 6c be a2 a0 0e 3e 63 8e a0 3e 0f 7f 8d 3e
       -0.23085858 0.13928464 0.31358632 0.27636
0000b0 8c d9 28 be 34 67 a1 be bb b8 5e 3e 29 52 a0 3e
       -0.16489238 -0.3152405 0.21750157 0.31312683
0000c0 73 81 98 bd c0 9a c9 bc bb 25 c6 3e 86 b5 b7 be
       -0.074465655 -0.024609923 0.3870066 -0.3588068
0000d0 00 42 99 3e ed dd 0c 3e f3 eb c7 3e cc ce 71 3e
       0.29933167 0.13756533 0.39047202 0.23614043
0000e0 6f 30 0b 3e a9 df f7 be 17 1e 91 3d 4b e6 8d be
       0.13592695 -0.48412827 0.07085817 -0.27714762
0000f0 c7 22 a4 3e 4f 0e a0 3e 6d 40 64 3d 72 23 1a 3e
       0.32057783 0.31260917 0.055725504 0.15052584
000100 ea 5c b4 be 1d 96 c7 3c 0b 79 07 3f db d1 03 bf
       -0.35227138 0.024363572 0.5291907 -0.5149209
000110 5d d6 b2 be fb e3 33 be de 4d fa 3d af e1 a2 3e
       -0.3492917 -0.17567436 0.12221883 0.31812808
000120 6b 78 b5 3e 79 d8 96 3d f3 46 bf be 73 6f d5 be
       0.35443434 0.07365508 -0.37358817 -0.41686592
000130 ba f2 47 3d 42 01 26 3e 76 53 48 3f db ce e9 3d
       0.048815466 0.16211417 0.7825235 0.11416408
000140 84 32 1d 3d 15 35 c5 be 29 0a 09 3e 69 ed 49 be
       0.038378254 -0.3851706 0.13382782 -0.19719471
000150 5d fa bc be 53 7d e6 3e e2 5e 86 be 05 b5 3e be
       -0.36909762 0.4501749 -0.26244265 -0.18623741
000160 40 a6 d2 3e 19 28 a9 3e 64 fb 97 3d cc 88 06 3e
       0.41142464 0.33038405 0.07420996 0.13138121
000170 75 f7 53 3e 27 ef 93 3c db 61 b1 be 3f dc b8 3c
       0.20699866 0.018058373 -0.3464497 0.022565959
000180 38 7a 37 3f d1 5f ca 3e d7 d5 30 3e d0 83 84 bd
       0.71670866 0.39526227 0.17269073 -0.06470454
000190 dd 6c 5e be a3 2a a2 be 4b 1f 57 be 74 47 d4 3d
       -0.21721216 -0.31673154 -0.21008031 0.10365191
0001a0 25 d8 88 bd 82 18 0d 3e d7 0e 17 bd c6 28 a9 3e
       -0.06681851 0.1377888 -0.036879387 0.3303892
0001b0 15 13 29 3f a4 37 96 3e 92 db 21 3a bb fc 9e be
       0.6604474 0.29339325 0.0006174381 -0.31052193
0001c0 c8 93 ab 3d 09 53 26 3e 0f c3 9e bd fe 24 da 3e
       0.083777964 0.16242613 -0.07752048 0.42606348
0001d0 44 b2 bb bd 0e 4e 64 3e c3 12 cd be ad 0b 6d be
       -0.09164861 0.222954 -0.40053377 -0.23148985
0001e0 ca 32 b2 3c f8 13 cc be d7 31 21 be 4e 77 b9 bd
       0.021752734 -0.39858985 -0.15741669 -0.09055959
0001f0 1e 93 9a 3e a1 19 87 be 2a f5 93 3e 3c 0a 5a be
       0.30190367 -0.2638674 0.28897983 -0.21292967
000200 c5 df 77 be d7 51 44 be e1 be c3 be fd 36 a3 bc
       -0.24206455 -0.19171844 -0.38231567 -0.019923681
000210 e9 8d 62 be 6e f1 44 be 5f 74 b2 3e d2 61 2b be
       -0.22124447 -0.19232723 0.3485441 -0.16736534
000220 1b 01 c6 3e 6a 51 c9 be 00 6c 1b 3f ca 9a 5d be
       0.38672718 -0.39319927 0.6071167 -0.21641079
000230 69 63 51 3d 9b e1 41 3d ec 64 ac 3e 91 f4 49 bc
       0.051120196 0.047334295 0.33670747 -0.012326376
000240 cd cb ac be ed 3d b7 be a1 61 07 bd f6 38 7c bd
       -0.33749238 -0.35789433 -0.03305209 -0.06157776
000250 78 f1 7f be ac 3f b1 be 6a 9c 03 3e 8f 99 e9 be
       -0.24994457 -0.3461889 0.12852636 -0.45624968
000260 da 2b 9f 3e 59 38 97 bd 7d 92 ad 3e 3f 06 41 3e
       0.31088144 -0.07383794 0.33900824 0.18850039
000270 c7 42 50 be e9 90 02 3e 45 8b 35 be 4b bd 9e bd
       -0.20337974 0.12750591 -0.17728908 -0.077509485
000280 46 e8 82 3e 36 98 b2 bd 14 5b 96 3d c4 b9 77 be
       0.25567836 -0.08720438 0.073415905 -0.24191958
000290 17 10 b8 be aa 09 0b 3e 89 58 a5 be 14 59 47 bc
       -0.35949776 0.13577905 -0.3229411 -0.012167234
0002a0 c6 14 11 3e 06 59 8d be e3 cb 4c be 6b 59 a0 3e
       0.1416808 -0.27606982 -0.19999652 0.3131822
0002b0 c5 6a 9b be fc ec 1c 3e 2b 3f 19 bf 07 cc 57 be
       -0.30354896 0.15324777 -0.5986201 -0.21073924
0002c0 46 84 c8 3e 24 b8 db 3e 77 8c aa bc 66 84 ac 3e
       0.39163417 0.42913926 -0.020818932 0.33694762
0002d0 a2 a2 22 3f 3c 33 70 3e d5 25 15 bc 92 e7 15 bf
       0.6352941 0.23457044 -0.009103258 -0.58556473
0002e0 e6 b0 54 3e 37 f3 3b 3e 4d a8 84 3e 53 a7 79 bd
       0.20770606 0.18354498 0.25909653 -0.06095059
0002f0 af 3f a6 3c 46 9b 57 be 90 80 95 be 8b e7 4d 3d
       0.020294039 -0.21055326 -0.29199648 0.050269645
000300 5d 7c 30 bf 1f fc 83 3d 3c d7 ab 3e 20 97 4d 3e
       -0.68939763 0.06444573 0.33562648 0.20077181
000310 b2 b9 75 3e ea 3f 0a bd e9 43 01 bf f0 2f ba 3e
       0.23996618 -0.03375236 -0.5049425 0.36364698
000320 e5 63 96 3e f4 d0 c0 3c 36 f1 1e be d5 55 9c 3d
       0.29373088 0.023537137 -0.15521702 0.07633559
000330 c3 14 38 3e 4d 0e b0 3d f8 1e 9e 3d 8d 30 a9 bc
       0.1797667 0.08596478 0.077207506 -0.020653034
000340 d1 a7 7c 3e 21 cd ba be db 68 a0 be e3 26 82 be
       0.24673392 -0.36484626 -0.31329998 -0.25420293
000350 a7 84 8a bd 07 5c 27 3c 05 d8 70 be 19 99 5a 3d
       -0.06763583 0.010214812 -0.23519905 0.05336866
000360 dd 42 04 be 4e 0a 33 3e 32 e0 bf 3e 99 c9 76 be
       -0.12916131 0.174844 0.37475735 -0.24100341
000370 e0 32 53 be 0f fa 38 be 6f 9a 28 be 64 b0 b1 3e
       -0.20624876 -0.1806414 -0.16465162 0.34704888
000380 93 37 af 3e 14 6f ea bd 68 72 82 be 02 da b7 be
       0.34222087 -0.11446968 -0.2547791 -0.35908514
000390 1c 29 98 3e 12 08 b4 be a2 d3 ab be 13 e7 1e be
       0.29718864 -0.35162407 -0.335599 -0.15517835
0003a0 f3 58 b6 be 4a e9 52 3c a1 ea 94 be 20 ec 15 3e
       -0.35614738 0.012873003 -0.29085258 0.14640856
0003b0 34 06 08 bd dd b4 a6 be a8 c2 77 3e d9 84 0d be
       -0.03320904 -0.32559863 0.24195349 -0.13820209
0003c0 52 d1 b5 be 95 cf 52 be 14 6d 52 3e 25 0d ac 3e
       -0.3551126 -0.20586999 0.20549423 0.33603778
0003d0 49 05 47 3d 19 39 5d 3e 37 b7 68 3e a7 20 cc be
       0.048589025 0.21603812 0.22726141 -0.39868662
0003e0 2c 58 4c bd 5e ae 80 be b2 9c 11 bd 19 c7 cd 3e
       -0.049888775 -0.25133032 -0.035549827 0.40190962
0003f0 0a eb 0c 3e f0 c0 d5 bd da ef 5e be e0 f3 a7 be
       0.13761535 -0.104371905 -0.21771184 -0.3280325

h.0.bias f4 [100]
000000 a5 2e 5b 3e c7 94 51 3e 07 cd 22 3e b4 78 6d 3d
       0.21404512 0.2046691 0.15898524 0.05797644
000010 54 4c 4e be 91 a8 f1 bd 6f aa a3 3e f3 e1 7b be
       -0.20146304 -0.117997296 0.31965968 -0.24597912
000020 5b 8d ae be 26 f3 0b 3e 33 f9 8a be 50 81 c3 3a
       -0.3409222 0.13666973 -0.2714325 0.0014915857
000030 e9 2e 09 bd 59 f9 55 3e e0 6a 74 be c8 8b 34 be
       -0.033492003 0.208959 -0.23868895 -0.17631447
000040 c2 bc 65 3d be 3e bf 3d 42 13 1d 3c 36 67 e2 bd
       0.056088217 0.09338139 0.009587111 -0.11054842
000050 58 ad 9c be 0a cf 2b 3b f1 7c 90 be 60 4a 13 3d
       -0.30601 0.0026215934 -0.28220323 0.0359596
000060 1c 49 f4 bd 88 86 86 3e 70 c0 60 be 43 27 86 be
       -0.11928007 0.26274514 -0.21948409 -0.2620183
000070 c2 d7 ac be 96 fc 93 3e 94 f2 d9 3d 96 61 04 be
       -0.3375836 0.28903645 0.10641971 -0.12927851
000080 b3 6e f0 3d 2c 54 99 3e 27 50 5e 3e 0f bc ea bd
       0.11739864 0.2994703 0.21710263 -0.114616506
000090 0c bd 4c be 39 63 59 be c6 ed a2 be ec 68 63 be
       -0.1999399 -0.21229257 -0.31822032 -0.22207993
0000a0 9d 13 89 be 46 9a 91 3e c7 f4 e2 bd 5b f8 27 be
       -0.26772776 0.28438014 -0.11081844 -0.16403334
0000b0 05 cf 94 3d 10 4c ae 3e 19 e0 a2 be dd 3b 49 3c
       0.07266048 0.34042406 -0.31811598 0.012282339
0000c0 cc a2 61 3e 58 80 20 be be 3a a6 be e6 04 d1 3e
       0.22034758 -0.1567396 -0.32466692 0.4082405
0000d0 06 c4 8a 3e af 9f 96 be 9e a5 93 3e 3c 89 ad be
       0.2710268 -0.29418704 0.28837293 -0.33893764
0000e0 90 33 65 be f4 a0 e3 3d 08 4e ef 3d b7 9a a2 3d
       -0.22382951 0.11114684 0.11684805 0.07939666
0000f0 64 7c db 3d 8a 68 9a be b6 ab 68 be de 52 d6 3e
       0.10717085 -0.30157882 -0.22721753 0.41860098
000100 5c 19 bf 3e 59 ad 35 3e 09 1f 46 3d 4a a8 3a be
       0.37324035 0.17741908 0.04836944 -0.1822826
000110 f8 20 cb 3e b3 84 6e 3e ea 12 88 3e 21 24 77 be
       0.3967359 0.23292808 0.2657693 -0.24134876
000120 66 47 99 3e 33 32 69 bd e0 6a ab 3e 96 5f 0a be
       0.29937285 -0.05693264 0.33479977 -0.13513026
000130 39 d7 a3 3e 8b c0 8a bc 92 d7 b7 3e e5 a7 ec 3d
       0.3200014 -0.016937515 0.35906655 0.11555461
000140 cf b1 10 3e 00 5b 9c be a1 98 a2 3e 83 25 1f be
       0.14130329 -0.30538177 0.31757072 -0.15541653
000150 4b 2e b2 be 4a 29 0c 3d 32 1d 8d 3e 37 d2 c7 be
       -0.34800944 0.034219064 0.27561337 -0.3902757
000160 f8 43 a3 be c2 ac 8a be 98 eb 25 3e af 62 92 3d
       -0.31887794 -0.2708493 0.16203153 0.07147729
000170 45 f4 8c 3e ba db f2 bc c7 d1 84 3e 29 fb 9e 3d
       0.27530113 -0.02964579 0.25941297 0.07762749
000180 a1 2a 76 3e 29 bf aa 3e 97 aa d5 3c 43 86 9c 3c
       0.24039699 0.3334897 0.02608232 0.01910699

h.2.weight f4 [100, 100]
000000 f7 58 90 3d 58 91 0f 3e 23 03 24 3e 12 0c cc 3c
       0.07048219 0.14020288 0.16016822 0.0249081
000010 39 28 3f 3e a3 3c c4 bd 96 6c 8f bd ca 73 05 be
       0.18667687 -0.09581878 -0.07003133 -0.13032451
000020 00 d1 c1 bd 57 bd 25 3d 33 46 8a bc 2d e5 b7 3e
       -0.09463692 0.04046377 -0.016879177 0.35917035
000030 ad 84 34 be b1 46 43 3d 0c 2e 75 3e 33 a0 a5 bc
       -0.17628737 0.04767484 0.23943347 -0.02021799
000040 a3 ad 1f 3d 14 4c 70 3d 33 22 80 3d 73 58 c9 3e
       0.038983952 0.058666304 0.06256523 0.39325294
000050 67 9a f8 3c f5 48 a1 3d 00 1d eb bb 37 fe 10 3a
       0.030347062 0.078752436 -0.007175088 0.0005531045
000060 47 e1 9a bd d9 4e 38 3d bf 16 84 3d ba 96 2e bd
       -0.075624995 0.04499707 0.06449651 -0.042624213
000070 b3 c4 55 bd 69 f3 ba bd 57 e7 71 3d e0 2a 41 3d
       -0.05218954 -0.09128458 0.059058513 0.04716003
000080 88 b6 d1 be 12 bf 8c 3d 44 0b 4c bd 2d 1e 8a bd
       -0.40959573 0.06872381 -0.04981543 -0.06744037
000090 f3 14 80 bd 1d e7 0a bd 5a f9 5f 3c 3a 57 b0 bc
       -0.06253996 -0.033911813 0.01367029 -0.021525968
0000a0 d0 8a 01 3d a8 72 ba 3e da a9 09 3d 78 44 84 be
       0.031626523 0.364156 0.03360925 -0.25833488
0000b0 d7 80 99 3e 10 1e fb bc 0a 2d 3d 3d e3 f4 d3 3d
       0.2998111 -0.030653983 0.04618553 0.10349443
0000c0 8e e9 9f bd 4d bb c8 bb c2 3c 51 bd 49 58 1f 3d
       -0.07808219 -0.0061258436 -0.051083334 0.038902555
0000d0 4d 01 f9 bc 33 5f a2 bc 54 71 c9 bd 9a af 1d 3b
       -0.030396128 -0.019820785 -0.09836069 0.0024060966
0000e0 77 5e 73 bd b0 9b 7a bd ea be a3 be 96 70 60 bd
       -0.05941626 -0.06118363 -0.31981593 -0.05479487
0000f0 ee d5 ca bd 2d 47 75 bc 0b ac 9d 3d 08 7f 3b 3e
       -0.09904085 -0.014970583 0.0769883 0.18310177
000100 b0 55 88 3d 8f 69 8a 3d 8a 48 0e 3d 60 e9 45 3d
       0.066569686 0.06758415 0.034737147 0.048318267
000110 2a a1 3c bd 10 28 40 be 4d b1 07 3c 00 5b f2 3c
       -0.046052136 -0.18765283 0.008282018 0.029584408
000120 15 67 0e 3b b7 35 40 bd c2 f4 8a 3d 48 96 c2 bd
       0.0021728922 -0.046926226 0.06784965 -0.0950132
000130 e1 41 2b bd 38 0e 4b 3f b1 d0 86 3c 93 94 6c bd
       -0.041810874 0.7931857 0.016456934 -0.05775888
000140 b8 c8 00 3e ba 40 d3 bc 25 f2 2e be fd 60 84 be
       0.12576568 -0.0257877 -0.17084558 -0.25855246
000150 58 d6 9c 3d 66 93 b2 be 63 18 38 3c 07 47 d5 3c
       0.0765807 -0.3487808 0.011236283 0.026034845
000160 40 77 1e bd ef e4 91 bd 14 d9 09 be 8f a1 27 bd
       -0.038687944 -0.07123744 -0.13461715 -0.04092556
000170 fb e0 23 bd 82 f0 8e 3d 55 f3 ac bd 62 7f 4c 3d
       -0.04000948 0.06979467 -0.084448494 0.04992617
000180 78 5a 38 3d aa b7 02 3c ca 7a e8 3d bf 58 7c 3e
       0.045008153 0.007978359 0.11351545 0.24643229
000190 a3 b8 67 bd 37 4c 4e bd 1a ee e0 3b cd 71 b9 bb
       -0.056572568 -0.050365653 0.0068643214 -0.005659318
0001a0 43 bc 0e 3d e0 7d b1 3d 67 41 71 bc 37 48 03 bd
       0.03484751 0.08666587 -0.014725066 -0.03205129
0001b0 f3 ae da bc 8d df 8c bd 2d d2 f8 3c d0 28 3b 3d
       -0.02669475 -0.068785764 0.030373657 0.04569322
0001c0 23 c2 be bd a0 b0 8f bc 2d d0 67 3d 73 48 f0 3c
       -0.093143724 -0.017540276 0.056595016 0.029331421
0001d0 57 72 3e bd 07 4e 3e 3d f2 d2 a7 3d 07 1e ac bd
       -0.04649576 0.04646113 0.081945315 -0.08404165
0001e0 07 d2 c4 3c 77 ec 1e bd 40 49 bf bd c0 6c 32 3c
       0.02402593 -0.03879973 -0.09340143 0.010890186
0001f0 87 ae 3c bd 0d 83 57 3d f7 23 6a 3d 27 48 4f 3d
       -0.04606488 0.052615214 0.057163205 0.05060592
000200 67 72 49 ba 55 d6 b8 bd 67 64 a2 bd d3 bb 29 3d
       -0.0007684589 -0.090252556 -0.079293065 0.04143889
000210 23 32 a0 bd 9a 42 68 bd fa 3a 0b bd 33 bb ca bc
       -0.07822063 -0.05670414 -0.03399179 -0.024747467
000220 ad 4e 87 3d 80 b3 16 bc 07 96 20 3d 45 4c c3 3d
       0.06606803 -0.00919807 0.039205577 0.09536032
000230 1a 71 20 3c 33 77 14 3b 20 eb 5d 3d d3 71 6f 3d
       0.0097925905 0.0022654056 0.05417931 0.05845816
000240 2d d3 c2 3d f3 2d 9a bd 70 27 2a 3d 00 d0 71 39
       0.09512935 -0.07528295 0.041541517 0.00023061037
000250 03 22 13 3d f2 54 cb bd 83 23 28 3d 7a 90 21 3d
       0.035921108 -0.099283114 0.04104949 0.039444424
000260 9a 79 e2 bc d0 5c c8 bd d5 21 b9 3d 87 71 ab 3c
       -0.027645875 -0.097833276 0.09039656 0.020928157
000270 c7 14 0e 3d 88 cf 87 bd fd 97 b5 bd 5a a5 73 3d
       0.034687784 -0.0663138 -0.0886688 0.059483863
000280 33 3e 44 bd 52 db b6 bd b2 58 b4 bd 20 21 43 3d
       -0.04791088 -0.08928551 -0.0880598 0.047639012
000290 77 87 49 3d 9d 5e 93 3d bd 84 31 3d 4a b2 36 bd
       0.049201455 0.071957804 0.04333948 -0.044603623
0002a0 1a 5d cf 3b ad 1b 0d bd cb cd 90 bd 7d 9e 2c bd
       0.0063282372 -0.03445022 -0.07070502 -0.042143334
0002b0 60 d5 87 bc 80 5c 51 bc c7 71 9f bc 05 f9 ad bd
       -0.016581237 -0.012778401 -0.019463433 -0.08494762
0002c0 6d 84 1a bd f7 e2 54 bd 80 7c f8 bc 3a 36 8a bd
       -0.037723947 -0.051974263 -0.030332804 -0.06748624
0002d0 da 4e 32 bd 0d 96 86 3d 38 87 c7 bd ba 46 7e bd
       -0.04353223 0.06571589 -0.09742588 -0.06207917
0002e0 00 44 2a ba 23 38 76 bd b3 49 be bc 5a 5e a6 bd
       -0.0006495118 -0.06011213 -0.023228502 -0.08123465
0002f0 da 24 25 bd 53 0a 9d 3c 00 2a 75 bb 08 97 bf bd
       -0.040318348 0.019169962 -0.0037409067 -0.09354979
000300 00 ae 88 ba 90 76 79 3d bf 93 c8 bd 1d ae 1c bd
       -0.0010427833 0.060904086 -0.09793805 -0.038251985
000310 fa e4 b3 bd 60 0a 8d 3c 5a 7e 65 3d 93 b4 fa bc
       -0.08783908 0.017216861 0.0560287 -0.030603683
000320 c5 5f 4b 3e 66 09 88 3d f0 9e 69 3d 65 a2 25 3e
       0.19860752 0.066424176 0.05703634 0.1617523
000330 58 19 e6 3d cd 49 de 3d ed 19 9d bd 13 fa d9 3b
       0.11235303 0.1085392 -0.076709606 0.0066521256
000340 17 90 30 3d 6d 83 07 3e 9a 71 49 3d 84 b3 6b 3e
       0.043106165 0.13233729 0.049180605 0.23017699
000350 14 30 ba be 30 bb 2c 3e 39 90 4d 3e 68 64 a0 3d
       -0.36364806 0.16868281 0.20074548 0.07831651
000360 da 6a b2 3d e8 e1 d4 bd 99 6e 7e 3e 30 d8 02 3f
       0.087117866 -0.10394651 0.24846877 0.51111126
000370 f5 af b9 bd 32 74 90 bd 8d 49 15 bd 2a 3e a8 3d
       -0.09066764 -0.070534125 -0.036447097 0.08214982
000380 3a a1 ed bc 49 b6 ef 3c fb 24 bf 3d 03 b6 42 3d
       -0.029007543 0.029261725 0.09333225 0.04753686
000390 a7 5f 07 bc c2 a9 04 be a2 1b 6e 3e 93 8e 28 bd
       -0.008262551 -0.12955382 0.23252729 -0.041151594
0003a0 c1 ad 03 bf 39 3b 29 3d 0a 97 1a bd 7d ab 5a 3d
       -0.51437 0.041316245 -0.0377417 0.0533862
0003b0 60 f4 ce 3c 8a 44 12 3d 60 76 8f bc 90 cf 7d bd
       0.025263011 0.035709895 -0.0175125 -0.061965525
0003c0 60 40 b4 bd 55 46 9a 3e 9a 50 5b bc 69 f9 7d be
       -0.08801341 0.30131784 -0.013385916 -0.24802174
0003d0 0e ce 55 3e 5f 06 fa bc 80 15 5d bc 57 38 0b 3e
       0.20879385 -0.030520616 -0.0134938955 0.1359571
0003e0 89 f8 09 3e 4b 22 bd 3d 5b aa 25 be 42 0e 48 3d
       0.13473715 0.092350565 -0.16178267 0.048841722
0003f0 7b 2f 88 be aa 57 a8 bd ee 27 06 3d 63 40 75 bd
       -0.26598725 -0.082198456 0.032752924 -0.059875857

h.2.bias f4 [100]
000000 8c a9 3d 3d b7 e6 12 3d ac 9e 6e bc 2d a4 db bc
       0.04630427 0.035864558 -0.0145641975 -0.026811684
000010 03 d7 c8 bd 1d 73 4c bd a6 62 a4 3c 55 0c 9e bd
       -0.09806635 -0.049914468 0.02006657 -0.07717196
000020 59 a6 a1 bd c4 e4 5e bd 0a bf a3 bd 9d 9b 25 bd
       -0.078930564 -0.054417387 -0.07995422 -0.040431608
000030 d3 6c 28 3d 6f 58 bf bc b1 42 92 3d c1 0f d1 bd
       0.041119408 -0.023357598 0.071416266 -0.10208083
000040 81 f0 e7 3c 95 a4 81 bd fc 9b 75 bd 88 d9 e9 bc
       0.028312923 -0.0633022 -0.05996321 -0.02854611
000050 46 6a 1c be 23 a0 83 3d 1d da c5 bd 85 a3 9c bd
       -0.15274915 0.06427028 -0.096607424 -0.076483764
000060 7a 6b c8 bd c6 7c f6 bc 53 88 61 bd fb 8d 9b 3c
       -0.097861245 -0.030088793 -0.05506165 0.0189886
000070 e1 c7 8a bd 18 45 c8 3d 86 b2 41 3d 54 e7 98 3d
       -0.06776405 0.097788036 0.047289394 0.07465997
000080 5f 9c 0b 3c bd 16 98 3c 3a 99 88 bd 33 03 56 b9
       0.0085211685 0.01856553 -0.06669851 -0.00020409822
000090 5e 1b ab bd 70 b3 45 3d a6 c4 06 be 02 62 2d 3e
       -0.08354829 0.048266828 -0.13160953 0.16931918
0000a0 56 ad 36 be e0 3c d8 bc dd db 03 3d cf 57 a2 bd
       -0.1783956 -0.026396215 0.0321921 -0.079269044
0000b0 18 5b a8 3d 18 d7 bc bd 3b 14 75 bb 37 a6 16 3d
       0.082205 -0.092207134 -0.0037396092 0.03677961
0000c0 24 2f 77 3d 95 dd 97 bd 37 fc 63 bd c3 08 67 bd
       0.06034769 -0.0741531 -0.055660453 -0.05640484
0000d0 dd 92 a9 bd e0 8e f0 bc ce 10 f9 3a 1d 07 b1 bd
       -0.08279965 -0.029365003 0.00190022 -0.08643935
0000e0 d7 d6 43 bc 5e a1 b3 ba 8e 06 b5 3c 59 b7 c7 3d
       -0.011953077 -0.0013704707 0.022097852 0.09751768
0000f0 80 0a a1 3d dc 6c 7b bd 2e 5b 55 3c 33 fc 11 3e
       0.07863331 -0.061383113 0.013022227 0.14256363
000100 8b 62 9c bd f4 8f 1a bd d8 18 91 3d 92 1c 38 bd
       -0.07635983 -0.03773494 0.07084817 -0.04494912
000110 75 48 52 3d 5a fb 17 3d a3 dc d0 bc 70 d1 6c bd
       0.05133863 0.037104942 -0.025495833 -0.057816923
000120 c0 50 01 3d 51 d5 a1 bc ef 65 04 bd 0b a4 06 be
       0.03157115 -0.019755038 -0.032323774 -0.13148515
000130 bf 2d 68 3c 97 cd 9f bd 8e 25 52 bd 0f f0 7f 3d
       0.014171063 -0.07802885 -0.051305346 0.062484797
000140 7a af a8 bd 3d d4 b0 3d 10 78 55 bd 8d b7 05 bd
       -0.082365945 0.08634231 -0.052116454 -0.03264575
000150 b7 01 87 bd c3 28 ce bd 2f e6 4e bd 6f 7d fa bc
       -0.06592124 -0.100663684 -0.05051249 -0.03057739
000160 a1 a1 a9 bc b2 9d a9 bd e5 39 6a bd 85 1c ab bd
       -0.020706953 -0.08282031 -0.05718412 -0.08355049
000170 18 38 ad bd 00 36 99 3b bd a0 9e 3d 17 03 a5 bd
       -0.08457965 0.0046756268 0.07745502 -0.0805723
000180 05 fd 91 bd a9 f3 4d 3d 6c 02 5c bd 12 2f cb 3b
       -0.07128338 0.0502812 -0.053713247 0.0062006796

h.4.weight f4 [1, 100]
000000 10 ea bd 3e 27 63 0e 3d ae c5 d9 3e db ff 42 be
       0.37092638 0.034762528 0.4253363 -0.19042914
000010 b0 f7 4a bd fa df a4 3d a7 e1 89 bf 2a 14 26 3d
       -0.04955262 0.08050533 -1.0771989 0.040546574
000020 99 da e3 3c 5d 5c 90 3e 4d 46 11 bf 50 84 b0 bd
       0.027814196 0.28195468 -0.56747895 -0.086189866
000030 28 21 8f bd 62 76 1a bd d9 47 ba bd 15 34 04 3f
       -0.06988746 -0.037710555 -0.09095735 0.5164197
000040 17 56 50 bf 80 54 06 bc 62 90 bc 3e f9 f6 54 bf
       -0.8138136 -0.008198857 0.36828905 -0.8318935
000050 e6 97 de 3e 1b 21 92 3d dd db 1b bd 3f 35 e3 3e
       0.43475264 0.071352206 -0.038051475 0.4437656
000060 73 ac 5e 3d 4f 96 98 3e 52 43 b6 bd 0b d0 92 3e
       0.05436368 0.29802176 -0.08899559 0.2867435
000070 3a 07 5e bd 47 4d 70 bf e3 09 b4 3e de e2 11 bd
       -0.05420611 -0.93867916 0.35163793 -0.035616748
000080 f9 3c d6 3e 5d 5b a7 3e da 3a c8 3e fa 28 8c bc
       0.41843393 0.32686892 0.391074 -0.017109383
000090 03 1b fa 3e c0 42 ba bc ea 22 eb 3e d6 c1 0c bf
       0.48848733 -0.022736907 0.45925075 -0.5498327
0000a0 16 d2 00 3f b7 ea 6c 3d 85 2c 62 3e b0 95 bc 3e
       0.50320566 0.05784103 0.22087295 0.36832952
0000b0 7a e3 90 3d ed 40 b8 bc b0 48 c3 3d 64 2d 0e bf
       0.07074638 -0.022491897 0.095353484 -0.5553801
0000c0 2c 29 2d bf 00 8e de bb c2 31 a0 3e df 34 c1 3d
       -0.6764095 -0.00679183 0.31287962 0.094339125
0000d0 e7 e9 c4 bd 0a c7 82 3d d7 da 9a 3e 6d d0 d8 bc
       -0.09614926 0.0638562 0.30245087 -0.026466573
0000e0 0f 7e 82 bf 58 dd 40 3e 56 b2 fb be a4 0d 4b bf
       -1.019472 0.18834436 -0.49159497 -0.7931769
0000f0 db 89 ad bd 80 93 a4 3e 1b d5 ae bd a5 03 f1 be
       -0.084735595 0.32143784 -0.085367404 -0.47073093
000100 f5 e4 00 3f 8f a1 d1 bc d6 ac 61 bf 4e b6 6e bf
       0.5034936 -0.025589732 -0.8815435 -0.93246925
000110 99 5b 9c 3e b3 82 c9 bd f3 75 81 bc 96 d0 22 bd
       0.30538633 -0.09839382 -0.015803313 -0.039749704
000120 67 8f 97 bb 74 b8 d8 3e fd 8c bb 3d 6a e5 d1 3e
       -0.004625249 0.42328227 0.09157751 0.40995342
000130 57 08 7a bf fb b1 99 3d 23 ce ce 3e e4 da 6e bd
       -0.97668976 0.0750465 0.40391645 -0.05831422
000140 bd a9 54 bd 4c 7d 23 bf aa 67 9f bd 3d 77 f8 3e
       -0.051919688 -0.6386306 -0.07783444 0.48528472
000150 d7 14 d4 3e 19 fa 2b 3d e5 dd 99 be eb 25 58 bf
       0.4142215 0.04198656 -0.30052105 -0.8443286
000160 8b 5b 60 bf 10 b0 0e 3d f9 5d c2 3e 23 db d5 3e
       -0.87639683 0.034835875 0.3796232 0.4176875
000170 9f 65 a0 3d 5e f6 87 3e 7f 23 4e bf 37 f3 ae 3d
       0.07831883 0.2655515 -0.8052291 0.08542483
000180 a7 05 12 3d df f9 64 3e 60 a8 0a bc 82 58 32 3e
       0.03564992 0.22360943 -0.008462995 0.17416576
