logs/PointMaze-Right/airl_sac/seed0-20231226-1522/model/step385000/actor.pth (torch, 276359 bytes, 6 tensors)

net.0.weight f4 [256, 6]
0	0xbb484f41	-0.0030564817
1	0x3e60421c	0.21900219
2	0xbeac0915	-0.3360068
3	0xbe99d40a	-0.30044585
4	0xbe210329	-0.15723862
5	0x3de03451	0.109474786
6	0xbf16eeeb	-0.5895831
7	0x3e9b5d13	0.30344447
8	0xbd14657f	-0.036229607
9	0xbdd47b09	-0.103750296
10	0xbea06cb8	-0.31332946
11	0xbda458cb	-0.080247484
12	0xbf933e02	-1.1503298
13	0xbf000286	-0.5000385
14	0xbe2c540d	-0.16828938
15	0x3f409cba	0.75239146
16	0x3e3007f9	0.17190541
17	0x3e7ad658	0.24495828
18	0xbf9fa550	-1.2472324
19	0xbda642a5	-0.0811818
20	0x3e17d770	0.14828277
21	0x3f616b57	0.8805441
22	0x3ca690ba	0.020332683
23	0x3e9c6a1b	0.30549702
24	0xc0074bc7	-2.114
25	0xbe7994c1	-0.24373151
26	0x3ebd43f6	0.36965913
27	0xbf8ae6cd	-1.0851685
28	0xbea56f91	-0.3231168
29	0xbdd3ab69	-0.10335428
30	0xbe22f454	-0.15913516
31	0x3eb4989d	0.35272685
32	0xbe877c0b	-0.26461825
33	0xbe4070c0	-0.1879301
34	0xbe920832	-0.28521878
35	0xbec3c34e	-0.38234943
36	0xbf189fa7	-0.5961861
37	0x3e59e18f	0.2127745
38	0x3e3a8a38	0.18216789
39	0x3d39181c	0.045189008
40	0xbe50d397	-0.20393215
41	0xbe56534f	-0.20930217
42	0xbe9850d8	-0.2974918
43	0xbf3c500d	-0.7355965
44	0xbe970877	-0.29498646
45	0xbeb58a78	-0.35457206
46	0x3e41cf01	0.18926622
47	0x3e751c02	0.23936465
48	0xbf65e879	-0.8980785
49	0x3e3adab5	0.18247493
50	0x3e85aed8	0.26109958
51	0x3f7cd572	0.9876319
52	0x3dc9395f	0.09825396
53	0x3d61e677	0.05515143
54	0x3e0a0ea4	0.13482147
55	0xbebf86d1	-0.37407544
56	0x3d9bcd04	0.07607463
57	0xbfb14da5	-1.385182
58	0xbe8acb53	-0.2710825
59	0xbe57f4b1	-0.21089436
60	0x3f710d11	0.9416056
61	0xbeaa741e	-0.33291715
62	0xbe77a179	-0.2418269
63	0xbd7c1913	-0.06154735
64	0x3dfa544f	0.12223112
65	0xbd530f0d	-0.051528025
66	0x3c7f62ed	0.015587551
67	0x3dc1ba01	0.094593056
68	0x3e81ac4d	0.25326768
69	0x3ec8b3e9	0.3919976
70	0xbea11402	-0.31460577
71	0xbe193389	-0.14961065
72	0xbeb4d216	-0.35316533
73	0x3efc3d91	0.4926572
74	0x3eb5e4ba	0.35526067
75	0x3e6969ad	0.22794218
76	0xbd8950d5	-0.067048706
77	0xbeb5c34d	-0.35500565
78	0xbed62031	-0.41821435
79	0xbf006d6a	-0.5016695
80	0xbec2cccb	-0.3804687
81	0x3f10e791	0.5660334
82	0x3e1b198a	0.15146461
83	0xbed081a5	-0.4072391
84	0x3d9c7e40	0.07641268
85	0xbd8cd921	-0.068773516
86	0xbd89969e	-0.06718181
87	0xbe3f5d12	-0.18687847
88	0x3e20c324	0.1569944
89	0xbe779c3b	-0.24180691
90	0x3ebf0e4d	0.37315598
91	0x3eea6aee	0.45784706
92	0x3e95a23b	0.29225335
93	0x3efa5efa	0.48900586
94	0xbf139c28	-0.5766015
95	0xbe8797b8	-0.2648294
96	0xbe6cb047	-0.2311412
97	0xbea5de89	-0.32396343
98	0xbea30e3c	-0.31846797
99	0xbf04dc90	-0.5189905
100	0x3e5a6bef	0.21330236
101	0x3e8cd7f1	0.275085
102	0xbe364758	-0.17800653
103	0xbdd26e88	-0.102749884
104	0xbec71d73	-0.38889655
105	0xbbf072dd	-0.0073379115
106	0xbe9d6820	-0.30743504
107	0xbea13b3d	-0.31490508
108	0xbcb84603	-0.022494322
109	0x3d7b1200	0.061296463
110	0xbe2b33de	-0.16719005
111	0x3e780f2d	0.24224539
112	0xbe7e65c3	-0.24843507
113	0x3ebda94d	0.3704323
114	0x3f2cfe0a	0.6757513
115	0xbf0fd5e1	-0.5618573
116	0xbdd0171f	-0.1016066
117	0x3dadc64a	0.08485086
118	0xbd0e54d2	-0.03474886
119	0x3dc64cb5	0.096825995
120	0x3e240d9d	0.16020818
121	0x3cc8540d	0.024454141
122	0xbe4bfa0f	-0.19919609
123	0x3e45d09d	0.19317861
124	0xbec88155	-0.39161173
125	0xbe77c760	-0.2419715
126	0xbdd14c86	-0.10219674
127	0xbe4ba2cc	-0.19886321
128	0xbe123f1d	-0.14281888
129	0xbeab51e4	-0.33460915
130	0xbdb1d97c	-0.0868406
131	0x3db2b85d	0.08726571
132	0xbe882be2	-0.2659598
133	0xbcaba185	-0.020951042
134	0x3e95a11f	0.29224488
135	0xbd2be6ab	-0.04196803
136	0x3c39e519	0.011346125
137	0xbd1041f0	-0.035219133
138	0xbf5e0629	-0.8672815
139	0x3edb7622	0.42863566
140	0x3ec5ff12	0.38671166
141	0x3e6ec7a8	0.2331835
142	0x3e63b936	0.22238621
143	0xbcf1ded1	-0.029525192
144	0xbf8cce2f	-1.1000422
145	0xbf41adf6	-0.7565607
146	0x3e8e532f	0.2779784
147	0xbe009cf9	-0.1255988
148	0x3dcd03ed	0.100105144
149	0xbea02d48	-0.31284547
150	0xbf04e41c	-0.5191057
151	0xbf72deb3	-0.9487106
152	0xbda9971d	-0.08280776
153	0x3eeac0af	0.4585013
154	0x3e8d18bc	0.27557933
155	0xbec996ad	-0.3937277
156	0x3e826287	0.25465795
157	0xbea39005	-0.31945816
158	0xbdb0c231	-0.08630789
159	0xbe29819e	-0.16553351
160	0xbda10b50	-0.07863486
161	0xbda42922	-0.08015658
162	0xbebb9120	-0.3663416
163	0xbeb47a7e	-0.35249704
164	0xbd82d4d2	-0.063882485
165	0x3bad0000	0.005279541
166	0xbe3de86e	-0.18545696
167	0x3e1d7a4a	0.15378681
168	0xbf9eeeb0	-1.2416592
169	0xbed224a8	-0.41043591
170	0x3eb7d1aa	0.35902148
171	0x3e4bacbe	0.19890115
172	0x3e87c878	0.26520133
173	0x3e1765a4	0.14784867
174	0xbfb1556c	-1.3854194
175	0x3ea2b02f	0.31775042
176	0xbd40f5fe	-0.047109596
177	0xbf1dfb97	-0.6171202
178	0x3e5311a6	0.20612201
179	0xbea8e91d	-0.3299035
180	0xbee187e2	-0.44048983
181	0xbef9b27c	-0.48768985
182	0x3e95441d	0.2915353
183	0x3f2c8c15	0.6740125
184	0x3e444539	0.19167031
185	0x3e13a304	0.14417654
186	0xbdc90f21	-0.09817339
187	0xbdafd5b7	-0.08585685
188	0xbeac4088	-0.33642983
189	0x3e628413	0.22120695
190	0x3ea5f5b5	0.32414022
191	0x3e8f04d1	0.27933362
192	0xbe9370bd	-0.2879695
193	0x3c952896	0.01820783
194	0xbe9358f8	-0.28778815
195	0xbe6620bb	-0.22473423
196	0xbe73990d	-0.23788853
197	0x3e0edd80	0.13951683
198	0xbf5822c3	-0.8442804
199	0x3ed2e02c	0.41186655
200	0x3c8cb0fe	0.01717424
201	0x3f6365cb	0.888272
202	0xbeec900c	-0.4620365
203	0xbe8f7f37	-0.28026745
204	0xbe66a6b7	-0.22524534
205	0x3e8ac238	0.27101302
206	0xbe1645e3	-0.14675097
207	0x3ea9006b	0.3300813
208	0x3e088a7f	0.13334082
209	0x3d53bdfc	0.051694855
210	0xbb472a21	-0.00303901
211	0xbda547b2	-0.080703154
212	0x3d51cd8e	0.051221423
213	0xbdbeead3	-0.09322133
214	0xbb3bfdf1	-0.0028685296
215	0x3d555bf3	0.052089643
216	0xbf93a782	-1.1535494
217	0xbf759ca3	-0.95942134
218	0x3ea8c8e0	0.32965755
219	0xbe966780	-0.2937584
220	0x3d849d91	0.06475366
221	0x3ecec616	0.40385503
222	0x3e170388	0.14747441
223	0x3c3d60ea	0.011558751
224	0xbeb5243b	-0.35379204
225	0x3e4f1744	0.20223719
226	0xbe94e216	-0.2907874
227	0xbded5638	-0.115887105
228	0xbe0722e0	-0.13196898
229	0xbd60159f	-0.05470812
230	0x3b9253a4	0.004465537
231	0x3ea908af	0.33014438
232	0x3d35ca42	0.04438234
233	0x3ebb3874	0.36566508
234	0x3e7fb95f	0.24973057
235	0xbe8425b8	-0.25810027
236	0x3e3b7ed6	0.18310103
237	0xbe93c1f4	-0.28858912
238	0xbe312db3	-0.17302589
239	0x3df5e9ee	0.12007509
240	0xbe274143	-0.16333489
241	0x3e66a9d4	0.22525722
242	0xbe069363	-0.13142161
243	0xbe65f96e	-0.22458431
244	0xbd85096f	-0.0649594
245	0xbeca2507	-0.39481375
246	0x3e971ea3	0.2951556
247	0xbeacd88e	-0.33758968
248	0x3bb86009	0.0056266827
249	0xbd8e2656	-0.06940906
250	0xbe5c2c75	-0.21501334
251	0x3d5d03b2	0.053958602
252	0x3eab1537	0.33414623
253	0xbdecfbad	-0.11571441
254	0xbe78310d	-0.24237461
255	0xbe1a9c18	-0.15098608

net.0.bias f4 [256]
0	0xbe0b00c9	-0.13574518
1	0xbd71692f	-0.0589382
2	0x3e43adfc	0.19109339
3	0x3db7f80f	0.0898286
4	0x3ea551c1	0.32288936
5	0xbe90abf9	-0.28256205
6	0xbd8d0ea6	-0.068875596
7	0x3e994915	0.2993857
8	0xbe09fdb3	-0.13475685
9	0x3eac0603	0.33598337
10	0xbdc2e106	-0.09515576
11	0xbe9c86a1	-0.30571464
12	0xbebe99dd	-0.37226763
13	0xbbe52f0b	-0.0069941333
14	0xbe34e8b9	-0.17666902
15	0xbd98496f	-0.07435881
16	0x3e6c9bbc	0.23106283
17	0x3e0e008c	0.13867396
18	0xbd1c7fdb	-0.03820787
19	0x3bfd680d	0.007733351
20	0xbe70dad0	-0.2352097
21	0xbeafa1e1	-0.3430319
22	0xbe9d1f63	-0.3068801
23	0xbf01fd42	-0.50777066
24	0x3ec60f1b	0.386834
25	0x3e099ca8	0.13438666
26	0xbe31a802	-0.17349246
27	0xbecc74c3	-0.39932832
28	0x3df11154	0.11770883
29	0xbeb451cb	-0.35218653
30	0xbd94cc37	-0.072655134
31	0xbeaf431a	-0.34230882
32	0xbe6bd81f	-0.23031662
33	0x3c8a3c80	0.016874552
34	0xbeca25f7	-0.3948209
35	0xbe6e62f6	-0.23279938
36	0x3eccdf5d	0.40014163
37	0xbe5664fe	-0.20936963
38	0xbe34b77c	-0.17648119
39	0xbdeac0ba	-0.11462541
40	0xbdce19de	-0.100635275
41	0xbe891ce2	-0.26779848
42	0x3d19432e	0.037417583
43	0xbd247b5c	-0.040156707
44	0xbc2e0189	-0.010620483
45	0x3eaa3414	0.33242857
46	0xbe9f73ea	-0.31143123
47	0x3ce7a7ca	0.02827825
48	0x3d3239f7	0.04351231
49	0x3df91f3c	0.121641606
50	0xbeacd5c4	-0.3375684
51	0x3d0cedba	0.0344064
52	0x3d15ebba	0.03660176
53	0xbd923d3d	-0.071405865
54	0xbcd6b8a4	-0.02621109
55	0x3db837b3	0.08994999
56	0xbed74c21	-0.4205027
57	0xbe85a817	-0.26104805
58	0x3ea56bdf	0.32308862
59	0xbe1cc519	-0.15309562
60	0xbea667f9	-0.325012
61	0xbd24ece5	-0.040264983
62	0x3e6cc4da	0.23121968
63	0xbe8437ea	-0.2582391
64	0xbeb7dc9e	-0.35910505
65	0x3ee0dd83	0.43919
66	0xbcc15cfc	-0.023603909
67	0xbe826104	-0.25464642
68	0xbe473f03	-0.19457631
69	0xbd30dad7	-0.043177452
70	0x3d4c15db	0.04982553
71	0x3c6db6ec	0.014508944
72	0xbe835622	-0.25651652
73	0x3e86f2f8	0.26357245
74	0xbdf0c974	-0.11757174
75	0xbe204158	-0.15649927
76	0xbe1f4ff8	-0.1555785
77	0x3dbae66f	0.09125983
78	0xbea90697	-0.3301284
79	0x3e3e91c5	0.18610294
80	0x3e431116	0.19049487
81	0xbe38ff45	-0.18066128
82	0xbea25e84	-0.31712735
83	0xbea911ca	-0.33021384
84	0x3d0304be	0.031986944
85	0xbeb4a388	-0.35281014
86	0xbe93d74f	-0.28875205
87	0x3e98fa56	0.2987849
88	0x3e4345f1	0.1906965
89	0x3eb8cfd3	0.36096057
90	0x3e6de67b	0.23232453
91	0x3d294d1b	0.0413333
92	0x3d84f705	0.06492428
93	0x3e6a89ef	0.2290418
94	0xbe8f015a	-0.2793072
95	0xbe0ec5a0	-0.13942575
96	0x3e9218f1	0.28534654
97	0xbd18ed7a	-0.03733585
98	0xbe88022f	-0.26564166
99	0xbf0116c6	-0.50425375
100	0x3e70e894	0.23526222
101	0x3ea3f9cd	0.3202652
102	0x3deceb96	0.11568372
103	0xbe2b4b45	-0.16727932
104	0x3ecbcb1e	0.39803404
105	0xbebfe93d	-0.37482634
106	0xbe9697ea	-0.29412776
107	0xbec920e0	-0.39282894
108	0x3ea41dc6	0.32053965
109	0x3e25ac23	0.16178946
110	0xbe407edd	-0.18798395
111	0x3cd274a2	0.02569038
112	0xbe2f13ec	-0.17097443
113	0xbe860e47	-0.26182768
114	0xbd776a85	-0.06040432
115	0xbccf20a7	-0.025284125
116	0xbe95af71	-0.29235414
117	0xbe89acf3	-0.26889762
118	0x3d990cc8	0.07473141
119	0x3ca742b7	0.020417554
120	0x3e8e691e	0.27814573
121	0xbe51fa76	-0.205057
122	0x3d744f88	0.05964616
123	0x3def1be0	0.116752386
124	0xbeb6fed5	-0.35741296
125	0xbe8774d6	-0.26456326
126	0xbd9cabad	-0.07649932
127	0x3cefaa99	0.029256152
128	0xbe064d9a	-0.1311554
129	0x3dda7fba	0.10668893
130	0xbe817361	-0.2528334
131	0x3ec45d5e	0.38352484
132	0xbcd5caff	-0.026097773
133	0x3e1ace31	0.15117718
134	0x3c887827	0.016658856
135	0x3e8edb1b	0.2790154
136	0xbedb6ddf	-0.42857262
137	0x3dc6bc74	0.09703913
138	0x3d9d980a	0.07695015
139	0xbdbcb7cc	-0.09214744
140	0x3e379149	0.17926516
141	0xbe88ef80	-0.26745224
142	0xbebaac16	-0.36459416
143	0xbe5d9617	-0.21639286
144	0xbec1fdbf	-0.37888905
145	0x3e8fe549	0.28104618
146	0xbe798403	-0.24366765
147	0xbeb92e5e	-0.36168188
148	0xbe9aca8c	-0.30232656
149	0xbe8cd770	-0.27508116
150	0xbecdb9a7	-0.40180704
151	0x3e8b11ce	0.2716202
152	0xbe9cef04	-0.30651104
153	0x3e7eaccf	0.24870609
154	0x3e8e57c4	0.27801335
155	0xbdc5dac8	-0.0966087
156	0x3e4b0dec	0.1982953
157	0xbe6a2c16	-0.2286838
158	0x3ebdbd92	0.37058693
159	0x3e35960b	0.17733018
160	0x3dc6afaf	0.09701478
161	0x3e24b68f	0.16085266
162	0xbec14895	-0.37750688
163	0xbe04bc24	-0.12962395
164	0x3e1053af	0.14094423
165	0xbeb5ae1f	-0.35484406
166	0x3e7c66d1	0.24648596
167	0xbe1f52d0	-0.15558934
168	0xbe173335	-0.14765628
169	0xbea5d78a	-0.32391006
170	0x3dcc3331	0.099707015
171	0xbeab7c07	-0.33493063
172	0xbdb16c6e	-0.086632594
173	0xbcafe61b	-0.021472028
174	0x3d7ae2ba	0.06125138
175	0x3de603f6	0.11231224
176	0xbe1e0ec4	-0.1543532
177	0xbdeb0808	-0.11476141
178	0xbd00fe34	-0.031492427
179	0xbd058cde	-0.032605045
180	0x3e98cb95	0.2984282
181	0x3de2762e	0.11057697
182	0x3dc0b9a0	0.09410405
183	0xbea86ec2	-0.32897002
184	0x3e2b0500	0.16701126
185	0xbe4012b7	-0.18757139
186	0xbddfcf20	-0.10928178
187	0x3b20237a	0.0024435208
188	0xbdd32993	-0.10310664
189	0x3dc6bd2b	0.0970405
190	0x3e359848	0.17733872
191	0xbe79c6c5	-0.24392231
192	0x3db016bc	0.08598086
193	0xbea7fe27	-0.3281109
194	0x3e91ca13	0.28474483
195	0x3e18ab29	0.14909042
196	0x3ea4a3e7	0.32156298
197	0x3ebb632d	0.36599103
198	0x3daf7f95	0.08569256
199	0x3d03ce7a	0.032179333
200	0xbe0a0fca	-0.13482586
201	0xbe2eaebe	-0.17058846
202	0x3e93962e	0.28825516
203	0x3db18d53	0.086695336
204	0xbed2ba1d	-0.41157618
205	0x3d4b50a9	0.04963747
206	0xbbc682c0	-0.006058067
207	0xbc94aa22	-0.018147532
208	0xbe8c75e2	-0.27433687
209	0xbe0a5c17	-0.13511692
210	0x3d074360	0.03302324
211	0xbe8f9755	-0.28045145
212	0xbec26f4c	-0.37975538
213	0xbe4eda97	-0.20200573
214	0xbda28a21	-0.07936502
215	0x3e039113	0.1284831
216	0x3e4e1007	0.20123301
217	0xbe60495a	-0.21902981
218	0xbcaef697	-0.021357818
219	0xbea58c25	-0.32333484
220	0xbe5fa43f	-0.21839999
221	0xbd930653	-0.071789406
222	0xbe4e21e4	-0.20130116
223	0xbac5b4a2	-0.001508374
224	0xbe4f5337	-0.20246588
225	0xbd8a0987	-0.067400984
226	0xbe6be8d6	-0.23038039
227	0xbe85930c	-0.2608875
228	0x3d86083f	0.065445416
229	0xbe4d3be9	-0.20042385
230	0x3d134451	0.035953823
231	0x3e5c0d08	0.21489346
232	0xbd52ce44	-0.05146624
233	0xbe54c8fb	-0.20779793
234	0xbe7aff0b	-0.24511354
235	0xbe996cb7	-0.29965755
236	0xbdc63944	-0.09678891
237	0xba40cffe	-0.0007355212
238	0x3e7006ce	0.23440096
239	0x3f039a38	0.51407194
240	0xbe655fd2	-0.22399834
241	0xbe2801aa	-0.16406885
242	0x3e644600	0.22292328
243	0x3dd2b200	0.10287857
244	0x3e73d6c2	0.23812392
245	0x3b65caf0	0.0035063587
246	0xbd3347bc	-0.043769583
247	0xbebafe7b	-0.36522278
248	0xbb8950d1	-0.0041905423
249	0xbea2a91d	-0.31769648
250	0xbddbc36c	-0.10730633
251	0xbeaeb36b	-0.3412126
252	0xbec8f166	-0.39246672
253	0x3e328875	0.17434867
254	0xbcf2ba57	-0.02962987
255	0x3e2a10da	0.16607991

net.2.weight f4 [256, 256]
0	0x3d4bb504	0.049733177
1	0x3c885638	0.016642675
2	0x3d2949a7	0.041330006
3	0x3d6fb31e	0.05852043
4	0xbe3cd993	-0.18442373
5	0x3cf6344c	0.030054234
6	0x3d57da7a	0.05269859
7	0xbcfe30d0	-0.031029135
8	0x3db498a1	0.08818174
9	0xbe91067c	-0.2832526
10	0xbe2f2fd0	-0.17108083
11	0x3c6db5c0	0.014508665
12	0xbd880781	-0.06642056
13	0xbe7a28af	-0.24429582
14	0xbd1886fa	-0.0372381
15	0xbc8a2df3	-0.016867613
16	0x3d288bbf	0.041148897
17	0x3d4a104c	0.04933195
18	0xbd3447ac	-0.044013664
19	0xbbed4746	-0.0072411625
20	0x3d00644a	0.031345643
21	0x3d3502d4	0.04419215
22	0x3c8048a0	0.01565963
23	0x3c921fa4	0.017837353
24	0x3ef26f6d	0.47350636
25	0xbe540ccd	-0.20708008
26	0x3cae16cc	0.021251105
27	0xbd482cd4	-0.048870876
28	0x3d96b329	0.07358391
29	0x3a939147	0.0011258506
30	0x3db38cea	0.087671116
31	0xbcb4e3e4	-0.022081323
32	0xbd7dc850	-0.06195861
33	0xbabe1e8d	-0.0014504954
34	0x3cc403bc	0.023927562
35	0x3d5c6f1e	0.053816907
36	0xbe15e6a2	-0.1463876
37	0x3cf4724c	0.029839657
38	0xbd72e966	-0.059304617
39	0xbd74d032	-0.059768863
40	0xbd205190	-0.039140284
41	0xbc0740d8	-0.008255206
42	0x3c8eff9c	0.017455868
43	0x3b5ac668	0.003338242
44	0xbeb65351	-0.3561044
45	0xbe800d9f	-0.25010392
46	0x3b7c0300	0.0038453937
47	0x3dc4bbd7	0.0960614
48	0x3d7437b7	0.059623446
49	0xbe14b590	-0.14522386
50	0xbc042460	-0.008065313
51	0xbd0641aa	-0.032777466
52	0xbda9da0a	-0.08293541
53	0xbd4cfd22	-0.050046094
54	0xbe998ed6	-0.29991788
55	0xb879c9a7	-5.955403e-05
56	0x3ddbbe0a	0.107296064
57	0xbd3a2734	-0.045447543
58	0x3e032f3b	0.12810986
59	0xbdb54042	-0.08850147
60	0x3cfcbfa0	0.030853093
61	0xbb62e600	-0.0034621954
62	0x3e3b4788	0.18289006
63	0x3d576edb	0.052595954
64	0x3d3a19a7	0.04543462
65	0xbf2859a5	-0.65761787
66	0xbe676fdb	-0.22601263
67	0x3de20ea3	0.11037948
68	0xbd16eb89	-0.036845718
69	0x3d7174a6	0.058949135
70	0x3d96bd58	0.07360333
71	0x3d748c6e	0.059704237
72	0xbcef2a78	-0.029195055
73	0x3cf31dfb	0.029677382
74	0x3cfb276c	0.030658446
75	0xbdb77fa5	-0.08959893
76	0x3d006aa2	0.031351693
77	0x3c72ce1a	0.014819646
78	0x3d59fb36	0.05321809
79	0xbe3733ec	-0.178909
80	0x3cfab4d8	0.030603811
81	0xbbdd0af8	-0.0067456923
82	0x3c8ead78	0.0174167
83	0xbe2348a2	-0.15945676
84	0xbd30dd5b	-0.04317985
85	0xbd425e32	-0.047453113
86	0xbc96347c	-0.018335573
87	0x3e155590	0.14583421
88	0x3b85f351	0.0040878435
89	0x3dd39811	0.10331739
90	0xbb3adbdd	-0.0028512396
91	0xbd04f989	-0.032464538
92	0x3d03f669	0.032217417
93	0xbf005410	-0.5012827
94	0xbc6b5dc7	-0.01436562
95	0xbedd15fa	-0.4318083
96	0xbd26dd49	-0.040738378
97	0xbd757d86	-0.05993416
98	0x3c19abb0	0.009379312
99	0xbdf4963f	-0.1194272
100	0x3e265211	0.16242243
101	0x3deabfa7	0.11462336
102	0x3b7a2f14	0.0038175033
103	0x3deaa560	0.11457324
104	0xbed8645c	-0.42264068
105	0xbc59cce8	-0.013293482
106	0x3cc3a11c	0.023880534
107	0x3d00d402	0.031452186
108	0x3e441fc9	0.1915275
109	0xbe0d5dd2	-0.13805321
110	0xbccf459c	-0.025301747
111	0xbd29331c	-0.041308507
112	0x3c025268	0.0079542175
113	0xbd02c328	-0.031924397
114	0xbbb734e0	-0.00559102
115	0x3cee464f	0.02908626
116	0xbd71df40	-0.0590508
117	0x3d2d8c56	0.042370163
118	0xbbda32c1	-0.0066588824
119	0xbe38b597	-0.18038021
120	0x3d8c743b	0.06858107
121	0xbd09bf38	-0.033629626
122	0x3b6e13cd	0.003632772
123	0xbe0ffa9d	-0.14060445
124	0x3b3d9d40	0.002893284
125	0x3c934de4	0.017981477
126	0x3dab928d	0.08377562
127	0x3ddeb96e	0.10875212
128	0xbc9d17e0	-0.019176424
129	0xbec0ad9a	-0.37632447
130	0xbba04520	-0.004891053
131	0x3e1b9847	0.15194808
132	0xbdea6507	-0.11445051
133	0x3e0d4dd4	0.1379922
134	0xbe46870f	-0.19387458
135	0x3e8b2559	0.27176932
136	0xba9bd28d	-0.001188831
137	0xbeb72186	-0.35767764
138	0xbef7d35e	-0.48403448
139	0xbd5fcdd0	-0.054639637
140	0x3dd55391	0.1041633
141	0x3c196f9e	0.0093649905
142	0x3d2bf7fa	0.041984536
143	0xbd289510	-0.041157782
144	0x3cd7d1b0	0.026345104
145	0x3ddf3077	0.10897916
146	0xbe4e4c87	-0.2014638
147	0xbd7bcee4	-0.061476603
148	0xbd090521	-0.033452157
149	0x3a8cd7c0	0.0010745451
150	0xbe59b032	-0.2125862
151	0x3e480aff	0.19535445
152	0xbc193470	-0.009350881
153	0xbecfae04	-0.4056245
154	0x3e8a697f	0.27033612
155	0xbece7a3b	-0.4032763
156	0xbd916ba4	-0.07100609
157	0xbd235122	-0.039872296
158	0xbe9767d7	-0.2957141
159	0xbdb641ef	-0.088992946
160	0x3d5f7cd4	0.054562405
161	0xbee11fba	-0.43969518
162	0xbecfdebf	-0.4059963
163	0x3bc21f0e	0.005924112
164	0xbebec4ef	-0.37259623
165	0xbc910db4	-0.01770673
166	0xbe5571f1	-0.20844246
167	0x3d2d268e	0.042273097
168	0x3d6b8fd8	0.057510227
169	0xbb2c9c60	-0.0026338324
170	0xbee7ebbe	-0.45297045
171	0x3d10d348	0.035357744
172	0xbcaf1b40	-0.021375299
173	0xbc43e6c2	-0.011956872
174	0x3ca89b9e	0.020582017
175	0x3d427c80	0.047482014
176	0xbee839de	-0.4535665
177	0xbdaa766e	-0.0832337
178	0xbd9fc77c	-0.078017205
179	0xbec95c72	-0.39328343
180	0xbd0dc018	-0.034607023
181	0xbe2cb18a	-0.16864601
182	0x3a3a0932	0.0007096707
183	0xbcbcce58	-0.023047611
184	0xbe43a564	-0.1910606
185	0x3d5dba22	0.05413259
186	0xbc07be98	-0.008285187
187	0xbd00d840	-0.031456232
188	0x3e08a898	0.13345563
189	0xbd6792fa	-0.056536652
190	0xbe2fde5a	-0.17174664
191	0x3c6af330	0.014340207
192	0x3dccab5b	0.09993621
193	0xbc1827d8	-0.009286843
194	0xbe9866a2	-0.29765803
195	0xbe8ffa72	-0.28120762
196	0xbdd45796	-0.10368268
197	0x3e86688a	0.26251632
198	0xbf0c1801	-0.5472413
199	0xbea0b1e3	-0.31385717
200	0x3cd55a2e	0.026043978
201	0xbc2019e0	-0.009771794
202	0xbef57888	-0.4794352
203	0x3d011f9c	0.031524286
204	0xbd51a1c5	-0.051179666
205	0xbe9d6999	-0.30744627
206	0xbc9b830c	-0.018983386
207	0x3d40e16a	0.04708997
208	0xbe76be07	-0.24095927
209	0xbe9171b7	-0.2840707
210	0xbe100a79	-0.14066495
211	0xbd2f7de0	-0.042844653
212	0x3d1f7d94	0.03893812
213	0xbde6852c	-0.11255869
214	0xbec0fac6	-0.37691325
215	0xbd9facad	-0.07796607
216	0xbd82fd36	-0.063959524
217	0xbd11dea4	-0.035612717
218	0xbe84f5a7	-0.25968668
219	0x3ceb0657	0.028689547
220	0xbd37e354	-0.04489453
221	0x3ca462d4	0.020066656
222	0xbe59e7d8	-0.21279848
223	0xbd438684	-0.047735706
224	0xbbcd4450	-0.006264247
225	0x3df00d44	0.1172128
226	0xbd37d18a	-0.044877566
227	0xbd984b09	-0.07436187
228	0xbc86e98e	-0.01646879
229	0xbd1d94a0	-0.038471818
230	0xbee4fc3e	-0.44723696
231	0x3c5e0a73	0.013552296
232	0xbedc59be	-0.43037218
233	0x3b0a3820	0.0021090582
234	0x3d550ed0	0.05201608
235	0xbe8cf150	-0.27527857
236	0xbeac0e3a	-0.33604604
237	0x3eb98225	0.36232105
238	0xbed0f0be	-0.40808672
239	0x3d0f0636	0.034918033
240	0xbccb5b30	-0.024823755
241	0xba337000	-0.00068449974
242	0xbd946a6e	-0.07246862
243	0x3ced20fb	0.02894639
244	0x3e056467	0.13026582
245	0x3d992f0d	0.07479677
246	0x3ee9a0fa	0.45630628
247	0xbe8a9386	-0.27065676
248	0xbdf5a95b	-0.119951926
249	0xbc918f33	-0.017768478
250	0x3d322980	0.04349661
251	0x3d7b1ef6	0.061308824
252	0x3cf92268	0.030411914
253	0xbc109282	-0.008823993
254	0xbe680703	-0.22658925
255	0xbded837b	-0.115973435

net.2.bias f4 [256]
0	0x3d08cd55	0.033398945
1	0xbd4be9ad	-0.049783397
2	0xbb759021	-0.003746994
3	0xbd114fe9	-0.0354766
4	0xbd0050ed	-0.031327177
5	0xbcd8e5e1	-0.026476802
6	0xbd60f4f0	-0.05492109
7	0xbc6290fd	-0.013828513
8	0xba7abd96	-0.00095649937
9	0xbd229dd5	-0.0397013
10	0xbd354005	-0.044250507
11	0x3c9f2521	0.019426884
12	0xbc77ef3f	-0.015132724
13	0x3e4bcee8	0.19903147
14	0x3e7f44be	0.24928567
15	0x3cb3df1e	0.021956977
16	0xbd3f0a40	-0.046640635
17	0x3e3f1efc	0.18664163
18	0xbd093db0	-0.033506095
19	0xbd22eec2	-0.03977848
20	0xbe0a796a	-0.13522878
21	0x3e6e5b4b	0.23277013
22	0x3c8ed6c8	0.0174364
23	0xbc2ff02c	-0.010738414
24	0x3da4ef65	0.080534734
25	0x3aa22156	0.0012369554
26	0xbd27624b	-0.040865224
27	0xbd48a340	-0.048983812
28	0xbd915d7a	-0.07097907
29	0xbd3cb362	-0.04606951
30	0xbda4d982	-0.08049299
31	0xbd173bc8	-0.036922246
32	0xbd36331e	-0.044482343
33	0x3b0b769c	0.0021280413
34	0xbd41d51b	-0.047322374
35	0x3e9652b6	0.29359978
36	0xbc2710a7	-0.010196841
37	0x3c9b2adc	0.018941335
38	0x3c429462	0.0118761975
39	0xbd079729	-0.033103142
40	0xbd79ea80	-0.061014652
41	0xbd28f96e	-0.0412535
42	0x3b9ee75f	0.004849359
43	0xbbd703be	-0.0065617254
44	0xbd4aa73b	-0.04947589
45	0xbbacb99e	-0.0052711507
46	0xbcb6859b	-0.022280505
47	0x3cca5c2e	0.024702158
48	0xbdeaaa2d	-0.1145824
49	0xbb81ef98	-0.0039653294
50	0xb8ad9259	-8.276542e-05
51	0xbd70d14e	-0.05879336
52	0xbd8c65ca	-0.06855352
53	0xbc45fc01	-0.012084008
54	0x3e6858f4	0.22690183
55	0xbd85e970	-0.06538665
56	0xbc4c472c	-0.012468141
57	0xbd1c1f31	-0.038115684
58	0xbcae2d32	-0.021261785
59	0x3c29b711	0.010358588
60	0x3c59866f	0.01327668
61	0x3bdefe69	0.0068052304
62	0xbba30c2f	-0.0049758176
63	0xbc60fcd2	-0.013732152
64	0x3d094238	0.033510417
65	0x3ce5db9e	0.028058823
66	0x3b15c366	0.0022852062
67	0xbd8710fb	-0.06595036
68	0x3eb0d897	0.34540245
69	0xbeb8b936	-0.36078805
70	0xbd991b1f	-0.07475876
71	0xbe51a02e	-0.2047126
72	0x3c0ff21a	0.008785749
73	0xbc820697	-0.015872283
74	0xbd888ecb	-0.066678606
75	0x3aae27a1	0.0013286957
76	0xbb4e64c7	-0.0031493173
77	0xbd73816f	-0.05944961
78	0xbd39704e	-0.045273118
79	0x3a27572e	0.0006383535
80	0x3c7429b1	0.014902518
81	0xbd86cdbd	-0.0658221
82	0xbc620ccb	-0.013796995
83	0xbd829bc6	-0.06377368
84	0xbd1c53bc	-0.038165793
85	0x3dd9119b	0.10599061
86	0xbd6317d7	-0.055442657
87	0x3cad30a3	0.021141356
88	0xbc3ef2e0	-0.011654586
89	0xbd3e4392	-0.04645116
90	0xbd74caf5	-0.059763867
91	0xbc61aab7	-0.013773612
92	0x3e5db6f7	0.21651827
93	0xbd036916	-0.03208264
94	0x3bfcafc4	0.0077113826
95	0x3eb4917a	0.3526724
96	0xbc11a1e8	-0.008888699
97	0xbd5f5c3d	-0.054531325
98	0xbd14a689	-0.036291633
99	0x3ea12076	0.31470078
100	0xbcebbfec	-0.028778039
101	0xbcbe470d	-0.023227239
102	0x3e6fd5b5	0.23421367
103	0x3e6a25f8	0.22866046
104	0x3e268fc1	0.16265775
105	0x3c7880dd	0.015167442
106	0x3d052de7	0.03251448
107	0xbd4234eb	-0.047413748
108	0x3c330cf4	0.010928381
109	0xbd8c3250	-0.06845534
110	0xbd0a8f76	-0.03382822
111	0xbcef1508	-0.029184833
112	0xbcaea772	-0.021320079
113	0xbcaaf92c	-0.020870768
114	0x3b19f557	0.0023492181
115	0xbd46779c	-0.048453912
116	0xbd8965f1	-0.06708897
117	0x3bbb2b3d	0.0057119415
118	0xbd64793e	-0.055779688
119	0xbc9301ee	-0.017945256
120	0xbd3d84e2	-0.046269305
121	0xbdeb3f86	-0.114867255
122	0xbb16f29e	-0.0023032795
123	0x3c762e73	0.015025723
124	0xbd3963ed	-0.045261312
125	0x3e1f0e04	0.1553269
126	0x3c795c16	0.015219709
127	0xbc1f8828	-0.009737052
128	0x3b5c1b75	0.0033585702
129	0x3c3fb4f3	0.0117008565
130	0xbd0eecfe	-0.034893982
131	0x3e54922e	0.20758888
132	0x3c539c12	0.012915628
133	0xbceda7ea	-0.029010732
134	0xbd424167	-0.047425654
135	0xbbd925fd	-0.006626843
136	0xbd7fe5a6	-0.06247487
137	0x3e307b2b	0.17234485
138	0xbd1b8b91	-0.037974898
139	0x3d240d16	0.040051542
140	0xbd575450	-0.05257064
141	0xbc66e5a4	-0.0140928365
142	0xbb996a29	-0.0046818447
143	0xbd2edd8e	-0.04269176
144	0xbb101269	-0.002198363
145	0xbbe4c5fd	-0.00698161
146	0x3cd6f402	0.026239399
147	0xbd3a3c1a	-0.045467474
148	0xbc32da55	-0.010916312
149	0x3e76b613	0.24092893
150	0x3dc1cb60	0.09462619
151	0xbd40e44b	-0.047092717
152	0xbcbacb4e	-0.022802021
153	0xbd871096	-0.065949604
154	0xbd7255b7	-0.059163775
155	0xbd6b215f	-0.057404872
156	0x3ccbcbe9	0.024877505
157	0x3de9355e	0.11387132
158	0x3bbd6f79	0.005781111
159	0xbcb16a91	-0.02165726
160	0xbb7cb48a	-0.0038559758
161	0xbd435a30	-0.04769343
162	0xbd125e9a	-0.03573475
163	0x3cf9939c	0.030465893
164	0x3debbf0b	0.11511048
165	0xbd7ea07a	-0.06216476
166	0xbd501dce	-0.050809674
167	0x3ca26b8a	0.01982667
168	0xbcf38c5a	-0.02973001
169	0x3cb2e25f	0.021836458
170	0xbd5c7643	-0.05382372
171	0xbd2734e8	-0.04082194
172	0x3c132131	0.008980081
173	0xbda8844a	-0.08228357
174	0xbd96fce4	-0.07372454
175	0x3cb48291	0.022034915
176	0xbd384d09	-0.04499534
177	0xbcbfa2b7	-0.023393018
178	0x3c3db178	0.011577956
179	0x3e012f60	0.12615728
180	0xba9f2cbd	-0.001214407
181	0x3c345123	0.011005673
182	0xbd527a08	-0.05138591
183	0xbd662f0b	-0.056197207
184	0x3cdd333e	0.027001973
185	0xbc1ee7f2	-0.009698855
186	0xbd4e8a6e	-0.050424986
187	0x3bf6145d	0.0075097517
188	0xbd16daac	-0.036829636
189	0x3e08267b	0.13295929
190	0x3c9464ee	0.018114533
191	0xbd5c1cf4	-0.05373855
192	0x3e1e49c1	0.15457822
193	0xbcc8fa6b	-0.024533471
194	0xbd5456dd	-0.05184065
195	0xbd7bcf6f	-0.06147712
196	0xbc6e803e	-0.0145569425
197	0x3c2e7eb1	0.010650323
198	0xbd8add3d	-0.06780479
199	0x3c9300aa	0.017944653
200	0x3c66fa07	0.014097697
201	0xbb293d28	-0.0025823805
202	0xbd150e77	-0.036390748
203	0xbd495acb	-0.049158853
204	0xbd0ae39c	-0.03390847
205	0x3c8990d2	0.016792689
206	0xbd313ec0	-0.043272734
207	0x3b01c164	0.0019799108
208	0xbcc37ae7	-0.023862315
209	0x3e8e32e8	0.27773213
210	0x3e3d503c	0.18487638
211	0xbc086a61	-0.008326144
212	0x3e8998d1	0.26874402
213	0x3d0c729d	0.03428899
214	0xbcc6edd5	-0.024283329
215	0xbc9d3f41	-0.0191952
216	0xbdc1420d	-0.09436426
217	0x3e3967c4	0.1810599
218	0xbd1b2054	-0.037872627
219	0xbc87ff10	-0.016601115
220	0xbdb53fce	-0.088500604
221	0xbbfc5641	-0.007700712
222	0xbd166a65	-0.03672256
223	0xbeb421ee	-0.35182136
224	0x3e470c1e	0.19438216
225	0xbddc0d53	-0.10744729
226	0xbd8419db	-0.06450244
227	0xbd7e244d	-0.062046338
228	0x3cc6df94	0.024276532
229	0x3e485c68	0.195665
230	0xbcb8ffda	-0.022582937
231	0xb9ff5a22	-0.00048704544
232	0xbd8fc38c	-0.070197195
233	0xbc7b1ebd	-0.015327153
234	0xbc259f43	-0.010108772
235	0xbd739120	-0.059464574
236	0xbca33946	-0.019924771
237	0x3e27d378	0.16389263
238	0x3c956e27	0.018241001
239	0xbb931e45	-0.0044896924
240	0x3d2f0f03	0.042738926
241	0xbd5b9670	-0.053610265
242	0xbd8b5a86	-0.06804375
243	0xbc4f9460	-0.012669653
244	0x3e79b0b5	0.24383815
245	0xbcb2ef86	-0.02184273
246	0x3e24f6fa	0.16109839
247	0x3deeb986	0.116564795
248	0x3c29f7bf	0.010374009
249	0xbd57fe0a	-0.052732505
250	0x3b0c66ef	0.0021423658
251	0x3b138d8d	0.002251479
252	0x3bfbea8d	0.0076878727
253	0x3e13a5c1	0.14418699
254	0xbd48d4a3	-0.04903091
255	0xbd12a074	-0.03579755

net.4.weight f4 [4, 256]
0	0xbd8372fe	-0.064184174
1	0xbcac9fa7	-0.021072222
2	0x3c9f46b4	0.019442894
3	0x3d536e2a	0.051618733
4	0x3d4701c5	0.048585672
5	0x3c86c7ad	0.016452635
6	0xbc2af3c8	-0.010434099
7	0x3d0185ae	0.031621628
8	0xbbeefe4d	-0.0072934986
9	0xbd1374e7	-0.03600016
10	0xbc9d55e0	-0.019205987
11	0x3bb85225	0.0056250268
12	0xbc6613b5	-0.014042784
13	0x3e488322	0.19581273
14	0xbfa864e7	-1.3155793
15	0xbc4a930b	-0.012364159
16	0xbd3237d1	-0.043510262
17	0x3f8c9d69	1.0985538
18	0xbd24c9e7	-0.04023161
19	0xbced8fea	-0.028999288
20	0x3d73a701	0.05948544
21	0xbf316fad	-0.6931103
22	0x3ac91503	0.0015341345
23	0x3c9f97b7	0.019481523
24	0x3f3e52eb	0.7434527
25	0xbc562afc	-0.013071772
26	0xbc813ec0	-0.015776992
27	0x3d046fa0	0.032333016
28	0xbb564c5b	-0.003269932
29	0x3d478fc9	0.04872111
30	0xbd9a4cb3	-0.075341605
31	0xbd3a7e53	-0.04553063
32	0x3cec7ade	0.028867181
33	0xbd9171d9	-0.07101793
34	0xbe9bad87	-0.30405828
35	0x3e91d505	0.28482834
36	0x3ce25972	0.027630541
37	0xbd18ae4c	-0.037275597
38	0x3d5c1edd	0.05374037
39	0xbd4165e5	-0.047216315
40	0xbd3e3a6d	-0.046442438
41	0x3d08c928	0.033394963
42	0xbc93037a	-0.017945994
43	0x3c1feb68	0.009760715
44	0x3c2919f5	0.01032113
45	0xbb314d5f	-0.0027054173
46	0x3c7d4bf1	0.01546
47	0x3ce383ec	0.027772866
48	0xbea77c56	-0.32712048
49	0x3d562775	0.052283723
50	0x3d25bec4	0.04046513
51	0xbd4d3ac1	-0.05010486
52	0xbd879ba9	-0.06621487
53	0xbd12f010	-0.035873473
54	0x3f6041bb	0.87600297
55	0x3d5d7e85	0.054075737
56	0xbd52b93c	-0.051446185
57	0xbb0bade3	-0.0021313361
58	0x3b85a464	0.004078435
59	0xbcd32e24	-0.025778838
60	0xbb9c858f	-0.0047766636
61	0x3d19f48e	0.03758674
62	0x3d423f8f	0.047423895
63	0xbba04d24	-0.0048920084
64	0xbe3fa9ab	-0.18717067
65	0xbd95a9f1	-0.073078044
66	0x3cd59ffc	0.026077263
67	0x3cd37611	0.025813134
68	0xbf4cb2da	-0.79960406
69	0xbe10342e	-0.14082405
70	0xbdf06bcb	-0.1173931
71	0x3f2e68f8	0.6812892
72	0x3d3c97bc	0.046043143
73	0xbc39fd41	-0.011351884
74	0xbd406776	-0.046973668
75	0xbbae01c0	-0.005310267
76	0xbce44a5d	-0.02786749
77	0x3d0b0b7d	0.033946503
78	0xbd3106e1	-0.04321945
79	0xbd77645a	-0.060398437
80	0x3d50288a	0.05081991
81	0x3d0cf0a1	0.03440917
82	0x3c24f9ab	0.010069291
83	0x3c65f407	0.014035231
84	0x3c91bfce	0.017791655
85	0xbf9561c8	-1.1670465
86	0x3bbfe503	0.0058561577
87	0x3d47538e	0.04866367
88	0x3cbdc962	0.023167316
89	0xbcd5cbe1	-0.026098194
90	0x3d23ba7b	0.039972764
91	0xbcbfcbc7	-0.023412598
92	0x3f477bbf	0.77923197
93	0xbbbd82d8	-0.00578342
94	0xbd057ed4	-0.032591656
95	0x3fbd3823	1.4782757
96	0xbc6bb8ca	-0.014387319
97	0x3bebbb41	0.0071939533
98	0x3c106756	0.0088137
99	0xbf8f6093	-1.1201347
100	0xbd180613	-0.037115168
101	0x3d3769ee	0.044778757
102	0xbd9d0d21	-0.0766852
103	0xbea5c890	-0.3237958
104	0xbebf8e2c	-0.37413156
105	0xbcea07a1	-0.02856809
106	0x3d8ef880	0.06980991
107	0xbb830e3a	-0.0039994987
108	0x3d0a4a35	0.033762176
109	0xbd226457	-0.039646473
110	0xbd61c93b	-0.05512355
111	0xbd2f2033	-0.042755317
112	0xbc46863f	-0.012116968
113	0xbc71d692	-0.01476063
114	0x3ba514a2	0.00503786
115	0xbedbbb7e	-0.42916483
116	0x3c1a001e	0.009399442
117	0xbc5f4e1d	-0.0136294635
118	0x3b6db637	0.0036271939
119	0x3b4240cb	0.002964067
120	0xbd35623e	-0.044283144
121	0x3ef9a5e1	0.48759368
122	0xbd1ceb95	-0.038310606
123	0x3cd24b98	0.025670812
124	0x3d0da0ac	0.034577057
125	0x3e7cad75	0.24675544
126	0x3d7705f8	0.060308427
127	0x3d1a18ee	0.03762143
128	0x3d4379d0	0.04772359
129	0xbcb9cc95	-0.02268056
130	0xbc8ad2d2	-0.01694623
131	0x3dc1c9e1	0.094623335
132	0xbd576230	-0.052583873
133	0xbd4e7b22	-0.050410397
134	0xbbea32c6	-0.007147166
135	0xbc6b75fe	-0.014371393
136	0xbba947a7	-0.0051660123
137	0x3e96df53	0.29467258
138	0xbc58fcbc	-0.01324385
139	0xbe2247de	-0.15847728
140	0x3d171da6	0.03689351
141	0xbbc1c0f4	-0.0059128944
142	0x3be5583d	0.006999044
143	0x3cb50e6c	0.022101603
144	0x3d65c048	0.056091577
145	0x3d4cd872	0.050011106
146	0x3b10cf88	0.0022096355
147	0x3cb964a8	0.022631004
148	0x3d13995b	0.036034923
149	0x3ebeba71	0.37251619
150	0x3cbb116f	0.022835461
151	0x3c80068e	0.015628126
152	0xbda304d9	-0.07959909
153	0x3cece30a	0.028916854
154	0x3cd1dae6	0.025617074
155	0xbcf23c7b	-0.029569855
156	0xbcdb5e5c	-0.026778392
157	0x3e9670e7	0.29383013
158	0xbd87faa1	-0.066396005
159	0xbd4aedf5	-0.04954334
160	0x3b8af25b	0.004240317
161	0x3c97f639	0.018550025
162	0x3ca72096	0.02040128
163	0xbce811b8	-0.028328761
164	0xbf95ea56	-1.1712139
165	0x3d15cc8f	0.036572035
166	0x3a5ded80	0.0008465871
167	0xbc14a160	-0.009071678
168	0x3cc24a31	0.023717018
169	0x3cfcf9e1	0.03088087
170	0x3c91cea2	0.017798726
171	0x3d579848	0.05263546
172	0x3d24b757	0.04021391
173	0xbc0ad8d1	-0.008474545
174	0x3cecd579	0.028910385
175	0xbf7d2380	-0.98882294
176	0xbb439571	-0.0029843713
177	0x3da05ce3	0.07830217
178	0xbc9ce199	-0.019150542
179	0xbe78b975	-0.24289496
180	0x3bfbc756	0.007683675
181	0xbd523a39	-0.051325057
182	0xbcfa2924	-0.030537196
183	0x3cb6a0d8	0.022293493
184	0xbc930202	-0.017945293
185	0xbd14d131	-0.036332313
186	0xbb3df260	-0.0028983578
187	0x3be27175	0.006910498
188	0x3d4af6b2	0.049551673
189	0x3f22c8fe	0.6358794
190	0xbc258d76	-0.010104528
191	0xbc518094	-0.012787003
192	0xbf8dd998	-1.1082029
193	0xbc16590c	-0.009176504
194	0x3cea5273	0.028603768
195	0x3c8cefc4	0.017204173
196	0xbc1c8c5f	-0.009554951
197	0x3d3736c2	0.044729955
198	0x3b53932a	0.0032283762
199	0x3c87ec5b	0.016592195
200	0x3d0fa373	0.035067987
201	0xbd2de207	-0.042451885
202	0x3d393a28	0.045221478
203	0xbc18deeb	-0.009330492
204	0xbd20ae01	-0.039228443
205	0xbc9abcab	-0.018888792
206	0x3cb044f4	0.021517254
207	0x3cd10e81	0.025519611
208	0xbcd90aeb	-0.026494464
209	0x3e244d26	0.16045055
210	0xbd1ad5d2	-0.03780157
211	0xbc1a28aa	-0.009409109
212	0x3f83d2df	1.0298728
213	0xbbd75e17	-0.0065724957
214	0xbd1e637b	-0.03866909
215	0xbd87df2c	-0.066343635
216	0xbd86c9bc	-0.065814465
217	0x3e00c2b0	0.12574267
218	0xbc4d1e1c	-0.012519386
219	0xbd0126a4	-0.03153099
220	0xbc7903f8	-0.0151987
221	0x3d38cd2e	0.04511755
222	0xbc0ade77	-0.008475891
223	0xbd59089b	-0.052986722
224	0xbf38f514	-0.7224896
225	0xbcf8fe61	-0.030394735
226	0x3f340758	0.70323706
227	0x3d076a72	0.0330605
228	0xbce80b3e	-0.028325673
229	0xbf207960	-0.62685204
230	0xbd239886	-0.03994038
231	0x3cacf0de	0.021110948
232	0x3cf6b3db	0.030115059
233	0x3d0d8420	0.034549832
234	0xbcbbf9ed	-0.022946322
235	0x3c764887	0.01503194
236	0xbc5aa664	-0.013345335
237	0xbe7b2fd8	-0.2452997
238	0x3d3be71d	0.045874704
239	0x3d497a89	0.049189124
240	0xbd1b76c4	-0.03795506
241	0x3d293a55	0.041315395
242	0x3df43de5	0.11925868
243	0xbd20ce63	-0.039259326
244	0xbe0a0eb2	-0.13482168
245	0xbd015621	-0.03157628
246	0x3f5dd765	0.8665679
247	0x3f5a56b5	0.85288554
248	0xbced0f44	-0.028937943
249	0x3c200a3d	0.009768066
250	0x3cb026cc	0.021502875
251	0xbcf5e4ca	-0.030016322
252	0x3d38f511	0.04515559
253	0xbf2ccdb1	-0.6750136
254	0x3d517b9b	0.05114327
255	0x3d5df38c	0.054187343

net.4.bias f4 [4]
0	0xbca2964c	-0.019847058
1	0x3de1b577	0.1102094
2	0xbf168984	-0.5880358
3	0xbe7cf584	-0.24703032
