logs/PointMaze-Right/airl_sac/seed0-20231226-1522/model/step585000/actor.pth (torch, 276359 bytes, 6 tensors)

net.0.weight f4 [256, 6]
0	0xbb484f41	-0.0030564817
1	0x3e60421c	0.21900219
2	0xbeac0915	-0.3360068
3	0xbe99d40a	-0.30044585
4	0xbe210329	-0.15723862
5	0x3de03451	0.109474786
6	0xbf16eeeb	-0.5895831
7	0x3e9b5d13	0.30344447
8	0xbd14657f	-0.036229607
9	0xbdd47b09	-0.103750296
10	0xbea06cb8	-0.31332946
11	0xbda458cb	-0.080247484
12	0xbfa45dec	-1.2841163
13	0xbef6a3fb	-0.48171982
14	0xbe2c540d	-0.16828938
15	0x3f20e0f3	0.62843245
16	0x3e54e92f	0.20792077
17	0x3e7ad658	0.24495828
18	0xbf9f4ba6	-1.2444961
19	0xbda09a8c	-0.078419775
20	0x3e17d770	0.14828277
21	0x3f6c92bc	0.924114
22	0x3d40cd29	0.047070656
23	0x3e9c6a1b	0.30549702
24	0xc005b5f5	-2.0892308
25	0xbd4b866b	-0.049688738
26	0x3ebd43f6	0.36965913
27	0xbf83e83c	-1.0305247
28	0xbe86a660	-0.2629881
29	0xbdd3ab69	-0.10335428
30	0xbe22f454	-0.15913516
31	0x3eb4989d	0.35272685
32	0xbe877c0b	-0.26461825
33	0xbe4070c0	-0.1879301
34	0xbe920832	-0.28521878
35	0xbec3c34e	-0.38234943
36	0xbf189fa7	-0.5961861
37	0x3e59e18f	0.2127745
38	0x3e3a8a38	0.18216789
39	0x3d39181c	0.045189008
40	0xbe50d397	-0.20393215
41	0xbe56534f	-0.20930217
42	0xbe958b20	-0.29207706
43	0xbf602a6d	-0.87564737
44	0xbe970877	-0.29498646
45	0xbec959bc	-0.39326274
46	0x3e5dc3f6	0.21656784
47	0x3e751c02	0.23936465
48	0xbf49509b	-0.7863862
49	0x3e299c5a	0.1656355
50	0x3e85aed8	0.26109958
51	0x3f86e0ee	1.0537393
52	0x3cdae7b2	0.026721809
53	0x3d61e677	0.05515143
54	0x3e7dbd52	0.24779251
55	0xbef4a410	-0.4778142
56	0x3d9bcd04	0.07607463
57	0xbfb3d7e4	-1.405026
58	0xbe87c4da	-0.26517373
59	0xbe57f4b1	-0.21089436
60	0x3f83892d	1.0276238
61	0xbec6d404	-0.3883363
62	0xbe77a179	-0.2418269
63	0x3d771afd	0.060328472
64	0x3db478e1	0.08812118
65	0xbd530f0d	-0.051528025
66	0x3c7f62ed	0.015587551
67	0x3dc1ba01	0.094593056
68	0x3e81ac4d	0.25326768
69	0x3ec8b3e9	0.3919976
70	0xbea11402	-0.31460577
71	0xbe193389	-0.14961065
72	0xbeb4d216	-0.35316533
73	0x3efc3d91	0.4926572
74	0x3eb5e4ba	0.35526067
75	0x3e6969ad	0.22794218
76	0xbd8950d5	-0.067048706
77	0xbeb5c34d	-0.35500565
78	0xbeca235f	-0.3948011
79	0xbf2d6308	-0.67729235
80	0xbec2cccb	-0.3804687
81	0x3f260d64	0.6486418
82	0x3dc625b1	0.09675158
83	0xbed081a5	-0.4072391
84	0x3d9c7e40	0.07641268
85	0xbd8cd921	-0.068773516
86	0xbd89969e	-0.06718181
87	0xbe3f5d12	-0.18687847
88	0x3e20c324	0.1569944
89	0xbe779c3b	-0.24180691
90	0x3eca2c01	0.39486697
91	0x3ecd631b	0.40114674
92	0x3e95a23b	0.29225335
93	0x3f0baf23	0.5456411
94	0xbf271a39	-0.6527439
95	0xbe8797b8	-0.2648294
96	0xbe1e2d85	-0.15447052
97	0xbedf9a3e	-0.43672365
98	0xbea30e3c	-0.31846797
99	0xbf13b8a7	-0.5770363
100	0x3e68a3c1	0.22718717
101	0x3e8cd7f1	0.275085
102	0xbe364758	-0.17800653
103	0xbdd26e88	-0.102749884
104	0xbec71d73	-0.38889655
105	0xbbf072dd	-0.0073379115
106	0xbe9d6820	-0.30743504
107	0xbea13b3d	-0.31490508
108	0xbcb84603	-0.022494322
109	0x3d7b1200	0.061296463
110	0xbe2b33de	-0.16719005
111	0x3e780f2d	0.24224539
112	0xbe7e65c3	-0.24843507
113	0x3ebda94d	0.3704323
114	0x3f2140a1	0.6298924
115	0xbf2601f9	-0.6484676
116	0xbdd0171f	-0.1016066
117	0xbd83e951	-0.06440986
118	0xbd88447b	-0.066536866
119	0x3dc64cb5	0.096825995
120	0x3e240d9d	0.16020818
121	0x3cc8540d	0.024454141
122	0xbe4bfa0f	-0.19919609
123	0x3e45d09d	0.19317861
124	0xbec88155	-0.39161173
125	0xbe77c760	-0.2419715
126	0xbdd14c86	-0.10219674
127	0xbe4ba2cc	-0.19886321
128	0xbe123f1d	-0.14281888
129	0xbeab51e4	-0.33460915
130	0xbdb1d97c	-0.0868406
131	0x3db2b85d	0.08726571
132	0xbe882be2	-0.2659598
133	0xbcaba185	-0.020951042
134	0x3e95a11f	0.29224488
135	0xbd2be6ab	-0.04196803
136	0x3c39e519	0.011346125
137	0xbd1041f0	-0.035219133
138	0xbf5e0629	-0.8672815
139	0x3edb7622	0.42863566
140	0x3ec5ff12	0.38671166
141	0x3e6ec7a8	0.2331835
142	0x3e63b936	0.22238621
143	0xbcf1ded1	-0.029525192
144	0xbf93bf60	-1.1542778
145	0xbf367365	-0.7126983
146	0x3e8e532f	0.2779784
147	0xbeb0309d	-0.3441209
148	0x3dc48ff7	0.095977716
149	0xbea02d48	-0.31284547
150	0xbf0014c8	-0.5003171
151	0xbf864e61	-1.0492669
152	0xbda9971d	-0.08280776
153	0x3ef35751	0.47527555
154	0x3ea781d8	0.3271625
155	0xbec996ad	-0.3937277
156	0x3e826287	0.25465795
157	0xbea39005	-0.31945816
158	0xbdb0c231	-0.08630789
159	0xbe29819e	-0.16553351
160	0xbda10b50	-0.07863486
161	0xbda42922	-0.08015658
162	0xbebb9120	-0.3663416
163	0xbeb47a7e	-0.35249704
164	0xbd82d4d2	-0.063882485
165	0x3bad0000	0.005279541
166	0xbe3de86e	-0.18545696
167	0x3e1d7a4a	0.15378681
168	0xbfb2064f	-1.3908175
169	0xbe8349e3	-0.2564231
170	0x3eb7d1aa	0.35902148
171	0xbc13a7c7	-0.009012169
172	0x3ea25dec	0.31712282
173	0x3e1765a4	0.14784867
174	0xbfb1556c	-1.3854194
175	0x3ea2b02f	0.31775042
176	0xbd40f5fe	-0.047109596
177	0xbf1dfb97	-0.6171202
178	0x3e5311a6	0.20612201
179	0xbea8e91d	-0.3299035
180	0xbf154525	-0.5830863
181	0xbecf125f	-0.40443704
182	0x3e95441d	0.2915353
183	0x3f33f9ba	0.7030293
184	0x3e4f9b2e	0.2027404
185	0x3e13a304	0.14417654
186	0xbdc90f21	-0.09817339
187	0xbdafd5b7	-0.08585685
188	0xbeac4088	-0.33642983
189	0x3e628413	0.22120695
190	0x3ea5f5b5	0.32414022
191	0x3e8f04d1	0.27933362
192	0xbe9370bd	-0.2879695
193	0x3c952896	0.01820783
194	0xbe9358f8	-0.28778815
195	0xbe6620bb	-0.22473423
196	0xbe73990d	-0.23788853
197	0x3e0edd80	0.13951683
198	0xbf49d097	-0.7883391
199	0x3efe537e	0.49673074
200	0x3c8cb0fe	0.01717424
201	0x3f695400	0.911438
202	0xbf041393	-0.5159237
203	0xbe8f7f37	-0.28026745
204	0xbe66a6b7	-0.22524534
205	0x3e8ac238	0.27101302
206	0xbe1645e3	-0.14675097
207	0x3ea9006b	0.3300813
208	0x3e088a7f	0.13334082
209	0x3d53bdfc	0.051694855
210	0xbb472a21	-0.00303901
211	0xbda547b2	-0.080703154
212	0x3d51cd8e	0.051221423
213	0xbdbeead3	-0.09322133
214	0xbb3bfdf1	-0.0028685296
215	0x3d555bf3	0.052089643
216	0xbf8d7082	-1.104996
217	0xbf8ab1b1	-1.0835477
218	0x3ea8c8e0	0.32965755
219	0xbe3dc885	-0.18533523
220	0x3ddfc73a	0.10926671
221	0x3ecec616	0.40385503
222	0x3e170388	0.14747441
223	0x3c3d60ea	0.011558751
224	0xbeb5243b	-0.35379204
225	0x3e4f1744	0.20223719
226	0xbe94e216	-0.2907874
227	0xbded5638	-0.115887105
228	0xbe0722e0	-0.13196898
229	0xbd60159f	-0.05470812
230	0x3b9253a4	0.004465537
231	0x3ea908af	0.33014438
232	0x3d35ca42	0.04438234
233	0x3ebb3874	0.36566508
234	0x3e7fb95f	0.24973057
235	0xbe8425b8	-0.25810027
236	0x3e3b7ed6	0.18310103
237	0xbe93c1f4	-0.28858912
238	0xbe312db3	-0.17302589
239	0x3df5e9ee	0.12007509
240	0xbe274143	-0.16333489
241	0x3e66a9d4	0.22525722
242	0xbe069363	-0.13142161
243	0xbe65f96e	-0.22458431
244	0xbd85096f	-0.0649594
245	0xbeca2507	-0.39481375
246	0x3e971ea3	0.2951556
247	0xbeacd88e	-0.33758968
248	0x3bb86009	0.0056266827
249	0xbd8e2656	-0.06940906
250	0xbe5c2c75	-0.21501334
251	0x3d5d03b2	0.053958602
252	0x3eab1537	0.33414623
253	0xbdecfbad	-0.11571441
254	0xbe78310d	-0.24237461
255	0xbe1a9c18	-0.15098608

net.0.bias f4 [256]
0	0xbe0b00c9	-0.13574518
1	0xbd71692f	-0.0589382
2	0x3e688f2e	0.22710869
3	0x3deebaef	0.116567485
4	0x3ec41af9	0.38301829
5	0xbe90abf9	-0.28256205
6	0xbd8d0ea6	-0.068875596
7	0x3ea743b5	0.32668844
8	0xbe533db9	-0.20629014
9	0x3eaf0c8d	0.34189263
10	0xbe045e3a	-0.1292657
11	0xbe9c86a1	-0.30571464
12	0xbebe99dd	-0.37226763
13	0xbd7cc138	-0.061707705
14	0xbe34e8b9	-0.17666902
15	0xbe1a1bc7	-0.15049659
16	0x3e7ad390	0.24494767
17	0x3e0e008c	0.13867396
18	0xbd1c7fdb	-0.03820787
19	0xbcc50cb9	-0.024053918
20	0xbe70dad0	-0.2352097
21	0xbeafa1e1	-0.3430319
22	0xbe9d1f63	-0.3068801
23	0xbf01fd42	-0.50777066
24	0x3ec3f206	0.38270587
25	0x3e3e6f31	0.18597104
26	0xbe31a802	-0.17349246
27	0xbecc74c3	-0.39932832
28	0x3e2db531	0.1696365
29	0xbeb451cb	-0.35218653
30	0xbd7c4087	-0.061584976
31	0xbeaf431a	-0.34230882
32	0xbe6bd81f	-0.23031662
33	0xbd1797ec	-0.03701012
34	0xbeca25f7	-0.3948209
35	0xbe6e62f6	-0.23279938
36	0x3ee3a971	0.4446521
37	0xbe5664fe	-0.20936963
38	0xbe34b77c	-0.17648119
39	0xbdeac0ba	-0.11462541
40	0xbdce19de	-0.100635275
41	0xbe891ce2	-0.26779848
42	0x3d19432e	0.037417583
43	0xbd54201f	-0.051788446
44	0x3d9068d9	0.07051248
45	0x3e9e398f	0.3090329
46	0xbe9f73ea	-0.31143123
47	0x3d621280	0.055193424
48	0xbc8be6f3	-0.017077899
49	0x3dff25d5	0.12458388
50	0xbeacd5c4	-0.3375684
51	0x3d0cedba	0.0344064
52	0x3bc47db0	0.0059964284
53	0xbd923d3d	-0.071405865
54	0xbd30439a	-0.04303322
55	0x3db837b3	0.08994999
56	0xbee9bc3b	-0.4565142
57	0xbe8ef4df	-0.27921197
58	0x3e7309d2	0.23734215
59	0xbe6da287	-0.2320653
60	0xbea667f9	-0.325012
61	0xbd24ece5	-0.040264983
62	0x3e8c07b7	0.27349636
63	0xbea02a96	-0.3128249
64	0xbeb7dc9e	-0.35910505
65	0x3f085d91	0.5326777
66	0xbd22f392	-0.039783068
67	0xbe826104	-0.25464642
68	0xbe473f03	-0.19457631
69	0xbd30dad7	-0.043177452
70	0x3c62c7f7	0.013841621
71	0x3c6db6ec	0.014508944
72	0xbe835622	-0.25651652
73	0x3e91396c	0.28364122
74	0xbe42bca2	-0.1901727
75	0xbe443519	-0.1916088
76	0xbe1f4ff8	-0.1555785
77	0x3d974079	0.07385344
78	0xbea90697	-0.3301284
79	0x3e72212e	0.2364547
80	0x3e80d0f6	0.25159425
81	0xbe4508de	-0.19241664
82	0xbea25e84	-0.31712735
83	0xbeaf6f40	-0.34264565
84	0xbd0b5b50	-0.03402263
85	0xbeb4a388	-0.35281014
86	0xbe93d74f	-0.28875205
87	0x3eac23dc	0.3362111
88	0x3e22a35d	0.1588263
89	0x3eba097b	0.36335358
90	0x3e79cf7f	0.2439556
91	0x3d098136	0.03357049
92	0x3d2564b8	0.040379256
93	0x3e7b3ee6	0.24535713
94	0xbe8f015a	-0.2793072
95	0xbddd777d	-0.10813806
96	0x3eb5bb08	0.35494256
97	0xbc3c0301	-0.011475326
98	0xbe88022f	-0.26564166
99	0xbf167a61	-0.58780485
100	0x3e3fa7d2	0.18716362
101	0x3ec1169b	0.3771256
102	0x3dbaeddc	0.09127399
103	0xbe1dcef2	-0.15410975
104	0x3ec14cd4	0.37753928
105	0xbebfe93d	-0.37482634
106	0xbe9697ea	-0.29412776
107	0xbec920e0	-0.39282894
108	0x3eb335e0	0.3500204
109	0x3db433d3	0.08798947
110	0xbe407edd	-0.18798395
111	0x3dafb731	0.08579863
112	0xbe2f13ec	-0.17097443
113	0xbe860e47	-0.26182768
114	0xbd776a85	-0.06040432
115	0x3db7fa2c	0.089832634
116	0xbe95af71	-0.29235414
117	0xbe89acf3	-0.26889762
118	0x3d990cc8	0.07473141
119	0xbc250c33	-0.010073709
120	0x3e9873f0	0.29775953
121	0xbe51fa76	-0.205057
122	0x3d6e92d0	0.05824548
123	0x3e2c8c8e	0.16850492
124	0xbeb6fed5	-0.35741296
125	0xbe8774d6	-0.26456326
126	0xbd9cabad	-0.07649932
127	0x3cefaa99	0.029256152
128	0xbe064d9a	-0.1311554
129	0x3e0e7510	0.13911843
130	0xbe817361	-0.2528334
131	0x3ed1d6da	0.4098423
132	0xbce7c8b2	-0.028293941
133	0x3e25cf56	0.16192374
134	0xbd2e7898	-0.042595476
135	0x3e9c0b3a	0.30477315
136	0xbedb6ddf	-0.42857262
137	0x3db453f0	0.08805072
138	0x3df86632	0.12128867
139	0xbdbcb7cc	-0.09214744
140	0x3e5d8c80	0.21635628
141	0xbe88ef80	-0.26745224
142	0xbebaac16	-0.36459416
143	0xbe5826b3	-0.21108513
144	0xbec1fdbf	-0.37888905
145	0x3ea4b199	0.32166746
146	0xbe94a638	-0.29033065
147	0xbee83b4f	-0.4535775
148	0xbe9aca8c	-0.30232656
149	0xbe8cd770	-0.27508116
150	0xbed40ef9	-0.41417673
151	0x3e93880b	0.2881473
152	0xbe9cef04	-0.30651104
153	0x3e798c18	0.24369848
154	0x3e9748ae	0.29547638
155	0xbe4636f5	-0.19356902
156	0x3e7f37d8	0.24923646
157	0xbe6a2c16	-0.2286838
158	0x3ed66511	0.41873983
159	0x3e0baf4f	0.13641094
160	0x3dc6afaf	0.09701478
161	0x3e577f93	0.2104476
162	0xbed1c528	-0.4097073
163	0xbe04bc24	-0.12962395
164	0x3dfc1042	0.123077884
165	0xbeb5ae1f	-0.35484406
166	0x3e8ab0cc	0.2708801
167	0xbe1f52d0	-0.15558934
168	0xbe173335	-0.14765628
169	0xbea5d78a	-0.32391006
170	0xbc2c8616	-0.010530015
171	0xbec70552	-0.38871247
172	0xbdb16c6e	-0.086632594
173	0xbd58a7f1	-0.052894536
174	0x3d0a3482	0.03374148
175	0x3dd84120	0.105592966
176	0xbe382c9b	-0.17985766
177	0xbe241ce7	-0.1602665
178	0xbd00fe34	-0.031492427
179	0xbe23c44c	-0.1599285
180	0x3ea445e1	0.32084563
181	0x3d5bc008	0.053649932
182	0x3b3c455f	0.0028727872
183	0xbea86ec2	-0.32897002
184	0x3e8f8a3b	0.2803515
185	0xbe4012b7	-0.18757139
186	0xbddfcf20	-0.10928178
187	0x3b20237a	0.0024435208
188	0xbde47399	-0.11154861
189	0x3de010ac	0.1094068
190	0x3e2f6eab	0.1713206
191	0xbe79c6c5	-0.24392231
192	0x3db016bc	0.08598086
193	0xbea7fe27	-0.3281109
194	0x3e924be9	0.2857354
195	0x3df950f1	0.121736415
196	0x3e790335	0.2431763
197	0x3ed2f687	0.4120371
198	0x3de6a7e0	0.11262488
199	0x3d156d38	0.036481112
200	0xbe671243	-0.2256556
201	0xbe2eaebe	-0.17058846
202	0x3e99ffaf	0.30077884
203	0x3df0063f	0.11719941
204	0xbeec2f85	-0.46130005
205	0x3d0a4d7a	0.033765294
206	0xbbc682c0	-0.006058067
207	0xbc94aa22	-0.018147532
208	0xbeaa9cca	-0.33322746
209	0xbe4f3009	-0.20233168
210	0x3db9e316	0.09076516
211	0xbeacafb2	-0.33727795
212	0xbec26f4c	-0.37975538
213	0xbebb7c82	-0.3661843
214	0xbe3f316f	-0.18671201
215	0x3ccf96a4	0.025340386
216	0x3e1ebe4e	0.15502283
217	0xbe9cc00b	-0.30615267
218	0xbd44f184	-0.04808189
219	0xbe972343	-0.2951909
220	0xbe5fa43f	-0.21839999
221	0xbd930653	-0.071789406
222	0xbe7de8a1	-0.24795772
223	0xbac5b4a2	-0.001508374
224	0xbe4f5337	-0.20246588
225	0xbe1bbf40	-0.15209675
226	0xbe6be8d6	-0.23038039
227	0xbeae9572	-0.34098393
228	0x3d86083f	0.065445416
229	0xbe4d3be9	-0.20042385
230	0x3a0a0ae2	0.0005265904
231	0x3e6c2a52	0.23063019
232	0xbd84c59d	-0.06483004
233	0xbe54c8fb	-0.20779793
234	0xbe7aff0b	-0.24511354
235	0xbe9af930	-0.3026824
236	0xbd8ca010	-0.06866467
237	0xbbdc62e1	-0.0067256545
238	0x3e5c80cf	0.21533512
239	0x3f055897	0.520883
240	0xbe655fd2	-0.22399834
241	0xbe2801aa	-0.16406885
242	0x3e8b3642	0.27189833
243	0x3dd2b200	0.10287857
244	0x3e7678f9	0.24069585
245	0xbbad4e09	-0.0052888435
246	0xbdb31305	-0.08743862
247	0xbee696fc	-0.45037067
248	0xbd38cc48	-0.045116693
249	0xbea2a91d	-0.31769648
250	0xbddbc36c	-0.10730633
251	0xbeaeb36b	-0.3412126
252	0xbec8f166	-0.39246672
253	0x3e575203	0.21027379
254	0xbe18735b	-0.14887755
255	0x3e19f76b	0.15035789

net.2.weight f4 [256, 256]
0	0x3d4bb504	0.049733177
1	0x3c885638	0.016642675
2	0x3db3814c	0.08764896
3	0x3dcfd2e4	0.10147646
4	0xbea1b2e1	-0.31581786
5	0x3cf6344c	0.030054234
6	0x3d57da7a	0.05269859
7	0x3e69d8e3	0.22836642
8	0x3e0079a7	0.12546407
9	0xbf4e24a3	-0.80524653
10	0x3f49903c	0.7873571
11	0x3c6db5c0	0.014508665
12	0xbd880781	-0.06642056
13	0xbf38a9cb	-0.72134084
14	0xbd1886fa	-0.0372381
15	0xbf0b4f82	-0.54418194
16	0x3eb04bf3	0.34432945
17	0x3d4a104c	0.04933195
18	0xbd3447ac	-0.044013664
19	0x3da9cc03	0.08290865
20	0x3d00644a	0.031345643
21	0x3d3502d4	0.04419215
22	0x3c8048a0	0.01565963
23	0x3c921fa4	0.017837353
24	0x3d991645	0.07474951
25	0xbf3e5926	-0.7435478
26	0x3cae16cc	0.021251105
27	0xbd482cd4	-0.048870876
28	0x3d8a51b2	0.067538634
29	0x3a939147	0.0011258506
30	0x3e8e24b3	0.27762374
31	0xbcb4e3e4	-0.022081323
32	0xbd7dc850	-0.06195861
33	0xbd396dbc	-0.045270666
34	0x3cc403bc	0.023927562
35	0x3d5c6f1e	0.053816907
36	0x3e0ff7e8	0.14059412
37	0x3cf4724c	0.029839657
38	0xbd72e966	-0.059304617
39	0xbd74d032	-0.059768863
40	0xbd205190	-0.039140284
41	0xbc0740d8	-0.008255206
42	0x3c8eff9c	0.017455868
43	0xbcc692d9	-0.024239944
44	0xbe345844	-0.17611796
45	0xbf058c92	-0.5216762
46	0x3b7c0300	0.0038453937
47	0x3e0660ac	0.13122815
48	0x3e9e1886	0.30878085
49	0xbd3caf0c	-0.046065375
50	0xbc042460	-0.008065313
51	0xbd0641aa	-0.032777466
52	0xbdec141e	-0.115272745
53	0xbd4cfd22	-0.050046094
54	0xbdc523e5	-0.09625987
55	0xb879c9a7	-5.955403e-05
56	0xbf1b6dcd	-0.6071442
57	0x3d467a25	0.04845633
58	0x3e1b39f1	0.15158822
59	0xbe191b7e	-0.14951894
60	0x3cfcbfa0	0.030853093
61	0xbb62e600	-0.0034621954
62	0x3d14d668	0.036337286
63	0x3dcc3e6e	0.09972845
64	0x3d3a19a7	0.04543462
65	0xbe77ad66	-0.2418724
66	0xbf7f1c24	-0.99652314
67	0x3de20ea3	0.11037948
68	0xbd16eb89	-0.036845718
69	0x3d7174a6	0.058949135
70	0x3e337fc3	0.17529206
71	0x3d748c6e	0.059704237
72	0xbcef2a78	-0.029195055
73	0xbeb4fe27	-0.35350153
74	0x3e978a44	0.29597676
75	0xbedd4ed0	-0.43224192
76	0x3d006aa2	0.031351693
77	0x3e0a0b45	0.13480861
78	0x3d59fb36	0.05321809
79	0xbdb56dae	-0.0885881
80	0x3d43d4d0	0.047810376
81	0x3d0380b4	0.032105163
82	0x3c8ead78	0.0174167
83	0xbeb70b91	-0.35751012
84	0x3f0fdb4f	0.56194013
85	0xbd425e32	-0.047453113
86	0xbc96347c	-0.018335573
87	0x3eb50980	0.3535881
88	0x3ea4eb49	0.32210758
89	0x3e176f9b	0.14788668
90	0x3e341e9e	0.17589805
91	0xbdcde1f4	-0.10052863
92	0x3dc9004a	0.09814508
93	0xbef861fd	-0.4851226
94	0xbc6b5dc7	-0.01436562
95	0xbfe771ea	-1.8081639
96	0xbaeec0b0	-0.0018215384
97	0xbeabd74e	-0.33562702
98	0x3c19abb0	0.009379312
99	0xbedc2785	-0.429989
100	0x3e54ed10	0.20793557
101	0x3ea0ebd7	0.31429932
102	0x3e01f28c	0.1269018
103	0x3ec77c31	0.38961938
104	0xbf3bd708	-0.73374987
105	0xbc59cce8	-0.013293482
106	0x3cc3a11c	0.023880534
107	0x3d00d402	0.031452186
108	0x3f217fc8	0.63085604
109	0xbd3a0b46	-0.045420907
110	0xbccf459c	-0.025301747
111	0xbd19429f	-0.03741705
112	0x3c025268	0.0079542175
113	0xbd02c328	-0.031924397
114	0xbbb734e0	-0.00559102
115	0xbeee3a16	-0.4652869
116	0xbd71df40	-0.0590508
117	0x3d2d8c56	0.042370163
118	0xbbda32c1	-0.0066588824
119	0xbe2674c9	-0.16255488
120	0xbe0c1048	-0.13678086
121	0xbd09bf38	-0.033629626
122	0xb7f9512f	-2.9720917e-05
123	0xbeb800b1	-0.35938028
124	0x3b3d9d40	0.002893284
125	0x3c934de4	0.017981477
126	0x3dab928d	0.08377562
127	0x3ddeb96e	0.10875212
128	0xbc9d17e0	-0.019176424
129	0xbee96953	-0.45588169
130	0xbba04520	-0.004891053
131	0xbddb669d	-0.10712931
132	0xbdea6507	-0.11445051
133	0x3e6dfebd	0.23241706
134	0xbe42f83f	-0.19040011
135	0x3dba5aba	0.09099336
136	0xba9bd28d	-0.001188831
137	0xbf22fee0	-0.6367016
138	0xbf30d7d3	-0.6907932
139	0xbd5fcdd0	-0.054639637
140	0x3d9bdcdb	0.07610484
141	0x3c196f9e	0.0093649905
142	0x3d2bf7fa	0.041984536
143	0xbdaf0eb7	-0.085477285
144	0x3cd7d1b0	0.026345104
145	0x3badfb65	0.0053095096
146	0xbdf9fbee	-0.12206255
147	0xbe66b216	-0.22528872
148	0xbd090521	-0.033452157
149	0x3a8cd7c0	0.0010745451
150	0xbe902e6d	-0.2816042
151	0xbe4ffad1	-0.20310523
152	0xbc193470	-0.009350881
153	0xbf5edb75	-0.87053615
154	0x3f1dcf54	0.6164448
155	0xbf827674	-1.0192399
156	0xbec01d6e	-0.37522453
157	0xbd235122	-0.039872296
158	0xbe5221d1	-0.20520712
159	0x3e86ab44	0.2630254
160	0x3d5f7cd4	0.054562405
161	0xbf805a22	-1.0027506
162	0xc009db3d	-2.1540062
163	0x3bc21f0e	0.005924112
164	0xbf835f6e	-1.0263498
165	0xbc910db4	-0.01770673
166	0xbe0e803d	-0.13916107
167	0x3d2d268e	0.042273097
168	0x3d6b8fd8	0.057510227
169	0xbb2c9c60	-0.0026338324
170	0xbf81f7b6	-1.015372
171	0x3cbc0913	0.022953546
172	0xbcaf1b40	-0.021375299
173	0xbde5e02b	-0.11224397
174	0x3d8833f1	0.06650532
175	0x3dd233c5	0.102637805
176	0xbfc40f32	-1.5317137
177	0xbe253514	-0.16133529
178	0xbd9fc77c	-0.078017205
179	0xbead909a	-0.33899385
180	0x3e4ee3b0	0.20204043
181	0xbe2cb18a	-0.16864601
182	0xbd4537e2	-0.048148997
183	0xbcbcce58	-0.023047611
184	0xbee1e51c	-0.4412011
185	0x3d5dba22	0.05413259
186	0xbc07be98	-0.008285187
187	0xbd00d840	-0.031456232
188	0xbd80169b	-0.06254312
189	0xbd9a0535	-0.075205244
190	0xbe812dad	-0.2523016
191	0x3c6af330	0.014340207
192	0x3dccab5b	0.09993621
193	0xbc1827d8	-0.009286843
194	0xbf09944c	-0.5374191
195	0xbe3a5dbe	-0.18199822
196	0xbc18031b	-0.009278084
197	0x3edb3fe4	0.42822182
198	0xbf8db951	-1.1072179
199	0xbec63173	-0.38709602
200	0x3cd55a2e	0.026043978
201	0xbc2019e0	-0.009771794
202	0xbf2762ef	-0.65385336
203	0x3d013d90	0.03155285
204	0xbe580211	-0.21094538
205	0xbddddeeb	-0.10833534
206	0xbc9b830c	-0.018983386
207	0x3d40e16a	0.04708997
208	0xbe7f1cfe	-0.24913403
209	0x3c1efd19	0.009703898
210	0xbe50b2e9	-0.20380749
211	0xbe7308df	-0.23733853
212	0x3d1f7d94	0.03893812
213	0xbde6852c	-0.11255869
214	0xbeef1c68	-0.4670136
215	0xbd9facad	-0.07796607
216	0xbe9c5244	-0.30531514
217	0xbfd4a1b2	-1.6611845
218	0xbf24c474	-0.64362264
219	0x3ceb0657	0.028689547
220	0xbd37e354	-0.04489453
221	0x3ca462d4	0.020066656
222	0xbf7475b3	-0.95492095
223	0xbd438684	-0.047735706
224	0xbbcd4450	-0.006264247
225	0x3dc4dd47	0.09612518
226	0xbd37d18a	-0.044877566
227	0xbe29fa64	-0.16599423
228	0xbc86e98e	-0.01646879
229	0xbd1d94a0	-0.038471818
230	0xbf26932d	-0.6506832
231	0x3d7304d6	0.059330784
232	0xbdc3a820	-0.09553552
233	0x3b0a3820	0.0021090582
234	0x3d550ed0	0.05201608
235	0xbef0f0eb	-0.47058806
236	0x3f309c6b	0.68988675
237	0x3f063c83	0.52436084
238	0xbe93802e	-0.2880873
239	0xbe594d39	-0.21220864
240	0xbccb5b30	-0.024823755
241	0xba337000	-0.00068449974
242	0xbeec89bf	-0.46198842
243	0x3ced20fb	0.02894639
244	0x3d4ad178	0.04951617
245	0x3d018c1c	0.03162776
246	0x3f0b5256	0.5442251
247	0xbe67cffa	-0.2263793
248	0xbd42ad54	-0.04752858
249	0xbc918f33	-0.017768478
250	0x3d322980	0.04349661
251	0x3d7b1ef6	0.061308824
252	0x3cf92268	0.030411914
253	0xbcf5f36a	-0.030023295
254	0xbe6bf871	-0.23043992
255	0xbded837b	-0.115973435

net.2.bias f4 [256]
0	0x3dd3a19e	0.103335604
1	0xbd4be9ad	-0.049783397
2	0xbb759021	-0.003746994
3	0xbd114fe9	-0.0354766
4	0xbd0050ed	-0.031327177
5	0xbcd8e5e1	-0.026476802
6	0xbd83e4fd	-0.064401604
7	0xbc6290fd	-0.013828513
8	0xba7abd96	-0.00095649937
9	0xbd229dd5	-0.0397013
10	0xbd354005	-0.044250507
11	0x3bc22c74	0.0059257094
12	0xbcc9e35e	-0.02464455
13	0x3d01331b	0.03154288
14	0x3e7c5c00	0.2464447
15	0x3d5753b5	0.052570064
16	0xbd3f0a40	-0.046640635
17	0x3d9da4eb	0.07697471
18	0xbd093db0	-0.033506095
19	0xbd22eec2	-0.03977848
20	0xbe0a796a	-0.13522878
21	0x3e9ecd78	0.31016135
22	0x3c03af96	0.008037468
23	0xbc2ff02c	-0.010738414
24	0x3c9128c9	0.017719643
25	0x3aa22156	0.0012369554
26	0xbe041329	-0.12897934
27	0xbd48a340	-0.048983812
28	0xbd915d7a	-0.07097907
29	0xbd542f58	-0.051802963
30	0xbdb61b04	-0.088918716
31	0xbc22a321	-0.009926588
32	0xbd36331e	-0.044482343
33	0xbbf22630	-0.007389806
34	0x3ddaa5e2	0.10676171
35	0x3ed58a1c	0.41706932
36	0xbca1691a	-0.019703437
37	0x3ba0b4d6	0.00490437
38	0xbaad23ea	-0.0013209556
39	0xbd2e9570	-0.042622983
40	0xbd79ea80	-0.061014652
41	0xbd28f96e	-0.0412535
42	0xbb93c3e8	-0.004509438
43	0xbc32d75d	-0.010915604
44	0xbd4aa73b	-0.04947589
45	0xbbacb99e	-0.0052711507
46	0xbcb6859b	-0.022280505
47	0x3c9cc491	0.019136699
48	0x3dcb3da4	0.099238664
49	0xbc5bed22	-0.013423236
50	0xbc8955f7	-0.016764624
51	0xbd8bea58	-0.06831807
52	0xbde2ba69	-0.11070711
53	0xbc45fc01	-0.012084008
54	0x3e62eda5	0.22160967
55	0xbd85e970	-0.06538665
56	0xbc4c472c	-0.012468141
57	0xbd41b96c	-0.047295973
58	0xbcae2d32	-0.021261785
59	0x3c29b711	0.010358588
60	0x3c59866f	0.01327668
61	0xbb31ca87	-0.0027128772
62	0xbc6d32bd	-0.014477429
63	0xbc60fcd2	-0.013732152
64	0x3c4ee1e6	0.012627101
65	0x3e073a38	0.13205802
66	0x3b15c366	0.0022852062
67	0xbd8710fb	-0.06595036
68	0x3ed364b3	0.41287765
69	0xbec64402	-0.3872376
70	0xbde1d349	-0.110266276
71	0xbe4b36d5	-0.19845136
72	0x3c0ff21a	0.008785749
73	0xbc820697	-0.015872283
74	0xbd888ecb	-0.066678606
75	0x3aae27a1	0.0013286957
76	0xbc4dec2b	-0.012568514
77	0xbd73816f	-0.05944961
78	0xbd39704e	-0.045273118
79	0xbc4a2586	-0.012338048
80	0x3c1cd0e4	0.009571288
81	0xbd86cdbd	-0.0658221
82	0xbcacf53c	-0.02111303
83	0xbd829bc6	-0.06377368
84	0xbd428ff1	-0.047500554
85	0x3d40e198	0.047090143
86	0xbd6317d7	-0.055442657
87	0x3cad30a3	0.021141356
88	0xbc3ef2e0	-0.011654586
89	0xbd3e4392	-0.04645116
90	0xbd74caf5	-0.059763867
91	0xbcb09f8a	-0.02156045
92	0x3eb68da0	0.35654926
93	0xbd2a6af5	-0.04160591
94	0x3bfcafc4	0.0077113826
95	0x3ecc2fd2	0.39880234
96	0xbc966c7a	-0.018362273
97	0xbd5f5c3d	-0.054531325
98	0xbd14a689	-0.036291633
99	0x3ed9119f	0.42396256
100	0xbd0446eb	-0.032294195
101	0xbcbe470d	-0.023227239
102	0x3eb6e8da	0.35724527
103	0x3ea9ae8d	0.33140984
104	0x3e2544b6	0.16139492
105	0x3c7880dd	0.015167442
106	0x3c770e74	0.0150791295
107	0xbd4234eb	-0.047413748
108	0x3addd101	0.001692325
109	0xbd8c3250	-0.06845534
110	0xbd0a8f76	-0.03382822
111	0xbcef1508	-0.029184833
112	0xbcaea772	-0.021320079
113	0xbcaaf92c	-0.020870768
114	0x3b19f557	0.0023492181
115	0x3db55574	0.088541895
116	0xbd8a1820	-0.06742883
117	0x3bbb2b3d	0.0057119415
118	0xbd64793e	-0.055779688
119	0xbc9301ee	-0.017945256
120	0xbd3d84e2	-0.046269305
121	0xbdeb3f86	-0.114867255
122	0xbc40f2c7	-0.011776633
123	0x3bbcd42b	0.005762597
124	0xbd3963ed	-0.045261312
125	0x3decd581	0.1156416
126	0x3bbca361	0.005756781
127	0xbc1f8828	-0.009737052
128	0x3b5c1b75	0.0033585702
129	0x3b0f2c1d	0.0021846362
130	0xbd0eecfe	-0.034893982
131	0x3e966550	0.2937417
132	0x39b9df80	0.0003545247
133	0xbceda7ea	-0.029010732
134	0xbd424167	-0.047425654
135	0xbc90edaf	-0.017691461
136	0xbd7fe5a6	-0.06247487
137	0x3e5ff10f	0.218693
138	0xbd1b8b91	-0.037974898
139	0x3cfa1e73	0.030532097
140	0xbd575450	-0.05257064
141	0xbc66e5a4	-0.0140928365
142	0xbb996a29	-0.0046818447
143	0xbd2edd8e	-0.04269176
144	0xbb101269	-0.002198363
145	0xbbe4c5fd	-0.00698161
146	0x3c89cbe7	0.016820861
147	0xbd3a3c1a	-0.045467474
148	0xbc32da55	-0.010916312
149	0x3e754bff	0.23954771
150	0x3e22b640	0.15889835
151	0xbd40e44b	-0.047092717
152	0xbcbacb4e	-0.022802021
153	0xbd871096	-0.065949604
154	0xbd7255b7	-0.059163775
155	0xbd6b215f	-0.057404872
156	0x3c7bcfef	0.015369399
157	0x3ddcd755	0.10783259
158	0x3bbd6f79	0.005781111
159	0x3be1cf00	0.0068911314
160	0xbb7cb48a	-0.0038559758
161	0xbd435a30	-0.04769343
162	0xbd125e9a	-0.03573475
163	0x3c3a4810	0.01136972
164	0x3e482fba	0.19549456
165	0xbd7ea07a	-0.06216476
166	0xbd501dce	-0.050809674
167	0x3bb8a6b2	0.005635106
168	0xbcf38c5a	-0.02973001
169	0x3cb2e25f	0.021836458
170	0xbd5c7643	-0.05382372
171	0xbd2734e8	-0.04082194
172	0x3ba66362	0.0050777653
173	0xbda8844a	-0.08228357
174	0x3d4d69c6	0.0501497
175	0xbb1d2973	-0.0023981004
176	0xbd384d09	-0.04499534
177	0x3d4201b3	0.0473649
178	0x3b5a371b	0.0033297006
179	0x3e77b12e	0.24188682
180	0xba9f2cbd	-0.001214407
181	0x3c345123	0.011005673
182	0xbd527a08	-0.05138591
183	0xbd662f0b	-0.056197207
184	0x3c9035f1	0.017603846
185	0xbc1ee7f2	-0.009698855
186	0xbd4e8a6e	-0.050424986
187	0xbc7ae9a3	-0.015314492
188	0xbd16daac	-0.036829636
189	0x3e4878f8	0.19577396
190	0x3c9464ee	0.018114533
191	0xbd5c1cf4	-0.05373855
192	0x3e1b92a4	0.15192658
193	0xbcc8fa6b	-0.024533471
194	0xbd5456dd	-0.05184065
195	0xbd7bcf6f	-0.06147712
196	0xbc6e803e	-0.0145569425
197	0xbb99b487	-0.00469071
198	0xbd8add3d	-0.06780479
199	0x3c0bf093	0.008541244
200	0x3b95f261	0.004576013
201	0xbc460390	-0.01208581
202	0xbd150e77	-0.036390748
203	0xbd495acb	-0.049158853
204	0xbd0ae39c	-0.03390847
205	0x3c8990d2	0.016792689
206	0xbd313ec0	-0.043272734
207	0x3b01c164	0.0019799108
208	0xbcc37ae7	-0.023862315
209	0x3e9fdf8e	0.31225246
210	0x3e8bc5a0	0.27299213
211	0xbc086a61	-0.008326144
212	0x3e9b6383	0.3034936
213	0x3d9f2ab5	0.077718176
214	0xbd09a86a	-0.033607878
215	0xbd64d2a8	-0.05586496
216	0xbdc1420d	-0.09436426
217	0x3e66f45d	0.22554155
218	0xbd1b2054	-0.037872627
219	0xbc87ff10	-0.016601115
220	0xbdb53fce	-0.088500604
221	0xbc8c8125	-0.017151425
222	0xbd166a65	-0.03672256
223	0xbeae9246	-0.34095973
224	0x3e1f4d16	0.1555675
225	0xbddc0d53	-0.10744729
226	0xbd8f3222	-0.06991984
227	0xbd7e244d	-0.062046338
228	0x3c74cbb5	0.014941146
229	0x3e16d66e	0.14730236
230	0xbcb8ffda	-0.022582937
231	0xb9ff5a22	-0.00048704544
232	0xbd8fc38c	-0.070197195
233	0xbc7b1ebd	-0.015327153
234	0xbc259f43	-0.010108772
235	0xbd739120	-0.059464574
236	0xbca33946	-0.019924771
237	0x3ea400b5	0.3203179
238	0x3c0ef2b3	0.008724856
239	0xbc6524b2	-0.0139858
240	0x3e0f9370	0.14021087
241	0xbd5b9670	-0.053610265
242	0xbba6b142	-0.0050870487
243	0xbc4f9460	-0.012669653
244	0x3e87b890	0.26507998
245	0xbd1a5821	-0.037681703
246	0x3e4da457	0.20082222
247	0x3e5c46bc	0.21511358
248	0x3c29f7bf	0.010374009
249	0xbd57fe0a	-0.052732505
250	0x3b0c66ef	0.0021423658
251	0xbbed5d61	-0.0072437976
252	0x3b92e79a	0.0044831755
253	0x3e0afb50	0.1357243
254	0xbd6fcf96	-0.05854758
255	0xbd12a074	-0.03579755

net.4.weight f4 [4, 256]
0	0x3e3a9ff4	0.1822508
1	0xbcac9fa7	-0.021072222
2	0x3c9f46b4	0.019442894
3	0x3d536e2a	0.051618733
4	0x3d4701c5	0.048585672
5	0x3c86c7ad	0.016452635
6	0xbb3ce51b	-0.002882308
7	0x3d0185ae	0.031621628
8	0xbbeefe4d	-0.0072934986
9	0xbd1374e7	-0.03600016
10	0xbc9d55e0	-0.019205987
11	0x3c085626	0.008321321
12	0xbc98ee35	-0.018668273
13	0x3e7a0443	0.24415688
14	0xbfe99adb	-1.8250383
15	0x3d3907bc	0.04517339
16	0xbd3237d1	-0.043510262
17	0x3fe2bb8f	1.7713488
18	0xbd24c9e7	-0.04023161
19	0xbced8fea	-0.028999288
20	0x3d73a701	0.05948544
21	0xbf915dc0	-1.1356735
22	0xbb57beda	-0.0032920153
23	0x3c9f97b7	0.019481523
24	0x3f9a1410	1.2037373
25	0xbc562afc	-0.013071772
26	0x3e9ace28	0.3023541
27	0x3d046fa0	0.032333016
28	0xbb564c5b	-0.003269932
29	0x3d7d490d	0.061837245
30	0xbde57da4	-0.11205605
31	0xbe611e24	-0.21984154
32	0x3cec7ade	0.028867181
33	0xbd822489	-0.06354625
34	0xbe6cd5ab	-0.23128383
35	0x3e4bae0b	0.19890611
36	0x3ca6bc9b	0.020353606
37	0xbc776217	-0.01509907
38	0x3d1a12ae	0.03761547
39	0xbd207308	-0.039172202
40	0xbd3e3a6d	-0.046442438
41	0x3d08c928	0.033394963
42	0xbc9085c2	-0.017641906
43	0x3a8387d8	0.0010034991
44	0x3c2919f5	0.01032113
45	0xbb314d5f	-0.0027054173
46	0x3c7d4bf1	0.01546
47	0x3d09b1b1	0.033616725
48	0xbe873488	-0.26407266
49	0x3d570987	0.05249932
50	0x3d22df5d	0.039763797
51	0xbd5a0317	-0.053225603
52	0x3be9b83c	0.007132558
53	0xbd12f010	-0.035873473
54	0x3f8d1e62	1.1024897
55	0x3d5d7e85	0.054075737
56	0xbd52b93c	-0.051446185
57	0xbb17c6d7	-0.002315929
58	0x3b85a464	0.004078435
59	0xbcd32e24	-0.025778838
60	0xbb9c858f	-0.0047766636
61	0x3d1f0a9c	0.038828477
62	0x3d457287	0.048204925
63	0xbba04d24	-0.0048920084
64	0xbcdfba08	-0.027310386
65	0xbe987cd2	-0.2978273
66	0x3cd59ffc	0.026077263
67	0x3cd37611	0.025813134
68	0xbf81019d	-1.0078617
69	0xbdf9ba9f	-0.12193798
70	0xbdf0e9dc	-0.11763355
71	0x3f50bd8d	0.8153923
72	0x3d3c97bc	0.046043143
73	0xbc39fd41	-0.011351884
74	0xbd406776	-0.046973668
75	0xbbae01c0	-0.005310267
76	0xbd0727f0	-0.03299707
77	0x3d0b0b7d	0.033946503
78	0xbd3106e1	-0.04321945
79	0xbd8a85df	-0.06763815
80	0x3e72df76	0.23718056
81	0x3d0cf0a1	0.03440917
82	0x3bb4f9e7	0.0055229547
83	0x3c65f407	0.014035231
84	0x3c8d229a	0.017228413
85	0xbf910430	-1.1329403
86	0x3bbfe503	0.0058561577
87	0x3d47538e	0.04866367
88	0x3cbdc962	0.023167316
89	0xbcd5cbe1	-0.026098194
90	0x3d23ba7b	0.039972764
91	0xbc78d584	-0.015187625
92	0x3fcebfad	1.6152245
93	0xbbc907e7	-0.0061349752
94	0xbd057ed4	-0.032591656
95	0x3fcf954e	1.6217439
96	0xbbe449ce	-0.006966806
97	0x3bebbb41	0.0071939533
98	0x3c106756	0.0088137
99	0xbf87037c	-1.0547938
100	0xbd0da163	-0.03457774
101	0x3d3769ee	0.044778757
102	0x3d1787e5	0.036994833
103	0xbea3e0f0	-0.3200755
104	0xbedb6e74	-0.42857707
105	0xbcea07a1	-0.02856809
106	0x3d8a81f2	0.06763066
107	0xbb830e3a	-0.0039994987
108	0x3cf410b0	0.029793113
109	0xbd226457	-0.039646473
110	0xbd61c93b	-0.05512355
111	0xbd2f2033	-0.042755317
112	0xbc46863f	-0.012116968
113	0xbc71d692	-0.01476063
114	0x3ba514a2	0.00503786
115	0xbf2af063	-0.6677305
116	0x3a2ce99b	0.0006596089
117	0xbc5f4e1d	-0.0136294635
118	0x3b6db637	0.0036271939
119	0x3b4240cb	0.002964067
120	0xbd35623e	-0.044283144
121	0x3ef9a5e1	0.48759368
122	0xbd122800	-0.03568268
123	0x3ccf4eb6	0.025306087
124	0x3d0da0ac	0.034577057
125	0x3f170ca5	0.5900367
126	0x3d6c5dc2	0.057706602
127	0x3d1a18ee	0.03762143
128	0x3d4379d0	0.04772359
129	0xbcbf8a11	-0.023381265
130	0xbc8ad2d2	-0.01694623
131	0x3e301754	0.17196399
132	0xbd852ad9	-0.06502313
133	0xbd4e7b22	-0.050410397
134	0xbbea32c6	-0.007147166
135	0x3bde3726	0.0067814765
136	0xbba947a7	-0.0051660123
137	0x3eb632f7	0.35585758
138	0xbc58fcbc	-0.01324385
139	0xbe2587df	-0.16165112
140	0x3d171da6	0.03689351
141	0xbbc1c0f4	-0.0059128944
142	0x3be5583d	0.006999044
143	0x3cb50e6c	0.022101603
144	0x3d65c048	0.056091577
145	0x3d4cd872	0.050011106
146	0xbb14c840	-0.0022702366
147	0x3cb964a8	0.022631004
148	0x3d13995b	0.036034923
149	0x3f299bf8	0.66253614
150	0x3e0cbf2a	0.13744798
151	0x3c80068e	0.015628126
152	0xbda304d9	-0.07959909
153	0x3cece30a	0.028916854
154	0x3cd1dae6	0.025617074
155	0xbcf23c7b	-0.029569855
156	0xbcff7baf	-0.031186907
157	0x3eb09ee9	0.3449624
158	0xbd87faa1	-0.066396005
159	0xbe114d22	-0.1418958
160	0x3b8af25b	0.004240317
161	0x3c97f639	0.018550025
162	0x3ca72096	0.02040128
163	0xbd0fc6d6	-0.035101734
164	0xbfb67b08	-1.4256296
165	0x3d15cc8f	0.036572035
166	0x3a5ded80	0.0008465871
167	0xbadde8f7	-0.0016930391
168	0x3cc24a31	0.023717018
169	0x3cfcf9e1	0.03088087
170	0x3c91cea2	0.017798726
171	0x3d579848	0.05263546
172	0x3d157896	0.036491953
173	0xbc0ad8d1	-0.008474545
174	0xbec86fb6	-0.3914773
175	0xbf794c52	-0.9738208
176	0xbb439571	-0.0029843713
177	0x3e1ff2cb	0.15619962
178	0xbccb92fb	-0.02485036
179	0xbe94abdf	-0.29037377
180	0x3bfbc756	0.007683675
181	0xbd523a39	-0.051325057
182	0xbcfa2924	-0.030537196
183	0x3cb6a0d8	0.022293493
184	0xbcaeae1b	-0.021323254
185	0xbd14d131	-0.036332313
186	0xbb3df260	-0.0028983578
187	0x3e0fef58	0.14056146
188	0x3d4af6b2	0.049551673
189	0x3ed8ec92	0.4236799
190	0xbc258d76	-0.010104528
191	0xbc518094	-0.012787003
192	0xbf7ed818	-0.9954848
193	0xbc16590c	-0.009176504
194	0x3cea5273	0.028603768
195	0x3c8cefc4	0.017204173
196	0xbc1c8c5f	-0.009554951
197	0x3d194840	0.03742242
198	0x3b53932a	0.0032283762
199	0x3c1cc509	0.009568461
200	0x3d05cadc	0.032664165
201	0xbd1565ab	-0.03647391
202	0x3d393a28	0.045221478
203	0xbc18deeb	-0.009330492
204	0xbd20ae01	-0.039228443
205	0xbc9abcab	-0.018888792
206	0x3cb044f4	0.021517254
207	0x3cd10e81	0.025519611
208	0xbcd90aeb	-0.026494464
209	0x3d167b42	0.03673864
210	0x3e2880ae	0.16455337
211	0xbc1a28aa	-0.009409109
212	0x3f9604c0	1.17202
213	0xbcb199d5	-0.021679798
214	0xbd192f6f	-0.03739875
215	0xbeb2ffb5	-0.34960714
216	0xbd86c9bc	-0.065814465
217	0x3da617ab	0.08109983
218	0xbc4d1e1c	-0.012519386
219	0xbd0126a4	-0.03153099
220	0xbc7903f8	-0.0151987
221	0x3d2c090c	0.042000815
222	0xbc0ade77	-0.008475891
223	0x3e2da6a9	0.16958107
224	0xbf48fc54	-0.7851002
225	0xbcf8fe61	-0.030394735
226	0x3f35bdc5	0.7099269
227	0x3d076a72	0.0330605
228	0xbcf504ab	-0.029909452
229	0xbf18ff51	-0.5976458
230	0xbd239886	-0.03994038
231	0x3cacf0de	0.021110948
232	0x3cf6b3db	0.030115059
233	0x3d0d8420	0.034549832
234	0xbcbbf9ed	-0.022946322
235	0x3c764887	0.01503194
236	0xbc5aa664	-0.013345335
237	0xbe7ce713	-0.24697523
238	0x3d231fb0	0.03982514
239	0x3d4bcdea	0.04975692
240	0xbf40e605	-0.7535098
241	0x3d293a55	0.041315395
242	0x3e929533	0.28629455
243	0xbd20ce63	-0.039259326
244	0x3d931d03	0.07183268
245	0xbcebcec0	-0.02878511
246	0x3f4b27b2	0.79357445
247	0x3f4f8051	0.8105517
248	0xbced0f44	-0.028937943
249	0x3c200a3d	0.009768066
250	0x3cb026cc	0.021502875
251	0xbcf63897	-0.030056281
252	0x3d3beed2	0.045882054
253	0xbf2831bb	-0.6570088
254	0x3d388707	0.045050647
255	0x3d5df38c	0.054187343

net.4.bias f4 [4]
0	0xbd1b3be9	-0.03789893
1	0x3decaab4	0.115559965
2	0xbf1f12bd	-0.6213797
3	0xbdae47c8	-0.08509785
