logs/PointMaze-Right/airl_sac/seed0-20231226-1522/model/step585000/disc.pth (torch, 90839 bytes, 10 tensors)

g.0.weight f4 [100, 6]
0.55989844 0.4524006 -0.33435595 -0.659875 0.12822999 -0.1911363 -0.36838153 0.13471565
0.29091433 -0.17728072 0.1843753 0.33874533 -0.91292924 -0.08589977 -0.25612202 0.30088562
0.10763793 0.20235598 -0.080948606 -0.17099673 -0.2243558 0.26251137 0.3428751 0.3528185
-0.3042163 -0.061612263 -0.02810071 -0.19149959 -0.2506593 0.3359678 0.008262244 -0.39510506
-0.13709919 -0.21457617 0.020008314 0.0016859706 0.018724917 -0.32689115 -0.1331595 -0.27340424
-0.12182866 0.13343228 -0.13887551 -0.43064344 0.040966216 0.031398296 0.1097106 -0.31152087
0.16910407 0.25290444 0.25647485 0.23228958 -0.14990684 -0.110614814 0.10443026 -0.52376145
0.23664865 -0.14566743 -0.21743904 -0.004105888 0.58035535 0.44491532 0.28578284 -0.18713312
0.3115361 -0.08347479 0.40786207 0.4997246 0.07560826 -0.42150167 0.3009678 -0.15151338
-0.13432936 -0.30665123 0.30097106 -0.10658533 0.33454493 0.048727095 0.32064185 -0.52491313
-0.352353 -0.42540637 -0.16134568 0.14585 -0.17352663 0.09576471 0.26151153 0.27180597
-0.07007541 0.25022766 0.6675284 0.18769385 -0.24222729 -0.3015685 -0.027567958 0.016200608
-0.38634384 -0.30843475 0.25170553 0.24991678 -0.2923082 0.31349245 0.28485307 0.32045332
0.0372722 0.1227723 -0.15902148 0.36071077 -0.49049538 -0.5025848 0.32271504 0.38738957
0.24226348 0.25188634 0.09031028 -0.5844912 0.36091343 0.43049464 0.46312052 0.04992362
0.06314965 0.06961653 -0.13606638 0.1975216 0.051988512 0.2853315 0.48087665 0.090850785
-0.3889795 0.3720708 -0.109195106 0.31694484 0.42814273 0.3993209 -0.024260787 -0.25898874
0.21779613 -0.11120573 0.12672614 -0.4779043 -0.09785311 0.09275816 -0.13680778 0.18153386
0.38284716 -0.18587165 0.13337958 -0.13180949 -0.052240413 -0.07659201 -0.16627792 0.43326172
-0.23972178 0.40365374 0.26938203 0.3806506 -0.8884003 -0.09839679 0.24295895 0.28919908
-0.4183209 0.14495522 0.027925175 -0.37666884 -0.085280046 0.39209554 0.45790666 -0.028504305
-0.6777012 0.056048643 -0.25590575 0.10585115 -0.27715424 0.2853666 -0.27267897 -0.39173302
-0.18654977 -0.3710537 -0.03269585 -0.09780703 0.6567894 0.51644343 0.40751252 -0.24886906
0.16927728 0.27205607 0.09626232 -0.21189849 0.30071938 0.41856962 -0.23221956 0.06660112
0.35083485 0.07052507 -0.1806743 -0.37813425 0.034719698 0.1300144 -0.080385074 -0.11864869
0.12822106 0.5908633 -0.11871634 0.17702638 0.4692111 -0.06280684 0.35175315 -0.5239428
0.4279685 0.08766949 0.12526183 -0.30601525 -0.2912675 -0.029055215 -0.13016152 -0.058905505
-0.019766245 0.064271085 -0.22063312 0.18862912 -0.15372053 -0.102332324 0.06783427 -0.4467049
-0.059540704 0.3837954 0.41702443 -0.32113814 -0.37646696 -0.3998904 -0.009386354 -0.2767339
0.061094593 0.40544826 0.04034304 -0.32599208 0.3950118 -0.1585884 -0.354551 0.019009376
-0.04403915 -0.18538104 -0.2960598 0.019190611 -0.22142415 0.3482537 0.54439205 0.446158
0.20643272 0.0339583 0.21753693 0.21911407 0.15769456 0.038652845 0.29246658 -0.15633598
00000000: 8155 0f3f 0da1 e73e b430 abbe 91ed 28bf
00000010: b94e 033e 3cb9 43be 819c bcbe e6f2 093e
00000020: b9f2 943e 1489 35be e1cc 3c3e 0770 ad3e
00000030: bbb5 69bf 38ec afbd 6d22 83be ae0d 9a3e
00000040: 4671 dc3d 6836 4f3e 62c8 a5bd c419 2fbe
00000050: 87bd 65be e467 863e 538d af3e a0a4 b43e
00000060: 3dc2 9bbe 245d 7cbd 7633 e6bc 7818 44be
00000070: 6a56 80be f903 ac3e 5d5e 073c 364b cabe
00000080: bb63 0cbe dbb9 5bbe 7ae8 a33c c9fb dc3a
00000090: ff64 993c 475e a7be f75a 08be a4fb 8bbe
000000a0: 4e81 f9bd 79a2 083e 6235 0ebe 4c7d dcbe
000000b0: 31cc 273d 809b 003d f3af e03d aa7f 9fbe
000000c0: 9e29 2d3e b17c 813e ac50 833e 52dd 6d3e
000000d0: 2e81 19be 058a e2bd 88df d53d 3b15 06bf
000000e0: 0654 723e d829 15be 57a8 5ebe af8a 86bb
000000f0: 2b92 143f f1cb e33e 2152 923e d39f 3fbe
00000100: a981 9f3e d5f4 aabd 4cd3 d03e e7db ff3e
00000110: 81d8 9a3d 11cf d7be 7418 9a3e 5326 1bbe
00000120: a38d 09be 6401 9dbe e118 9a3e 6949 dabd
00000130: 7949 ab3e 1096 473d 2b2b a43e b560 06bf
00000140: 9d67 b4be ddce d9be cd37 25be b459 153e
00000150: f7b0 31be 4a20 c43d d7e4 853e 272a 8b3e
00000160: b283 8fbd d71d 803e 24e3 2a3f d132 403e
00000170: 6e0a 78be 3067 9abe 33d6 e1bc 23b7 843c
00000180: dcce c5be 29eb 9dbe 8cdf 803e 2fea 7f3e
00000190: 6ca9 95be 1582 a03e 43d8 913e 7512 a43e
000001a0: bcaa 183d 0b70 fb3d 87d6 22be 15af b83e
000001b0: 3622 fbbe 66a9 00bf e83a a53e ed57 c63e
000001c0: eb13 783e 3ff7 803e 99f4 b83d 37a1 15bf
000001d0: a5c9 b83e cb69 dc3e 221e ed3e b67c 4c3d
000001e0: 9b54 813d 1c93 8e3d fc54 0bbe 1a43 4a3e
000001f0: e8f1 543d f816 923e 7735 f63e fa0f ba3d
00000200: 5228 c7be 1080 be3e afa1 dfbd 9846 a23e
00000210: 8635 db3e ca73 cc3e 8fbe c6bc 2c9a 84be
00000220: f305 5f3e d4bf e3bd 7fc4 013e dfaf f4be
00000230: 3667 c8bd fdf7 bd3d 5717 0cbe 03e4 393e
00000240: 8b04 c43e 2355 3ebe a894 083e 11f9 06be
00000250: 0bfa 55bd 46dc 9cbd c244 2abe 7bd4 dd3e
00000260: a079 75be b4ab ce3e 71ec 893e a3e4 c23e
00000270: 346e 63bf 4284 c9bd 3bca 783e e711 943e
00000280: 282e d6be 246f 143e 56c3 e43c bdda c0be
00000290: 4ea7 aebd bfc0 c83e be72 ea3e dc81 e9bc
000002a0: d37d 2dbf 4393 653d 1406 83be 7dc8 d83d
000002b0: 29e7 8dbe 921b 923e 949c 8bbe 3b91 c8be
000002c0: e706 3fbe c0fa bdbe 15ec 05bd 0d4f c8bd
000002d0: 5a23 283f a335 043f 7ba5 d03e 88d7 7ebe
000002e0: 0657 2d3e ef4a 8b3e 2e25 c53d ebfb 58be
000002f0: e4f7 993e c24e d63e f7ca 6dbe 2b66 883d
00000300: a0a0 b33e 736f 903d af02 39be d09a c1be
00000310: 3e36 0e3d 7f22 053e eea0 a4bd 16fe f2bd
00000320: 624c 033e d142 173f 8d21 f3bd 6746 353e
00000330: 703c f03e dfa0 80bd fd18 b43e 1e21 06bf
00000340: b01e db3e 108c b33d a344 003e 08ae 9cbe
00000350: 0421 95be 3405 eebc 1049 05be e646 71bd
00000360: d2ec a1bc 8fa0 833d a6ed 61be fe27 413e
00000370: ea68 1dbe 9c93 d1bd b2ec 8a3d 81b6 e4be
00000380: f4e0 73bd d580 c43e 3a84 d53e 386c a4be
00000390: 47c0 c0be 6fbe ccbe 39c9 19bc 11b0 8dbe
000003a0: 533e 7a3d ea96 cf3e be3e 253d 6fe8 a6be
000003b0: fd3e ca3e ff64 22be b587 b5be 8db9 9b3c
000003c0: 6562 34bd 87d4 3dbe 2695 97be a135 9d3c
000003d0: 03bd 62be 4f4e b23e 475d 0b3f d26e e43e
000003e0: 1963 533e dc17 0b3d 00c2 5e3e 705f 603e
000003f0: af7a 213e 7252 1e3d 2ebe 953e 8a16 20be

g.0.bias f4 [100]
0.115163155 0.1412949 -0.03653151 0.1758491 0.05971284 -0.17043054 -0.38416755 0.31137085
-0.39580488 0.39220428 -0.28221497 -0.14065188 -0.36567414 0.37349445 -0.40226007 0.10205178
-0.28873175 0.024376536 0.13502811 -0.17918679 -0.24711332 -0.22973143 -0.09191417 0.34419551
-0.3860784 0.32871696 0.23429453 -0.014033412 0.26916862 -0.15846479 0.18167421 0.35135236
-0.26209715 0.24586573 0.022998909 -0.23579045 -0.2465731 0.26313135 -0.38760537 -0.051183026
0.06729024 -0.28392947 0.23451068 0.1736358 0.13044152 0.10142239 0.390775 -0.28901646
-0.07691257 -0.0024455206 -0.0405017 -0.17355208 -0.1530927 -0.20602183 0.14580011 -0.3866317
-0.29949725 0.33212087 0.069725156 -0.19521664 0.3304733 0.21492289 0.25930712 0.0798151
0.23165055 -0.32527733 -0.36612475 0.11068929 -0.32647267 0.2762 0.29595163 -0.30885014
0.37370592 0.22911479 0.29887506 -0.3008232 0.08300631 0.20921578 0.07700935 0.08034661
0.42028406 0.009938582 -0.36839968 0.24568771 0.10637327 -0.19339557 -0.40027446 0.14937897
0.33067408 -0.09650741 0.44197154 0.052887604 -0.39294958 0.2620347 0.13871062 -0.15220791
0.2720034 0.17087609 -0.3784695 -0.36522168
00000000: a9da eb3d 9caf 103e 11a2 15bd c911 343e
00000010: 7395 743d 5885 2ebe 9cb1 c4be 006c 9f3e
00000020: f0a6 cabe 00cf c83e 7b7e 90be 0c07 10be
00000030: a439 bbbe aa3a bf3e 08f5 cdbe 8600 d13d
00000040: a6d4 93be 4db1 c73c cf44 0a3e be7c 37be
00000050: 460b 7dbe b73e 6bbe 7f3d bcbd 653a b03e
00000060: 11ac c5be 974d a83e e8ea 6f3e 65ec 65bc
00000070: 78d0 893e 9844 22be ce08 3a3e 75e4 b33e
00000080: 9931 86be 3ac4 7b3e 3568 bc3c 0d73 71be
00000090: a97d 7cbe 27b9 863e 3674 c6be 4ba5 51bd
000000a0: 77cf 893d 345f 91be 9123 703e 95cd 313e
000000b0: 7692 053e 8bb6 cf3d a913 c83e f7f9 93be
000000c0: 5684 9dbd 0745 20bb 1ce5 25bd a3b7 31be
000000d0: 55c4 1cbe 63f7 52be a04c 153e 97f4 c5be
000000e0: b457 99be bf0b aa3e 10cc 8e3d dfe6 47be
000000f0: cc33 a93e bf14 5c3e e7c3 843e 1976 a33d
00000100: cd35 6d3e c08a a6be b474 bbbe 11b1 e23d
00000110: 6d27 a7be 166a 8d3e f986 973e 9b21 9ebe
00000120: 6256 bf3e 119d 6a3e 2706 993e 8005 9abe
00000130: 36ff a93d a93c 563e 14b7 9d3d c38c a43d
00000140: 792f d73e 6fd5 223c e29e bcbe 8f95 7b3e
00000150: 3bda d93d 7d09 46be c6f0 ccbe cdf6 183e
00000160: 1d4e a93e ada5 c5bd 184a e23e aca0 583d
00000170: b030 c9be 6a29 863e 280a 0e3e 64dc 1bbe
00000180: 0844 8b3e 24fa 2e3e c1c6 c1be 56fe babe

g.2.weight f4 [100, 100]
0.09560993 -0.0208442 -0.38080052 -0.07455266 -0.07149255 0.022653151 -0.006581676 0.113833025
-0.02721051 -1.1136199 -0.0032843011 0.03201164 0.052782416 -0.75259817 -0.054968536 0.11350612
0.009622824 -0.01727341 -1.3914926 -0.074157275 0.028711641 0.6701425 0.12241504 0.33750248
-0.09442425 0.0440423 -0.3698912 0.16877991 -0.4482208 0.0990531 0.034643143 0.04016628
0.014657967 -0.04057482 0.089236334 0.0460845 0.030370547 0.04820165 0.0012924671 0.0046445727
-0.06954765 0.017497694 0.087192565 -1.4178536 -0.7868474 0.06094126 0.09593514 -0.07847567
-0.6129156 0.12240048 -0.002750343 -0.05506766 0.016141623 -0.074379995 -0.3817516 0.06061042
0.050179243 -0.0043940097 0.093799464 -0.90343165 -0.9101817 0.086850725 0.056584507 0.11727043
0.21266973 -0.98190236 0.07358048 -0.18500002 -0.09220963 0.1769239 -1.0449535 -0.05836137
0.15500431 -0.49541426 -0.023074836 0.03356695 -0.7121499 -0.2720956 -0.1086824 -0.029670984
0.079233155 -0.039558657 0.074767925 0.008731463 -0.06500099 -0.08800154 -0.063314416 0.0010062947
-0.01697456 -0.22880343 0.034288082 -0.18021414 -0.034357917 -0.009712424 0.06774671 -0.07454126
-0.8467999 -1.1450298 -0.0697541 -0.06565926 0.08003401 -0.05516324 -0.24364913 0.008041884
0.09381821 0.052920796 -0.036190808 0.1158712 -0.068667606 -1.0995874 0.07673524 -0.10606548
0.09621171 -0.40000933 0.026288152 -0.034980938 -0.022985065 -0.13987486 -1.3515711 -0.008920511
-0.074225366 0.5109282 0.05775912 0.14197315 -0.034396853 0.013781382 -0.23919499 0.07327875
-0.34459075 0.051393893 0.07025312 -0.08072637 0.07160838 0.05336831 0.18129027 -0.04396924
-0.05470146 0.0009497623 -0.08276105 -0.090340674 0.06741613 0.055390663 0.058948394 -1.133579
-0.9533784 -0.020540955 -0.026670106 0.078498445 -0.6842677 0.0802211 -0.071732916 0.09765309
-0.04156345 -0.021678722 -0.24482284 0.032498047 -0.022512376 0.18800002 0.14321643 -0.93305266
-0.7329405 0.14063972 0.19020241 0.038093172 0.16996466 -1.0100858 0.01538477 -0.09317534
-0.00078650715 0.30595204 -0.7714332 -0.080496326 0.10026347 -0.56602657 0.051799625 0.021605564
-0.59387624 -0.19195694 -0.08657013 -0.15780751 0.085869424 0.07105042 -0.06467054 0.038700882
0.05706445 0.07809281 -0.02313136 -0.00776185 0.062388953 -0.2413487 0.13532323 -0.047267936
-0.005942929 -0.05314877 0.071747385 0.005967164 -0.6765583 -1.019939 0.027375354 0.062499594
-0.091713354 0.06599604 -0.098844014 -0.011972753 0.045182467 -0.06694044 0.0871379 0.054640744
-0.017187823 -0.049118433 -0.051871788 0.006393172 -0.011912095 -0.014737349 0.025500715 0.0105610285
-0.0395859 -0.059052475 -0.100057356 -0.011212555 -0.03607316 0.041033458 0.047105886 -0.06390121
0.05962503 0.010165349 -0.10268317 -0.02982373 -0.07052204 -0.06849412 -0.021697728 0.016204787
-0.004781437 -0.008114443 -0.09842749 0.09772402 -0.018326664 0.0744945 0.09224719 -0.04632268
0.08158811 -0.043658104 -0.029144835 0.0034377603 -0.09071948 -0.03196894 0.0014524887 0.03347695
0.056701876 -0.071096934 0.077680945 0.0037819028 -0.07703829 0.0051576137 0.037381604 -0.055026878
00000000: 24cf c33d 75c1 aabc 49f8 c2be 11af 98bd
00000010: b06a 92bd 1a93 b93c 1aab d7bb 4a21 e93d
00000020: 93e8 debc 198b 8ebf 6e3d 57bb a31e 033d
00000030: 6032 583d 46aa 40bf b026 61bd e675 e83d
00000040: 0da9 1d3c f780 8dbc 6e1c b2bf c5df 97bd
00000050: ad34 eb3c 758e 2b3f bdb4 fa3d 20cd ac3e
00000060: 8061 c1bd b365 343d 6162 bdbe a4d4 2c3e
00000070: 327d e5be 5adc ca3d f8e5 0d3d 6685 243d
00000080: f827 703c c831 26bd 8ac1 b63d 1ac3 3c3d
00000090: a7cb f83c 186f 453d 0068 a93a 8031 983b
000000a0: 006f 8ebd 5357 8f3c 0492 b23d 3a7c b5bf
000000b0: d56e 49bf 8b9d 793d a579 c43d dab7 a0bd
000000c0: 09e8 1cbf 1aad fa3d 193f 34bb a08e 61bd
000000d0: 703b 843c 8a54 98bd f274 c3be a242 783d
000000e0: c088 4d3d a0fb 8fbb ef19 c03d 4c47 67bf
000000f0: ab01 69bf cbde b13d 28c5 673d 7b2b f03d
00000100: 18c6 593e f45d 7bbf 5db1 963d a570 3dbe
00000110: 67d8 bcbd 8a2b 353e 09c1 85bf 550c 6fbd
00000120: 73b9 1e3e f0a6 fdbe 7007 bdbc 807d 093d
00000130: 754f 36bf 1d50 8bbe e194 debd 9010 f3bc
00000140: fe44 a23d 4208 22bd ed1f 993d 690e 0f3c
00000150: 3d1f 85bd 273a b4bd fdaa 81bd a6e5 833a
00000160: 3c0e 8bbc 724b 6abe a971 0c3d 0e8a 38be
00000170: e3ba 0cbd dc20 1fbc c9be 8a3d 17a9 98bd
00000180: e1c7 58bf 5690 92bf 3ddb 8ebd 5d78 86bd
00000190: dfe8 a33d d9f2 61bd 287f 79be 1bc2 033c
000001a0: c323 c03d 7ac3 583d d03c 14bd e14d ed3d
000001b0: 9aa1 8cbd 48bf 8cbf 5e27 9d3d dc38 d9bd
000001c0: a50a c53d 06ce ccbe 405a d73c 2c48 0fbd
000001d0: 2d4b bcbc 5b3b 0fbe 4800 adbf 5627 12bc
000001e0: 7803 98bd 31cc 023f d494 6c3d 6961 113e
000001f0: b7e3 0cbd 4ecb 613c 88ef 74be 2b13 963d
00000200: 336e b0be 6782 523d dee0 8f3d de53 a5bd
00000210: 6aa7 923d bb98 5a3d 28a4 393e 1719 34bd
00000220: a30e 60bd 78f9 783a a07e a9bd 8804 b9bd
00000230: 7811 8a3d 52e1 623d df73 713d 1e19 91bf
00000240: 9b10 74bf 8145 a8bc 447b dabc cbc3 a03d
00000250: 2b2c 2fbf f64a a43d b5e8 92bd 58fe c73d
00000260: 703e 2abd 9397 b1bc d7b2 7abe ac1c 053d
00000270: e06b b8bc 1483 403e 54a7 123e 8adc 6ebf
00000280: fda1 3bbf dc03 103e 6cc4 423e 9607 1c3d
00000290: 370b 2e3e 7e4a 81bf 6710 7c3c b6d2 bebd
000002a0: 9a2d 4eba bfa5 9c3e a57c 45bf 42db a4bd
000002b0: ef56 cd3d 1ee7 10bf d82b 543d 27fe b03c
000002c0: 4608 18bf 5c90 44be ae4b b1bd 4b98 21be
000002d0: 4fdc af3d e282 913d fd71 84bd d184 1e3d
000002e0: 6abc 693d 20ef 9f3d fa7d bdbc 1e57 febb
000002f0: 8f8b 7f3d 1d24 77be 2c92 0a3e 069c 41bd
00000300: e7bc c2bb 86b2 59bd 4bf0 923d 3388 c33b
00000310: ed32 2dbf 5c8d 82bf 4742 e03c 93ff 7f3d
00000320: 36d4 bbbd ef28 873d bb6e cabd 5e29 44bc
00000330: 4011 393d 1218 89bd 5b75 b23d f9ce 5f3d
00000340: 7acd 8cbc 6930 49bd 8377 54bd d07d d13b
00000350: f32a 43bc ec74 71bc e0e6 d03c 2a08 2d3c
00000360: d324 22bd 02e1 71bd dfea ccbd ddb4 37bc
00000370: 73c1 13bd b312 283d 1af2 403d a3de 82bd
00000380: 6039 743d 908c 263c 8e4b d2bd e550 f4bc
00000390: dc6d 90bd a546 8cbd 6fbf b1bc e7bf 843c
000003a0: 9aad 9cbb 71f2 04bc 5a94 c9bd 8823 c83d
000003b0: cd21 96bc 9390 983d 18ec bc3d dabc 3dbd
000003c0: ab17 a73d d7d2 32bd 26c1 eebc 0c4c 613b
000003d0: 22cb b9bd ddf1 02bd 6f61 be3a 201f 093d
000003e0: 3a40 683d 459b 91bd 3017 9f3d cdd9 773b
000003f0: 40c6 9dbd 3301 a93b 741d 193d dd63 61bd

g.2.bias f4 [100]
0.07835569 0.01324625 0.061889555 -0.031519756 0.016197566 0.020140035 -0.019874692 0.10680983
-0.07311344 0.0012285289 0.01959708 -0.0049672015 0.023277577 0.013673472 -0.02182631 0.07145887
-0.03904514 -0.06607752 -0.07564572 0.05039986 -0.08642792 0.052941125 0.010665516 0.08531009
-0.085484795 -0.09770701 0.07408588 -0.09944203 0.055258904 0.11751062 -0.08844839 0.014866675
-0.044746924 -0.054479744 -0.085444964 -3.093892e-05 -0.039868318 0.06893833 0.030281669 -0.034756746
0.030995263 -0.07760531 -0.0760123 -0.00276708 -0.025123332 -0.076670885 -0.097602755 0.017648166
-0.06285829 -0.06476171 -0.013400366 -0.024707923 0.030584756 0.1197066 -0.06623835 -0.045106623
-0.02240994 0.048201263 -0.012503159 -0.011654192 0.0059131635 0.0066481493 -0.06815852 0.03398752
-0.0550477 -0.012311495 0.021545576 -0.16119608 -0.0089892335 -0.054977886 -0.029939698 -0.0036065222
-0.021000266 0.039623417 0.046592817 -0.07940185 0.05330364 0.046233144 -0.005211377 -0.028085584
-0.08951253 -0.12354597 -0.069157675 0.046037886 -0.05641299 0.027190683 -0.034704726 -0.052432727
-0.075148694 0.011607087 0.04715209 -0.042681076 -0.0095374705 -0.004627023 0.038547277 -0.021958359
0.04657268 0.043970615 0.011606811 -0.008296787
00000000: f378 a03d cd06 593c e77f 7d3d dc1a 01bd
00000010: c2b0 843c b7fc a43c 40d0 a2bc 1dbf da3d
00000020: 80bc 95bd 9706 a13a 0e8a a03c e8c3 a2bb
00000030: 9eb0 be3c b306 603c 17cd b2bc 0759 923d
00000040: cced 1fbd a753 87bd 25ec 9abd 1570 4e3d
00000050: 1f01 b1bd cbd8 583d 6bbe 2e3c 0eb7 ae3d
00000060: a712 afbd 9d1a c8bd 56ba 973d 43a8 cbbd
00000070: 2957 623d 68a9 f03d 6e24 b5bd 5b93 733c
00000080: 8d48 37bd 2726 5fbd c5fd aebd 6ac4 01b8
00000090: f64c 23bd 8a2f 8d3d 4311 f83c 175d 0ebd
000000a0: c7e9 fd3c 88ef 9ebd 56ac 9bbd e657 35bb
000000b0: 72cf cdbc a005 9dbd f4e3 c7bd e392 903c
000000c0: d9bb 80bd caa1 84bd 358d 5bbc 4568 cabc
000000d0: e28c fa3c bc28 f53d f9a7 87bd b9c1 38bd
000000e0: 0d95 b7bc b06e 453d 0dda 4cbc 39f1 3ebc
000000f0: 36c3 c13b b8d8 d93b b296 8bbd 7f36 0b3d
00000100: b279 61bd 27b6 49bc 5980 b03c 9610 25be
00000110: 9447 13bc 7e30 61bd 1944 f5bc 675b 6cbb
00000120: c008 acbc 2a4c 223d 1cd8 3e3d 709d a2bd
00000130: eb54 5a3d f75e 3d3d 33c4 aabb bd13 e6bc
00000140: 5852 b7bd ab05 fdbd 8aa2 8dbd 3992 3c3d
00000150: 4f11 67bd ffbe de3c 8b26 0ebd b3c3 56bd
00000160: 8fe7 99bd a72b 3e3c 8d22 413d 5ad2 2ebd
00000170: 0d43 1cbc 489e 97bb c0e3 1d3d 04e2 b3bc
00000180: ffc2 3e3d 881a 343d 7e2a 3e3c 3fef 07bc

g.4.weight f4 [1, 100]
0.7169625 0.9462121 0.089554824 -0.58003837 0.013256157 -0.25921008 0.09832495 0.97779334
-0.039773893 -1.062427 -0.7756063 0.71283853 -0.7483303 -0.07460979 -0.16119574 0.036349557
-1.8600655 -0.79646724 0.00034205915 0.72259074 -0.09654546 -0.28167155 -0.39655924 0.021017602
0.0065490725 -0.57309026 0.04049637 -0.095411755 1.0572939 0.87202907 -0.5821149 0.71420807
0.024930669 -0.016903806 -0.39169782 0.9994368 0.7895674 0.85113055 -0.34433427 -0.0566746
0.07556255 0.083425395 0.9385091 0.97350967 -1.1470457 -0.28078398 0.062757745 -0.2559397
-0.21803473 0.06274861 0.0013249815 0.04997162 -0.31777954 0.84096515 0.023183065 0.04534655
0.039558627 -0.4028603 -0.07835191 0.047105312 0.011514073 0.88049006 -0.31367588 -0.39561757
-1.1636324 -0.29707175 0.07930762 -1.9122314 -0.31224278 0.7545828 0.8222543 0.08993665
0.086157195 -1.0383654 -0.814391 0.07357822 0.8603093 0.007970668 -0.03392116 -0.043194536
-0.049152054 -1.0300329 -0.08076348 0.04152393 0.04877532 -0.8010583 -0.27769637 -0.66018367
-0.50180197 -0.05334847 -0.47615457 -0.04122428 0.08683121 -0.33091244 -0.9193333 -0.38736674
-0.9833855 0.7476036 0.05371297 -0.31830543
00000000: db8a 373f f53a 723f 8568 b73d 657d 14bf
00000010: 5a30 593c 2fb7 84be 975e c93d aa50 7a3f
00000020: f3e9 22bd 9cfd 87bf 228e 46bf 967c 363f
00000030: 9392 3fbf 05cd 98bd 7f10 25be 46e3 143d
00000040: a016 eebf 47e5 4bbf 6756 b339 b5fb 383f
00000050: a0b9 c5bd 4137 90be d009 cbbe 1b2d ac3c
00000060: 9a99 d63b 0bb6 12bf 86df 253d 3d67 c3bd
00000070: 6855 873f 4c3d 5f3f 7b05 15bf 57d6 363f
00000080: 673b cc3c da79 8abc 9e8c c8be 17db 7f3f
00000090: 1721 4a3f b1e3 593f 954c b0be a023 68bd
000000a0: 8ac0 9a3d efda aa3d 2242 703f ee37 793f
000000b0: 65d2 92bf ebc2 8fbe 2287 803d 870a 83be
000000c0: 7f44 5fbe 5882 803d 00ab ad3a 0baf 4c3d
000000d0: 00b4 a2be 7e49 573f 69ea bd3c 4ebd 393d
000000e0: 3a08 223d b543 cebe f776 a0bd 80f1 403d
000000f0: 86a5 3c3c cc67 613f 209a a0be 638e cabe
00000100: e8f1 94bf ca19 98be 096c a23d 00c4 f4bf
00000110: 49de 9fbe 572c 413f 427f 523f b530 b83d
00000120: 2f73 b03d 28e9 84bf ee7b 50bf 2eb0 963d
00000130: 3b3d 5c3f 6897 023c eaf0 0abd c1ec 30bd
00000140: aa53 49bd 1ed8 83bf 5367 a5bd ff14 2a3d
00000150: a1c8 473d 2812 4dbf 382e 8ebe cc01 29bf
00000160: 1876 00bf ed83 5abd 88ca f3be cada 28bd
00000170: 90d4 b13d 5b6d a9be 6d59 6bbf ef54 c6be
00000180: 27bf 7bbf f362 3f3f 2202 5c3d eef8 a2be

h.0.weight f4 [100, 6]
0.40321338 -0.10451629 -0.19648188 -0.43306646 0.33577693 0.1731168 0.6339874 0.34296587
-0.010876148 -0.23136327 0.37528208 -0.09446126 0.5237879 -0.34684327 -0.32755128 0.22224827
-0.276246 -0.26672772 0.0046848026 0.17194778 -0.31947315 0.32316846 0.009889303 -0.23466459
0.18348086 0.4981265 -0.010682988 0.24230401 0.029731127 -0.07312171 0.10928027 -0.012774536
-0.13939813 0.4933706 0.37289652 0.18438472 -0.20570047 0.13408719 -0.033858113 0.19149674
-0.22951104 0.13928464 0.31077778 0.27343717 -0.16489238 -0.32019657 0.21420664 0.31312683
-0.074465655 -0.024609923 0.3870066 -0.3588068 0.29933167 0.13756533 0.39266112 0.23416333
0.13592695 -0.48583308 0.0696263 -0.27714762 0.32057783 0.31260917 0.055725504 0.15052584
-0.35227138 0.024363572 0.5330352 -0.5191838 -0.3492917 -0.17119192 0.12744366 0.31812808
0.35274073 0.0690083 -0.37358817 -0.41961774 0.04329294 0.16211417 0.78554136 0.11137006
0.038378254 -0.3882142 0.13275929 -0.19719471 -0.37191242 0.44930372 -0.26244265 -0.19125837
0.40735203 0.33038405 0.07420996 0.13138121 0.20699866 0.018058373 -0.3464497 0.022565959
0.7188865 0.39387405 0.17269073 -0.065813795 -0.21766008 -0.31673154 -0.21251903 0.1044485
-0.06681851 0.13717948 -0.036660526 0.3303892 0.6631216 0.29140633 0.0006174381 -0.3126727
0.083014034 0.16242613 -0.07746542 0.42618307 -0.09164861 0.22308117 -0.4004259 -0.23148985
0.021752734 -0.39858985 -0.15741669 -0.09055959 0.30190367 -0.2638674 0.28897983 -0.21292967
-0.24206455 -0.19171844 -0.38231567 -0.019923681 -0.22124447 -0.19232723 0.3485441 -0.16736534
0.38672718 -0.39319927 0.6088994 -0.22031294 0.051120196 0.04329104 0.3349533 -0.012326376
-0.33749238 -0.35789433 -0.03305209 -0.06157776 -0.24994457 -0.3461889 0.13093655 -0.4599035
0.31088144 -0.07547395 0.33734798 0.18850039 -0.20337974 0.12750591 -0.17728908 -0.077509485
0.25567836 -0.08720438 0.073415905 -0.24191958 -0.35949776 0.13577905 -0.3229411 -0.012167234
0.1416808 -0.27606982 -0.19999652 0.3131822 -0.30354896 0.15324777 -0.6012881 -0.20876594
0.39163417 0.4308718 -0.020118073 0.33694762 0.6376509 0.23274393 -0.009103258 -0.58727026
0.20694405 0.18354498 0.25909653 -0.06095059 0.020294039 -0.21055326 -0.29199648 0.050269645
-0.6904985 0.06837797 0.33562648 0.2059075 0.24117923 -0.03375236 -0.50833863 0.36449966
0.29373088 0.023029026 -0.15551664 0.07633559 0.18176545 0.08566797 0.077207506 -0.019826131
0.24696355 -0.36484626 -0.31329998 -0.25420293 -0.06763583 0.010214812 -0.23519905 0.05336866
-0.12916131 0.174844 0.37475735 -0.24100341 -0.20624876 -0.1806414 -0.16465162 0.34704888
0.34222087 -0.11446968 -0.2547791 -0.35908514 0.29718864 -0.35162407 -0.335599 -0.15517835
-0.35614738 0.012873003 -0.29085258 0.14640856 -0.03320904 -0.32559863 0.24195349 -0.13820209
-0.3551126 -0.20586999 0.20549423 0.33603778 0.048589025 0.21603812 0.22762908 -0.40198514
-0.049888775 -0.25602323 -0.036629684 0.40190962 0.13761535 -0.104371905 -0.21771184 -0.3280325
00000000: fc71 ce3e a30c d6bd 8c32 49be e3ba ddbe
00000010: f4ea ab3e 8845 313e 004d 223f 3999 af3e
00000020: df31 32bc 7eea 6cbe f924 c03e e874 c1bd
00000030: f716 063f 7195 b1be cdb4 a7be 0d95 633e
00000040: 1e70 8dbe 8990 88be f982 993b 1413 303e
00000050: fc91 a3be 5676 a53e be06 223c ea4b 70be
00000060: 68e2 3b3e 700a ff3e b307 2fbc 8b1e 783e
00000070: b18e f33c d6c0 95bd 56ce df3d 4a4c 51bc
00000080: 62be 0ebe 129b fc3e 4bec be3e 59cf 3c3e
00000090: 25a3 52be 274e 093e ceae 0abd b917 443e
000000a0: f104 6bbe a2a0 0e3e 441e 9f3e f5ff 8b3e
000000b0: 8cd9 28be cef0 a3be fc58 5b3e 2952 a03e
000000c0: 7381 98bd c09a c9bc bb25 c63e 86b5 b7be
000000d0: 0042 993e eddd 0c3e e10a c93e 83c8 6f3e
000000e0: 6f30 0b3e 1dbf f8be 3c98 8e3d 4be6 8dbe
000000f0: c722 a43e 4f0e a03e 6d40 643d 7223 1a3e
00000100: ea5c b4be 1d96 c73c ff74 083f 3be9 04bf
00000110: 5dd6 b2be ef4c 2fbe 9780 023e afe1 a23e
00000120: 6f9a b43e 3954 8d3d f346 bfbe 23d8 d6be
00000130: f053 313d 4201 263e 3d19 493f fc15 e43d
00000140: 8432 1d3d 03c4 c6be 0df2 073e 69ed 49be
00000150: 4e6b bebe 230b e63e e25e 86be 3cd9 43be
00000160: 7290 d03e 1928 a93e 64fb 973d cc88 063e
00000170: 75f7 533e 27ef 933c db61 b1be 3fdc b83c
00000180: f208 383f dca9 c93e d7d5 303e 62c9 86bd
00000190: 49e2 5ebe a32a a2be 979e 59be 18e9 d53d
000001a0: 25d8 88bd c778 0c3e 5929 16bd c628 a93e
000001b0: 56c2 293f 3633 953e 92db 213a a316 a0be
000001c0: 4303 aa3d 0953 263e 31a6 9ebd ab34 da3e
000001d0: 44b2 bbbd 646f 643e a004 cdbe ad0b 6dbe
000001e0: ca32 b23c f813 ccbe d731 21be 4e77 b9bd
000001f0: 1e93 9a3e a119 87be 2af5 933e 3c0a 5abe
00000200: c5df 77be d751 44be e1be c3be fd36 a3bc
00000210: e98d 62be 6ef1 44be 5f74 b23e d261 2bbe
00000220: 1b01 c63e 6a51 c9be d5e0 1b3f b799 61be
00000230: 6963 513d f251 313d 007f ab3e 91f4 49bc
00000240: cdcb acbe ed3d b7be a161 07bd f638 7cbd
00000250: 78f1 7fbe ac3f b1be 3b14 063e 7978 ebbe
00000260: da2b 9f3e 1692 9abd e0b8 ac3e 3f06 413e
00000270: c742 50be e990 023e 458b 35be 4bbd 9ebd
00000280: 46e8 823e 3698 b2bd 145b 963d c4b9 77be
00000290: 1710 b8be aa09 0b3e 8958 a5be 1459 47bc
000002a0: c614 113e 0659 8dbe e3cb 4cbe 6b59 a03e
000002b0: c56a 9bbe fcec 1c3e 04ee 19bf bdc6 55be
000002c0: 4684 c83e 3b9b dc3e a8ce a4bc 6684 ac3e
000002d0: 173d 233f 6d54 6e3e d525 15bc 5857 16bf
000002e0: 24e9 533e 37f3 3b3e 4da8 843e 53a7 79bd
000002f0: af3f a63c 469b 57be 9080 95be 8be7 4d3d
00000300: 82c4 30bf c009 8c3d 3cd7 ab3e 6ad9 523e
00000310: b0f7 763e ea3f 0abd 7b22 02bf b39f ba3e
00000320: e563 963e 5ea7 bc3c c13f 1fbe d555 9c3d
00000330: b920 3a3e b072 af3d f81e 9e3d 696a a2bc
00000340: 03e4 7c3e 21cd babe db68 a0be e326 82be
00000350: a784 8abd 075c 273c 05d8 70be 1999 5a3d
00000360: dd42 04be 4e0a 333e 32e0 bf3e 99c9 76be
00000370: e032 53be 0ffa 38be 6f9a 28be 64b0 b13e
00000380: 9337 af3e 146f eabd 6872 82be 02da b7be
00000390: 1c29 983e 1208 b4be a2d3 abbe 13e7 1ebe
000003a0: f358 b6be 4ae9 523c a1ea 94be 20ec 153e
000003b0: 3406 08bd ddb4 a6be a8c2 773e d984 0dbe
000003c0: 52d1 b5be 95cf 52be 146d 523e 250d ac3e
000003d0: 4905 473d 1939 5d3e 9917 693e ffd0 cdbe
000003e0: 2c58 4cbd 7a15 83be 0209 16bd 19c7 cd3e
000003f0: 0aeb 0c3e f0c0 d5bd daef 5ebe e0f3 a7be

h.0.bias f4 [100]
0.21272558 0.2031693 0.15710767 0.058881965 -0.20320584 -0.11713523 0.3210072 -0.24927405
-0.3409222 0.13543788 -0.2714325 0.006716471 -0.03901453 0.20789047 -0.24276161 -0.17631447
0.055640317 0.09360026 0.008823161 -0.11044073 -0.30601 0.0026215934 -0.28220323 0.034205396
-0.11928007 0.26108488 -0.21948409 -0.2620183 -0.3375836 0.28973725 0.10565764 -0.12927851
0.11861174 0.2991707 0.21733226 -0.114616506 -0.1999399 -0.21229257 -0.31822032 -0.22207993
-0.26772776 0.28330025 -0.11081844 -0.16706651 0.07205172 0.34015584 -0.31811598 0.00895797
0.220447 -0.1567396 -0.32384673 0.40751582 0.27143762 -0.29418704 0.28845343 -0.33893764
-0.22382951 0.11143608 0.11369627 0.07893004 0.10437041 -0.30183992 -0.22936496 0.41881576
0.37307554 0.17808016 0.04836944 -0.1822826 0.3972298 0.23368636 0.26455647 -0.24134876
0.29887152 -0.05693264 0.332521 -0.13513026 0.31906378 -0.01541088 0.3584111 0.11555461
0.14001307 -0.30538177 0.31845316 -0.15732235 -0.34800944 0.033545528 0.2757845 -0.3902757
-0.31887794 -0.2708493 0.1623729 0.071128234 0.2729619 -0.02964579 0.26017618 0.07618802
0.23900355 0.3344507 0.022710737 0.018261941
00000000: bcd4 593e 9d0b 503e d5e0 203e 372e 713d
00000010: 3115 50be 98e4 efbd 0e5b a43e b241 7fbe
00000020: 5b8d aebe 3ab0 0a3e 33f9 8abe d815 dc3b
00000030: b3cd 1fbd 3de1 543e 8096 78be c88b 34be
00000040: 1ae7 633d 7eb1 bf3d 058f 103c c02e e2bd
00000050: 58ad 9cbe 0acf 2b3b f17c 90be f51a 0c3d
00000060: 1c49 f4bd ebac 853e 70c0 60be 4327 86be
00000070: c2d7 acbe 7158 943e 0863 d83d 9661 04be
00000080: b6ea f23d e72c 993e 598c 5e3e 0fbc eabd
00000090: 0cbd 4cbe 3963 59be c6ed a2be ec68 63be
000000a0: 9d13 89be bb0c 913e c7f4 e2bd 7c13 2bbe
000000b0: da8f 933d e828 ae3e 19e0 a2be 73c4 123c
000000c0: dcbc 613e 5880 20be 3dcf a5be eaa5 d03e
000000d0: dff9 8a3e af9f 96be 2bb0 933e 3c89 adbe
000000e0: 9033 65be 9938 e43d 97d9 e83d 13a6 a13d
000000f0: 27c0 d53d c38a 9abe a6de 6abe 056f d63e
00000100: c203 bf3e a55a 363e 091f 463d 4aa8 3abe
00000110: b461 cb3e 7a4b 6f3e f273 873e 2124 77be
00000120: b005 993e 3332 69bd 3140 aa3e 965f 0abe
00000130: 545c a33e ea7d 7cbc a981 b73e e5a7 ec3d
00000140: 965f 0f3e 005b 9cbe 4b0c a33e 1c19 21be
00000150: 4b2e b2be 0967 093d a033 8d3e 37d2 c7be
00000160: f843 a3be c2ac 8abe 1545 263e aeab 913d
00000170: aac1 8b3e badb f2bc d035 853e 7708 9c3d
00000180: 59bd 743e 1f3d ab3e de0b ba3c 119a 953c

h.2.weight f4 [100, 100]
0.071263775 0.13772091 0.16202939 0.019445175 0.18398891 -0.100662984 -0.074819036 -0.14083174
-0.09463692 0.040913958 -0.016879177 0.3730849 -0.16877082 0.047432147 0.24368043 -0.02021799
0.036988344 0.052762866 0.06223596 0.3934807 0.030347062 0.078752436 -0.007175088 0.00035005176
-0.075624995 0.045368847 0.06449651 -0.042624213 -0.05218954 -0.09562922 0.059970766 0.04716003
-0.4146989 0.063855946 -0.0526974 -0.06744037 -0.06253996 -0.033911813 0.01367029 -0.021525968
0.031626523 0.36829054 0.03360925 -0.25798255 0.29281515 -0.03440521 0.04618553 0.10032592
-0.081345856 -0.0061258436 -0.055516176 0.044376157 -0.034812205 -0.019820785 -0.10267336 0.0024060966
-0.05941626 -0.067913726 -0.31421527 -0.04952481 -0.09037437 -0.021333275 0.07333123 0.18192823
0.06685184 0.06232721 0.034737147 0.048318267 -0.04993172 -0.19277304 0.004243344 0.029584408
0.0021971297 -0.046926226 0.064126335 -0.0950132 -0.044555314 0.78363025 0.017266225 -0.05775888
0.12128881 -0.0257877 -0.17307724 -0.2436491 0.0765807 -0.34105292 0.0068024388 0.026034845
-0.038687944 -0.07123744 -0.13806435 -0.045705143 -0.044080786 0.06979467 -0.08709055 0.049318507
0.04535591 0.004363733 0.11129482 0.2506349 -0.056572568 -0.050365653 0.0068643214 -0.005659318
0.03484751 0.08666587 -0.014725066 -0.03205129 -0.02669475 -0.068785764 0.030373657 0.04569322
-0.093143724 -0.017540276 0.056595016 0.029331421 -0.04649576 0.04646113 0.081945315 -0.08404165
0.02402593 -0.03879973 -0.09340143 0.010890186 -0.04606488 0.052615214 0.057163205 0.05060592
-0.0007684589 -0.090252556 -0.079293065 0.04143889 -0.07822063 -0.05670414 -0.03399179 -0.024747467
0.06606803 -0.00919807 0.039205577 0.09536032 0.0097925905 0.0022654056 0.05417931 0.05845816
0.09512935 -0.07528295 0.041541517 0.00023061037 0.035921108 -0.099283114 0.04104949 0.039444424
-0.027645875 -0.097833276 0.09039656 0.020928157 0.034687784 -0.0663138 -0.0886688 0.059483863
-0.04791088 -0.08928551 -0.0880598 0.047639012 0.049201455 0.071957804 0.04333948 -0.044603623
0.0063282372 -0.03445022 -0.07070502 -0.042143334 -0.016581237 -0.012778401 -0.019463433 -0.08494762
-0.037723947 -0.051974263 -0.030332804 -0.06748624 -0.04353223 0.06571589 -0.09742588 -0.06207917
-0.0006495118 -0.06011213 -0.023228502 -0.08123465 -0.040318348 0.019169962 -0.0037409067 -0.09354979
-0.0010427833 0.060904086 -0.09793805 -0.038251985 -0.08783908 0.017216861 0.0560287 -0.030603683
0.20146222 0.06159926 0.060033098 0.15037479 0.10922211 0.09788876 -0.08803061 -0.0037672808
0.043106165 0.13227208 0.049180605 0.24406856 -0.35625157 0.16852206 0.20453627 0.07831651
0.08447341 -0.1128855 0.24750754 0.5113345 -0.09066764 -0.070534125 -0.036447097 0.08299568
-0.029007543 0.03158665 0.09333225 0.04753686 -0.008262551 -0.13392267 0.23317865 -0.041151594
-0.5201067 0.034761906 -0.046496905 0.0533862 0.025263011 0.035709895 -0.0175125 -0.061965525
-0.08801341 0.306448 -0.013385916 -0.24768683 0.19732869 -0.03594217 -0.0134938955 0.13123272
0.12610385 0.092350565 -0.16607377 0.055859216 -0.2709249 -0.082198456 0.018843235 -0.059875857
00000000: bef2 913d b606 0d3e 08eb 253e 7d4b 9f3c
00000010: 9767 3c3e 6528 cebd b93a 99bd 3236 10be
00000020: 00d1 c1bd 6595 273d 3346 8abc fc04 bf3e
00000030: 42d2 2cbe 3648 423d 5d87 793e 33a0 a5bc
00000040: 1781 173d e01d 583d 22eb 7e3d 4d76 c93e
00000050: 679a f83c f548 a13d 001d ebbb 2787 b739
00000060: 47e1 9abd afd4 393d bf16 843d ba96 2ebd
00000070: b3c4 55bd 41d9 c3bd e8a3 753d e02a 413d
00000080: 6a53 d4be e8c6 823d 3bd9 57bd 2d1e 8abd
00000090: f314 80bd 1de7 0abd 5af9 5f3c 3a57 b0bc
000000a0: d08a 013d 9490 bc3e daa9 093d 4a16 84be
000000b0: deeb 953e 7aec 0cbd 0a2d 3d3d ad77 cd3d
000000c0: a898 a6bd 4dbb c8bb ee64 63bd c6c3 353d
000000d0: 3e97 0ebd 335f a2bc 6946 d2bd 9aaf 1d3b
000000e0: 775e 73bd 5a16 8bbd d3e0 a0be 87da 4abd
000000f0: 3316 b9bd 1fc3 aebc af2e 963d 654b 3a3e
00000100: 9ee9 883d d14a 7f3d 8a48 0e3d 60e9 453d
00000110: 3485 4cbd 4c66 45be c00b 8b3b 005b f23c
00000120: b8fd 0f3b b735 40bd ab54 833d 4896 c2bd
00000130: a27f 36bd fe9b 483f e671 8d3c 9394 6cbd
00000140: 4566 f83d ba40 d3bc 293b 31be 267f 79be
00000150: 58d6 9c3d 7d9e aebe fee6 de3b 0747 d53c
00000160: 4077 1ebd efe4 91bd be60 0dbe 5135 3bbd
00000170: 0e8e 34bd 82f0 8e3d 885c b2bd 3402 4a3d
00000180: 1ec7 393d a5fd 8e3b 8aee e33d 3853 803e
00000190: a3b8 67bd 374c 4ebd 1aee e03b cd71 b9bb
000001a0: 43bc 0e3d e07d b13d 6741 71bc 3748 03bd
000001b0: f3ae dabc 8ddf 8cbd 2dd2 f83c d028 3b3d
000001c0: 23c2 bebd a0b0 8fbc 2dd0 673d 7348 f03c
000001d0: 5772 3ebd 074e 3e3d f2d2 a73d 071e acbd
000001e0: 07d2 c43c 77ec 1ebd 4049 bfbd c06c 323c
000001f0: 87ae 3cbd 0d83 573d f723 6a3d 2748 4f3d
00000200: 6772 49ba 55d6 b8bd 6764 a2bd d3bb 293d
00000210: 2332 a0bd 9a42 68bd fa3a 0bbd 33bb cabc
00000220: ad4e 873d 80b3 16bc 0796 203d 454c c33d
00000230: 1a71 203c 3377 143b 20eb 5d3d d371 6f3d
00000240: 2dd3 c23d f32d 9abd 7027 2a3d 00d0 7139
00000250: 0322 133d f254 cbbd 8323 283d 7a90 213d
00000260: 9a79 e2bc d05c c8bd d521 b93d 8771 ab3c
00000270: c714 0e3d 88cf 87bd fd97 b5bd 5aa5 733d
00000280: 333e 44bd 52db b6bd b258 b4bd 2021 433d
00000290: 7787 493d 9d5e 933d bd84 313d 4ab2 36bd
000002a0: 1a5d cf3b ad1b 0dbd cbcd 90bd 7d9e 2cbd
000002b0: 60d5 87bc 805c 51bc c771 9fbc 05f9 adbd
000002c0: 6d84 1abd f7e2 54bd 807c f8bc 3a36 8abd
000002d0: da4e 32bd 0d96 863d 3887 c7bd ba46 7ebd
000002e0: 0044 2aba 2338 76bd b349 bebc 5a5e a6bd
000002f0: da24 25bd 530a 9d3c 002a 75bb 0897 bfbd
00000300: 00ae 88ba 9076 793d bf93 c8bd 1dae 1cbd
00000310: fae4 b3bd 600a 8d3c 5a7e 653d 93b4 fabc
00000320: 1d4c 4e3e 814f 7c3d 44e5 753d d9fb 193e
00000330: d7af df3d e779 c83d 6449 b4bd 7ce4 76bb
00000340: 1790 303d 5572 073e 9a71 493d 1ced 793e
00000350: 9b66 b6be 0c91 2c3e f571 513e 6864 a03d
00000360: 6500 ad3d 8330 e7bd 9e72 7d3e d1e6 023f
00000370: f5af b9bd 3274 90bd 8d49 15bd a4f9 a93d
00000380: 3aa1 edbc 0161 013d fb24 bf3d 03b6 423d
00000390: a75f 07bc 0623 09be 62c6 6e3e 938e 28bd
000003a0: b625 05bf 8062 0e3d 8a73 3ebd 7dab 5a3d
000003b0: 60f4 ce3c 8a44 123d 6076 8fbc 90cf 7dbd
000003c0: 6040 b4bd c1e6 9c3e 9a50 5bbc 9ea1 7dbe
000003d0: 8810 4a3e 1938 13bd 8015 5dbc df61 063e
000003e0: 5e21 013e 4b22 bd3d 3e0f 2abe a2cc 643d
000003f0: abb6 8abe aa57 a8bd 215d 9a3c 6340 75bd

h.2.bias f4 [100]
0.04333927 0.035864558 -0.02519026 -0.026811684 -0.09806635 -0.049914468 0.020043924 -0.07717196
-0.078930564 -0.055888694 -0.078606844 -0.040431608 0.041119408 -0.023357598 0.071416266 -0.09823014
0.028477702 -0.0633022 -0.06414781 -0.028563848 -0.15551105 0.06427028 -0.096607424 -0.08030184
-0.097861245 -0.03863543 -0.05506165 0.01687499 -0.06776405 0.09891085 0.04836362 0.07465997
0.0073902453 0.01651297 -0.06962477 -0.00020409822 -0.084106386 0.048266828 -0.13049425 0.17296405
-0.17429367 -0.026396215 0.032048054 -0.07967726 0.082205 -0.092207134 -0.0037396092 0.040258177
0.0632281 -0.0741531 -0.055026587 -0.05640484 -0.08279965 -0.029365003 -0.00086740847 -0.08643935
-0.011498171 -0.0056489552 0.02216989 0.09669608 0.07863331 -0.060189974 0.013022227 0.14615393
-0.07838651 -0.037734907 0.07432206 -0.045489836 0.048931323 0.037104942 -0.025495833 -0.057816923
0.03157115 -0.025510479 -0.032323774 -0.13503681 0.014727787 -0.07802885 -0.05904036 0.062484797
-0.082365945 0.07943733 -0.052116454 -0.03575389 -0.065483205 -0.100663684 -0.05051249 -0.030878572
-0.022578724 -0.08282031 -0.056608573 -0.087899685 -0.08457965 0.0010958076 0.07769496 -0.0805723
-0.07128338 0.045496494 -0.053713247 0.0063257376
00000000: 8584 313d b7e6 123d ce5b cebc 2da4 dbbc
00000010: 03d7 c8bd 1d73 4cbd 2833 a43c 550c 9ebd
00000020: 59a6 a1bd 8beb 64bd a0fc a0bd 9d9b 25bd
00000030: d36c 283d 6f58 bfbc b142 923d e22c c9bd
00000040: 124a e93c 95a4 81bd ed5f 83bd bbfe e9bc
00000050: 4a3e 1fbe 23a0 833d 1dda c5bd 4b75 a4bd
00000060: 7a6b c8bd 2f40 1ebd 5388 61bd 6b3d 8a3c
00000070: e1c7 8abd c691 ca3d ee18 463d 54e7 983d
00000080: df29 f23b 3546 873c 6e97 8ebd 3303 56b9
00000090: f83f acbd 70b3 453d 49a0 05be 7d1d 313e
000000a0: 0a7a 32be e03c d8bc d244 033d d52d a3bd
000000b0: 185b a83d 18d7 bcbd 3b14 75bb c2e5 243d
000000c0: bc7d 813d 95dd 97bd 8f63 61bd c308 67bd
000000d0: dd92 a9bd e08e f0bc cc62 63ba 1d07 b1bd
000000e0: d362 3cbc df1a b9bb a19d b53c 9808 c63d
000000f0: 800a a13d c389 76bd 2e5b 553c 60a9 153e
00000100: 1b89 a0bd eb8f 1abd 2a36 983d 8d53 3abd
00000110: 366c 483d 5afb 173d a3dc d0bc 70d1 6cbd
00000120: c050 013d 5afb d0bc ef65 04bd 1747 0abe
00000130: d14c 713c 97cd 9fbd 4ed4 71bd 0ff0 7f3d
00000140: 7aaf a8bd 0ab0 a23d 1078 55bd ac72 12bd
00000150: 0f1c 86bd c328 cebd 2fe6 4ebd 0ff5 fcbc
00000160: 04f7 b8bc b29d a9bd 64de 67bd c004 b4bd
00000170: 1838 adbd 34a1 8f3a 891e 9f3d 1703 a5bd
00000180: 05fd 91bd 885a 3a3d 6c02 5cbd 2248 cf3b

h.4.weight f4 [1, 100]
0.37513456 0.034762528 0.42660132 -0.19042914 -0.04955262 0.08050533 -1.1067309 0.040546574
0.027814196 0.27892628 -0.56718814 -0.086189866 -0.06988746 -0.037710555 -0.09095735 0.51845217
-0.82505983 -0.008198857 0.3713411 -0.8423376 0.43887958 0.071352206 -0.038051475 0.44817913
0.05436368 0.29966944 -0.08899559 0.28620157 -0.05420611 -0.9490157 0.3522027 -0.035616748
0.4223969 0.32957527 0.39536905 -0.017109383 0.49444824 -0.022736907 0.4600733 -0.55465126
0.50260586 0.05784103 0.21581666 0.3693952 0.07074638 -0.022491897 0.095353484 -0.5618283
-0.67676383 -0.00679183 0.3140855 0.094339125 -0.09614926 0.0638562 0.30257487 -0.026466573
-1.0301136 0.20451616 -0.4919271 -0.803685 -0.084735595 0.32167011 -0.085367404 -0.4780005
0.5080286 -0.025589732 -0.8870507 -0.94202936 0.30412412 -0.09839382 -0.015803313 -0.039749704
-0.004625249 0.4264263 0.09157751 0.41456467 -0.98819107 0.0750465 0.4061161 -0.05831422
-0.051919688 -0.6445846 -0.07783444 0.4859374 0.4147958 0.04198656 -0.30052105 -0.85467184
-0.8829008 0.034835875 0.37895554 0.4251506 0.07831883 0.2657495 -0.8169029 0.08542483
0.03564992 0.22728546 -0.008462995 0.17397024
00000000: a311 c03e 2763 0e3d 7d6b da3e dbff 42be
00000010: b0f7 4abd fadf a43d 5ca9 8dbf 2a14 263d
00000020: 99da e33c 6dcf 8e3e 3e33 11bf 5084 b0bd
00000030: 2821 8fbd 6276 1abd d947 babd 48b9 043f
00000040: 1f37 53bf 8054 06bc 6c20 be3e 70a3 57bf
00000050: d3b4 e03e 1b21 923d dddb 1bbd bc77 e53e
00000060: 73ac 5e3d 466e 993e 5243 b6bd 0389 923e
00000070: 3a07 5ebd b1f2 72bf ea53 b43e dee2 11bd
00000080: 6844 d83e 17be a83e d06d ca3e fa28 8cbc
00000090: 5228 fd3e c042 babc ba8e eb3e a0fd 0dbf
000000a0: c7aa 003f b7ea 6c3d 0bff 5c3e 5e21 bd3e
000000b0: 7ae3 903d ed40 b8bc b048 c33d fbd3 0fbf
000000c0: 6540 2dbf 008e debb d1cf a03e df34 c13d
000000d0: e7e9 c4bd 0ac7 823d 18eb 9a3e 6dd0 d8bc
000000e0: c3da 83bf af6c 513e dedd fbbe 4dbe 4dbf
000000f0: db89 adbd f2b1 a43e 1bd5 aebd 7bbc f4be
00000100: 2a0e 023f 8fa1 d1bc c115 63bf d628 71bf
00000110: 28b6 9b3e b382 c9bd f375 81bc 96d0 22bd
00000120: 678f 97bb 8c54 da3e fd8c bb3d d241 d43e
00000130: 17fa 7cbf fbb1 993d 73ee cf3e e4da 6ebd
00000140: bda9 54bd 7f03 25bf aa67 9fbd c9cc f83e
00000150: 1d60 d43e 19fa 2b3d e5dd 99be c6cb 5abf
00000160: c905 62bf 10b0 0e3d 7606 c23e 57ad d93e
00000170: 9f65 a03d 5210 883e 8c20 51bf 37f3 ae3d
00000180: a705 123d 85bd 683e 60a8 0abc 4125 323e
