logs/PointMaze-Right/airl_sac/seed0-20231226-1522/model/step1320000/actor.pth (torch, 276359 bytes, 6 tensors)

net.0.weight f4 [256, 6]
-0.0030564817 0.21900219 -0.3360068 -0.30044585 -0.15723862 0.109474786 -0.5895831 0.30344447
-0.036229607 -0.103750296 -0.31332946 -0.080247484 -1.4807222 -0.6094206 -0.16828938 0.4839147
0.19322637 0.24495828 -1.4509659 -0.02455529 0.14828277 1.2046854 0.05017725 0.30549702
-2.09759 0.08078926 0.36965913 -1.278696 -0.3673184 -0.10335428 -0.15913516 0.35272685
-0.26461825 -0.1879301 -0.28521878 -0.38234943 -0.5961861 0.2127745 0.18216789 0.045189008
-0.20393215 -0.20930217 -0.52102226 -0.9222959 -0.29498646 -0.6181782 0.25963393 0.23936465
-0.73136085 0.3118392 0.26109958 1.2232932 -0.084622614 0.05515143 0.18026625 -0.69181025
0.07607463 -3.3125434 -0.3879197 -0.21089436 1.193 -0.6056141 -0.2418269 -0.11367897
0.1587866 -0.051528025 0.015587551 0.094593056 0.25326768 0.3919976 -0.31460577 -0.14961065
-0.35316533 0.4926572 0.35526067 0.22794218 -0.067048706 -0.35500565 -0.4387049 -1.2179755
-0.3804687 0.5977532 0.04755169 -0.4072391 0.07641268 -0.068773516 -0.06718181 -0.18687847
0.1569944 -0.24180691 0.437397 0.41578513 0.29225335 0.76201797 -0.74610573 -0.2648294
-0.26874983 -0.49046397 -0.31846797 -0.94175035 0.18516457 0.275085 -0.17800653 -0.102749884
-0.38889655 -0.0073379115 -0.30743504 -0.31490508 -0.022494322 0.061296463 -0.16719005 0.24224539
-0.24843507 0.3704323 0.8387781 -1.5146534 -0.1016066 -0.47721854 -0.09031352 0.096825995
0.16020818 0.024454141 -0.19919609 0.19317861 -0.39161173 -0.2419715 -0.10219674 -0.19886321
-0.14281888 -0.33460915 -0.0868406 0.08726571 -0.2659598 -0.020951042 0.29224488 -0.04196803
0.011346125 -0.035219133 -0.8672815 0.42863566 0.38671166 0.2331835 0.22238621 -0.029525192
-1.2450768 -0.90881866 0.2779784 -0.44345486 0.14753355 -0.31284547 -0.7305556 -1.2311201
-0.08280776 0.42522773 0.3244899 -0.3937277 0.25465795 -0.31945816 -0.08630789 -0.16553351
-0.07863486 -0.08015658 -0.3663416 -0.35249704 -0.063882485 0.005279541 -0.18545696 0.15378681
-1.9177619 -0.14355488 0.35902148 0.008534329 0.36665738 0.14784867 -1.3854194 0.31775042
-0.047109596 -0.6171202 0.20612201 -0.3299035 -0.79593784 -0.5251883 0.2915353 0.85450184
0.20849049 0.14417654 -0.09817339 -0.08585685 -0.33642983 0.22120695 0.32414022 0.27933362
-0.2879695 0.01820783 -0.28778815 -0.22473423 -0.23788853 0.13951683 -1.10196 0.56862384
0.01717424 1.0480818 -0.5336807 -0.28026745 -0.22524534 0.27101302 -0.14675097 0.3300813
0.13334082 0.051694855 -0.00303901 -0.080703154 0.051221423 -0.09322133 -0.0028685296 0.052089643
-1.3751794 -1.1220914 0.32965755 -0.0041192495 0.13370088 0.40385503 0.14747441 0.011558751
-0.35379204 0.20223719 -0.2907874 -0.115887105 -0.13196898 -0.05470812 0.004465537 0.33014438
0.04438234 0.36566508 0.24973057 -0.25810027 0.18310103 -0.28858912 -0.17302589 0.12007509
-0.16516635 0.22444177 -0.13142161 -0.22458431 -0.06584564 -0.39481375 0.2951556 -0.33758968
0.0056266827 -0.06940906 -0.21501334 0.053958602 0.33414623 -0.11571441 -0.24237461 -0.15098608
00000000: 414f 48bb 1c42 603e 1509 acbe 0ad4 99be
00000010: 2903 21be 5134 e03d ebee 16bf 135d 9b3e
00000020: 7f65 14bd 097b d4bd b86c a0be cb58 a4bd
00000030: 4e88 bdbf fd02 1cbf 0d54 2cbe abc3 f73e
00000040: 22dd 453e 58d6 7a3e 40b9 b9bf 2d28 c9bc
00000050: 70d7 173e 2233 9a3f a986 4d3d 1b6a 9c3e
00000060: ea3e 06c0 d774 a53d f643 bd3e 4fac a3bf
00000070: 2811 bcbe 69ab d3bd 54f4 22be 9d98 b43e
00000080: 0b7c 87be c070 40be 3208 92be 4ec3 c3be
00000090: a79f 18bf 8fe1 593e 388a 3a3e 1c18 393d
000000a0: 97d3 50be 4f53 56be b761 05bf 961b 6cbf
000000b0: 7708 97be ed40 1ebf bdee 843e 021c 753e
000000c0: 773a 3bbf 63a9 9f3e d8ae 853e df94 9c3f
000000d0: 9f4e adbd 77e6 613d b797 383e 7a1a 31bf
000000e0: 04cd 9b3d b600 54c0 699d c6be b1f4 57be
000000f0: 39b4 983f 8709 1bbf 79a1 77be 85d0 e8bd
00000100: f498 223e 0d0f 53bd ed62 7f3c 01ba c13d
00000110: 4dac 813e e9b3 c83e 0214 a1be 8933 19be
00000120: 16d2 b4be 913d fc3e bae4 b53e ad69 693e
00000130: d550 89bd 4dc3 b5be ee9d e0be 9fe6 9bbf
00000140: cbcc c2be 5b06 193f 90c5 423d a581 d0be
00000150: 407e 9c3d 21d9 8cbd 9e96 89bd 125d 3fbe
00000160: 24c3 203e 3b9c 77be 80f2 df3e cae1 d43e
00000170: 3ba2 953e 9c13 433f c900 3fbf b897 87be
00000180: 9499 89be 181e fbbe 3c0e a3be 8d16 71bf
00000190: c89b 3d3e f1d7 8c3e 5847 36be 886e d2bd
000001a0: 731d c7be dd72 f0bb 2068 9dbe 3d3b a1be
000001b0: 0346 b8bc 0012 7b3d de33 2bbe 2d0f 783e
000001c0: c365 7ebe 4da9 bd3e 29ba 563f 2ae0 c1bf
000001d0: 1f17 d0bd fd55 f4be 4bf6 b8bd b54c c63d
000001e0: 9d0d 243e 0d54 c83c 0ffa 4bbe 9dd0 453e
000001f0: 5581 c8be 60c7 77be 864c d1bd cca2 4bbe
00000200: 1d3f 12be e451 abbe 7cd9 b1bd 5db8 b23d
00000210: e22b 88be 85a1 abbc 1fa1 953e abe6 2bbd
00000220: 19e5 393c f041 10bd 2906 5ebf 2276 db3e
00000230: 12ff c53e a8c7 6e3e 36b9 633e d1de f1bc
00000240: ad5e 9fbf 57a8 68bf 2f53 8e3e 840c e3be
00000250: 0913 173e 482d a0be b105 3bbf 5895 9dbf
00000260: 1d97 a9bd 73b7 d93e 8a23 a63e ad96 c9be
00000270: 8762 823e 0590 a3be 31c2 b0bd 9e81 29be
00000280: 500b a1bd 2229 a4bd 2091 bbbe 7e7a b4be
00000290: d2d4 82bd 0000 ad3b 6ee8 3dbe 4a7a 1d3e
000002a0: 3979 f5bf 0d00 13be aad1 b73e 92d3 0b3c
000002b0: 84ba bb3e a465 173e 6c55 b1bf 2fb0 a23e
000002c0: fef5 40bd 97fb 1dbf a611 533e 1de9 a8be
000002d0: 95c2 4bbf be72 06bf 1d44 953e a2c0 5a3f
000002e0: 887e 553e 04a3 133e 210f c9bd b7d5 afbd
000002f0: 8840 acbe 1384 623e b5f5 a53e d104 8f3e
00000300: bd70 93be 9628 953c f858 93be bb20 66be
00000310: 0d99 73be 80dd 0e3e 060d 8dbf 5591 113f
00000320: feb0 8c3c 8b27 863f 4c9f 08bf 377f 8fbe
00000330: b7a6 66be 38c2 8a3e e345 16be 6b00 a93e
00000340: 7f8a 083e fcbd 533d 212a 47bb b247 a5bd
00000350: 8ecd 513d d3ea bebd f1fd 3bbb f35b 553d
00000360: e105 b0bf b1a0 8fbf e0c8 a83e c5fa 86bb
00000370: e2e8 083e 16c6 ce3e 8803 173e ea60 3d3c
00000380: 3b24 b5be 4417 4f3e 16e2 94be 3856 edbd
00000390: e022 07be 9f15 60bd a453 923b af08 a93e
000003a0: 42ca 353d 7438 bb3e 5fb9 7f3e b825 84be
000003b0: d67e 3b3e f4c1 93be b32d 31be eee9 f53d
000003c0: 5e21 29be 10d4 653e 6393 06be 6ef9 65be
000003d0: 14da 86bd 0725 cabe a31e 973e 8ed8 acbe
000003e0: 0960 b83b 5626 8ebd 752c 5cbe b203 5d3d
000003f0: 3715 ab3e adfb ecbd 0d31 78be 189c 1abe

net.0.bias f4 [256]
-0.13574518 -0.0589382 0.21241601 0.11967297 0.27868718 -0.28256205 -0.068875596 0.36974788
-0.3176247 0.21915047 -0.05860073 -0.30571464 -0.37226763 -0.11090895 -0.17666902 -0.24385336
0.20292504 0.13867396 -0.03820787 -0.047830336 -0.2352097 -0.3430319 -0.3068801 -0.50777066
0.43425775 0.18329176 -0.17349246 -0.39932832 0.21916726 -0.35218653 -0.055834804 -0.34230882
-0.23031662 -0.054761894 -0.3948209 -0.23279938 0.4690825 -0.20936963 -0.17648119 -0.11462541
-0.10152071 -0.26779848 0.037417583 0.016791174 0.08678431 0.32423055 -0.31143123 0.02250341
0.019571554 0.13150942 -0.3375684 0.0344064 0.01850697 -0.071405865 -0.123419374 0.08994999
-0.5807153 -0.36898422 0.037260294 -0.27624813 -0.325012 -0.040264983 0.3190644 -0.34647655
-0.35910505 0.61617106 -0.18163079 -0.25464642 -0.19457631 -0.043177452 -0.16390494 0.014508944
-0.25651652 0.27702358 -0.28086585 -0.22369224 -0.1555785 -0.07631517 -0.3301284 0.18268892
0.31290156 -0.2610554 -0.31712735 -0.50500286 -0.052403867 -0.35281014 -0.28875205 0.40124565
0.1362933 0.2150151 0.319303 0.026485894 -0.051716916 0.18695529 -0.2793072 -0.12602422
0.39998317 -0.117373765 -0.26564166 -0.58780485 0.1845271 0.42499748 0.13553907 -0.16868046
0.37882513 -0.37482634 -0.29412776 -0.39282894 0.3793739 -0.020085001 -0.18798395 0.06342304
-0.17097443 -0.26182768 -0.06040432 0.03595378 -0.29235414 -0.26889762 0.07401286 0.021436885
0.3154875 -0.205057 0.0026564961 0.22239797 -0.35741296 -0.26456326 -0.07649932 0.029256152
-0.1311554 0.1876562 -0.2528334 0.49801797 -0.028293941 0.16499369 -0.10978263 0.33081895
-0.42857262 0.088308625 0.023662852 -0.09214744 0.18542457 -0.27702746 -0.36459416 -0.24164471
-0.37888905 0.37031704 -0.3003363 -0.5027495 -0.30232656 -0.27508116 -0.519453 0.29859567
-0.30651104 0.18177873 0.3041802 -0.27590263 0.30031982 -0.2286838 0.4407875 0.088553384
0.09701478 0.10856351 -0.4948935 -0.13418072 0.09674894 -0.35484406 0.32429773 -0.15558934
-0.14765628 -0.32391006 -0.009598453 -0.43048283 -0.086632594 -0.13569883 0.030850979 -0.015676944
-0.23408191 -0.1744289 -0.031492427 -0.16762055 0.34097397 -0.113176234 0.0028727872 -0.32897002
0.19863741 -0.18757139 -0.10928178 0.0024435208 -0.13159764 0.1732031 -0.000856475 -0.24392231
0.08598086 -0.3281109 0.26810494 0.0048687495 0.2644232 0.4741108 0.094383545 -0.025890274
-0.2256556 -0.17058846 0.25468546 0.05877313 -0.5577842 -0.069951616 -0.006058067 -0.018147532
-0.3361103 -0.21811397 0.03652021 -0.3904452 -0.37975538 -0.3661843 -0.23216124 -0.09875254
0.22919787 -0.39881355 -0.054708976 -0.3522946 -0.21839999 -0.071789406 -0.31072587 -0.001508374
-0.20246588 -0.2465189 -0.23038039 -0.4208446 0.065445416 -0.20042385 -0.009549164 0.2506114
-0.117790565 -0.20779793 -0.24511354 -0.43424872 -0.078890815 -0.056855533 0.17399916 0.5165316
-0.22399834 -0.16406885 0.32658857 0.10287857 0.2718383 -0.12414138 0.08392719 -0.49678737
-0.0499582 -0.31769648 -0.10730633 -0.3412126 -0.39246672 0.30587053 -0.14887755 0.15844281
00000000: c900 0bbe 2f69 71bd 9583 593e 1a17 f53d
00000010: 16b0 8e3e f9ab 90be a60e 8dbd 984f bd3e
00000020: b49f a2be fb68 603e 5207 70bd a186 9cbe
00000030: dd99 bebe 3b24 e3bd b9e8 34be b2b4 79be
00000040: 95cb 4f3e 8c00 0e3e db7f 1cbd bee9 43bd
00000050: d0da 70be e1a1 afbe 631f 9dbe 42fd 01bf
00000060: 0857 de3e d6b0 3b3e 02a8 31be c374 ccbe
00000070: 626d 603e cb51 b4be 09b3 64bd 1a43 afbe
00000080: 1fd8 6bbe 024e 60bd f725 cabe f662 6ebe
00000090: 952b f03e fe64 56be 7cb7 34be bac0 eabd
000000a0: 17ea cfbd e21c 89be 2e43 193d a58d 893c
000000b0: f9bb b13d 8c01 a63e ea73 9fbe 1259 b83c
000000c0: 8654 a03c 68aa 063e c4d5 acbe baed 0c3d
000000d0: ee9b 973c 3d3d 92bd 4cc3 fcbd b337 b83d
000000e0: c2a9 14bf 80eb bcbe 409e 183d 6570 8dbe
000000f0: f967 a6be e5ec 24bd 695c a33e 6065 b1be
00000100: 9edc b7be 63bd 1d3f 6cfd 39be 0461 82be
00000110: 033f 47be d7da 30bd b2d6 27be ecb6 6d3c
00000120: 2256 83be 09d6 8d3e a6cd 8fbe 940f 65be
00000130: f84f 1fbe 214b 9cbd 9706 a9be ce12 3b3e
00000140: a234 a03e 0ea9 85be 845e a2be de47 01bf
00000150: 70a5 56bd 88a3 b4be 4fd7 93be 1270 cd3e
00000160: 7990 0b3e eb2c 5c3e af7b a33e f2f8 d83c
00000170: 1ed5 53bd 3571 3f3e 5a01 8fbe 7e0c 01be
00000180: 98ca cc3e a861 f0bd 2f02 88be 617a 16bf
00000190: acf4 3c3e 4599 d93e c1ca 0a3e 92ba 2cbe
000001a0: 5ef5 c13e 3de9 bfbe ea97 96be e020 c9be
000001b0: 4c3d c23e 4d89 a4bc dd7e 40be f0e3 813d
000001c0: ec13 2fbe 470e 86be 856a 77bd 4544 133d
000001d0: 71af 95be f3ac 89be 0e94 973d 689c af3c
000001e0: 9487 a13e 76fa 51be 9c18 2e3b 4bbc 633e
000001f0: d5fe b6be d674 87be adab 9cbd 99aa ef3c
00000200: 9a4d 06be f228 403e 6173 81be 36fc fe3e
00000210: b2c8 e7bc 1bf4 283e b7d5 e0bd 1a61 a93e
00000220: df6d dbbe 27db b43d 99d8 c13c ccb7 bcbd
00000230: f0df 3d3e 8bd6 8dbe 16ac babe b671 77be
00000240: bffd c1be 329a bd3e aec5 99be 31b4 00bf
00000250: 8cca 9abe 70d7 8cbe dffa 04bf 88e1 983e
00000260: 04ef 9cbe 3424 3a3e 82bd 9b3e 1c43 8dbe
00000270: 85c3 993e 162c 6abe e6ae e13e 7a5b b53d
00000280: afaf c63d 8c56 de3d ae62 fdbe ac66 09be
00000290: 4f24 c63d 1fae b5be 5a0a a63e d052 1fbe
000002a0: 3533 17be 8ad7 a5be d442 1dbc 3f68 dcbe
000002b0: 6e6c b1bd a2f4 0abe 31bb fc3c ef6c 80bc
000002c0: 2bb3 6fbe 7d9d 32be 34fe 00bd b9a4 2bbe
000002d0: 2494 ae3e f1c8 e7bd 5f45 3c3b c26e a8be
000002e0: 9b67 4b3e b712 40be 20cf dfbd 7a23 203b
000002f0: 88c1 06be 275c 313e 1085 60ba c5c6 79be
00000300: bc16 b03d 27fe a7be 0d45 893e 088a 9f3b
00000310: 7a62 873e a7be f23e 294c c13d d717 d4bc
00000320: 4312 67be beae 2ebe 2266 823e 18bc 703d
00000330: f2ca 0ebf cb42 8fbd c082 c6bb 22aa 94bc
00000340: a616 acbe 4559 5fbe 3796 153d 6fe8 c7be
00000350: 4c6f c2be 827c bbbe adbb 6dbe c63e cabd
00000360: d9b2 6a3e 4a31 ccbe 8516 60bd f55f b4be
00000370: 3fa4 5fbe 5306 93bd 7617 9fbe a2b4 c5ba
00000380: 3753 4fbe 736f 7cbe d6e8 6bbe f278 d7be
00000390: 3f08 863d e93b 4dbe 1974 1cbc 2350 803e
000003a0: 2e3c f1bd fbc8 54be 0bff 7abe d955 debe
000003b0: 8291 a1bd 59e1 68bd d62c 323e 6a3b 043f
000003c0: d25f 65be aa01 28be 9e36 a73e 00b2 d23d
000003d0: 642e 8b3e d63d febd 05e2 ab3d ea5a febe
000003e0: f8a0 4cbd 1da9 a2be 6cc3 dbbd 6bb3 aebe
000003f0: 66f1 c8be 109b 9c3e 5b73 18be d53e 223e

net.2.weight f4 [256, 256]
0.049733177 0.016642675 -0.12574933 0.12765357 0.32154727 0.030054234 0.05269859 0.22322501
0.4871218 -0.69784695 0.88274986 0.014508665 -0.06642056 -0.70166403 -0.0372381 -0.44225544
0.6283795 0.04933195 -0.044013664 -0.37262398 0.031345643 0.04419215 0.01565963 0.017837353
-0.09817071 -0.6369973 0.021251105 -0.048870876 0.1530022 0.0011258506 -0.17343515 -0.022081323
-0.06195861 -0.40053055 0.023927562 0.053816907 -1.2548455 0.029839657 -0.059304617 -0.059768863
-0.039140284 -0.008255206 0.017455868 0.013940154 -0.7032585 -0.71078235 0.0038453937 0.12333105
-0.14497049 0.14917262 -0.008065313 -0.032777466 0.19361955 -0.050046094 0.50789267 -5.955403e-05
-0.48186165 -0.59150106 -0.01333526 -0.16295475 0.030853093 -0.0034621954 0.20039189 0.43462074
0.04543462 -0.3262975 -0.37034342 0.11037948 -0.036845718 0.058949135 0.1164041 0.059704237
-0.029195055 -0.59832126 0.6393501 -0.30043095 0.031351693 0.5185488 0.05321809 0.051254667
0.068607725 0.41840965 0.0174167 -0.25256756 0.3963214 -0.047453113 -0.018335573 0.31709167
0.614759 0.1768845 0.71310705 -0.19052298 -0.28011814 -0.2138673 -0.01436562 -2.671104
0.13619022 -0.20996279 0.009379312 -0.429989 -0.07441223 -0.16912909 -0.123825386 0.47670174
-1.017003 -0.013293482 0.023880534 0.031452186 1.1057951 -0.23020668 -0.025301747 -0.043774027
0.0079542175 -0.031924397 -0.00559102 -0.8436031 -0.0590508 0.042370163 -0.012526251 -0.17775816
0.20120029 -0.033629626 0.12767509 -0.15356222 0.002893284 0.017981477 0.08377562 0.10875212
-0.019176424 -0.1281289 -0.004891053 -0.48122862 -0.11445051 -1.2265005 -0.33401263 0.3409443
-0.001188831 -0.46076208 -0.349233 -0.054639637 -0.06208215 0.0093649905 0.041984536 0.3960097
0.026345104 0.25742444 0.40529332 -0.13304716 -0.033452157 0.0010745451 -0.299904 -1.3597536
-0.009350881 -1.2051947 0.5787981 -0.5190376 -0.008393655 -0.039872296 0.2554872 0.82716906
0.054562405 -0.437474 -2.1236835 0.005924112 -0.59574413 -0.01770673 0.55349576 0.042273097
0.057510227 -0.0026338324 -1.1229513 0.5868377 -0.021375299 -0.78856313 -0.48295593 0.3760584
0.38834667 -0.29206675 -0.078017205 -0.6653411 0.049135964 -0.16864601 -0.048148997 -0.023047611
0.55673516 0.05413259 -0.008285187 -0.031456232 -0.08299034 -1.4927285 0.056819167 0.014340207
0.09993621 -0.009286843 -1.1843377 0.3040285 0.16688389 0.42701924 -0.8048364 -0.20763022
0.026043978 -0.009771794 -1.2886362 0.11668478 -0.24346931 0.48246038 -0.018983386 0.04708997
0.02669456 -0.52592045 -0.14791588 -0.4256531 0.03893812 -0.11255869 -0.92473567 0.029867958
-0.8338602 -4.8777103 0.6461772 0.16794802 -0.04489453 0.020066656 -1.632342 -0.047735706
-0.006264247 -0.53587234 -0.044877566 -0.28308517 -0.01646879 -0.038471818 -0.23405075 -0.4677768
0.14842074 0.0021090582 0.05201608 -0.49495417 0.7666389 0.12253877 -0.051781397 0.03289812
-0.024823755 -0.00068449974 -0.15342736 0.02894639 -0.16866882 0.23578697 0.49257147 0.29141
0.13544309 -0.017768478 0.04349661 0.061308824 0.030411914 -0.68949467 -0.23043992 -0.115973435
00000000: 04b5 4b3d 3856 883c 6fc4 00be 9eb7 023e
00000010: d8a1 a43e 4c34 f63c 7ada 573d 1995 643e
00000020: 0768 f93e 19a6 32bf e5fb 613f c0b5 6d3c
00000030: 8107 88bd 41a0 33bf fa86 18bd 4e6f e2be
00000040: 7bdd 203f 4c10 4a3d ac47 34bd 92c8 bebe
00000050: 4a64 003d d402 353d a048 803c a41f 923c
00000060: ba0d c9bd 4112 23bf cc16 ae3c d42c 48bd
00000070: 9cac 1c3e 4791 933a fc98 31be e4e3 b4bc
00000080: 50c8 7dbd 5712 cdbe bc03 c43c 1e6f 5c3d
00000090: c79e a0bf 4c72 f43c 66e9 72bd 32d0 74bd
000000a0: 9051 20bd d840 07bc 9cff 8e3c 3e65 643c
000000b0: c008 34bf d5f5 35bf 0003 7c3b fd94 fc3d
000000c0: 2573 14be b5c0 183e 6024 04bc aa41 06bd
000000d0: 3444 463e 22fd 4cbd 4105 023f a7c9 79b8
000000e0: 92b6 f6be 9d6c 17bf 227c 5abc 9cdd 26be
000000f0: a0bf fc3c 00e6 62bb 8833 4d3e 9c86 de3e
00000100: a719 3a3d 7710 a7be a79d bdbe a30e e23d
00000110: 89eb 16bd a674 713d 4665 ee3d 6e8c 743d
00000120: 782a efbc 952b 19bf 73ac 233f 16d2 99be
00000130: a26a 003d 9dbf 043f 36fb 593d 6af0 513d
00000140: 3582 8c3d ca39 d63e 78ad 8e3c 8950 81be
00000150: a3ea ca3e 325e 42bd 7c34 96bc d759 a23e
00000160: d960 1d3f 3621 353e 2f8e 363f 7518 43be
00000170: a56b 8fbe 0800 5bbe c75d 6bbc 5ef3 2ac0
00000180: 7375 0b3e 7c00 57be b0ab 193c 8527 dcbe
00000190: 7065 98bd 2d30 2dbe 2a98 fdbd 4012 f43e
000001a0: 282d 82bf e8cc 59bc 1ca1 c33c 02d4 003d
000001b0: b28a 8d3f 4dbb 6bbe 9c45 cfbc 654c 33bd
000001c0: 6852 023c 28c3 02bd e034 b7bb 5ff6 57bf
000001d0: 40df 71bd 568c 2d3d e83a 4dbc 3c06 36be
000001e0: 7307 4e3e 38bf 09bd 42bd 023e 6a3f 1dbe
000001f0: 409d 3d3b e44d 933c 8d92 ab3d 6eb9 de3d
00000200: e017 9dbc 3934 03be 2045 a0bb 9963 f6be
00000210: 0765 eabd f8fd 9cbf b403 abbe 4090 ae3e
00000220: 8dd2 9bba 02e9 ebbe abce b2be d0cd 5fbd
00000230: da49 7ebd 9e6f 193c faf7 2b3d c9c1 ca3e
00000240: b0d1 d73c 23cd 833e 9b82 cf3e 843d 08be
00000250: 2105 09bd c0d7 8c3a 048d 99be 680c aebf
00000260: 7034 19bc d243 9abf 1d2c 143f a6df 04bf
00000270: 8a85 09bc 2251 23bd 38cf 823e 5ac1 533f
00000280: d47c 5f3d 98fc dfbe 6eea 07c0 0e1f c23b
00000290: b082 18bf b40d 91bc e6b1 0d3f 8e26 2d3d
000002a0: d88f 6b3d 609c 2cbb debc 8fbf ff3a 163f
000002b0: 401b afbc 46df 49bf 0046 f7be ba8a c03e
000002c0: 60d5 c63e c689 95be 7cc7 9fbd cb53 2abf
000002d0: cb42 493d 8ab1 2cbe e237 45bd 58ce bcbc
000002e0: 3286 0e3f 22ba 5d3d 98be 07bc 40d8 00bd
000002f0: d7f6 a9bd ba11 bfbf 37bb 683d 30f3 6a3c
00000300: 5bab cc3d d827 18bc 6198 97bf a0a9 9b3e
00000310: 9ce3 2a3e 44a2 da3e c209 4ebf 049d 54be
00000320: 2e5a d53c e019 20bc 08f2 a4bf 6ef8 ee3d
00000330: 0550 79be 0c05 f73e 0c83 9bbc 6ae1 403d
00000340: 8dae da3c b9a2 06bf 4377 17be 34ef d9be
00000350: 947d 1f3d 2c85 e6bd 7abb 6cbf a6ad f43c
00000360: dd77 55bf 3416 9cc0 de6b 253f 91fa 2b3e
00000370: 54e3 37bd d462 a43c 95f0 d0bf 8486 43bd
00000380: 5044 cdbb ee2e 09bf 8ad1 37bd 8af0 90be
00000390: 8ee9 86bc a094 1dbd 00ab 6fbe 7180 efbe
000003a0: 9bfb 173e 2038 0a3b d00e 553d a26a fdbe
000003b0: 7242 443f 9bf5 fa3d bb18 54bd 2ec0 063d
000003c0: 305b cbbc 0070 33ba 101c 1dbe fb20 ed3c
000003d0: 85b7 2cbe 2472 713e 5432 fc3e b133 953e
000003e0: 98b1 0a3e 338f 91bc 8029 323d f61e 7b3d
000003f0: 6822 f93c b982 30bf 71f8 6bbe 7b83 edbd

net.2.bias f4 [256]
0.19703566 -0.06096605 -0.003746994 -0.0354766 -0.031327177 -0.026476802 -0.064401604 -0.04300329
-0.010380304 -0.0397013 -0.05645953 0.0059257094 -0.02464455 0.03417487 0.26879758 0.055293452
-0.046640635 0.27278832 -0.033506095 -0.03977848 -0.13522878 0.32194847 0.008037468 -0.010738414
-0.02656905 -0.008841492 -0.07439189 -0.048983812 -0.07097907 -0.051802963 -0.35912234 0.035582777
-0.044482343 -0.07306228 -0.03991354 0.4431377 -0.019703437 -0.00459055 -0.0013209556 -0.042622983
-0.070516676 -0.0412535 -0.004509438 -0.010915604 -0.04947589 -0.01474908 -0.022280505 0.009689499
-0.015729504 -0.013423236 -0.016764624 -0.06831807 -0.120214775 -0.012084008 0.37059066 -0.06538665
-0.012468141 -0.047295973 -0.021261785 0.0010309775 -0.005722699 -0.0027128772 -0.023753641 -0.013732152
0.11330303 0.14981472 -0.007199044 -0.06595036 0.37223122 -0.46281686 -0.42470014 -0.2798986
0.008785749 -0.025362806 -0.066678606 0.0013286957 -0.012568514 -0.05944961 -0.045273118 -0.012338048
-0.22191387 -0.0658221 -0.02111303 -0.07320525 -0.047500554 0.013037736 -0.055442657 0.011890482
-0.011654586 -0.04645116 -0.059763867 -0.06316404 0.42295673 -0.04160591 -0.0017747282 0.26468596
-0.02800972 -0.054531325 -0.036291633 0.38186175 -0.03880204 -0.023227239 0.5659777 0.38668126
0.047125816 0.0056774733 0.0055785156 -0.047413748 -0.0022099968 -0.06845534 -0.03382822 -0.040691555
-0.021320079 -0.030086422 -0.0070623816 0.13258117 -0.06742883 -0.0037444197 -0.055779688 -0.017945256
-0.046269305 -0.114867255 -0.021293465 -7.7678975e-05 -0.045261312 0.17185324 -0.0037061647 -0.009737052
-0.002383375 -0.0027114002 -0.044280946 0.38903803 0.12970687 -0.029010732 -0.047425654 -0.027118664
-0.06247487 0.35791025 -0.04744027 0.0019927302 -0.05257064 -0.0140928365 -0.015876457 -0.04269176
-0.011654457 -0.00698161 0.01067664 -0.045467474 -0.020397447 0.26378855 0.2410318 -0.047092717
-0.032958418 -0.065949604 -0.059163775 -0.057404872 -0.0021101767 0.20854573 -0.010006709 -0.02458252
-0.0038559758 -0.04769343 -0.03573475 0.0018494225 0.14992733 -0.06216476 -0.050809674 -0.0039826497
-0.02973001 -0.005714653 -0.05382372 -0.04082194 -0.0058443407 -0.08228357 0.18676764 -0.011909661
-0.04499534 0.20399037 -0.006114982 0.19933324 -0.001214407 0.0022851021 -0.05138591 -0.056197207
0.008160959 -0.017547904 -0.050424986 -0.25158098 -0.036829636 0.17874894 0.010280209 -0.05373855
0.15322945 -0.024533471 -0.05184065 -0.06147712 -0.0145569425 -0.00469071 -0.06780479 0.008541244
-0.0046643536 -0.01208581 -0.036390748 -0.049158853 -0.038531918 0.016792689 -0.043272734 -0.007445597
-0.023862315 0.12221208 0.28912434 -0.017750127 0.38658148 0.09408332 -0.033607878 -0.15599397
-0.10389147 -0.03683851 -0.037872627 -0.016601115 -0.26377878 -0.017151425 -0.046222895 -0.3761494
0.16332074 -0.10744729 -0.06991984 -0.062046338 0.0055866465 0.053050626 -0.029933743 -0.00048704544
-0.070197195 -0.015327153 -0.019491654 -0.06896087 -0.019924771 0.1964359 -0.00078827207 -0.021532988
0.2443456 -0.062247172 -0.1252444 -0.021810984 0.320016 -0.037681703 0.28718242 0.42190453
0.00095439755 -0.052732505 -0.0073693134 -0.0072437976 -0.0049990327 0.18916447 -0.05854758 -0.03579755
00000000: b7c3 493e 89b7 79bd 2190 75bb e94f 11bd
00000010: ed50 00bd e1e5 d8bc fde4 83bd 3824 30bd
00000020: 2712 2abc d59d 22bd 1c42 67bd 742c c23b
00000030: 5ee3 c9bc f3fa 0b3d d69f 893e 637b 623d
00000040: 400a 3fbd e9aa 8b3e b03d 09bd c2ee 22bd
00000050: 6a79 0abe 6ed6 a43e 96af 033c 2cf0 2fbc
00000060: 56a7 d9bc e8db 10bc c65a 98bd 40a3 48bd
00000070: 7a5d 91bd 582f 54bd e2de b7be 3fbf 113d
00000080: 1e33 36bd ada1 95bd 617c 23bd f2e2 e23e
00000090: 1a69 a1bc 536c 96bb ea23 adba 7095 2ebd
000000a0: 0c6b 90bd 6ef9 28bd e8c3 93bb 5dd7 32bc
000000b0: 3ba7 4abd 20a6 71bc 9b85 b6bc b4c0 1e3c
000000c0: 29db 80bc 22ed 5bbc f755 89bc 58ea 8bbd
000000d0: 2a33 f6bd 01fc 45bc 0fbe bd3e 70e9 85bd
000000e0: 2c47 4cbc 6cb9 41bd 322d aebc dd21 873a
000000f0: 7b85 bbbb 87ca 31bb ff96 c2bc d2fc 60bc
00000100: 6b0b e83d 0869 193e f5e5 ebbb fb10 87bd
00000110: 1795 be3e 55f6 ecbe 4c72 d9be df4e 8fbe
00000120: 1af2 0f3c a9c5 cfbc cb8e 88bd a127 ae3a
00000130: 2bec 4dbc 6f81 73bd 4e70 39bd 8625 4abc
00000140: 643d 63be bdcd 86bd 3cf5 acbc a2ec 95bd
00000150: f18f 42bd 3a9c 553c d717 63bd 4cd0 423c
00000160: e0f2 3ebc 9243 3ebd f5ca 74bd 265c 81bd
00000170: c98d d83e f56a 2abd ff9d e8ba eb84 873e
00000180: a474 e5bc 3d5c 5fbd 89a6 14bd 6283 c33e
00000190: e3ee 1ebd 0d47 bebc eae3 103f 16fb c53e
000001a0: 0007 413d 190a ba3b fbcb b63b eb34 42bd
000001b0: 98d5 10bb 5032 8cbd 768f 0abd 30ac 26bd
000001c0: 72a7 aebc cd77 f6bc 8d6b e7bb 5cc3 073e
000001d0: 2018 8abd f064 75bb 3e79 64bd ee01 93bc
000001e0: e284 3dbd 863f ebbd a26f aebc 95e7 a2b8
000001f0: ed63 39bd 4cfa 2f3e 20e3 72bb 2888 1fbc
00000200: 6632 1cbb bfb1 31bb f05f 35bd fe2f c73e
00000210: e1d1 043e eaa7 edbc 6741 42bd f627 debc
00000220: a6e5 7fbd 0340 b73e bb50 42bd 7798 023b
00000230: 5054 57bd a4e5 66bc 580f 82bc 8edd 2ebd
00000240: 56f2 3ebc fdc5 e4bb 13ed 2e3c 1a3c 3abd
00000250: 8c18 a7bc 4b0f 873e 0ad1 763e 4be4 40bd
00000260: 68ff 06bd 9610 87bd b755 72bd 5f21 6bbd
00000270: e44a 0abb 038d 553e 2ef3 23bc 4861 c9bc
00000280: 8ab4 7cbb 305a 43bd 9a5e 12bd 5268 f23a
00000290: 8d86 193e 7aa0 7ebd ce1d 50bd e380 82bb
000002a0: 5a8c f3bc fc41 bbbb 4376 5cbd e834 27bd
000002b0: e281 bfbb 4a84 a8bd 0440 3f3e bd20 43bc
000002c0: 094d 38bd dae2 503e 3060 c8bb 031e 4c3e
000002d0: bd2c 9fba a7c1 153b 087a 52bd 0b2f 66bd
000002e0: 8bb5 053c 9fc0 8fbc 6e8a 4ebd 39cf 80be
000002f0: acda 16bd f609 373e 526e 283c f41c 5cbd
00000300: 2ee8 1c3e 6bfa c8bc dd56 54bd 6fcf 7bbd
00000310: 3e80 6ebc 87b4 99bb 3ddd 8abd 93f0 0b3c
00000320: 6fd7 98bb 9003 46bc 770e 15bd cb5a 49bd
00000330: a5d3 1dbd d290 893c c03e 31bd 32fa f3bb
00000340: e77a c3bc 544a fa3d 1b08 943e b768 91bc
00000350: 02ee c53e c1ae c03d 6aa8 09bd e2bc 1fbe
00000360: 0dc5 d4bd fae3 16bd 5420 1bbd 10ff 87bc
00000370: 030e 87be 2581 8cbc 3854 3dbd a796 c0be
00000380: 8d3d 273e 530d dcbd 2232 8fbd 4d24 7ebd
00000390: 3010 b73b 9d4b 593d 9c37 f5bc 225a ffb9
000003a0: 8cc3 8fbd bd1e 7bbc f6ac 9fbc 5b3b 8dbd
000003b0: 4639 a3bc 7e26 493e 0ba4 4eba f365 b0bc
000003c0: bc35 7a3e e4f6 7ebd 1140 00be f3ac b2bc
000003d0: 23d9 a33e 2158 1abd 9309 933e df03 d83e
000003e0: 8930 7a3a 0afe 57bd 487a f1bb 615d edbb
000003f0: edce a3bb 55b4 413e 96cf 6fbd 74a0 12bd

net.4.weight f4 [4, 256]
0.8143357 -0.032821707 0.019442894 0.051618733 0.048585672 0.016452635 -0.002882308 0.0087998435
-0.007972921 -0.03600016 -0.030103417 0.008321321 -0.018668273 0.28354964 -2.5702217 0.26465628
-0.043510262 1.5175442 -0.04023161 -0.028999288 0.05948544 -0.900571 -0.0032920153 0.019481523
1.6512698 0.00400226 1.2229228 0.032333016 -0.003269932 0.061837245 -0.02361777 -0.7831712
0.028867181 0.9254223 -0.35261923 0.15520166 0.020353606 -0.008413648 0.03761547 -0.039172202
-0.04158407 0.033394963 -0.017641906 0.0010034991 0.01032113 -0.002484433 0.01546 0.03132417
-0.31505525 0.05249932 0.039763797 -0.053225603 0.013893504 -0.035873473 1.0771518 0.054075737
-0.051446185 -0.002315929 0.004078435 -0.029433368 0.0024312406 0.038828477 0.03531167 -0.0048920084
0.10074085 0.42781588 0.019272335 0.025813134 -0.8766904 -0.121582344 0.10137528 0.7258232
0.046043143 -0.011535918 -0.046973668 -0.005310267 -0.03299707 0.033946503 -0.04321945 -0.06763815
0.07650082 0.03440917 0.0055229547 0.01471254 0.017228413 -0.71573794 0.0058561577 0.048648354
0.023167316 -0.026098194 0.039972764 0.020347737 2.00606 -0.0061349752 -0.027312825 1.62833
0.0005783065 0.0071939533 0.0088137 -0.9694277 -0.023318164 0.044778757 -0.0824041 -0.24848463
-0.018808872 -0.024916813 0.06375325 -0.0039994987 0.035624456 -0.039646473 -0.05512355 -0.027033368
-0.012116968 -0.010966639 -0.0007306888 -0.4987579 0.0006596089 -0.018238008 0.0036271939 0.002964067
-0.044283144 0.48759368 -0.035039365 0.020963928 0.034577057 1.1637169 0.052910753 0.03762143
0.039237972 -0.030751925 -0.018938944 -0.17511784 -0.069932766 -0.050410397 -0.007147166 0.007215698
-0.0051660123 0.2549207 -0.01565413 -0.16831675 0.03689351 -0.0059128944 -0.0025272896 0.022101603
0.05500549 0.050011106 -0.0013353768 0.022631004 0.035432693 0.7355581 0.14226635 0.015628126
-0.070403986 0.028916854 0.025617074 -0.029569855 -0.043921933 0.41554183 -0.050017968 -0.3905675
0.004240317 0.018550025 0.02040128 -0.042229664 -1.0370352 0.036572035 0.0008465871 -0.0064953747
0.023717018 0.02046449 0.017798726 0.05263546 0.020058898 -0.008474545 0.089236744 -0.9810058
-0.0029843713 0.25250086 -0.022143265 -0.06398844 0.007683675 -0.039265502 -0.030537196 0.022293493
-0.020066103 -0.042499356 -0.0028983578 -0.28007364 0.049551673 0.64295965 0.0004933632 -0.012787003
-0.46658626 -0.009176504 0.028603768 0.017204173 -0.009554951 0.03742242 0.0032283762 0.009568461
0.032375317 -0.03647391 0.045221478 -0.009330492 -0.027963059 -0.018888792 0.021517254 0.016805207
-0.026494464 -0.039402116 -0.076514915 -0.0045267595 1.234676 -0.12563865 -0.03739875 -1.2829884
-0.057099644 -0.009116252 -0.012519386 -0.03153099 0.16979131 0.042000815 -0.0048147617 0.2738679
-0.9345789 -0.030394735 0.7099269 0.0330605 -0.032186937 -1.117571 -0.032992147 0.021110948
0.030115059 0.034549832 -0.015902556 0.014969068 -0.013345335 -0.20620699 0.03632103 0.035513513
-1.1582277 0.042695716 0.39702573 -0.04255553 0.33061522 -0.02878511 0.5919793 0.62868357
-0.028813535 0.009768066 0.023996659 -0.030056281 0.044969086 -0.41309234 0.045050647 0.054187343
00000000: 4e78 503f 0e70 06bd b446 9f3c 2a6e 533d
00000010: c501 473d adc7 863c 1be5 3cbb 382d 103c
00000020: dba0 02bc e774 13bd 719b f6bc 2656 083c
00000030: 35ee 98bc 6b2d 913e 837e 24c0 0781 873e
00000040: d137 32bd e33e c23f e7c9 24bd ea8f edbc
00000050: 01a7 733d d28b 66bf dabe 57bb b797 9f3c
00000060: cf5c d33f 6425 833b bc88 9c3f a06f 043d
00000070: 5b4c 56bb 0d49 7d3d 0e7a c1bc e87d 48bf
00000080: de7a ec3c 7ae8 6c3f 828a b4be 2fed 1e3e
00000090: 9bbc a63c 66d9 09bc ae12 1a3d 0873 20bd
000000a0: 0f54 2abd 28c9 083d c285 90bc d887 833a
000000b0: f519 293c ded1 22bb f14b 7d3c c64d 003d
000000c0: ec4e a1be 8709 573d 5ddf 223d 1703 5abd
000000d0: 94a1 633c 10f0 12bd 1ce0 893f 857e 5d3d
000000e0: 3cb9 52bd d7c6 17bb 64a4 853b 3f1e f1bc
000000f0: 7355 1f3b 9c0a 1f3d f8a2 103d 244d a0bb
00000100: 3851 ce3d af0a db3e 04e1 9d3c 1176 d33c
00000110: c86e 60bf 2a00 f9bd d89d cf3d 8dcf 393f
00000120: bc97 3c3d 2601 3dbc 7667 40bd c001 aebb
00000130: f027 07bd 7d0b 0b3d e106 31bd df85 8abd
00000140: 76ac 9c3d a1f0 0c3d e7f9 b43b de0c 713c
00000150: 9a22 8d3c 9a3a 37bf 03e5 bf3b 7f43 473d
00000160: 62c9 bd3c e1cb d5bc 7bba 233d 4cb0 a63c
00000170: 4963 0040 e707 c9bb 25bf dfbc 1e6d d03f
00000180: 7e99 173a 41bb eb3b 5667 103c 6a2c 78bf
00000190: bc05 bfbc ee69 373d 7bc3 a8bd c172 7ebe
000001a0: 1015 9abc 581e ccbc 1091 823d 3a0e 83bb
000001b0: f3ea 113d 5764 22bd 3bc9 61bd 1575 ddbc
000001c0: 3f86 46bc 6bad 33bc b28b 3fba 325d ffbe
000001d0: 9be9 2c3a e067 95bc 37b6 6d3b cb40 423b
000001e0: 3e62 35bd e1a5 f93e 7085 0fbd 8bbc ab3c
000001f0: aca0 0d3d adf4 943f f2b8 583d ee18 1a3d
00000200: ffb7 203d 76eb fbbc d825 9bbc 1752 33be
00000210: e938 8fbd 227b 4ebd c632 eabb a971 ec3b
00000220: a747 a9bb f784 823e 173d 80bc 3a5b 2cbe
00000230: a61d 173d f4c0 c1bb e2a0 25bb 6c0e b53c
00000240: 704d 613d 72d8 4c3d cf07 afba a864 b93c
00000250: df21 113d 894d 3c3f 45ae 113e 8e06 803c
00000260: f72f 90bd 0ae3 ec3c e6da d13c 7b3c f2bc
00000270: 7ce7 33bd e6c1 d43e a4df 4cbd 77f8 c7be
00000280: 5bf2 8a3b 39f6 973c 9620 a73c 03f9 2cbd
00000290: 92bd 84bf 8fcc 153d 80ed 5d3a 27d7 d4bb
000002a0: 314a c23c 25a5 a73c a2ce 913c 4898 573d
000002b0: 8f52 a43c d1d8 0abc c1c1 b63d 3223 7bbf
000002c0: 7195 43bb cb47 813e cb65 b5bc 5f0c 83bd
000002d0: 56c7 fb3b ddd4 20bd 2429 fabc d8a0 b63c
000002e0: ab61 a4bc ce13 2ebd 60f2 3dbb d065 8fbe
000002f0: b2f6 4a3d 0199 243f 0b55 013a 9480 51bc
00000300: 65e4 eebe 0c59 16bc 7352 ea3c c4ef 8c3c
00000310: 5f8c 1cbc 4048 193d 2a93 533b 09c5 1c3c
00000320: fb9b 043d ab65 15bd 283a 393d ebde 18bc
00000330: c912 e5bc abbc 9abc f444 b03c 13ab 893c
00000340: eb0a d9bc 1d64 21bd dab3 9cbd 3655 94bb
00000350: dd09 9e3f 6ba7 00be 6f2f 19bd f738 a4bf
00000360: 51e1 69bd 555c 15bc 1c1e 4dbc a426 01bd
00000370: c6dd 2d3e 0c09 2c3d 26c5 9dbb 6a38 8c3e
00000380: 9040 6fbf 61fe f8bc c5bd 353f 726a 073d
00000390: 73d6 03bd 910c 8fbf c622 07bd def0 ac3c
000003a0: dbb3 f63c 2084 0d3d 1446 82bc d240 753c
000003b0: 64a6 5abc ed27 53be 5cc5 143d 9e76 113d
000003c0: ce40 94bf b4e1 2e3d f546 cb3e b54e 2ebd
000003d0: 6646 a93e c0ce ebbc f58b 173f 68f1 203f
000003e0: 5d0a ecbc 3d0a 203c a494 c43c 9738 f6bc
000003f0: 8131 383d d780 d3be 0787 383d 8cf3 5d3d

net.4.bias f4 [4]
-0.002059364 0.25702435 -0.94084036 -0.485664
00000000: 65f6 06bb b298 833e eada 70bf f4a8 f8be
