logs/PointMaze-Right/sac/seed0-20230805-1354/model/step660000/actor.pth (torch, 276901 bytes, 6 tensors)

net.0.weight f4 [256, 6]
-0.0030564817 0.21900219 -0.3360068 -0.30044585 -0.15723862 0.109474786 -2.1022944 0.575566
-0.036229607 -0.59835917 -0.09800183 -0.080247484 -1.0325139 -0.6129323 -0.16828938 0.45115912
0.1838314 0.24495828 -0.59005326 -2.0522048 0.14828277 0.5790057 -0.105249055 0.30549702
-0.12525228 0.25819582 0.36965913 -0.9824437 -0.29758835 -0.10335428 -0.15913516 0.35272685
-0.26461825 -0.1879301 -0.28521878 -0.38234943 -0.55161494 0.17017056 0.18216789 0.96640533
-0.31499693 -0.20930217 -0.123627104 -0.24928732 -0.29498646 -0.3828705 0.043084107 0.23936465
-1.0822382 0.091650136 0.26109958 0.8517942 0.089304954 0.05515143 0.8885763 -0.24262145
0.07607463 -0.7906939 -0.32602876 -0.21089436 0.9333864 -0.1463011 -0.2418269 0.2724326
-0.07471823 -0.051528025 0.015587551 0.094593056 0.25326768 0.3919976 -0.31460577 -0.14961065
0.7752569 0.53143734 0.35526067 0.35436386 -0.1960186 -0.35500565 -0.7175935 -0.6259283
-0.3804687 0.7216243 0.31998637 -0.4072391 0.07641268 -0.068773516 -0.06718181 -0.18687847
0.1569944 -0.24180691 -0.00073307636 1.0732231 0.29225335 -0.14121264 -0.659443 -0.2648294
-0.120146595 -0.34701082 -0.31846797 -0.82020503 0.0933039 0.275085 -0.17800653 -0.102749884
-0.38889655 -0.0073379115 -0.30743504 -0.31490508 -0.022494322 0.061296463 -0.16719005 0.24224539
-0.24843507 0.3704323 0.23255841 -0.30747992 -0.1016066 -0.08951216 -0.123239614 0.096825995
0.16020818 0.024454141 -0.19919609 0.19317861 -0.39161173 -0.2419715 -0.10219674 -0.19886321
-0.14281888 -0.33460915 -0.0868406 0.08726571 -0.2659598 -0.020951042 0.29224488 -0.04196803
0.011346125 -0.035219133 0.4668345 0.60907054 0.38671166 0.4169358 -0.03671037 -0.029525192
-0.8459203 -0.35405463 0.2779784 0.8100525 -0.0812871 -0.31284547 -0.6363543 -0.98148125
-0.08280776 0.9070651 0.032921646 -0.3937277 0.25465795 -0.31945816 -0.08630789 -0.16553351
-0.07863486 -0.08015658 -0.3663416 -0.35249704 -0.063882485 0.005279541 -0.18545696 0.15378681
-0.86898977 -0.512733 0.35902148 -0.18123494 0.33809543 0.14784867 -1.0483873 0.81175137
-0.047109596 -0.05569041 0.3610234 -0.3299035 0.3181697 -2.196156 0.2915353 -0.0104045095
0.18094255 0.14417654 -0.09817339 -0.08585685 -0.33642983 0.22120695 0.32414022 0.27933362
-0.2879695 0.01820783 -0.28778815 -0.22473423 -0.23788853 0.13951683 -0.83040375 0.5032747
0.01717424 0.6227264 -0.41149545 -0.28026745 -0.2370541 0.28574663 -0.14675097 0.34435284
0.14762567 0.051694855 -0.00303901 -0.080703154 0.051221423 -0.09322133 -0.0028685296 0.052089643
-0.71657 -0.6199153 0.32965755 -0.1008844 -0.016673489 0.40385503 0.14747441 0.011558751
-0.35379204 0.20223719 -0.2907874 -0.115887105 -0.26678392 -0.17046908 0.004465537 0.84043103
0.0046896636 0.36566508 0.24973057 -0.25810027 0.18310103 -0.28858912 -0.17302589 0.12007509
-1.5038333 0.018481504 -0.13142161 -1.9639859 -0.0496132 -0.39481375 0.2951556 -0.33758968
0.0056266827 -0.06940906 -0.21501334 0.053958602 0.8691406 -0.49998125 -0.24237461 -0.20460941
00000000: 414f 48bb 1c42 603e 1509 acbe 0ad4 99be
00000010: 2903 21be 5134 e03d fe8b 06c0 4b58 133f
00000020: 7f65 14bd 112e 19bf 2fb5 c8bd cb58 a4bd
00000030: 6a29 84bf 22e9 1cbf 0d54 2cbe 54fe e63e
00000040: 4c3e 3c3e 58d6 7a3e bb0d 17bf 5357 03c0
00000050: 70d7 173e b839 143f d18c d7bd 1b6a 9c3e
00000060: 2242 00be 3e32 843e f643 bd3e 6e81 7bbf
00000070: 805d 98be 69ab d3bd 54f4 22be 9d98 b43e
00000080: 0b7c 87be c070 40be 3208 92be 4ec3 c3be
00000090: a336 0dbf 3141 2e3e 388a 3a3e 5766 773f
000000a0: 4747 a1be 4f53 56be 3530 fdbd 2d45 7fbe
000000b0: 7708 97be 9a07 c4be f678 303d 021c 753e
000000c0: c886 8abf 11b3 bb3d d8ae 853e 2f0f 5a3f
000000d0: 84e5 b63d 77e6 613d bd79 633f c271 78be
000000e0: 04cd 9b3d ea6a 4abf 3eed a6be b1f4 57be
000000f0: 69f2 6e3f f5cf 15be 79a1 77be 497c 8b3e
00000100: df05 99bd 0d0f 53bd ed62 7f3c 01ba c13d
00000110: 4dac 813e e9b3 c83e 0214 a1be 8933 19be
00000120: 3c77 463f 470c 083f bae4 b53e 2e6f b53e
00000130: 1ab9 48be 4dc3 b5be 35b4 37bf d63c 20bf
00000140: cbcc c2be 5fbc 383f 41d5 a33e a581 d0be
00000150: 407e 9c3d 21d9 8cbd 9e96 89bd 125d 3fbe
00000160: 24c3 203e 3b9c 77be ec2b 40ba 605f 893f
00000170: 3ba2 953e 0c9a 10be 42d1 28bf b897 87be
00000180: 6b0f f6bd 67ab b1be 3c0e a3be f5f8 51bf
00000190: 1d16 bf3d f1d7 8c3e 5847 36be 886e d2bd
000001a0: 731d c7be dd72 f0bb 2068 9dbe 3d3b a1be
000001b0: 0346 b8bc 0012 7b3d de33 2bbe 2d0f 783e
000001c0: c365 7ebe 4da9 bd3e cb23 6e3e 026e 9dbe
000001d0: 1f17 d0bd 2752 b7bd 0d65 fcbd b54c c63d
000001e0: 9d0d 243e 0d54 c83c 0ffa 4bbe 9dd0 453e
000001f0: 5581 c8be 60c7 77be 864c d1bd cca2 4bbe
00000200: 1d3f 12be e451 abbe 7cd9 b1bd 5db8 b23d
00000210: e22b 88be 85a1 abbc 1fa1 953e abe6 2bbd
00000220: 19e5 393c f041 10bd ee04 ef3e 0cec 1b3f
00000230: 12ff c53e 9c78 d53e 9d5d 16bd d1de f1bc
00000240: 3c8e 58bf a646 b5be 2f53 8e3e 9a5f 4f3f
00000250: da79 a6bd 482d a0be 1ee8 22bf 5b42 7bbf
00000260: 1d97 a9bd 6b35 683f d9d8 063d ad96 c9be
00000270: 8762 823e 0590 a3be 31c2 b0bd 9e81 29be
00000280: 500b a1bd 2229 a4bd 2091 bbbe 7e7a b4be
00000290: d2d4 82bd 0000 ad3b 6ee8 3dbe 4a7a 1d3e
000002a0: 1d76 5ebf 7842 03bf aad1 b73e a795 39be
000002b0: d81a ad3e a465 173e 8e31 86bf f0ce 4f3f
000002c0: fef5 40bd a11b 64bd 0fd8 b83e 1de9 a8be
000002d0: 24e7 a23e d28d 0cc0 1d44 953e ad77 2abc
000002e0: 0149 393e 04a3 133e 210f c9bd b7d5 afbd
000002f0: 8840 acbe 1384 623e b5f5 a53e d104 8f3e
00000300: bd70 93be 9628 953c f858 93be bb20 66be
00000310: 0d99 73be 80dd 0e3e 5795 54bf 9cd6 003f
00000320: feb0 8c3c ff6a 1f3f 88af d2be 377f 8fbe
00000330: 4fbe 72be 624d 923e e345 16be 044f b03e
00000340: 2f2b 173e fcbd 533d 212a 47bb b247 a5bd
00000350: 8ecd 513d d3ea bebd f1fd 3bbb f35b 553d
00000360: 2271 37bf c5b2 1ebf e0c8 a83e 7b9c cebd
00000370: d796 88bc 16c6 ce3e 8803 173e ea60 3d3c
00000380: 3b24 b5be 4417 4f3e 16e2 94be 3856 edbd
00000390: e797 88be 728f 2ebe a453 923b 7d26 573f
000003a0: c0ab 993b 7438 bb3e 5fb9 7f3e b825 84be
000003b0: d67e 3b3e f4c1 93be b32d 31be eee9 f53d
000003c0: 9c7d c0bf 8666 973c 6393 06be e463 fbbf
000003d0: 3637 4bbd 0725 cabe a31e 973e 8ed8 acbe
000003e0: 0960 b83b 5626 8ebd 752c 5cbe b203 5d3d
000003f0: 0080 5e3f 8bfd ffbe 0d31 78be 2185 51be

net.0.bias f4 [256]
-0.13574518 0.15697317 0.20303874 -0.035755824 0.34839392 -0.28256205 -0.18000141 0.15322082
-0.14382152 0.28106287 -0.29217118 -0.30571464 -0.50127345 0.16154625 -0.17666902 -0.15719092
0.111140825 0.13867396 -0.03820787 -0.08071242 -0.2352097 -0.3430319 -0.3068801 -0.7668513
0.20539264 -0.10824819 -0.17349246 -0.39932832 0.19055577 -0.19704312 -0.08339894 -0.34230882
-0.23031662 0.06736949 -0.38037595 -0.23279938 0.31868055 -0.20936963 -0.21622658 -0.11462541
-0.085341334 -0.26779848 0.21378243 0.2240943 -0.14473277 0.08409327 -0.31143123 0.027457641
0.063099526 0.16605492 -0.3375684 0.14978549 0.13805349 -0.071405865 -0.22978471 0.0161374
-0.54534394 -0.39055136 0.14668971 -0.19169228 -0.325012 0.1843975 0.19685718 -0.31029758
-0.36283776 0.22948098 -0.07092491 -0.06988607 0.083258405 -0.043177452 -0.023535801 0.014508944
-0.24704532 0.13182569 -0.016010428 -0.17786309 -0.1555785 0.03728221 -0.33185026 0.17213434
0.34195894 -0.18476883 -0.31712735 -0.24785791 -0.23222338 -0.35281014 -0.28875205 0.17899886
0.29303223 0.19239669 0.2413773 0.071118206 0.1982041 0.020240096 -0.235945 -0.045283
0.2919326 0.07896299 -0.26564166 -0.5250918 0.0920181 0.40467685 0.09921421 -0.15980169
0.25340092 -0.37482634 -0.29412776 -0.39282894 0.21548614 0.0674114 -0.18798395 -0.13116461
-0.34438506 -0.26182768 0.14715602 -0.057796586 -0.29235414 -0.26889762 0.21607283 0.055725463
-0.13756265 -0.205057 0.013825093 -0.040780373 -0.35741296 -0.26456326 0.111629255 0.16731313
-0.1311554 0.05968783 -0.2528334 0.36855653 0.11363516 0.10449545 0.12671265 0.30729127
-0.45101365 -0.20600577 0.09578142 -0.09214744 0.16019432 -0.46153 -0.36459416 -0.34319425
-0.37888905 0.23773013 -0.27149507 -0.37910378 -0.24000275 -0.27508116 -0.60574615 0.10775411
-0.30651104 0.11884343 0.1925799 -0.16500542 0.15657021 -0.2286838 0.17247851 0.13218696
0.09701478 0.22874112 -0.63455474 0.05242626 0.28685772 -0.35484406 0.21902953 -0.15558934
-0.14765628 -0.32391006 0.061983753 -0.43676877 -0.086632594 0.019641444 0.040479932 0.061933365
-0.15229405 -0.17537493 0.101178735 0.14451754 0.23133203 0.13724786 0.22179382 -0.32897002
0.21944146 -0.18757139 -0.10928178 0.0024435208 -0.18515065 0.11285196 0.25273573 -0.24392231
0.31307063 -0.3281109 -0.12764545 0.32327548 0.10525332 0.4144664 -0.04691701 0.018788634
0.09288444 -0.17058846 0.22307299 -0.05619642 -0.3083506 0.079772264 -0.006058067 -0.018147532
-0.3378934 -0.21137008 0.067849465 -0.53900844 -0.37975538 -0.21929985 -0.24114242 0.035645362
0.20889492 -0.26352593 -0.02618619 -0.18842258 -0.21839999 -0.071789406 -0.26082903 0.057804186
-0.20246588 -0.21868563 -0.23038039 -0.15957005 0.16511643 -0.20042385 0.0008489915 0.30917135
0.07507877 -0.20779793 -0.24511354 -0.37655744 0.008300723 0.15999293 -0.05129205 0.4640429
-0.22399834 0.05795013 0.08146694 0.27953798 0.29791406 -0.098152466 0.15230775 -0.2939414
-0.022725798 -0.26268864 -0.10847432 -0.3412126 -0.39246672 0.28400412 -0.20448658 0.026529418
00000000: c900 0bbe 93bd 203e 63e9 4f3e b374 12bd
00000010: b060 b23e f9ab 90be 4a52 38be ebe5 1c3e
00000020: f345 13be 79e7 8f3e 7697 95be a186 9cbe
00000030: 7553 00bf 616c 253e b9e8 34be a8f6 20be
00000040: cd9d e33d 8c00 0e3e db7f 1cbd 8e4c a5bd
00000050: d0da 70be e1a1 afbe 631f 9dbe 5e50 44bf
00000060: 7352 523e 3ab1 ddbd 02a8 31be c374 ccbe
00000070: 0d21 433e acc5 49be 10cd aabd 1a43 afbe
00000080: 1fd8 6bbe 04f9 893d a3c0 c2be f662 6ebe
00000090: 192a a33e fe64 56be 806a 5dbe bac0 eabd
000000a0: 70c7 aebd e21c 89be c8e9 5a3e fa78 653e
000000b0: d434 14be 1839 ac3d ea73 9fbe d9ee e03c
000000c0: 533a 813d 4d0a 2a3e c4d5 acbe 5e61 193e
000000d0: e55d 0d3e 3d3d 92bd af4c 6bbe 9532 843c
000000e0: a99b 0bbf 59f6 c7be d435 163e fb4a 44be
000000f0: f967 a6be b3d2 3c3e ee94 493e 53df 9ebe
00000100: dfc5 b9be 10fd 6a3e 1441 91bd 6e20 8fbd
00000110: 6283 aa3d d7da 30bd 27ce c0bc ecb6 6d3c
00000120: 73f9 7cbe 50fd 063e 4d28 83bc be21 36be
00000130: f84f 1fbe 3bb5 183d 47e8 a9be fc43 303e
00000140: 3e15 af3e 0a34 3dbe 845e a2be 77ce 7dbe
00000150: f7cb 6dbe 88a3 b4be 4fd7 93be 7a4b 373e
00000160: 5208 963e a303 453e 9c2b 773e 6ca6 913d
00000170: 04f6 4a3e 8fce a53c 919b 71be ab7a 39bd
00000180: 3178 953e 59b7 a13d 2f02 88be 6b6c 06bf
00000190: fc73 bc3d ce31 cf3e d230 cb3d 0ea3 23be
000001a0: c4bd 813e 3de9 bfbe ea97 96be e020 c9be
000001b0: 66a8 5c3e fd0e 8a3d dd7e 40be 0450 06be
000001c0: 3d53 b0be 470e 86be 11b0 163e 1dbc 6cbd
000001d0: 71af 95be f3ac 89be 3242 5d3e 6240 643d
000001e0: 39dd 0cbe 76fa 51be a582 623c 5209 27bd
000001f0: d5fe b6be d674 87be e19d e43d 2254 2b3e
00000200: 9a4d 06be 3a7b 743d 6173 81be 71b3 bc3e
00000210: 8db9 e83d b601 d63d f6c0 013e 4855 9d3e
00000220: 43eb e6be 2df3 52be 0d29 c43d ccb7 bcbd
00000230: fb09 243e a94d ecbe 16ac babe 28b7 afbe
00000240: bffd c1be 876f 733e 6701 8bbe e419 c2be
00000250: 48c3 75be 70d7 8cbe 2e12 1bbf 30ae dc3d
00000260: 04ef 9cbe 2f64 f33d aa33 453e 2ef7 28be
00000270: f153 203e 162c 6abe 359e 303e 055c 073e
00000280: afaf c63d 1d3b 6a3e 2e72 22bf ebbc 563d
00000290: 04df 923e 1fae b5be 4749 603e d052 1fbe
000002a0: 3533 17be 8ad7 a5be ade2 7d3d 28a0 dfbe
000002b0: 6e6c b1bd 18e7 a03c 49ce 253d d7ad 7d3d
000002c0: f9f2 1bbe 7c95 33be cc36 cf3d 68fc 133e
000002d0: 4ee2 6c3e b48a 0c3e eb1d 633e c26e a8be
000002e0: 43b5 603e b712 40be 20cf dfbd 7a23 203b
000002f0: 2298 3dbe ee1e e73d 9466 813e c5c6 79be
00000300: cb4a a03e 27fe a7be 7db5 02be 5d84 a53e
00000310: 0d8f d73d f134 d43e 0d2c 40bd 9fea 993c
00000320: 333a be3d beae 2ebe 3f6d 643e 382e 66bd
00000330: 21e0 9dbe a45f a33d c082 c6bb 22aa 94bc
00000340: 5d00 adbe 6671 58be a9f4 8a3d 75fc 09bf
00000350: 4c6f c2be 2490 60be 0aee 76be df00 123d
00000360: 8de8 553e dfec 86be 6c84 d6bc d9f1 40be
00000370: 3fa4 5fbe 5306 93bd 628b 85be 15c4 6c3d
00000380: 3753 4fbe 20ef 5fbe d6e8 6bbe 5566 23be
00000390: 4814 293e e93b 4dbe db8e 5e3a b54b 9e3e
000003a0: e6c2 993d fbc8 54be 0bff 7abe 23cc c0be
000003b0: c1ff 073c 30d5 233e 9d17 52bd 0897 ed3e
000003c0: d25f 65be 1e5d 6d3d 24d8 a63d 9a1f 8f3e
000003d0: 3188 983e 2904 c9bd 90f6 1b3e 7d7f 96be
000003e0: 742b babc 207f 86be c927 debd 6bb3 aebe
000003f0: 66f1 c8be fd68 913e ee64 51be 3954 d93c

net.2.weight f4 [256, 256]
0.049733177 -0.14353828 0.124428876 0.16887103 -0.079101175 0.030054234 0.43905947 -0.08535851
0.8997531 -0.61894065 -1.3787736 0.014508665 -0.63281995 0.08418471 -0.0372381 0.039355993
-0.10168414 0.04933195 -0.044013664 -0.24850021 0.031345643 0.04419215 0.01565963 0.0007996342
0.29505047 0.52571654 0.021251105 -0.048870876 -0.18226507 -3.1949623 0.34788772 -0.022081323
-0.06195861 0.5247632 0.023927562 0.053816907 -0.23142529 0.029839657 0.036263417 -0.059768863
0.02804688 -0.008255206 -0.67493016 0.06588082 0.2143778 0.25765714 0.0038453937 0.37454844
0.01270434 0.45184687 -0.008065313 0.22940435 0.0008446337 -0.050046094 -0.012666529 0.26751557
0.063806295 -0.0033170655 0.24227226 -0.2609543 0.030853093 -0.3599854 0.066548154 -0.45908067
-0.8760481 -0.35289112 -0.055791717 -0.47489294 0.2224321 0.058949135 0.14739817 0.059704237
-0.029195055 -0.09596893 -0.74318737 -0.043096818 0.031351693 0.07918131 0.05321809 -0.15880603
-0.054299098 -0.9355736 0.0174167 0.24203022 -1.430793 -0.047453113 -0.018335573 -0.12562475
0.17336744 0.079452544 0.028895805 0.41219142 -0.37944883 -0.047191594 -2.6789374 -0.76835775
0.07751873 -0.1346429 0.009379312 0.05743005 0.23957002 -0.06530562 -0.14811234 -0.71613175
0.19992825 -0.013293482 0.023880534 0.031452186 -0.07481401 0.28180546 -0.025301747 -2.8234997
-4.533533 -0.031924397 -0.69013727 -0.18420063 -0.0590508 0.042370163 -4.4171247 -0.23976864
0.041341268 -0.033629626 0.17869535 0.1176837 0.002893284 0.017981477 -0.32843918 -0.18588147
-0.019176424 -0.16993725 -0.004891053 0.111469984 -0.77176297 0.36308616 -1.5695949 -0.087664746
-2.615355 -0.26407355 -1.0581255 -0.054639637 -0.10714422 -0.0034623924 0.041984536 -0.23921251
0.026345104 -0.05747599 -1.2162073 -1.4199382 0.42529163 0.0010745451 -0.07329265 0.19201519
-0.009350881 -0.6199409 -0.12978484 -0.38350996 -0.11994447 -0.039872296 -0.10069732 0.15092923
0.054562405 -0.09487656 -0.020397969 -0.41703874 0.27111885 -0.01770673 -0.032534335 0.042273097
0.057510227 -0.0026338324 -0.48355657 -0.06415622 -0.021375299 0.1856231 -0.23873776 0.26719618
-0.04894782 -0.6642864 0.07575265 -0.23570614 -0.094651565 -0.70511377 -0.20270388 -0.023047611
-0.2322781 0.05413259 -0.008285187 -0.031456232 0.05201713 0.09217706 0.46484387 0.014340207
0.024355471 -0.009286843 0.025482897 0.025493162 0.07593464 -0.13337381 -0.12864542 -0.022514649
-0.68384707 -0.009771794 0.13084728 -0.094089165 0.0041895956 0.216847 -0.018983386 0.04708997
0.034668572 -0.33298633 0.019801857 -0.0026240346 0.03893812 -1.2975734 -0.00684759 -0.0060175657
-0.81701136 0.05844062 -0.04281245 -0.27369383 -0.04489453 0.020066656 -0.8457849 0.0075343475
-0.006264247 -0.53749233 -0.044877566 0.443765 0.2092606 -0.038471818 -0.3054118 0.039649464
-0.42362645 0.0021090582 0.05201608 0.9099291 -0.66249055 -0.031683534 0.46771988 -0.04626677
-0.024823755 -0.22797453 -0.37233824 0.028259492 0.12768331 0.14206482 -0.012299186 0.117863156
-0.0050867135 -0.17366695 0.04349661 0.061308824 0.030411914 0.13389988 -1.5622567 -0.66042656
00000000: 04b5 4b3d b3fb 12be 91d4 fe3d 87ec 2c3e
00000010: ccff a1bd 4c34 f63c 67cc e03e 71d0 aebd
00000020: 3856 663f e572 1ebf a77b b0bf c0b5 6d3c
00000030: 7d00 22bf 0969 ac3d fa86 18bd c033 213d
00000040: c63f d0bd 4c10 4a3d ac47 34bd d776 7ebe
00000050: 4a64 003d d402 353d a048 803c 8b9e 513a
00000060: db10 973e 5c95 063f cc16 ae3c d42c 48bd
00000070: b2a3 3abe 437a 4cc0 571e b23e e4e3 b4bc
00000080: 50c8 7dbd e256 063f bc03 c43c 1e6f 5c3d
00000090: c0fa 6cbe 4c72 f43c f388 143d 32d0 74bd
000000a0: 92c2 e53c d840 07bc 39c8 2cbf 86ec 863d
000000b0: db85 5b3e a3eb 833e 0003 7c3b d0c4 bf3e
000000c0: dd25 503c 7958 e73e 6024 04bc f9e8 6a3e
000000d0: 686a 5d3a 22fd 4cbd 4687 4fbc cdf7 883e
000000e0: e0ac 823d 2063 59bb 3816 783e cd9b 85be
000000f0: a0bf fc3c 0250 b8be 664a 883d 9f0c ebbe
00000100: b044 60bf 25ae b4be db85 64bd 2b25 f3be
00000110: 3ec5 633e a674 713d 8cef 163e 6e8c 743d
00000120: 782a efbc 5c8b c4bd 8741 3ebf 4a86 30bd
00000130: a26a 003d d029 a23d 36fb 593d 0c9e 22be
00000140: bb68 5ebd c081 6fbf 78ad 8e3c c5d6 773e
00000150: 3a24 b7bf 325e 42bd 7c34 96bc c6a3 00be
00000160: 3c87 313e 04b8 a23d e5b6 ec3c c10a d33e
00000170: 1e47 c2be f94b 41bd b673 2bc0 18b3 44bf
00000180: 24c2 9e3d d4df 09be b0ab 193c c63b 6b3d
00000190: d851 753e f4be 85bd c3aa 17be 6954 37bf
000001a0: feb9 4c3e e8cc 59bc 1ca1 c33c 02d4 003d
000001b0: 1638 99bd ce48 903e 9c45 cfbc 38b4 34c0
000001c0: b412 91c0 28c3 02bd d6ac 30bf 179f 3cbe
000001d0: 40df 71bd 568c 2d3d 1659 8dc0 e985 75be
000001e0: 7655 293d 38bf 09bd eafb 363e 2704 f13d
000001f0: 409d 3d3b e44d 933c 2e29 a8be b657 3ebe
00000200: e017 9dbc 0804 2ebe 2045 a0bb 604a e43d
00000210: 4292 45bf 6ee6 b93e 7ce8 c8bf 9389 b3bd
00000220: fa61 27c0 a634 87be a870 87bf d0cd 5fbd
00000230: 6e6e dbbd 4ee9 62bb faf7 2b3d 20f4 74be
00000240: b0d1 d73c f26b 6bbd aeac 9bbf 89c0 b5bf
00000250: d3bf d93e c0d7 8c3a 751a 96bd a19f 443e
00000260: 7034 19bc 72b4 1ebf 51e6 04be 6b5b c4be
00000270: 72a5 f5bd 2251 23bd 663a cebd 318d 1a3e
00000280: d47c 5f3d a44e c2bd a419 a7bc 1a86 d5be
00000290: 17d0 8a3e b40d 91bc b942 05bd 8e26 2d3d
000002a0: d88f 6b3d 609c 2cbb ba94 f7be 5664 83bd
000002b0: 401b afbc fb13 3e3e ac77 74be f0cd 883e
000002c0: 827d 48bd ac0e 2abf 3524 9b3d f35c 71be
000002d0: aed8 c1bd 5682 34bf 9b91 4fbe 58ce bcbc
000002e0: 4fda 6dbe 22ba 5d3d 98be 07bc 40d8 00bd
000002f0: ea0f 553d 54c7 bc3d 0400 ee3e 30f3 6a3c
00000300: 2085 c73c d827 18bc 82c1 d03c 09d7 d03c
00000310: 9f83 9b3d 2593 08be a0bb 03be a470 b8bc
00000320: 9a10 2fbf e019 20bc d4fc 053e d2b1 c0bd
00000330: e048 893b 240d 5e3e 0c83 9bbc 6ae1 403d
00000340: a200 0e3d 2f7d aabe 8137 a23c fff7 2bbb
00000350: 947d 1f3d e316 a6bf c061 e0bb 002f c5bb
00000360: a827 51bf 6e5f 6f3d 1c5c 2fbd 9921 8cbe
00000370: 54e3 37bd d462 a43c 5c85 58bf b0e2 f63b
00000380: 5044 cdbb 1999 09bf 8ad1 37bd 2b35 e33e
00000390: 6948 563e a094 1dbd ef5e 9cbe 7a67 223d
000003a0: 91e5 d8be 2038 0a3b d00e 553d 1df1 683f
000003b0: fb98 29bf 98c6 01bd fb78 ef3e 3a82 3dbd
000003c0: 305b cbbc 2872 69be 1ea3 bebe 7380 e73c
000003d0: 6abf 023e 7179 113e 8682 49bc 3d62 f13d
000003e0: 72ae a6bb c0d5 31be 8029 323d f61e 7b3d
000003f0: 6822 f93c 0d1d 093e 07f8 c7bf b711 29bf

net.2.bias f4 [256]
-0.04241963 -0.2049798 -0.25764015 -0.26657513 -0.040145785 -0.024485365 -0.05492109 -0.017439144
0.4278889 0.062296167 -0.04088996 0.012101108 -0.009281025 0.43161973 0.18310198 0.33029392
-0.046645008 0.34980807 -0.3725207 -0.07030273 0.087022886 -0.05619409 0.0009902653 0.20467487
-0.012651795 0.0029992089 -0.052043635 -0.2215885 -0.05789137 -0.045875356 0.026783476 -0.043139808
-0.04436939 -0.46188205 -0.005208119 0.008220761 0.27622858 0.4011898 -0.0006013109 -0.03434558
-0.11304399 -0.03385904 0.017935509 0.0065606725 -0.2509545 -0.014643196 -0.020650411 -0.17206651
-0.11271403 -0.017695118 -0.009290275 -0.06143537 0.41589376 0.03376545 -0.26873875 -0.05715687
0.14848484 -0.07098043 0.35568425 -0.25648668 0.41876233 0.13517025 0.08086415 0.36646998
0.070910394 0.01755541 -0.15048684 -0.05439976 -0.047115285 0.11784574 0.13387336 0.118335344
-0.16885878 -0.33055237 -0.058260053 -0.035443287 -0.0026934855 -0.3129494 -0.041460592 0.077677414
-0.0080836965 -0.052777067 0.29578602 -0.059636068 -0.04216834 0.51518697 -0.053503543 -0.17699037
-0.026338844 -0.043949604 -0.06438537 -0.011890714 -0.12568769 -0.03192809 -0.17064437 0.003859154
-0.21597043 -0.009976004 -0.03411066 0.1790748 -0.02173447 -0.27093235 0.020153146 0.3162818
0.02799695 -0.06490959 0.01578249 -0.039673574 0.11360068 -0.06265624 -0.037107024 -0.03534291
-0.021146612 -0.03645127 -0.14304419 0.0142039005 -0.067951 -0.011723177 0.16332401 -0.01640772
-0.049641717 -0.24910176 0.0029100203 0.019437363 -0.046144005 0.1419269 0.004975644 -0.0012379336
0.005715899 0.0062050414 -0.033403154 0.36560473 -0.0038191886 0.084059425 -0.037902027 0.0011793216
-0.062171776 0.006087875 -0.013496353 0.057582956 -0.05749471 0.5232246 -0.020155085 -0.04197165
-0.019328695 0.0005057785 0.017529396 -0.01875682 0.059614282 -0.23055336 -0.12029421 -0.20901608
-0.12505284 -0.06253031 -0.04814657 0.010259855 0.21675608 -0.038055424 0.11428646 -0.19676456
-0.018641153 -0.049423352 -0.04228339 -0.00924581 0.026503071 -0.057892237 -0.050809674 0.2681355
-0.029975982 0.020970784 -0.0555177 -0.031546146 -0.10397659 -0.06820319 0.12519604 -0.052392572
-0.04498515 -0.03483742 0.006244575 -0.08578282 -0.00239367 0.08055722 -0.05138591 -0.048332497
0.011818165 -0.02012378 -0.049818013 0.00816037 -0.03507726 0.023597427 0.03797146 -0.042660214
0.16660215 -0.01452667 -0.049412727 -0.055141058 -0.025943171 0.00946392 -0.06159968 -0.024811972
0.003744628 0.18303473 -0.09354887 -0.06203456 0.2137136 0.4632527 -0.03397166 0.0004605912
-0.021822926 0.17044844 0.011679552 0.20012246 0.013859756 0.01849254 -0.01715023 -0.05407274
0.3162379 -0.02631674 -0.03764303 -0.01216906 -0.069274485 -0.27513677 -0.042025592 -0.0506797
0.029278817 0.3465005 -0.032439906 -0.067906 0.21241362 -0.10436691 -0.025898663 0.06298899
-0.07378861 -0.022518132 -0.0088592945 -0.05924873 -0.020272493 0.031346016 0.010914738 -0.023574049
0.015819373 -0.060507786 0.10375426 -0.017212953 -0.0035861426 -0.018933358 -0.104697116 -0.056461632
0.008808202 -0.038573235 -0.0053950846 0.0029351467 0.017398931 0.18493854 -0.0507199 -0.035270773
00000000: 35c0 2dbd 3ae6 51be 69e9 83be 897c 88be
00000010: e86f 24bd 8895 c8bc f0f4 60bd 89dc 8ebc
00000020: 4114 db3e 442a 7f3d 3b7c 27bd ba43 463c
00000030: 710f 18bc 43fd dc3e 167f 3b3e 491c a93e
00000040: d60e 3fbd 0b1a b33e 08bb bebe e1fa 8fbd
00000050: 0e39 b23d c62b 66bd cacb 813a 4a96 513e
00000060: 7949 4fbc 608e 443b b52b 55bd 19e8 62be
00000070: 801f 6dbd cce7 3bbd 0569 db3c 5eb3 30bd
00000080: adbc 35bd ce7b ecbe dea8 aabb 5fb0 063c
00000090: d56d 8d3e c068 cd3e 4ba1 1dba f3ad 0cbd
000000a0: 9c83 e7bd c7af 0abd 7ded 923c e9fa d63b
000000b0: 1c7d 80be 04ea 6fbc 0d2b a9bc 3432 30be
000000c0: 9dd6 e6bd 5af5 90bc 3d36 18bc a8a3 7bbd
000000d0: 07f0 d43e a44d 0a3d 2098 89be 521d 6abd
000000e0: 690c 183e 305e 91bd 3f1c b63e 3952 83be
000000f0: 0468 d63e 126a 0a3e 1a9c a53d f4a1 bb3e
00000100: 7839 913d 5dd0 8f3c 3919 1abe 48d2 5ebd
00000110: f5fb 40bd 1b59 f13d 1916 093e cd59 f23d
00000120: 51e9 2cbe 293e a9be 18a2 6ebd fb2c 11bd
00000130: 3085 30bb e73a a0be 95d2 29bd 5615 9f3d
00000140: 7b71 04bc c42c 58bd 4471 973e f344 74bd
00000150: b6b8 2cbd 4be3 033f 8826 5bbd f73c 35be
00000160: 8fc4 d7bc 8004 34bd 7adc 83bd 45d1 42bc
00000170: 46b4 00be 07c7 02bd 66bd 2ebe dce9 7c3b
00000180: 5a27 5dbe 6572 23bc 9fb7 0bbd 625f 373e
00000190: 7d0c b2bc a5b7 8abe 3618 a53c b0ef a13e
000001a0: dc59 e53c 52ef 84bd 484a 813c c280 22bd
000001b0: 79a7 e83d ea51 80bd 89fd 17bd bac3 10bd
000001c0: a93b adbc ed4d 15bd 2d7a 12be 7ab7 683c
000001d0: e529 8bbd 9112 40bc 693e 273e 7c69 86bc
000001e0: 1d55 4bbd 8814 7fbe 0ab6 3e3b 1b3b 9f3c
000001f0: 7f01 3dbd 4955 113e ba0a a33b 2942 a2ba
00000200: 704c bb3b a953 cb3b bfd1 08bd 8b30 bb3e
00000210: 5a4b 7abb 5927 ac3d 283f 1bbd 7793 9a3a
00000220: d5a7 7ebd cc7c c73b cf1f 5dbc 1bdc 6b3d
00000230: 937f 6bbd 0cf2 053f 471c a5bc 77ea 2bbd
00000240: 3657 9ebc 3896 043a cf99 8f3c e7a7 99bc
00000250: 1b2e 743d 2e16 6cbe d05c f6bd 5008 56be
00000260: da0d 00be e40f 80bd 5635 45bd f318 283c
00000270: 4ef5 5d3e 01e0 1bbd 050f ea3d a67c 49be
00000280: 55b5 98bc 2470 4abd 5931 2dbd bd7b 17bc
00000290: f81c d93c 6920 6dbd ce1d 50bd 0e49 893e
000002a0: 3190 f5bc ecca ab3c 8766 63bd 8836 01bd
000002b0: aef1 d4bd 1dae 8bbd 6433 003e 9899 56bd
000002c0: 5942 38bd afb1 0ebd 4b9f cc3b e7ae afbd
000002d0: 1edf 1cbb 2ffb a43d 087a 52bd 4cf8 45bd
000002e0: faa0 413c a0da a4bc f90d 4cbd 13b3 053c
000002f0: 2cad 0fbd 644f c13c f687 1b3d 7abc 2ebd
00000300: c199 2a3e 4501 6ebc 0065 4abd 97db 61bd
00000310: c686 d4bc 8f0e 1b3c f24f 7cbd 7a42 cbbc
00000320: 6f68 753b 756d 3b3e 8d96 bfbd f317 7ebd
00000330: bdd7 5a3e 752f ed3e de25 0bbd 817b f139
00000340: fec5 b2bc 098a 2e3e 975b 3f3c e7ec 4c3e
00000350: 0814 633c ab7d 973c a47e 8cbc 617b 5dbd
00000360: efe9 a13e 3496 d7bc 942f 1abd bd60 47bc
00000370: c8df 8dbd bade 8cbe 0723 2cbd 8495 4fbd
00000380: 21da ef3c 8368 b13e b5df 04bd 4d12 8bbd
00000390: f582 593e 52be d5bd 6f29 d4bc 5f00 813d
000003a0: 7c1e 97bd f277 b8bc 9326 11bc ccae 72bd
000003b0: 8012 a6bc ae64 003d bbd3 323c 5d1e c1bc
000003c0: a197 813c 03d7 77bd 1d7d d43d 2e02 8dbc
000003d0: 7d05 6bbb 211a 9bbc 716b d6bd 5044 67bd
000003e0: 4750 103c f8fe 1dbd 40c9 b0bb 975b 403b
000003f0: 3488 8e3c 8760 3d3e abbf 4fbd 1678 10bd

net.4.weight f4 [4, 256]
-0.6657333 -0.5731986 1.1227354 0.47511265 0.043708358 -0.0042443266 -0.010434099 0.02043622
-0.04261007 -0.3288452 -0.02922882 -0.012110997 -0.020923655 -0.1695238 -0.05501233 0.44161618
-0.0479288 -0.019560127 -0.56875396 0.00722198 0.03424544 0.34659758 0.02204059 0.34261033
0.015190136 0.016331086 0.5347395 0.44109526 -0.033434287 0.0578139 0.021008939 -0.023596209
0.025036748 -2.2943344 -0.026892278 0.0154596595 5.2455344 -0.12879555 0.0441522 -0.03881997
-0.31973034 0.01322526 -0.018462889 0.0071801376 -0.3708574 -0.020820163 0.01611996 2.3598475
-0.14710616 0.037824772 0.029916815 -0.035551887 -0.099171326 -0.60925746 2.2167747 0.050107412
-0.11233722 -0.4447958 0.11008889 -1.2900416 0.1962037 1.8887697 -0.06403799 1.1714962
-0.4631785 -0.06755472 -0.39665312 0.04629196 4.261677 -0.4938019 -0.045013174 0.061704714
2.323751 -3.3528504 -0.048781622 -0.88766474 -0.034450267 2.9187858 -0.025441246 -5.098321
0.03527914 0.041668497 0.51624376 0.0052879704 0.014144996 0.93528444 0.025363563 -0.20744628
0.01715085 -0.03760475 0.033690386 -0.016178543 -0.12401197 -0.014388145 0.012134521 0.06702449
-0.13056129 1.3211305 0.0025661078 -0.002764118 -0.03868693 0.19222283 -0.012862129 -0.27362472
-0.5801905 -0.5484155 0.069903255 -0.0062835803 0.7090365 -0.047889523 -0.03414337 -0.04154258
-0.0072194193 0.0045026997 -0.6334516 0.019974956 0.023828896 0.0042707194 0.14651206 -0.0058189053
-0.056215543 4.257971 -0.028392237 0.01228468 0.019653412 -0.44201186 0.04181661 0.05178892
0.05478445 -0.016124697 -0.027989993 -0.06588445 -0.050567176 -0.33120936 0.0011617094 -0.0013810473
-0.01398587 0.0122410385 -0.011706976 -1.0986568 0.036992285 0.12443517 -0.0011870604 0.017156009
0.022224616 0.05788622 -0.02989179 -0.036548417 -0.09307195 -3.0013642 0.1247528 -1.9278629
-0.19147865 0.01459158 0.046717234 -0.6724775 0.2342032 0.058535017 -1.2031201 0.6497244
0.012584358 0.042563803 0.8092676 0.099115096 -2.6844041 0.03721035 0.0008465871 -2.4450967
0.019244833 0.042742684 0.009624483 0.05336094 -0.16496703 -0.01948944 1.7910049 -0.00078476995
-0.0067637363 -0.0196746 -0.011984565 0.47518528 -0.04075959 -0.4727905 -0.030537196 0.032131195
-0.045189 -0.027917365 -0.0070254835 0.009883323 0.033530947 0.014363021 0.9503208 -0.018346483
-2.2916224 -0.0044604917 0.040784936 0.031737484 -0.0006023443 0.05230039 -0.016893502 -0.30459058
0.042177204 -0.16867615 0.15046598 -0.010158003 0.10193222 -1.2962347 0.027271912 0.012776864
-0.004935315 -0.07461842 0.044349022 0.07382049 -0.0007915863 0.41520303 -0.03061908 -0.023735758
1.2083961 0.0146303605 -0.010285676 -0.018109415 0.013297824 -0.8295116 -0.0145658385 0.0027902266
-0.03672782 0.95397097 0.02162189 0.029620625 -0.20859899 -0.09936574 -0.039788604 -0.009243748
0.022667196 0.0033835352 -0.023678547 0.015388481 0.0021174834 -0.041503318 0.024726082 0.020254048
-0.042703673 0.041234348 0.07046427 -0.033059116 0.033273347 -0.041999437 0.10824696 0.0017923196
-0.00851297 0.017348029 0.01334253 -0.03903519 0.030891642 -0.57845175 0.039789427 0.06115233
00000000: 7f6d 2abf 25bd 12bf cbb5 8f3f f741 f33e
00000010: 8907 333d fe13 8bbb c8f3 2abc dc69 a73c
00000020: e687 2ebd 665e a8be 4771 efbc 346d 46bc
00000030: 1668 abbc a697 2dbe 9c54 61bd 841b e23e
00000040: fd50 44bd 8f3c a0bc dc99 11bf 5ca6 ec3b
00000050: f244 0c3d 3d75 b13e 788e b43c 9f6a af3e
00000060: 0ce0 783c c5c8 853c b0e4 083f 3dd7 e13e
00000070: 64f2 08bd 45ce 6c3d f01a ac3c d64c c1bc
00000080: de19 cd3c 60d6 12c0 324d dcbc 834a 7d3c
00000090: 6bdb a740 fbe2 03be f0d8 343d b001 1fbd
000000a0: b2b3 a3be c3ae 583c 7c3f 97bc 5c47 eb3b
000000b0: 05e1 bdbe 0c8f aabc 020e 843c be07 1740
000000c0: ffa2 16be 26ee 1a3d 1c14 f53c db9e 11bd
000000d0: 561a cbbd 4cf8 1bbf a3df 0d40 6e3d 4d3d
000000e0: 0e11 e6bd 46bc e3be 4976 e13d 1520 a5bf
000000f0: 9fe9 483e 35c3 f13f 5a26 83bd 96f3 953f
00000100: bb25 edbe 215a 8abd 1e16 cbbe a39c 3d3d
00000110: a85f 8840 9ad3 fcbe bc5f 38bd 15be 7c3d
00000120: 56b8 1440 1a95 56c0 3dcf 47bd ff3d 63bf
00000130: b91b 0dbd 63cd 3a40 296a d0bc 7225 a3c0
00000140: dc80 103d 96ac 2a3d 8d28 043f b646 ad3b
00000150: 6ac0 673c cd6e 6f3f 3fc7 cf3c cc6c 54be
00000160: f07f 8c3c 7007 1abd eefe 093d dd88 84bc
00000170: fdf9 fdbd 41bc 6bbc dfcf 463c 2344 893d
00000180: dcb1 05be ce1a a93f 252c 283b 3426 35bb
00000190: 3076 1ebd 10d6 443e aebb 52bc 8a18 8cbe
000001a0: 5d87 14bf f564 0cbf 7029 8f3d 7ee6 cdbb
000001b0: 6b83 353f ce27 44bd ebd9 0bbd 8d28 2abd
000001c0: e190 ecbb 628b 933b e229 22bf 85a2 a33c
000001d0: d134 c33c 64f1 8b3b 4207 163e 84ac bebb
000001e0: 4542 66bd 4c41 8840 d696 e8bc af45 493c
000001f0: 3100 a13c 614f e2be e547 2b3d 9e20 543d
00000200: a965 603d f117 84bc 454b e5bc 6dee 86bd
00000210: 871f 4fbd 4694 a9be 8044 983a 4204 b5ba
00000220: fe24 65bc a38e 483c 9ece 3fbc c9a0 8cbf
00000230: 3985 173d ded7 fe3d 2397 9bba c28a 8c3c
00000240: 6610 b63c 1a1a 6d3d a1df f4bc cbb3 15bd
00000250: 829c bebd 5a16 40c0 657e ff3d 36c4 f6bf
00000260: fb12 44be 8611 6f3c 925a 3f3d 7c27 2cbf
00000270: f7d2 6f3e 6ac2 6f3d d7ff 99bf 5754 263f
00000280: a02e 4e3c 6257 2e3d 292c 4f3f dbfc ca3d
00000290: 47cd 2bc0 e169 183d 80ed 5d3a 777c 1cc0
000002a0: 57a7 9d3c f412 2f3d 02b0 1d3c 0091 5a3d
000002b0: 1eed 28be 51a8 9fbc a63f e53f 05b9 4dba
000002c0: 55a2 ddbb a02c a1bc e95a 44bc 7c4b f33e
000002d0: 87f3 26bd 9911 f2be 2429 fabc 009c 033d
000002e0: 1a18 39bd f5b2 e4bc 0736 e6bb a9ed 213c
000002f0: bf57 093d e052 6b3c 3948 733f 5d4b 96bc
00000300: f1a9 12c0 5129 92bb 1b0e 273d 2aff 013d
00000310: a4e6 1dba ef38 563d 3e64 8abc 4cf3 9bbe
00000320: 01c2 2c3d 71b9 2cbe c113 1a3e c16d 26bc
00000330: d7c1 d03d 05eb a5bf 5869 df3c 0d56 513c
00000340: 6cb8 a1bb 8bd1 98bd 52a7 353d 322f 973d
00000350: 7582 4fba 7e95 d43e ddd4 fabc 7e71 c2bc
00000360: b9ac 9a3f 2eb4 6f3c 4185 28bc 325a 94bc
00000370: 1edf 593c df5a 54bf 8ea5 6ebc 3cdc 363b
00000380: e96f 16bd 7137 743f 6420 b13c f4a6 f23c
00000390: f99a 55be 4480 cbbd 60f9 22bd 1773 17bc
000003a0: 8eb0 b93c 4dbe 5d3b 83f9 c1bc f81f 7c3c
000003b0: 7ac5 0a3b 62ff 29bd 5a8e ca3c d1eb a53c
000003c0: 0cea 2ebd 59e5 283d 924f 903d ff68 07bd
000003d0: a249 083d 9a07 2cbd 95b0 dd3d 44ec ea3a
000003e0: fc79 0bbc 741d 8e3c a09a 5a3c 5de3 1fbd
000003f0: 7810 fd3c 6a15 14bf 3dfa 223d de7a 7a3d

net.4.bias f4 [4]
0.11753392 -0.04300199 -0.52900106 -0.6935634
00000000: a0b5 f03d db22 30bd 9d6c 07bf 5f8d 31bf
