logs/PointMaze-Right/airl_sac/seed0-20231226-1522/model/step5000/actor.pth (torch, 276359 bytes, 6 tensors)

net.0.weight f4 [256, 6]
-0.0030564817 0.21900219 -0.3360068 -0.30044585 -0.15723862 0.109474786 -0.020905295 0.3602769
-0.036229607 0.093733765 -0.14403541 -0.080247484 -0.40723464 -0.28171375 -0.16828938 0.0055793277
0.14679836 0.24495828 -0.28595132 -0.17266999 0.14828277 0.32864675 -0.09437708 0.30549702
-0.08667208 -0.022134133 0.36965913 -0.40087545 -0.27556548 -0.10335428 -0.15913516 0.35272685
-0.26461825 -0.1879301 -0.28521878 -0.38234943 -0.23462115 0.40705305 0.18216789 0.20380571
0.020649485 -0.20930217 0.042663097 -0.4185517 -0.29498646 -0.23873268 0.23238611 0.23936465
-0.14299937 0.034307215 0.26109958 0.4337176 0.18674754 0.05515143 0.2484407 -0.26218405
0.07607463 -0.33263674 -0.3061152 -0.21089436 0.17489433 0.18141267 -0.2418269 0.1116092
0.21517438 -0.051528025 0.015587551 0.094593056 0.25326768 0.3919976 -0.31460577 -0.14961065
0.16057432 0.40028045 0.35526067 0.36319777 0.09776042 -0.35500565 0.038300045 -0.23330022
-0.3804687 0.36330587 0.3034072 -0.4072391 0.07641268 -0.068773516 -0.06718181 -0.18687847
0.1569944 -0.24180691 0.13729672 0.21216144 0.29225335 0.13884152 -0.417023 -0.2648294
0.18360583 0.06245447 -0.31846797 -0.25974992 0.3616042 0.275085 -0.17800653 -0.102749884
-0.38889655 -0.0073379115 -0.30743504 -0.31490508 -0.022494322 0.061296463 -0.16719005 0.24224539
-0.24843507 0.3704323 0.26850572 -0.39086276 -0.1016066 0.012321987 0.051078763 0.096825995
0.16020818 0.024454141 -0.19919609 0.19317861 -0.39161173 -0.2419715 -0.10219674 -0.19886321
-0.14281888 -0.33460915 -0.0868406 0.08726571 -0.2659598 -0.020951042 0.29224488 -0.04196803
0.011346125 -0.035219133 0.079254895 0.2772206 0.38671166 0.25633237 0.3886702 -0.029525192
-0.36305416 -0.17975014 0.2779784 0.0515315 -0.14492147 -0.31284547 -0.40172723 -0.35210782
-0.08280776 0.20823976 0.19069305 -0.3937277 0.25465795 -0.31945816 -0.08630789 -0.16553351
-0.07863486 -0.08015658 -0.3663416 -0.35249704 -0.063882485 0.005279541 -0.18545696 0.15378681
-0.37684998 -0.015688278 0.35902148 -0.17843413 0.35380614 0.14784867 -0.36415002 0.25125048
-0.047109596 -0.18903722 0.31926855 -0.3299035 0.022956032 -0.12607431 0.2915353 0.09681617
0.17889266 0.14417654 -0.09817339 -0.08585685 -0.33642983 0.22120695 0.32414022 0.27933362
-0.2879695 0.01820783 -0.28778815 -0.22473423 -0.23788853 0.13951683 -0.23260532 0.06422317
0.01717424 0.26658437 -0.3126596 -0.28026745 -0.2370541 0.28574663 -0.14675097 0.34435284
0.14762567 0.051694855 -0.00303901 -0.080703154 0.051221423 -0.09322133 -0.0028685296 0.052089643
-0.35157394 -0.25574544 0.32965755 -0.35543388 -0.049119417 0.40385503 0.14747441 0.011558751
-0.35379204 0.20223719 -0.2907874 -0.115887105 -0.13196898 -0.05470812 0.004465537 0.33014438
0.04438234 0.36566508 0.24973057 -0.25810027 0.18310103 -0.28858912 -0.17302589 0.12007509
0.12824422 0.30487335 -0.13142161 -0.013169288 0.18977572 -0.39481375 0.2951556 -0.33758968
0.0056266827 -0.06940906 -0.21501334 0.053958602 0.33414623 -0.11571441 -0.24237461 -0.15098608
00000000: 414f 48bb 1c42 603e 1509 acbe 0ad4 99be
00000010: 2903 21be 5134 e03d 9541 abbc 3776 b83e
00000020: 7f65 14bd 7df7 bf3d 057e 13be cb58 a4bd
00000030: 0f81 d0be c93c 90be 0d54 2cbe cbd2 b63b
00000040: 4f52 163e 58d6 7a3e 3668 92be 67d0 30be
00000050: 70d7 173e 6344 a83e c548 c1bd 1b6a 9c3e
00000060: 2281 b1bd a452 b5bc f643 bd3e 8c3f cdbe
00000070: eb16 8dbe 69ab d3bd 54f4 22be 9d98 b43e
00000080: 0b7c 87be c070 40be 3208 92be 4ec3 c3be
00000090: 8740 70be 4269 d03e 388a 3a3e 72b2 503e
000000a0: 1c29 a93c 4f53 56be 80bf 2e3d 694c d6be
000000b0: 7708 97be 5776 74be a0f6 6d3e 021c 753e
000000c0: 6d6e 12be b985 0c3d d8ae 853e 3c10 de3e
000000d0: bf3a 3f3e 77e6 613d 3d67 7e3e fd3c 86be
000000e0: 04cd 9b3d 5d4f aabe 22bb 9cbe b1f4 57be
000000f0: 8017 333e 3ec4 393e 79a1 77be 5d93 e43d
00000100: ac56 5c3e 0d0f 53bd ed62 7f3c 01ba c13d
00000110: 4dac 813e e9b3 c83e 0214 a1be 8933 19be
00000120: 986d 243e 8ff1 cc3e bae4 b53e 0ff5 b93e
00000130: 9d36 c83d 4dc3 b5be 82e0 1c3d 41e6 6ebe
00000140: cbcc c2be 3a03 ba3e 3058 9b3e a581 d0be
00000150: 407e 9c3d 21d9 8cbd 9e96 89bd 125d 3fbe
00000160: 24c3 203e 3b9c 77be 8397 0c3e d940 593e
00000170: 3ba2 953e 792c 0e3e 0a84 d5be b897 87be
00000180: 2b03 3c3e 42d0 7f3d 3c0e a3be f1fd 84be
00000190: 3024 b93e f1d7 8c3e 5847 36be 886e d2bd
000001a0: 731d c7be dd72 f0bb 2068 9dbe 3d3b a1be
000001b0: 0346 b8bc 0012 7b3d de33 2bbe 2d0f 783e
000001c0: c365 7ebe 4da9 bd3e 9579 893e 2a1f c8be
000001d0: 1f17 d0bd 29e2 493c f737 513d b54c c63d
000001e0: 9d0d 243e 0d54 c83c 0ffa 4bbe 9dd0 453e
000001f0: 5581 c8be 60c7 77be 864c d1bd cca2 4bbe
00000200: 1d3f 12be e451 abbe 7cd9 b1bd 5db8 b23d
00000210: e22b 88be 85a1 abbc 1fa1 953e abe6 2bbd
00000220: 19e5 393c f041 10bd 6450 a23d dcef 8d3e
00000230: 12ff c53e ff3d 833e c8ff c63e d1de f1bc
00000240: 3ce2 b9be 6c10 38be 2f53 8e3e b212 533d
00000250: 4b66 14be 482d a0be 31af cdbe 7a47 b4be
00000260: 1d97 a9bd ce3c 553e 0a45 433e ad96 c9be
00000270: 8762 823e 0590 a3be 31c2 b0bd 9e81 29be
00000280: 500b a1bd 2229 a4bd 2091 bbbe 7e7a b4be
00000290: d2d4 82bd 0000 ad3b 6ee8 3dbe 4a7a 1d3e
000002a0: 7bf2 c0be b484 80bc aad1 b73e 70b7 36be
000002b0: 1426 b53e a465 173e df71 babe e7a3 803e
000002c0: fef5 40bd f992 41be 2b77 a33e 1de9 a8be
000002d0: 4a0e bc3c a019 01be 1d44 953e 8e47 c63d
000002e0: a32f 373e 04a3 133e 210f c9bd b7d5 afbd
000002f0: 8840 acbe 1384 623e b5f5 a53e d104 8f3e
00000300: bd70 93be 9628 953c f858 93be bb20 66be
00000310: 0d99 73be 80dd 0e3e 1730 6ebe 7087 833d
00000320: feb0 8c3c bf7d 883e eb14 a0be 377f 8fbe
00000330: 4fbe 72be 624d 923e e345 16be 044f b03e
00000340: 2f2b 173e fcbd 533d 212a 47bb b247 a5bd
00000350: 8ecd 513d d3ea bebd f1fd 3bbb f35b 553d
00000360: 8001 b4be 11f1 82be e0c8 a83e 6efb b5be
00000370: 7131 49bd 16c6 ce3e 8803 173e ea60 3d3c
00000380: 3b24 b5be 4417 4f3e 16e2 94be 3856 edbd
00000390: e022 07be 9f15 60bd a453 923b af08 a93e
000003a0: 42ca 353d 7438 bb3e 5fb9 7f3e b825 84be
000003b0: d67e 3b3e f4c1 93be b32d 31be eee9 f53d
000003c0: 7452 033e 5c18 9c3e 6393 06be ffc3 57bc
000003d0: 9154 423e 0725 cabe a31e 973e 8ed8 acbe
000003e0: 0960 b83b 5626 8ebd 752c 5cbe b203 5d3d
000003f0: 3715 ab3e adfb ecbd 0d31 78be 189c 1abe

net.0.bias f4 [256]
-0.13574518 0.11089182 0.16598688 -0.024885494 0.37043852 -0.28256205 0.15570712 0.34250593
-0.046265256 0.300947 -0.0022127614 -0.30571464 -0.20745814 0.14494744 -0.17666902 0.08522313
0.37936553 0.13867396 -0.03820787 0.09355829 -0.2352097 -0.3430319 -0.3068801 -0.34148818
0.1418016 0.04949676 -0.17349246 -0.39932832 0.20630689 -0.23910964 -0.08542966 -0.34230882
-0.23031662 0.16624881 -0.38037595 -0.23279938 0.2862712 -0.20936963 -0.17648119 -0.11462541
0.15410925 -0.26779848 0.037417583 0.14496197 -0.047252595 0.12036509 -0.31143123 0.19259818
0.12427809 -0.05385383 -0.3375684 0.16996485 0.25515646 -0.071405865 0.17932099 0.17631729
-0.14159836 -0.048547205 0.3913771 0.0596146 -0.325012 -0.040264983 0.17609258 -0.12673025
-0.21379292 0.31125218 0.18899794 -0.072385184 0.00023605228 -0.043177452 0.08068327 0.014508944
-0.24704532 0.11254079 0.03029755 0.024086481 -0.1555785 0.08012324 -0.3301284 0.103565425
0.18976712 -0.043138996 -0.31712735 -0.013464798 -0.0010970277 -0.35281014 -0.28875205 0.3573704
0.29453796 0.23070453 0.2550812 0.1584269 0.20435248 0.24330725 -0.08791161 -0.053749155
0.27074847 0.01160279 -0.26564166 -0.30446795 0.23254915 0.33097327 0.28793675 0.04440872
0.28330588 -0.37482634 -0.29412776 -0.39282894 0.30717713 0.03455164 -0.18798395 0.14734644
-0.15282078 -0.26182768 0.1332448 0.06463842 -0.29235414 -0.26889762 0.20060807 0.28820768
0.03574717 -0.205057 0.18733822 0.05297842 -0.35741296 -0.26456326 0.08725427 0.23163582
-0.1311554 0.16873652 -0.2528334 0.37962478 0.2803746 0.05140094 0.1685287 0.1387368
-0.26504493 -0.016749995 0.08878672 -0.09214744 0.36728796 -0.11702406 -0.36459416 -0.1883316
-0.37888905 0.33787215 -0.18781313 -0.2572757 -0.04741519 -0.27508116 -0.21452723 0.20060836
-0.30651104 0.16997251 0.26415744 -0.016898591 0.1523996 -0.2286838 0.2981366 0.37528408
0.09701478 0.36881456 -0.40545827 -0.051763706 0.09572132 -0.35484406 0.17150587 -0.15558934
-0.14765628 -0.32391006 0.14773728 -0.2856004 -0.086632594 0.17735626 0.29221103 0.07414898
-0.15229405 -0.17757387 0.19767466 0.059538398 0.32715836 0.13752663 0.30845475 -0.32897002
0.30563563 -0.18757139 -0.10928178 0.0024435208 -0.08031515 0.053585798 0.3414471 -0.24392231
0.14615461 -0.3281109 0.06460304 0.32835618 0.26452976 0.32972103 0.20576678 -0.019809097
0.114460215 -0.17058846 0.30769733 0.19004866 -0.2988051 0.31855783 -0.006058067 -0.018147532
-0.11805793 -0.11221145 0.03363418 -0.20098573 -0.37975538 -0.22023615 -0.08375828 0.27950656
0.2661288 -0.24460292 -0.015675638 -0.12833662 -0.21839999 -0.071789406 -0.14853565 0.21523388
-0.20246588 0.05605077 -0.23038039 -0.13148697 0.31376946 -0.20042385 -0.04124392 0.37058353
0.12740183 -0.20779793 -0.24511354 -0.14845292 -0.12277168 0.1662284 -0.07248091 0.35383844
-0.22399834 -0.11590529 0.13538578 0.29067945 0.3727515 0.06563346 -0.0007032139 -0.17974079
0.21844713 -0.23664077 -0.10730633 -0.3412126 -0.39246672 0.22336824 0.032410417 0.31546858
00000000: c900 0bbe 401b e33d 77f8 293e aadc cbbc
00000010: 1eaa bd3e f9ab 90be b071 1f3e f05c af3e
00000020: a380 3dbd ba15 9a3e fa03 11bb a186 9cbe
00000030: e86f 54be 1a6d 143e b9e8 34be 7789 ae3d
00000040: 333c c23e 8c00 0e3e db7f 1cbd 7d9b bf3d
00000050: d0da 70be e1a1 afbe 631f 9dbe 8ad7 aebe
00000060: 7034 113e 1dbd 4a3d 02a8 31be c374 ccbe
00000070: 1d42 533e 28d9 74be bff5 aebd 1a43 afbe
00000080: 1fd8 6bbe 213d 2a3e a3c0 c2be f662 6ebe
00000090: 2492 923e fe64 56be 7cb7 34be bac0 eabd
000000a0: d1ce 1d3e e21c 89be 2e43 193d e970 143e
000000b0: f08b 41bd f981 f63d ea73 9fbe 7538 453e
000000c0: 8385 fe3d d595 5cbd c4d5 acbe 440b 2e3e
000000d0: dea3 823e 3d3d 92bd ec9f 373e 858c 343e
000000e0: 29ff 10be 6fd9 46bd 9462 c83e 702e 743d
000000f0: f967 a6be e5ec 24bd 9d51 343e 93c5 01be
00000100: 88ec 5abe 725c 9f3e ad88 413e af3e 94bd
00000110: cd84 7739 d7da 30bd 453d a53d ecb6 6d3c
00000120: 73f9 7cbe c97b e63d 9132 f83c 0351 c53c
00000130: f84f 1fbe a717 a43d 9706 a9be 1c1a d43d
00000140: 5052 423e 84b2 30bd 845e a2be 759b 5cbc
00000150: 24ca 8fba 88a3 b4be 4fd7 93be 41f9 b63e
00000160: aecd 963e cf3d 6c3e 019a 823e a93a 223e
00000170: c741 513e 8925 793e 010b b4bd 1328 5cbd
00000180: 8b9f 8a3e a119 3e3c 2f02 88be 39e3 9bbe
00000190: 5d21 6e3e 5475 a93e 726c 933e ebe5 353d
000001a0: 780d 913e 3de9 bfbe ea97 96be e020 c9be
000001b0: 5246 9d3e 0586 0d3d dd7e 40be fce1 163e
000001c0: 0d7d 1cbe 470e 86be 5371 083e 2661 843d
000001d0: 71af 95be f3ac 89be 346c 4d3e f58f 933e
000001e0: a06b 123d 76fa 51be 97d5 3f3e e6ff 583d
000001f0: d5fe b6be d674 87be 5eb2 b23d f131 6d3e
00000200: 9a4d 06be 44c9 2c3e 6173 81be 2e5e c23e
00000210: 428d 8f3e cb89 523d ca92 2c3e 0511 0e3e
00000220: f8b3 87be 4937 89bc d0d5 b53d ccb7 bcbd
00000230: 2b0d bc3e 4faa efbd 16ac babe 00da 40be
00000240: bffd c1be 94fd ac3e 1652 40be a4b9 83be
00000250: 6e36 42bd 70d7 8cbe 07ad 5bbe 476c 4d3e
00000260: 04ef 9cbe 460d 2e3e a53f 873e ea6e 8abc
00000270: a40e 1c3e 162c 6abe 5ca5 983e 3c25 c03e
00000280: afaf c63d 43d5 bc3e 3a98 cfbe 2e06 54bd
00000290: 8a09 c43d 1fae b5be 3c9f 2f3e d052 1fbe
000002a0: 3533 17be 8ad7 a5be 7148 173e 373a 92be
000002b0: 6e6c b1bd e19c 353e af9c 953e 6cdb 973d
000002c0: f9f2 1bbe edd5 35be 3a6b 4a3e 89de 733d
000002d0: 4d81 a73e c8d3 0c3e c8ed 9d3e c26e a8be
000002e0: 467c 9c3e b712 40be 20cf dfbd 7a23 203b
000002f0: 457c a4bd c87c 5b3d 27d2 ae3e c5c6 79be
00000300: 8ea9 153e 27fe a7be 994e 843d 4d1e a83e
00000310: 7270 873e 32d1 a83e 87b4 523e b046 a2bc
00000320: 1e6a ea3d beae 2ebe 818a 9d3e 1e9c 423e
00000330: fbfc 98be 031a a33e c082 c6bb 22aa 94bc
00000340: 5bc8 f1bd 1ecf e5bd fec3 093d 34cf 4dbe
00000350: 4c6f c2be 9685 61be 7689 abbd 7c1b 8f3e
00000360: 0942 883e 3079 7abe 326a 80bc ad6a 03be
00000370: 3fa4 5fbe 5306 93bd bb19 18be 4566 5c3e
00000380: 3753 4fbe 7e95 653d d6e8 6bbe 85a4 06be
00000390: 64a6 a03e e93b 4dbe 62ef 28bd 20bd bd3e
000003a0: a075 023e fbc8 54be 0bff 7abe 0b04 18be
000003b0: b86f fbbd c737 2a3e df70 94bd 502a b53e
000003c0: d25f 65be c15f edbd 92a2 0a3e f0d3 943e
000003d0: 49d9 be3e d66a 863d e357 38ba f80d 38be
000003e0: 9bb0 5f3e f551 72be 6cc3 dbbd 6bb3 aebe
000003f0: 66f1 c8be a5ba 643e c9c0 043d 1985 a13e

net.2.weight f4 [256, 256]
0.049733177 0.032797076 0.025012143 -0.016219832 0.033194482 0.030054234 0.021636128 -0.0018041804
0.009335607 0.00027730316 -0.045357846 0.014508665 -0.045946583 0.030325085 -0.0372381 -0.020415656
-0.029640824 0.04933195 -0.044013664 0.031913355 0.031345643 0.04419215 0.01565963 0.034071796
0.049406253 0.012311012 0.021251105 -0.048870876 -0.016764365 0.0056669936 0.0075723976 -0.022081323
-0.06195861 -0.01625377 0.023927562 0.053816907 -0.056439325 0.029839657 -0.059304617 -0.059768863
-0.039140284 -0.008255206 0.017455868 -0.047531947 0.0481525 0.056519 0.0038453937 0.050873995
-0.028294712 -0.02472467 -0.008065313 0.006829083 -0.043599144 -0.050046094 0.024689585 0.018020421
0.061141804 -0.025482059 0.022071272 -0.025221154 0.030853093 -0.0034621954 0.04633175 0.034723043
0.052021727 0.03211847 0.0023481175 0.053860776 -0.036711365 0.058949135 0.06107419 0.059704237
-0.029195055 -0.03311614 0.003954269 0.019462362 0.031351693 0.02541893 0.05321809 -0.015658759
-0.020504594 0.020950012 0.0174167 -0.03645798 0.0060452893 -0.047453113 -0.018335573 -0.024529569
0.05478646 -0.056260854 -0.036901563 -0.06116437 0.015762836 -0.04810556 0.020221293 -0.043413192
-0.040036306 -0.031929724 0.009379312 0.05743005 0.058544517 -0.0047218576 -0.061218552 -0.020648442
-0.02381944 -0.013293482 0.023880534 0.031452186 0.027710922 0.017854266 -0.025301747 -0.00066301227
0.0079542175 -0.031924397 -0.00559102 -0.0078018084 -0.0590508 0.042370163 -0.0063189045 -0.054028735
0.04944835 -0.033629626 0.022127748 0.061982036 0.002893284 0.017981477 0.024833046 0.04723694
-0.019176424 -0.035169937 -0.004891053 0.048878193 0.0053738654 0.04342571 -0.0004646778 0.01917626
0.0021732673 0.0016966239 -0.05947622 -0.054639637 0.0051956326 0.030933358 0.041984536 0.002711825
0.026345104 0.026139818 -0.053953268 -0.05493334 -0.048459128 0.0010745451 -0.03951978 -0.020000815
-0.009350881 0.02438511 0.014491186 0.05797974 0.056374423 -0.039872296 -0.0001968965 0.010320909
0.054562405 -0.019370064 -0.024562635 -0.039591014 0.04605382 -0.01770673 -0.023407824 0.042273097
0.057510227 -0.0026338324 -0.04405663 0.05092407 -0.021375299 -0.028801553 -0.043938994 -0.030058444
-0.04894782 -0.03607589 -0.05693488 -0.012597047 0.025129698 -0.047445342 -8.728355e-05 -0.023047611
0.03023114 0.05413259 -0.008285187 -0.031456232 -0.048022762 -0.036720112 0.018045194 0.014340207
0.033658095 -0.009286843 0.032114595 -0.05568268 0.016801193 0.0606746 -0.06185615 -0.032445468
0.04001058 -0.009771794 -0.03331521 0.03812904 0.0041895956 0.0024479404 -0.018983386 0.04708997
0.034668572 0.011196353 0.009538218 0.032318324 0.03893812 -0.02563759 -0.00684759 0.027438909
-0.030286163 0.05844062 -0.04281245 0.028840438 -0.04489453 0.020066656 0.043653563 0.0075343475
-0.006264247 0.0397446 -0.044877566 -0.042166606 -0.05326853 -0.038471818 0.0016221404 -0.028340362
0.013924062 0.0021090582 0.05201608 -0.02710051 -0.017097913 0.041337125 -0.015803404 0.05983717
-0.024823755 -0.00068449974 -0.014808007 0.029159173 0.02394797 -0.033283018 0.04118385 -0.0039713904
-0.01580485 -0.0012607276 0.04349661 0.061308824 0.030411914 0.010936409 0.04078964 -0.02613549
00000000: 04b5 4b3d 3a56 063d 44e6 cc3c 74df 84bc
00000010: f0f6 073d 4c34 f63c 403e b13c 407a ecba
00000020: 60f4 183c 0063 9139 26c9 39bd c0b5 6d3c
00000030: 7c32 3cbd 506c f83c fa86 18bd bc3e a7bc
00000040: 50d1 f2bc 4c10 4a3d ac47 34bd 94b7 023d
00000050: 4a64 003d d402 353d a048 803c de8e 0b3d
00000060: 365e 4a3d 20b4 493c cc16 ae3c d42c 48bd
00000070: 6c55 89bc 30b2 b93b e021 f83b e4e3 b4bc
00000080: 50c8 7dbd a026 85bc bc03 c43c 1e6f 5c3d
00000090: ec2c 67bd 4c72 f43c 66e9 72bd 32d0 74bd
000000a0: 9051 20bd d840 07bc 9cff 8e3c dcb0 42bd
000000b0: 8e3b 453d 7880 673d 0003 7c3b 4061 503d
000000c0: 50ca e7bc 648b cabc 6024 04bc 80c6 df3b
000000d0: 0495 32bd 22fd 4cbd d041 ca3c 909f 933c
000000e0: d46f 7a3d c0bf d0bc d0ce b43c 989c cebc
000000f0: a0bf fc3c 00e6 62bb 5cc6 3d3d c039 0e3d
00000100: bc14 553d a88e 033d e0e2 193b 1e9d 5c3d
00000110: a85e 16bd a674 713d ee28 7a3d 6e8c 743d
00000120: 782a efbc caa4 07bd d092 813b 886f 9f3c
00000130: a26a 003d 5c3b d03c 36fb 593d cc46 80bc
00000140: 40f9 a7bc 5c9f ab3c 78ad 8e3c f654 15bd
00000150: 9017 c63b 325e 42bd 7c34 96bc 3cf2 c8bc
00000160: c467 603d c871 66bd 1826 17bd 7e87 7abd
00000170: 1021 813c 560a 45bd 20a7 a53c 08d2 31bd
00000180: 1cfd 23bd bec8 02bd b0ab 193c c63b 6b3d
00000190: 60cc 6f3d d0b9 9abb 4ec0 7abd ec26 a9bc
000001a0: fc20 c3bc e8cc 59bc 1ca1 c33c 02d4 003d
000001b0: 0402 e33c 1c43 923c 9c45 cfbc 00ce 2dba
000001c0: 6852 023c 28c3 02bd e034 b7bb 50a6 ffbb
000001d0: 40df 71bd 568c 2d3d d00e cfbb 3c4d 5dbd
000001e0: 5a8a 4a3d 38bf 09bd 4045 b53c e0e0 7d3d
000001f0: 409d 3d3b e44d 933c ac6e cb3c 867b 413d
00000200: e017 9dbc 5a0e 10bd 2045 a0bb 8034 483d
00000210: 4017 b03b 28df 313d 00a0 f3b9 8817 9d3c
00000220: 606d 0e3b 4061 de3a 569d 73bd d0cd 5fbd
00000230: 2040 aa3b f467 fd3c faf7 2b3d e0b8 313b
00000240: b0d1 d73c 2c23 d63c 1afe 5cbd c801 61bd
00000250: 147d 46bd c0d7 8c3a 7edf 21bd c0d8 a3bc
00000260: 7034 19bc 48c3 c73c 706c 6d3c 2a7c 6d3d
00000270: dee8 663d 2251 23bd 0076 4eb9 0819 293c
00000280: d47c 5f3d f8ad 9ebc 9437 c9bc 302a 22bd
00000290: eea2 3c3d b40d 91bc c4c1 bfbc 8e26 2d3d
000002a0: d88f 6b3d 609c 2cbb ba74 34bd c295 503d
000002b0: 401b afbc 3cf1 ebbc 60f9 33bd 203d f6bc
000002c0: 827d 48bd 50c4 13bd 8c34 69bd d863 4ebc
000002d0: ccdc cd3c 0c56 42bd 000c b7b8 58ce bcbc
000002e0: 4ca7 f73c 22ba 5d3d 98be 07bc 40d8 00bd
000002f0: 84b3 44bd d467 16bd 84d3 933c 30f3 6a3c
00000300: 12dd 093d d827 18bc 988a 033d 8613 64bd
00000310: a8a2 893c ee85 783d e05c 7dbd 8ae5 04bd
00000320: 22e2 233d e019 20bc 8875 08bd 322d 1c3d
00000330: e048 893b a06d 203b 0c83 9bbc 6ae1 403d
00000340: a200 0e3d e870 373c 3046 1c3c 3860 043d
00000350: 947d 1f3d ec05 d2bc c061 e0bb 90c7 e03c
00000360: b01a f8bc 6e5f 6f3d 1c5c 2fbd c842 ec3c
00000370: 54e3 37bd d462 a43c 14ce 323d b0e2 f63b
00000380: 5044 cdbb 3ccb 223d 8ad1 37bd e4b6 2cbd
00000390: 1a30 5abd a094 1dbd 009e d43a 0c2a e8bc
000003a0: c021 643c 2038 0a3b d00e 553d e401 debc
000003b0: ec10 8cbc 1e51 293d 2476 81bc d217 753d
000003c0: 305b cbbc 0070 33ba 489d 72bc 38df ee3c
000003d0: 882e c43c c653 08bd 66b0 283d 7022 82bb
000003e0: 2c79 81bc 003f a5ba 8029 323d f61e 7b3d
000003f0: 6822 f93c a02e 333c 0a13 273d 181a d6bc

net.2.bias f4 [256]
-0.04671909 0.006698456 0.013145953 -0.026117494 -0.013892066 -0.008788966 -0.05492109 0.0024904408
0.026557319 -0.023426883 -0.0314293 0.038271327 -0.0057002692 0.059556734 0.052634355 0.042269915
-0.037289217 -0.02992281 -0.020657599 -0.03276132 -0.056130547 -0.048995238 0.044818457 0.0022476937
0.019708846 0.03777551 -0.021930141 -0.039738372 -0.05250555 -0.03655397 0.040443886 -0.029489959
-0.03496871 0.02362981 0.028838687 0.039994955 0.008074949 0.032232735 0.026047878 -0.024592996
-0.05873405 -0.022899894 0.05128927 0.023348609 -0.02436006 0.004168226 -0.012849038 0.04716921
-0.0566742 0.0055263713 0.01768259 -0.049288712 0.034778886 0.0042740186 0.04669243 -0.049595833
0.006141899 0.024111938 -0.0005400494 0.037525345 0.035250776 0.016208677 0.005444842 -0.0021026167
-0.047147706 0.049569525 0.024274612 -0.042973544 0.037486237 0.033263102 0.047361672 -0.011032467
0.027795112 0.0018572544 -0.048805468 0.037438992 0.0062397793 -0.053421203 -0.029476017 0.03760265
0.02415169 -0.052777067 -0.0045838812 -0.0569303 -0.038165793 0.055762053 -0.042082757 0.044850044
0.0027615807 -0.034556277 -0.059763867 -0.0042892992 -0.0043865815 -0.019447256 0.023595305 0.036501534
0.010362779 -0.045051605 -0.027444538 -0.031276695 -0.0153825665 -0.020462498 0.058529858 0.03571872
0.044177648 0.033340458 0.0526393 -0.028703377 0.044535838 -0.051526483 -0.025922097 -0.019041354
-0.011875227 -0.0018813834 0.02135256 0.05011253 -0.0566959 0.015056215 -0.04247506 2.2158027e-05
-0.03230784 -0.038008977 0.015156634 0.04607684 -0.035835184 0.05031086 0.024719633 0.006608613
0.013444122 0.03138505 -0.025693238 -0.012869335 0.021042459 -0.0131990705 -0.037902027 0.002879493
-0.05296182 0.05255567 0.0026164223 0.054054826 -0.043737065 0.002929717 0.004764743 -0.033204623
0.002047085 0.013443104 0.050981212 -0.011673903 0.011908012 0.0460699 -0.03957897 -0.037067447
0.0049876766 -0.056468774 -0.041855533 -0.047892913 0.05521416 -0.037159733 0.026679229 -0.055524513
0.0107094925 -0.03615902 -0.026264064 0.04635293 -0.043484405 -0.054186214 -0.050809674 0.03082996
-0.020722456 0.045956016 -0.04430626 -0.031546146 0.040681705 -0.059163906 0.03393296 -0.038879726
-0.036356635 -0.00805264 0.04583489 0.044705156 0.021184193 0.020522395 -0.05138591 -0.047067624
0.0533847 -0.0060466425 -0.041088462 0.0275552 -0.027367944 0.049792346 0.03950949 -0.034978773
-0.027212964 -0.005794607 -0.04185441 -0.044241134 -0.004448381 0.022019098 -0.053600673 0.04302517
0.041809093 0.028570265 -0.015335635 -0.047425013 -0.028445678 0.033156708 -0.03397166 0.015256929
-0.011581212 0.03894535 0.033374384 0.011138465 0.04295366 0.0534275 -0.0086704865 -0.021875389
-0.05393971 -0.01708842 -0.02827887 -0.0028098226 -0.050288517 0.002959847 -0.03246111 -0.016224034
0.052166093 -0.062060628 -0.020973409 -0.04977087 0.046429154 0.029894562 -0.0039146915 0.024747653
-0.05953551 -0.005570066 0.008616835 -0.050003417 -0.010916725 0.049971286 0.04254175 -0.0005571158
0.06052368 -0.03556855 0.027403682 -0.0077100974 0.018224645 -0.013364792 0.04129483 -0.04346076
0.03539496 -0.021152742 0.0167231 0.02069136 0.028400049 0.0256035 -0.04073803 -0.026302047
00000000: 845c 3fbd b97e db3b 2062 573c 5bf4 d5bc
00000010: 8c9b 63bc 98ff 0fbc f0f4 60bd aa36 233b
00000020: bc8e d93c bce9 bfbc 02bc 00bd 65c2 1c3d
00000030: 53c9 babb c3f1 733d 1f97 573d 3823 2d3d
00000040: 94bc 18bd ae20 f5bc 203a a9bc bc30 06bd
00000050: 25e9 65bd 3baf 48bd 8f93 373d 0b4e 133b
00000060: 7274 a13c 7eba 1a3d d7a6 b3bc b4c4 22bd
00000070: 0f10 57bd 9eb9 15bd 7da8 253d ed94 f1bc
00000080: 5a3b 0fbd 4e93 c13c 1c3f ec3c c0d1 233d
00000090: ca4c 043c 7906 043d 5c62 d53c 4077 c9bc
000000a0: 1d93 70bd 8f98 bbbc b314 523d 9545 bf3c
000000b0: c08e c7bc 9d95 883b c584 52bc 8034 413d
000000c0: 3523 68bd 9016 b53b 14db 903c f6e2 49bd
000000d0: 4e74 0e3d 110d 8c3b 9040 3f3d 0025 4bbd
000000e0: fc41 c93b 6686 c53c 1a92 0dba 2db4 193d
000000f0: 1e63 103d 0fc8 843c a56a b23b 0ecc 09bb
00000100: f41d 41bd 6a09 4b3d 8ddb c63c 0705 30bd
00000110: 2b8b 193d e43e 083d 50fe 413d 85c1 34bc
00000120: 93b2 e33c 1e6f f33a 3ee8 47bd a159 193d
00000130: 1077 cc3b 31d0 5abd b077 f1bc 3c05 1a3d
00000140: c4d9 c53c c42c 58bd 6234 96bb bf2f 69bd
00000150: bc53 1cbd c066 643d f85e 2cbd aeb4 373d
00000160: a3fb 343b e28a 0dbd f5ca 74bd 408d 8cbb
00000170: 50bd 8fbb da4f 9fbc f14a c13c a282 153d
00000180: a5c8 293c 0888 38bd 5ed3 e0bc fe1b 00bd
00000190: 2907 7cbc f8a0 a7bc 01bd 6f3d cb4d 123d
000001a0: 9ff3 343d 0190 083d 4e9c 573d 5823 ebbc
000001b0: 366b 363d 6f0d 53bd 945a d4bc 9dfc 9bbc
000001c0: 5090 42bc c098 f6ba 90eb ae3c cc42 4d3d
000001d0: f639 68bd 58ae 763c 54fa 2dbd 00e0 b937
000001e0: 3a55 04bd 4daf 1bbd 8853 783c 12bb 3c3d
000001f0: eac7 12bd c312 4e3d d480 ca3c 108d d83b
00000200: bc44 5c3c 9c8d 003d a07a d2bc e7d9 52bc
00000210: 3c61 ac3c ea40 58bc 283f 1bbd e0b5 3c3b
00000220: 7eee 58bd 9d44 573d 4878 2b3b 9868 5d3d
00000230: a325 33bd 7f00 403b 9021 9c3b 9201 08bd
00000240: 6328 063b 7740 5c3c add1 503d e643 3fbc
00000250: d319 433c cbb3 3c3d 8f1d 22bd 09d4 17bd
00000260: aa6f a33b cd4b 67bd b570 2bbd 5c2b 44bd
00000270: 3e28 623d ce34 18bd 668e da3c ac6d 63bd
00000280: de76 2f3c 7b1b 14bd bc27 d7bc 92dc 3d3d
00000290: b41c 32bd 5df2 5dbd ce1d 50bd 1d8f fc3c
000002a0: 24c2 a9bc 603c 3c3d 7b7a 35bd 8836 01bd
000002b0: dca1 263d da55 72bd 4afd 0a3d 5940 1fbd
000002c0: b2ea 14bd 38ef 03bc 5ebd 3b3d c11c 373d
000002d0: 798a ad3c 951e a83c 087a 52bd fbc9 40bd
000002e0: eaa9 5a3d ea22 c6bb 604c 28bd 71bb e13c
000002f0: bd32 e0bc 0ff3 4b3d b4d4 213d e745 0fbd
00000300: b9ed debc b0e0 bdbb 886f 2bbd 3136 35bd
00000310: b9c3 91bb 6561 b43c 618c 5bbd 293b 303d
00000320: 0340 2b3d 300c ea3c 5142 7bbc bb40 42bd
00000330: e906 e9bc 54cf 073d de25 0bbd 33f8 793c
00000340: 20bf 3dbc 2985 1f3d 94b3 083d 1c7e 363c
00000350: 2df0 2f3d cbd6 5a3d a80e 0ebc 0434 b3bc
00000360: e3ef 5cbd 04fd 8bbc 17a9 e7bc 0025 38bb
00000370: 55fb 4dbd fef9 413b f1f5 04bd 44e8 84bc
00000380: 1dac 553d 4933 7ebd 6dd0 abbc 8adc 4bbd
00000390: 7f2c 3e3d 71e5 f43c d046 80bb 97bb ca3c
000003a0: 82db 73bd 1a85 b6bb a02d 0d3c 62d0 4cbd
000003b0: 10dc 32bc b1ae 4c3d 4240 2e3d 690b 12ba
000003c0: aee7 773d 54b0 11bd b07d e03c fca4 fcbb
000003d0: da4b 953c 00f8 5abc c524 293d e903 32bd
000003e0: 4efa 103d 8448 adbc e2fe 883c ed80 a93c
000003f0: 38a7 e83c 6ebe d13c ecdc 26bd 6477 d7bc

net.4.weight f4 [4, 256]
0.02089502 0.014187185 0.022660501 0.048548557 0.04960314 -0.009893075 -0.010434099 0.020016706
-0.02127174 -0.05575932 -0.03101334 -0.00054170855 -0.021174876 0.016811678 -0.047980193 -0.006946329
-0.04905355 -0.0032768673 -0.037508238 -0.036347844 -0.028066082 -0.014912632 -0.0076026996 0.025736371
0.037139975 0.008924673 -0.014874752 0.033068053 -0.023898048 0.058005475 0.034575056 -0.034211166
0.020452023 -0.04511903 -0.035497703 0.011862858 0.032459237 -0.050422456 0.06135551 -0.046140805
-0.046448525 0.031159326 0.012438379 0.0077142366 0.03818727 0.005909193 0.015448724 0.020905698
-0.0038412057 0.059367456 0.03932393 -0.05286859 -0.026592327 -0.04334372 0.027613794 0.06120941
-0.057080783 -0.035966136 -0.0074599 -0.053636216 -0.018173965 0.036232352 0.042322595 -0.015374814
-0.04533688 -0.0608161 0.00920382 0.0464799 0.01576692 0.0012092574 0.030599376 -0.053712275
0.045330897 -0.0046038995 -0.05208335 0.022931006 -0.03450875 0.045392845 -0.03184031 -0.020595647
0.052455947 0.041668497 0.014054458 0.014226456 0.017791655 -0.030815309 0.023416799 0.05461526
0.03137131 -0.039566077 0.039972764 -0.01923652 -0.00020550644 -0.01277253 -0.047475945 0.03123006
-0.047664084 0.014591686 0.0069816355 -0.056917857 -0.025698332 0.044781655 0.008823495 -0.047655396
0.020426534 -0.01935188 0.06512544 -0.014895208 0.017017879 -0.04765378 -0.04520928 -0.042887475
-0.0075381994 -0.01430656 0.010603818 0.03508326 0.018496295 -0.007770151 0.0048607597 -0.0046578273
-0.050384436 0.03790082 -0.032932743 0.0202065 0.02775944 -0.0327365 0.06008608 0.043305665
0.051982455 -0.009349625 -0.022865154 -0.022584718 -0.06010641 -0.047055352 0.0011617094 -0.005567029
-0.012649752 0.044804744 -0.024518153 -0.03960031 0.040072948 -0.01360166 0.015522137 0.015237339
0.033607036 0.05394845 -0.0051034405 -0.03975138 0.04037989 -0.02563841 -0.029730342 0.024498798
-0.07260818 0.0211196 0.04558639 -0.032431815 -0.04100424 0.05742607 -0.056100335 0.024987876
0.013170512 0.042569205 0.015192062 -0.03194171 -0.055733968 0.037201215 0.0008465871 0.0011932234
0.020079918 0.04895891 0.011693914 0.05336094 0.01992257 -0.025399148 0.010237499 -0.015659349
-0.010418251 -0.0025300905 -0.012058274 0.0070494097 -0.034486853 -0.053889688 -0.030537196 0.028504193
-0.035077147 -0.036634102 -0.005557783 0.031486545 0.05716828 -0.0036980798 0.016061574 -0.014125639
-0.011483536 -0.013359517 0.034125768 0.022057768 -0.008946196 0.053510953 -0.009529444 0.025708972
0.027967015 -0.016303822 0.03443957 -0.013044003 -0.046618287 -0.029476063 0.027271912 0.02936776
-0.015376897 -0.002794084 0.035528246 -0.015017917 0.013377976 -0.011538483 -0.04216814 -0.029748216
0.013801642 0.0145743 -0.008571153 -0.012571022 0.0120030185 0.05456283 -0.013503324 -0.024905853
-0.026416678 0.006065996 0.0345986 0.022282176 -0.054816287 -0.032834437 -0.04830759 0.020152505
0.038708642 0.041264 -0.016091667 0.01841826 0.001562804 -0.04838799 0.053661115 0.03713795
-0.05642581 0.05194736 0.019685945 -0.04138268 0.03878523 -0.053728543 0.03641953 -0.0030492884
-0.016910113 0.023514085 0.024039937 -0.045480102 0.041841045 -0.018225595 0.0499861 0.062339626
00000000: 082c ab3c 5e71 683c 84a2 b93c dada 463d
00000010: aa2c 4b3d 9016 22bc c8f3 2abc 13fa a33c
00000020: 1242 aebc e263 64bd b00f febc 7201 0eba
00000030: ef76 adbc a5b8 893c e186 44bd 089e e3bb
00000040: 60ec 48bd b6c0 56bb 3da2 19bd 7ae1 14bd
00000050: d7ea e5bc 1d54 74bc 1120 f9bb 15d5 d23c
00000060: 1620 183d cb38 123c 3bb5 73bc 5e72 073d
00000070: d7c5 c3bc 2697 6d3d 939e 0d3d 0221 0cbd
00000080: 008b a73c bbce 38bd 0a66 11bd 6f5c 423c
00000090: faf3 043d c787 4ebd ea4f 7b3d 24fe 3cbd
000000a0: cf40 3ebd d841 ff3c 58ca 4b3c b5c7 fc3b
000000b0: 416a 1c3d e7a1 c13b a51c 7d3c 6d42 ab3c
000000c0: bdbc 7bbb 4a2b 733d 2112 213d bc8c 58bd
000000d0: 27d8 d9bc 2f89 31bd 5336 e23c b8b6 7a3d
000000e0: 8acd 69bd 3a51 13bd 2d72 f4bb a6b1 5bbd
000000f0: 91e1 94bc 6068 143d 755a 2d3d a5e6 7bbc
00000100: 2ab3 39bd 4e1a 79bd 9ecb 163c b561 3e3d
00000110: a129 813c f27f 9e3a 8bab fa3c 6701 5cbd
00000120: e4ac 393d 4fdc 96bb 5a55 55bd ced9 bb3c
00000130: 0c59 0dbd d9ed 393d fc6a 02bd 34b8 a8bc
00000140: 0cdc 563d 96ac 2a3d ab44 663c 1516 693c
00000150: cebf 913c 6370 fcbc 96d4 bf3c 40b4 5f3d
00000160: 347f 003d 0a10 22bd 7bba 233d e895 9dbc
00000170: 377d 57b9 e043 51bc 2376 42bd 2fd6 ff3c
00000180: 6a3b 43bd f811 6f3c 34c6 e43b b322 69bd
00000190: 4f85 d2bc f86c 373d 6c90 103c 4e32 43bd
000001a0: 8c55 a73c d587 9ebc 7d60 853d 080b 74bc
000001b0: 1469 8b3c 9c30 43bd 5e2d 39bd c7aa 2fbd
000001c0: 0003 f7bb 1066 6abc a3bb 2d3c 77b3 0f3d
000001d0: 8b85 973c c09c febb 0247 9f3b b0a0 98bb
000001e0: e95f 4ebd e43d 1b3d 7ce4 06bd 1a88 a53c
000001f0: c467 e33c b516 06bd d21c 763d 4861 313d
00000200: 8eeb 543d 2b2f 19bc b44f bbbc 9603 b9bc
00000210: 2432 76bd 1dbd 40bd 8044 983a a06b b6bb
00000220: e840 4fbc 2e85 373d 4bda c8bc ef33 22bd
00000230: 8823 243d 7fd9 5ebc 9050 7e3c 08a6 793c
00000240: 88a7 093d 0df9 5c3d c33a a7bb 58d2 22bd
00000250: 6265 253d a507 d2bc 0c8d f3bc b4b1 c83c
00000260: 99b3 94bd 0303 ad3c cbb8 3a3d 39d7 04bd
00000270: 10f4 27bd 9937 6b3d 77c9 65bd 60b3 cc3c
00000280: 22c9 573c 0c5d 2e3d 20e8 783c 4fd5 02bd
00000290: 4d49 64bd 4d60 183d 80ed 5d3a ef65 9c3a
000002a0: a47e a43c 2389 483d d597 3f3c 0091 5a3d
000002b0: a834 a33c e011 d0bc 2fbb 273c 0948 80bc
000002c0: 50b1 2abc e0cf 25bb 1190 45bc bcfe e63b
000002d0: 1642 0dbd 6fbb 5cbd 2429 fabc a081 e93c
000002e0: 0ead 0fbd a40d 16bd 101e b6bb 09f8 003d
000002f0: 4929 6a3d 7c5b 72bb 9093 833c 396f 67bc
00000300: 7125 3cbc e0e1 5abc 76c7 0b3d 7eb2 b43c
00000310: 1193 12bc 4d2e 5b3d 6321 1cbc 9f9b d23c
00000320: 151b e53c 988f 85bc 8210 0d3d 84b6 55bc
00000330: d1f2 3ebd c977 f1bc 5869 df3c a894 f03c
00000340: 61ef 7bbc f31c 37bb 1186 113d b60d 76bc
00000350: 4c2f 5b3c e80b 3dbc 80b8 2cbd 88b2 f3bc
00000360: 4820 623c 0bc9 6e3c 056e 0cbc b0f6 4dbc
00000370: 4fa8 443c 467d 5f3d 0c3d 5dbc 5c07 ccbc
00000380: ca67 d8bc 43c5 c63b 43b7 0d3d 1c89 b63c
00000390: 0b87 60bd 677d 06bd 2ede 45bd de16 a53c
000003a0: f48c 1e3d 7104 293d acd2 83bc e4e1 963c
000003b0: 00d7 cc3a 7c32 46bd c2cb 5b3d f71d 183d
000003c0: c01e 67bd c1c6 543d 6b44 a13c e380 29bd
000003d0: 43dd 1e3d 7612 5cbd a52c 153d 92d6 47bb
000003e0: 1487 8abc 9ca0 c03c 67ef c43c 5849 3abd
000003f0: 8461 2b3d d84d 95bc 3abe 4c3d d657 7f3d

net.4.bias f4 [4]
0.034357972 -0.042968158 -0.030530341 -0.05387177
00000000: f2ba 0c3d 61ff 2fbd c41a fabc a5a8 5cbd
