logs/PointMaze-Right/airl_sac/seed0-20231226-1522/model/step970000/disc.pth (torch, 90839 bytes, 10 tensors)

g.0.weight f4 [100, 6]
000000 a4 5e 0a 3f a1 1f e6 3e b4 30 ab be 1c ba 22 bf
       0.5405066 0.44946006 -0.33435595 -0.6356523
000010 8b ac f9 3d 3c b9 43 be 02 1e d8 be d1 09 d4 3d
       0.12191113 -0.1911363 -0.42210394 0.10353435
000020 b9 f2 94 3e 87 ec 6f be 2f 97 2b 3e 07 70 ad 3e
       0.29091433 -0.23430072 0.1675689 0.33874533
000030 6e a0 95 bf 7a 94 a3 bd 6d 22 83 be 95 45 a9 3e
       -1.1689584 -0.07987304 -0.25612202 0.330609
000040 70 8f cd 3d 68 36 4f 3e a0 c5 90 bd c1 87 3d be
       0.10037124 0.20235598 -0.07068944 -0.18508817
000050 87 bd 65 be a8 d2 7d 3e 6e 78 b0 3e a0 a4 b4 3e
       -0.2243558 0.2478739 0.3446688 0.3528185
000060 3d c2 9b be 24 5d 7c bd 76 33 e6 bc 78 18 44 be
       -0.3042163 -0.061612263 -0.02810071 -0.19149959
000070 6a 56 80 be f9 03 ac 3e 5d 5e 07 3c 36 4b ca be
       -0.2506593 0.3359678 0.008262244 -0.39510506
000080 bb 63 0c be db b9 5b be 7a e8 a3 3c c9 fb dc 3a
       -0.13709919 -0.21457617 0.020008314 0.0016859706
000090 ff 64 99 3c 47 5e a7 be f7 5a 08 be a4 fb 8b be
       0.018724917 -0.32689115 -0.1331595 -0.27340424
0000a0 4e 81 f9 bd 79 a2 08 3e 10 d7 05 be 86 13 e1 be
       -0.12182866 0.13343228 -0.13070321 -0.43960208
0000b0 31 cc 27 3d 58 68 d2 3c c4 a4 ec 3d aa 7f 9f be
       0.040966216 0.02568452 0.11554864 -0.31152087
0000c0 9e 29 2d 3e b1 7c 81 3e ac 50 83 3e 52 dd 6d 3e
       0.16910407 0.25290444 0.25647485 0.23228958
0000d0 2e 81 19 be 05 8a e2 bd a5 fd fd 3d 8f 27 06 bf
       -0.14990684 -0.110614814 0.124018945 -0.5240411
0000e0 06 54 72 3e da e7 30 be 89 cf 5c be af 8a 86 bb
       0.23664865 -0.17275944 -0.21563543 -0.004105888
0000f0 8d 66 16 3f 95 a1 e7 3e 21 52 92 3e ea ff 22 be
       0.5875023 0.45240465 0.28578284 -0.15917936
000100 2b 18 9f 3e d5 f4 aa bd 9f ea cd 3e 49 69 01 3f
       0.31073126 -0.08347479 0.40218064 0.5055128
000110 81 d8 9a 3d 77 73 c8 be 34 d7 99 3e 53 26 1b be
       0.07560826 -0.39150593 0.30047 -0.15151338
000120 a3 8d 09 be 64 01 9d be e1 18 9a 3e 69 49 da bd
       -0.13432936 -0.30665123 0.30097106 -0.10658533
000130 79 49 ab 3e 10 96 47 3d d0 b2 b2 3e 45 11 08 bf
       0.33454493 0.048727095 0.34902048 -0.5315135
000140 9d 67 b4 be 2e 0d ec be 69 a2 20 be b4 59 15 3e
       -0.352353 -0.46103805 -0.15686955 0.14585
000150 f7 b0 31 be 4a 20 c4 3d d7 e4 85 3e 27 2a 8b 3e
       -0.17352663 0.09576471 0.26151153 0.27180597
000160 b2 83 8f bd d7 1d 80 3e 96 4f 2a 3f a7 02 42 3e
       -0.07007541 0.25022766 0.6652769 0.18946324
000170 6e 0a 78 be a5 e6 85 be fa f7 1c bd 23 b7 84 3c
       -0.24222729 -0.2615253 -0.038322426 0.016200608
000180 dc ce c5 be 29 eb 9d be 8c df 80 3e 2f ea 7f 3e
       -0.38634384 -0.30843475 0.25170553 0.24991678
000190 6c a9 95 be 15 82 a0 3e db ee 92 3e 65 e8 a7 3e
       -0.2923082 0.31349245 0.28697857 0.3279449
0001a0 bc aa 18 3d 61 e5 07 3e 4b 22 2b be 15 af b8 3e
       0.0372722 0.13271095 -0.167123 0.36071077
0001b0 e0 3e 06 bf a5 5f 07 bf e8 3a a5 3e 13 a2 c5 3e
       -0.5243969 -0.52880317 0.32271504 0.38600215
0001c0 f3 1c 81 3e 3f f7 80 3e 9c 66 10 3e fc b2 0b bf
       0.252174 0.25188634 0.14101642 -0.54569983
0001d0 a5 c9 b8 3e 1a c8 00 3f 25 47 ff 3e b6 7c 4c 3d
       0.36091343 0.5030533 0.49858966 0.04992362
0001e0 9b 54 81 3d 1c 93 8e 3d fc 54 0b be 1a 43 4a 3e
       0.06314965 0.06961653 -0.13606638 0.1975216
0001f0 e8 f1 54 3d f8 16 92 3e a0 40 f5 3e c7 98 4b 3d
       0.051988512 0.2853315 0.47900867 0.049706247
000200 52 28 c7 be a2 10 b7 3e 29 de 16 be 98 46 a2 3e
       -0.3889795 0.35754877 -0.14733185 0.31694484
000210 15 09 d7 3e 87 ea d0 3e 8f be c6 bc e3 87 65 be
       0.41999117 0.4080393 -0.024260787 -0.22415118
000220 84 f7 54 3e d4 bf e3 bd d9 65 12 3e 6e 46 f8 be
       0.20797545 -0.11120573 0.14296664 -0.48491234
000230 36 67 c8 bd a3 1f c0 3d 78 21 05 be 03 e4 39 3e
       -0.09785311 0.09381034 -0.13001049 0.18153386
000240 8b 04 c4 3e 23 55 3e be a8 94 08 3e 11 f9 06 be
       0.38284716 -0.18587165 0.13337958 -0.13180949
000250 0b fa 55 bd 46 dc 9c bd 37 fa c4 bd b8 03 d9 3e
       -0.052240413 -0.07659201 -0.09618037 0.4238565
000260 a0 79 75 be de c5 d6 3e 9e 0d 7a 3e a3 e4 c2 3e
       -0.23972178 0.41947836 0.24419257 0.3806506
000270 23 53 92 bf d6 10 bf bd 3b ca 78 3e dc 0d a2 3e
       -1.1431621 -0.09329383 0.24295895 0.316512
000280 f4 1e da be 24 6f 14 3e d7 9d 44 3d 5f 14 c5 be
       -0.4260174 0.14495522 0.04800209 -0.38492104
000290 4e a7 ae bd 68 10 c6 3e 5c 75 ed 3e dc 81 e9 bc
       -0.085280046 0.38684392 0.463786 -0.028504305
0002a0 d7 b5 36 bf c5 9f 7f 3d 14 06 83 be 26 d6 c5 3d
       -0.71371216 0.062408227 -0.25590575 0.09659986
0002b0 90 49 8d be 92 1b 92 3e 94 9c 8b be 3b 91 c8 be
       -0.27595186 0.2853666 -0.27267897 -0.39173302
0002c0 e7 06 3f be c0 fa bd be 15 ec 05 bd 0d 4f c8 bd
       -0.18654977 -0.3710537 -0.03269585 -0.09780703
0002d0 7b 67 2d 3f 94 ae 06 3f 7b a5 d0 3e b7 94 51 be
       0.67736024 0.52610135 0.40751252 -0.20466886
0002e0 6e db 20 3e ef 4a 8b 3e ae 63 04 3e 5b c5 60 be
       0.15708706 0.27205607 0.1292865 -0.21950285
0002f0 e4 f7 99 3e fb 45 d8 3e b7 af 6a be 2b 66 88 3d
       0.30071938 0.4224089 -0.22918592 0.06660112
000300 a0 a0 b3 3e 73 6f 90 3d af 02 39 be d0 9a c1 be
       0.35083485 0.07052507 -0.1806743 -0.37813425
000310 3e 36 0e 3d 7f 22 05 3e e0 e9 b7 bc 83 35 ff bd
       0.034719698 0.1300144 -0.022450387 -0.124613784
000320 62 4c 03 3e a7 a4 18 3f a9 bd f4 bd 67 46 35 3e
       0.12822106 0.5962624 -0.11950237 0.17702638
000330 df 29 eb 3e 20 17 92 bd fd 18 b4 3e 42 42 05 bf
       0.45930383 -0.07133317 0.35175315 -0.52054226
000340 57 98 dc 3e 10 8c b3 3d a3 44 00 3e 08 ae 9c be
       0.43084976 0.08766949 0.12526183 -0.30601525
000350 04 21 95 be 34 05 ee bc 10 49 05 be e6 46 71 bd
       -0.2912675 -0.029055215 -0.13016152 -0.058905505
000360 d2 ec a1 bc 8f a0 83 3d a6 ed 61 be fe 27 41 3e
       -0.019766245 0.064271085 -0.22063312 0.18862912
000370 ea 68 1d be 9c 93 d1 bd c6 4a b3 3d e3 e1 e9 be
       -0.15372053 -0.102332324 0.08754496 -0.4568015
000380 f4 e0 73 bd 76 0b c2 3e 68 c0 d7 3e 38 6c a4 be
       -0.059540704 0.3789937 0.42138982 -0.32113814
000390 47 c0 c0 be 6f be cc be 39 c9 19 bc 11 b0 8d be
       -0.37646696 -0.3998904 -0.009386354 -0.2767339
0003a0 53 3e 7a 3d ea 96 cf 3e be 3e 25 3d 6f e8 a6 be
       0.061094593 0.40544826 0.04034304 -0.32599208
0003b0 fd 3e ca 3e ff 64 22 be b5 87 b5 be 8d b9 9b 3c
       0.3950118 -0.1585884 -0.354551 0.019009376
0003c0 65 62 34 bd 87 d4 3d be 26 95 97 be a1 35 9d 3c
       -0.04403915 -0.18538104 -0.2960598 0.019190611
0003d0 03 bd 62 be 4f 4e b2 3e 45 49 0b 3f 44 32 e9 3e
       -0.22142415 0.3482537 0.54408675 0.45546162
0003e0 19 63 53 3e 39 20 29 3d 7d 8d 59 3e 70 5f 60 3e
       0.20643272 0.041290496 0.2124538 0.21911407
0003f0 1e b6 27 3e 9a 54 fc 3c 2e be 95 3e 8c e6 16 be
       0.16378066 0.03080206 0.29246658 -0.14736384

g.0.bias f4 [100]
000000 00 ea de 3d d4 f3 fe 3d 31 66 33 bd ef e7 35 3e
       0.10884476 0.1244885 -0.04379863 0.17764257
000010 73 95 74 3d 58 85 2e be 9c b1 c4 be 2f 69 a2 3e
       0.05971284 -0.17043054 -0.38416755 0.31720874
000020 f0 a6 ca be 85 bb c9 3e f8 e7 90 be 7a 89 10 be
       -0.39580488 0.3940088 -0.28301978 -0.14114943
000030 a4 39 bb be 34 85 c1 3e 08 f5 cd be 34 fa ba 3d
       -0.36567414 0.37796938 -0.40226007 0.09129754
000040 a6 d4 93 be 61 53 85 3c cd 6a 14 3e 14 2b 13 be
       -0.28873175 0.01627511 0.14493866 -0.14371902
000050 46 0b 7d be 0d 26 89 be 2d 5a d0 bd 41 b5 b3 3e
       -0.24711332 -0.26786843 -0.1017345 0.35099223
000060 11 ac c5 be 03 68 9b 3e 9e 09 68 3e e7 9c 05 bc
       -0.3860784 0.30352792 0.22659919 -0.008155084
000070 10 6e 8a 3e 98 44 22 be 38 8d 2d 3e 11 72 b5 3e
       0.27037096 -0.15846479 0.16948402 0.35438588
000080 99 31 86 be 33 f6 7a 3e 29 03 d4 3c 0d 73 71 be
       -0.26209715 0.2450798 0.025880413 -0.23579045
000090 a9 7d 7c be 55 f5 88 3e 36 74 c6 be 4b a5 51 bd
       -0.2465731 0.26749673 -0.38760537 -0.051183026
0000a0 77 cf 89 3d 68 f9 93 be 07 3a 70 3e d1 83 40 3e
       0.06729024 -0.2890122 0.23459636 0.18800284
0000b0 bd d5 03 3e a6 d7 d7 3d 28 d4 ca 3e f7 f9 93 be
       0.12874503 0.105391786 0.39614987 -0.28901646
0000c0 fd 10 b0 bd bc a8 6f 3b 7d 6e 28 bd a3 b7 31 be
       -0.0859699 0.003656908 -0.041120995 -0.17355208
0000d0 c0 5f 26 be 63 f7 52 be 9a 55 1a 3e 97 f4 c5 be
       -0.16247463 -0.20602183 0.15071717 -0.3866317
0000e0 b4 57 99 be b8 fd ac 3e d8 bf 8b 3d ba 82 35 be
       -0.29949725 0.33787322 0.06823701 -0.1772565
0000f0 f3 54 aa 3e c8 47 62 3e 88 c9 87 3e 05 44 8b 3d
       0.33267936 0.22097695 0.26520944 0.06800083
000100 a1 d3 71 3e 97 8c a7 be b4 74 bb be 57 73 1c 3e
       0.23615886 -0.3272445 -0.36612475 0.15278374
000110 6d 27 a7 be 13 97 8f 3e 53 2a 98 3e 6a 15 9e be
       -0.32647267 0.28044948 0.2971979 -0.30875713
000120 b2 74 c0 3e 49 fd 68 3e 26 a7 9b 3e 80 05 9a be
       0.3758903 0.2275287 0.30400962 -0.3008232
000130 c6 ee bd 3d d9 69 6d 3e 8d 56 86 3d 0f d3 98 3d
       0.09274058 0.23184909 0.06559477 0.07462131
000140 f3 3a d9 3e b7 f0 70 3b e2 9e bc be c2 39 72 3e
       0.42427787 0.003676457 -0.36839968 0.23654845
000150 b2 4c cb 3d 7d 09 46 be c6 f0 cc be 41 e3 0e 3e
       0.09926738 -0.19339557 -0.40027446 0.13953878
000160 46 02 ac 3e 5f 9b cb bd b8 14 e5 3e 67 66 7c 3d
       0.33595484 -0.09941744 0.4474237 0.061621096
000170 b0 30 c9 be 4f 58 87 3e 94 f5 10 3e 64 dc 1b be
       -0.39294958 0.26434562 0.1415618 -0.15220791
000180 c8 7c 92 3e 1c 6a 3a 3e c1 c6 c1 be 56 fe ba be
       0.28610826 0.1820454 -0.3784695 -0.36522168

g.2.weight f4 [100, 100]
000000 77 ab ba 3d e4 97 eb bc 86 78 36 bf 0e d4 8b bd
       0.091147356 -0.02875895 -0.71277654 -0.068275556
000010 b0 6a 92 bd 1a 93 b9 3c 1a ab d7 bb 79 d3 fe 3d
       -0.07149255 0.022653151 -0.006581676 0.12442679
000020 93 e8 de bc 43 de 97 bf 44 cb 5e bb 41 47 dd 3c
       -0.02721051 -1.1864704 -0.0033995667 0.027011516
000030 60 32 58 3d ec 7f 85 bf b0 26 61 bd 76 2e ed 3d
       0.052782416 -1.0429664 -0.054968536 0.11581127
000040 0d a9 1d 3c 1d 8b 4c bc 77 4e 08 c0 e1 48 f1 3d
       0.009622824 -0.012484339 -2.129789 0.11781479
000050 ad 34 eb 3c a7 c3 3f 3f 9c 7a f7 3d 29 ba ba 3e
       0.028711641 0.74907917 0.12083933 0.36470154
000060 80 61 c1 bd 24 38 3f 3d 8b 2f 35 bf 1e cc 44 3e
       -0.09442425 0.0466844 -0.7077567 0.1921849
000070 f2 60 f3 be 5a dc ca 3d e3 7a 14 3d 0f 1a 56 3d
       -0.475349 0.0990531 0.036250006 0.052270945
000080 f8 27 70 3c 8f e5 e3 bc a2 f3 b2 3d 1a c3 3c 3d
       0.014657967 -0.027819423 0.087378755 0.0460845
000090 a7 cb f8 3c b0 17 74 3d 00 68 a9 3a 80 31 98 3b
       0.030370547 0.059592903 0.0012924671 0.0046445727
0000a0 00 6f 8e bd ba 78 ad 3c 56 64 b4 3d 25 74 fb bf
       -0.06954765 0.021175731 0.088082 -1.964482
0000b0 db 04 40 bf 9b 2a 99 3d 3c 9a d5 3d da b7 a0 bd
       -0.7500741 0.074788295 0.104298085 -0.07847567
0000c0 89 89 9f bf 56 f5 16 3e 63 ec c6 b9 a0 8e 61 bd
       -1.2463847 0.14742026 -0.00037941625 -0.05506766
0000d0 24 20 d1 3c 8a 54 98 bd 49 b2 42 bf a2 42 78 3d
       0.025528021 -0.074379995 -0.7605329 0.06061042
0000e0 c0 88 4d 3d 87 bd 31 ba 4b 1f d2 3d 9e 27 1c bf
       0.050179243 -0.0006780256 0.10259875 -0.6099795
0000f0 55 bb 85 bf d7 d2 d1 3d 70 06 91 3d b8 2e ee 3d
       -1.0447794 0.10245293 0.07081306 0.11630005
000100 db bc 5e 3e 7e 71 7c bf 5d b1 96 3d 1c 8f 22 bd
       0.2175173 -0.98610675 0.07358048 -0.03968726
000110 67 d8 bc bd 65 50 20 3e f3 34 8d bf 18 73 69 bd
       -0.09220963 0.15655668 -1.1031784 -0.056994528
000120 dc 63 1c 3e ab ee f1 be da 56 6c bc 80 7d 09 3d
       0.15272468 -0.47252402 -0.014425004 0.03356695
000130 4b 0c 7b bf d4 14 1c bc 4b 6a 11 be 82 69 6b bd
       -0.9806563 -0.00952645 -0.14200704 -0.057473667
000140 61 8f a5 3d 0d 58 3f bd ed 1f 99 3d 02 f4 09 3c
       0.08083988 -0.04671483 0.074767925 0.008419992
000150 50 bc 91 bd 27 3a b4 bd fd aa 81 bd 6b 8e af 3b
       -0.07115996 -0.08800154 -0.063314416 0.0053575537
000160 82 0d ad bb 61 55 6d be 64 b5 3c 3d 0c 69 0b bf
       -0.0052811513 -0.231771 0.046071425 -0.54457164
000170 e3 ba 0c bd d3 e2 95 ba 62 87 82 3d 17 a9 98 bd
       -0.034357917 -0.0011435397 0.063734785 -0.07454126
000180 58 54 9d bf 49 0c 8b bf 3d db 8e bd 5d 78 86 bd
       -1.2291365 -1.0863124 -0.0697541 -0.06565926
000190 46 01 9c 3d dc 21 5c bd b0 2d 17 bf e3 bc 4c 3c
       0.076174304 -0.05374323 -0.5905409 0.012496206
0001a0 c3 23 c0 3d 7a c3 58 3d d0 3c 14 bd 18 5a 0a 3e
       0.09381821 0.052920796 -0.036190808 0.1351093
0001b0 9a a1 8c bd cd f8 92 bf 3a 27 88 3d 13 a6 e6 bd
       -0.068667606 -1.1482178 0.06648107 -0.11262145
0001c0 a5 0a c5 3d 45 00 2f bf 40 5a d7 3c da 23 1a bd
       0.09621171 -0.68359786 0.026288152 -0.037631847
0001d0 2d 4b bc bc b5 16 15 be 1a 9b 00 c0 61 47 39 3e
       -0.022985065 -0.14559443 -2.0094666 0.18093635
0001e0 78 03 98 bd 82 e2 12 3f 20 23 55 3d 40 88 2d 3e
       -0.074225366 0.57376873 0.05203545 0.16946507
0001f0 b7 e3 0c bd f6 00 5c 3c cf bf 16 bf 1a be b3 3d
       -0.034396853 0.0134279635 -0.58886427 0.08776493
000200 29 60 b5 be 67 82 52 3d e9 1d 8c 3d ae a9 9b bd
       -0.35424927 0.051393893 0.068416424 -0.07600723
000210 6a a7 92 3d 0a 00 6a 3d fa b9 3c 3e 17 19 34 bd
       0.07160838 0.057128944 0.1843032 -0.04396924
000220 a3 0e 60 bd 31 40 16 3c a0 7e a9 bd 88 04 b9 bd
       -0.05470146 0.009170578 -0.08276105 -0.090340674
000230 78 11 8a 3d 0b 33 35 3d e2 f8 75 3d 38 5f cd bf
       0.06741613 0.04423813 0.060051806 -1.6044683
000240 01 9b 6f bf bd 0b 41 bc c1 fe 8e bc cb c3 a0 3d
       -0.9359589 -0.011782584 -0.01745546 0.078498445
000250 ad 8d ae bf b0 13 c4 3d 20 02 ab bd 58 fe c7 3d
       -1.3636986 0.095740676 -0.08350015 0.09765309
000260 34 bc 34 bd 93 97 b1 bc 33 48 11 bf ac 1c 05 3d
       -0.044124797 -0.021678722 -0.5675079 0.032498047
000270 e0 6b b8 bc 9c 58 51 3e ee 01 14 3e 8d c5 23 bf
       -0.022512376 0.20443958 0.14453861 -0.63973314
000280 ce 16 5a bf 2c ec 22 3e 03 d6 51 3e 08 d3 0c 3d
       -0.8519105 0.15910405 0.20491795 0.034380943
000290 17 fd 38 3e e8 5f 86 bf 67 10 7c 3c 6e 6f 92 3d
       0.18065296 -1.0498018 0.01538477 0.0715016
0002a0 9a 2d 4e ba a0 cd 97 3e 7b a7 4b bf 86 53 bb bd
       -0.00078650715 0.29649067 -0.7955243 -0.0914679
0002b0 1b 7c d4 3d db 2d 11 bf 64 cc 72 3d 27 fe b0 3c
       0.10375234 -0.56710595 0.059276953 0.021605564
0002c0 c7 e5 60 bf e7 b5 e6 3d 75 f3 04 be 2f fa 34 be
       -0.8785061 0.11265164 -0.12983496 -0.17673562
0002d0 19 2f c5 3d 99 ae 8a 3d fd 71 84 bd cb ac 15 3d
       0.09628124 0.06771583 -0.06467054 0.03654174
0002e0 56 23 58 3d 20 ef 9f 3d fa 7d bd bc 5c fe 30 bc
       0.052768074 0.07809281 -0.02313136 -0.0108028315
0002f0 3e 72 95 3d 5c ab 7e be 16 f1 15 3e 0d 41 9a be
       0.072971806 -0.24870056 0.14642748 -0.30127755
000300 e7 bc c2 bb 34 bd 40 bd 36 4b 9c 3d 33 88 c3 3b
       -0.005942929 -0.04705544 0.07631533 0.005967164
000310 90 cc 89 bf fe 3f 7a bf 47 42 e0 3c 93 ff 7f 3d
       -1.0765553 -0.97753894 0.027375354 0.062499594
000320 36 d4 bb bd ef 28 87 3d bb 6e ca bd 5e 29 44 bc
       -0.091713354 0.06599604 -0.098844014 -0.011972753
000330 40 11 39 3d 12 18 89 bd 5b 75 b2 3d f9 ce 5f 3d
       0.045182467 -0.06694044 0.0871379 0.054640744
000340 7a cd 8c bc 69 30 49 bd 83 77 54 bd d0 7d d1 3b
       -0.017187823 -0.049118433 -0.051871788 0.006393172
000350 f3 2a 43 bc ec 74 71 bc e0 e6 d0 3c 2a 08 2d 3c
       -0.011912095 -0.014737349 0.025500715 0.0105610285
000360 d3 24 22 bd 02 e1 71 bd df ea cc bd dd b4 37 bc
       -0.0395859 -0.059052475 -0.100057356 -0.011212555
000370 73 c1 13 bd b3 12 28 3d 1a f2 40 3d a3 de 82 bd
       -0.03607316 0.041033458 0.047105886 -0.06390121
000380 60 39 74 3d 90 8c 26 3c 8e 4b d2 bd e5 50 f4 bc
       0.05962503 0.010165349 -0.10268317 -0.02982373
000390 dc 6d 90 bd a5 46 8c bd 6f bf b1 bc e7 bf 84 3c
       -0.07052204 -0.06849412 -0.021697728 0.016204787
0003a0 9a ad 9c bb 71 f2 04 bc 5a 94 c9 bd 88 23 c8 3d
       -0.004781437 -0.008114443 -0.09842749 0.09772402
0003b0 cd 21 96 bc 93 90 98 3d 18 ec bc 3d da bc 3d bd
       -0.018326664 0.0744945 0.09224719 -0.04632268
0003c0 ab 17 a7 3d d7 d2 32 bd 26 c1 ee bc 0c 4c 61 3b
       0.08158811 -0.043658104 -0.029144835 0.0034377603
0003d0 22 cb b9 bd dd f1 02 bd 6f 61 be 3a 20 1f 09 3d
       -0.09071948 -0.03196894 0.0014524887 0.03347695
0003e0 3a 40 68 3d 45 9b 91 bd 30 17 9f 3d cd d9 77 3b
       0.056701876 -0.071096934 0.077680945 0.0037819028
0003f0 40 c6 9d bd 33 01 a9 3b 74 1d 19 3d dd 63 61 bd
       -0.07703829 0.0051576137 0.037381604 -0.055026878

g.2.bias f4 [100]
000000 0c 72 a6 3d b3 10 85 3c e7 7f 7d 3d 08 ba 1b bd
       0.081272215 0.016243314 0.061889555 -0.03801921
000010 e2 96 84 3c f2 cc a6 3c 50 bb ef bc 51 3d e3 3d
       0.016185228 0.020361397 -0.029264122 0.110956796
000020 80 bc 95 bd 67 20 c1 bb 51 f8 2e 3c fd a1 3a 3c
       -0.07311344 -0.0058937552 0.01067932 0.01139116
000030 9b ac 96 3c b3 06 60 3c b6 61 04 bd 07 59 92 3d
       0.018392852 0.013673472 -0.032319747 0.07145887
000040 2c f1 44 bd 21 a9 91 bd 25 ec 9a bd f7 fc 90 3d
       -0.048081562 -0.07112337 -0.07564572 0.07079499
000050 1f 01 b1 bd da 68 1c 3d b3 3a 31 3c 0e b7 ae 3d
       -0.08642792 0.03818593 0.010817218 0.08531009
000060 a7 12 af bd 23 5b d5 bd 56 ba 97 3d 43 a8 cb bd
       -0.085484795 -0.104177736 0.07408588 -0.09944203
000070 04 f9 70 3d 70 d8 f7 3d 81 28 c0 bd 2e 42 cf 3c
       0.05883123 0.12101829 -0.093827255 0.025300112
000080 8d 48 37 bd 27 26 5f bd b1 80 ad bd ae 48 89 3b
       -0.044746924 -0.054479744 -0.084718116 0.0041895723
000090 fe dd 0d bd 30 7f 93 3d eb 04 b3 3c 17 5d 0e bd
       -0.034635536 0.072019935 0.021852931 -0.034756746
0000a0 c7 e9 fd 3c 88 ef 9e bd a5 80 94 bd 70 9f 6e 38
       0.030995263 -0.07760531 -0.072510995 5.689211e-05
0000b0 68 d5 05 bd 05 3e a6 bd f4 e3 c7 bd 00 22 79 bc
       -0.032674223 -0.08117298 -0.097602755 -0.01520586
0000c0 fb ba 8b bd ca a1 84 bd f6 ee 5d bc 45 68 ca bc
       -0.06822773 -0.06476171 -0.013545742 -0.024707923
0000d0 a3 1c 00 3d 43 be fd 3d f9 a7 87 bd 17 71 39 bd
       0.03127731 0.12389805 -0.06623835 -0.045273867
0000e0 0d 95 b7 bc d6 a5 25 3d 0d da 4c bc 39 f1 3e bc
       -0.02240994 0.040441357 -0.012503159 -0.011654192
0000f0 36 c3 c1 3b a0 55 1c 3c 7b 1f 8a bd c8 ab 0f 3d
       0.0059131635 0.009541899 -0.06744286 0.035075933
000100 3b b7 80 bd 44 ea 47 bc 59 80 b0 3c f3 bd 2d be
       -0.062849484 -0.012201849 0.021545576 -0.16966991
000110 75 26 cf bc d7 f6 51 bd 5b 45 d4 bc 67 5b 6c bb
       -0.025286892 -0.051260795 -0.025911978 -0.0036065222
000120 c0 08 ac bc 0b 88 0a 3d 6c 59 21 3d 70 9d a2 bd
       -0.021000266 0.033821147 0.03939192 -0.07940185
000130 55 47 6b 3d f7 5e 3d 3d 33 c4 aa bb bd 13 e6 bc
       0.057441074 0.046233144 -0.005211377 -0.028085584
000140 58 52 b7 bd c8 d9 03 be 8a a2 8d bd 01 96 3b 3d
       -0.08951253 -0.12876046 -0.069157675 0.04579735
000150 3e 91 6a bd 9a 22 9d 3c f8 66 14 bd 06 5a 5b bd
       -0.05726742 0.019181538 -0.03623101 -0.05355265
000160 0a 83 a7 bd a7 2b 3e 3c 53 10 3d 3d 5a d2 2e bd
       -0.081792906 0.011607087 0.046158146 -0.042681076
000170 0d 43 1c bc 11 69 03 bc c8 a9 05 3d 0a 44 bd bc
       -0.0095374705 -0.008020655 0.03263262 -0.023103733
000180 33 45 1d 3d b6 7c 4f 3d 7e 2a 3e 3c 0a e1 09 bc
       0.03839607 0.050656043 0.011606811 -0.00841547

g.4.weight f4 [1, 100]
000000 86 c5 4c 3f 17 de 89 3f 85 68 b7 3d 85 8c 54 bf
       0.79988897 1.0770901 0.089554824 -0.83026916
000010 ec 2e 59 3c 39 0b a5 be 16 ee bd 3d 4d 3c 8f 3f
       0.013255816 -0.32235125 0.09273927 1.1190277
000020 f3 e9 22 bd 78 45 a6 bf 91 e5 b5 bf 91 d5 46 3f
       -0.039773893 -1.298995 -1.4210683 0.77669626
000030 bd be 89 bf 05 cd 98 bd f3 4a 9d be 46 e3 14 3d
       -1.0761334 -0.07460979 -0.30721244 0.036349557
000040 6f 02 04 c0 7f 87 8e bf 67 56 b3 39 e1 0f 48 3f
       -2.0626485 -1.11351 0.00034205915 0.7814923
000050 a0 b9 c5 bd 99 c4 af be 4d f5 ec be 1b 2d ac 3c
       -0.09654546 -0.3432968 -0.462809 0.021017602
000060 9a 99 d6 3b 73 35 55 bf 86 df 25 3d 3d 67 c3 bd
       0.0065490725 -0.8328468 0.04049637 -0.095411755
000070 a5 fa 94 3f fb dd 79 3f 7b 86 6d bf 4b 68 48 3f
       1.1638991 0.9760434 -0.92783326 0.7828414
000080 67 3b cc 3c da 79 8a bc 4c d3 e8 be cf 1e 8f 3f
       0.024930669 -0.016903806 -0.45473707 1.1181277
000090 34 1c 61 3f 3e 49 77 3f a8 f2 0d bf a0 23 68 bd
       0.8793366 0.96596134 -0.5544839 -0.0566746
0000a0 8a c0 9a 3d ef da aa 3d c0 6b 89 3f 31 42 8e 3f
       0.07556255 0.083425395 1.0736008 1.111395
0000b0 26 ff b7 bf b0 35 97 be 22 87 80 3d 3b ff c2 be
       -1.437474 -0.29533148 0.062757745 -0.3808535
0000c0 d0 32 71 be 58 82 80 3d 57 83 ad 3a 0b af 4c 3d
       -0.2355454 0.06274861 0.0013237995 0.04997162
0000d0 1b 71 c5 be fa f7 6a 3f 69 ea bd 3c d6 b5 39 3d
       -0.38562855 0.9178463 0.023183065 0.045339428
0000e0 3a 08 22 3d 96 4f d0 be f7 76 a0 bd 80 f1 40 3d
       0.039558627 -0.4068572 -0.07835191 0.047105312
0000f0 86 a5 3c 3c e3 24 82 3f ed fb c2 be 75 06 eb be
       0.011514073 1.0167507 -0.3808283 -0.45903364
000100 7d 5d b5 bf 30 2d ba be 09 6c a2 3d 7e be 04 c0
       -1.4169155 -0.363626 0.07930762 -2.0741267
000110 4f 7f cc be 7d 68 56 3f e9 2d 6b 3f b5 30 b8 3d
       -0.3994088 0.83753186 0.9186693 0.08993665
000120 2f 73 b0 3d 31 dc ad bf 13 b2 8a bf 2e b0 96 3d
       0.086157195 -1.3582822 -1.0835594 0.07357822
000130 cc 61 72 3f 68 97 02 3c ea f0 0a bd c1 ec 30 bd
       0.94680476 0.007970668 -0.03392116 -0.043194536
000140 aa 53 49 bd e5 e1 a5 bf 53 67 a5 bd 7a d4 29 3d
       -0.049152054 -1.2959563 -0.08076348 0.0414624
000150 d9 b2 47 3d 01 59 99 bf fa 8a 9d be f8 3b 3c bf
       0.048754547 -1.1980287 -0.30770093 -0.73529005
000160 87 ce 36 bf ed 83 5a bd 8a 81 09 bf ca da 28 bd
       -0.71408886 -0.05334847 -0.53713286 -0.04122428
000170 90 d4 b1 3d 54 88 be be 71 d8 98 bf fc c8 e6 be
       0.08683121 -0.37213385 -1.1941053 -0.45075214
000180 24 08 a7 bf 0f 5a 54 3f 22 02 5c 3d 7a 3c c4 be
       -1.3049359 0.8294992 0.05371297 -0.3832739

h.0.weight f4 [100, 6]
000000 f8 8a da 3e 82 f1 de bd 8c 32 49 be b7 05 f7 be
       0.4268415 -0.10885908 -0.19648188 -0.48246548
000010 38 a3 aa 3e 88 45 31 3e b9 e2 26 3f 8d 7c b2 3e
       0.3332765 0.1731168 0.651897 0.3486065
000020 df 31 32 bc 1e ae 99 be 06 a5 bb 3e e8 74 c1 bd
       -0.010876148 -0.30015653 0.3664934 -0.09446126
000030 14 12 13 3f 4d da d3 be cd b4 a7 be f1 fa 8a 3e
       0.5744946 -0.41377488 -0.32755128 0.27144578
000040 c2 af 89 be 89 90 88 be 29 4c c7 bc cb eb 3c 3e
       -0.26891905 -0.26672772 -0.024328308 0.18449323
000050 fc 91 a3 be 49 aa ab 3e 52 2e 5e 39 ea 4b 70 be
       -0.31947315 0.33528355 0.00021188825 -0.23466459
000060 88 0e d2 3d ed f2 1b 3f b3 07 2f bc 44 fe 29 3e
       0.10256678 0.6091755 -0.010682988 0.16600901
000070 34 c1 c7 3c d6 c0 95 bd 3a db c2 3d f8 70 06 bd
       0.024384119 -0.07312171 0.095144704 -0.03282258
000080 62 be 0e be b0 ac 04 3f 82 18 bd 3e 59 cf 3c 3e
       -0.13939813 0.51826 0.3693276 0.18438472
000090 dc 9d 80 be bf 1b 23 3e ce ae 0a bd d3 08 79 3e
       -0.25120437 0.15928553 -0.033858113 0.24319772
0000a0 15 28 7b be a2 a0 0e 3e 81 c8 a2 3e 25 bc a2 3e
       -0.24527009 0.13928464 0.31793597 0.31784168
0000b0 8c d9 28 be 3a 84 9d be 31 98 4d 3e 29 52 a0 3e
       -0.16489238 -0.30764943 0.20077588 0.31312683
0000c0 73 81 98 bd c0 9a c9 bc bb 25 c6 3e 86 b5 b7 be
       -0.074465655 -0.024609923 0.3870066 -0.3588068
0000d0 00 42 99 3e ed dd 0c 3e 23 bb cd 3e 2c b2 7e 3e
       0.29933167 0.13756533 0.40181836 0.24872655
0000e0 6f 30 0b 3e 52 79 0a bf d1 3c 87 3d 4b e6 8d be
       0.13592695 -0.5409137 0.06603397 -0.27714762
0000f0 c7 22 a4 3e 4f 0e a0 3e 6d 40 64 3d 72 23 1a 3e
       0.32057783 0.31260917 0.055725504 0.15052584
000100 ea 5c b4 be 1d 96 c7 3c 38 18 02 3f 61 0d 2e bf
       -0.35227138 0.024363572 0.50818205 -0.67989165
000110 5d d6 b2 be 52 4c 1e be 5b fc 1f 3e af e1 a2 3e
       -0.3492917 -0.15458801 0.1562361 0.31812808
000120 11 01 d1 3e 11 ae 93 3d f3 46 bf be c9 dc d1 be
       0.40821126 0.07210935 -0.37358817 -0.40988758
000130 41 47 01 3d 42 01 26 3e 10 57 4e 3f ef 98 db 3d
       0.031562094 0.16211417 0.80601597 0.10722529
000140 84 32 1d 3d 9a 8f e7 be d8 5e 05 3e 69 ed 49 be
       0.038378254 -0.45226747 0.13024461 -0.19719471
000150 88 81 a8 be 93 80 00 3f e2 5e 86 be 10 40 40 be
       -0.32911325 0.5019619 -0.26244265 -0.18774438
000160 4b 9f cd 3e 19 28 a9 3e 64 fb 97 3d cc 88 06 3e
       0.40160593 0.33038405 0.07420996 0.13138121
000170 75 f7 53 3e 27 ef 93 3c db 61 b1 be 3f dc b8 3c
       0.20699866 0.018058373 -0.3464497 0.022565959
000180 1d 57 3c 3f 94 7f d2 3e d7 d5 30 3e 31 a7 cb bd
       0.73570424 0.4111296 0.17269073 -0.099439986
000190 15 5a 62 be a3 2a a2 be 53 9b 75 be 9e dc c8 3d
       -0.22104676 -0.31673154 -0.23985033 0.098077044
0001a0 25 d8 88 bd 27 24 1b 3e 07 3b 24 bd c6 28 a9 3e
       -0.06681851 0.1515051 -0.040095355 0.3303892
0001b0 0f 28 2e 3f 74 58 99 3e 92 db 21 3a 8f 9d ba be
       0.68029875 0.29950297 0.0006174381 -0.36448333
0001c0 ae cf a2 3d 09 53 26 3e f6 74 a9 bd 03 79 d6 3e
       0.07949768 0.16242613 -0.08274262 0.418892
0001d0 44 b2 bb bd 24 fb 5a 3e 97 90 d0 be ad 0b 6d be
       -0.09164861 0.21384865 -0.40735313 -0.23148985
0001e0 ca 32 b2 3c f8 13 cc be d7 31 21 be 4e 77 b9 bd
       0.021752734 -0.39858985 -0.15741669 -0.09055959
0001f0 1e 93 9a 3e a1 19 87 be 2a f5 93 3e 3c 0a 5a be
       0.30190367 -0.2638674 0.28897983 -0.21292967
000200 c5 df 77 be d7 51 44 be e1 be c3 be fd 36 a3 bc
       -0.24206455 -0.19171844 -0.38231567 -0.019923681
000210 e9 8d 62 be 6e f1 44 be 5f 74 b2 3e d2 61 2b be
       -0.22124447 -0.19232723 0.3485441 -0.16736534
000220 1b 01 c6 3e 6a 51 c9 be e1 16 23 3f aa d9 7e be
       0.38672718 -0.39319927 0.63706785 -0.2488772
000230 69 63 51 3d 0a 33 1c bc 56 58 ab 3e 91 f4 49 bc
       0.051120196 -0.009533653 0.33465832 -0.012326376
000240 cd cb ac be ed 3d b7 be a1 61 07 bd f6 38 7c bd
       -0.33749238 -0.35789433 -0.03305209 -0.06157776
000250 78 f1 7f be ac 3f b1 be 28 76 25 3e 17 99 04 bf
       -0.24994457 -0.3461889 0.16158354 -0.51796097
000260 da 2b 9f 3e c2 2b f1 bd b1 bf ab 3e 3f 06 41 3e
       0.31088144 -0.11775924 0.33544686 0.18850039
000270 c7 42 50 be e9 90 02 3e 45 8b 35 be 4b bd 9e bd
       -0.20337974 0.12750591 -0.17728908 -0.077509485
000280 46 e8 82 3e 36 98 b2 bd 14 5b 96 3d c4 b9 77 be
       0.25567836 -0.08720438 0.073415905 -0.24191958
000290 17 10 b8 be aa 09 0b 3e 89 58 a5 be 14 59 47 bc
       -0.35949776 0.13577905 -0.3229411 -0.012167234
0002a0 c6 14 11 3e 06 59 8d be e3 cb 4c be 6b 59 a0 3e
       0.1416808 -0.27606982 -0.19999652 0.3131822
0002b0 c5 6a 9b be fc ec 1c 3e 5e f7 1f bf f7 c1 5f be
       -0.30354896 0.15324777 -0.6248683 -0.21851335
0002c0 46 84 c8 3e 33 a7 f0 3e 7e c9 af bc 66 84 ac 3e
       0.39163417 0.47002563 -0.021458384 0.33694762
0002d0 64 13 28 3f c7 d8 73 3e d5 25 15 bc 24 2e 22 bf
       0.6565459 0.23813163 -0.009103258 -0.63351655
0002e0 64 f1 51 3e 37 f3 3b 3e 4d a8 84 3e 53 a7 79 bd
       0.2050224 0.18354498 0.25909653 -0.06095059
0002f0 af 3f a6 3c 46 9b 57 be 90 80 95 be 8b e7 4d 3d
       0.020294039 -0.21055326 -0.29199648 0.050269645
000300 24 41 39 bf d4 ab 9f 3d 3c d7 ab 3e 64 17 8b 3e
       -0.7236502 0.077964455 0.33562648 0.27166283
000310 ab 1a 75 3e ea 3f 0a bd ed 9e 0b bf 4b fd c3 3e
       0.23935954 -0.03375236 -0.54539376 0.38279185
000320 e5 63 96 3e f3 62 1f 3d f2 66 26 be d5 55 9c 3d
       0.29373088 0.038912725 -0.16250208 0.07633559
000330 9c fb 13 3e 9d e9 af 3c f8 1e 9e 3d b6 4f d5 bd
       0.1445145 0.0214737 0.077207506 -0.10415594
000340 de 65 69 3e 21 cd ba be db 68 a0 be e3 26 82 be
       0.22792765 -0.36484626 -0.31329998 -0.25420293
000350 a7 84 8a bd 07 5c 27 3c 05 d8 70 be 19 99 5a 3d
       -0.06763583 0.010214812 -0.23519905 0.05336866
000360 dd 42 04 be 4e 0a 33 3e 32 e0 bf 3e 99 c9 76 be
       -0.12916131 0.174844 0.37475735 -0.24100341
000370 e0 32 53 be 0f fa 38 be 6f 9a 28 be 64 b0 b1 3e
       -0.20624876 -0.1806414 -0.16465162 0.34704888
000380 93 37 af 3e 14 6f ea bd 68 72 82 be 02 da b7 be
       0.34222087 -0.11446968 -0.2547791 -0.35908514
000390 1c 29 98 3e 12 08 b4 be a2 d3 ab be 13 e7 1e be
       0.29718864 -0.35162407 -0.335599 -0.15517835
0003a0 f3 58 b6 be 4a e9 52 3c a1 ea 94 be 20 ec 15 3e
       -0.35614738 0.012873003 -0.29085258 0.14640856
0003b0 34 06 08 bd dd b4 a6 be a8 c2 77 3e d9 84 0d be
       -0.03320904 -0.32559863 0.24195349 -0.13820209
0003c0 52 d1 b5 be 95 cf 52 be 14 6d 52 3e 25 0d ac 3e
       -0.3551126 -0.20586999 0.20549423 0.33603778
0003d0 49 05 47 3d 19 39 5d 3e e1 91 84 3e 5b 27 e2 be
       0.048589025 0.21603812 0.25892547 -0.4417065
0003e0 2c 58 4c bd 0b ed 89 be 0d 67 fa bb 19 c7 cd 3e
       -0.049888775 -0.26938662 -0.007641679 0.40190962
0003f0 0a eb 0c 3e f0 c0 d5 bd da ef 5e be e0 f3 a7 be
       0.13761535 -0.104371905 -0.21771184 -0.3280325

h.0.bias f4 [100]
000000 e2 44 57 3e da 0b 47 3e bb 61 28 3e b3 8a 49 3d
       0.2102237 0.19438115 0.16443531 0.04920454
000010 b8 8e 55 be 3d 33 f7 bd 85 49 9c 3e 39 81 86 be
       -0.20855224 -0.1207032 0.3052484 -0.26270464
000020 5b 8d ae be 95 02 07 3e 33 f9 8a be 3d 72 11 3d
       -0.3409222 0.13184579 -0.2714325 0.035509337
000030 6d da 4f bd 11 4e 52 3e a9 78 7e be c8 8b 34 be
       -0.050745416 0.20537592 -0.24850716 -0.17631447
000040 0c 08 56 3d 99 a8 b8 3d 4b e7 ad 3b 18 5e f0 bd
       0.052253768 0.090165325 0.0053071133 -0.11736697
000050 58 ad 9c be 0a cf 2b 3b f1 7c 90 be e1 e5 0a 3d
       -0.30601 0.0026215934 -0.28220323 0.033910636
000060 1c 49 f4 bd c1 b3 84 3e 70 c0 60 be 43 27 86 be
       -0.11928007 0.2591839 -0.21948409 -0.2620183
000070 c2 d7 ac be d9 a8 93 3e 87 73 d4 3d 96 61 04 be
       -0.3375836 0.28839758 0.103735976 -0.12927851
000080 94 30 ef 3d 55 99 95 3e 29 0e 4b 3e 0f bc ea bd
       0.116791874 0.29218546 0.1982962 -0.114616506
000090 0c bd 4c be 39 63 59 be c6 ed a2 be ec 68 63 be
       -0.1999399 -0.21229257 -0.31822032 -0.22207993
0000a0 9d 13 89 be 2f e4 9f 3e c7 f4 e2 bd 99 1f 2b be
       -0.26772776 0.31228778 -0.11081844 -0.16711272
0000b0 d6 95 88 3d 1c 45 ad 3e 19 e0 a2 be 1f fe e3 bb
       0.06669204 0.3384179 -0.31811598 -0.006957784
0000c0 df 35 4f 3e 58 80 20 be 3d 2b a7 be 68 10 d1 3e
       0.20235394 -0.1567396 -0.32650176 0.4083283
0000d0 f8 c8 89 3e af 9f 96 be 50 2c 8e 3e 3c 89 ad be
       0.2691114 -0.29418704 0.27768183 -0.33893764
0000e0 90 33 65 be bf c7 d2 3d 3e 40 e8 3d b3 95 ae 3d
       -0.22382951 0.10292005 0.11340378 0.085246466
0000f0 0d bc 1d 3e 1d 44 9c be 76 63 49 be bf 1e d9 3e
       0.15403767 -0.30520716 -0.19666848 0.4240627
000100 bb a2 c5 3e 5f 9b 2e 3e 09 1f 46 3d 4a a8 3a be
       0.38600716 0.17051457 0.04836944 -0.1822826
000110 ac 4e cb 3e 74 4c 6c 3e 8e a6 73 3e 21 24 77 be
       0.3970846 0.2307604 0.23794004 -0.24134876
000120 17 ee 97 3e 33 32 69 bd 62 b7 a2 3e 96 5f 0a be
       0.29673836 -0.05693264 0.31780535 -0.13513026
000130 1c 93 9f 3e 70 43 f2 bc 7b 5e b7 3e e5 a7 ec 3d
       0.31166923 -0.029573172 0.3581427 0.11555461
000140 cb 40 f9 3d 00 5b 9c be c3 72 a3 3e 19 73 26 be
       0.121705614 -0.30538177 0.31923494 -0.16254844
000150 4b 2e b2 be fa 6b 0b 3d 3d 7f 8b 3e 37 d2 c7 be
       -0.34800944 0.03403852 0.27245513 -0.3902757
000160 f8 43 a3 be c2 ac 8a be d6 d0 25 3e eb cc 84 3d
       -0.31887794 -0.2708493 0.16192946 0.064843975
000170 06 5c 7f 3e ba db f2 bc d3 c0 85 3e 10 8d 93 3d
       0.24937448 -0.02964579 0.26123676 0.0720464
000180 37 e9 71 3e be cd a9 3e 4d a3 e3 3b 3d eb 37 3d
       0.2362412 0.3316478 0.006946957 0.044902075

h.2.weight f4 [100, 100]
000000 97 dd d0 3d d3 fa 12 3e 26 23 d5 3d d9 99 17 bd
       0.10198515 0.14353494 0.10407095 -0.037011955
000010 70 42 6c 3e 53 12 56 be fa d5 c5 bd b1 ac 3f bf
       0.23072219 -0.20905428 -0.096599534 -0.7487288
000020 00 d1 c1 bd 10 b4 06 3e 33 46 8a bc f3 7d ec 3e
       -0.09463692 0.13154626 -0.016879177 0.46189842
000030 c7 ca ca be 3d cf 7f 3d 80 cc f8 3e 33 a0 a5 bc
       -0.39607832 0.062453497 0.4859352 -0.02021799
000040 fb 33 0c 3d c6 80 14 3d 17 92 cb 3d 48 46 c9 3e
       0.03422926 0.03625562 0.09939974 0.39311433
000050 67 9a f8 3c f5 48 a1 3d 00 1d eb bb 49 63 6a bd
       0.030347062 0.078752436 -0.007175088 -0.057223592
000060 47 e1 9a bd 65 4e 2f 3c bf 16 84 3d ba 96 2e bd
       -0.075624995 0.010699843 0.06449651 -0.042624213
000070 b3 c4 55 bd be 93 2b be 43 d9 03 3e e0 2a 41 3d
       -0.05218954 -0.16755578 0.12875848 0.04716003
000080 44 9d d3 be f8 69 d3 3d 73 5f 6d bd 2d 1e 8a bd
       -0.41330922 0.10322946 -0.057952356 -0.06744037
000090 f3 14 80 bd 1d e7 0a bd 5a f9 5f 3c 3a 57 b0 bc
       -0.06253996 -0.033911813 0.01367029 -0.021525968
0000a0 d0 8a 01 3d e4 89 b6 3e da a9 09 3d 88 15 84 be
       0.031626523 0.35652077 0.03360925 -0.25797677
0000b0 f1 75 3e 3e 05 58 21 be 0a 2d 3d 3d a9 1a 11 3e
       0.18599679 -0.15756233 0.04618553 0.14170326
0000c0 30 dd c4 bd 4d bb c8 bb 5d 5b fc bd b9 b2 11 3e
       -0.09612501 -0.0061258436 -0.12322114 0.14228334
0000d0 23 28 ef bd 33 5f a2 bc d4 07 13 be 9a af 1d 3b
       -0.11677577 -0.019820785 -0.14358455 0.0024060966
0000e0 77 5e 73 bd 16 d8 23 be bb 71 9a be c4 cd e3 bc
       -0.05941626 -0.16000399 -0.30164894 -0.027808078
0000f0 a5 c3 17 be 41 09 c3 bd 14 97 48 bd 40 71 96 3e
       -0.14820726 -0.095232494 -0.048972204 0.29383278
000100 5e c1 0c bd b4 ad 59 3d 8a 48 0e 3d 60 e9 45 3d
       -0.034364097 0.05314417 0.034737147 0.048318267
000110 aa e7 21 be a5 eb 8d be a5 fe 5c 3c 00 5b f2 3c
       -0.15811029 -0.27718845 0.013488446 0.029584408
000120 de 05 14 3d b7 35 40 bd f5 ce e8 3c 48 96 c2 bd
       0.036138408 -0.046926226 0.028418997 -0.0950132
000130 e4 6c ec bc 83 b5 3f 3f cd 4b 32 bc 93 94 6c bd
       -0.028860517 0.7488634 -0.01088233 -0.05775888
000140 48 d0 e5 3d ba 40 d3 bc dd d1 8a be 6d d7 1b 3e
       0.11221367 -0.0257877 -0.27113238 0.15218897
000150 58 d6 9c 3d 67 b8 af be e8 aa 7d 3a 07 47 d5 3c
       0.0765807 -0.34320375 0.0009676651 0.026034845
000160 40 77 1e bd ef e4 91 bd 9a bb 75 be 70 f3 c1 bd
       -0.038687944 -0.07123744 -0.23997346 -0.0947026
000170 84 e7 33 bd 82 f0 8e 3d 90 4d 1d be 6c 5c 72 3d
       -0.043921962 0.06979467 -0.15361619 0.05917017
000180 9f a3 e4 ba 34 60 a2 bd d6 de 33 3e 12 8e 77 3e
       -0.0017443782 -0.079285055 0.17565474 0.2417529
000190 a3 b8 67 bd 37 4c 4e bd 1a ee e0 3b cd 71 b9 bb
       -0.056572568 -0.050365653 0.0068643214 -0.005659318
0001a0 43 bc 0e 3d e0 7d b1 3d 67 41 71 bc 37 48 03 bd
       0.03484751 0.08666587 -0.014725066 -0.03205129
0001b0 f3 ae da bc 8d df 8c bd 2d d2 f8 3c d0 28 3b 3d
       -0.02669475 -0.068785764 0.030373657 0.04569322
0001c0 23 c2 be bd a0 b0 8f bc 2d d0 67 3d 73 48 f0 3c
       -0.093143724 -0.017540276 0.056595016 0.029331421
0001d0 57 72 3e bd 07 4e 3e 3d f2 d2 a7 3d 07 1e ac bd
       -0.04649576 0.04646113 0.081945315 -0.08404165
0001e0 07 d2 c4 3c 77 ec 1e bd 40 49 bf bd c0 6c 32 3c
       0.02402593 -0.03879973 -0.09340143 0.010890186
0001f0 87 ae 3c bd 0d 83 57 3d f7 23 6a 3d 27 48 4f 3d
       -0.04606488 0.052615214 0.057163205 0.05060592
000200 67 72 49 ba 55 d6 b8 bd 67 64 a2 bd d3 bb 29 3d
       -0.0007684589 -0.090252556 -0.079293065 0.04143889
000210 23 32 a0 bd 9a 42 68 bd fa 3a 0b bd 33 bb ca bc
       -0.07822063 -0.05670414 -0.03399179 -0.024747467
000220 ad 4e 87 3d 80 b3 16 bc 07 96 20 3d 45 4c c3 3d
       0.06606803 -0.00919807 0.039205577 0.09536032
000230 1a 71 20 3c 33 77 14 3b 20 eb 5d 3d d3 71 6f 3d
       0.0097925905 0.0022654056 0.05417931 0.05845816
000240 2d d3 c2 3d f3 2d 9a bd 70 27 2a 3d 00 d0 71 39
       0.09512935 -0.07528295 0.041541517 0.00023061037
000250 03 22 13 3d f2 54 cb bd 83 23 28 3d 7a 90 21 3d
       0.035921108 -0.099283114 0.04104949 0.039444424
000260 9a 79 e2 bc d0 5c c8 bd d5 21 b9 3d 87 71 ab 3c
       -0.027645875 -0.097833276 0.09039656 0.020928157
000270 c7 14 0e 3d 88 cf 87 bd fd 97 b5 bd 5a a5 73 3d
       0.034687784 -0.0663138 -0.0886688 0.059483863
000280 33 3e 44 bd 52 db b6 bd b2 58 b4 bd 20 21 43 3d
       -0.04791088 -0.08928551 -0.0880598 0.047639012
000290 77 87 49 3d 9d 5e 93 3d bd 84 31 3d 4a b2 36 bd
       0.049201455 0.071957804 0.04333948 -0.044603623
0002a0 1a 5d cf 3b ad 1b 0d bd cb cd 90 bd 7d 9e 2c bd
       0.0063282372 -0.03445022 -0.07070502 -0.042143334
0002b0 60 d5 87 bc 80 5c 51 bc c7 71 9f bc 05 f9 ad bd
       -0.016581237 -0.012778401 -0.019463433 -0.08494762
0002c0 6d 84 1a bd f7 e2 54 bd 80 7c f8 bc 3a 36 8a bd
       -0.037723947 -0.051974263 -0.030332804 -0.06748624
0002d0 da 4e 32 bd 0d 96 86 3d 38 87 c7 bd ba 46 7e bd
       -0.04353223 0.06571589 -0.09742588 -0.06207917
0002e0 00 44 2a ba 23 38 76 bd b3 49 be bc 5a 5e a6 bd
       -0.0006495118 -0.06011213 -0.023228502 -0.08123465
0002f0 da 24 25 bd 53 0a 9d 3c 00 2a 75 bb 08 97 bf bd
       -0.040318348 0.019169962 -0.0037409067 -0.09354979
000300 00 ae 88 ba 90 76 79 3d bf 93 c8 bd 1d ae 1c bd
       -0.0010427833 0.060904086 -0.09793805 -0.038251985
000310 fa e4 b3 bd 60 0a 8d 3c 5a 7e 65 3d 93 b4 fa bc
       -0.08783908 0.017216861 0.0560287 -0.030603683
000320 cd f3 66 3e 15 37 90 3d 5a 8d 44 3e cd 15 09 3e
       0.2255394 0.07041756 0.19194546 0.13387223
000330 d8 5f 40 3e 0e 5a b1 3d 88 b8 e0 bd 27 75 17 bf
       0.18786561 0.08659755 -0.109726965 -0.59163135
000340 17 90 30 3d 5f ee 25 3e 9a 71 49 3d b6 17 ea 3e
       0.043106165 0.16204213 0.049180605 0.45721215
000350 55 50 13 bf 2e 78 4c 3e 08 e9 bf 3e 68 64 a0 3d
       -0.5754445 0.1996772 0.37482476 0.07831651
000360 7d a4 eb 3d 35 97 13 be 85 b6 92 3e 16 79 02 3f
       0.11505983 -0.1441315 0.28654876 0.5096601
000370 f5 af b9 bd 32 74 90 bd 8d 49 15 bd f2 97 e7 3d
       -0.09066764 -0.070534125 -0.036447097 0.11308278
000380 3a a1 ed bc 47 e4 42 3d fb 24 bf 3d 03 b6 42 3d
       -0.029007543 0.047580983 0.09333225 0.04753686
000390 a7 5f 07 bc 66 65 24 be 05 cb 8a 3e 93 8e 28 bd
       -0.008262551 -0.16054305 0.27108017 -0.041151594
0003a0 7e bf 0d bf ed db 19 3c 0b 02 58 bd 7d ab 5a 3d
       -0.5537032 0.009390813 -0.052736323 0.0533862
0003b0 60 f4 ce 3c 8a 44 12 3d 60 76 8f bc 90 cf 7d bd
       0.025263011 0.035709895 -0.0175125 -0.061965525
0003c0 60 40 b4 bd f7 34 af 3e 9a 50 5b bc 2a a0 7d be
       -0.08801341 0.34220096 -0.013385916 -0.24768129
0003d0 36 46 2b 3e e4 77 29 bd 80 15 5d bc b4 b0 0b 3e
       0.16726002 -0.041374102 -0.0134938955 0.13641626
0003e0 f9 a2 fb 3d 4b 22 bd 3d 1d 10 65 be b3 a1 cd 3d
       0.12286944 0.092350565 -0.22369428 0.10040607
0003f0 91 41 97 be aa 57 a8 bd f8 1f 53 3b 63 40 75 bd
       -0.2954221 -0.082198456 0.00322151 -0.059875857

h.2.bias f4 [100]
000000 31 5b 08 3d b7 e6 12 3d 47 42 14 bd 45 a1 db bc
       0.033290092 0.035864558 -0.03619602 -0.026810298
000010 03 d7 c8 bd 1d 73 4c bd 2f 02 4f 3c 55 0c 9e bd
       -0.09806635 -0.049914468 0.012634798 -0.07717196
000020 59 a6 a1 bd 66 b5 8d bd e9 c0 9e bc 9d 9b 25 bd
       -0.078930564 -0.06919365 -0.019379096 -0.040431608
000030 d3 6c 28 3d 6f 58 bf bc b1 42 92 3d a2 85 c3 bd
       0.041119408 -0.023357598 0.071416266 -0.09546973
000040 92 2e e2 3c 95 a4 81 bd 09 70 59 bd bc 21 f9 bc
       0.027610097 -0.0633022 -0.05308536 -0.030411594
000050 37 14 1e be 23 a0 83 3d 1d da c5 bd 35 29 9b bd
       -0.15437399 0.06427028 -0.096607424 -0.07576219
000060 7a 6b c8 bd 92 45 90 bd 53 88 61 bd ef 18 58 3c
       -0.097861245 -0.070445195 -0.05506165 0.013189538
000070 e1 c7 8a bd 96 b7 c7 3d aa 5e 3d 3d 54 e7 98 3d
       -0.06776405 0.09751813 0.046232857 0.07465997
000080 2f 72 86 bb 54 c4 13 3c 21 67 8e bd 33 03 56 b9
       -0.004102967 0.009018976 -0.06953264 -0.00020409822
000090 eb 1f a5 bd 70 b3 45 3d de cb 03 be 87 f5 7c 3e
       -0.080627285 0.048266828 -0.12870738 0.24703036
0000a0 bf d5 1a be e0 3c d8 bc 8d d7 b1 3c 43 a8 c1 bd
       -0.151206 -0.026396215 0.021709228 -0.094559215
0000b0 18 5b a8 3d 18 d7 bc bd 3b 14 75 bb 68 9f e0 3d
       0.082205 -0.092207134 -0.0037396092 0.10967904
0000c0 0e 9c 58 3d 95 dd 97 bd e6 73 76 bd c3 08 67 bd
       0.0528832 -0.0741531 -0.060169123 -0.05640484
0000d0 dd 92 a9 bd e0 8e f0 bc f9 e9 22 bd 1d 07 b1 bd
       -0.08279965 -0.029365003 -0.039773915 -0.08643935
0000e0 12 3b 43 bc a4 94 a3 3a 6b 3a 44 3c 05 64 c6 3d
       -0.011915939 0.0012480211 0.011976819 0.09687046
0000f0 1c 50 8f 3d db 35 db bd 2e 5b 55 3c 06 9b 61 3e
       0.069977015 -0.107036315 0.013022227 0.22031793
000100 25 d5 c1 bd c2 c9 1b bd b9 93 c6 3d 5e 60 39 bd
       -0.09464482 -0.038034208 0.096961446 -0.04525792
000110 8d 87 1c 3d 5a fb 17 3d a3 dc d0 bc 70 d1 6c bd
       0.03821521 0.037104942 -0.025495833 -0.057816923
000120 30 c0 e5 3c fb 09 ed bc ef 65 04 bd d8 04 19 be
       0.028045744 -0.028935423 -0.032323774 -0.14943254
000130 2d c9 65 3c 97 cd 9f bd 20 6f 9d bd 0f f0 7f 3d
       0.014025015 -0.07802885 -0.07687211 0.062484797
000140 7a af a8 bd 99 03 a2 3d 2a 97 77 bd e1 a6 05 bd
       -0.082365945 0.079108424 -0.060446896 -0.03262985
000150 29 68 2a bd c3 28 ce bd 02 e8 7c bd a2 33 fb bc
       -0.04160324 -0.100663684 -0.061744697 -0.030664269
000160 88 0a 60 bc b2 9d a9 bd 07 7f ca bd bf 54 aa bd
       -0.013674386 -0.08282031 -0.0988751 -0.08316945
000170 18 38 ad bd ef 64 5e bd f5 39 9a 3d 17 03 a5 bd
       -0.08457965 -0.054295477 0.07530586 -0.0805723
000180 05 fd 91 bd b7 ac 00 3d 6c 02 5c bd 3c 1e d0 ba
       -0.07128338 0.031414714 -0.053713247 -0.0015878151

h.4.weight f4 [1, 100]
000000 d9 45 29 3f 27 63 0e 3d d9 5c 0d 3f e5 ff 42 be
       0.66122204 0.034762528 0.552198 -0.19042929
000010 b0 f7 4a bd fa df a4 3d ef 78 18 c0 2a 14 26 3d
       -0.04955262 0.08050533 -2.3823812 0.040546574
000020 99 da e3 3c ad 78 dc 3e d4 09 11 bf 50 84 b0 bd
       0.027814196 0.43060818 -0.5665562 -0.086189866
000030 28 21 8f bd 62 76 1a bd d9 47 ba bd 53 da 16 3f
       -0.06988746 -0.037710555 -0.09095735 0.58926886
000040 02 3e 99 bf 80 54 06 bc 4f de 02 3f c3 4d 9d bf
       -1.1972048 -0.008198857 0.51120466 -1.2289356
000050 cd 8a 13 3f 1b 21 92 3d dd db 1b bd e1 89 14 3f
       0.5763367 0.071352206 -0.038051475 0.58022887
000060 73 ac 5e 3d 39 57 fa 3e 52 43 b6 bd 48 64 05 3f
       0.05436368 0.4889467 -0.08899559 0.5210614
000070 3a 07 5e bd 7d 87 a8 bf 4b dd 06 3f de e2 11 bd
       -0.05420611 -1.3166348 0.52681416 -0.035616748
000080 ab fd 1b 3f d3 ce 09 3f 9a a0 06 3f fa 28 8c bc
       0.6093394 0.53831214 0.5258881 -0.017109383
000090 9b b6 2e 3f c0 42 ba bc aa ce 0e 3f 3f 56 24 bf
       0.68247384 -0.022736907 0.55784094 -0.641941
0000a0 f9 ef 12 3f b7 ea 6c 3d 8f 2f 4a 3e b6 ec 0d 3f
       0.5739742 0.05784103 0.19744705 0.5543932
0000b0 7a e3 90 3d ed 40 b8 bc b0 48 c3 3d d6 35 2a bf
       0.07074638 -0.022491897 0.095353484 -0.664884
0000c0 48 1d 2a bf 00 8e de bb 0f 9e 02 3f df 34 c1 3d
       -0.6645093 -0.00679183 0.5102243 0.094339125
0000d0 e7 e9 c4 bd 0a c7 82 3d 83 3f ef 3e 6d d0 d8 bc
       -0.09614926 0.0638562 0.46728143 -0.026466573
0000e0 6a 4a b3 bf ed 84 31 3f af dd fd be 07 52 98 bf
       -1.4007084 0.69343454 -0.49583194 -1.1900033
0000f0 f2 c7 b7 bd 43 04 e8 3e 1b d5 ae bd 1c 4a 2d bf
       -0.089736834 0.4531575 -0.085367404 -0.67691207
000100 b6 10 25 3f 2a 06 c1 bc a6 be 6e bf 87 5c a9 bf
       0.64478624 -0.02356251 -0.93259656 -1.3231362
000110 72 83 f8 3e b3 82 c9 bd f3 75 81 bc 96 d0 22 bd
       0.48537785 -0.09839382 -0.015803313 -0.039749704
000120 07 5e 14 3b 94 25 15 3f fd 8c bb 3d c9 73 16 3f
       0.0022639052 0.58260465 0.09157751 0.58770424
000130 bb 99 ad bf fb b1 99 3d e8 8d 09 3f e4 da 6e bd
       -1.356254 0.0750465 0.53732157 -0.05831422
000140 bd a9 54 bd 2a 62 84 bf d4 91 9d bd 5d e9 0e 3f
       -0.051919688 -1.0342457 -0.0769383 0.55824834
000150 19 fe 11 3f 19 fa 2b 3d 9f a8 99 be 3b d6 9c bf
       0.5702835 0.04198656 -0.3001146 -1.2252878
000160 56 a1 a7 bf 10 b0 0e 3d 97 44 f6 3e 08 f0 0d 3f
       -1.3096111 0.034835875 0.48099205 0.55444384
000170 9f 65 a0 3d 0c 09 b7 3e 48 11 9a bf 37 f3 ae 3d
       0.07831883 0.3574909 -1.2036524 0.08542483
000180 a7 05 12 3d 33 dd 9b 3e 60 a8 0a bc a5 bf 2d 3e
       0.03564992 0.304422 -0.008462995 0.16967638
