logs/PointMaze-Right/airl_sac/seed0-20231226-1522/model/step545000/actor.pth (torch, 276359 bytes, 6 tensors)

net.0.weight f4 [256, 6]
0	0xbb484f41	-0.0030564817
1	0x3e60421c	0.21900219
2	0xbeac0915	-0.3360068
3	0xbe99d40a	-0.30044585
4	0xbe210329	-0.15723862
5	0x3de03451	0.109474786
6	0xbf16eeeb	-0.5895831
7	0x3e9b5d13	0.30344447
8	0xbd14657f	-0.036229607
9	0xbdd47b09	-0.103750296
10	0xbea06cb8	-0.31332946
11	0xbda458cb	-0.080247484
12	0xbf9faeb8	-1.2475195
13	0xbef367fd	-0.47540274
14	0xbe2c540d	-0.16828938
15	0x3f280c5f	0.65643877
16	0x3e59232b	0.21204822
17	0x3e7ad658	0.24495828
18	0xbf9bfd39	-1.2186652
19	0xbda2d61a	-0.07950993
20	0x3e17d770	0.14828277
21	0x3f6da7e1	0.9283429
22	0x3d56f646	0.05248096
23	0x3e9c6a1b	0.30549702
24	0xc007013c	-2.1094503
25	0xbd8f87cb	-0.07008322
26	0x3ebd43f6	0.36965913
27	0xbf8c004b	-1.093759
28	0xbe883f1d	-0.26610652
29	0xbdd3ab69	-0.10335428
30	0xbe22f454	-0.15913516
31	0x3eb4989d	0.35272685
32	0xbe877c0b	-0.26461825
33	0xbe4070c0	-0.1879301
34	0xbe920832	-0.28521878
35	0xbec3c34e	-0.38234943
36	0xbf189fa7	-0.5961861
37	0x3e59e18f	0.2127745
38	0x3e3a8a38	0.18216789
39	0x3d39181c	0.045189008
40	0xbe50d397	-0.20393215
41	0xbe56534f	-0.20930217
42	0xbe919e0f	-0.28440902
43	0xbf5e7186	-0.86891973
44	0xbe970877	-0.29498646
45	0xbecedb5f	-0.40401742
46	0x3e5cf7ce	0.21578905
47	0x3e751c02	0.23936465
48	0xbf566780	-0.8375168
49	0x3e2cf373	0.16889744
50	0x3e85aed8	0.26109958
51	0x3f81b195	1.0132319
52	0x3cdf3c09	0.027250307
53	0x3d61e677	0.05515143
54	0x3e379ae7	0.17930184
55	0xbeeee75c	-0.46660888
56	0x3d9bcd04	0.07607463
57	0xbfb12d50	-1.3841953
58	0xbe8022ee	-0.2502665
59	0xbe57f4b1	-0.21089436
60	0x3f8284af	1.0196742
61	0xbec4d6e3	-0.38445196
62	0xbe77a179	-0.2418269
63	0x3d566e6b	0.052351397
64	0x3dbd31d9	0.09238023
65	0xbd530f0d	-0.051528025
66	0x3c7f62ed	0.015587551
67	0x3dc1ba01	0.094593056
68	0x3e81ac4d	0.25326768
69	0x3ec8b3e9	0.3919976
70	0xbea11402	-0.31460577
71	0xbe193389	-0.14961065
72	0xbeb4d216	-0.35316533
73	0x3efc3d91	0.4926572
74	0x3eb5e4ba	0.35526067
75	0x3e6969ad	0.22794218
76	0xbd8950d5	-0.067048706
77	0xbeb5c34d	-0.35500565
78	0xbed1e6ad	-0.40996304
79	0xbf28b65f	-0.65903276
80	0xbec2cccb	-0.3804687
81	0x3f21aa2d	0.6315029
82	0x3dee6ab6	0.11641447
83	0xbed081a5	-0.4072391
84	0x3d9c7e40	0.07641268
85	0xbd8cd921	-0.068773516
86	0xbd89969e	-0.06718181
87	0xbe3f5d12	-0.18687847
88	0x3e20c324	0.1569944
89	0xbe779c3b	-0.24180691
90	0x3ed0d800	0.40789795
91	0x3ec047de	0.3755483
92	0x3e95a23b	0.29225335
93	0x3f0bfa35	0.5467866
94	0xbf29711b	-0.6618821
95	0xbe8797b8	-0.2648294
96	0xbe27ef57	-0.16399895
97	0xbee2fd7a	-0.44334012
98	0xbea30e3c	-0.31846797
99	0xbf102cd3	-0.56318396
100	0x3e5ed082	0.21759227
101	0x3e8cd7f1	0.275085
102	0xbe364758	-0.17800653
103	0xbdd26e88	-0.102749884
104	0xbec71d73	-0.38889655
105	0xbbf072dd	-0.0073379115
106	0xbe9d6820	-0.30743504
107	0xbea13b3d	-0.31490508
108	0xbcb84603	-0.022494322
109	0x3d7b1200	0.061296463
110	0xbe2b33de	-0.16719005
111	0x3e780f2d	0.24224539
112	0xbe7e65c3	-0.24843507
113	0x3ebda94d	0.3704323
114	0x3f229b90	0.6351862
115	0xbf25ac51	-0.6471606
116	0xbdd0171f	-0.1016066
117	0x3c0baca5	0.008525048
118	0xbd3d6211	-0.0462361
119	0x3dc64cb5	0.096825995
120	0x3e240d9d	0.16020818
121	0x3cc8540d	0.024454141
122	0xbe4bfa0f	-0.19919609
123	0x3e45d09d	0.19317861
124	0xbec88155	-0.39161173
125	0xbe77c760	-0.2419715
126	0xbdd14c86	-0.10219674
127	0xbe4ba2cc	-0.19886321
128	0xbe123f1d	-0.14281888
129	0xbeab51e4	-0.33460915
130	0xbdb1d97c	-0.0868406
131	0x3db2b85d	0.08726571
132	0xbe882be2	-0.2659598
133	0xbcaba185	-0.020951042
134	0x3e95a11f	0.29224488
135	0xbd2be6ab	-0.04196803
136	0x3c39e519	0.011346125
137	0xbd1041f0	-0.035219133
138	0xbf5e0629	-0.8672815
139	0x3edb7622	0.42863566
140	0x3ec5ff12	0.38671166
141	0x3e6ec7a8	0.2331835
142	0x3e63b936	0.22238621
143	0xbcf1ded1	-0.029525192
144	0xbf976b4c	-1.182962
145	0xbf40c19c	-0.75295424
146	0x3e8e532f	0.2779784
147	0xbe84ccf5	-0.2593762
148	0x3db35cb1	0.08757914
149	0xbea02d48	-0.31284547
150	0xbf012151	-0.5044146
151	0xbf87eaae	-1.0618494
152	0xbda9971d	-0.08280776
153	0x3eedc2fd	0.46437827
154	0x3ea26a33	0.3172165
155	0xbec996ad	-0.3937277
156	0x3e826287	0.25465795
157	0xbea39005	-0.31945816
158	0xbdb0c231	-0.08630789
159	0xbe29819e	-0.16553351
160	0xbda10b50	-0.07863486
161	0xbda42922	-0.08015658
162	0xbebb9120	-0.3663416
163	0xbeb47a7e	-0.35249704
164	0xbd82d4d2	-0.063882485
165	0x3bad0000	0.005279541
166	0xbe3de86e	-0.18545696
167	0x3e1d7a4a	0.15378681
168	0xbfac54f0	-1.3463421
169	0xbea2e2c7	-0.31813642
170	0x3eb7d1aa	0.35902148
171	0x3d88ec85	0.066857375
172	0x3ea2a575	0.3176686
173	0x3e1765a4	0.14784867
174	0xbfb1556c	-1.3854194
175	0x3ea2b02f	0.31775042
176	0xbd40f5fe	-0.047109596
177	0xbf1dfb97	-0.6171202
178	0x3e5311a6	0.20612201
179	0xbea8e91d	-0.3299035
180	0xbf11b697	-0.56919235
181	0xbed0a81d	-0.4075326
182	0x3e95441d	0.2915353
183	0x3f3283d0	0.6973238
184	0x3e5a5b0c	0.21323794
185	0x3e13a304	0.14417654
186	0xbdc90f21	-0.09817339
187	0xbdafd5b7	-0.08585685
188	0xbeac4088	-0.33642983
189	0x3e628413	0.22120695
190	0x3ea5f5b5	0.32414022
191	0x3e8f04d1	0.27933362
192	0xbe9370bd	-0.2879695
193	0x3c952896	0.01820783
194	0xbe9358f8	-0.28778815
195	0xbe6620bb	-0.22473423
196	0xbe73990d	-0.23788853
197	0x3e0edd80	0.13951683
198	0xbf47095b	-0.7774865
199	0x3ef25690	0.47331667
200	0x3c8cb0fe	0.01717424
201	0x3f6a71f1	0.9158011
202	0xbf05bfde	-0.5224589
203	0xbe8f7f37	-0.28026745
204	0xbe66a6b7	-0.22524534
205	0x3e8ac238	0.27101302
206	0xbe1645e3	-0.14675097
207	0x3ea9006b	0.3300813
208	0x3e088a7f	0.13334082
209	0x3d53bdfc	0.051694855
210	0xbb472a21	-0.00303901
211	0xbda547b2	-0.080703154
212	0x3d51cd8e	0.051221423
213	0xbdbeead3	-0.09322133
214	0xbb3bfdf1	-0.0028685296
215	0x3d555bf3	0.052089643
216	0xbf8acecc	-1.0844359
217	0xbf8be297	-1.0928525
218	0x3ea8c8e0	0.32965755
219	0xbe3de7ba	-0.18545428
220	0x3decd4e6	0.11564045
221	0x3ecec616	0.40385503
222	0x3e170388	0.14747441
223	0x3c3d60ea	0.011558751
224	0xbeb5243b	-0.35379204
225	0x3e4f1744	0.20223719
226	0xbe94e216	-0.2907874
227	0xbded5638	-0.115887105
228	0xbe0722e0	-0.13196898
229	0xbd60159f	-0.05470812
230	0x3b9253a4	0.004465537
231	0x3ea908af	0.33014438
232	0x3d35ca42	0.04438234
233	0x3ebb3874	0.36566508
234	0x3e7fb95f	0.24973057
235	0xbe8425b8	-0.25810027
236	0x3e3b7ed6	0.18310103
237	0xbe93c1f4	-0.28858912
238	0xbe312db3	-0.17302589
239	0x3df5e9ee	0.12007509
240	0xbe274143	-0.16333489
241	0x3e66a9d4	0.22525722
242	0xbe069363	-0.13142161
243	0xbe65f96e	-0.22458431
244	0xbd85096f	-0.0649594
245	0xbeca2507	-0.39481375
246	0x3e971ea3	0.2951556
247	0xbeacd88e	-0.33758968
248	0x3bb86009	0.0056266827
249	0xbd8e2656	-0.06940906
250	0xbe5c2c75	-0.21501334
251	0x3d5d03b2	0.053958602
252	0x3eab1537	0.33414623
253	0xbdecfbad	-0.11571441
254	0xbe78310d	-0.24237461
255	0xbe1a9c18	-0.15098608

net.0.bias f4 [256]
0	0xbe0b00c9	-0.13574518
1	0xbd71692f	-0.0589382
2	0x3e6cc931	0.23123623
3	0x3df9cf78	0.12197775
4	0x3ec2823b	0.37989983
5	0xbe90abf9	-0.28256205
6	0xbd8d0ea6	-0.068875596
7	0x3ea6ddaf	0.32591006
8	0xbe52b354	-0.20576221
9	0x3eb6ae79	0.35679987
10	0xbe0001b6	-0.12500653
11	0xbe9c86a1	-0.30571464
12	0xbebe99dd	-0.37226763
13	0xbd2c36fb	-0.04204462
14	0xbe34e8b9	-0.17666902
15	0xbe237824	-0.15963799
16	0x3e71004d	0.23535271
17	0x3e0e008c	0.13867396
18	0xbd1c7fdb	-0.03820787
19	0xbb75f91f	-0.003753252
20	0xbe70dad0	-0.2352097
21	0xbeafa1e1	-0.3430319
22	0xbe9d1f63	-0.3068801
23	0xbf01fd42	-0.50777066
24	0x3ebfa557	0.37430832
25	0x3e344008	0.17602551
26	0xbe31a802	-0.17349246
27	0xbecc74c3	-0.39932832
28	0x3e2e447c	0.17018312
29	0xbeb451cb	-0.35218653
30	0xbd51418a	-0.051087894
31	0xbeaf431a	-0.34230882
32	0xbe6bd81f	-0.23031662
33	0xbd325f30	-0.04354781
34	0xbeca25f7	-0.3948209
35	0xbe6e62f6	-0.23279938
36	0x3ee6ecd1	0.45102552
37	0xbe5664fe	-0.20936963
38	0xbe34b77c	-0.17648119
39	0xbdeac0ba	-0.11462541
40	0xbdce19de	-0.100635275
41	0xbe891ce2	-0.26779848
42	0x3d19432e	0.037417583
43	0xbd8ab958	-0.06773633
44	0x3d93f3df	0.07224249
45	0x3e9a4082	0.3012734
46	0xbe9f73ea	-0.31143123
47	0x3d484f4b	0.048903745
48	0xbc910489	-0.017702358
49	0x3dcd4c59	0.10024328
50	0xbeacd5c4	-0.3375684
51	0x3d0cedba	0.0344064
52	0x3cc7289a	0.024311353
53	0xbd923d3d	-0.071405865
54	0xbd42fcbc	-0.047604308
55	0x3db837b3	0.08994999
56	0xbeed2ee5	-0.4632484
57	0xbe8efe78	-0.2792852
58	0x3e718f5a	0.2358984
59	0xbe7004ff	-0.23439406
60	0xbea667f9	-0.325012
61	0xbd24ece5	-0.040264983
62	0x3e86ac15	0.26303163
63	0xbea54013	-0.32275447
64	0xbeb7dc9e	-0.35910505
65	0x3f096563	0.5367033
66	0xbcdf176b	-0.027232846
67	0xbe826104	-0.25464642
68	0xbe473f03	-0.19457631
69	0xbd30dad7	-0.043177452
70	0x3d149540	0.03627515
71	0x3c6db6ec	0.014508944
72	0xbe835622	-0.25651652
73	0x3e88ad0f	0.26694533
74	0xbe82a034	-0.2551285
75	0xbe53ebd6	-0.20695433
76	0xbe1f4ff8	-0.1555785
77	0x3d90b883	0.07066443
78	0xbea90697	-0.3301284
79	0x3e69da47	0.22837172
80	0x3e79ee0b	0.24407212
81	0xbe50a722	-0.20376256
82	0xbea25e84	-0.31712735
83	0xbeb738a6	-0.35785407
84	0xbc645323	-0.013935837
85	0xbeb4a388	-0.35281014
86	0xbe93d74f	-0.28875205
87	0x3ea80485	0.32815948
88	0x3e25d1da	0.16193333
89	0x3ebb0e35	0.36534277
90	0x3e88abf4	0.2669369
91	0x3d156fb6	0.03648349
92	0x3d82f6f4	0.06394759
93	0x3e7d9979	0.24765576
94	0xbe8f015a	-0.2793072
95	0xbdf04c58	-0.117333114
96	0x3eb2cc10	0.34921312
97	0xbc749b9a	-0.014929676
98	0xbe88022f	-0.26564166
99	0xbf167a61	-0.58780485
100	0x3e429a47	0.19004165
101	0x3ebc9468	0.36831975
102	0x3dd1af96	0.102385685
103	0xbe25f6aa	-0.16207376
104	0x3ec83ce6	0.39108962
105	0xbebfe93d	-0.37482634
106	0xbe9697ea	-0.29412776
107	0xbec920e0	-0.39282894
108	0x3eb3fab2	0.35152203
109	0x3dd78371	0.10523117
110	0xbe407edd	-0.18798395
111	0x3daa976a	0.08329661
112	0xbe2f13ec	-0.17097443
113	0xbe860e47	-0.26182768
114	0xbd776a85	-0.06040432
115	0x3db6c809	0.089248724
116	0xbe95af71	-0.29235414
117	0xbe89acf3	-0.26889762
118	0x3d990cc8	0.07473141
119	0x3aa3da68	0.0012501003
120	0x3e9c3099	0.30505827
121	0xbe51fa76	-0.205057
122	0x3d75ff9a	0.060058214
123	0x3e2a6aaa	0.16642252
124	0xbeb6fed5	-0.35741296
125	0xbe8774d6	-0.26456326
126	0xbd9cabad	-0.07649932
127	0x3cefaa99	0.029256152
128	0xbe064d9a	-0.1311554
129	0x3e09bdd0	0.13451314
130	0xbe817361	-0.2528334
131	0x3ec856a9	0.39128616
132	0xbce7c8b2	-0.028293941
133	0x3e2f58cb	0.17123716
134	0xbd17e72b	-0.037085693
135	0x3e9de4a7	0.3083851
136	0xbedb6ddf	-0.42857262
137	0x3db2822a	0.08716233
138	0x3e015921	0.12631656
139	0xbdbcb7cc	-0.09214744
140	0x3e5a2a3c	0.21305174
141	0xbe88ef80	-0.26745224
142	0xbebaac16	-0.36459416
143	0xbe5d707d	-0.21624942
144	0xbec1fdbf	-0.37888905
145	0x3ea65cc4	0.3249265
146	0xbe9d2068	-0.30688787
147	0xbee7ba4f	-0.4525933
148	0xbe9aca8c	-0.30232656
149	0xbe8cd770	-0.27508116
150	0xbed82f75	-0.42223707
151	0x3e8b3938	0.27192092
152	0xbe9cef04	-0.30651104
153	0x3e86bd61	0.2631636
154	0x3e95f007	0.2928469
155	0xbe43730d	-0.19086857
156	0x3e75bb4e	0.23997232
157	0xbe6a2c16	-0.2286838
158	0x3ed0dd77	0.40793964
159	0x3e02e2c0	0.12781811
160	0x3dc6afaf	0.09701478
161	0x3e513946	0.20432004
162	0xbecf9422	-0.40542704
163	0xbe04bc24	-0.12962395
164	0x3e04fdcd	0.12987442
165	0xbeb5ae1f	-0.35484406
166	0x3e8b1526	0.27164572
167	0xbe1f52d0	-0.15558934
168	0xbe173335	-0.14765628
169	0xbea5d78a	-0.32391006
170	0x3b275a62	0.002553605
171	0xbecad6f4	-0.3961712
172	0xbdb16c6e	-0.086632594
173	0xbd468302	-0.048464783
174	0x3c8f770e	0.017512824
175	0x3dbb18c0	0.0913558
176	0xbe3a959b	-0.18221132
177	0xbe18ab2e	-0.1490905
178	0xbd00fe34	-0.031492427
179	0xbe10751e	-0.14107177
180	0x3ea12205	0.31471267
181	0x3d3dba4d	0.04632025
182	0x3b3c455f	0.0028727872
183	0xbea86ec2	-0.32897002
184	0x3e8c4860	0.27398968
185	0xbe4012b7	-0.18757139
186	0xbddfcf20	-0.10928178
187	0x3b20237a	0.0024435208
188	0xbdea1d16	-0.11431329
189	0x3de014a3	0.10941436
190	0x3e1e4afc	0.15458292
191	0xbe79c6c5	-0.24392231
192	0x3db016bc	0.08598086
193	0xbea7fe27	-0.3281109
194	0x3e95655a	0.29178888
195	0x3defff75	0.117186464
196	0x3e7f8d7c	0.24956316
197	0x3ecf7b56	0.40523785
198	0x3de7db29	0.11321098
199	0x3d2f3bc7	0.042781617
200	0xbe671243	-0.2256556
201	0xbe2eaebe	-0.17058846
202	0x3e921719	0.28533247
203	0x3e02c8c9	0.12771906
204	0xbef71923	-0.48261365
205	0x3ce0e384	0.027452238
206	0xbbc682c0	-0.006058067
207	0xbc94aa22	-0.018147532
208	0xbeae3b94	-0.3402983
209	0xbe4c7874	-0.19967824
210	0x3dbbba4c	0.09166393
211	0xbeaadbed	-0.33370915
212	0xbec26f4c	-0.37975538
213	0xbeb69b95	-0.35665575
214	0xbe37a07f	-0.17932318
215	0x3d5dac0b	0.05411915
216	0x3e16f21d	0.14740796
217	0xbe984193	-0.2973753
218	0xbd692b2e	-0.056925945
219	0xbe9f997f	-0.31171796
220	0xbe5fa43f	-0.21839999
221	0xbd930653	-0.071789406
222	0xbe76e0c2	-0.24109176
223	0xbac5b4a2	-0.001508374
224	0xbe4f5337	-0.20246588
225	0xbe0d2278	-0.1378268
226	0xbe6be8d6	-0.23038039
227	0xbeabd2a4	-0.33559144
228	0x3d86083f	0.065445416
229	0xbe4d3be9	-0.20042385
230	0x3c590470	0.013245687
231	0x3e782cc1	0.24235822
232	0xbda05088	-0.0782786
233	0xbe54c8fb	-0.20779793
234	0xbe7aff0b	-0.24511354
235	0xbe92bbe2	-0.28658968
236	0xbd91aceb	-0.071130596
237	0xbd22a716	-0.039710127
238	0x3e5716ca	0.21004787
239	0x3f042586	0.51619756
240	0xbe655fd2	-0.22399834
241	0xbe2801aa	-0.16406885
242	0x3e88634c	0.26638258
243	0x3dd2b200	0.10287857
244	0x3e74cab2	0.23905447
245	0x3bbad50e	0.0057016676
246	0xbdc0d72a	-0.09416039
247	0xbedc8915	-0.43073335
248	0xbd18819b	-0.037232976
249	0xbea2a91d	-0.31769648
250	0xbddbc36c	-0.10730633
251	0xbeaeb36b	-0.3412126
252	0xbec8f166	-0.39246672
253	0x3e60161e	0.21883437
254	0xbe18735b	-0.14887755
255	0x3e19e888	0.1503011

net.2.weight f4 [256, 256]
0	0x3d4bb504	0.049733177
1	0x3c885638	0.016642675
2	0x3dc46496	0.09589498
3	0x3de65624	0.11246899
4	0xbeaa1d04	-0.33225262
5	0x3cf6344c	0.030054234
6	0x3d57da7a	0.05269859
7	0x3e334c93	0.1750968
8	0x3de5d987	0.11223131
9	0xbf4168ff	-0.75550836
10	0x3f2fea58	0.68716955
11	0x3c6db5c0	0.014508665
12	0xbd880781	-0.06642056
13	0xbf3e4521	-0.7432423
14	0xbd1886fa	-0.0372381
15	0xbed46609	-0.41484097
16	0x3e9136a2	0.28361994
17	0x3d4a104c	0.04933195
18	0xbd3447ac	-0.044013664
19	0x3da9cc03	0.08290865
20	0x3d00644a	0.031345643
21	0x3d3502d4	0.04419215
22	0x3c8048a0	0.01565963
23	0x3c921fa4	0.017837353
24	0x3e8077a7	0.25091287
25	0xbf2e45b0	-0.68075085
26	0x3cae16cc	0.021251105
27	0xbd482cd4	-0.048870876
28	0x3d793187	0.06083825
29	0x3a939147	0.0011258506
30	0x3e6e16f1	0.23250939
31	0xbcb4e3e4	-0.022081323
32	0xbd7dc850	-0.06195861
33	0xbcfc2900	-0.03078127
34	0x3cc403bc	0.023927562
35	0x3d5c6f1e	0.053816907
36	0x3e3b2a36	0.18277821
37	0x3cf4724c	0.029839657
38	0xbd72e966	-0.059304617
39	0xbd74d032	-0.059768863
40	0xbd205190	-0.039140284
41	0xbc0740d8	-0.008255206
42	0x3c8eff9c	0.017455868
43	0xbcc692d9	-0.024239944
44	0xbdce757c	-0.10081002
45	0xbf0df205	-0.5544742
46	0x3b7c0300	0.0038453937
47	0x3e08a78c	0.13345164
48	0x3e202dd1	0.15642478
49	0xbd4d48bf	-0.050118204
50	0xbc042460	-0.008065313
51	0xbd0641aa	-0.032777466
52	0xbdfa2f43	-0.12216046
53	0xbd4cfd22	-0.050046094
54	0xbe8c4c1f	-0.27401826
55	0xb879c9a7	-5.955403e-05
56	0xbf010e2d	-0.50412256
57	0x3c4476b6	0.0119911935
58	0x3e2742e6	0.16334113
59	0xbe533af7	-0.20627962
60	0x3cfcbfa0	0.030853093
61	0xbb62e600	-0.0034621954
62	0x3dbf8731	0.093519576
63	0x3d1ae3a4	0.03781475
64	0x3d3a19a7	0.04543462
65	0xbe74706d	-0.23871012
66	0xbf7e0884	-0.99231744
67	0x3de20ea3	0.11037948
68	0xbd16eb89	-0.036845718
69	0x3d7174a6	0.058949135
70	0x3e14ac7a	0.1451892
71	0x3d748c6e	0.059704237
72	0xbcef2a78	-0.029195055
73	0xbea37c10	-0.3193059
74	0x3de2bb67	0.110709004
75	0xbed0749c	-0.40713966
76	0x3d006aa2	0.031351693
77	0x3ddcae7a	0.10775466
78	0x3d59fb36	0.05321809
79	0xbdd7a4a3	-0.10529449
80	0x3d8ca8fa	0.06868167
81	0xbd16a65c	-0.036779746
82	0x3c8ead78	0.0174167
83	0xbea3cdf8	-0.3199308
84	0x3efc5782	0.49285513
85	0xbd425e32	-0.047453113
86	0xbc96347c	-0.018335573
87	0x3ec7bbda	0.39010507
88	0x3e4ced2c	0.20012349
89	0x3e12f95c	0.14352936
90	0x3d9a233d	0.075262524
91	0xbd98150e	-0.07425891
92	0x3dde7255	0.10861651
93	0xbf2150dc	-0.63014007
94	0xbc6b5dc7	-0.01436562
95	0xbfcc815f	-1.5976981
96	0x3cd8b56b	0.026453694
97	0xbec12c84	-0.37729275
98	0x3c19abb0	0.009379312
99	0xbedc2785	-0.429989
100	0x3e5f16d9	0.2178606
101	0x3ecacb52	0.39608246
102	0x3df43f6f	0.119261615
103	0x3eb6c3d6	0.35696286
104	0xbf1d950a	-0.6155554
105	0xbc59cce8	-0.013293482
106	0x3cc3a11c	0.023880534
107	0x3d00d402	0.031452186
108	0x3f201a35	0.6253999
109	0xbca9e0a4	-0.020737
110	0xbccf459c	-0.025301747
111	0xbcef0b37	-0.029180152
112	0x3c025268	0.0079542175
113	0xbd02c328	-0.031924397
114	0xbbb734e0	-0.00559102
115	0xbf08d98b	-0.53456944
116	0xbd71df40	-0.0590508
117	0x3d2d8c56	0.042370163
118	0xbbda32c1	-0.0066588824
119	0xbe2674c9	-0.16255488
120	0xbe4c251d	-0.19936033
121	0xbd09bf38	-0.033629626
122	0xbc361f2e	-0.011115832
123	0xbe9d5217	-0.30726692
124	0x3b3d9d40	0.002893284
125	0x3c934de4	0.017981477
126	0x3dab928d	0.08377562
127	0x3ddeb96e	0.10875212
128	0xbc9d17e0	-0.019176424
129	0xbed6b629	-0.41935852
130	0xbba04520	-0.004891053
131	0xbc0b6867	-0.008508778
132	0xbdea6507	-0.11445051
133	0x3e3ba25d	0.18323655
134	0xbe584511	-0.21120097
135	0x3e0820d1	0.13293768
136	0xba9bd28d	-0.001188831
137	0xbf053bde	-0.52044475
138	0xbf210bcd	-0.6290863
139	0xbd5fcdd0	-0.054639637
140	0x3deb2270	0.11481178
141	0x3c196f9e	0.0093649905
142	0x3d2bf7fa	0.041984536
143	0xbd55b08b	-0.052170318
144	0x3cd7d1b0	0.026345104
145	0x3cf62b74	0.030050017
146	0xbe0609a2	-0.13089612
147	0xbe4da522	-0.20082524
148	0xbd090521	-0.033452157
149	0x3a8cd7c0	0.0010745451
150	0xbea7fd62	-0.32810503
151	0xbe1c195e	-0.15244052
152	0xbc193470	-0.009350881
153	0xbf267c55	-0.65033466
154	0x3f1d6250	0.6147814
155	0xbf83d073	-1.0297989
156	0xbee1859c	-0.44047248
157	0xbd235122	-0.039872296
158	0xbea17930	-0.3153777
159	0x3e0bde2c	0.1365897
160	0x3d5f7cd4	0.054562405
161	0xbf849656	-1.0358379
162	0xbfedb883	-1.8571934
163	0x3bc21f0e	0.005924112
164	0xbf76e4d3	-0.9644291
165	0xbc910db4	-0.01770673
166	0xbe1e9910	-0.15488076
167	0x3d2d268e	0.042273097
168	0x3d6b8fd8	0.057510227
169	0xbb2c9c60	-0.0026338324
170	0xbf81f7b6	-1.015372
171	0xbcbbc588	-0.022921339
172	0xbcaf1b40	-0.021375299
173	0xbdb3d2f0	-0.087804675
174	0x3d63cb11	0.05561358
175	0x3ddd9fba	0.10821481
176	0xbfd25ca6	-1.6434524
177	0xbdafe78f	-0.08589088
178	0xbd9fc77c	-0.078017205
179	0xbead909a	-0.33899385
180	0x3e0580da	0.13037434
181	0xbe2cb18a	-0.16864601
182	0xbd4537e2	-0.048148997
183	0xbcbcce58	-0.023047611
184	0xbecfe6b9	-0.40605715
185	0x3d5dba22	0.05413259
186	0xbc07be98	-0.008285187
187	0xbd00d840	-0.031456232
188	0xbdcfcf62	-0.10146977
189	0xbbf47c07	-0.0074610743
190	0xbe98c569	-0.29838112
191	0x3c6af330	0.014340207
192	0x3dccab5b	0.09993621
193	0xbc1827d8	-0.009286843
194	0xbed36355	-0.41286722
195	0xbeabd37e	-0.33559793
196	0xbca0d228	-0.01963146
197	0x3ed57112	0.41687828
198	0xbf8cfd5d	-1.101482
199	0xbeaa3eb0	-0.33250952
200	0x3cd55a2e	0.026043978
201	0xbc2019e0	-0.009771794
202	0xbf29aac4	-0.6627619
203	0x3d1752f0	0.03694433
204	0xbe972780	-0.29522324
205	0xbe877582	-0.2645684
206	0xbc9b830c	-0.018983386
207	0x3d40e16a	0.04708997
208	0xbe7f1cfe	-0.24913403
209	0x3d7a532b	0.06111447
210	0xbe29692a	-0.16544023
211	0xbe57a2e3	-0.2105823
212	0x3d1f7d94	0.03893812
213	0xbde6852c	-0.11255869
214	0xbeef1c68	-0.4670136
215	0xbd9facad	-0.07796607
216	0xbea10257	-0.31447098
217	0xbfa63d41	-1.2987443
218	0xbf28b768	-0.65904856
219	0x3ceb0657	0.028689547
220	0xbd37e354	-0.04489453
221	0x3ca462d4	0.020066656
222	0xbf580bfb	-0.8439328
223	0xbd438684	-0.047735706
224	0xbbcd4450	-0.006264247
225	0x3dda9bd4	0.10674253
226	0xbd37d18a	-0.044877566
227	0xbe1bbcee	-0.1520879
228	0xbc86e98e	-0.01646879
229	0xbd1d94a0	-0.038471818
230	0xbf29611f	-0.6616382
231	0x3d5bb9b1	0.053643886
232	0xbe85dd8e	-0.26145595
233	0x3b0a3820	0.0021090582
234	0x3d550ed0	0.05201608
235	0xbeed6f7b	-0.46374115
236	0x3f0bf257	0.54666656
237	0x3ecd7534	0.4012848
238	0xbeb815c5	-0.3595411
239	0xbe0796ee	-0.13241169
240	0xbccb5b30	-0.024823755
241	0xba337000	-0.00068449974
242	0xbf03f093	-0.5153896
243	0x3ced20fb	0.02894639
244	0x3e07666a	0.13222662
245	0x3c28047a	0.010254974
246	0x3eb56278	0.35426688
247	0xbe886389	-0.2663844
248	0xbe1b9e16	-0.15197024
249	0xbc918f33	-0.017768478
250	0x3d322980	0.04349661
251	0x3d7b1ef6	0.061308824
252	0x3cf92268	0.030411914
253	0xbbd5d5ff	-0.0065257545
254	0xbe6bf871	-0.23043992
255	0xbded837b	-0.115973435

net.2.bias f4 [256]
0	0x3dbfa274	0.09357157
1	0xbd4be9ad	-0.049783397
2	0xbb759021	-0.003746994
3	0xbd114fe9	-0.0354766
4	0xbd0050ed	-0.031327177
5	0xbcd8e5e1	-0.026476802
6	0xbd83e4fd	-0.064401604
7	0xbc6290fd	-0.013828513
8	0xba7abd96	-0.00095649937
9	0xbd229dd5	-0.0397013
10	0xbd354005	-0.044250507
11	0x3bc22c74	0.0059257094
12	0xbcc9e35e	-0.02464455
13	0x3d389c86	0.045071147
14	0x3e65cf9b	0.22442476
15	0x3d498579	0.049199555
16	0xbd3f0a40	-0.046640635
17	0x3d839c3e	0.06426285
18	0xbd093db0	-0.033506095
19	0xbd22eec2	-0.03977848
20	0xbe0a796a	-0.13522878
21	0x3e963fd6	0.29345578
22	0x3c03af96	0.008037468
23	0xbc2ff02c	-0.010738414
24	0x3d09463a	0.03351424
25	0x3aa22156	0.0012369554
26	0xbda9942f	-0.08280217
27	0xbd48a340	-0.048983812
28	0xbd915d7a	-0.07097907
29	0xbd3cb362	-0.04606951
30	0xbd585ee1	-0.05282486
31	0xbc5a0689	-0.013307222
32	0xbd36331e	-0.044482343
33	0xbbf22630	-0.007389806
34	0x3dc5f761	0.096663244
35	0x3eca880f	0.3955693
36	0xbca1691a	-0.019703437
37	0x3ba0b4d6	0.00490437
38	0xbaad23ea	-0.0013209556
39	0xbd2e9570	-0.042622983
40	0xbd79ea80	-0.061014652
41	0xbd28f96e	-0.0412535
42	0xbb93c3e8	-0.004509438
43	0xbc32d75d	-0.010915604
44	0xbd4aa73b	-0.04947589
45	0xbbacb99e	-0.0052711507
46	0xbcb6859b	-0.022280505
47	0x3c9cc491	0.019136699
48	0x3dbddb3a	0.0927033
49	0xbc5bed22	-0.013423236
50	0xbc8955f7	-0.016764624
51	0xbd8bea58	-0.06831807
52	0xbde2ba69	-0.11070711
53	0xbc45fc01	-0.012084008
54	0x3e6661fd	0.22498317
55	0xbd85e970	-0.06538665
56	0xbc4c472c	-0.012468141
57	0xbd41b96c	-0.047295973
58	0xbcae2d32	-0.021261785
59	0x3c29b711	0.010358588
60	0x3c59866f	0.01327668
61	0xbb31ca87	-0.0027128772
62	0xbc6d32bd	-0.014477429
63	0xbc60fcd2	-0.013732152
64	0xbbba74e4	-0.005690204
65	0x3de5444c	0.11194667
66	0x3b15c366	0.0022852062
67	0xbd8710fb	-0.06595036
68	0x3ecf1b57	0.40450546
69	0xbec64402	-0.3872376
70	0xbdcfe3e7	-0.10150891
71	0xbe37b51d	-0.17940183
72	0x3c0ff21a	0.008785749
73	0xbc820697	-0.015872283
74	0xbd888ecb	-0.066678606
75	0x3aae27a1	0.0013286957
76	0xbc4dec2b	-0.012568514
77	0xbd73816f	-0.05944961
78	0xbd39704e	-0.045273118
79	0xbb397efb	-0.0028304446
80	0x398d7abe	0.00026985066
81	0xbd86cdbd	-0.0658221
82	0xbcacf53c	-0.02111303
83	0xbd829bc6	-0.06377368
84	0xbd428ff1	-0.047500554
85	0x3d4f6a89	0.05063871
86	0xbd6317d7	-0.055442657
87	0x3cad30a3	0.021141356
88	0xbc3ef2e0	-0.011654586
89	0xbd3e4392	-0.04645116
90	0xbd74caf5	-0.059763867
91	0xbcb09f8a	-0.02156045
92	0x3ea81238	0.328264
93	0xbd2a6af5	-0.04160591
94	0x3bfcafc4	0.0077113826
95	0x3ebdf7c0	0.3710308
96	0xbc966c7a	-0.018362273
97	0xbd5f5c3d	-0.054531325
98	0xbd14a689	-0.036291633
99	0x3ed60f63	0.41808614
100	0xbd0446eb	-0.032294195
101	0xbcbe470d	-0.023227239
102	0x3eae8f29	0.34093598
103	0x3ea15345	0.31508842
104	0x3e3a0f70	0.18169951
105	0x3c7880dd	0.015167442
106	0x3c770e74	0.0150791295
107	0xbd4234eb	-0.047413748
108	0x3addd101	0.001692325
109	0xbd8c3250	-0.06845534
110	0xbd0a8f76	-0.03382822
111	0xbcef1508	-0.029184833
112	0xbcaea772	-0.021320079
113	0xbcaaf92c	-0.020870768
114	0x3b19f557	0.0023492181
115	0x3dcd0c88	0.10012156
116	0xbd8a1820	-0.06742883
117	0x3bbb2b3d	0.0057119415
118	0xbd64793e	-0.055779688
119	0xbc9301ee	-0.017945256
120	0xbd3d84e2	-0.046269305
121	0xbdeb3f86	-0.114867255
122	0xbc40f2c7	-0.011776633
123	0x3bbcd42b	0.005762597
124	0xbd3963ed	-0.045261312
125	0x3dc3707d	0.0954294
126	0x3bbca361	0.005756781
127	0xbc1f8828	-0.009737052
128	0x3b5c1b75	0.0033585702
129	0x3b0f2c1d	0.0021846362
130	0xbd0eecfe	-0.034893982
131	0x3e8e059f	0.27738664
132	0x3c298665	0.010346984
133	0xbceda7ea	-0.029010732
134	0xbd424167	-0.047425654
135	0xbbd925fd	-0.006626843
136	0xbd7fe5a6	-0.06247487
137	0x3e6d4d0d	0.23173924
138	0xbd1b8b91	-0.037974898
139	0x3cfa1e73	0.030532097
140	0xbd575450	-0.05257064
141	0xbc66e5a4	-0.0140928365
142	0xbb996a29	-0.0046818447
143	0xbd2edd8e	-0.04269176
144	0xbb101269	-0.002198363
145	0xbbe4c5fd	-0.00698161
146	0x3c89cbe7	0.016820861
147	0xbd3a3c1a	-0.045467474
148	0xbc32da55	-0.010916312
149	0x3e595d40	0.21226978
150	0x3df0ff55	0.11767451
151	0xbd40e44b	-0.047092717
152	0xbcbacb4e	-0.022802021
153	0xbd871096	-0.065949604
154	0xbd7255b7	-0.059163775
155	0xbd6b215f	-0.057404872
156	0x3c7bcfef	0.015369399
157	0x3d967a8d	0.073475935
158	0x3bbd6f79	0.005781111
159	0x3bf69b36	0.007525827
160	0xbb7cb48a	-0.0038559758
161	0xbd435a30	-0.04769343
162	0xbd125e9a	-0.03573475
163	0x3c3a4810	0.01136972
164	0x3e34ab69	0.17643513
165	0xbd7ea07a	-0.06216476
166	0xbd501dce	-0.050809674
167	0x3bb8a6b2	0.005635106
168	0xbcf38c5a	-0.02973001
169	0x3cb2e25f	0.021836458
170	0xbd5c7643	-0.05382372
171	0xbd2734e8	-0.04082194
172	0x3ba66362	0.0050777653
173	0xbda8844a	-0.08228357
174	0x3d03f4a3	0.032215726
175	0x3be9a7d1	0.007130601
176	0xbd384d09	-0.04499534
177	0xbc676f60	-0.014125675
178	0x3b5a371b	0.0033297006
179	0x3e76c1d8	0.24097383
180	0xba9f2cbd	-0.001214407
181	0x3c345123	0.011005673
182	0xbd527a08	-0.05138591
183	0xbd662f0b	-0.056197207
184	0x3c9035f1	0.017603846
185	0xbc1ee7f2	-0.009698855
186	0xbd4e8a6e	-0.050424986
187	0x3c395d03	0.01131368
188	0xbd16daac	-0.036829636
189	0x3e2f75e8	0.17134821
190	0x3c9464ee	0.018114533
191	0xbd5c1cf4	-0.05373855
192	0x3e303c61	0.17210533
193	0xbcc8fa6b	-0.024533471
194	0xbd5456dd	-0.05184065
195	0xbd7bcf6f	-0.06147712
196	0xbc6e803e	-0.0145569425
197	0xbb99b487	-0.00469071
198	0xbd8add3d	-0.06780479
199	0x3c0bf093	0.008541244
200	0x3b95f261	0.004576013
201	0xbc460390	-0.01208581
202	0xbd150e77	-0.036390748
203	0xbd495acb	-0.049158853
204	0xbd0ae39c	-0.03390847
205	0x3c8990d2	0.016792689
206	0xbd313ec0	-0.043272734
207	0x3b01c164	0.0019799108
208	0xbcc37ae7	-0.023862315
209	0x3eab5a5e	0.33467382
210	0x3e823e5d	0.25438204
211	0xbc086a61	-0.008326144
212	0x3e8c4e60	0.27403545
213	0x3d00e78c	0.03147082
214	0xbd09a86a	-0.033607878
215	0xbd1deb11	-0.038554255
216	0xbdc1420d	-0.09436426
217	0x3e7e2cdc	0.248218
218	0xbd1b2054	-0.037872627
219	0xbc87ff10	-0.016601115
220	0xbdb53fce	-0.088500604
221	0xbc8c8125	-0.017151425
222	0xbd166a65	-0.03672256
223	0xbe9f441a	-0.31106645
224	0x3e2d236d	0.16908045
225	0xbddc0d53	-0.10744729
226	0xbd8f3222	-0.06991984
227	0xbd7e244d	-0.062046338
228	0x3cc6df94	0.024276532
229	0x3e14c162	0.14526895
230	0xbcb8ffda	-0.022582937
231	0xb9ff5a22	-0.00048704544
232	0xbd8fc38c	-0.070197195
233	0xbc7b1ebd	-0.015327153
234	0xbc259f43	-0.010108772
235	0xbd739120	-0.059464574
236	0xbca33946	-0.019924771
237	0x3ea8aafe	0.32942957
238	0x3c0ef2b3	0.008724856
239	0xbc6524b2	-0.0139858
240	0x3dfb37f6	0.12266533
241	0xbd5b9670	-0.053610265
242	0xbd66cddb	-0.056348663
243	0xbc4f9460	-0.012669653
244	0x3e81a56e	0.25321525
245	0xbd1a5821	-0.037681703
246	0x3e3c12df	0.18366574
247	0x3e7382e0	0.23780394
248	0x3c29f7bf	0.010374009
249	0xbd57fe0a	-0.052732505
250	0x3b0c66ef	0.0021423658
251	0xbbed5d61	-0.0072437976
252	0x3bfbea8d	0.0076878727
253	0x3e048d95	0.12944634
254	0xbd6fcf96	-0.05854758
255	0xbd12a074	-0.03579755

net.4.weight f4 [4, 256]
0	0x3d1961d6	0.03744682
1	0xbcac9fa7	-0.021072222
2	0x3c9f46b4	0.019442894
3	0x3d536e2a	0.051618733
4	0x3d4701c5	0.048585672
5	0x3c86c7ad	0.016452635
6	0xbb3ce51b	-0.002882308
7	0x3d0185ae	0.031621628
8	0xbbeefe4d	-0.0072934986
9	0xbd1374e7	-0.03600016
10	0xbc9d55e0	-0.019205987
11	0x3c085626	0.008321321
12	0xbc98ee35	-0.018668273
13	0x3e8e4887	0.2778971
14	0xbfcdcae7	-1.6077546
15	0x3ce58882	0.028019194
16	0xbd3237d1	-0.043510262
17	0x3fc88c9e	1.5667913
18	0xbd24c9e7	-0.04023161
19	0xbced8fea	-0.028999288
20	0x3d73a701	0.05948544
21	0xbf8e0a6a	-1.1096928
22	0xbb57beda	-0.0032920153
23	0x3c9f97b7	0.019481523
24	0x3f91fdae	1.1405542
25	0xbc562afc	-0.013071772
26	0x3e01952c	0.12654561
27	0x3d046fa0	0.032333016
28	0xbb564c5b	-0.003269932
29	0x3d478fc9	0.04872111
30	0xbde405b1	-0.11133898
31	0xbe227203	-0.15863805
32	0x3cec7ade	0.028867181
33	0xbd822489	-0.06354625
34	0xbe6cec73	-0.23137073
35	0x3e01c836	0.1267403
36	0x3ca6bc9b	0.020353606
37	0xbc776217	-0.01509907
38	0x3d1a12ae	0.03761547
39	0xbd207308	-0.039172202
40	0xbd3e3a6d	-0.046442438
41	0x3d08c928	0.033394963
42	0xbc9085c2	-0.017641906
43	0x3a8387d8	0.0010034991
44	0x3c2919f5	0.01032113
45	0xbb314d5f	-0.0027054173
46	0x3c7d4bf1	0.01546
47	0x3d09b1b1	0.033616725
48	0xbe86fe29	-0.26365784
49	0x3d570987	0.05249932
50	0x3d22df5d	0.039763797
51	0xbd5a0317	-0.053225603
52	0x3be9b83c	0.007132558
53	0xbd12f010	-0.035873473
54	0x3f8d28f5	1.1028124
55	0x3d5d7e85	0.054075737
56	0xbd52b93c	-0.051446185
57	0xbb17c6d7	-0.002315929
58	0x3b85a464	0.004078435
59	0xbcd32e24	-0.025778838
60	0xbb9c858f	-0.0047766636
61	0x3d1f0a9c	0.038828477
62	0x3d457287	0.048204925
63	0xbba04d24	-0.0048920084
64	0xbd0de36d	-0.03464072
65	0xbe4b1bff	-0.19834898
66	0x3cd59ffc	0.026077263
67	0x3cd37611	0.025813134
68	0xbf7b644e	-0.9819993
69	0xbdf9ba9f	-0.12193798
70	0xbdca212b	-0.098696075
71	0x3f4a8cb6	0.7912096
72	0x3d3c97bc	0.046043143
73	0xbc39fd41	-0.011351884
74	0xbd406776	-0.046973668
75	0xbbae01c0	-0.005310267
76	0xbd0727f0	-0.03299707
77	0x3d0b0b7d	0.033946503
78	0xbd3106e1	-0.04321945
79	0xbd953ddf	-0.072871916
80	0x3d21bca2	0.039486535
81	0x3d0cf0a1	0.03440917
82	0x3bb4f9e7	0.0055229547
83	0x3c65f407	0.014035231
84	0x3c8d229a	0.017228413
85	0xbf91dc75	-1.1395403
86	0x3bbfe503	0.0058561577
87	0x3d47538e	0.04866367
88	0x3cbdc962	0.023167316
89	0xbcd5cbe1	-0.026098194
90	0x3d23ba7b	0.039972764
91	0xbc78d584	-0.015187625
92	0x3fae8d1a	1.3636811
93	0xbbc907e7	-0.0061349752
94	0xbd057ed4	-0.032591656
95	0x3fd08cab	1.6292928
96	0xbbe449ce	-0.006966806
97	0x3bebbb41	0.0071939533
98	0x3c106756	0.0088137
99	0xbf87398d	-1.0564438
100	0xbd0da163	-0.03457774
101	0x3d3769ee	0.044778757
102	0x3c541ada	0.012945855
103	0xbe92aea4	-0.28648865
104	0xbefd2f0e	-0.49449962
105	0xbcea07a1	-0.02856809
106	0x3d8a81f2	0.06763066
107	0xbb830e3a	-0.0039994987
108	0x3cf410b0	0.029793113
109	0xbd226457	-0.039646473
110	0xbd61c93b	-0.05512355
111	0xbd2f2033	-0.042755317
112	0xbc46863f	-0.012116968
113	0xbc71d692	-0.01476063
114	0x3ba514a2	0.00503786
115	0xbf2602d2	-0.64848053
116	0x3a2ce99b	0.0006596089
117	0xbc5f4e1d	-0.0136294635
118	0x3b6db637	0.0036271939
119	0x3b4240cb	0.002964067
120	0xbd35623e	-0.044283144
121	0x3ef9a5e1	0.48759368
122	0xbd122800	-0.03568268
123	0x3ccf4eb6	0.025306087
124	0x3d0da0ac	0.034577057
125	0x3f0980dc	0.5371225
126	0x3d6c5dc2	0.057706602
127	0x3d1a18ee	0.03762143
128	0x3d4379d0	0.04772359
129	0xbcbf8a11	-0.023381265
130	0xbc8ad2d2	-0.01694623
131	0x3e3ec5e5	0.18630178
132	0xbd48aa20	-0.04899037
133	0xbd4e7b22	-0.050410397
134	0xbbea32c6	-0.007147166
135	0xbc6b75fe	-0.014371393
136	0xbba947a7	-0.0051660123
137	0x3eb97239	0.36219957
138	0xbc58fcbc	-0.01324385
139	0xbe2587df	-0.16165112
140	0x3d171da6	0.03689351
141	0xbbc1c0f4	-0.0059128944
142	0x3be5583d	0.006999044
143	0x3cb50e6c	0.022101603
144	0x3d65c048	0.056091577
145	0x3d4cd872	0.050011106
146	0xbb14c840	-0.0022702366
147	0x3cb964a8	0.022631004
148	0x3d13995b	0.036034923
149	0x3f26013d	0.6484564
150	0x3e153d34	0.14574128
151	0x3c80068e	0.015628126
152	0xbda304d9	-0.07959909
153	0x3cece30a	0.028916854
154	0x3cd1dae6	0.025617074
155	0xbcf23c7b	-0.029569855
156	0xbcff7baf	-0.031186907
157	0x3ea84288	0.3286326
158	0xbd87faa1	-0.066396005
159	0xbdc18ff0	-0.09451282
160	0x3b8af25b	0.004240317
161	0x3c97f639	0.018550025
162	0x3ca72096	0.02040128
163	0xbd0fc6d6	-0.035101734
164	0xbfbac86f	-1.4592417
165	0x3d15cc8f	0.036572035
166	0x3a5ded80	0.0008465871
167	0xbadde8f7	-0.0016930391
168	0x3cc24a31	0.023717018
169	0x3cfcf9e1	0.03088087
170	0x3c91cea2	0.017798726
171	0x3d579848	0.05263546
172	0x3d157896	0.036491953
173	0xbc0ad8d1	-0.008474545
174	0xbe99ac14	-0.30014098
175	0xbf7ba0be	-0.9829215
176	0xbb439571	-0.0029843713
177	0x3dcc9ae8	0.099904835
178	0xbccb92fb	-0.02485036
179	0xbe8020ff	-0.25025174
180	0x3bfbc756	0.007683675
181	0xbd523a39	-0.051325057
182	0xbcfa2924	-0.030537196
183	0x3cb6a0d8	0.022293493
184	0xbcaeae1b	-0.021323254
185	0xbd14d131	-0.036332313
186	0xbb3df260	-0.0028983578
187	0x3da952e5	0.08267764
188	0x3d4af6b2	0.049551673
189	0x3ef44da1	0.47715476
190	0xbc258d76	-0.010104528
191	0xbc518094	-0.012787003
192	0xbf8663db	-1.0499223
193	0xbc16590c	-0.009176504
194	0x3cea5273	0.028603768
195	0x3c8cefc4	0.017204173
196	0xbc1c8c5f	-0.009554951
197	0x3d194840	0.03742242
198	0x3b53932a	0.0032283762
199	0x3c1cc509	0.009568461
200	0x3d05cadc	0.032664165
201	0xbd1565ab	-0.03647391
202	0x3d393a28	0.045221478
203	0xbc18deeb	-0.009330492
204	0xbd20ae01	-0.039228443
205	0xbc9abcab	-0.018888792
206	0x3cb044f4	0.021517254
207	0x3cd10e81	0.025519611
208	0xbcd90aeb	-0.026494464
209	0x3d8a13ed	0.06742082
210	0x3e44c69b	0.19216387
211	0xbc1a28aa	-0.009409109
212	0x3f940e27	1.1566819
213	0x3d17da89	0.037073646
214	0xbd192f6f	-0.03739875
215	0xbebbc1e4	-0.36671364
216	0xbd86c9bc	-0.065814465
217	0x3dde3205	0.10849384
218	0xbc4d1e1c	-0.012519386
219	0xbd0126a4	-0.03153099
220	0xbc7903f8	-0.0151987
221	0x3d2c090c	0.042000815
222	0xbc0ade77	-0.008475891
223	0x3e0adfd5	0.13561948
224	0xbf51fb9e	-0.8202456
225	0xbcf8fe61	-0.030394735
226	0x3f35bdc5	0.7099269
227	0x3d076a72	0.0330605
228	0xbce80b3e	-0.028325673
229	0xbf13229d	-0.5747469
230	0xbd239886	-0.03994038
231	0x3cacf0de	0.021110948
232	0x3cf6b3db	0.030115059
233	0x3d0d8420	0.034549832
234	0xbcbbf9ed	-0.022946322
235	0x3c764887	0.01503194
236	0xbc5aa664	-0.013345335
237	0xbe1fccc0	-0.1560545
238	0x3d231fb0	0.03982514
239	0x3d4bcdea	0.04975692
240	0xbf01fe3a	-0.50778544
241	0x3d293a55	0.041315395
242	0x3e936313	0.28786525
243	0xbd20ce63	-0.039259326
244	0x3c4610cd	0.012088967
245	0xbcebcec0	-0.02878511
246	0x3f534efe	0.8254241
247	0x3f54850e	0.83015525
248	0xbced0f44	-0.028937943
249	0x3c200a3d	0.009768066
250	0x3cb026cc	0.021502875
251	0xbcf63897	-0.030056281
252	0x3d38f511	0.04515559
253	0xbf296cfa	-0.6618191
254	0x3d388707	0.045050647
255	0x3d5df38c	0.054187343

net.4.bias f4 [4]
0	0xbcd360ff	-0.025803087
1	0x3dead1d0	0.114658
2	0xbf1f7540	-0.62288284
3	0xbdacdd2b	-0.08440622
