logs/PointMaze-Right/airl_sac/seed0-20231226-1522/model/step245000/disc.pth (torch, 90839 bytes, 10 tensors)

g.0.weight f4 [100, 6]
0	0x3efbf2ff	0.4920883
1	0x3ebf9eba	0.37425786
2	0xbeab30b4	-0.33435595
3	0xbf055cef	-0.5209493
4	0x3e2f19e2	0.17099717
5	0xbe43b93c	-0.1911363
6	0xbe942552	-0.28934723
7	0x3e40964f	0.18807338
8	0x3e94f2b9	0.29091433
9	0xbe507d12	-0.2036021
10	0x3e25587e	0.16147038
11	0x3ead7007	0.33874533
12	0xbf1604a3	-0.58600825
13	0xbddf5e82	-0.10906698
14	0xbe83226d	-0.25612202
15	0x3da24319	0.07922954
16	0x3e10dff7	0.14147936
17	0x3e4f3668	0.20235598
18	0xbc7d5f70	-0.015464649
19	0xbda4ed55	-0.0805308
20	0xbe65bd87	-0.2243558
21	0x3e7c8a40	0.24662113
22	0x3ea973b8	0.330961
23	0x3eb4a4a0	0.3528185
24	0xbe9bc23d	-0.3042163
25	0xbd7c5d24	-0.061612263
26	0xbce63376	-0.02810071
27	0xbe441878	-0.19149959
28	0xbe80566a	-0.2506593
29	0x3eac03f9	0.3359678
30	0x3c075e5d	0.008262244
31	0xbeca4b36	-0.39510506
32	0xbe0c63bb	-0.13709919
33	0xbe5bb9db	-0.21457617
34	0x3ca3e87a	0.020008314
35	0x3adcfbc9	0.0016859706
36	0x3c9964ff	0.018724917
37	0xbea75e47	-0.32689115
38	0xbe085af7	-0.1331595
39	0xbe8bfba4	-0.27340424
40	0xbdf9814e	-0.12182866
41	0x3e08a279	0.13343228
42	0xbda718ec	-0.0815905
43	0xbebbf3a1	-0.36709312
44	0x3d27cc31	0.040966216
45	0x3cc454d9	0.02396624
46	0x3dae8775	0.0852193
47	0xbe9f7faa	-0.31152087
48	0x3e2d299e	0.16910407
49	0x3e817cb1	0.25290444
50	0x3e8350ac	0.25647485
51	0x3e6ddd52	0.23228958
52	0xbe19812e	-0.14990684
53	0xbde28a05	-0.110614814
54	0x3e991a44	0.29902852
55	0xbed89dda	-0.4230793
56	0x3e725406	0.23664865
57	0xbe86b464	-0.26309502
58	0xbe8fbd6f	-0.28074214
59	0xbb868aaf	-0.004105888
60	0x3ef96f3a	0.48717672
61	0x3ebc6204	0.3679353
62	0x3e925221	0.28578284
63	0xbe1381dd	-0.14405008
64	0x3eb35f9b	0.3503388
65	0xbdaaf4d5	-0.08347479
66	0x3eb24c2b	0.34823737
67	0x3ed52b19	0.41634443
68	0x3d9ad881	0.07560826
69	0xbec2feba	-0.38084966
70	0x3eab5842	0.33465773
71	0xbe1b2653	-0.15151338
72	0xbe098da3	-0.13432936
73	0xbe9d0164	-0.30665123
74	0x3e9a18e1	0.30097106
75	0xbdda4969	-0.10658533
76	0x3eab4979	0.33454493
77	0x3d479610	0.048727095
78	0x3f041e2d	0.51608545
79	0xbeeda035	-0.4641129
80	0xbeb4679d	-0.352353
81	0xbef006c3	-0.4688016
82	0xbe63ae63	-0.22234492
83	0x3e1559b4	0.14585
84	0xbe31b0f7	-0.17352663
85	0x3dc4204a	0.09576471
86	0x3e85e4d7	0.26151153
87	0x3e8b2a27	0.27180597
88	0xbd8f83b2	-0.07007541
89	0x3e801dd7	0.25022766
90	0x3f094ca6	0.5363258
91	0x3dc55835	0.09635965
92	0xbe780a6e	-0.24222729
93	0xbe237a9a	-0.15964738
94	0x3d25faec	0.0405225
95	0x3c84b723	0.016200608
96	0xbec5cedc	-0.38634384
97	0xbe9deb29	-0.30843475
98	0x3e80df8c	0.25170553
99	0x3e7fea2f	0.24991678
100	0xbe95a96c	-0.2923082
101	0x3ea08215	0.31349245
102	0x3e4f0bc2	0.20219329
103	0x3e8a5720	0.27019596
104	0x3d18aabc	0.0372722
105	0x3dfc97e5	0.12333659
106	0xbe019d75	-0.12657721
107	0x3eb8af15	0.36071077
108	0xbeada8de	-0.33917898
109	0xbec8474a	-0.3911689
110	0x3ea53ae8	0.32271504
111	0x3ec502a1	0.38478568
112	0x3e3dc71e	0.18532988
113	0x3e80f73f	0.25188634
114	0x3e11bf3a	0.14233103
115	0xbef1df33	-0.472406
116	0x3eb8c9a5	0.36091343
117	0x3ed2a0c1	0.4113827
118	0x3edc5ff8	0.43041968
119	0x3d4c7cb6	0.04992362
120	0x3d81549b	0.06314965
121	0x3d8e931c	0.06961653
122	0xbe0b54fc	-0.13606638
123	0x3e4a431a	0.1975216
124	0x3d54f1e8	0.051988512
125	0x3e9216f8	0.2853315
126	0x3ed3be8c	0.41356313
127	0x3e1de314	0.15418655
128	0xbec72852	-0.3889795
129	0x3eaa5c3c	0.33273494
130	0xbdb34c52	-0.08754791
131	0x3ea24698	0.31694484
132	0x3e9c3545	0.3050939
133	0x3e9eab71	0.30990174
134	0xbcc6be8f	-0.024260787
135	0xbe2a1cc9	-0.16612543
136	0x3e8fddd7	0.28098938
137	0xbde3bfd4	-0.11120573
138	0x3e2800f6	0.16406617
139	0xbed41c7b	-0.4142798
140	0xbdc86736	-0.09785311
141	0x3dad6170	0.0846585
142	0xbe224e6f	-0.15850233
143	0x3e39e403	0.18153386
144	0x3ec4048b	0.38284716
145	0xbe3e5523	-0.18587165
146	0x3e0894a8	0.13337958
147	0xbe06f911	-0.13180949
148	0xbd55fa0b	-0.052240413
149	0xbd9cdc46	-0.07659201
150	0xbeb78e83	-0.35850915
151	0x3f030299	0.5117584
152	0xbe7579a0	-0.23972178
153	0x3ebeea04	0.37287915
154	0x3ea071da	0.31336862
155	0x3ec2e4a3	0.3806506
156	0xbf10989b	-0.5648286
157	0xbdf96bad	-0.12178741
158	0x3e78ca3b	0.24295895
159	0x3d9f2a36	0.07771723
160	0xbec59ecb	-0.38597712
161	0x3e146f24	0.14495522
162	0x3d95486f	0.07289206
163	0xbe9606a5	-0.29301944
164	0xbdaea74e	-0.085280046
165	0x3eb9549b	0.3619736
166	0x3edce80f	0.43145797
167	0xbce981dc	-0.028504305
168	0xbf109ed1	-0.56492335
169	0xbd8d9d00	-0.06914711
170	0xbe830614	-0.25590575
171	0x3db773f4	0.08957663
172	0xbea9a13b	-0.33130822
173	0x3e921b92	0.2853666
174	0xbe8b9c94	-0.27267897
175	0xbec8913b	-0.39173302
176	0xbe3f06e7	-0.18654977
177	0xbebdfac0	-0.3710537
178	0xbd05ec15	-0.03269585
179	0xbdc84f0d	-0.09780703
180	0x3ef439a5	0.4770023
181	0x3eec4a38	0.46150374
182	0x3ed0a57b	0.40751252
183	0xbe60c4c6	-0.21950063
184	0x3e69e3da	0.22840825
185	0x3e8b4aef	0.27205607
186	0x3da00a77	0.07814496
187	0xbde93668	-0.1138733
188	0x3e99f7e4	0.30071938
189	0x3ec7ec8c	0.39047658
190	0xbe780c0c	-0.24223346
191	0x3d88662b	0.06660112
192	0x3eb3a0a0	0.35083485
193	0x3d906f73	0.07052507
194	0xbe3902af	-0.1806743
195	0xbec19ad0	-0.37813425
196	0x3d0e363e	0.034719698
197	0x3e05227f	0.1300144
198	0xbe141c0a	-0.14463821
199	0x3cb8f30f	0.022576837
200	0x3e034c62	0.12822106
201	0x3f025065	0.5090392
202	0xbdfa9ec6	-0.12237315
203	0x3e354667	0.17702638
204	0x3f01ea86	0.5074848
205	0xbd62da76	-0.05538412
206	0x3eb418fd	0.35175315
207	0xbef898de	-0.48554128
208	0x3ed63dd5	0.4184405
209	0x3db38c10	0.08766949
210	0x3e0044a3	0.12526183
211	0xbe9cae08	-0.30601525
212	0xbe952104	-0.2912675
213	0xbcee0534	-0.029055215
214	0xbe054910	-0.13016152
215	0xbd7146e6	-0.058905505
216	0xbca1ecd2	-0.019766245
217	0x3d83a08f	0.064271085
218	0xbe61eda6	-0.22063312
219	0x3e4127fe	0.18862912
220	0xbe1d68ea	-0.15372053
221	0xbdd1939c	-0.102332324
222	0x3de2951b	0.11063596
223	0xbeb7e530	-0.35917044
224	0xbd73e0f4	-0.059540704
225	0x3eb640cb	0.35596308
226	0x3ec946c3	0.393118
227	0xbea46c38	-0.32113814
228	0xbec0c047	-0.37646696
229	0xbeccbe6f	-0.3998904
230	0xbc19c939	-0.009386354
231	0xbe8db011	-0.2767339
232	0x3d7a3e53	0.061094593
233	0x3ecf96ea	0.40544826
234	0x3d253ebe	0.04034304
235	0xbea6e86f	-0.32599208
236	0x3eca3efd	0.3950118
237	0xbe2264ff	-0.1585884
238	0xbeb587b5	-0.354551
239	0x3c9bb98d	0.019009376
240	0xbd346265	-0.04403915
241	0xbe3dd487	-0.18538104
242	0xbe979526	-0.2960598
243	0x3c9d35a1	0.019190611
244	0xbe62bd03	-0.22142415
245	0x3eb24e4f	0.3482537
246	0x3ef1278b	0.4710048
247	0x3ebfb37d	0.37441626
248	0x3e536319	0.20643272
249	0x3d8ba4ce	0.068185434
250	0x3e82627e	0.2546577
251	0x3e605f70	0.21911407
252	0x3df8dc3a	0.1215138
253	0x3db07c52	0.08617462
254	0x3e95be2e	0.29246658
255	0xbdecdf86	-0.11566071

g.0.bias f4 [100]
0	0x3e21b894	0.15793067
1	0x3df27684	0.11839011
2	0xbb304741	-0.002689794
3	0x3e27de95	0.16393502
4	0x3d749573	0.05971284
5	0xbe2e8558	-0.17043054
6	0xbec4b19c	-0.38416755
7	0x3e92e1dc	0.28687942
8	0xbecaa6f0	-0.39580488
9	0x3ea865ca	0.3289016
10	0xbe794105	-0.24341209
11	0xbddb0ec3	-0.10696175
12	0xbebb39a4	-0.36567414
13	0x3e9fff50	0.31249475
14	0xbecdf508	-0.40226007
15	0x3e2e39d8	0.17014253
16	0xbe93d4a6	-0.28873175
17	0x3d68bc1c	0.05682002
18	0x3d9ff010	0.0780946
19	0xbe58f8dd	-0.21188684
20	0xbe7d0b46	-0.24711332
21	0xbe5513ee	-0.20808384
22	0xbceb4845	-0.028720984
23	0x3ea51ef2	0.32250172
24	0xbec5ac11	-0.3860784
25	0x3ebed2ff	0.37270352
26	0x3e8884e0	0.26663876
27	0xbd25d0a0	-0.040482163
28	0x3e5c2cb1	0.21501423
29	0xbe224498	-0.15846479
30	0x3e7695a3	0.2408052
31	0x3eaec3db	0.341338
32	0xbe863199	-0.26209715
33	0x3e780579	0.24220838
34	0x3c5cb4f8	0.013470881
35	0xbe71730d	-0.23579045
36	0xbe7c7da9	-0.2465731
37	0x3e74f756	0.23922476
38	0xbec67436	-0.38760537
39	0xbd51a54b	-0.051183026
40	0x3d89cf77	0.06729024
41	0xbe7cbb71	-0.24680878
42	0x3e750482	0.23927501
43	0x3de98755	0.11402766
44	0x3e01ea62	0.12687066
45	0x3da06660	0.078320265
46	0x3ebaa9ed	0.36457768
47	0xbe93f9f7	-0.28901646
48	0x3ca3e03f	0.02000439
49	0xbce87527	-0.028376175
50	0xbc2015ec	-0.009770852
51	0xbe31b7a3	-0.17355208
52	0xbda961a9	-0.0827058
53	0xbe52f763	-0.20602183
54	0x3e168d9e	0.1470246
55	0xbec5f497	-0.3866317
56	0xbe9957b4	-0.29949725
57	0x3e97492f	0.29548022
58	0x3d9de161	0.07709003
59	0xbe4b0cdf	-0.19829129
60	0x3e8733c4	0.26406682
61	0x3e3efa40	0.1865015
62	0x3e6fe885	0.23428543
63	0x3e10a161	0.14124061
64	0x3e59ed95	0.21282037
65	0xbe9d428d	-0.30714837
66	0xbebb74b4	-0.36612475
67	0x3d6e4a93	0.05817659
68	0xbea7276d	-0.32647267
69	0x3e730d67	0.23735581
70	0x3e55b1b8	0.20868576
71	0xbe8c89f6	-0.27449006
72	0x3ebbe21a	0.3669594
73	0x3e6b21ae	0.22962067
74	0x3e8dc946	0.27692622
75	0xbe9a0580	-0.3008232
76	0x3d8f99b2	0.07011737
77	0x3e275fc5	0.16345127
78	0x3d111117	0.03541669
79	0x3ddd8999	0.1081726
80	0x3ecdca8e	0.401936
81	0x3d780cbc	0.06055902
82	0xbebc9ee2	-0.36839968
83	0x3e9ede99	0.31029204
84	0x3e168dda	0.1470255
85	0xbe46097d	-0.19339557
86	0xbeccf0c6	-0.40027446
87	0x3e37593e	0.17905137
88	0x3e9ca399	0.30593565
89	0xbd91d2c4	-0.071202785
90	0x3ed6ebf5	0.41976896
91	0x3c5ce2e6	0.013481831
92	0xbec930b0	-0.39294958
93	0x3e77559b	0.2415375
94	0x3dfe8358	0.124273956
95	0xbe1bdc64	-0.15220791
96	0x3e7e813e	0.2485399
97	0x3e21b08d	0.15790005
98	0xbec1c6c1	-0.3784695
99	0xbebafe56	-0.36522168

g.2.weight f4 [100, 100]
0	0x3dc04144	0.093874484
1	0xbbe88fc9	-0.0070972187
2	0xbe93891d	-0.28815547
3	0xbda7a61b	-0.08185979
4	0xbd926ab0	-0.07149255
5	0x3cb9931a	0.022653151
6	0xbbd7ab1a	-0.006581676
7	0x3d83d5ce	0.064372644
8	0xbcdee893	-0.02721051
9	0xbf1d9a24	-0.61563325
10	0x3c0fad30	0.008769318
11	0x3d24c16f	0.040223535
12	0x3d583260	0.052782416
13	0xbf1d1606	-0.6136173
14	0xbd6126b0	-0.054968536
15	0x3dcbc055	0.09948794
16	0x3c1da90d	0.009622824
17	0xbac79045	-0.0015225491
18	0xbec6f982	-0.38862234
19	0xbe5f78c4	-0.21823412
20	0x3ceb34ad	0.028711641
21	0x3ef5f212	0.48036247
22	0x3e010e48	0.12603104
23	0x3e747440	0.23872471
24	0xbdc16180	-0.09442425
25	0x3d55c77d	0.0521922
26	0xbe8f2bdb	-0.27963147
27	0x3e040b75	0.12894996
28	0xbea1bb74	-0.31588328
29	0x3dcadc5a	0.0990531
30	0x3d0d9e6e	0.03457492
31	0x3cf00482	0.029299024
32	0x3c7027f8	0.014657967
33	0xbd1c4244	-0.038149133
34	0x3d57e065	0.052704234
35	0x3d3cc31a	0.0460845
36	0x3cf8cba7	0.030370547
37	0x3ccab47b	0.024744263
38	0x3aa96800	0.0012924671
39	0x3b983180	0.0046445727
40	0xbd8e6f00	-0.06954765
41	0x3d20a721	0.039221887
42	0x3da65d00	0.08123207
43	0xbf0c518e	-0.5481194
44	0xbf013123	-0.504656
45	0x3d318d25	0.043347497
46	0x3da09ab3	0.078420065
47	0xbda0b7da	-0.07847567
48	0xbd64386b	-0.055717867
49	0x3daa61b4	0.08319417
50	0x3cea7232	0.028618906
51	0xbd618ea0	-0.05506766
52	0x3acb1f15	0.0015496934
53	0xbd98548a	-0.074379995
54	0xbe8dd83b	-0.27704033
55	0x3d7842a2	0.06061042
56	0x3d4d88c0	0.050179243
57	0xbd1a63d1	-0.03769285
58	0x3d4a586b	0.04940073
59	0xbf3aa97b	-0.72914857
60	0xbef8582c	-0.4850477
61	0x3d6ae70d	0.057349253
62	0x3cae88f7	0.021305544
63	0x3df3de9d	0.119076945
64	0x3e304e62	0.172174
65	0xbf34cbff	-0.70623773
66	0x3d96b15d	0.07358048
67	0xbe601a63	-0.21885066
68	0xbdbcd867	-0.09220963
69	0x3d833a6a	0.06407626
70	0xbee7a709	-0.45244625
71	0xbd00acea	-0.031414904
72	0x3e03982a	0.12851015
73	0xbe895aa9	-0.2682698
74	0xbd121ee2	-0.035673983
75	0x3d097d80	0.03356695
76	0xbf0de011	-0.55420023
77	0xbeb48486	-0.35257357
78	0xbe852af8	-0.26009345
79	0x3c31709e	0.010830073
80	0x3d397377	0.04527613
81	0xbd3971bb	-0.045274477
82	0x3d991fed	0.074767925
83	0xba9ba1a2	-0.0011873732
84	0xbd61692e	-0.055031948
85	0xbdb43a27	-0.08800154
86	0xbd81aafd	-0.063314416
87	0x3c88d096	0.016701024
88	0xbd3913b0	-0.04518479
89	0xbe4bad47	-0.19890319
90	0x39e22c1b	0.0004313894
91	0xbd08af67	-0.0333704
92	0xbd0cbae3	-0.034357917
93	0xbc872644	-0.016497739
94	0x3d540fff	0.051773068
95	0xbd98a917	-0.07454126
96	0xbf167d46	-0.587849
97	0xbf446ded	-0.76730233
98	0xbd8edb3d	-0.0697541
99	0xbd86785d	-0.06565926
100	0x3d9bf05a	0.07614203
101	0xbd5f0e3f	-0.054456946
102	0xbe50391b	-0.20334284
103	0x3af880ee	0.0018959322
104	0x3dc023c3	0.09381821
105	0x3d58c37a	0.052920796
106	0xbd143cd0	-0.036190808
107	0x3d3a3d06	0.045468353
108	0xbd8ca19a	-0.068667606
109	0xbf2f8498	-0.68561697
110	0x3ddb092b	0.10695108
111	0xbdc4a939	-0.09602589
112	0x3dc50aa5	0.09621171
113	0xbe9eb1f8	-0.30995154
114	0x3cd75a40	0.026288152
115	0xbd33ee20	-0.043928266
116	0xbcbc4b2d	-0.022985065
117	0xbdd853a8	-0.10562831
118	0xbecd3643	-0.4008046
119	0xbe2dc6ac	-0.16970319
120	0xbd980378	-0.074225366
121	0x3ec8204a	0.39087135
122	0x3d88ff86	0.06689362
123	0x3d01682a	0.03159348
124	0xbd0ce3b7	-0.034396853
125	0x3ccfddcb	0.025374314
126	0xbe531279	-0.20612516
127	0x3d387bdf	0.045040008
128	0xbe85fcae	-0.26169342
129	0x3d528267	0.051393893
130	0x3d9790d4	0.07400671
131	0xbda69c07	-0.081352286
132	0x3d92a76a	0.07160838
133	0x3d8c7a06	0.068592116
134	0x3e0789d4	0.13236171
135	0xbd341917	-0.04396924
136	0xbd600ea3	-0.05470146
137	0xbca8d502	-0.020609383
138	0xbda97ea0	-0.08276105
139	0xbdb90488	-0.090340674
140	0x3d8a1178	0.06741613
141	0x3dd805df	0.10547995
142	0x3d4fa450	0.05069381
143	0xbe8c905c	-0.27453887
144	0xbf12a8f6	-0.57289064
145	0xbd06748a	-0.032825984
146	0xbd492561	-0.049107913
147	0x3da0c3cb	0.078498445
148	0xbde7c7ac	-0.11317381
149	0x3d5d21d2	0.05398733
150	0xbc39bb31	-0.011336134
151	0x3dc7fe58	0.09765309
152	0xbd270311	-0.04077441
153	0xbcb19793	-0.021678722
154	0xbe41740a	-0.18891922
155	0x3d051cac	0.032498047
156	0xbcb86be0	-0.022512376
157	0x3e029978	0.12753856
158	0x3ddb3cc0	0.107049465
159	0xbf456499	-0.77106625
160	0xbec6a930	-0.38800955
161	0x3dce6d16	0.100794
162	0x3e183a11	0.148659
163	0x3d312240	0.043245554
164	0x3deb7429	0.11496765
165	0xbf28bb5d	-0.65910894
166	0x3c7c1067	0.01538477
167	0xbe0100ec	-0.12598008
168	0xba4e2d9a	-0.00078650715
169	0x3e293a49	0.1652614
170	0xbe90beeb	-0.2827066
171	0xbcf51986	-0.029919397
172	0x3d7845ef	0.06061357
173	0xbe8a5b46	-0.2702276
174	0x3d1c36c9	0.038138185
175	0x3cb0fe27	0.021605564
176	0xbee8c9b6	-0.45466393
177	0xbe8e69b5	-0.27815023
178	0xbe78bb5c	-0.24290222
179	0xbe03227b	-0.12806122
180	0x3d0937c7	0.03350046
181	0x3d6c85a1	0.057744626
182	0xbd8471fd	-0.06467054
183	0x3ce9a5bb	0.02852141
184	0x3d8336c3	0.06406929
185	0x3d9fef20	0.07809281
186	0xbcbd7dfa	-0.02313136
187	0x3ca8b3cc	0.020593546
188	0x3d02207d	0.031769264
189	0xbe4f5305	-0.20246513
190	0x3dc87fcd	0.09790001
191	0x3c1c32f4	0.009533633
192	0xbbc2bce7	-0.005942929
193	0xbd6d0984	-0.057870403
194	0x3d20c619	0.03925142
195	0x3bc38833	0.005967164
196	0xbee15569	-0.44010475
197	0xbf1079e4	-0.5643599
198	0x3ce04247	0.027375354
199	0x3d7fff93	0.062499594
200	0xbdbbd436	-0.091713354
201	0x3d8728ef	0.06599604
202	0xbdca6ebb	-0.098844014
203	0xbc44295e	-0.011972753
204	0x3d391140	0.045182467
205	0xbd891812	-0.06694044
206	0x3db2755b	0.0871379
207	0x3d5fcef9	0.054640744
208	0xbc8ccd7a	-0.017187823
209	0xbd493069	-0.049118433
210	0xbd547783	-0.051871788
211	0x3bd17dd0	0.006393172
212	0xbc432af3	-0.011912095
213	0xbc7174ec	-0.014737349
214	0x3cd0e6e0	0.025500715
215	0x3c2d082a	0.0105610285
216	0xbd2224d3	-0.0395859
217	0xbd71e102	-0.059052475
218	0xbdcceadf	-0.100057356
219	0xbc37b4dd	-0.011212555
220	0xbd13c173	-0.03607316
221	0x3d2812b3	0.041033458
222	0x3d40f21a	0.047105886
223	0xbd82dea3	-0.06390121
224	0x3d743960	0.05962503
225	0x3c268c90	0.010165349
226	0xbdd24b8e	-0.10268317
227	0xbcf450e5	-0.02982373
228	0xbd906ddc	-0.07052204
229	0xbd8c46a5	-0.06849412
230	0xbcb1bf6f	-0.021697728
231	0x3c84bfe7	0.016204787
232	0xbb9cad9a	-0.004781437
233	0xbc04f271	-0.008114443
234	0xbdc9945a	-0.09842749
235	0x3dc82388	0.09772402
236	0xbc9621cd	-0.018326664
237	0x3d989093	0.0744945
238	0x3dbcec18	0.09224719
239	0xbd3dbcda	-0.04632268
240	0x3da717ab	0.08158811
241	0xbd32d2d7	-0.043658104
242	0xbceec126	-0.029144835
243	0x3b614c0c	0.0034377603
244	0xbdb9cb22	-0.09071948
245	0xbd02f1dd	-0.03196894
246	0x3abe616f	0.0014524887
247	0x3d091f20	0.03347695
248	0x3d68403a	0.056701876
249	0xbd919b45	-0.071096934
250	0x3d9f1730	0.077680945
251	0x3b77d9cd	0.0037819028
252	0xbd9dc640	-0.07703829
253	0x3ba90133	0.0051576137
254	0x3d191d74	0.037381604
255	0xbd6163dd	-0.055026878

g.2.bias f4 [100]
0	0x3d91587e	0.07096957
1	0x3b70307c	0.0036649993
2	0x3d7d7fe7	0.061889555
3	0x3a17f8cd	0.0005797267
4	0x3c868b29	0.016423779
5	0x3d3dfeb6	0.04638549
6	0xbca2d040	-0.019874692
7	0x3dc0e8af	0.09419381
8	0xbd95bc80	-0.07311344
9	0x3d061183	0.032731544
10	0x3c94c24d	0.018159056
11	0xbc55dad4	-0.013052661
12	0x3d87a5b3	0.066234015
13	0x3c6006b3	0.013673472
14	0x3b48b41f	0.0030624939
15	0x3d925907	0.07145887
16	0xbc1c9230	-0.009556338
17	0xbd0352c1	-0.032061342
18	0xbd9aec25	-0.07564572
19	0x3d1eb19e	0.038743608
20	0xbdb1011f	-0.08642792
21	0x3d9a8810	0.07545483
22	0x3cedb984	0.029019125
23	0x3dafd05c	0.08584663
24	0xbdaf12a7	-0.085484795
25	0xbd8720c7	-0.06598049
26	0x3d97ba56	0.07408588
27	0xbdcba843	-0.09944203
28	0x3d116a00	0.03550148
29	0x3de5913e	0.112093434
30	0xbd2a3ca3	-0.041561734
31	0x3c274b0f	0.010210766
32	0xbd37488d	-0.044746924
33	0xbd5f2627	-0.054479744
34	0xbd8e3d13	-0.06945243
35	0xbc167809	-0.009183892
36	0xbd2d4534	-0.042302325
37	0x3d7f0a73	0.062265825
38	0x3d90e56d	0.070750095
39	0xbd0e5d17	-0.034756746
40	0x3cfde9c7	0.030995263
41	0xbd9eef88	-0.07760531
42	0xbdb04e9d	-0.08608744
43	0xbc8faeb1	-0.017539354
44	0x3c4dae38	0.012553744
45	0xbd6b45f9	-0.057439778
46	0xbdc7e3f4	-0.097602755
47	0x3d0bb802	0.03411103
48	0xbd3d1e41	-0.04617143
49	0xbd84a1ca	-0.06476171
50	0xbc5b5630	-0.013387248
51	0xbc7bece7	-0.015376306
52	0x3d6d88cc	0.057991788
53	0x3de45867	0.11149674
54	0xbd6b1113	-0.05738933
55	0xbd389b3c	-0.045069918
56	0xbcb7950d	-0.02240994
57	0x3d8ea588	0.06965166
58	0xbc4cda0d	-0.012503159
59	0xbb1e6e00	-0.0024174452
60	0x3bc1c336	0.0059131635
61	0x3b14d566	0.0022710203
62	0xbd4a18a2	-0.049339898
63	0x3d599360	0.053119063
64	0xbceea711	-0.029132398
65	0x3c94c086	0.018158209
66	0x3cb08059	0.021545576
67	0xbe0a8d98	-0.13530576
68	0x3c3067d2	0.01076694
69	0xbd77b63f	-0.060476538
70	0xbd0b9980	-0.034081936
71	0xbb6c5b67	-0.0036065222
72	0xbcac08c0	-0.021000266
73	0x3d94ff6d	0.07275281
74	0x3db425fe	0.08796309
75	0xbda29d70	-0.07940185
76	0x3d3fd6d3	0.04683573
77	0x3d3d5ef7	0.046233144
78	0xbbaac433	-0.005211377
79	0xbce613bd	-0.028085584
80	0xbdb75258	-0.08951253
81	0xbdb9b715	-0.09068123
82	0xbd8da28a	-0.069157675
83	0x3d3d987c	0.046288
84	0xbd666919	-0.056252573
85	0x3d7d86d6	0.061896168
86	0xbc730703	-0.014833215
87	0xbd32a33a	-0.043612696
88	0xbd27230e	-0.040804915
89	0x3c3e2ba7	0.011607087
90	0x3d6bb4b0	0.057545364
91	0xbd2ed25a	-0.042681076
92	0xbc1c430d	-0.0095374705
93	0x3ca7cd32	0.020483587
94	0x3d947702	0.072492614
95	0xbaf0b312	-0.0018363914
96	0x3da82f1f	0.08212113
97	0x3d28a0da	0.041169025
98	0x3c3f441a	0.0116739515
99	0x3c1cdd9e	0.009574322

g.4.weight f4 [1, 100]
0	0x3ebfe6fc	0.37480915
1	0x3ef7c17e	0.4838981
2	0x3db76885	0.089554824
3	0xbe89a1c4	-0.2688123
4	0x3c595f90	0.013267413
5	0xbe28950c	-0.16463107
6	0x3dc95e97	0.09832495
7	0x3eec5362	0.46157366
8	0xbd22e9f3	-0.039773893
9	0xbea29d52	-0.3176065
10	0xbd1e40d3	-0.03863604
11	0x3ecc7ed0	0.399405
12	0xbe48278f	-0.1954634
13	0xbd98cd05	-0.07460979
14	0xbe1bd70b	-0.15218751
15	0x3d14e346	0.036349557
16	0xbf5cc0f5	-0.8623193
17	0xbe867062	-0.26257616
18	0x39b35667	0.00034205915
19	0x3ed44a9f	0.4146318
20	0xbdc5b9a0	-0.09654546
21	0xbe672ca0	-0.22575617
22	0xbe880e3e	-0.26573366
23	0x3cac6266	0.021043014
24	0x3bd6999a	0.0065490725
25	0xbe72c932	-0.23709562
26	0x3d25df86	0.04049637
27	0xbdc3673d	-0.095411755
28	0x3f00bc4c	0.5028732
29	0x3ef7ba36	0.48384255
30	0xbe0b2573	-0.13588504
31	0x3ecacfed	0.3961176
32	0x3ccc3b67	0.024930669
33	0xbc8a79da	-0.016903806
34	0xbe8990e2	-0.2686835
35	0x3f111367	0.5667023
36	0x3edde968	0.43342137
37	0x3ede8209	0.43458584
38	0xbe1a084b	-0.15042226
39	0xbd6823a0	-0.0566746
40	0x3d9ac08a	0.07556255
41	0x3daadaef	0.083425395
42	0x3ef274b1	0.47354653
43	0x3ee41768	0.44549108
44	0xbe9a4df5	-0.30137601
45	0xbe8bb76f	-0.27288386
46	0x3d808722	0.062757745
47	0xbe8db11b	-0.27674183
48	0xbe4a711a	-0.19769707
49	0x3d808258	0.06274861
50	0x3aadc78f	0.0013258326
51	0x3d51aa90	0.05118805
52	0xbe5d17b7	-0.21591078
53	0x3ef79442	0.483553
54	0x3cc11a12	0.023572002
55	0x3d39be6a	0.04534761
56	0x3d22083a	0.039558627
57	0xbec7db5f	-0.39034554
58	0xbda076f7	-0.07835191
59	0x3d5b17da	0.053489543
60	0x3c3ca586	0.011514073
61	0x3eec2c4c	0.46127546
62	0xbe4d8265	-0.20069273
63	0xbe90090e	-0.28131908
64	0xbe811c46	-0.25216883
65	0xbe4f151f	-0.20222901
66	0x3da26c09	0.07930762
67	0xbf6c3749	-0.9227186
68	0xbe78197f	-0.24228476
69	0x3ed9f47b	0.42569336
70	0x3ee9d995	0.45673814
71	0x3db830b5	0.08993665
72	0x3db0732f	0.086157195
73	0xbe6ff8a2	-0.2343469
74	0xbe1d75a7	-0.15376912
75	0x3d96b02e	0.07357822
76	0x3ef7c484	0.48392117
77	0x3c029768	0.007970668
78	0xbd0af0ea	-0.03392116
79	0xbd30ecc1	-0.043194536
80	0xbd4953aa	-0.049152054
81	0xbe969a30	-0.2941451
82	0xbda56753	-0.08076348
83	0x3d2a3abc	0.04155992
84	0x3d47cbc0	0.048778296
85	0xbe64734c	-0.22309607
86	0xbe82969f	-0.2550554
87	0xbeb9ce0b	-0.3629001
88	0xbe6a6f71	-0.22894074
89	0xbd5a83ed	-0.05334847
90	0xbeaa4dfa	-0.33262616
91	0xbd28daca	-0.04122428
92	0x3db1d490	0.08683121
93	0xbe8909c6	-0.2676527
94	0xbe472661	-0.19448234
95	0xbe89b547	-0.26896116
96	0xbe4cee6e	-0.20012829
97	0x3ecf55ff	0.40495297
98	0x3d5c0318	0.053713888
99	0xbe4eff3e	-0.20214555

h.0.weight f4 [100, 6]
0	0x3eb2ed74	0.34946787
1	0xbd5b015c	-0.053468093
2	0xbe49328c	-0.19648188
3	0xbe718b33	-0.23588257
4	0x3eb20daa	0.3477605
5	0x3e314588	0.1731168
6	0x3f06a9e0	0.5260296
7	0x3ed633ee	0.41836494
8	0xbc3231df	-0.010876148
9	0xbd0096fe	-0.031393997
10	0x3ed9689b	0.4246262
11	0xbdc174e8	-0.09446126
12	0x3ef5e139	0.48023394
13	0xbe76ba9f	-0.24094628
14	0xbea7b4cd	-0.32755128
15	0x3e8fa5c1	0.28056148
16	0xbe8a43c6	-0.27004832
17	0xbe889089	-0.26672772
18	0xbcc518df	-0.024059711
19	0x3e444cd9	0.1916994
20	0xbea391fc	-0.31947315
21	0x3eabcf92	0.335568
22	0x3d5258cd	0.05135422
23	0xbe704bea	-0.23466459
24	0x3e4a5f02	0.19762805
25	0x3f0262a7	0.5093178
26	0xbc2f07b3	-0.010682988
27	0x3eca4d6e	0.395122
28	0x3e20b127	0.15692578
29	0xbd95c0d6	-0.07312171
30	0x3da79e7a	0.08184524
31	0x3cca5b4b	0.024701735
32	0xbe0ebe62	-0.13939813
33	0x3efa7423	0.4891673
34	0x3ec6e6c4	0.38847935
35	0x3e3ccf59	0.18438472
36	0xbe29df97	-0.16589199
37	0x3dba4168	0.090945065
38	0xbd0aaece	-0.033858113
39	0x3d921c89	0.07134349
40	0xbe67d80c	-0.22641009
41	0x3e0ea0a2	0.13928464
42	0x3e858f33	0.26085815
43	0x3e7d9aa3	0.2476602
44	0xbe28d98c	-0.16489238
45	0xbeac172a	-0.33611423
46	0x3e4416c0	0.19149303
47	0x3ea05229	0.31312683
48	0xbd988173	-0.074465655
49	0xbcc99ac0	-0.024609923
50	0x3ec625bb	0.3870066
51	0xbeb7b586	-0.3588068
52	0x3e994200	0.29933167
53	0x3e0cdded	0.13756533
54	0x3ea2de7a	0.3181036
55	0x3e918108	0.28418756
56	0x3e0b306f	0.13592695
57	0xbea7f572	-0.32804447
58	0x3dab357e	0.08359812
59	0xbe8de64b	-0.27714762
60	0x3ea422c7	0.32057783
61	0x3ea00e4f	0.31260917
62	0x3d64406d	0.055725504
63	0x3e1a2372	0.15052584
64	0xbeb45cea	-0.35227138
65	0x3cc7961d	0.024363572
66	0x3edd1567	0.4318039
67	0xbe940b72	-0.28914982
68	0xbeb2d65d	-0.3492917
69	0xbe837d3e	-0.2568149
70	0x3beac88f	0.0071650217
71	0x3ea2e1af	0.31812808
72	0x3ea3e453	0.32010135
73	0x3d448f16	0.04798802
74	0xbebf46f3	-0.37358817
75	0xbebfaffa	-0.37438947
76	0x3da6869b	0.08131143
77	0x3e260142	0.16211417
78	0x3f24eaa2	0.6442052
79	0x3e5d93c0	0.21638393
80	0x3d1d3284	0.038378254
81	0xbe318e3f	-0.17339419
82	0x3e206915	0.15665086
83	0xbe49ed69	-0.19719471
84	0xbeb8cbf5	-0.36093107
85	0x3ec47a39	0.38374498
86	0xbe865ee2	-0.26244265
87	0xbe74cb17	-0.23905598
88	0x3eb39285	0.35072723
89	0x3ea92819	0.33038405
90	0x3d97fb64	0.07420996
91	0x3e0688cc	0.13138121
92	0x3e53f775	0.20699866
93	0x3c93ef27	0.018058373
94	0xbeb161db	-0.3464497
95	0x3cb8dc3f	0.022565959
96	0x3f1f48fa	0.6222073
97	0x3ee73f27	0.4516537
98	0x3e30d5d7	0.17269073
99	0x3de28483	0.11060431
100	0xbe59f1b9	-0.21283616
101	0xbea22aa3	-0.31673154
102	0xbe4a2259	-0.19739665
103	0x3dab59f0	0.083667636
104	0xbd88d825	-0.06681851
105	0x3d1240ef	0.035706457
106	0xbcecba99	-0.02889757
107	0x3ea928c6	0.3303892
108	0x3f08bfe5	0.5341781
109	0x3ec2b100	0.38025665
110	0x3a21db92	0.0006174381
111	0xbdbd8c6c	-0.09255299
112	0x3dbb3012	0.09140028
113	0x3e265309	0.16242613
114	0xbe5f9415	-0.21833833
115	0x3eeff3a9	0.46865585
116	0xbdbbb244	-0.09164861
117	0x3e5479d1	0.20749594
118	0xbeaf521a	-0.34242326
119	0xbe6d0bad	-0.23148985
120	0x3cb232ca	0.021752734
121	0xbecc13f8	-0.39858985
122	0xbe2131d7	-0.15741669
123	0xbdb9774e	-0.09055959
124	0x3e9a931e	0.30190367
125	0xbe8719a1	-0.2638674
126	0x3e93f52a	0.28897983
127	0xbe5a0a3c	-0.21292967
128	0xbe77dfc5	-0.24206455
129	0xbe4451d7	-0.19171844
130	0xbec3bee1	-0.38231567
131	0xbca336fd	-0.019923681
132	0xbe628de9	-0.22124447
133	0xbe44f16e	-0.19232723
134	0x3eb2745f	0.3485441
135	0xbe2b61d2	-0.16736534
136	0x3ec6011b	0.38672718
137	0xbec9516a	-0.39319927
138	0x3f04d3a1	0.5188542
139	0xbdee7f2b	-0.11645349
140	0x3d516369	0.051120196
141	0x3e89cec9	0.26915577
142	0x3eb116d3	0.34587726
143	0xbc49f491	-0.012326376
144	0xbeaccbcd	-0.33749238
145	0xbeb73ded	-0.35789433
146	0xbd0761a1	-0.03305209
147	0xbd7c38f6	-0.06157776
148	0xbe7ff178	-0.24994457
149	0xbeb13fac	-0.3461889
150	0x3e0cccaa	0.13749948
151	0xbecf34fb	-0.40470108
152	0x3e9f2bda	0.31088144
153	0x3d95fd5d	0.07323716
154	0x3eaebc4c	0.34128034
155	0x3e41063f	0.18850039
156	0xbe5042c7	-0.20337974
157	0x3e0290e9	0.12750591
158	0xbe358b45	-0.17728908
159	0xbd9ebd4b	-0.077509485
160	0x3e82e846	0.25567836
161	0xbdb29836	-0.08720438
162	0x3d965b14	0.073415905
163	0xbe77b9c4	-0.24191958
164	0xbeb81017	-0.35949776
165	0x3e0b09aa	0.13577905
166	0xbea55889	-0.3229411
167	0xbc475914	-0.012167234
168	0x3e1114c6	0.1416808
169	0xbe8d5906	-0.27606982
170	0xbe4ccbe3	-0.19999652
171	0x3ea0596b	0.3131822
172	0xbe9b6ac5	-0.30354896
173	0x3e1cecfc	0.15324777
174	0xbef4cc08	-0.47811913
175	0xbe92c630	-0.2866683
176	0x3ec88446	0.39163417
177	0x3e808eff	0.25109097
178	0xbcb6bbfc	-0.022306435
179	0x3eac8466	0.33694762
180	0x3f14a57e	0.5806502
181	0x3e926610	0.28593493
182	0xbc1525d5	-0.009103258
183	0xbecfda9d	-0.40596476
184	0x3e58d010	0.2117312
185	0x3e3bf337	0.18354498
186	0x3e84a84d	0.25909653
187	0xbd79a753	-0.06095059
188	0x3ca63faf	0.020294039
189	0xbe579b46	-0.21055326
190	0xbe958090	-0.29199648
191	0x3d4de78b	0.050269645
192	0xbf238174	-0.63869405
193	0xbda29eef	-0.079404704
194	0x3eabd73c	0.33562648
195	0x3dbf0d93	0.09328761
196	0x3e4dbc60	0.2009139
197	0xbd0a3fea	-0.03375236
198	0xbef998dd	-0.48749438
199	0x3ea735e5	0.32658306
200	0x3e9663e5	0.29373088
201	0xbdb1d99c	-0.08684084
202	0xbe142bfc	-0.14469904
203	0x3d9c55d5	0.07633559
204	0x3e14ff07	0.1455041
205	0x3e3689d1	0.1782601
206	0x3d9e1ef8	0.077207506
207	0x3c278ff5	0.010227193
208	0x3e9a5296	0.30141133
209	0xbebacd21	-0.36484626
210	0xbea068db	-0.31329998
211	0xbe8226e3	-0.25420293
212	0xbd8a84a7	-0.06763583
213	0x3c275c07	0.010214812
214	0xbe70d805	-0.23519905
215	0x3d5a9919	0.05336866
216	0xbe0442dd	-0.12916131
217	0x3e330a4e	0.174844
218	0x3ebfe032	0.37475735
219	0xbe76c999	-0.24100341
220	0xbe5332e0	-0.20624876
221	0xbe38fa0f	-0.1806414
222	0xbe289a6f	-0.16465162
223	0x3eb1b064	0.34704888
224	0x3eaf3793	0.34222087
225	0xbdea6f14	-0.11446968
226	0xbe827268	-0.2547791
227	0xbeb7da02	-0.35908514
228	0x3e98291c	0.29718864
229	0xbeb40812	-0.35162407
230	0xbeabd3a2	-0.335599
231	0xbe1ee713	-0.15517835
232	0xbeb658f3	-0.35614738
233	0x3c52e94a	0.012873003
234	0xbe94eaa1	-0.29085258
235	0x3e15ec20	0.14640856
236	0xbd080634	-0.03320904
237	0xbea6b4dd	-0.32559863
238	0x3e77c2a8	0.24195349
239	0xbe0d84d9	-0.13820209
240	0xbeb5d152	-0.3551126
241	0xbe52cf95	-0.20586999
242	0x3e526d14	0.20549423
243	0x3eac0d25	0.33603778
244	0x3d470549	0.048589025
245	0x3e5d3919	0.21603812
246	0x3e6749c9	0.2258674
247	0xbed15613	-0.40885982
248	0xbd4c582c	-0.049888775
249	0xbe71196b	-0.23544852
250	0xbdaa9cdf	-0.08330702
251	0x3ecdc719	0.40190962
252	0x3e0ceb0a	0.13761535
253	0xbdd5c0f0	-0.104371905
254	0xbe5eefda	-0.21771184
255	0xbea7f3e0	-0.3280325

h.0.bias f4 [100]
0	0x3e661a44	0.22470957
1	0x3e814982	0.25251395
2	0x3e2739d2	0.1633065
3	0x3dcd82cd	0.10034714
4	0xbd9bab97	-0.076010875
5	0xbdcffab1	-0.101552375
6	0x3ea5f18d	0.3241085
7	0xbe8b4255	-0.27199045
8	0xbeae8d5b	-0.3409222
9	0x3e18fede	0.14940974
10	0xbe8af933	-0.2714325
11	0xbde89378	-0.113562524
12	0xba828a91	-0.0009959509
13	0x3e6d5858	0.23178232
14	0xbe99492b	-0.29938635
15	0xbe348bc8	-0.17631447
16	0x3d77a927	0.06046405
17	0x3dcf97b2	0.101363555
18	0x3c8cfb14	0.017209567
19	0xbd56ca02	-0.052438743
20	0xbe9cad58	-0.30601
21	0x3b2bcf0a	0.0026215934
22	0xbe907cf1	-0.28220323
23	0x3d38da1d	0.045129884
24	0xbdf4491c	-0.11928007
25	0x3e87b055	0.26501718
26	0xbe60c070	-0.21948409
27	0xbe862743	-0.2620183
28	0xbeacd7c2	-0.3375836
29	0x3e9339b4	0.28754961
30	0x3de2311c	0.11044523
31	0xbe046196	-0.12927851
32	0x3da073e5	0.07834605
33	0x3e9eb6b1	0.30998757
34	0x3e8b26d0	0.2717805
35	0xbdeabc0f	-0.114616506
36	0xbe4cbd0c	-0.1999399
37	0xbe596339	-0.21229257
38	0xbea2edc6	-0.31822032
39	0xbe6368ec	-0.22207993
40	0xbe89139d	-0.26772776
41	0x3e724d55	0.23662312
42	0xbde2f4c7	-0.11081844
43	0xbdea81d4	-0.11450544
44	0x3d3cdc30	0.046108425
45	0x3eb43bbb	0.3520182
46	0xbea2e019	-0.31811598
47	0x3d6cc946	0.057809137
48	0x3e7a24c8	0.24428093
49	0xbe208058	-0.1567396
50	0xbeb64baf	-0.35604617
51	0x3ed1761a	0.40910417
52	0x3e885df6	0.26634187
53	0xbe969faf	-0.29418704
54	0x3e9fc372	0.312038
55	0xbead893c	-0.33893764
56	0xbe653390	-0.22382951
57	0x3e123d57	0.14281212
58	0x3df84f53	0.12124505
59	0x3d805ecc	0.06268081
60	0x3dfeea6d	0.12447057
61	0xbe9ccd86	-0.30625552
62	0xbe5db7e4	-0.2165218
63	0x3eb54553	0.35404453
64	0x3eb49266	0.35267943
65	0x3e48549d	0.19563527
66	0x3d461f09	0.04836944
67	0xbe3aa84a	-0.1822826
68	0x3ec9c2ca	0.39406425
69	0x3e723de4	0.23656422
70	0x3e97d1e3	0.29652318
71	0xbe772421	-0.24134876
72	0x3e9ce08b	0.30640063
73	0xbd693233	-0.05693264
74	0x3eb9c7e2	0.3628531
75	0xbe0a5f96	-0.13513026
76	0x3e91737a	0.28408414
77	0x3cd32a3b	0.025776973
78	0x3eb52f81	0.35387805
79	0x3deca7e5	0.11555461
80	0x3e3b66ed	0.18300982
81	0xbe9c5b00	-0.30538177
82	0x3ea0276a	0.3128007
83	0xbe1bce4b	-0.15215413
84	0xbeb22e4b	-0.34800944
85	0x3d012357	0.031527843
86	0x3e8fd445	0.28091636
87	0xbec7d237	-0.3902757
88	0xbea343f8	-0.31887794
89	0xbe8aacc2	-0.2708493
90	0x3e25c433	0.16188125
91	0x3d97abf2	0.07405843
92	0x3ea56308	0.32302117
93	0xbcf2dbba	-0.02964579
94	0x3e758d67	0.23979722
95	0x3ddc5653	0.107586525
96	0x3e7e81dd	0.24854226
97	0x3ea79d51	0.3273721
98	0x3debd0d8	0.11514443
99	0xbca931e1	-0.020653667

h.2.weight f4 [100, 100]
0	0xbc8354b6	-0.016031604
1	0x3e002f88	0.12518132
2	0x3d3f2205	0.046663303
3	0x3df16c48	0.11788231
4	0x3e63b09c	0.2223534
5	0xbc485002	-0.012226107
6	0x3cd4ddec	0.025984727
7	0xbd4cc8ba	-0.049996115
8	0xbdc1d100	-0.09463692
9	0xbce76c06	-0.028249752
10	0xbc8a4633	-0.016879177
11	0x3dc8fe47	0.098141246
12	0xbde9be94	-0.11413303
13	0xbcdcf585	-0.026972542
14	0x3d64b127	0.05583301
15	0xbca5a033	-0.02021799
16	0x3c92ba72	0.01791117
17	0x3e1cd2dc	0.15314811
18	0x3c5a702f	0.013332411
19	0x3ee4ea14	0.44709837
20	0x3cf89a67	0.030347062
21	0x3da148f5	0.078752436
22	0xbbeb1d00	-0.007175088
23	0xbd21dd9a	-0.039517976
24	0xbd9ae147	-0.075624995
25	0x3c80cc3b	0.015722385
26	0x3d8416bf	0.06449651
27	0xbd2e96ba	-0.042624213
28	0xbd55c4b3	-0.05218954
29	0x3aed41b6	0.0018101248
30	0xbd0a38ea	-0.033745684
31	0x3d412ae0	0.04716003
32	0xbe823277	-0.25429127
33	0x3e07a74d	0.13247414
34	0xbd05946c	-0.03261225
35	0xbd8a1e2d	-0.06744037
36	0xbd8014f3	-0.06253996
37	0xbd0ae71d	-0.033911813
38	0x3c5ff95a	0.01367029
39	0xbcb0573a	-0.021525968
40	0x3d018ad0	0.031626523
41	0x3e92ce38	0.28672957
42	0x3d09a9da	0.03360925
43	0xbe8d755f	-0.2762861
44	0x3f043fa1	0.5165959
45	0x3cb7a952	0.022419605
46	0x3d3d2d0a	0.04618553
47	0x3df3939b	0.11893388
48	0xbd3e0dc3	-0.046399843
49	0xbbc8bb4d	-0.0061258436
50	0xbdbf4d39	-0.09340901
51	0xbda64b9c	-0.0811989
52	0x3d813374	0.06308642
53	0xbca25f33	-0.019820785
54	0xbb4e5ac0	-0.0031487197
55	0x3b1daf9a	0.0024060966
56	0xbd735e77	-0.05941626
57	0x3db986d4	0.090589195
58	0xbe4978dd	-0.19675012
59	0xbe0fd412	-0.14045742
60	0x3c7eaef5	0.015544643
61	0x3ece9e5d	0.40355197
62	0xbcbfb0eb	-0.02339979
63	0x3ca9c1e8	0.020722345
64	0x3d2f940e	0.042865805
65	0x3e1dad9d	0.1539826
66	0x3d0e488a	0.034737147
67	0x3d45e960	0.048318267
68	0x3d0f945a	0.03505359
69	0xbd295042	-0.041336305
70	0x3d655c80	0.055996418
71	0x3cf25b00	0.029584408
72	0xbda7e8c8	-0.081986964
73	0xbd4035b7	-0.046926226
74	0x3dfb8c4b	0.12282618
75	0xbdc29648	-0.0950132
76	0xbc3a7603	-0.011380675
77	0x3f1ad313	0.60478324
78	0xbd15ef98	-0.036605448
79	0xbd6c9493	-0.05775888
80	0x3e47bb48	0.19505036
81	0xbcd340ba	-0.0257877
82	0xbe1762d9	-0.14783801
83	0xbe577721	-0.21041538
84	0x3d9cd658	0.0765807
85	0xbe507859	-0.20358409
86	0x3ddf5a0f	0.10905849
87	0x3cd54707	0.026034845
88	0xbd1e7740	-0.038687944
89	0xbd91e4ef	-0.07123744
90	0xbd9d5b54	-0.07683435
91	0x3e9f6401	0.31130984
92	0x3be03782	0.0068425545
93	0x3d8ef082	0.06979467
94	0xbd282c8d	-0.041058112
95	0xbc51d332	-0.012806701
96	0xbc0a9c9d	-0.008460191
97	0x3da49ff9	0.08038325
98	0x3e175215	0.14777406
99	0x3e2942e2	0.1652942
100	0xbd67b8a3	-0.056572568
101	0xbd4e4c37	-0.050365653
102	0x3be0ee1a	0.0068643214
103	0xbbb971cd	-0.005659318
104	0x3d0ebc43	0.03484751
105	0x3db17de0	0.08666587
106	0xbc714167	-0.014725066
107	0xbd034837	-0.03205129
108	0xbcdaaef3	-0.02669475
109	0xbd8cdf8d	-0.068785764
110	0x3cf8d22d	0.030373657
111	0x3d3b28d0	0.04569322
112	0xbdbec223	-0.093143724
113	0xbc8fb0a0	-0.017540276
114	0x3d67d02d	0.056595016
115	0x3cf04873	0.029331421
116	0xbd3e7257	-0.04649576
117	0x3d3e4e07	0.04646113
118	0x3da7d2f2	0.081945315
119	0xbdac1e07	-0.08404165
120	0x3cc4d207	0.02402593
121	0xbd1eec77	-0.03879973
122	0xbdbf4940	-0.09340143
123	0x3c326cc0	0.010890186
124	0xbd3cae87	-0.04606488
125	0x3d57830d	0.052615214
126	0x3d6a23f7	0.057163205
127	0x3d4f4827	0.05060592
128	0xba497267	-0.0007684589
129	0xbdb8d655	-0.090252556
130	0xbda26467	-0.079293065
131	0x3d29bbd3	0.04143889
132	0xbda03223	-0.07822063
133	0xbd68429a	-0.05670414
134	0xbd0b3afa	-0.03399179
135	0xbccabb33	-0.024747467
136	0x3d874ead	0.06606803
137	0xbc16b380	-0.00919807
138	0x3d209607	0.039205577
139	0x3dc34c45	0.09536032
140	0x3c20711a	0.0097925905
141	0x3b147733	0.0022654056
142	0x3d5deb20	0.05417931
143	0x3d6f71d3	0.05845816
144	0x3dc2d32d	0.09512935
145	0xbd9a2df3	-0.07528295
146	0x3d2a2770	0.041541517
147	0x3971d000	0.00023061037
148	0x3d132203	0.035921108
149	0xbdcb54f2	-0.099283114
150	0x3d282383	0.04104949
151	0x3d21907a	0.039444424
152	0xbce2799a	-0.027645875
153	0xbdc85cd0	-0.097833276
154	0x3db921d5	0.09039656
155	0x3cab7187	0.020928157
156	0x3d0e14c7	0.034687784
157	0xbd87cf88	-0.0663138
158	0xbdb597fd	-0.0886688
159	0x3d73a55a	0.059483863
160	0xbd443e33	-0.04791088
161	0xbdb6db52	-0.08928551
162	0xbdb458b2	-0.0880598
163	0x3d432120	0.047639012
164	0x3d498777	0.049201455
165	0x3d935e9d	0.071957804
166	0x3d3184bd	0.04333948
167	0xbd36b24a	-0.044603623
168	0x3bcf5d1a	0.0063282372
169	0xbd0d1bad	-0.03445022
170	0xbd90cdcb	-0.07070502
171	0xbd2c9e7d	-0.042143334
172	0xbc87d560	-0.016581237
173	0xbc515c80	-0.012778401
174	0xbc9f71c7	-0.019463433
175	0xbdadf905	-0.08494762
176	0xbd1a846d	-0.037723947
177	0xbd54e2f7	-0.051974263
178	0xbcf87c80	-0.030332804
179	0xbd8a363a	-0.06748624
180	0xbd324eda	-0.04353223
181	0x3d86960d	0.06571589
182	0xbdc78738	-0.09742588
183	0xbd7e46ba	-0.06207917
184	0xba2a4400	-0.0006495118
185	0xbd763823	-0.06011213
186	0xbcbe49b3	-0.023228502
187	0xbda65e5a	-0.08123465
188	0xbd2524da	-0.040318348
189	0x3c9d0a53	0.019169962
190	0xbb752a00	-0.0037409067
191	0xbdbf9708	-0.09354979
192	0xba88ae00	-0.0010427833
193	0x3d797690	0.060904086
194	0xbdc893bf	-0.09793805
195	0xbd1cae1d	-0.038251985
196	0xbdb3e4fa	-0.08783908
197	0x3c8d0a60	0.017216861
198	0x3d657e5a	0.0560287
199	0xbcfab493	-0.030603683
200	0x3dbf74a9	0.09348423
201	0x3d76a379	0.060214493
202	0xbd898a2e	-0.06715809
203	0x3e84cb18	0.25936198
204	0x3e1c00fa	0.15234748
205	0x3e3a327b	0.1818332
206	0x3d039dcf	0.03213292
207	0x3dbabe94	0.09118381
208	0x3d309017	0.043106165
209	0x3da6aa12	0.08137907
210	0x3d49719a	0.049180605
211	0xbd08f23a	-0.03343413
212	0xbe9939dc	-0.29926956
213	0x3db26556	0.087107345
214	0x3cfd3793	0.030910289
215	0x3da06468	0.07831651
216	0x3d976e7f	0.07394122
217	0xbbf7d5c6	-0.0075633256
218	0x3e587b01	0.21140672
219	0x3f0f467e	0.5596694
220	0xbdb9aff5	-0.09066764
221	0xbd907432	-0.070534125
222	0xbd15498d	-0.036447097
223	0x3d017ac4	0.03161122
224	0xbceda13a	-0.029007543
225	0xbc28fe51	-0.01031454
226	0x3dbf24fb	0.09333225
227	0x3d42b603	0.04753686
228	0xbc075fa7	-0.008262551
229	0xbd3c914f	-0.046037015
230	0x3e18e3d8	0.14930665
231	0xbd288e93	-0.041151594
232	0xbeb77961	-0.35834792
233	0x3de912b5	0.11380521
234	0xbbb65a68	-0.0055649765
235	0x3d5aab7d	0.0533862
236	0x3ccef460	0.025263011
237	0x3d12448a	0.035709895
238	0xbc8f7660	-0.0175125
239	0xbd7dcf90	-0.061965525
240	0xbdb44060	-0.08801341
241	0x3e625218	0.22101629
242	0xbc5b509a	-0.013385916
243	0xbe880c96	-0.26572102
244	0x3ed384ab	0.41312155
245	0x3bbc6561	0.00574939
246	0xbc5d1580	-0.0134938955
247	0x3e29fbcd	0.1659996
248	0x3e3705fb	0.17873375
249	0x3dbd224b	0.092350565
250	0xbe5164f9	-0.20448674
251	0xbd8a0b52	-0.067404404
252	0xbe3b252d	-0.182759
253	0xbda857aa	-0.082198456
254	0x3e1b90aa	0.15191904
255	0xbd754063	-0.059875857

h.2.bias f4 [100]
0	0x3dae8d49	0.08523042
1	0x3d12e6b7	0.035864558
2	0x3d3bee50	0.04588157
3	0xbc931a28	-0.017956808
4	0xbdc8d703	-0.09806635
5	0xbd4c731d	-0.049914468
6	0x3d393536	0.04521676
7	0xbd9e0c55	-0.07717196
8	0xbda1a659	-0.078930564
9	0x3af420de	0.0018625518
10	0xbd5c63df	-0.053806182
11	0xbd0b3f02	-0.033995636
12	0x3d4666a8	0.048437744
13	0xbcbf586f	-0.023357598
14	0x3d9242b1	0.071416266
15	0xbc1c8ba0	-0.009554774
16	0x3cb871a2	0.022515122
17	0xbd81a495	-0.0633022
18	0x3cd76ff5	0.026298502
19	0xbd1fd814	-0.039024428
20	0xbdbe1804	-0.09281924
21	0x3d83a023	0.06427028
22	0xbdc5da1d	-0.096607424
23	0xbdb82c5e	-0.08992837
24	0xbdc86b7a	-0.097861245
25	0x3cd271f2	0.025689099
26	0xbd618853	-0.05506165
27	0x3d540066	0.051758192
28	0xbd8ac7e1	-0.06776405
29	0x3daef2be	0.08542393
30	0x3dab0687	0.08350854
31	0x3dac6140	0.084169865
32	0x3d67d5d1	0.056600396
33	0x3dd4e026	0.103943154
34	0xbcffe85a	-0.031238724
35	0xb9560333	-0.00020409822
36	0xbd61e42a	-0.055149235
37	0x3d45b370	0.048266828
38	0xbd254654	-0.040350273
39	0x3dd705a9	0.104991265
40	0xbde61e28	-0.112362206
41	0xbcd83ce0	-0.026396215
42	0x3d31519d	0.043290723
43	0xbd63027d	-0.055422295
44	0x3da85b18	0.082205
45	0xbdbcd718	-0.092207134
46	0xbb75143b	-0.0037396092
47	0xbce51d9a	-0.027968217
48	0x3da5d014	0.080963284
49	0xbd97dd95	-0.0741531
50	0xbd12b273	-0.035814714
51	0xbd6708c3	-0.05640484
52	0xbda992dd	-0.08279965
53	0xbcf08ee0	-0.029365003
54	0x3d9ad6eb	0.075605236
55	0xbdb1071d	-0.08643935
56	0xbcd11379	-0.02552198
57	0xbb63f967	-0.0034786107
58	0x3d1f0974	0.038827375
59	0x3dc07e14	0.093990475
60	0x3da224c7	0.07917171
61	0x3c9ca141	0.01911986
62	0x3c555b2e	0.013022227
63	0x3db7b6df	0.08970427
64	0xbd33769a	-0.04381428
65	0xbd177c67	-0.036983874
66	0x3d77e092	0.0605169
67	0xbd3ce086	-0.04611256
68	0x3dd6f268	0.10495454
69	0x3d17fb5a	0.037104942
70	0xbcd0dca3	-0.025495833
71	0xbd6cd170	-0.057816923
72	0x3d0150c0	0.03157115
73	0x3d92433f	0.071417324
74	0xbd0465ef	-0.032323774
75	0xbd891dd6	-0.06695144
76	0x3b98a6f5	0.0046585747
77	0xbd9fcd97	-0.07802885
78	0x3cd2894a	0.02570023
79	0x3d7ff00f	0.062484797
80	0xbda8af7a	-0.082365945
81	0x3da82775	0.08210651
82	0xbd557810	-0.052116454
83	0x3d05b63c	0.032644495
84	0x3c04a26b	0.008095364
85	0xbdcd409d	-0.1002209
86	0xbd3930b2	-0.045212455
87	0xbd25be65	-0.040464777
88	0xbd0e5938	-0.034753054
89	0xbda99db2	-0.08282031
90	0x3cb74075	0.022369603
91	0xbb75201c	-0.0037403172
92	0xbdad3818	-0.08457965
93	0x3dafe6f8	0.08588976
94	0x3d90fb07	0.0707913
95	0xbda50317	-0.0805723
96	0xbd91fd05	-0.07128338
97	0x3dc2ff38	0.09521335
98	0xbd4c45a3	-0.0498711
99	0x3cd50478	0.026003107

h.4.weight f4 [1, 100]
0	0x3ea4c7c6	0.32183665
1	0x3d0e6327	0.034762528
2	0x3ec178b8	0.37787414
3	0xbe416477	-0.1888598
4	0xbd4af7b0	-0.04955262
5	0x3da4dffa	0.08050533
6	0xbef4a288	-0.47780252
7	0x3d26142a	0.040546574
8	0x3ce3da99	0.027814196
9	0x3e9114f2	0.28336293
10	0xbee50d72	-0.4473682
11	0xbdb435a2	-0.08799292
12	0xbd9c2313	-0.076238774
13	0xbd1a7662	-0.037710555
14	0xbdba47d9	-0.09095735
15	0x3ec49dd5	0.38401666
16	0xbeecbb3e	-0.46236604
17	0xbc065480	-0.008198857
18	0x3ea72559	0.32645682
19	0xbf162997	-0.5865721
20	0x3ea58206	0.32325763
21	0x3d92211b	0.071352206
22	0xbd1bdbdd	-0.038051475
23	0x3e8c9b5d	0.27462283
24	0x3d5eac73	0.05436368
25	0x3e74596d	0.23862238
26	0xbdb64352	-0.08899559
27	0x3e8d2173	0.27564582
28	0xbd5e073a	-0.05420611
29	0xbf1d6b84	-0.6149218
30	0x3ea47400	0.3211975
31	0xbd322b3b	-0.04349826
32	0x3eb48908	0.35260797
33	0x3e9e07d1	0.30865338
34	0x3e8be9d6	0.2732684
35	0xbc8c28fa	-0.017109383
36	0x3ec2b658	0.38029742
37	0xbcba42c0	-0.022736907
38	0x3ea87714	0.3290335
39	0xbec15405	-0.37759414
40	0x3ea08433	0.3135086
41	0x3d6ceab7	0.05784103
42	0x3e5f9b0b	0.21836488
43	0x3eac85ca	0.33695823
44	0x3d90e37a	0.07074638
45	0xbcb840ed	-0.022491897
46	0x3dc348b0	0.095353484
47	0xbeaf6d11	-0.342629
48	0xbf133f02	-0.5751802
49	0xbbde8e00	-0.00679183
50	0x3e8f87df	0.2803335
51	0x3dc134df	0.094339125
52	0xbdc4e9e7	-0.09614926
53	0x3d82c70a	0.0638562
54	0x3e88288a	0.2659343
55	0xbcd8d06d	-0.026466573
56	0xbf1cc133	-0.612323
57	0x3daf7fcd	0.08569298
58	0xbebcb2e7	-0.36855242
59	0xbee4282d	-0.44561902
60	0xbdadb25c	-0.08481285
61	0x3e94d00a	0.2906497
62	0xbdaed51b	-0.085367404
63	0xbeb4a02e	-0.35278457
64	0x3ec16651	0.37773374
65	0xbcd2c510	-0.025728732
66	0xbf092c38	-0.535831
67	0xbf1afb3b	-0.605396
68	0x3ea23aba	0.3168543
69	0xbdc982b3	-0.09839382
70	0xbc8175f3	-0.015803313
71	0xbd22d096	-0.039749704
72	0xbb978f67	-0.004625249
73	0x3ebb2f0e	0.36559337
74	0x3dbb8cfd	0.09157751
75	0x3eaa3688	0.3324473
76	0xbefb096c	-0.49030626
77	0x3d99b1fb	0.0750465
78	0x3ea65d5c	0.32493103
79	0xbd6edae4	-0.05831422
80	0xbd54a9bd	-0.051919688
81	0xbee5d888	-0.44891763
82	0xbd9f67aa	-0.07783444
83	0x3ea899fc	0.3292998
84	0x3eb23111	0.3480306
85	0x3d2c0138	0.04199335
86	0xbe9a0093	-0.30078563
87	0xbf0a65c5	-0.5406154
88	0xbed4f004	-0.41589367
89	0x3d0eb010	0.034835875
90	0x3eb5748f	0.3544049
91	0x3e8a9969	0.27070168
92	0x3da0659f	0.07831883
93	0x3e766e7e	0.24065587
94	0xbee77593	-0.4520689
95	0x3daef337	0.08542483
96	0x3d1205a7	0.03564992
97	0x3e35bf58	0.17748773
98	0xbc84dd3d	-0.016218776
99	0x3e2f0e26	0.17095241
