logs/PointMaze-Right/sac/seed0-20230805-1354/model/step740000/actor.pth (torch, 276901 bytes, 6 tensors)

net.0.weight f4 [256, 6]
000000 41 4f 48 bb 1c 42 60 3e 15 09 ac be 0a d4 99 be
       -0.0030564817 0.21900219 -0.3360068 -0.30044585
000010 29 03 21 be 51 34 e0 3d 7f 25 06 c0 ed e6 2c 3f
       -0.15723862 0.109474786 -2.0960386 0.67539865
000020 7f 65 14 bd f9 d3 1c bf d5 92 dd bd cb 58 a4 bd
       -0.036229607 -0.61260945 -0.108190216 -0.080247484
000030 b7 50 83 bf ab 3c 15 bf 0d 54 2c be 41 17 ec 3e
       -1.0259007 -0.58295697 -0.16828938 0.4611149
000040 eb 78 4c 3e 58 d6 7a 3e f9 0e 1c bf c0 01 eb bf
       0.19968002 0.24495828 -0.60960346 -1.8359909
000050 70 d7 17 3e dd 7d 26 3f 17 a8 d6 bd 1b 6a 9c 3e
       0.14828277 0.650358 -0.10481279 0.30549702
000060 4b 6b c6 bd 42 8b 8f 3e f6 43 bd 3e 57 19 87 bf
       -0.09688433 0.28035933 0.36965913 -1.0554608
000070 4a 36 9c be 69 ab d3 bd 54 f4 22 be 9d 98 b4 3e
       -0.3051017 -0.10335428 -0.15913516 0.35272685
000080 0b 7c 87 be c0 70 40 be 32 08 92 be 4e c3 c3 be
       -0.26461825 -0.1879301 -0.28521878 -0.38234943
000090 67 e6 21 bf fe 69 e7 3d 38 8a 3a 3e 5c ca 77 3f
       -0.6324219 0.11299513 0.18216789 0.9679315
0000a0 c8 2b a8 be 4f 53 56 be 4f 27 ce bd 62 d3 72 be
       -0.32845902 -0.20930217 -0.10066091 -0.23713449
0000b0 77 08 97 be b1 6c f0 be 1a da ed 3a 02 1c 75 3e
       -0.29498646 -0.46957925 0.0018146664 0.23936465
0000c0 ae 67 92 bf d6 09 f6 3d d8 ae 85 3e 35 2c 5e 3f
       -1.143789 0.12013595 0.26109958 0.86786205
0000d0 7b 6e ce 3d 77 e6 61 3d 92 38 63 3f e8 af 65 be
       0.10079666 0.05515143 0.88758194 -0.22430384
0000e0 04 cd 9b 3d eb 5a 5e bf 45 12 9e be b1 f4 57 be
       0.07607463 -0.8685748 -0.30873314 -0.21089436
0000f0 23 05 7a 3f 6e 04 f6 bd 79 a1 77 be 2d f2 89 3e
       0.9766409 -0.12012564 -0.2418269 0.26942578
000100 c3 00 bc bd 0d 0f 53 bd ed 62 7f 3c 01 ba c1 3d
       -0.09179833 -0.051528025 0.015587551 0.094593056
000110 4d ac 81 3e e9 b3 c8 3e 02 14 a1 be 89 33 19 be
       0.25326768 0.3919976 -0.31460577 -0.14961065
000120 2e bf 4a 3f c5 f2 07 3f ba e4 b5 3e ab d8 c4 3e
       0.7919797 0.5310481 0.35526067 0.38446555
000130 e1 cc 5f be 4d c3 b5 be 08 89 40 bf b3 cb 24 bf
       -0.21855499 -0.35500565 -0.75209093 -0.6437332
000140 cb cc c2 be 24 bb 35 3f 7d 4e a7 3e a5 81 d0 be
       -0.3804687 0.7098868 0.3267707 -0.4072391
000150 40 7e 9c 3d 21 d9 8c bd 9e 96 89 bd 12 5d 3f be
       0.07641268 -0.068773516 -0.06718181 -0.18687847
000160 24 c3 20 3e 3b 9c 77 be f0 58 89 bb 0b ef 8f 3f
       0.1569944 -0.24180691 -0.0041915104 1.1244825
000170 3b a2 95 3e 44 e0 25 be 09 a3 2a bf b8 97 87 be
       0.29225335 -0.16198832 -0.6665502 -0.2648294
000180 3a a3 02 be b1 ad da be 3c 0e a3 be a0 0a 62 bf
       -0.12757578 -0.4271064 -0.31846797 -0.8829746
000190 95 de eb 3d f1 d7 8c 3e 58 47 36 be 88 6e d2 bd
       0.115170635 0.275085 -0.17800653 -0.102749884
0001a0 73 1d c7 be dd 72 f0 bb 20 68 9d be 3d 3b a1 be
       -0.38889655 -0.0073379115 -0.30743504 -0.31490508
0001b0 03 46 b8 bc 00 12 7b 3d de 33 2b be 2d 0f 78 3e
       -0.022494322 0.061296463 -0.16719005 0.24224539
0001c0 c3 65 7e be 4d a9 bd 3e cb 23 6e 3e 02 6e 9d be
       -0.24843507 0.3704323 0.23255841 -0.30747992
0001d0 1f 17 d0 bd 27 52 b7 bd 0d 65 fc bd b5 4c c6 3d
       -0.1016066 -0.08951216 -0.123239614 0.096825995
0001e0 9d 0d 24 3e 0d 54 c8 3c 0f fa 4b be 9d d0 45 3e
       0.16020818 0.024454141 -0.19919609 0.19317861
0001f0 55 81 c8 be 60 c7 77 be 86 4c d1 bd cc a2 4b be
       -0.39161173 -0.2419715 -0.10219674 -0.19886321
000200 1d 3f 12 be e4 51 ab be 7c d9 b1 bd 5d b8 b2 3d
       -0.14281888 -0.33460915 -0.0868406 0.08726571
000210 e2 2b 88 be 85 a1 ab bc 1f a1 95 3e ab e6 2b bd
       -0.2659598 -0.020951042 0.29224488 -0.04196803
000220 19 e5 39 3c f0 41 10 bd ee 04 ef 3e 0c ec 1b 3f
       0.011346125 -0.035219133 0.4668345 0.60907054
000230 12 ff c5 3e 9c 78 d5 3e 9d 5d 16 bd d1 de f1 bc
       0.38671166 0.4169358 -0.03671037 -0.029525192
000240 9b 50 51 bf 77 44 b8 be 2f 53 8e 3e 04 74 55 3f
       -0.8176362 -0.35989735 0.2779784 0.8338015
000250 3b f3 bd bd 48 2d a0 be 39 1c 1f bf f8 d6 7b bf
       -0.09274908 -0.31284547 -0.6215244 -0.9837489
000260 1d 97 a9 bd 88 d2 71 3f 1c 5c cd 3c ad 96 c9 be
       -0.08280776 0.9446187 0.025068335 -0.3937277
000270 87 62 82 3e 05 90 a3 be 31 c2 b0 bd 9e 81 29 be
       0.25465795 -0.31945816 -0.08630789 -0.16553351
000280 50 0b a1 bd 22 29 a4 bd 20 91 bb be 7e 7a b4 be
       -0.07863486 -0.08015658 -0.3663416 -0.35249704
000290 d2 d4 82 bd 00 00 ad 3b 6e e8 3d be 4a 7a 1d 3e
       -0.063882485 0.005279541 -0.18545696 0.15378681
0002a0 90 3e 6c bf ab 1f 11 bf aa d1 b7 3e 8e 6f 1e be
       -0.9228296 -0.56688946 0.35902148 -0.15472242
0002b0 7f 69 b3 3e a4 65 17 3e 74 aa 85 bf 77 59 58 3f
       0.35041425 0.14784867 -1.0442643 0.8451151
0002c0 fe f5 40 bd fa 60 3c bd 66 45 b1 3e 1d e9 a8 be
       -0.047109596 -0.04599092 0.3462326 -0.3299035
0002d0 0c 66 ad 3e d4 37 0d c0 1d 44 95 3e a4 2d 9d bd
       0.33866918 -2.2065325 0.2915353 -0.07674721
0002e0 2a d7 4b 3e 04 a3 13 3e 21 0f c9 bd b7 d5 af bd
       0.19906297 0.14417654 -0.09817339 -0.08585685
0002f0 88 40 ac be 13 84 62 3e b5 f5 a5 3e d1 04 8f 3e
       -0.33642983 0.22120695 0.32414022 0.27933362
000300 bd 70 93 be 96 28 95 3c f8 58 93 be bb 20 66 be
       -0.2879695 0.01820783 -0.28778815 -0.22473423
000310 0d 99 73 be 80 dd 0e 3e 29 3d 53 bf ea bc ff 3e
       -0.23788853 0.13951683 -0.825152 0.49948817
000320 fe b0 8c 3c c7 19 23 3f fc 88 d7 be 37 7f 8f be
       0.01717424 0.6371121 -0.42096698 -0.28026745
000330 4f be 72 be 62 4d 92 3e e3 45 16 be 04 4f b0 3e
       -0.2370541 0.28574663 -0.14675097 0.34435284
000340 2f 2b 17 3e fc bd 53 3d 21 2a 47 bb b2 47 a5 bd
       0.14762567 0.051694855 -0.00303901 -0.080703154
000350 8e cd 51 3d d3 ea be bd f1 fd 3b bb f3 5b 55 3d
       0.051221423 -0.09322133 -0.0028685296 0.052089643
000360 66 6f 3b bf 1e f6 25 bf e0 c8 a8 3e 61 29 b8 bd
       -0.73216856 -0.6482867 0.32965755 -0.089922674
000370 b2 de ff bb 16 c6 ce 3e 88 03 17 3e ea 60 3d 3c
       -0.00780853 0.40385503 0.14747441 0.011558751
000380 3b 24 b5 be 44 17 4f 3e 16 e2 94 be 38 56 ed bd
       -0.35379204 0.20223719 -0.2907874 -0.115887105
000390 9e df a4 be e3 e7 3d be a4 53 92 3b b7 7b 5b 3f
       -0.32201856 -0.18545489 0.004465537 0.8573565
0003a0 b1 8d 9c 3c 74 38 bb 3e 5f b9 7f 3e b8 25 84 be
       0.019110532 0.36566508 0.24973057 -0.25810027
0003b0 d6 7e 3b 3e f4 c1 93 be b3 2d 31 be ee e9 f5 3d
       0.18310103 -0.28858912 -0.17302589 0.12007509
0003c0 9c 7d c0 bf 86 66 97 3c 63 93 06 be e4 63 fb bf
       -1.5038333 0.018481504 -0.13142161 -1.9639859
0003d0 36 37 4b bd 07 25 ca be a3 1e 97 3e 8e d8 ac be
       -0.0496132 -0.39481375 0.2951556 -0.33758968
0003e0 09 60 b8 3b 56 26 8e bd 75 2c 5c be b2 03 5d 3d
       0.0056266827 -0.06940906 -0.21501334 0.053958602
0003f0 a7 69 6b 3f ff 5e f7 be 0d 31 78 be 0b b3 50 be
       0.9195809 -0.48314664 -0.24237461 -0.203808

net.0.bias f4 [256]
000000 c9 00 0b be da 52 16 3e b3 20 60 3e 35 bd 10 bd
       -0.13574518 0.14680043 0.21887474 -0.035336692
000010 9f 89 ae 3e f9 ab 90 be a7 20 46 be 3f 46 e5 3d
       0.34089372 -0.28256205 -0.19348393 0.11195039
000020 2d 7b 07 be 6e c1 98 3e 27 57 9e be a1 86 9c be
       -0.13230582 0.29835075 -0.30925867 -0.30571464
000030 c8 18 06 bf 35 5d 2c 3e b9 e8 34 be 2e 41 28 be
       -0.52381563 0.1683243 -0.17666902 -0.16431114
000040 6d 30 08 3e 8c 00 0e 3e db 7f 1c bd 8e 4c a5 bd
       0.13299723 0.13867396 -0.03820787 -0.08071242
000050 d0 da 70 be e1 a1 af be 63 1f 9d be 5e 50 44 bf
       -0.2352097 -0.3430319 -0.3068801 -0.7668513
000060 14 9a 46 3e ae c3 ed bd 02 a8 31 be c3 74 cc be
       0.19394714 -0.116095886 -0.17349246 -0.39932832
000070 3f bc 4f 3e 69 e7 58 be 91 b1 85 bd 1a 43 af be
       0.20286654 -0.21182026 -0.06528009 -0.34230882
000080 1f d8 6b be f6 15 6d 3d a3 c0 c2 be f6 62 6e be
       -0.23031662 0.05788227 -0.38037595 -0.23279938
000090 4e b3 a7 3e fe 64 56 be 62 a7 4e be ba c0 ea bd
       0.32753986 -0.20936963 -0.20181039 -0.11462541
0000a0 70 c7 ae bd e2 1c 89 be 57 0d 5b 3e 99 b9 6b 3e
       -0.085341334 -0.26779848 0.21391807 0.23020019
0000b0 6d c9 f8 bd fb ce e3 3d ea 73 9f be bd 5b 2f 3c
       -0.12147794 0.11123463 -0.31143123 0.010703024
0000c0 91 b0 b6 3d 79 06 32 3e c4 d5 ac be 28 e0 24 3e
       0.08920396 0.17385282 -0.3375684 0.16101134
0000d0 b2 c1 19 3e 3d 3d 92 bd f5 6b 83 be ba a8 76 ba
       0.15015295 -0.071405865 -0.25668302 -0.00094092975
0000e0 9c f6 11 bf 76 9a cb be a2 9f 0c 3e a7 0d 4c be
       -0.5701692 -0.39766282 0.1373277 -0.19927083
0000f0 f9 67 a6 be 21 62 45 3e a1 1b 46 3e 55 81 a9 be
       -0.325012 0.19275714 0.19346477 -0.33106485
000100 8d 7d c1 be 8f f0 5d 3e 02 74 7f bd 98 17 96 bd
       -0.377911 0.21673797 -0.062366493 -0.07328719
000110 51 82 96 3d d7 da 30 bd 38 21 ff ba ec b6 6d 3c
       0.07349075 -0.043177452 -0.0019464856 0.014508944
000120 73 f9 7c be 7a 87 07 3e a0 f4 82 bd 65 d2 41 be
       -0.24704532 0.13235274 -0.06394315 -0.18927915
000130 f8 4f 1f be 8b 7e 10 3d 47 e8 a9 be d9 cf 1d 3e
       -0.1555785 0.03527693 -0.33185026 0.15411319
000140 28 72 af 3e 0a 34 3d be 84 5e a2 be 9f be 71 be
       0.34266782 -0.18476883 -0.31712735 -0.23607872
000150 2a 33 71 be 88 a3 b4 be 4f d7 93 be c3 db 20 3e
       -0.23554674 -0.35281014 -0.28875205 0.15708832
000160 c6 b1 8d 3e ba 7d 39 3e d1 b3 7d 3e 39 b0 69 3d
       0.27674693 0.18114367 0.24775626 0.057052825
000170 86 87 44 3e 6e 2c 57 bc aa 94 6d be f8 7f 22 bd
       0.19192323 -0.013133151 -0.23201242 -0.03967282
000180 8b 1b 97 3e f2 ff 9b 3d 2f 02 88 be 6b 6c 06 bf
       0.295132 0.07617177 -0.26564166 -0.5250918
000190 65 13 dd 3d 69 c1 d3 3e d0 16 47 3d c2 ce 2f be
       0.10794715 0.41358498 0.04860574 -0.17168716
0001a0 f5 36 88 3e 3d e9 bf be ea 97 96 be e0 20 c9 be
       0.2660443 -0.37482634 -0.29412776 -0.39282894
0001b0 3f 8f 5f 3e 4a e7 8f 3d dd 7e 40 be ec 62 16 be
       0.21831988 0.07026537 -0.18798395 -0.14686173
0001c0 f1 04 b4 be 47 0e 86 be 1b d9 19 3e b9 19 ac bd
       -0.3516002 -0.26182768 0.15024225 -0.08403344
0001d0 71 af 95 be f3 ac 89 be d4 a0 56 3e e5 53 16 3d
       -0.29235414 -0.26889762 0.20959789 0.0367011
0001e0 3b cf 13 be 76 fa 51 be 89 9e cb 3a fd 87 4e bd
       -0.14434521 -0.205057 0.0015534918 -0.050422657
0001f0 d5 fe b6 be d6 74 87 be 52 7f e0 3d 59 ce 21 3e
       -0.35741296 -0.26456326 0.109617844 0.15801372
000200 9a 4d 06 be d5 65 94 3d 61 73 81 be d4 ab bb 3e
       -0.1311554 0.072459854 -0.2528334 0.36654532
000210 e2 e1 03 3e d1 4a e4 3d 22 72 01 3e a2 15 a6 3e
       0.12879136 0.111470826 0.12641194 0.3243838
000220 18 fb ed be c5 1f 57 be c1 fa e5 3d cc b7 bc bd
       -0.46480632 -0.21008213 0.11229468 -0.09214744
000230 bb 65 11 3e 52 b0 f2 be 16 ac ba be 83 d9 ac be
       0.14198963 -0.47400147 -0.36459416 -0.33759698
000240 bf fd c1 be 0a d7 78 3e ca 8a 92 be 81 e3 c4 be
       -0.37888905 0.24300781 -0.28621513 -0.38454822
000250 d6 98 7c be 70 d7 8c be 1a fb 1e bf 67 94 9c 3d
       -0.24667677 -0.27508116 -0.621019 0.07645493
000260 04 ef 9c be 4a 89 fe 3d 6a e8 d2 3d 7a 0a 32 be
       -0.30651104 0.124285296 0.10298236 -0.17386809
000270 43 7a 20 3e 16 2c 6a be ed d9 37 3e e2 94 fe 3d
       0.15671639 -0.2286838 0.17954226 0.12430741
000280 af af c6 3d ec b6 45 3e 2e 72 22 bf eb 77 83 3d
       0.09701478 0.1930806 -0.63455474 0.06419357
000290 74 bc 88 3e 1f ae b5 be bf f3 52 3e d0 52 1f be
       0.26706278 -0.35484406 0.20600794 -0.15558934
0002a0 35 33 17 be 8a d7 a5 be 9a fb 5e 3d 54 23 eb be
       -0.14765628 -0.32391006 0.054439165 -0.4592539
0002b0 6e 6c b1 bd a5 b8 0c 3b e5 86 36 3c 97 38 a4 3d
       -0.086632594 0.0021472361 0.01114056 0.08018606
0002c0 f9 f2 1b be 09 02 37 be db 90 f0 3d df c2 11 3e
       -0.15229405 -0.1787187 0.11746379 0.14234494
0002d0 66 13 50 3e df 7c 0b 3e 5a 67 58 3e c2 6e a8 be
       0.203199 0.13621853 0.21133175 -0.32897002
0002e0 18 7f 77 3e b7 12 40 be 20 cf df bd 7a 23 20 3b
       0.24169576 -0.18757139 -0.10928178 0.0024435208
0002f0 ea 2a 55 be 4d 90 ef 3d 77 6b 82 3e c5 c6 79 be
       -0.20817152 0.11697445 0.25472614 -0.24392231
000300 59 b3 a4 3e 27 fe a7 be c7 88 07 be 72 bc a1 3e
       0.3216808 -0.3281109 -0.1323577 0.31589085
000310 85 a7 d5 3d 65 06 d4 3e a3 36 44 bd 85 82 29 3d
       0.104323424 0.4141113 -0.047903668 0.04138424
000320 da 04 9f 3d be ae 2e be 07 b6 70 3e 97 4d 87 bd
       0.07764597 -0.17058846 0.23506938 -0.06606596
000330 21 e0 9d be 20 41 79 3d c0 82 c6 bb 22 aa 94 bc
       -0.3083506 0.060853124 -0.006058067 -0.018147532
000340 5d 00 ad be ff e6 55 be c1 8c 22 3d 58 3b 0d bf
       -0.3378934 -0.208889 0.039685015 -0.55168676
000350 4c 6f c2 be 5d c5 51 be 0a ee 76 be db 9a e9 3c
       -0.37975538 -0.20485444 -0.24114242 0.028516224
000360 31 05 5f 3e df ec 86 be 6c 84 d6 bc f8 86 2e be
       0.21779324 -0.26352593 -0.02618619 -0.17043674
000370 3f a4 5f be 53 06 93 bd 40 ed 85 be 15 c4 6c 3d
       -0.21839999 -0.071789406 -0.2615757 0.057804186
000380 37 53 4f be 58 1f 68 be d6 e8 6b be b9 60 2e be
       -0.20246588 -0.22668207 -0.23038039 -0.17029084
000390 35 d5 24 3e e9 3b 4d be 75 a7 c4 3b 38 da 98 3e
       0.16096957 -0.20042385 0.0060014077 0.29853988
0003a0 3a ac 9b 3d fb c8 54 be 0b ff 7a be 9c 89 c2 be
       0.07601209 -0.20779793 -0.24511354 -0.37995613
0003b0 3e 9c a1 3a 2c 91 27 3e a6 67 02 bd 77 b3 e0 3e
       0.0012329889 0.16363972 -0.031837128 0.4388692
0003c0 d2 5f 65 be 3f a2 0c 3d 44 9f 97 3d 76 e1 57 3e
       -0.22399834 0.034334417 0.074034244 0.210821
0003d0 08 74 99 3e cb 47 f7 bd eb a5 29 3e 7d 7f 96 be
       0.29971337 -0.1207424 0.16567199 -0.2939414
0003e0 74 2b ba bc 07 1c 8c be c9 27 de bd 6b b3 ae be
       -0.022725798 -0.27365133 -0.10847432 -0.3412126
0003f0 66 f1 c8 be 92 38 97 3e 5d 57 88 be f3 31 c4 3c
       -0.39246672 0.29535347 -0.26629153 0.023949599

net.2.weight f4 [256, 256]
000000 04 b5 4b 3d 71 c4 a3 3d 71 fd bb 3d 6f 44 41 3e
       0.049733177 0.079964526 0.091791995 0.18873762
000010 99 d0 dd bd 4c 34 f6 3c 3f 25 3a 3e d2 ea 0d bd
       -0.108308025 0.030054234 0.18178271 -0.03464777
000020 8a be 53 3f 6b 06 17 bf 64 d9 c5 bf c0 b5 6d 3c
       0.82712615 -0.5899417 -1.5456967 0.014508665
000030 87 35 26 bf b4 6a 98 3d fa 86 18 bd c0 33 21 3d
       -0.64925426 0.07442227 -0.0372381 0.039355993
000040 6a 9f 07 be 4c 10 4a 3d ac 47 34 bd d7 76 7e be
       -0.13244405 0.04933195 -0.044013664 -0.24850021
000050 4a 64 00 3d d4 02 35 3d a0 48 80 3c 8b 9e 51 3a
       0.031345643 0.04419215 0.01565963 0.0007996342
000060 50 5e 90 3e 1c 0c 07 3f cc 16 ae 3c d4 2c 48 bd
       0.28196955 0.5275285 0.021251105 -0.048870876
000070 b6 2c 7c be 38 40 54 c0 5e 3d ce 3e e4 e3 b4 bc
       -0.24626431 -3.3164196 0.40281194 -0.022081323
000080 50 c8 7d bd 31 12 fa 3e bc 03 c4 3c 1e 6f 5c 3d
       -0.06195861 0.48842004 0.023927562 0.053816907
000090 df 9b 8d be 4c 72 f4 3c 80 35 af bd 32 d0 74 bd
       -0.27657983 0.029839657 -0.08555126 -0.059768863
0000a0 92 c2 e5 3c d8 40 07 bc ea a3 1e bf a6 5a 59 3d
       0.02804688 -0.008255206 -0.61968863 0.053064965
0000b0 ce e3 90 3e 86 63 86 3e 00 03 7c 3b 7e e8 98 3e
       0.282988 0.26247805 0.0038453937 0.29864877
0000c0 5b 8c 86 bd 14 f4 f1 3e 60 24 04 bc f9 e8 6a 3e
       -0.065697394 0.4725653 -0.008065313 0.22940435
0000d0 e2 96 46 bc 22 fd 4c bd 46 87 4f bc 77 ca 6c 3e
       -0.012120934 -0.050046094 -0.012666529 0.23124109
0000e0 e0 ac 82 3d b1 8b 20 be 99 8c 4c 3e cd 9b 85 be
       0.063806295 -0.15678288 0.19975509 -0.2609543
0000f0 a0 bf fc 3c 8d 7b a0 be 05 c2 a2 3d 9f 0c eb be
       0.030853093 -0.31344262 0.079471625 -0.45908067
000100 ee 15 74 bf 25 ae b4 be 87 96 de bd 51 4b 22 bf
       -0.9534596 -0.35289112 -0.108685546 -0.63396174
000110 e1 1a 8e 3e a6 74 71 3d 09 46 57 3e 6e 8c 74 3d
       0.27754882 0.058949135 0.2102281 0.059704237
000120 78 2a ef bc 5c 8b c4 bd bd 05 61 bf 4a 86 30 bd
       -0.029195055 -0.09596893 -0.8789938 -0.043096818
000130 a2 6a 00 3d d0 21 3a 3d 36 fb 59 3d 6b f4 55 be
       0.031351693 0.045442402 0.05321809 -0.2089402
000140 5a 7e 12 be c0 81 6f bf 78 ad 8e 3c b3 6e 71 3e
       -0.14306012 -0.9355736 0.0174167 0.23577385
000150 bb fc b5 bf 32 5e 42 bd 7c 34 96 bc 92 3d da bd
       -1.4217752 -0.047453113 -0.018335573 -0.10656275
000160 57 0a 0b 3e 02 01 1c 3d ee 3b c8 3c cb 8c ba 3e
       0.13578163 0.0380869 0.02444264 0.36435542
000170 5c 1a 97 be f9 4b 41 bd e6 ca 34 c0 18 b3 44 bf
       -0.29512298 -0.047191594 -2.824884 -0.76835775
000180 04 cb 8e 3d ed 41 8b be b0 ab 19 3c c6 3b 6b 3d
       0.06972316 -0.27198735 0.009379312 0.05743005
000190 18 16 a0 3e f0 7a 22 bd 68 13 33 be cf 94 55 bf
       0.31266856 -0.039668024 -0.17487872 -0.8343019
0001a0 d4 6b 91 3e e8 cc 59 bc 1c a1 c3 3c 02 d4 00 3d
       0.2840258 -0.013293482 0.023880534 0.031452186
0001b0 6b ef c9 bd 94 4d 89 3e 9c 45 cf bc 3a 9a 35 c0
       -0.098601185 0.26817 -0.025301747 -2.8375382
0001c0 41 0d 92 c0 28 c3 02 bd d4 fa 34 bf aa ae f5 bd
       -4.564118 -0.031924397 -0.70695233 -0.11996205
0001d0 40 df 71 bd 56 8c 2d 3d 3a c6 a9 c0 2b e0 74 be
       -0.0590508 0.042370163 -5.3054476 -0.23913638
0001e0 76 55 29 3d 38 bf 09 bd 64 a5 08 3e e4 48 c7 3d
       0.041341268 -0.033629626 0.13344342 0.097307
0001f0 40 9d 3d 3b e4 4d 93 3c 82 98 d3 be c3 71 41 be
       0.002893284 0.017981477 -0.41327292 -0.18891053
000200 e0 17 9d bc 41 b0 65 be 20 45 a0 bb b6 c9 ed 3d
       -0.019176424 -0.22430517 -0.004891053 0.11610739
000210 42 92 45 bf 57 a3 c9 3e bc bb db bf 0a 6c 49 bd
       -0.77176297 0.3938243 -1.7166667 -0.0491753
000220 0b 39 37 c0 a6 34 87 be 8a 7c 73 bf d0 cd 5f bd
       -2.8628566 -0.26407355 -0.95111907 -0.054639637
000230 a8 d7 0c be 4e e9 62 bb fa f7 2b 3d 3c 97 89 be
       -0.13754141 -0.0034623924 0.041984536 -0.26873195
000240 b0 d1 d7 3c 8e 22 fd bd 65 c7 aa bf a3 11 de bf
       0.026345104 -0.123601064 -1.33421 -1.7349132
000250 08 53 bd 3e c0 d7 8c 3a 75 1a 96 bd 5c 7c 89 3e
       0.3697741 0.0010745451 -0.07329265 0.2685269
000260 70 34 19 bc 72 b4 1e bf 0c b6 d5 bd 16 8a ca be
       -0.009350881 -0.6199409 -0.10435113 -0.39558476
000270 e9 46 59 be 22 51 23 bd 66 3a ce bd 31 8d 1a 3e
       -0.21218456 -0.039872296 -0.10069732 0.15092923
000280 d4 7c 5f 3d 56 cd da bd a4 19 a7 bc b3 13 d3 be
       0.054562405 -0.10683696 -0.020397969 -0.41225967
000290 b5 c7 8c 3e b4 0d 91 bc 81 70 a2 bb 8e 26 2d 3d
       0.27496114 -0.01770673 -0.004957259 0.042273097
0002a0 d8 8f 6b 3d 60 9c 2c bb 8c dc f8 be b9 e5 62 be
       0.057510227 -0.0026338324 -0.48605764 -0.22157945
0002b0 40 1b af bc ff 51 08 3e ea 89 ca be 15 72 92 3e
       -0.021375299 0.13312529 -0.39558345 0.28602663
0002c0 82 7d 48 bd ac 0e 2a bf 31 91 ac 3d 44 7f 41 be
       -0.04894782 -0.6642864 0.084261306 -0.18896204
0002d0 b9 55 00 be 56 82 34 bf fb 8c 3f be 58 ce bc bc
       -0.125327 -0.70511377 -0.18706124 -0.023047611
0002e0 22 f9 4f be 22 ba 5d 3d 98 be 07 bc 40 d8 00 bd
       -0.2030988 0.05413259 -0.008285187 -0.031456232
0002f0 a7 f1 27 3d b4 8b b3 3d e6 6d fb 3e 30 f3 6a 3c
       0.041001942 0.08766881 0.49107283 0.014340207
000300 eb 64 e1 3d d8 27 18 bc 82 c1 d0 3c 49 eb b2 bb
       0.11005577 -0.009286843 0.025482897 -0.005460177
000310 9f 83 9b 3d e1 59 a4 bd 39 b9 1d bb b7 97 a8 3c
       0.07593464 -0.080249555 -0.00240667 0.020580156
000320 9a 10 2f bf e0 19 20 bc d4 0f 27 3e 0a 94 5a be
       -0.68384707 -0.009771794 0.16314632 -0.21345535
000330 e0 48 89 3b 24 0d 5e 3e 0c 83 9b bc 6a e1 40 3d
       0.0041895956 0.216847 -0.018983386 0.04708997
000340 a2 00 0e 3d 2f 7d aa be ea 04 b4 3c ff f7 2b bb
       0.034668572 -0.33298633 0.021975 -0.0026240346
000350 94 7d 1f 3d 63 9c e0 bf c0 61 e0 bb 00 2f c5 bb
       0.03893812 -1.7547725 -0.00684759 -0.0060175657
000360 16 9d 5e bf 6e 5f 6f 3d 1c 5c 2f bd 99 21 8c be
       -0.86958444 0.05844062 -0.04281245 -0.27369383
000370 54 e3 37 bd d4 62 a4 3c 5c 85 58 bf b0 e2 f6 3b
       -0.04489453 0.020066656 -0.8457849 0.0075343475
000380 50 44 cd bb 70 26 31 bf 8a d1 37 bd 81 6f c1 3e
       -0.006264247 -0.69199276 -0.044877566 0.37780383
000390 a9 98 13 3e a0 94 1d bd 74 21 86 be 32 49 bb 3c
       0.14413704 -0.038471818 -0.26197398 0.02286205
0003a0 5c 1d f2 be 20 38 0a 3b d0 0e 55 3d f0 29 6b 3f
       -0.47288024 0.0021090582 0.05201608 0.91860867
0003b0 ff 8d 3d bf e6 88 e1 bd ef df 0c 3f 6e dc a6 bd
       -0.74044794 -0.110124394 0.55029196 -0.081475124
0003c0 30 5b cb bc 68 05 8c be 1e a3 be be aa 9d 8e 3c
       -0.024823755 -0.27347875 -0.37233824 0.017409164
0003d0 e7 28 fb 3d e4 9e 6c 3d 53 05 a1 bd 3d 62 f1 3d
       0.12263661 0.057768717 -0.07862344 0.117863156
0003e0 72 ae a6 bb c0 d5 31 be 80 29 32 3d f6 1e 7b 3d
       -0.0050867135 -0.17366695 0.04349661 0.061308824
0003f0 68 22 f9 3c e4 23 f9 3d 07 f8 c7 bf 09 b9 2b bf
       0.030411914 0.12165049 -1.5622567 -0.67079216

net.2.bias f4 [256]
000000 c3 66 a0 bb a1 62 87 be 4c e0 6d be 6d 1f 90 be
       -0.0048950627 -0.26442435 -0.23230094 -0.28148976
000010 e8 6f 24 bd 88 95 c8 bc f0 f4 60 bd 89 dc 8e bc
       -0.040145785 -0.024485365 -0.05492109 -0.017439144
000020 b7 c3 ea 3e d9 d1 95 3d 3b 7c 27 bd ba 43 46 3c
       0.45852444 0.07315416 -0.04088996 0.012101108
000030 71 0f 18 bc ee fa d9 3e de e2 5a 3e ae b5 b0 3e
       -0.009281025 0.42574257 0.21375605 0.3451361
000040 d6 0e 3f bd fc 29 d4 3e c9 fc b7 be 48 aa 9d bd
       -0.046645008 0.41438282 -0.35935047 -0.07698494
000050 59 bf ff 3c 79 52 83 bd 6b 27 59 3a dd eb 70 3e
       0.031219171 -0.06412215 0.0008283767 0.23527475
000060 79 49 4f bc 60 8e 44 3b 16 47 33 bd 2f d3 6e be
       -0.012651795 0.0029992089 -0.043768965 -0.23322748
000070 80 1f 6d bd cc e7 3b bd 05 69 db 3c 5e b3 30 bd
       -0.05789137 -0.045875356 0.026783476 -0.043139808
000080 ad bc 35 bd 0d 39 d3 be de a8 aa bb ea aa bd 3b
       -0.04436939 -0.41254464 -0.005208119 0.005788197
000090 e4 28 9f 3e bf 2c c7 3e 4b a1 1d ba f3 ad 0c bd
       0.31085885 0.38901326 -0.0006013109 -0.03434558
0000a0 23 a8 28 be c7 af 0a bd 8b f9 5a 3c e9 fa d6 3b
       -0.16470389 -0.03385904 0.01336516 0.0065606725
0000b0 6f a3 85 be 04 ea 6f bc 0d 2b a9 bc 68 19 47 be
       -0.26101252 -0.014643196 -0.020650411 -0.19443285
0000c0 ce e8 3d be 5a f5 90 bc 3d 36 18 bc a8 a3 7b bd
       -0.18545839 -0.017695118 -0.009290275 -0.06143537
0000d0 5c eb dc 3e 88 57 2f 3d 11 cf 91 be 52 1d 6a bd
       0.43148315 0.042808086 -0.28478292 -0.05715687
0000e0 ee f8 3f 3e 65 6a 7f bd 42 bb c2 3e b6 e7 84 be
       0.18747303 -0.062357325 0.3803349 -0.2595803
0000f0 77 d1 d2 3e 2c 4e 08 3e 01 5d d6 3d 1d 7b c1 3e
       0.41175434 0.1331107 0.10466958 0.3778924
000100 d9 68 a4 3d 5d d0 8f 3c 1e e4 d5 3c 48 d2 5e bd
       0.080278106 0.01755541 0.026109751 -0.05439976
000110 97 1c ae bd 2b 52 1f 3e 0e 8d f1 3d a6 b9 00 3e
       -0.08501547 0.15558688 0.11794482 0.1257082
000120 34 ce 47 be b3 8d ad be 18 a2 6e bd e9 97 0d bd
       -0.19512254 -0.3389717 -0.058260053 -0.0345687
000130 2f 90 ea bb 5e 66 b4 be 95 d2 29 bd 0a 9e bc 3d
       -0.0071583013 -0.3523435 -0.041460592 0.09209831
000140 7b 71 04 bc c4 2c 58 bd cc cc 8e 3e f3 44 74 bd
       -0.0080836965 -0.052777067 0.27890623 -0.059636068
000150 b6 b8 2c bd 46 98 07 3f 88 26 5b bd 21 d0 73 be
       -0.04216834 0.52966726 -0.053503543 -0.23809864
000160 8f c4 d7 bc 80 04 34 bd 7a dc 83 bd 45 d1 42 bc
       -0.026338844 -0.043949604 -0.06438537 -0.011890714
000170 a6 be bb bd 07 c7 02 bd a6 00 27 be dc e9 7c 3b
       -0.09167223 -0.03192809 -0.16308841 0.003859154
000180 82 d7 57 be be 70 7c bd 9f b7 0b bd b8 2e 1d 3e
       -0.21078303 -0.061630957 -0.03411066 0.15349853
000190 7d 0c b2 bc 6b ae 90 be 36 18 a5 3c 90 13 99 3e
       -0.02173447 -0.2825807 0.020153146 0.29897738
0001a0 01 15 ef 3c 26 44 a1 bd 48 4a 81 3c c2 80 22 bd
       0.02918482 -0.078743264 0.01578249 -0.039673574
0001b0 00 19 d5 3d ea 51 80 bd 89 fd 17 bd ba c3 10 bd
       0.10405159 -0.06265624 -0.037107024 -0.03534291
0001c0 a9 3b ad bc ed 4d 15 bd bf 0a 1f be 7a b7 68 3c
       -0.021146612 -0.03645127 -0.15531443 0.0142039005
0001d0 e5 29 8b bd 91 12 40 bc 28 25 1d 3e 7c 69 86 bc
       -0.067951 -0.011723177 0.15346205 -0.01640772
0001e0 1d 55 4b bd ba c2 86 be 7b 61 bb bb 63 e7 32 3c
       -0.049641717 -0.2632044 -0.0057184077 0.010919425
0001f0 7f 01 3d bd cd 8d 45 3e ba 0a a3 3b 29 42 a2 ba
       -0.046144005 0.19292374 0.004975644 -0.0012379336
000200 e9 16 97 3a 7f 5e db ba bf d1 08 bd eb 19 ca 3e
       0.0011527214 -0.0016736536 -0.033403154 0.394729
000210 d6 6a 52 bc 14 99 98 3d 28 3f 1b bd 77 93 9a 3a
       -0.0128428545 0.07451072 -0.037902027 0.0011793216
000220 d5 a7 7e bd cc 7c c7 3b cf 1f 5d bc 15 6a c4 3c
       -0.062171776 0.006087875 -0.013496353 0.023976365
000230 93 7f 6b bd fc bb 0c 3f 47 1c a5 bc 77 ea 2b bd
       -0.05749471 0.5497434 -0.020155085 -0.04197165
000240 36 57 9e bc 38 96 04 3a cf 99 8f 3c e7 a7 99 bc
       -0.019328695 0.0005057785 0.017529396 -0.01875682
000250 b2 f8 35 3d 0f fa 2b be 6d 70 17 be ef 4c 72 be
       0.044426627 -0.16794609 -0.14788981 -0.2366216
000260 ed d4 2b be e4 0f 80 bd 56 35 45 bd b2 be 03 3e
       -0.16780443 -0.06253031 -0.04814657 0.12865713
000270 6d bc 82 3e 01 e0 1b bd 07 d9 02 3e f9 4f 01 be
       0.25534382 -0.038055424 0.12778102 -0.12628163
000280 55 b5 98 bc 24 70 4a bd 9d bf f7 bc ca 60 1e bc
       -0.018641153 -0.049423352 -0.030242736 -0.009666631
000290 32 64 9b 3c 69 20 6d bd ce 1d 50 bd c6 1a 92 3e
       0.018968675 -0.057892237 -0.050809674 0.28536052
0002a0 31 90 f5 bc ec ca ab 3c 87 66 63 bd 88 36 01 bd
       -0.029975982 0.020970784 -0.0555177 -0.031546146
0002b0 bb 9e bb bd 1d ae 8b bd 2b 00 08 3e 98 99 56 bd
       -0.09161135 -0.06820319 0.13281314 -0.052392572
0002c0 59 42 38 bd af b1 0e bd 4b 9f cc 3b 8e c4 c1 bd
       -0.04498515 -0.03483742 0.006244575 -0.09461318
0002d0 1e df 1c bb c7 e9 9c 3d 08 7a 52 bd 00 67 66 bd
       -0.00239367 0.07661777 -0.05138591 -0.056250572
0002e0 fa a0 41 3c a0 da a4 bc f9 0d 4c bd 13 b3 05 3c
       0.011818165 -0.02012378 -0.049818013 0.00816037
0002f0 2c ad 0f bd 64 4f c1 3c f5 f1 fc 3d 7a bc 2e bd
       -0.03507726 0.023597427 0.12350837 -0.042660214
000300 7f 1b 40 3e 45 01 6e bc 00 65 4a bd 97 db 61 bd
       0.18760489 -0.01452667 -0.049412727 -0.055141058
000310 c6 86 d4 bc 8f 0e 1b 3c f2 4f 7c bd ac 14 10 bd
       -0.025943171 0.00946392 -0.06159968 -0.035175964
000320 6f 68 75 3b 94 18 49 3e e6 1e 8a bd f3 17 7e bd
       0.003744628 0.19638282 -0.06744175 -0.06203456
000330 9b f5 f3 3d c8 2d f7 3e de 25 0b bd 44 4f 01 bc
       0.1191208 0.48277116 -0.03397166 -0.007892434
000340 fe c5 b2 bc be 42 36 3e 97 5b 3f 3c 2d 6c 7a 3e
       -0.021822926 0.17798898 0.011679552 0.24455328
000350 08 14 63 3c ab 6a b5 bc a4 7e 8c bc 61 7b 5d bd
       0.013859756 -0.02214559 -0.01715023 -0.05407274
000360 50 07 a0 3e 34 96 d7 bc 94 2f 1a bd bd 60 47 bc
       0.3125558 -0.02631674 -0.03764303 -0.01216906
000370 c8 df 8d bd 1b 40 9d be 07 23 2c bd 84 95 4f bd
       -0.069274485 -0.3071297 -0.042025592 -0.0506797
000380 7e 84 bf 3c 9c 8a ac 3e b5 df 04 bd 4d 12 8b bd
       0.023378607 0.336995 -0.032439906 -0.067906
000390 f3 20 43 3e dc 76 8e bd 6f 29 d4 bc dc 33 62 3d
       0.19055538 -0.069562644 -0.025898663 0.05522524
0003a0 7c 1e 97 bd f2 77 b8 bc 93 26 11 bc cc ae 72 bd
       -0.07378861 -0.022518132 -0.0088592945 -0.05924873
0003b0 80 12 a6 bc 3d 37 2a 3d bb d3 32 3c 5d 1e c1 bc
       -0.020272493 0.041556586 0.010914738 -0.023574049
0003c0 a1 97 81 3c 03 d7 77 bd 2b bc c3 3d 2e 02 8d bc
       0.015819373 -0.060507786 0.095573746 -0.017212953
0003d0 7d 05 6b bb 21 1a 9b bc 85 4e e3 bd 50 44 67 bd
       -0.0035861426 -0.018933358 -0.11098961 -0.056461632
0003e0 47 50 10 3c f8 fe 1d bd 40 c9 b0 bb 97 5b 40 3b
       0.008808202 -0.038573235 -0.0053950846 0.0029351467
0003f0 34 88 8e 3c 24 ac 36 3e ab bf 4f bd 16 78 10 bd
       0.017398931 0.17839104 -0.0507199 -0.035270773

net.4.weight f4 [4, 256]
000000 5b fd 2f bf e8 5b 1e bf 78 ec 92 3f a4 02 01 3f
       -0.68745965 -0.6185899 1.1478415 0.50394654
000010 89 07 33 3d fe 13 8b bb c8 f3 2a bc dc 69 a7 3c
       0.043708358 -0.0042443266 -0.010434099 0.02043622
000020 f3 76 5d bd 97 24 ff be 47 71 ef bc 34 6d 46 bc
       -0.054068517 -0.49832603 -0.02922882 -0.012110997
000030 16 68 ab bc 7c 4a 0a be 0f b7 c3 bc 32 7a e2 3e
       -0.020923655 -0.13504976 -0.023891 0.44233853
000040 fd 50 44 bd 38 e7 1c 3d 02 1b 80 be 80 8c 0b bd
       -0.0479288 0.038306445 -0.25020605 -0.034069538
000050 ed b0 38 3c ec e5 a3 3e d9 ed 9c 3c bf 77 9d 3e
       0.011272651 0.32011354 0.019156383 0.30755422
000060 0c e0 78 3c c5 c8 85 3c e3 a1 2d 3f ec 9a bb 3e
       0.015190136 0.016331086 0.67825145 0.36641634
000070 64 f2 08 bd 45 ce 6c 3d f0 1a ac 3c d6 4c c1 bc
       -0.033434287 0.0578139 0.021008939 -0.023596209
000080 de 19 cd 3c 74 2f 0c c0 32 4d dc bc 3d b6 8a 3c
       0.025036748 -2.1903963 -0.026892278 0.016932601
000090 79 5e b5 40 90 67 ea bd f0 d8 34 3d b0 01 1f bd
       5.6677823 -0.11445534 0.0441522 -0.03881997
0000a0 d0 49 bf be c3 ae 58 3c d7 f6 5c bc 5c 47 eb 3b
       -0.37361002 0.01322526 -0.013486586 0.0071801376
0000b0 6a 9b ba be 0c 8f aa bc 02 0e 84 3c b8 a4 13 40
       -0.36446697 -0.020820163 0.01611996 2.3069286
0000c0 24 9c 89 be 26 ee 1a 3d 1c 14 f5 3c db 9e 11 bd
       -0.26876938 0.037824772 0.029916815 -0.035551887
0000d0 fe 6b 4d be d6 ec 1f bf f9 2c 0f 40 6e 3d 4d 3d
       -0.20060727 -0.6247076 2.23712 0.050107412
0000e0 ad 40 ea bd bd 05 f0 be f2 18 55 3d 68 03 88 bf
       -0.11438117 -0.46879378 0.052025743 -1.062604
0000f0 df 80 5c 3e f0 38 0e 40 21 af 37 bd 7c 2b a8 3f
       0.21533535 2.2222252 -0.04484475 1.313827
000100 50 45 09 bf 21 5a 8a bd d6 c0 f3 be a3 9c 3d 3d
       -0.5362139 -0.06755472 -0.4760806 0.04629196
000110 a6 ac 89 40 80 ac 5c bf 7f 71 30 39 47 1a 80 3d
       4.3023252 -0.86200714 0.00016826949 0.06255012
000120 c9 5e 13 40 79 c1 58 c0 3d cf 47 bd bf 05 4b bf
       2.3026602 -3.3868086 -0.048781622 -0.7930564
000130 6c 6a 0a bd c4 8a 3b 40 29 6a d0 bc 41 e4 98 c0
       -0.033792898 2.9303446 -0.025441246 -4.777863
000140 dc 80 10 3d 96 ac 2a 3d b1 db 04 3f b6 46 ad 3b
       0.03527914 0.041668497 0.5189772 0.0052879704
000150 6a c0 67 3c 5d 94 71 3f 3f c7 cf 3c 04 5d aa be
       0.014144996 0.9436701 0.025363563 -0.3327409
000160 f0 7f 8c 3c 70 07 1a bd ee fe 09 3d dd 88 84 bc
       0.01715085 -0.03760475 0.033690386 -0.016178543
000170 85 4a d1 bd 41 bc 6b bc 5e c4 d7 bc 23 44 89 3d
       -0.102192916 -0.014388145 -0.026338752 0.06702449
000180 97 10 2a be 13 e7 0a 40 25 2c 28 3b 0a 4f d6 3d
       -0.16607891 2.1703537 0.0025661078 0.10464294
000190 30 76 1e bd e4 b9 37 3e ae bb 52 bc 6b c0 78 be
       -0.03868693 0.17942005 -0.012862129 -0.24292152
0001a0 b9 4a 2d bf a7 f5 ff be 70 29 8f 3d 7e e6 cd bb
       -0.6769214 -0.49992105 0.069903255 -0.0062835803
0001b0 35 33 30 3f ce 27 44 bd eb d9 0b bd 8d 28 2a bd
       0.68828136 -0.047889523 -0.03414337 -0.04154258
0001c0 e1 90 ec bb 62 8b 93 3b 38 29 2a bf 85 a2 a3 3c
       -0.0072194193 0.0045026997 -0.66469145 0.019974956
0001d0 d1 34 c3 3c 64 f1 8b 3b 50 04 15 3e 84 ac be bb
       0.023828896 0.0042707194 0.14552426 -0.0058189053
0001e0 45 42 66 bd 72 ef 8a 40 2c 7e e6 bc 9b 94 47 3c
       -0.056215543 4.341729 -0.028136335 0.012181426
0001f0 31 00 a1 3c 99 e4 db be e5 47 2b 3d 9e 20 54 3d
       0.019653412 -0.42947844 0.04181661 0.05178892
000200 22 4b 60 3d 4c f3 80 bc 45 4b e5 bc 4a fc 6a bd
       0.054759152 -0.015741013 -0.027989993 -0.057369508
000210 76 6b 4d bd e8 6a b7 be 80 44 98 3a 42 04 b5 ba
       -0.05015131 -0.3582375 0.0011617094 -0.0013810473
000220 fe 24 65 bc a3 8e 48 3c 9e ce 3f bc 84 7f 9a bf
       -0.01398587 0.0122410385 -0.011706976 -1.2070165
000230 39 85 17 3d ca 2e 3f 3e 23 97 9b ba c2 8a 8c 3c
       0.036992285 0.18670192 -0.0011870604 0.017156009
000240 66 10 b6 3c 1a 1a 6d 3d a1 df f4 bc cb b3 15 bd
       0.022224616 0.05788622 -0.02989179 -0.036548417
000250 45 72 b4 bd bc 44 4c c0 57 05 29 3e 10 39 eb bf
       -0.08810858 -3.1916952 0.16505943 -1.8376789
000260 fa 96 55 be 86 11 6f 3c 92 5a 3f 3d 41 53 52 bf
       -0.20858374 0.01459158 0.046717234 -0.82158285
000270 de b7 9e 3d 6a c2 6f 3d a5 cc 98 bf 00 ac 05 3f
       0.07749914 0.058535017 -1.1937453 0.52215576
000280 a0 2e 4e 3c 62 57 2e 3d 4f 50 36 3f 37 f7 d9 3d
       0.012584358 0.042563803 0.7121629 0.106428556
000290 1c 7e 28 c0 e1 69 18 3d 80 ed 5d 3a b0 69 19 c0
       -2.632697 0.03721035 0.0008465871 -2.3970757
0002a0 57 a7 9d 3c f4 12 2f 3d 02 b0 1d 3c 00 91 5a 3d
       0.019244833 0.042742684 0.009624483 0.05336094
0002b0 47 db 35 be 51 a8 9f bc 32 17 f8 3f 05 b9 4d ba
       -0.17759429 -0.01948944 1.9382079 -0.00078476995
0002c0 55 a2 dd bb a0 2c a1 bc e9 5a 44 bc 0d 39 f3 3e
       -0.0067637363 -0.0196746 -0.011984565 0.47504464
0002d0 87 f3 26 bd 18 56 f2 be 24 29 fa bc 18 f2 03 3d
       -0.04075959 -0.4733131 -0.030537196 0.0322133
0002e0 1a 18 39 bd f5 b2 e4 bc 07 36 e6 bb a9 ed 21 3c
       -0.045189 -0.027917365 -0.0070254835 0.009883323
0002f0 bf 57 09 3d e0 52 6b 3c 05 ab 5a 3f 5d 4b 96 bc
       0.033530947 0.014363021 0.85417205 -0.018346483
000300 c1 9d 0c c0 51 29 92 bb 1b 0e 27 3d 2a ff 01 3d
       -2.1971285 -0.0044604917 0.040784936 0.031737484
000310 a4 e6 1d ba ef 38 56 3d 3e 64 8a bc e2 e5 c0 be
       -0.0006023443 0.05230039 -0.016893502 -0.37675387
000320 01 c2 2c 3d 97 b6 3f be d7 f6 4e 3e c1 6d 26 bc
       0.042177204 -0.18721996 0.2021135 -0.010158003
000330 c5 65 0c 3e 6c da 8d bf 58 69 df 3c 9e 1f 64 3c
       0.13710697 -1.1082282 0.027271912 0.013923554
000340 6c b8 a1 bb d3 f6 b2 bb 52 a7 35 3d db 49 82 3d
       -0.004935315 -0.0054615526 0.044349022 0.06361743
000350 75 82 4f ba fe 09 be 3e dd d4 fa bc 7e 71 c2 bc
       -0.0007915863 0.37116998 -0.03061908 -0.023735758
000360 83 04 9d 3f 2e b4 6f 3c 41 85 28 bc 32 5a 94 bc
       1.2267002 0.0146303605 -0.010285676 -0.018109415
000370 1e df 59 3c fc a0 8d bf 8e a5 6e bc 3c dc 36 3b
       0.013297824 -1.1064754 -0.0145658385 0.0027902266
000380 56 43 0f bd 71 be 5e 3f 64 20 b1 3c f4 a6 f2 3c
       -0.034976326 0.8700934 0.02162189 0.029620625
000390 c6 22 5f be 17 99 cc bd 60 f9 22 bd e1 25 31 3b
       -0.21790609 -0.09990137 -0.039788604 0.0027030634
0003a0 8e b0 b9 3c 4d be 5d 3b 83 f9 c1 bc f8 1f 7c 3c
       0.022667196 0.0033835352 -0.023678547 0.015388481
0003b0 7a c5 0a 3b 7b ee c4 bc 5a 8e ca 3c d1 eb a5 3c
       0.0021174834 -0.024039498 0.024726082 0.020254048
0003c0 0c ea 2e bd 59 e5 28 3d bf 7f 64 3d ff 68 07 bd
       -0.042703673 0.041234348 0.05578589 -0.033059116
0003d0 a2 49 08 3d 9a 07 2c bd 12 c7 09 3e 44 ec ea 3a
       0.033273347 -0.041999437 0.13454846 0.0017923196
0003e0 fc 79 0b bc 74 1d 8e 3c a0 9a 5a 3c 5d e3 1f bd
       -0.00851297 0.017348029 0.01334253 -0.03903519
0003f0 78 10 fd 3c e2 50 0c bf 3d fa 22 3d de 7a 7a 3d
       0.030891642 -0.5481092 0.039789427 0.06115233

net.4.bias f4 [4]
000000 90 f9 b1 3d 8f 28 c0 bd e0 67 0a bf 9c 95 3a bf
       0.086901784 -0.09382736 -0.5406475 -0.72884536
