logs/PointMaze-Right/airl_sac/seed0-20231226-1522/model/step1065000/actor.pth (torch, 276359 bytes, 6 tensors)

net.0.weight f4 [256, 6]
00000000: 414f 48bb 1c42 603e 1509 acbe 0ad4 99be
00000010: 2903 21be 5134 e03d ebee 16bf 135d 9b3e
00000020: 7f65 14bd 097b d4bd b86c a0be cb58 a4bd
00000030: d523 a2bf 3ed9 26bf 0d54 2cbe eed9 1c3f
00000040: d2d6 5e3e 58d6 7a3e 2657 b4bf 0447 abbc
00000050: 70d7 173e 7787 8a3f 7d4f 4f3d 1b6a 9c3e
00000060: 5b56 05c0 a1e1 1a3d f643 bd3e 5f43 ccbf
00000070: b0c0 aebe 69ab d3bd 54f4 22be 9d98 b43e
00000080: 0b7c 87be c070 40be 3208 92be 4ec3 c3be
00000090: a79f 18bf 8fe1 593e 388a 3a3e 1c18 393d
000000a0: 97d3 50be 4f53 56be 62b4 1cbf 20be 69bf
000000b0: 7708 97be 3e25 e6be 2e31 793e 021c 753e
000000c0: f1e1 26bf 83b0 823e d8ae 853e 550e 993f
000000d0: 259b d7bd 77e6 613d 6744 6a3e 7421 13bf
000000e0: 04cd 9b3d 780c 1ec0 f3a4 9ebe b1f4 57be
000000f0: c874 8e3f 34b4 0dbf 79a1 77be 8ffd d4bd
00000100: 1cd8 193e 0d0f 53bd ed62 7f3c 01ba c13d
00000110: 4dac 813e e9b3 c83e 0214 a1be 8933 19be
00000120: 16d2 b4be 913d fc3e bae4 b53e ad69 693e
00000130: d550 89bd 4dc3 b5be e1b5 c2be 13bd 80bf
00000140: cbcc c2be 9817 303f ca28 113e a581 d0be
00000150: 407e 9c3d 21d9 8cbd 9e96 89bd 125d 3fbe
00000160: 24c3 203e 3b9c 77be a009 da3e 5258 b93e
00000170: 3ba2 953e a572 4e3f 66cb 2bbf b897 87be
00000180: b0f6 a9be f03e debe 3c0e a3be a8d4 55bf
00000190: 9948 3d3e f1d7 8c3e 5847 36be 886e d2bd
000001a0: 731d c7be dd72 f0bb 2068 9dbe 3d3b a1be
000001b0: 0346 b8bc 0012 7b3d de33 2bbe 2d0f 783e
000001c0: c365 7ebe 4da9 bd3e 97d0 593f e3e0 36bf
000001d0: 1f17 d0bd f36d 8abd 68e9 c3bd b54c c63d
000001e0: 9d0d 243e 0d54 c83c 0ffa 4bbe 9dd0 453e
000001f0: 5581 c8be 60c7 77be 864c d1bd cca2 4bbe
00000200: 1d3f 12be e451 abbe 7cd9 b1bd 5db8 b23d
00000210: e22b 88be 85a1 abbc 1fa1 953e abe6 2bbd
00000220: 19e5 393c f041 10bd 2906 5ebf 2276 db3e
00000230: 12ff c53e a8c7 6e3e 36b9 633e d1de f1bc
00000240: 1288 8cbf 5bdc 69bf 2f53 8e3e 76e8 09bf
00000250: 4aeb 023e 482d a0be ec97 1ebf a28c 8fbf
00000260: 1d97 a9bd 464a 113f 46fc 973e ad96 c9be
00000270: 8762 823e 0590 a3be 31c2 b0bd 9e81 29be
00000280: 500b a1bd 2229 a4bd 2091 bbbe 7e7a b4be
00000290: d2d4 82bd 0000 ad3b 6ee8 3dbe 4a7a 1d3e
000002a0: b461 debf 11a4 63be aad1 b73e 73aa 0d3d
000002b0: a6d1 b33e a465 173e 6c55 b1bf 2fb0 a23e
000002c0: fef5 40bd 97fb 1dbf a611 533e 1de9 a8be
000002d0: d793 34bf 44fa f6be 1d44 953e 246a 4f3f
000002e0: d9c3 6b3e 04a3 133e 210f c9bd b7d5 afbd
000002f0: 8840 acbe 1384 623e b5f5 a53e d104 8f3e
00000300: bd70 93be 9628 953c f858 93be bb20 66be
00000310: 0d99 73be 80dd 0e3e 7b8f 7abf 9258 0c3f
00000320: feb0 8c3c bfea 7a3f 777c 00bf 377f 8fbe
00000330: b7a6 66be 38c2 8a3e e345 16be 6b00 a93e
00000340: 7f8a 083e fcbd 533d 212a 47bb b247 a5bd
00000350: 8ecd 513d d3ea bebd f1fd 3bbb f35b 553d
00000360: d080 a6bf f8a8 96bf e0c8 a83e a428 e4bc
00000370: 6324 cc3d 16c6 ce3e 8803 173e ea60 3d3c
00000380: 3b24 b5be 4417 4f3e 16e2 94be 3856 edbd
00000390: e022 07be 9f15 60bd a453 923b af08 a93e
000003a0: 42ca 353d 7438 bb3e 5fb9 7f3e b825 84be
000003b0: d67e 3b3e f4c1 93be b32d 31be eee9 f53d
000003c0: 5e21 29be 10d4 653e 6393 06be 6ef9 65be
000003d0: 14da 86bd 0725 cabe a31e 973e 8ed8 acbe
000003e0: 0960 b83b 5626 8ebd 752c 5cbe b203 5d3d
000003f0: 3715 ab3e adfb ecbd 0d31 78be 189c 1abe
-0.0030564817 0.21900219 -0.3360068 -0.30044585 -0.15723862 0.109474786 -0.5895831 0.30344447
-0.036229607 -0.103750296 -0.31332946 -0.080247484 -1.2667185 -0.65175235 -0.16828938 0.61270034
0.21761635 0.24495828 -1.4089096 -0.020907886 0.14828277 1.082259 0.050612915 0.30549702
-2.0833957 0.037812833 0.36965913 -1.595806 -0.34131384 -0.10335428 -0.15913516 0.35272685
-0.26461825 -0.1879301 -0.28521878 -0.38234943 -0.5961861 0.2127745 0.18216789 0.045189008
-0.20393215 -0.20930217 -0.6121274 -0.9130573 -0.29498646 -0.4495029 0.24335167 0.23936465
-0.6518851 0.25525293 0.26109958 1.1957499 -0.10527638 0.05515143 0.22877656 -0.5747292
0.07607463 -2.469511 -0.3098522 -0.21089436 1.1129389 -0.55353093 -0.2418269 -0.10399925
0.15023845 -0.051528025 0.015587551 0.094593056 0.25326768 0.3919976 -0.31460577 -0.14961065
-0.35316533 0.4926572 0.35526067 0.22794218 -0.067048706 -0.35500565 -0.38029388 -1.0057701
-0.3804687 0.68786 0.14175716 -0.4072391 0.07641268 -0.068773516 -0.06718181 -0.18687847
0.1569944 -0.24180691 0.42585468 0.36200196 0.29225335 0.80643684 -0.67107236 -0.2648294
-0.3319602 -0.43407393 -0.31846797 -0.8352761 0.18484725 0.275085 -0.17800653 -0.102749884
-0.38889655 -0.0073379115 -0.30743504 -0.31490508 -0.022494322 0.061296463 -0.16719005 0.24224539
-0.24843507 0.3704323 0.8508391 -0.714369 -0.1016066 -0.067592524 -0.09566003 0.096825995
0.16020818 0.024454141 -0.19919609 0.19317861 -0.39161173 -0.2419715 -0.10219674 -0.19886321
-0.14281888 -0.33460915 -0.0868406 0.08726571 -0.2659598 -0.020951042 0.29224488 -0.04196803
0.011346125 -0.035219133 -0.8672815 0.42863566 0.38671166 0.2331835 0.22238621 -0.029525192
-1.0979025 -0.9135186 0.2779784 -0.5387033 0.12785068 -0.31284547 -0.61950564 -1.1214793
-0.08280776 0.5675396 0.29684657 -0.3937277 0.25465795 -0.31945816 -0.08630789 -0.16553351
-0.07863486 -0.08015658 -0.3663416 -0.35249704 -0.063882485 0.005279541 -0.18545696 0.15378681
-1.7373567 -0.22230555 0.35902148 0.03458638 0.35120887 0.14784867 -1.3854194 0.31775042
-0.047109596 -0.6171202 0.20612201 -0.3299035 -0.70538086 -0.48237813 0.2915353 0.8102133
0.23023929 0.14417654 -0.09817339 -0.08585685 -0.33642983 0.22120695 0.32414022 0.27933362
-0.2879695 0.01820783 -0.28778815 -0.22473423 -0.23788853 0.13951683 -0.97875184 0.5482265
0.01717424 0.98014444 -0.5018992 -0.28026745 -0.22524534 0.27101302 -0.14675097 0.3300813
0.13334082 0.051694855 -0.00303901 -0.080703154 0.051221423 -0.09322133 -0.0028685296 0.052089643
-1.300806 -1.1770315 0.32965755 -0.02785141 0.09967878 0.40385503 0.14747441 0.011558751
-0.35379204 0.20223719 -0.2907874 -0.115887105 -0.13196898 -0.05470812 0.004465537 0.33014438
0.04438234 0.36566508 0.24973057 -0.25810027 0.18310103 -0.28858912 -0.17302589 0.12007509
-0.16516635 0.22444177 -0.13142161 -0.22458431 -0.06584564 -0.39481375 0.2951556 -0.33758968
0.0056266827 -0.06940906 -0.21501334 0.053958602 0.33414623 -0.11571441 -0.24237461 -0.15098608

net.0.bias f4 [256]
00000000: c900 0bbe 2f69 71bd 0c7d 723e befb f53d
00000010: a100 9c3e f9ab 90be a60e 8dbd 19fa b43e
00000020: 7433 adbe fa2c 983e 4285 89bd a186 9cbe
00000030: dd99 bebe d2d1 88bc b9e8 34be 73e0 2cbe
00000040: 8e78 4f3e 8c00 0e3e db7f 1cbd 4cd0 59bd
00000050: d0da 70be e1a1 afbe 631f 9dbe 42fd 01bf
00000060: dc42 d43e ec62 1f3e 02a8 31be c374 ccbe
00000070: 9a9b 503e cb51 b4be 2f9d 0bbd 1a43 afbe
00000080: 1fd8 6bbe ff4f bcbc f725 cabe f662 6ebe
00000090: ddbf de3e fe64 56be 7cb7 34be bac0 eabd
000000a0: 17ea cfbd e21c 89be 2e43 193d 1b63 3c3a
000000b0: 1563 ba3d c497 a83e ea73 9fbe b4fa 253d
000000c0: 1bc9 16bb 7466 d83d c4d5 acbe baed 0c3d
000000d0: dcf1 bb3c 3d3d 92bd e96b 0abe b337 b83d
000000e0: 797e 0bbf 202d abbe 409e 183d 6570 8dbe
000000f0: f967 a6be e5ec 24bd ccc8 9a3e 685a a5be
00000100: 9edc b7be 0bc2 143f a8f1 a5bd 0461 82be
00000110: 033f 47be d7da 30bd 9bb4 d6bd ecb6 6d3c
00000120: 2256 83be e3cb 8a3e a6cd 8fbe 80ae 63be
00000130: f84f 1fbe fc31 82bb 9706 a9be e338 2d3e
00000140: d072 9a3e 8915 72be 845e a2be de47 01bf
00000150: 629d f43b 88a3 b4be 4fd7 93be b098 be3e
00000160: f376 b63d 0992 8f3e c6c3 903e 9c00 ef3c
00000170: 3ac0 3e3c df28 7c3e 5a01 8fbe 2753 fabd
00000180: 3def c13e a861 f0bd 2f02 88be 617a 16bf
00000190: 76c1 563e 8403 ce3e e119 0a3e 4c32 50be
000001a0: 4a39 af3e 3de9 bfbe ea97 96be e020 c9be
000001b0: 261e b43e 446e 8bba dd7e 40be 2a34 c83d
000001c0: ec13 2fbe 470e 86be 856a 77bd 066b c43d
000001d0: 71af 95be f3ac 89be 0e94 973d e351 08bd
000001e0: 4610 9b3e 76fa 51be 7c3f 3a3d e736 533e
000001f0: d5fe b6be d674 87be adab 9cbd 99aa ef3c
00000200: 9a4d 06be a1d2 3f3e 6173 81be 3547 f73e
00000210: b2c8 e7bc fcc9 1d3e 3157 adbd 993a a33e
00000220: df6d dbbe fed6 df3d 1dd7 193d ccb7 bcbd
00000230: 6297 4a3e 8bd6 8dbe 16ac babe faa4 47be
00000240: bffd c1be a2f9 b13e 6053 9ebe 5d61 fdbe
00000250: 8cca 9abe 70d7 8cbe 3e5d eebe 3cad 943e
00000260: 04ef 9cbe 4672 513e b5c1 9c3e 1061 7fbe
00000270: f4f9 913e 162c 6abe 6dca dc3e 8f49 863d
00000280: afaf c63d 45e4 943d fa4c f3be ac66 09be
00000290: 4777 053e 1fae b5be 19b6 713e d052 1fbe
000002a0: 3533 17be 8ad7 a5be ebe8 62bd 30ce c4be
000002b0: 6e6c b1bd 98b5 aabd 371b 913d ef6c 80bc
000002c0: b96b 6bbe 13e1 3cbe 34fe 00bd 6113 1abe
000002d0: 76f1 a43e f1c8 e7bd 5f45 3c3b c26e a8be
000002e0: 50d8 2e3e b712 40be 20cf dfbd 7a23 203b
000002f0: 5c3f 19be c714 263e 26dc 0d3c c5c6 79be
00000300: bc16 b03d 27fe a7be 1355 a73e d09e c33d
00000310: 7e7c 8b3e 2eba e33e b8f6 ec3d cc61 263c
00000320: 4312 67be beae 2ebe ecae 9b3e 5d37 943d
00000330: f2ca 0ebf 5dbf 6fbb c082 c6bb 22aa 94bc
00000340: 44ce bebe b9d0 6abe 5734 6f3d b9a9 bebe
00000350: 4c6f c2be 827c bbbe 79c9 2abe c63e cabd
00000360: 7cc5 4d3e e0d9 bdbe da9b 2dbd 2cfa a6be
00000370: 3fa4 5fbe 5306 93bd 5191 9bbe a2b4 c5ba
00000380: 3753 4fbe c204 59be d6e8 6bbe 4e86 c0be
00000390: 3f08 863d e93b 4dbe 9140 2cbd 3190 753e
000003a0: d43e cebd fbc8 54be 0bff 7abe abcf bcbe
000003b0: 5021 8abd 4478 04bc 4ee5 583e f4db 0a3f
000003c0: d25f 65be aa01 28be 7bb4 973e 00b2 d23d
000003d0: 8abb 7c3e 5a34 57bd 083e 8e3d 1184 f6be
000003e0: aec2 fbbd 1da9 a2be 6cc3 dbbd 6bb3 aebe
000003f0: 66f1 c8be b7d2 8f3e 5b73 18be ecd9 e03d
-0.13574518 -0.0589382 0.23680514 0.12010907 0.3046923 -0.28256205 -0.068875596 0.3534706
-0.33828318 0.29721814 -0.0671487 -0.30571464 -0.37226763 -0.016701613 -0.17666902 -0.16882496
0.20260832 0.13867396 -0.03820787 -0.053177163 -0.2352097 -0.3430319 -0.3068801 -0.50777066
0.4145726 0.1556508 -0.17349246 -0.39932832 0.20371857 -0.35218653 -0.03408545 -0.34230882
-0.23031662 -0.022987364 -0.3948209 -0.23279938 0.43505755 -0.20936963 -0.17648119 -0.11462541
-0.10152071 -0.26779848 0.037417583 0.0007186399 0.0910093 0.32928288 -0.31143123 0.040522292
-0.0023008052 0.105664164 -0.3375684 0.0344064 0.022942476 -0.071405865 -0.13517727 0.08994999
-0.54489857 -0.33432865 0.037260294 -0.27624813 -0.325012 -0.040264983 0.3023132 -0.32295537
-0.35910505 0.58108586 -0.08102733 -0.25464642 -0.19457631 -0.043177452 -0.104836665 0.014508944
-0.25651652 0.27108678 -0.28086585 -0.22234535 -0.1555785 -0.0039732438 -0.3301284 0.16916232
0.3016572 -0.23641028 -0.31712735 -0.50500286 0.0074650506 -0.35281014 -0.28875205 0.37225866
0.089094065 0.28041103 0.28274363 0.029175095 0.01164251 0.24624966 -0.2793072 -0.12222891
0.37877837 -0.117373765 -0.26564166 -0.58780485 0.20972237 0.40237057 0.13486435 -0.20331687
0.34223396 -0.37482634 -0.29412776 -0.39282894 0.3517925 -0.001063772 -0.18798395 0.097755745
-0.17097443 -0.26182768 -0.06040432 0.095907256 -0.29235414 -0.26889762 0.07401286 -0.03328122
0.30285853 -0.205057 0.0454707 0.20626412 -0.35741296 -0.26456326 -0.07649932 0.029256152
-0.1311554 0.18732692 -0.2528334 0.48296514 -0.028293941 0.15409082 -0.08463896 0.31880644
-0.42857262 0.109296784 0.037558664 -0.09214744 0.1978431 -0.27702746 -0.36459416 -0.19496527
-0.37888905 0.34760767 -0.30922985 -0.49488345 -0.30232656 -0.27508116 -0.46555513 0.29038417
-0.30651104 0.20453748 0.30616537 -0.2493937 0.28511012 -0.2286838 0.4312319 0.06556999
0.09701478 0.072701015 -0.47519666 -0.13418072 0.13033782 -0.35484406 0.23604621 -0.15558934
-0.14765628 -0.32391006 -0.05539791 -0.3843856 -0.086632594 -0.083354175 0.07085269 -0.015676944
-0.22990312 -0.18445234 -0.031492427 -0.15046455 0.3221547 -0.113176234 0.0028727872 -0.32897002
0.17074704 -0.18757139 -0.10928178 0.0024435208 -0.14965576 0.16218863 0.0086584445 -0.24392231
0.08598086 -0.3281109 0.32682094 0.095517755 0.27243418 0.4447798 0.11570495 0.0101551525
-0.2256556 -0.17058846 0.30406892 0.07237122 -0.5577842 -0.0036582567 -0.006058067 -0.018147532
-0.37266743 -0.22931184 0.058399525 -0.37238863 -0.37975538 -0.3661843 -0.16678418 -0.09875254
0.20094866 -0.37080288 -0.04238496 -0.3261274 -0.21839999 -0.071789406 -0.30384305 -0.001508374
-0.20246588 -0.21193221 -0.23038039 -0.37602466 0.065445416 -0.20042385 -0.042053763 0.23980786
-0.10070577 -0.20779793 -0.24511354 -0.36877188 -0.06744635 -0.008085314 0.21181223 0.5424187
-0.22399834 -0.16406885 0.29629883 0.10287857 0.24680915 -0.05254016 0.06945425 -0.48147634
-0.122929916 -0.31769648 -0.10730633 -0.3412126 -0.39246672 0.2809045 -0.14887755 0.10979065

net.2.weight f4 [256, 256]
00000000: 04b5 4b3d 3856 883c 2a0f 73bd f8d9 ee3d
00000010: e072 0b3d 4c34 f63c 7ada 573d f5d1 653e
00000020: 046f 2f3f 6ee0 0cbf ccab 4b3f c0b5 6d3c
00000030: 8107 88bd 1b5c 37bf fa86 18bd 0fea f3be
00000040: adc1 bb3e 4c10 4a3d ac47 34bd 9a90 bebe
00000050: 4a64 003d d402 353d a048 803c a41f 923c
00000060: 497f c7be 637b 47bf cc16 ae3c d42c 48bd
00000070: f2ee 253e 4791 933a 7de3 ccbb e4e3 b4bc
00000080: 50c8 7dbd 4426 d9bd bc03 c43c 1e6f 5c3d
00000090: c8a6 013f 4c72 f43c 66e9 72bd 32d0 74bd
000000a0: 9051 20bd d840 07bc 9cff 8e3c 3e65 643c
000000b0: 207f bfbe 01d4 2dbf 0003 7c3b 991e f43d
000000c0: 6ce0 41be b071 5c3d 6024 04bc aa41 06bd
000000d0: 4712 763e 22fd 4cbd e894 913e a7c9 79b8
000000e0: 03a4 46bf bc2c 16bf 227c 5abc 9cdd 26be
000000f0: a0bf fc3c 00e6 62bb b598 013e cf67 933e
00000100: a719 3a3d d043 a7be 7fb2 e3be a30e e23d
00000110: 89eb 16bd a674 713d 7226 023d 6e8c 743d
00000120: 782a efbc d46e 16be 73ac 233f b34e e2be
00000130: a26a 003d d44b 213f 36fb 593d 617c 4f3d
00000140: dcae b63c dd92 893e 78ad 8e3c 8950 81be
00000150: 3f71 0f3f 325e 42bd 7c34 96bc 0765 483e
00000160: cdf8 203f be6c 3b3e 74a6 a23e cf14 18be
00000170: 57e5 90be 040a b4be c75d 6bbc 1a90 1ac0
00000180: b973 14bb 7c00 57be b0ab 193c 8527 dcbe
00000190: d1ff 1ebd 1ff1 a9bd 2a98 fdbd d59e c43e
000001a0: 8be2 6fbf e8cc 59bc 1ca1 c33c 02d4 003d
000001b0: d799 5d3f 8527 ab3e 9c45 cfbc b079 4fbc
000001c0: 6852 023c 28c3 02bd e034 b7bb fccd 62bf
000001d0: 40df 71bd 568c 2d3d e83a 4dbc 5d72 49be
000001e0: 759c 033e 38bf 09bd 4762 793d ca4c a2be
000001f0: 409d 3d3b e44d 933c 8d92 ab3d 6eb9 de3d
00000200: e017 9dbc 8f1f 04be 2045 a0bb 66ba 00bf
00000210: 0765 eabd 9527 493e f4fd 6abe a515 7c3e
00000220: 8dd2 9bba 547a bdbe d100 cbbe d0cd 5fbd
00000230: 99f9 10bd 9e6f 193c faf7 2b3d 0cac e23e
00000240: b0d1 d73c 3fbf e73d 72fd 743e b003 d6bc
00000250: 2105 09bd c0d7 8c3a c876 b2be 1337 3ebf
00000260: 7034 19bc 6715 dcbf f561 183f 463d 30bf
00000270: cc04 c8bd 2251 23bd 0c77 713d c3dd 343f
00000280: d47c 5f3d eb70 f7be faec 44c0 0e1f c23b
00000290: f148 e3be b40d 91bc 6914 f73b 8e26 2d3d
000002a0: d88f 6b3d 609c 2cbb debc 8fbf 16e3 103f
000002b0: 401b afbc 4b06 67bf 606e c7be ba8a c03e
000002c0: 17be 0fbd de37 5fbe 7cc7 9fbd 46bd 85bf
000002d0: ae66 133e 8ab1 2cbe e237 45bd 58ce bcbc
000002e0: a355 623e 22ba 5d3d 98be 07bc 40d8 00bd
000002f0: a7c7 71bd a851 bf3e 5774 663d 30f3 6a3c
00000300: 5bab cc3d d827 18bc 2afc 13bf f7c1 463e
00000310: 538a 683e e04a c53e f330 36bf 6b53 18be
00000320: 2e5a d53c e019 20bc 1bd6 adbf 96ff 8c3d
00000330: 0550 79be b88e 7d3e 0c83 9bbc 6ae1 403d
00000340: 3531 36be 34f7 0ebf 170c 14be 7b72 b3be
00000350: 947d 1f3d 2c85 e6bd b311 78bf a6ad f43c
00000360: a5c9 cfbe 5d2b 8cc0 5d94 9a3e e636 913d
00000370: 54e3 37bd d462 a43c e004 a3bf 8486 43bd
00000380: 5044 cdbb 5aff 95be 8ad1 37bd b1b6 b8be
00000390: 8ee9 86bc a094 1dbd 81bd 843b f5e0 3ebe
000003a0: e21a ad3d 2038 0a3b d00e 553d 21c2 debe
000003b0: f2c6 533f 89a5 6b39 ab18 bd3d 0b85 bcbd
000003c0: 305b cbbc 0070 33ba f484 34be fb20 ed3c
000003d0: bfbc e5bd 1251 e63d 2d1e c13e 5927 19be
000003e0: 98b1 0a3e 338f 91bc 8029 323d f61e 7b3d
000003f0: 6822 f93c 7841 e3be 71f8 6bbe 7b83 edbd
0.049733177 0.016642675 -0.059340633 0.11662668 0.0340451 0.030054234 0.05269859 0.22443374
0.6852877 -0.5502995 0.79559016 0.014508665 -0.06642056 -0.71624917 -0.0372381 -0.4763951
0.366712 0.04933195 -0.044013664 -0.37219697 0.031345643 0.04419215 0.01565963 0.017837353
-0.38964298 -0.7792265 0.021251105 -0.048870876 0.16204432 0.0011258506 -0.0062527047 -0.022081323
-0.06195861 -0.10603002 0.023927562 0.053816907 0.50645113 0.029839657 -0.059304617 -0.059768863
-0.039140284 -0.008255206 0.017455868 0.013940154 -0.37401676 -0.6790162 0.0038453937 0.119198985
-0.18933266 0.05381936 -0.008065313 -0.032777466 0.2403041 -0.050046094 0.2843392 -5.955403e-05
-0.7759401 -0.5866201 -0.01333526 -0.16295475 0.030853093 -0.0034621954 0.1265591 0.28790137
0.04543462 -0.32668924 -0.4447212 0.11037948 -0.036845718 0.058949135 0.031774946 0.059704237
-0.029195055 -0.14690715 0.6393501 -0.44200668 0.031351693 0.6300633 0.05321809 0.050655726
0.022300176 0.2686986 0.0174167 -0.25256756 0.56032175 -0.047453113 -0.018335573 0.19569789
0.6287964 0.183032 0.3176762 -0.14851688 -0.28299972 -0.3516389 -0.01436562 -2.4150453
-0.0022651984 -0.20996279 0.009379312 -0.429989 -0.038818184 -0.08297943 -0.123825386 0.3840243
-0.9370505 -0.013293482 0.023880534 0.031452186 0.86562866 0.33428589 -0.025301747 -0.01266329
0.0079542175 -0.031924397 -0.00559102 -0.8859556 -0.0590508 0.042370163 -0.012526251 -0.19672532
0.12852652 -0.033629626 0.06088474 -0.3169921 0.002893284 0.017981477 0.08377562 0.10875212
-0.019176424 -0.12902664 -0.004891053 -0.5028442 -0.11445051 0.19644006 -0.22948438 0.24617632
-0.001188831 -0.3700739 -0.3964906 -0.054639637 -0.035394285 0.0093649905 0.041984536 0.44271886
0.026345104 0.11315774 0.23924807 -0.026124805 -0.033452157 0.0010745451 -0.34856248 -0.74302787
-0.009350881 -1.7194031 0.5952447 -0.68843496 -0.0976654 -0.039872296 0.058951423 0.7065088
0.054562405 -0.48328337 -3.076964 0.005924112 -0.44391587 -0.01770673 0.007540275 0.042273097
0.057510227 -0.0026338324 -1.1229513 0.56596506 -0.021375299 -0.9024398 -0.38951397 0.3760584
-0.035093393 -0.21798655 -0.078017205 -1.0448387 0.14394638 -0.16864601 -0.048148997 -0.023047611
0.2210298 0.05413259 -0.008285187 -0.031456232 -0.059028294 0.37366986 0.056263294 0.014340207
0.09993621 -0.009286843 -0.57806647 0.19409929 0.22709017 0.38533688 -0.7116844 -0.14875571
0.026043978 -0.009771794 -1.3580965 0.06884687 -0.24346931 0.24761474 -0.018983386 0.04708997
-0.17792208 -0.5584595 -0.14457737 -0.3504828 0.03893812 -0.11255869 -0.96902007 0.029867958
-0.4058353 -4.3802934 0.30191317 0.07090549 -0.04489453 0.020066656 -1.2735863 -0.047735706
-0.006264247 -0.2929638 -0.044877566 -0.36076882 -0.01646879 -0.038471818 0.004050911 -0.18640502
0.08452393 0.0021090582 0.05201608 -0.43507484 0.8272544 0.00022473013 0.09233221 -0.092050634
-0.024823755 -0.00068449974 -0.17628843 0.02894639 -0.11217641 0.11245932 0.37718335 -0.14956416
0.13544309 -0.017768478 0.04349661 0.061308824 0.030411914 -0.44385886 -0.23043992 -0.115973435

net.2.bias f4 [256]
00000000: a1b3 333e 89b7 79bd 2190 75bb e94f 11bd
00000010: ed50 00bd e1e5 d8bc fde4 83bd 3824 30bd
00000020: 2712 2abc d59d 22bd 1c42 67bd 742c c23b
00000030: 5ee3 c9bc 899c 933c 4da1 483e 6f8a ccbc
00000040: 400a 3fbd d5cb 3d3e b03d 09bd c2ee 22bd
00000050: 6a79 0abe 7b0d aa3e 96af 033c 2cf0 2fbc
00000060: 98e0 18bd e8db 10bc 7be2 12be 40a3 48bd
00000070: 7a5d 91bd 582f 54bd 7b82 6abe 258d b33d
00000080: 1e33 36bd c033 b9bd bdbd c23d 2108 d13e
00000090: 1a69 a1bc 536c 96bb ea23 adba 7095 2ebd
000000a0: 0c6b 90bd 6ef9 28bd e8c3 93bb 5dd7 32bc
000000b0: 3ba7 4abd 20a6 71bc 9b85 b6bc b4c0 1e3c
000000c0: 6402 e53c 22ed 5bbc f755 89bc 58ea 8bbd
000000d0: 2a33 f6bd 01fc 45bc ffeb b93e 70e9 85bd
000000e0: 2c47 4cbc 6cb9 41bd 322d aebc dd21 873a
000000f0: a273 763b 87ca 31bb ff96 c2bc d2fc 60bc
00000100: 0647 863d 9256 373e f5e5 ebbb fb10 87bd
00000110: ba73 be3e 55f6 ecbe 2bb1 a3be 98d2 8fbe
00000120: 1af2 0f3c 9706 82bc cb8e 88bd a127 ae3a
00000130: 2bec 4dbc 6f81 73bd 4e70 39bd 8625 4abc
00000140: 8c6e 17be bdcd 86bd 3cf5 acbc a2ec 95bd
00000150: f18f 42bd b4fb 1d3c d717 63bd a330 ad3c
00000160: e0f2 3ebc 9243 3ebd f5ca 74bd d4c3 d2bc
00000170: e432 e23e f56a 2abd ff9d e8ba 7339 aa3e
00000180: ebfe 9cbc 3d5c 5fbd 89a6 14bd 495d d53e
00000190: eb46 04bd 0d47 bebc c65e f83e efd4 b73e
000001a0: 6894 ce3d 190a ba3b fbcb b63b eb34 42bd
000001b0: 01d1 dd3a 5032 8cbd 768f 0abd 0815 efbc
000001c0: 72a7 aebc cd77 f6bc 8d6b e7bb 37f8 e73d
000001d0: 2018 8abd f064 75bb 3e79 64bd ee01 93bc
000001e0: e284 3dbd 863f ebbd a26f aebc 2bd4 bc3b
000001f0: ed63 39bd ef37 253e 20e3 72bb 2888 1fbc
00000200: 6632 1cbb bfb1 31bb feec 0ebd 062d ae3e
00000210: e096 703d eaa7 edbc 6741 42bd f627 debc
00000220: a6e5 7fbd 41b8 b23e bb50 42bd 7798 023b
00000230: 5054 57bd a4e5 66bc 580f 82bc 8edd 2ebd
00000240: 56f2 3ebc fdc5 e4bb 13ed 2e3c 1a3c 3abd
00000250: 8c18 a7bc 98f9 803e 40a7 1e3e 4be4 40bd
00000260: 68ff 06bd 9610 87bd b755 72bd 5f21 6bbd
00000270: cdd4 c63b c025 063e 2ef3 23bc e8bc efbc
00000280: 8ab4 7cbb 305a 43bd 9a5e 12bd 5268 f23a
00000290: 2e24 2c3e 7aa0 7ebd ce1d 50bd e380 82bb
000002a0: 5a8c f3bc fc41 bbbb 4376 5cbd e834 27bd
000002b0: e281 bfbb 4a84 a8bd edde 113e bd20 43bc
000002c0: 094d 38bd 3af6 313e 3060 c8bb 5c33 493e
000002d0: bd2c 9fba a7c1 153b 087a 52bd 0b2f 66bd
000002e0: f135 903c 9fc0 8fbc 6e8a 4ebd 27d7 1abe
000002f0: acda 16bd 317f 663e ee64 943c f41c 5cbd
00000300: 9315 253e 6bfa c8bc dd56 54bd 6fcf 7bbd
00000310: 3e80 6ebc 87b4 99bb 3ddd 8abd 93f0 0b3c
00000320: 61f2 953b 9003 46bc 770e 15bd cb5a 49bd
00000330: a5d3 1dbd d290 893c c03e 31bd 32fa f3bb
00000340: e77a c3bc 2248 753e d9a1 8f3e b768 91bc
00000350: 2d3b bc3e 8866 343d 6aa8 09bd 3552 24bd
00000360: 0dc5 d4bd 80ca 133e 5420 1bbd 10ff 87bc
00000370: 9a57 0cbe 2581 8cbc 3854 3dbd 21e5 babe
00000380: 84c0 b33d 530d dcbd 2232 8fbd 4d24 7ebd
00000390: 3010 b73b 4caa 153e 9c37 f5bc 225a ffb9
000003a0: 8cc3 8fbd bd1e 7bbc f6ac 9fbc 5b3b 8dbd
000003b0: 4639 a3bc 8ea1 543e 0ba4 4eba b224 65bc
000003c0: d67c 5f3e e4f6 7ebd 00d0 4dbd f3ac b2bc
000003d0: 588b 883e 2158 1abd ef92 a53e 4129 a73e
000003e0: bff7 293c 0afe 57bd 487a f1bb 615d edbb
000003f0: 9ae7 923b 6b7f 203e 96cf 6fbd 74a0 12bd
0.17548992 -0.06096605 -0.003746994 -0.0354766 -0.031327177 -0.026476802 -0.064401604 -0.04300329
-0.010380304 -0.0397013 -0.05645953 0.0059257094 -0.02464455 0.018018978 0.19592781 -0.024968354
-0.046640635 0.18534787 -0.033506095 -0.03977848 -0.13522878 0.3321341 0.008037468 -0.010738414
-0.037323564 -0.008841492 -0.14344208 -0.048983812 -0.07097907 -0.051802963 -0.22901337 0.087671556
-0.044482343 -0.09043074 0.09508846 0.40826514 -0.019703437 -0.00459055 -0.0013209556 -0.042622983
-0.070516676 -0.0412535 -0.004509438 -0.010915604 -0.04947589 -0.01474908 -0.022280505 0.009689499
0.027955242 -0.013423236 -0.016764624 -0.06831807 -0.120214775 -0.012084008 0.36312863 -0.06538665
-0.012468141 -0.047295973 -0.021261785 0.0010309775 0.0037605544 -0.0027128772 -0.023753641 -0.013732152
0.065565154 0.17904118 -0.007199044 -0.06595036 0.37197667 -0.46281686 -0.31971106 -0.28090358
0.008785749 -0.015872283 -0.066678606 0.0013286957 -0.012568514 -0.05944961 -0.045273118 -0.012338048
-0.14788264 -0.0658221 -0.02111303 -0.07320525 -0.047500554 0.00964253 -0.055442657 0.021141356
-0.011654586 -0.04645116 -0.059763867 -0.025728144 0.4417945 -0.04160591 -0.0017747282 0.33246955
-0.019164523 -0.054531325 -0.036291633 0.41672733 -0.032294195 -0.023227239 0.48509806 0.35904643
0.100869 0.0056774733 0.0055785156 -0.047413748 0.001692325 -0.06845534 -0.03382822 -0.029184833
-0.021320079 -0.030086422 -0.0070623816 0.1132664 -0.06742883 -0.0037444197 -0.055779688 -0.017945256
-0.046269305 -0.114867255 -0.021293465 0.005762597 -0.045261312 0.16134618 -0.0037061647 -0.009737052
-0.002383375 -0.0027114002 -0.034893982 0.34018725 0.058737636 -0.029010732 -0.047425654 -0.027118664
-0.06247487 0.349062 -0.04744027 0.0019927302 -0.05257064 -0.0140928365 -0.015876457 -0.04269176
-0.011654457 -0.00698161 0.01067664 -0.045467474 -0.020397447 0.25190425 0.15493488 -0.047092717
-0.032958418 -0.065949604 -0.059163775 -0.057404872 0.0060678483 0.13100338 -0.010006709 -0.029264882
-0.0038559758 -0.04769343 -0.03573475 0.0018494225 0.16810676 -0.06216476 -0.050809674 -0.0039826497
-0.02973001 -0.005714653 -0.05382372 -0.04082194 -0.0058443407 -0.08228357 0.14245196 -0.011909661
-0.04499534 0.17379084 -0.006114982 0.19648498 -0.001214407 0.0022851021 -0.05138591 -0.056197207
0.017603846 -0.017547904 -0.050424986 -0.15121137 -0.036829636 0.22509457 0.018114533 -0.05373855
0.16121511 -0.024533471 -0.05184065 -0.06147712 -0.0145569425 -0.00469071 -0.06780479 0.008541244
0.004576013 -0.01208581 -0.036390748 -0.049158853 -0.038531918 0.016792689 -0.043272734 -0.007445597
-0.023862315 0.23953298 0.28053167 -0.017750127 0.36763898 0.044043094 -0.033607878 -0.04011746
-0.10389147 0.14432716 -0.037872627 -0.016601115 -0.13705292 -0.017151425 -0.046222895 -0.36502936
0.08776954 -0.10744729 -0.06991984 -0.062046338 0.0055866465 0.14615744 -0.029933743 -0.00048704544
-0.070197195 -0.015327153 -0.019491654 -0.06896087 -0.019924771 0.20764753 -0.00078827207 -0.0139858
0.21824965 -0.062247172 -0.050247192 -0.021810984 0.2666881 -0.037681703 0.32338664 0.32648662
0.010374009 -0.052732505 -0.0073693134 -0.0072437976 0.0044831755 0.15673606 -0.05854758 -0.03579755

net.4.weight f4 [4, 256]
00000000: dc7f 103f 0e70 06bd b446 9f3c 2a6e 533d
00000010: c501 473d adc7 863c 1be5 3cbb 382d 103c
00000020: dba0 02bc e774 13bd 719b f6bc 2656 083c
00000030: 35ee 98bc 0ed6 a03e 38c7 18c0 7f5c 1e3c
00000040: d137 32bd d910 c23f e7c9 24bd ea8f edbc
00000050: 01a7 733d f32c 89bf dabe 57bb b797 9f3c
00000060: 737f c63f 6425 833b 6773 823f a06f 043d
00000070: 5b4c 56bb 0d49 7d3d 452d b53c d6d4 4bbf
00000080: de7a ec3c cb1f 623f b12e 81be db9d 133e
00000090: 9bbc a63c 66d9 09bc ae12 1a3d 0873 20bd
000000a0: 0f54 2abd 28c9 083d c285 90bc d887 833a
000000b0: f519 293c ded1 22bb f14b 7d3c c64d 003d
000000c0: adba f0bd 8709 573d 5ddf 223d 1703 5abd
000000d0: 94a1 633c 10f0 12bd 14ea 943f 857e 5d3d
000000e0: 3cb9 52bd d7c6 17bb 64a4 853b 3f1e f1bc
000000f0: 3093 2e3a 9c0a 1f3d f8a2 103d 244d a0bb
00000100: f94e d33d a522 243e 04e1 9d3c 1176 d33c
00000110: cf37 6ebf 2a00 f9bd 19d6 953b 5ddd 303f
00000120: bc97 3c3d 41fd 39bc 7667 40bd c001 aebb
00000130: f027 07bd 7d0b 0b3d e106 31bd df85 8abd
00000140: e581 a8bd a1f0 0c3d e7f9 b43b de0c 713c
00000150: 9a22 8d3c 5b72 78bf 03e5 bf3b 8e53 473d
00000160: 62c9 bd3c e1cb d5bc 7bba 233d d178 7ebc
00000170: 05c0 fc3f e707 c9bb 25bf dfbc efe3 b53f
00000180: aa2f d4b9 41bb eb3b 5667 103c 79cb 74bf
00000190: 63a1 0dbd ee69 373d da09 e9bc 5426 aabe
000001a0: e96a 1cbf 581e ccbc 1091 823d 3a0e 83bb
000001b0: b010 f43c 5764 22bd 3bc9 61bd 3320 2fbd
000001c0: 3f86 46bc 6bad 33bc b28b 3fba 899b 3ebf
000001d0: 9be9 2c3a e067 95bc 37b6 6d3b cb40 423b
000001e0: 3e62 35bd e1a5 f93e 7085 0fbd b64e cf3c
000001f0: aca0 0d3d e6d2 933f f2b8 583d ee18 1a3d
00000200: ffb7 203d 76eb fbbc d2d2 8abc ae3f 8cbd
00000210: ccb9 8abe 227b 4ebd c632 eabb a971 ec3b
00000220: a747 a9bb 0ff4 8f3e 173d 80bc 3a5b 2cbe
00000230: a61d 173d f4c0 c1bb e2a0 25bb 6c0e b53c
00000240: 704d 613d 72d8 4c3d cf07 afba a864 b93c
00000250: df21 113d a7d1 3b3f 221f 7e3d 8e06 803c
00000260: f72f 90bd 0ae3 ec3c e6da d13c 7b3c f2bc
00000270: b39a f6bc 6590 cb3e a4df 4cbd de87 a2be
00000280: 5bf2 8a3b 39f6 973c 9620 a73c 03f9 2cbd
00000290: eb73 8dbf 8fcc 153d 80ed 5d3a 27d7 d4bb
000002a0: 314a c23c 25a5 a73c a2ce 913c 4898 573d
000002b0: 8f52 a43c d1d8 0abc f4f0 a0bd 3223 7bbf
000002c0: 7195 43bb 0980 9a3e cb65 b5bc 117a 9cbd
000002d0: 56c7 fb3b ddd4 20bd 2429 fabc d8a0 b63c
000002e0: 1bae aebc ce13 2ebd 60f2 3dbb 2b98 8dbe
000002f0: b2f6 4a3d 7167 193f 768d 25bc 9480 51bc
00000300: f112 36bf 0c59 16bc 7352 ea3c c4ef 8c3c
00000310: 5f8c 1cbc 4048 193d 2a93 533b 09c5 1c3c
00000320: dcca 053d ab65 15bd 283a 393d ebde 18bc
00000330: c912 e5bc abbc 9abc f444 b03c 13ab 893c
00000340: eb0a d9bc 33a0 1abd 4ff8 083e 3655 94bb
00000350: 8bfe ba3f 69d4 2cbe 6f2f 19bd b7c2 52bf
00000360: 51e1 69bd be5a b73d 1c1e 4dbc a426 01bd
00000370: 6696 f93b 0c09 2c3d 26c5 9dbb 9d33 82bd
00000380: ba4f 77bf 61fe f8bc c5bd 353f 726a 073d
00000390: 73d6 03bd f0dc 5bbf c622 07bd def0 ac3c
000003a0: dbb3 f63c 2084 0d3d 1446 82bc d240 753c
000003b0: 64a6 5abc a2e8 82bf 5cc5 143d eacd 4b3d
000003c0: 928f 8cbf b4e1 2e3d f103 ac3e b54e 2ebd
000003d0: 1e91 9a3e c0ce ebbc ffb1 2c3f 5070 3e3f
000003e0: 440f edbc 3d0a 203c a494 c43c 9738 f6bc
000003f0: d2ee 3b3d d632 0ebf 0787 383d 8cf3 5d3d
0.564451 -0.032821707 0.019442894 0.051618733 0.048585672 0.016452635 -0.002882308 0.0087998435
-0.007972921 -0.03600016 -0.030103417 0.008321321 -0.018668273 0.3141331 -2.3871593 0.0096656075
-0.043510262 1.5161391 -0.04023161 -0.028999288 0.05948544 -1.0716842 -0.0032920153 0.019481523
1.5507644 0.00400226 1.0191468 0.032333016 -0.003269932 0.061837245 0.022116313 -0.79621637
0.028867181 0.8832976 -0.25230935 0.14415686 0.020353606 -0.008413648 0.03761547 -0.039172202
-0.04158407 0.033394963 -0.017641906 0.0010034991 0.01032113 -0.002484433 0.01546 0.03132417
-0.117543556 0.05249932 0.039763797 -0.053225603 0.013893504 -0.035873473 1.1633935 0.054075737
-0.051446185 -0.002315929 0.004078435 -0.029433368 0.0006659506 0.038828477 0.03531167 -0.0048920084
0.10317797 0.16028841 0.019272335 0.025813134 -0.9305391 -0.121582344 0.0045726416 0.69087774
0.046043143 -0.011351884 -0.046973668 -0.005310267 -0.03299707 0.033946503 -0.04321945 -0.06763815
-0.082279004 0.03440917 0.0055229547 0.01471254 0.017228413 -0.9704949 0.0058561577 0.04866367
0.023167316 -0.026098194 0.039972764 -0.015531735 1.97461 -0.0061349752 -0.027312825 1.4210185
-0.00040471304 0.0071939533 0.0088137 -0.95622975 -0.03457774 0.044778757 -0.02844708 -0.33232367
-0.6110063 -0.024916813 0.06375325 -0.0039994987 0.029793113 -0.039646473 -0.05512355 -0.042755317
-0.012116968 -0.010966639 -0.0007306888 -0.7445608 0.0006596089 -0.018238008 0.0036271939 0.002964067
-0.044283144 0.48759368 -0.035039365 0.025306087 0.034577057 1.1548736 0.052910753 0.03762143
0.039237972 -0.030751925 -0.01694623 -0.068480834 -0.27094877 -0.050410397 -0.007147166 0.007215698
-0.0051660123 0.2811589 -0.01565413 -0.16831675 0.03689351 -0.0059128944 -0.0025272896 0.022101603
0.05500549 0.050011106 -0.0013353768 0.022631004 0.035432693 0.7336678 0.06204141 0.015628126
-0.070403986 0.028916854 0.025617074 -0.029569855 -0.030103063 0.39758602 -0.050017968 -0.31744283
0.004240317 0.018550025 0.02040128 -0.042229664 -1.1051 0.036572035 0.0008465871 -0.0064953747
0.023717018 0.02046449 0.017798726 0.05263546 0.020058898 -0.008474545 -0.07858458 -0.9810058
-0.0029843713 0.30175808 -0.022143265 -0.0764047 0.007683675 -0.039265502 -0.030537196 0.022293493
-0.021323254 -0.042499356 -0.0028983578 -0.27655157 0.049551673 0.59923464 -0.010104528 -0.012787003
-0.7112265 -0.009176504 0.028603768 0.017204173 -0.009554951 0.03742242 0.0032283762 0.009568461
0.032664165 -0.03647391 0.045221478 -0.009330492 -0.027963059 -0.018888792 0.021517254 0.016805207
-0.026494464 -0.037750434 0.13375972 -0.0045267595 1.460893 -0.16877903 -0.03739875 -0.8232836
-0.057099644 0.089528546 -0.012519386 -0.03153099 0.007616806 0.042000815 -0.0048147617 -0.06357501
-0.9660603 -0.030394735 0.7099269 0.0330605 -0.032186937 -0.85884 -0.032992147 0.021110948
0.030115059 0.034549832 -0.015902556 0.014969068 -0.013345335 -1.0227244 0.03632103 0.04975692
-1.0981314 0.042695716 0.33596757 -0.04255553 0.3018884 -0.02878511 0.674591 0.74390125
-0.028937943 0.009768066 0.023996659 -0.030056281 0.045882054 -0.5554632 0.045050647 0.054187343

net.4.bias f4 [4]
00000000: dc3d c2bc 2cbf 293e 12da 52bf 86c6 b4be
-0.023711137 0.16576833 -0.82364 -0.3530771
