logs/PointMaze-Right/airl_sac/seed0-20231226-1522/model/step450000/disc.pth (torch, 90839 bytes, 10 tensors)

g.0.weight f4 [100, 6]
0	0x3f0d120b	0.55105656
1	0x3ee0293d	0.43781462
2	0xbeab30b4	-0.33435595
3	0xbf1e8bfd	-0.61932355
4	0x3e086acc	0.1332199
5	0xbe43b93c	-0.1911363
6	0xbea8faa6	-0.3300373
7	0x3e128ac7	0.14310752
8	0x3e94f2b9	0.29091433
9	0xbe33f13f	-0.17572497
10	0x3e36f524	0.17866951
11	0x3ead7007	0.33874533
12	0xbf55499b	-0.8331544
13	0xbda263d6	-0.079291984
14	0xbe83226d	-0.25612202
15	0x3de7b707	0.113142066
16	0x3df4bca0	0.1195004
17	0x3e4f3668	0.20235598
18	0xbd85f107	-0.06540113
19	0xbe1d73e9	-0.15376247
20	0xbe65bd87	-0.2243558
21	0x3e8427a0	0.2581148
22	0x3eae6b01	0.34066013
23	0x3eb4a4a0	0.3528185
24	0xbe9bc23d	-0.3042163
25	0xbd7c5d24	-0.061612263
26	0xbce63376	-0.02810071
27	0xbe441878	-0.19149959
28	0xbe80566a	-0.2506593
29	0x3eac03f9	0.3359678
30	0x3c075e5d	0.008262244
31	0xbeca4b36	-0.39510506
32	0xbe0c63bb	-0.13709919
33	0xbe5bb9db	-0.21457617
34	0x3ca3e87a	0.020008314
35	0x3adcfbc9	0.0016859706
36	0x3c9964ff	0.018724917
37	0xbea75e47	-0.32689115
38	0xbe085af7	-0.1331595
39	0xbe8bfba4	-0.27340424
40	0xbdf9814e	-0.12182866
41	0x3e08a279	0.13343228
42	0xbdff7c24	-0.1247485
43	0xbed7de79	-0.4216192
44	0x3d27cc31	0.040966216
45	0x3cd9048f	0.026491432
46	0x3dd3994c	0.103319734
47	0xbe9f7faa	-0.31152087
48	0x3e2d299e	0.16910407
49	0x3e817cb1	0.25290444
50	0x3e8350ac	0.25647485
51	0x3e6ddd52	0.23228958
52	0xbe19812e	-0.14990684
53	0xbde28a05	-0.110614814
54	0x3df9935e	0.12186311
55	0xbf042d87	-0.5163197
56	0x3e725406	0.23664865
57	0xbe30f5fc	-0.17281336
58	0xbe61ced7	-0.2205156
59	0xbb868aaf	-0.004105888
60	0x3f0e01e9	0.55471665
61	0x3edeea50	0.4353814
62	0x3e925221	0.28578284
63	0xbe35cedd	-0.17754693
64	0x3ea317ea	0.31854182
65	0xbdaaf4d5	-0.08347479
66	0x3ec8f525	0.3924953
67	0x3ef9b32b	0.48769507
68	0x3d9ad881	0.07560826
69	0xbed2769e	-0.41106123
70	0x3e9ca6c5	0.30595985
71	0xbe1b2653	-0.15151338
72	0xbe098da3	-0.13432936
73	0xbe9d0164	-0.30665123
74	0x3e9a18e1	0.30097106
75	0xbdda4969	-0.10658533
76	0x3eab4979	0.33454493
77	0x3d479610	0.048727095
78	0x3eab2ef9	0.33434275
79	0xbf06d32e	-0.52665985
80	0xbeb4679d	-0.352353
81	0xbeec21b1	-0.46119455
82	0xbe2f2f4e	-0.17107889
83	0x3e1559b4	0.14585
84	0xbe31b0f7	-0.17352663
85	0x3dc4204a	0.09576471
86	0x3e85e4d7	0.26151153
87	0x3e8b2a27	0.27180597
88	0xbd8f83b2	-0.07007541
89	0x3e801dd7	0.25022766
90	0x3f218cf0	0.6310568
91	0x3e378155	0.1792043
92	0xbe780a6e	-0.24222729
93	0xbe869916	-0.2628867
94	0xbc8346d1	-0.016024979
95	0x3c84b723	0.016200608
96	0xbec5cedc	-0.38634384
97	0xbe9deb29	-0.30843475
98	0x3e80df8c	0.25170553
99	0x3e7fea2f	0.24991678
100	0xbe95a96c	-0.2923082
101	0x3ea08215	0.31349245
102	0x3e86952a	0.26285678
103	0x3ea22a2f	0.3167281
104	0x3d18aabc	0.0372722
105	0x3e0235ff	0.1271591
106	0xbe18f906	-0.14938745
107	0x3eb8af15	0.36071077
108	0xbedd9266	-0.43275756
109	0xbefb72c1	-0.49110988
110	0x3ea53ae8	0.32271504
111	0x3ed39c8d	0.41330376
112	0x3e72f47c	0.23726076
113	0x3e80f73f	0.25188634
114	0x3dbaed84	0.09127334
115	0xbf0a92fe	-0.5413054
116	0x3eb8c9a5	0.36091343
117	0x3ed7c0a2	0.42139155
118	0x3ee33578	0.4437673
119	0x3d4c7cb6	0.04992362
120	0x3d81549b	0.06314965
121	0x3d8e931c	0.06961653
122	0xbe0b54fc	-0.13606638
123	0x3e4a431a	0.1975216
124	0x3d54f1e8	0.051988512
125	0x3e9216f8	0.2853315
126	0x3f004a8f	0.5011377
127	0x3dc73a0a	0.09727867
128	0xbec72852	-0.3889795
129	0x3ec1fa9a	0.37886506
130	0xbddd70f9	-0.108125634
131	0x3ea24698	0.31694484
132	0x3ecc5616	0.39909428
133	0x3ec66c45	0.38754478
134	0xbcc6be8f	-0.024260787
135	0xbe76b28c	-0.24091548
136	0x3e6a2a01	0.22867586
137	0xbde3bfd4	-0.11120573
138	0x3e0a1915	0.1348613
139	0xbeefa5c3	-0.46806154
140	0xbdc86736	-0.09785311
141	0x3db32971	0.08748139
142	0xbe121199	-0.14264525
143	0x3e39e403	0.18153386
144	0x3ec4048b	0.38284716
145	0xbe3e5523	-0.18587165
146	0x3e0894a8	0.13337958
147	0xbe06f911	-0.13180949
148	0xbd55fa0b	-0.052240413
149	0xbd9cdc46	-0.07659201
150	0xbe7e9f3f	-0.24865435
151	0x3ef3f7da	0.47650033
152	0xbe7579a0	-0.23972178
153	0x3ec6a9d1	0.38801435
154	0x3e95da8c	0.292683
155	0x3ec2e4a3	0.3806506
156	0xbf4df059	-0.80444866
157	0xbdbf3a1f	-0.093372576
158	0x3e78ca3b	0.24295895
159	0x3de5eacd	0.11226425
160	0xbed0cce1	-0.4078131
161	0x3e146f24	0.14495522
162	0x3d183d96	0.037168108
163	0xbeba0aca	-0.36336356
164	0xbdaea74e	-0.085280046
165	0x3ec39bf5	0.38204923
166	0x3ee7a7be	0.45245165
167	0xbce981dc	-0.028504305
168	0xbf475fac	-0.7788036
169	0x3b551f5f	0.003251992
170	0xbe830614	-0.25590575
171	0x3ddc265f	0.10749506
172	0xbe9f9dca	-0.3117507
173	0x3e921b92	0.2853666
174	0xbe8b9c94	-0.27267897
175	0xbec8913b	-0.39173302
176	0xbe3f06e7	-0.18654977
177	0xbebdfac0	-0.3710537
178	0xbd05ec15	-0.03269585
179	0xbdc84f0d	-0.09780703
180	0x3f1c1911	0.6097575
181	0x3f040ac4	0.5157893
182	0x3ed0a57b	0.40751252
183	0xbe7164c8	-0.23573601
184	0x3e3db7f9	0.18527211
185	0x3e8b4aef	0.27205607
186	0x3dc3a6e6	0.09553318
187	0xbe4692b0	-0.19391894
188	0x3e99f7e4	0.30071938
189	0x3ed12b43	0.4085332
190	0xbe6f78a0	-0.23385859
191	0x3d88662b	0.06660112
192	0x3eb3a0a0	0.35083485
193	0x3d906f73	0.07052507
194	0xbe3902af	-0.1806743
195	0xbec19ad0	-0.37813425
196	0x3d0e363e	0.034719698
197	0x3e05227f	0.1300144
198	0xbdcb89b9	-0.09938378
199	0xbdb22cd9	-0.0869996
200	0x3e034c62	0.12822106
201	0x3f0ff074	0.5622628
202	0xbde97a6b	-0.114003025
203	0x3e354667	0.17702638
204	0x3ef723aa	0.48269397
205	0xbd8462dd	-0.06464169
206	0x3eb418fd	0.35175315
207	0xbf02df73	-0.51122206
208	0x3ed7e53b	0.42167076
209	0x3db38c10	0.08766949
210	0x3e0044a3	0.12526183
211	0xbe9cae08	-0.30601525
212	0xbe952104	-0.2912675
213	0xbcee0534	-0.029055215
214	0xbe054910	-0.13016152
215	0xbd7146e6	-0.058905505
216	0xbca1ecd2	-0.019766245
217	0x3d83a08f	0.064271085
218	0xbe61eda6	-0.22063312
219	0x3e4127fe	0.18862912
220	0xbe1d68ea	-0.15372053
221	0xbdd1939c	-0.102332324
222	0x3da0e48b	0.07856091
223	0xbeddd539	-0.43326738
224	0xbd73e0f4	-0.059540704
225	0x3ebfd9dd	0.37470904
226	0x3ed2f1f5	0.41200224
227	0xbea46c38	-0.32113814
228	0xbec0c047	-0.37646696
229	0xbeccbe6f	-0.3998904
230	0xbc19c939	-0.009386354
231	0xbe8db011	-0.2767339
232	0x3d7a3e53	0.061094593
233	0x3ecf96ea	0.40544826
234	0x3d253ebe	0.04034304
235	0xbea6e86f	-0.32599208
236	0x3eca3efd	0.3950118
237	0xbe2264ff	-0.1585884
238	0xbeb587b5	-0.354551
239	0x3c9bb98d	0.019009376
240	0xbd346265	-0.04403915
241	0xbe3dd487	-0.18538104
242	0xbe979526	-0.2960598
243	0x3c9d35a1	0.019190611
244	0xbe62bd03	-0.22142415
245	0x3eb24e4f	0.3482537
246	0x3f06ef09	0.5270849
247	0x3ee03f6c	0.43798387
248	0x3e536319	0.20643272
249	0x3d413f88	0.04717973
250	0x3e69d8bc	0.22836584
251	0x3e605f70	0.21911407
252	0x3e1dcd82	0.15410426
253	0x3d446966	0.04795208
254	0x3e95be2e	0.29246658
255	0xbe161f3e	-0.14660355

g.0.bias f4 [100]
0	0x3df612c0	0.12015295
1	0x3e0ad7e1	0.13558914
2	0xbcca16ec	-0.024669133
3	0x3e31cd2c	0.17363423
4	0x3d749573	0.05971284
5	0xbe2e8558	-0.17043054
6	0xbec4b19c	-0.38416755
7	0x3e9c265e	0.30498022
8	0xbecaa6f0	-0.39580488
9	0x3ec73bd6	0.3891284
10	0xbe8ce83b	-0.27520928
11	0xbe0aea4a	-0.13565937
12	0xbebb39a4	-0.36567414
13	0x3eba3ede	0.3637609
14	0xbecdf508	-0.40226007
15	0x3de8a461	0.11359478
16	0xbe93d4a6	-0.28873175
17	0x3d0b4e35	0.03401013
18	0x3e05255f	0.13002537
19	0xbe4b4dea	-0.1985394
20	0xbe7d0b46	-0.24711332
21	0xbe6a2658	-0.2286619
22	0xbda5f569	-0.08103449
23	0x3ead3d4b	0.33835825
24	0xbec5ac11	-0.3860784
25	0x3eb43bb2	0.35201794
26	0x3e7aad95	0.24480279
27	0xbc9fa6b9	-0.01948868
28	0x3e7033b0	0.23457217
29	0xbe224498	-0.15846479
30	0x3e4a69c3	0.19766907
31	0x3eb30da1	0.34971336
32	0xbe863199	-0.26209715
33	0x3e804bdb	0.25057873
34	0x3c88d0cd	0.016701126
35	0xbe71730d	-0.23579045
36	0xbe7c7da9	-0.2465731
37	0x3e8426e2	0.25810915
38	0xbec67436	-0.38760537
39	0xbd51a54b	-0.051183026
40	0x3d89cf77	0.06729024
41	0xbe8bd3cc	-0.27310026
42	0x3e6ff4ff	0.23433302
43	0x3e296390	0.16541886
44	0x3df7693a	0.12080617
45	0x3dc74eea	0.097318485
46	0x3ec51501	0.38492587
47	0xbe93f9f7	-0.28901646
48	0xbd8d8505	-0.06910137
49	0xbc009502	-0.007848026
50	0xbd018ce2	-0.031628497
51	0xbe31b7a3	-0.17355208
52	0xbe0a3cd6	-0.1349977
53	0xbe52f763	-0.20602183
54	0x3e156ae3	0.14591555
55	0xbec5f497	-0.3866317
56	0xbe9957b4	-0.29949725
57	0x3ea586db	0.3232945
58	0x3d921e1f	0.071346514
59	0xbe4e32f1	-0.2013662
60	0x3ea84919	0.3286827
61	0x3e55851a	0.20851555
62	0x3e81c2a2	0.25343806
63	0x3dbd4973	0.09242525
64	0x3e670c15	0.22563203
65	0xbea5c802	-0.32379156
66	0xbebb74b4	-0.36612475
67	0x3dabc308	0.08386809
68	0xbea7276d	-0.32647267
69	0x3e9309d3	0.28718433
70	0x3e95dad0	0.29268503
71	0xbe99a918	-0.3001182
72	0x3ebceb75	0.3689839
73	0x3e69bfe1	0.22827102
74	0x3e9689f2	0.2940212
75	0xbe9a0580	-0.3008232
76	0x3da93915	0.08262841
77	0x3e3c9d9c	0.18419498
78	0x3d13a059	0.03604159
79	0x3daf87b1	0.08570803
80	0x3ed41fb3	0.41430435
81	0x3c6bfe83	0.014403942
82	0xbebc9ee2	-0.36839968
83	0x3e845496	0.25845784
84	0x3de98669	0.1140259
85	0xbe46097d	-0.19339557
86	0xbeccf0c6	-0.40027446
87	0x3e241df1	0.16027047
88	0x3ea67817	0.32513496
89	0xbdb4bb41	-0.08824778
90	0x3edf649f	0.43631455
91	0x3d438e08	0.047742873
92	0xbec930b0	-0.39294958
93	0x3e848e32	0.25889736
94	0x3e092bfd	0.13395686
95	0xbe1bdc64	-0.15220791
96	0x3e88f538	0.26749587
97	0x3e2d4fc4	0.1692496
98	0xbec1c6c1	-0.3784695
99	0xbebafe56	-0.36522168

g.2.weight f4 [100, 100]
0	0x3dbff4fa	0.093728974
1	0xbcae97c5	-0.021312604
2	0xbeb07221	-0.34462073
3	0xbda2b840	-0.07945299
4	0xbd926ab0	-0.07149255
5	0x3cb9931a	0.022653151
6	0xbbd7ab1a	-0.006581676
7	0x3dc7936a	0.09744914
8	0xbcdee893	-0.02721051
9	0xbf897328	-1.0738268
10	0xba54c586	-0.00081165915
11	0x3d04f930	0.032464206
12	0x3d583260	0.052782416
13	0xbf4b6e2c	-0.79464984
14	0xbd6126b0	-0.054968536
15	0x3de10f3f	0.10989236
16	0x3c1da90d	0.009622824
17	0xbc7f933d	-0.015599069
18	0xbf91ca63	-1.1389889
19	0xbe5cab66	-0.21549758
20	0x3ceb34ad	0.028711641
21	0x3f36cbfd	0.7140501
22	0x3dfa5415	0.122230686
23	0x3e9e7b96	0.30953664
24	0xbdc16180	-0.09442425
25	0x3d2f61be	0.042817824
26	0xbea9fdcc	-0.33201444
27	0x3e200fe3	0.1563106
28	0xbede19a2	-0.4337893
29	0x3dcadc5a	0.0990531
30	0x3d05bdf7	0.032651868
31	0x3d0eab74	0.03483148
32	0x3c7027f8	0.014657967
33	0xbd325837	-0.04354116
34	0x3da410f0	0.08011043
35	0x3d3cc31a	0.0460845
36	0x3cf8cba7	0.030370547
37	0x3d2387bb	0.039924365
38	0x3aa96800	0.0012924671
39	0x3b983180	0.0046445727
40	0xbd8e6f00	-0.06954765
41	0x3cb0cbdc	0.021581583
42	0x3daa7959	0.083239265
43	0xbf9a3f0c	-1.205049
44	0xbf48cc9f	-0.78437227
45	0x3d593fdd	0.05303942
46	0x3db47fe3	0.08813455
47	0xbda0b7da	-0.07847567
48	0xbea8c35f	-0.32961556
49	0x3de10e2d	0.10989032
50	0x3b0e9306	0.0021755113
51	0xbd618ea0	-0.05506766
52	0x3c51362c	0.012769263
53	0xbd98548a	-0.074379995
54	0xbe8eeaac	-0.27913415
55	0x3d7842a2	0.06061042
56	0x3d4d88c0	0.050179243
57	0xbc89cd3a	-0.016821492
58	0x3dad16d2	0.08451618
59	0xbf703b36	-0.9384035
60	0xbf633cc3	-0.8876459
61	0x3d96f435	0.073707975
62	0x3d35a9ae	0.044351272
63	0x3dedb7f0	0.11607349
64	0x3e4d1d0b	0.2003061
65	0xbf6fb41e	-0.9363421
66	0x3d96b15d	0.07358048
67	0xbe794c3f	-0.24345492
68	0xbdbcd867	-0.09220963
69	0x3e36e9d8	0.17862642
70	0xbf7ab9eb	-0.9793994
71	0xbd5bdd88	-0.053678066
72	0x3e169350	0.14704633
73	0xbef33767	-0.47503206
74	0xbcf3b8a5	-0.029751131
75	0x3d097d80	0.03356695
76	0xbf2aa34a	-0.6665541
77	0xbeb8773b	-0.36028466
78	0xbe6b595f	-0.22983311
79	0xbcbf6403	-0.023363119
80	0x3d8bdc37	0.06829112
81	0xbd2c3d36	-0.042050563
82	0x3d991fed	0.074767925
83	0x3ba6612f	0.005077503
84	0xbd8502df	-0.06494688
85	0xbdb43a27	-0.08800154
86	0xbd81aafd	-0.063314416
87	0x3aee34f0	0.0018173736
88	0xbcdaa157	-0.026688261
89	0xbe6677fd	-0.2250671
90	0x3cc0019b	0.023438266
91	0xbdbac9b3	-0.09120502
92	0xbd0cbae3	-0.034357917
93	0xbc74ae75	-0.014934172
94	0x3d79a35d	0.06094681
95	0xbd98a917	-0.07454126
96	0xbf485985	-0.78261596
97	0xbf913ce9	-1.1346713
98	0xbd8edb3d	-0.0697541
99	0xbd86785d	-0.06565926
100	0x3da0438b	0.07825383
101	0xbd6b2607	-0.057409313
102	0xbe5b5bbb	-0.21421711
103	0x3b5d87ce	0.003380287
104	0x3dc023c3	0.09381821
105	0x3d58c37a	0.052920796
106	0xbd143cd0	-0.036190808
107	0x3dc56f2a	0.096403435
108	0xbd8ca19a	-0.068667606
109	0xbf87d32d	-1.0611321
110	0x3da88dc3	0.08230164
111	0xbdd6c73b	-0.10487219
112	0x3dc50aa5	0.09621171
113	0xbeda6d5a	-0.42661554
114	0x3cd75a40	0.026288152
115	0xbd19070f	-0.037360247
116	0xbcbc4b2d	-0.022985065
117	0xbe0aa279	-0.13538541
118	0xbf8d7d26	-1.1053817
119	0xbe1e6a05	-0.1547013
120	0xbd980378	-0.074225366
121	0x3f12c112	0.5732585
122	0x3d70c0a0	0.05877745
123	0x3de5bfba	0.112182096
124	0xbd0ce3b7	-0.034396853
125	0x3c57611e	0.013145713
126	0xbe560603	-0.20900731
127	0x3d7f50a9	0.062332783
128	0xbea9c62f	-0.33159015
129	0x3d528267	0.051393893
130	0x3d8d8f2b	0.06912073
131	0xbdad3723	-0.08457782
132	0x3d92a76a	0.07160838
133	0x3d55bc65	0.05218162
134	0x3e2f0f22	0.17095616
135	0xbd341917	-0.04396924
136	0xbd600ea3	-0.05470146
137	0xbbe4b8cc	-0.0069800373
138	0xbda97ea0	-0.08276105
139	0xbdb90488	-0.090340674
140	0x3d8a1178	0.06741613
141	0x3d827ad7	0.06371086
142	0x3d60b7e6	0.05486288
143	0xbf6c1516	-0.92219675
144	0xbf716216	-0.9429029
145	0xbce3674b	-0.027759215
146	0xbd101508	-0.035176307
147	0x3da0c3cb	0.078498445
148	0xbec8d396	-0.39223927
149	0x3d8df05e	0.06930612
150	0xbd804dcf	-0.06264841
151	0x3dc7fe58	0.09765309
152	0xbd2c9a1a	-0.04213915
153	0xbcb19793	-0.021678722
154	0xbe3e4fc2	-0.18585113
155	0x3d051cac	0.032498047
156	0xbcb86be0	-0.022512376
157	0x3e2fe0e9	0.1717564
158	0x3e0adfba	0.13561907
159	0xbf7702e3	-0.9648878
160	0xbf352c74	-0.70770955
161	0x3e00af11	0.12566783
162	0x3e354390	0.17701554
163	0x3d1a82b7	0.037722316
164	0x3e1f6e09	0.15569319
165	0xbf73fda3	-0.95308894
166	0x3c7c1067	0.01538477
167	0xbe0a8c06	-0.13529977
168	0xba4e2d9a	-0.00078650715
169	0x3e9e6def	0.30943248
170	0xbf3652ae	-0.7121991
171	0xbd93d7ba	-0.07218881
172	0x3db9f7c7	0.09080463
173	0xbf09daaf	-0.5384931
174	0x3d3826d4	0.044958904
175	0x3cb0fe27	0.021605564
176	0xbf088a70	-0.5333624
177	0xbe8db603	-0.27677926
178	0xbe4e7485	-0.20161636
179	0xbe1bc537	-0.1521195
180	0x3d946aab	0.07246908
181	0x3d8b22c8	0.06793743
182	0xbd8471fd	-0.06467054
183	0x3d11173a	0.03542254
184	0x3d697222	0.05699361
185	0x3d9fef20	0.07809281
186	0xbcbd7dfa	-0.02313136
187	0xbba62a07	-0.005070928
188	0x3d5689fb	0.052377682
189	0xbe71e19f	-0.23621224
190	0x3dfe0ea7	0.124051385
191	0x3cacb847	0.021083964
192	0xbbc2bce7	-0.005942929
193	0xbd6e1d88	-0.058133632
194	0x3d809511	0.06278432
195	0x3bc38833	0.005967164
196	0xbf167edf	-0.5878734
197	0xbf8072ed	-1.0035073
198	0x3ce04247	0.027375354
199	0x3d7fff93	0.062499594
200	0xbdbbd436	-0.091713354
201	0x3d8728ef	0.06599604
202	0xbdca6ebb	-0.098844014
203	0xbc44295e	-0.011972753
204	0x3d391140	0.045182467
205	0xbd891812	-0.06694044
206	0x3db2755b	0.0871379
207	0x3d5fcef9	0.054640744
208	0xbc8ccd7a	-0.017187823
209	0xbd493069	-0.049118433
210	0xbd547783	-0.051871788
211	0x3bd17dd0	0.006393172
212	0xbc432af3	-0.011912095
213	0xbc7174ec	-0.014737349
214	0x3cd0e6e0	0.025500715
215	0x3c2d082a	0.0105610285
216	0xbd2224d3	-0.0395859
217	0xbd71e102	-0.059052475
218	0xbdcceadf	-0.100057356
219	0xbc37b4dd	-0.011212555
220	0xbd13c173	-0.03607316
221	0x3d2812b3	0.041033458
222	0x3d40f21a	0.047105886
223	0xbd82dea3	-0.06390121
224	0x3d743960	0.05962503
225	0x3c268c90	0.010165349
226	0xbdd24b8e	-0.10268317
227	0xbcf450e5	-0.02982373
228	0xbd906ddc	-0.07052204
229	0xbd8c46a5	-0.06849412
230	0xbcb1bf6f	-0.021697728
231	0x3c84bfe7	0.016204787
232	0xbb9cad9a	-0.004781437
233	0xbc04f271	-0.008114443
234	0xbdc9945a	-0.09842749
235	0x3dc82388	0.09772402
236	0xbc9621cd	-0.018326664
237	0x3d989093	0.0744945
238	0x3dbcec18	0.09224719
239	0xbd3dbcda	-0.04632268
240	0x3da717ab	0.08158811
241	0xbd32d2d7	-0.043658104
242	0xbceec126	-0.029144835
243	0x3b614c0c	0.0034377603
244	0xbdb9cb22	-0.09071948
245	0xbd02f1dd	-0.03196894
246	0x3abe616f	0.0014524887
247	0x3d091f20	0.03347695
248	0x3d68403a	0.056701876
249	0xbd919b45	-0.071096934
250	0x3d9f1730	0.077680945
251	0x3b77d9cd	0.0037819028
252	0xbd9dc640	-0.07703829
253	0x3ba90133	0.0051576137
254	0x3d191d74	0.037381604
255	0xbd6163dd	-0.055026878

g.2.bias f4 [100]
0	0x3d976c0d	0.07393656
1	0x3c0e8ee4	0.00870106
2	0x3d7d7fe7	0.061889555
3	0xbcc4d746	-0.024028432
4	0x3c8558a8	0.016277626
5	0x3d046425	0.032322068
6	0xbca2d040	-0.019874692
7	0x3dd12e2e	0.10213886
8	0xbd95bc80	-0.07311344
9	0x3bc05aa6	0.005870181
10	0x3cd753bb	0.026285043
11	0xbbe01f34	-0.006839657
12	0x3ced203d	0.028946036
13	0x3c6006b3	0.013673472
14	0xbb6048a0	-0.0034222975
15	0x3d925907	0.07145887
16	0xbd061fa9	-0.032745037
17	0xbd786a92	-0.06064851
18	0xbd9aec25	-0.07564572
19	0x3d41f6f8	0.04735467
20	0xbdb1011f	-0.08642792
21	0x3d8f7447	0.070046
22	0x3ca31ce8	0.019911245
23	0x3daeb7af	0.085311286
24	0xbdaf12a7	-0.085484795
25	0xbdba58f6	-0.09098999
26	0x3d97ba56	0.07408588
27	0xbdcba843	-0.09944203
28	0x3d358341	0.044314627
29	0x3de9e304	0.11420253
30	0xbdaad50a	-0.08341415
31	0x3c4f2228	0.012642421
32	0xbd37488d	-0.044746924
33	0xbd5f2627	-0.054479744
34	0xbda19aff	-0.07890891
35	0xbb5fd76a	-0.0034155496
36	0xbd2ae72b	-0.041724365
37	0x3d86dcdc	0.06585094
38	0x3d1575c0	0.03648925
39	0xbd0e5d17	-0.034756746
40	0x3cfde9c7	0.030995263
41	0xbd9eef88	-0.07760531
42	0xbda42890	-0.08015549
43	0xbbfe64a0	-0.0077634603
44	0xbc9aa5e0	-0.018877923
45	0xbd7f44f3	-0.062321614
46	0xbdc7e3f4	-0.097602755
47	0x3ceebf35	0.029143909
48	0xbd51a037	-0.051178183
49	0xbd84a1ca	-0.06476171
50	0xbc5b8d35	-0.013400366
51	0xbcca6845	-0.024707923
52	0x3d2d9013	0.042373728
53	0x3dec5b4e	0.115408525
54	0xbd6b1113	-0.05738933
55	0xbd38bac5	-0.045099992
56	0xbcb7950d	-0.02240994
57	0x3d8200c4	0.06347802
58	0xbc4cda0d	-0.012503159
59	0xbc3ef139	-0.011654192
60	0x3bc1c336	0.0059131635
61	0x3b36af19	0.0027875362
62	0xbd785911	-0.060631815
63	0x3d3446de	0.044012897
64	0xbd4882e9	-0.04895297
65	0xbb1fb345	-0.0024368328
66	0x3cb08059	0.021545576
67	0xbe1faf6f	-0.15594266
68	0x3b87ee71	0.0041482975
69	0xbd734ded	-0.059400488
70	0xbd073ec2	-0.033018835
71	0xbb6c5b67	-0.0036065222
72	0xbcac08c0	-0.021000266
73	0x3d3b9ad0	0.045801938
74	0x3d5c172d	0.05373304
75	0xbda29d70	-0.07940185
76	0x3d4c67fc	0.049903855
77	0x3d3d5ef7	0.046233144
78	0xbbaac433	-0.005211377
79	0xbce613bd	-0.028085584
80	0xbdb75258	-0.08951253
81	0xbdf1c8ec	-0.11805901
82	0xbd8da28a	-0.069157675
83	0x3d3ce2cb	0.046114724
84	0xbd67114f	-0.05641299
85	0x3d066f69	0.032821093
86	0xbcabe467	-0.020982934
87	0xbd452b95	-0.048137266
88	0xbd8c53f7	-0.068519525
89	0x3c3e2ba7	0.011607087
90	0x3d604af1	0.05475897
91	0xbd2ed25a	-0.042681076
92	0xbc1c430d	-0.0095374705
93	0x3c6875e5	0.0141882645
94	0x3d38d020	0.04512036
95	0xbc646343	-0.013939681
96	0x3d58d086	0.05293324
97	0x3d2ed4fc	0.042683586
98	0x3c3e2a7e	0.011606811
99	0x397bceed	0.00024014311

g.4.weight f4 [1, 100]
0	0x3f27ede2	0.65597355
1	0x3f59f01c	0.85132
2	0x3db76885	0.089554824
3	0xbed38c07	-0.4131777
4	0x3c594444	0.013260905
5	0xbe649329	-0.22321762
6	0x3dc95e97	0.09832495
7	0x3f60f83d	0.8787878
8	0xbd22e9f3	-0.039773893
9	0xbf3d24b0	-0.73884106
10	0xbee9b1cf	-0.4564347
11	0x3f296130	0.6616392
12	0xbeebae7c	-0.4603156
13	0xbd98cd05	-0.07460979
14	0xbe1ee089	-0.15515341
15	0x3d14e346	0.036349557
16	0xbfc54acb	-1.541345
17	0xbf03a68d	-0.5142601
18	0x39b35667	0.00034205915
19	0x3f2cc28a	0.67484343
20	0xbdc5b9a0	-0.09654546
21	0xbe878f86	-0.26476687
22	0xbeb505f6	-0.3535611
23	0x3cac2d1b	0.021017602
24	0x3bd6999a	0.0065490725
25	0xbec28d4d	-0.3799843
26	0x3d25df86	0.04049637
27	0xbdc3673d	-0.095411755
28	0x3f6fc16a	0.936545
29	0x3f4af8c4	0.79285836
30	0xbea3cfa1	-0.31994346
31	0x3f28b5ca	0.6590239
32	0x3ccc3b67	0.024930669
33	0xbc8a79da	-0.016903806
34	0xbeb1f2e2	-0.34755617
35	0x3f69bf33	0.9130737
36	0x3f37eba0	0.7184391
37	0x3f44e4b6	0.76911485
38	0xbe70be35	-0.23510058
39	0xbd6823a0	-0.0566746
40	0x3d9ac08a	0.07556255
41	0x3daadaef	0.083425395
42	0x3f58ceef	0.84690756
43	0x3f5e9997	0.8695311
44	0xbf4e3bb0	-0.80559826
45	0xbe94786a	-0.2899812
46	0x3d808722	0.062757745
47	0xbe8e4661	-0.2778807
48	0xbe638be2	-0.2222133
49	0x3d808258	0.06274861
50	0x3aadab00	0.0013249815
51	0x3d4caf0b	0.04997162
52	0xbe907cbe	-0.2822017
53	0x3f475a0c	0.77871776
54	0x3cc11a12	0.023572002
55	0x3d39bd5f	0.045346614
56	0x3d22083a	0.039558627
57	0xbed55814	-0.4166876
58	0xbda076f7	-0.07835191
59	0x3d40f180	0.047105312
60	0x3c3ca586	0.011514073
61	0x3f4af3a3	0.7927801
62	0xbe8b9bca	-0.27267295
63	0xbeb778f1	-0.35834458
64	0xbf51c61d	-0.8194292
65	0xbe83bd52	-0.25730377
66	0x3da26c09	0.07930762
67	0xbfcd8793	-1.6056999
68	0xbe93be43	-0.28856096
69	0x3f3175ab	0.6932017
70	0x3f3fe9bd	0.7496603
71	0x3db830b5	0.08993665
72	0x3db0732f	0.086157195
73	0xbf31d354	-0.69463086
74	0xbf016560	-0.5054531
75	0x3d96b02e	0.07357822
76	0x3f49a94b	0.78773946
77	0x3c029768	0.007970668
78	0xbd0af0ea	-0.03392116
79	0xbd30ecc1	-0.043194536
80	0xbd4953aa	-0.049152054
81	0xbf3407f8	-0.7032466
82	0xbda56753	-0.08076348
83	0x3d2a19fa	0.04152868
84	0x3d47c8a1	0.04877532
85	0xbef9d487	-0.48794958
86	0xbe8affe4	-0.27148354
87	0xbf16569a	-0.58725893
88	0xbeb44c92	-0.3521467
89	0xbd5a83ed	-0.05334847
90	0xbede147f	-0.43375012
91	0xbd28daca	-0.04122428
92	0x3db1d490	0.08683121
93	0xbea1a37a	-0.31570035
94	0xbf189d28	-0.596148
95	0xbeb16b74	-0.34652293
96	0xbf25060c	-0.6446235
97	0x3f2edeff	0.68309015
98	0x3d5c0222	0.05371297
99	0xbe8d534a	-0.27602607

h.0.weight f4 [100, 6]
0	0x3ebc5b66	0.3678848
1	0xbdc6374a	-0.09678514
2	0xbe49328c	-0.19648188
3	0xbec59c95	-0.38596025
4	0x3ead5249	0.3385184
5	0x3e314588	0.1731168
6	0x3f1b9a9f	0.6078281
7	0x3eb3d2d9	0.35121801
8	0xbc3231df	-0.010876148
9	0xbe2f92a2	-0.1714578
10	0x3ec2e695	0.38066545
11	0xbdc174e8	-0.09446126
12	0x3f07517f	0.5285873
13	0xbe9ecce4	-0.31015694
14	0xbea7b4cd	-0.32755128
15	0x3e76ec64	0.24113613
16	0xbe9078cd	-0.28217164
17	0xbe889089	-0.26672772
18	0x3c9ff9be	0.019528266
19	0x3e2a9bdb	0.16661017
20	0xbea391fc	-0.31947315
21	0x3e9f98ac	0.31171167
22	0x3c890901	0.016727926
23	0xbe704bea	-0.23466459
24	0x3e7ce6ed	0.24697466
25	0x3eec714f	0.46180198
26	0xbc2f07b3	-0.010682988
27	0x3ea3e8e7	0.32013628
28	0x3da054ec	0.078286976
29	0xbd95c0d6	-0.07312171
30	0x3e079e42	0.13243964
31	0xbc573114	-0.01313426
32	0xbe0ebe62	-0.13939813
33	0x3ef59d00	0.47971344
34	0x3ebfa014	0.37426817
35	0x3e3ccf59	0.18438472
36	0xbe2f564f	-0.17122768
37	0x3e05a0ee	0.13049671
38	0xbd0aaece	-0.033858113
39	0x3e17e4df	0.14833401
40	0xbe606a54	-0.21915561
41	0x3e0ea0a2	0.13928464
42	0x3e8d85fd	0.27641287
43	0x3e816425	0.25271717
44	0xbe28d98c	-0.16489238
45	0xbeabe5ca	-0.33573753
46	0x3e49cfa8	0.19708121
47	0x3ea05229	0.31312683
48	0xbd988173	-0.074465655
49	0xbcc99ac0	-0.024609923
50	0x3ec625bb	0.3870066
51	0xbeb7b586	-0.3588068
52	0x3e994200	0.29933167
53	0x3e0cdded	0.13756533
54	0x3eb3054c	0.3496498
55	0x3e73d50b	0.23811738
56	0x3e0b306f	0.13592695
57	0xbee927d9	-0.45538214
58	0x3d90712c	0.07052836
59	0xbe8de64b	-0.27714762
60	0x3ea422c7	0.32057783
61	0x3ea00e4f	0.31260917
62	0x3d64406d	0.055725504
63	0x3e1a2372	0.15052584
64	0xbeb45cea	-0.35227138
65	0x3cc7961d	0.024363572
66	0x3ef5e749	0.4802802
67	0xbee4adcc	-0.44663846
68	0xbeb2d65d	-0.3492917
69	0xbe5bdc71	-0.2147081
70	0x3d656611	0.05600554
71	0x3ea2e1af	0.31812808
72	0x3e9dd1d8	0.3082416
73	0x3db03550	0.086039186
74	0xbebf46f3	-0.37358817
75	0xbed73cf8	-0.42038703
76	0x3d6e2f65	0.058150668
77	0x3e260142	0.16211417
78	0x3f3f7eea	0.7480303
79	0x3df42180	0.11920452
80	0x3d1d3284	0.038378254
81	0xbead5589	-0.3385432
82	0x3e08badd	0.13352533
83	0xbe49ed69	-0.19719471
84	0xbedb09e9	-0.42780998
85	0x3ebd318f	0.36951873
86	0xbe865ee2	-0.26244265
87	0xbe8cbca3	-0.27487668
88	0x3eb0dfb4	0.34545672
89	0x3ea92819	0.33038405
90	0x3d97fb64	0.07420996
91	0x3e0688cc	0.13138121
92	0x3e53f775	0.20699866
93	0x3c93ef27	0.018058373
94	0xbeb161db	-0.3464497
95	0x3cb8dc3f	0.022565959
96	0x3f2eee69	0.68332535
97	0x3ecbd3e6	0.39810103
98	0x3e30d5d7	0.17269073
99	0xbce0174c	-0.027354859
100	0xbe5f5c1c	-0.2181248
101	0xbea22aa3	-0.31673154
102	0xbe45fdb0	-0.19335055
103	0x3dd20006	0.10253911
104	0xbd88d825	-0.06681851
105	0x3dd21645	0.10258154
106	0xbd0ee812	-0.03488929
107	0x3ea928c6	0.3303892
108	0x3f21b6b8	0.6316943
109	0x3e974e1c	0.2955178
110	0x3a21db92	0.0006174381
111	0xbe841527	-0.25797388
112	0x3dabe745	0.083937205
113	0x3e265309	0.16242613
114	0xbdab4ce4	-0.08364275
115	0x3ee4db40	0.44698524
116	0xbdbbb244	-0.09164861
117	0x3e71480a	0.23562637
118	0xbec3826b	-0.3818544
119	0xbe6d0bad	-0.23148985
120	0x3cb232ca	0.021752734
121	0xbecc13f8	-0.39858985
122	0xbe2131d7	-0.15741669
123	0xbdb9774e	-0.09055959
124	0x3e9a931e	0.30190367
125	0xbe8719a1	-0.2638674
126	0x3e93f52a	0.28897983
127	0xbe5a0a3c	-0.21292967
128	0xbe77dfc5	-0.24206455
129	0xbe4451d7	-0.19171844
130	0xbec3bee1	-0.38231567
131	0xbca336fd	-0.019923681
132	0xbe628de9	-0.22124447
133	0xbe44f16e	-0.19232723
134	0x3eb2745f	0.3485441
135	0xbe2b61d2	-0.16736534
136	0x3ec6011b	0.38672718
137	0xbec9516a	-0.39319927
138	0x3f17006a	0.58985007
139	0xbe54e2f2	-0.20789698
140	0x3d516369	0.051120196
141	0x3de5c81e	0.1121981
142	0x3eaa738a	0.33291274
143	0xbc49f491	-0.012326376
144	0xbeaccbcd	-0.33749238
145	0xbeb73ded	-0.35789433
146	0xbd0761a1	-0.03305209
147	0xbd7c38f6	-0.06157776
148	0xbe7ff178	-0.24994457
149	0xbeb13fac	-0.3461889
150	0x3e047033	0.12933426
151	0xbee42ce4	-0.445655
152	0x3e9f2bda	0.31088144
153	0xbcb12676	-0.021624785
154	0x3eacd1af	0.33753726
155	0x3e41063f	0.18850039
156	0xbe5042c7	-0.20337974
157	0x3e0290e9	0.12750591
158	0xbe358b45	-0.17728908
159	0xbd9ebd4b	-0.077509485
160	0x3e82e846	0.25567836
161	0xbdb29836	-0.08720438
162	0x3d965b14	0.073415905
163	0xbe77b9c4	-0.24191958
164	0xbeb81017	-0.35949776
165	0x3e0b09aa	0.13577905
166	0xbea55889	-0.3229411
167	0xbc475914	-0.012167234
168	0x3e1114c6	0.1416808
169	0xbe8d5906	-0.27606982
170	0xbe4ccbe3	-0.19999652
171	0x3ea0596b	0.3131822
172	0xbe9b6ac5	-0.30354896
173	0x3e1cecfc	0.15324777
174	0xbf102ea5	-0.56321174
175	0xbe584653	-0.21120577
176	0x3ec88446	0.39163417
177	0x3ec5b1da	0.38612252
178	0xbc938017	-0.018005414
179	0x3eac8466	0.33694762
180	0x3f1ac2d7	0.6045355
181	0x3e73e64c	0.2381832
182	0xbc1525d5	-0.009103258
183	0xbf0b1b74	-0.54338765
184	0x3e530486	0.20607194
185	0x3e3bf337	0.18354498
186	0x3e84a84d	0.25909653
187	0xbd79a753	-0.06095059
188	0x3ca63faf	0.020294039
189	0xbe579b46	-0.21055326
190	0xbe958090	-0.29199648
191	0x3d4de78b	0.050269645
192	0xbf314fb3	-0.69262236
193	0x3d6ad4a7	0.057331707
194	0x3eabd73c	0.33562648
195	0x3e286e27	0.1644827
196	0x3e6ad220	0.22931719
197	0xbd0a3fea	-0.03375236
198	0xbefe1e21	-0.49632362
199	0x3eb92451	0.3616052
200	0x3e9663e5	0.29373088
201	0xbcc121b3	-0.02357564
202	0xbe1944d1	-0.14967658
203	0x3d9c55d5	0.07633559
204	0x3e425922	0.18979314
205	0x3dce4eb6	0.10073607
206	0x3d9e1ef8	0.077207506
207	0xbc9ff9a4	-0.019528218
208	0x3e8143bf	0.25247
209	0xbebacd21	-0.36484626
210	0xbea068db	-0.31329998
211	0xbe8226e3	-0.25420293
212	0xbd8a84a7	-0.06763583
213	0x3c275c07	0.010214812
214	0xbe70d805	-0.23519905
215	0x3d5a9919	0.05336866
216	0xbe0442dd	-0.12916131
217	0x3e330a4e	0.174844
218	0x3ebfe032	0.37475735
219	0xbe76c999	-0.24100341
220	0xbe5332e0	-0.20624876
221	0xbe38fa0f	-0.1806414
222	0xbe289a6f	-0.16465162
223	0x3eb1b064	0.34704888
224	0x3eaf3793	0.34222087
225	0xbdea6f14	-0.11446968
226	0xbe827268	-0.2547791
227	0xbeb7da02	-0.35908514
228	0x3e98291c	0.29718864
229	0xbeb40812	-0.35162407
230	0xbeabd3a2	-0.335599
231	0xbe1ee713	-0.15517835
232	0xbeb658f3	-0.35614738
233	0x3c52e94a	0.012873003
234	0xbe94eaa1	-0.29085258
235	0x3e15ec20	0.14640856
236	0xbd080634	-0.03320904
237	0xbea6b4dd	-0.32559863
238	0x3e77c2a8	0.24195349
239	0xbe0d84d9	-0.13820209
240	0xbeb5d152	-0.3551126
241	0xbe52cf95	-0.20586999
242	0x3e526d14	0.20549423
243	0x3eac0d25	0.33603778
244	0x3d470549	0.048589025
245	0x3e5d3919	0.21603812
246	0x3e731e90	0.23742127
247	0xbecb83d8	-0.39749026
248	0xbd4c582c	-0.049888775
249	0xbe67a5ce	-0.22621843
250	0xbcf31dc8	-0.029677287
251	0x3ecdc719	0.40190962
252	0x3e0ceb0a	0.13761535
253	0xbdd5c0f0	-0.104371905
254	0xbe5eefda	-0.21771184
255	0xbea7f3e0	-0.3280325

h.0.bias f4 [100]
0	0x3e5ca38f	0.21546768
1	0x3e558ee1	0.20855285
2	0x3e1acfbd	0.15118308
3	0x3d86989d	0.065720774
4	0xbe1e5c84	-0.1546498
5	0xbded1559	-0.11576337
6	0x3ea9a867	0.33136293
7	0xbe8865a9	-0.2664006
8	0xbeae8d5b	-0.3409222
9	0x3e0b9cb8	0.13634002
10	0xbe8af933	-0.2714325
11	0xbd848cce	-0.06472169
12	0xbcc5e47d	-0.024156803
13	0x3e55aa0f	0.20865653
14	0xbe9bfbf8	-0.30465674
15	0xbe348bc8	-0.17631447
16	0x3d61ffca	0.05517558
17	0x3dc35225	0.09537152
18	0x3c1fafef	0.009746536
19	0xbdbc260c	-0.09186944
20	0xbe9cad58	-0.30601
21	0x3b2bcf0a	0.0026215934
22	0xbe907cf1	-0.28220323
23	0x3d03bf97	0.032165136
24	0xbdf4491c	-0.11928007
25	0x3e85c5b8	0.2612741
26	0xbe60c070	-0.21948409
27	0xbe862743	-0.2620183
28	0xbeacd7c2	-0.3375836
29	0x3e956d5d	0.29185
30	0x3dd699d5	0.1047856
31	0xbe046196	-0.12927851
32	0x3dda9f82	0.10674955
33	0x3e9c2a47	0.30501005
34	0x3e642ff5	0.22283919
35	0xbdeabc0f	-0.114616506
36	0xbe4cbd0c	-0.1999399
37	0xbe596339	-0.21229257
38	0xbea2edc6	-0.31822032
39	0xbe6368ec	-0.22207993
40	0xbe89139d	-0.26772776
41	0x3e949c08	0.29025292
42	0xbde2f4c7	-0.11081844
43	0xbe21266b	-0.15737312
44	0x3d9b177a	0.07572837
45	0x3eaee8f0	0.34162092
46	0xbea2e019	-0.31811598
47	0x3cb43ffe	0.02200317
48	0x3e648d6d	0.22319575
49	0xbe208058	-0.1567396
50	0xbeb1bb3e	-0.34713167
51	0x3ed0217d	0.4065055
52	0x3e8cade6	0.27476424
53	0xbe969faf	-0.29418704
54	0x3e972357	0.2951915
55	0xbead893c	-0.33893764
56	0xbe653390	-0.22382951
57	0x3df6e8b7	0.120561056
58	0x3e0e5367	0.13899003
59	0x3d9f5a7d	0.07780931
60	0x3e0a0e00	0.13481903
61	0xbeacc944	-0.33747303
62	0xbe72ba45	-0.23703869
63	0x3eda1279	0.4259222
64	0x3ebfb380	0.37441635
65	0x3e3e7eaf	0.18603013
66	0x3d461f09	0.04836944
67	0xbe3aa84a	-0.1822826
68	0x3ecc264a	0.39872962
69	0x3e73a92d	0.23795004
70	0x3e8e0289	0.2773631
71	0xbe772421	-0.24134876
72	0x3e982e0d	0.29722634
73	0xbd693233	-0.05693264
74	0x3eb009e1	0.34382537
75	0xbe0a5f96	-0.13513026
76	0x3ea27574	0.31730235
77	0xbc4d68ec	-0.012537222
78	0x3eb84fd3	0.359984
79	0x3deca7e5	0.11555461
80	0x3e2248bf	0.15848063
81	0xbe9c5b00	-0.30538177
82	0x3ea27015	0.31726137
83	0xbe27e61c	-0.16396374
84	0xbeb22e4b	-0.34800944
85	0x3d44a68b	0.04801039
86	0x3e8e2098	0.27759242
87	0xbec7d237	-0.3902757
88	0xbea343f8	-0.31887794
89	0xbe8aacc2	-0.2708493
90	0x3e28e7ae	0.16494629
91	0x3d8b7419	0.06809253
92	0x3e91a8f1	0.28449205
93	0xbcf2dbba	-0.02964579
94	0x3e855484	0.26041043
95	0x3da4dbd0	0.080497384
96	0x3e765108	0.24054348
97	0x3eac30df	0.33631036
98	0x3d80865f	0.06275629
99	0x3ca8d209	0.020607965

h.2.weight f4 [100, 100]
0	0x3d3dc55a	0.046330787
1	0x3df8889d	0.12135432
2	0x3dd7b521	0.105325945
3	0x3d18ccef	0.037304815
4	0x3e2bebfc	0.1678924
5	0xbd8d47ef	-0.06898486
6	0xbd502c98	-0.050823778
7	0xbd80c294	-0.06287113
8	0xbdc1d100	-0.09463692
9	0x3a94a10e	0.0011339502
10	0xbc8a4633	-0.016879177
11	0x3e67834a	0.22608677
12	0xbe1c09d7	-0.15238129
13	0x3c9edcad	0.019392336
14	0x3dbe597e	0.09294413
15	0xbca5a033	-0.02021799
16	0x3c9214d6	0.017832201
17	0x3d9c840d	0.07642374
18	0x3d03d6cc	0.03218727
19	0x3ef82144	0.4846288
20	0x3cf89a67	0.030347062
21	0x3da148f5	0.078752436
22	0xbbeb1d00	-0.007175088
23	0xbb3e73a3	-0.0029060624
24	0xbd9ae147	-0.075624995
25	0x3d5805d2	0.052739926
26	0x3d8416bf	0.06449651
27	0xbd2e96ba	-0.042624213
28	0xbd55c4b3	-0.05218954
29	0xbd5dbf3f	-0.054137465
30	0x3c9e3dbd	0.019316548
31	0x3d412ae0	0.04716003
32	0xbec52880	-0.38507462
33	0x3d920487	0.0712977
34	0xbd5e969d	-0.054342855
35	0xbd8a1e2d	-0.06744037
36	0xbd8014f3	-0.06253996
37	0xbd0ae71d	-0.033911813
38	0x3c5ff95a	0.01367029
39	0xbcb0573a	-0.021525968
40	0x3d018ad0	0.031626523
41	0x3eb94a69	0.36189583
42	0x3d09a9da	0.03360925
43	0xbe832bdc	-0.256194
44	0x3ea9d390	0.33169222
45	0xba09b409	-0.00052529626
46	0x3d3d2d0a	0.04618553
47	0x3daf48a6	0.085587785
48	0xbda78c69	-0.08181078
49	0xbbc8bb4d	-0.0061258436
50	0xbcbf2714	-0.023334064
51	0x3be488ff	0.006974339
52	0x3c11e287	0.008904106
53	0xbca25f33	-0.019820785
54	0xbd9d5978	-0.076830804
55	0x3b1daf9a	0.0024060966
56	0xbd735e77	-0.05941626
57	0xbcd425f0	-0.025896996
58	0xbebb7517	-0.3661277
59	0xbd86d020	-0.065826654
60	0xbe1d4083	-0.1535664
61	0x3db7727c	0.08957383
62	0x3d386558	0.045018524
63	0x3e4ae066	0.19812164
64	0x3dacbd5b	0.08434554
65	0x3d9d8e59	0.07693166
66	0x3d0e488a	0.034737147
67	0x3d45e960	0.048318267
68	0xbc0bb0c4	-0.008526031
69	0xbe10603e	-0.14099213
70	0x3c1c1ba2	0.009528073
71	0x3cf25b00	0.029584408
72	0xbcf9dc03	-0.030500418
73	0xbd4035b7	-0.046926226
74	0x3d97574b	0.07389697
75	0xbdc29648	-0.0950132
76	0xbccb1ba1	-0.024793448
77	0x3f592f52	0.8483783
78	0x3c6c216f	0.014412268
79	0xbd6c9493	-0.05775888
80	0x3e0a0d2f	0.13481592
81	0xbcd340ba	-0.0257877
82	0xbe12384c	-0.14279288
83	0xbebd316e	-0.36951774
84	0x3d9cd658	0.0765807
85	0xbed41d2f	-0.41428515
86	0x3d14f307	0.03636458
87	0x3cd54707	0.026034845
88	0xbd1e7740	-0.038687944
89	0xbd91e4ef	-0.07123744
90	0xbdcc1532	-0.0996498
91	0xbd45b960	-0.04827249
92	0xbd30df27	-0.043181565
93	0x3d8ef082	0.06979467
94	0xbd60bddc	-0.054868564
95	0x3cc741bb	0.024323335
96	0x3d12dad1	0.03585321
97	0x3d358468	0.044315726
98	0x3db634ad	0.08896766
99	0x3e788068	0.24267733
100	0xbd67b8a3	-0.056572568
101	0xbd4e4c37	-0.050365653
102	0x3be0ee1a	0.0068643214
103	0xbbb971cd	-0.005659318
104	0x3d0ebc43	0.03484751
105	0x3db17de0	0.08666587
106	0xbc714167	-0.014725066
107	0xbd034837	-0.03205129
108	0xbcdaaef3	-0.02669475
109	0xbd8cdf8d	-0.068785764
110	0x3cf8d22d	0.030373657
111	0x3d3b28d0	0.04569322
112	0xbdbec223	-0.093143724
113	0xbc8fb0a0	-0.017540276
114	0x3d67d02d	0.056595016
115	0x3cf04873	0.029331421
116	0xbd3e7257	-0.04649576
117	0x3d3e4e07	0.04646113
118	0x3da7d2f2	0.081945315
119	0xbdac1e07	-0.08404165
120	0x3cc4d207	0.02402593
121	0xbd1eec77	-0.03879973
122	0xbdbf4940	-0.09340143
123	0x3c326cc0	0.010890186
124	0xbd3cae87	-0.04606488
125	0x3d57830d	0.052615214
126	0x3d6a23f7	0.057163205
127	0x3d4f4827	0.05060592
128	0xba497267	-0.0007684589
129	0xbdb8d655	-0.090252556
130	0xbda26467	-0.079293065
131	0x3d29bbd3	0.04143889
132	0xbda03223	-0.07822063
133	0xbd68429a	-0.05670414
134	0xbd0b3afa	-0.03399179
135	0xbccabb33	-0.024747467
136	0x3d874ead	0.06606803
137	0xbc16b380	-0.00919807
138	0x3d209607	0.039205577
139	0x3dc34c45	0.09536032
140	0x3c20711a	0.0097925905
141	0x3b147733	0.0022654056
142	0x3d5deb20	0.05417931
143	0x3d6f71d3	0.05845816
144	0x3dc2d32d	0.09512935
145	0xbd9a2df3	-0.07528295
146	0x3d2a2770	0.041541517
147	0x3971d000	0.00023061037
148	0x3d132203	0.035921108
149	0xbdcb54f2	-0.099283114
150	0x3d282383	0.04104949
151	0x3d21907a	0.039444424
152	0xbce2799a	-0.027645875
153	0xbdc85cd0	-0.097833276
154	0x3db921d5	0.09039656
155	0x3cab7187	0.020928157
156	0x3d0e14c7	0.034687784
157	0xbd87cf88	-0.0663138
158	0xbdb597fd	-0.0886688
159	0x3d73a55a	0.059483863
160	0xbd443e33	-0.04791088
161	0xbdb6db52	-0.08928551
162	0xbdb458b2	-0.0880598
163	0x3d432120	0.047639012
164	0x3d498777	0.049201455
165	0x3d935e9d	0.071957804
166	0x3d3184bd	0.04333948
167	0xbd36b24a	-0.044603623
168	0x3bcf5d1a	0.0063282372
169	0xbd0d1bad	-0.03445022
170	0xbd90cdcb	-0.07070502
171	0xbd2c9e7d	-0.042143334
172	0xbc87d560	-0.016581237
173	0xbc515c80	-0.012778401
174	0xbc9f71c7	-0.019463433
175	0xbdadf905	-0.08494762
176	0xbd1a846d	-0.037723947
177	0xbd54e2f7	-0.051974263
178	0xbcf87c80	-0.030332804
179	0xbd8a363a	-0.06748624
180	0xbd324eda	-0.04353223
181	0x3d86960d	0.06571589
182	0xbdc78738	-0.09742588
183	0xbd7e46ba	-0.06207917
184	0xba2a4400	-0.0006495118
185	0xbd763823	-0.06011213
186	0xbcbe49b3	-0.023228502
187	0xbda65e5a	-0.08123465
188	0xbd2524da	-0.040318348
189	0x3c9d0a53	0.019169962
190	0xbb752a00	-0.0037409067
191	0xbdbf9708	-0.09354979
192	0xba88ae00	-0.0010427833
193	0x3d797690	0.060904086
194	0xbdc893bf	-0.09793805
195	0xbd1cae1d	-0.038251985
196	0xbdb3e4fa	-0.08783908
197	0x3c8d0a60	0.017216861
198	0x3d657e5a	0.0560287
199	0xbcfab493	-0.030603683
200	0x3e3ddf25	0.18542154
201	0x3d682272	0.056673475
202	0xbbcd47d6	-0.006264667
203	0x3e2e278d	0.17007275
204	0x3dc418a0	0.09575009
205	0x3df8dc81	0.12151433
206	0xbd7a4c3b	-0.061107855
207	0x3d9c68f5	0.076372065
208	0x3d309017	0.043106165
209	0x3deb82a2	0.114995256
210	0x3d49719a	0.049180605
211	0x3dbfc4c2	0.093637004
212	0xbeadc7fe	-0.33941644
213	0x3e1c6383	0.15272336
214	0x3d889557	0.06669109
215	0x3da06468	0.07831651
216	0x3d99f12f	0.07516705
217	0xbdb71931	-0.08940352
218	0x3e6e95db	0.23299353
219	0x3f1a00e1	0.6015759
220	0xbdb9aff5	-0.09066764
221	0xbd907432	-0.070534125
222	0xbd15498d	-0.036447097
223	0x3d9cf0c5	0.07663111
224	0xbceda13a	-0.029007543
225	0x3d060e94	0.032728747
226	0x3dbf24fb	0.09333225
227	0x3d42b603	0.04753686
228	0xbc075fa7	-0.008262551
229	0xbdda863e	-0.10670136
230	0x3e5a8b50	0.21342206
231	0xbd288e93	-0.041151594
232	0xbefcf26a	-0.49403697
233	0x3d4932ed	0.049120832
234	0xbd217f2a	-0.039427914
235	0x3d5aab7d	0.0533862
236	0x3ccef460	0.025263011
237	0x3d12448a	0.035709895
238	0xbc8f7660	-0.0175125
239	0xbd7dcf90	-0.061965525
240	0xbdb44060	-0.08801341
241	0x3e9906ea	0.29888088
242	0xbc5b509a	-0.013385916
243	0xbe7bdc0e	-0.24595663
244	0x3e640d1f	0.2227063
245	0xbc8b0122	-0.016968314
246	0xbc5d1580	-0.0134938955
247	0x3e04f271	0.12983109
248	0x3e091871	0.1338823
249	0x3dbd224b	0.092350565
250	0xbe093e25	-0.13402613
251	0x3d1164a8	0.035496384
252	0xbe780dce	-0.24224016
253	0xbda857aa	-0.082198456
254	0x3d47cf6e	0.048781805
255	0xbd754063	-0.059875857

h.2.bias f4 [100]
0	0x3d843134	0.06454697
1	0x3d12e6b7	0.035864558
2	0xb896ff8b	-7.200156e-05
3	0xbca85fda	-0.020553518
4	0xbdc8d703	-0.09806635
5	0xbd4c731d	-0.049914468
6	0x3d0885c9	0.033330712
7	0xbd9e0c55	-0.07717196
8	0xbda1a659	-0.078930564
9	0xbcb0f3f5	-0.021600703
10	0xbd94a1ce	-0.07257424
11	0xbd259b9d	-0.040431608
12	0x3d3d2ba6	0.046184205
13	0xbcbf586f	-0.023357598
14	0x3d9242b1	0.071416266
15	0xbdc941bb	-0.0982699
16	0x3cc9e252	0.02464405
17	0xbd81a495	-0.0633022
18	0xbca01a07	-0.01954366
19	0xbd08d23e	-0.033403628
20	0xbe072084	-0.13195997
21	0x3d83a023	0.06427028
22	0xbdc5da1d	-0.096607424
23	0xbd9e2580	-0.07721996
24	0xbdc86b7a	-0.097861245
25	0xbcb6c9aa	-0.022312958
26	0xbd618853	-0.05506165
27	0x3d0afc31	0.033931915
28	0xbd8ac7e1	-0.06776405
29	0x3dbb816e	0.09155546
30	0x3d7da6d5	0.06192668
31	0x3dac6140	0.084169865
32	0x3cd14a57	0.025548143
33	0x3d8c909e	0.06863521
34	0xbd79ae30	-0.060957134
35	0xb9560333	-0.00020409822
36	0xbdb8def2	-0.090268984
37	0x3d45b370	0.048266828
38	0xbe01a1f9	-0.12659444
39	0x3e0bfaa5	0.13669832
40	0xbe3f397b	-0.18674271
41	0xbcd83ce0	-0.026396215
42	0x3d1bde00	0.038053513
43	0xbda1455e	-0.07874559
44	0x3da85b18	0.082205
45	0xbdbcd718	-0.092207134
46	0xbb75143b	-0.0037396092
47	0x3a1a32bc	0.0005882194
48	0x3d81bf97	0.06335371
49	0xbd97dd95	-0.0741531
50	0xbd423355	-0.047412235
51	0xbd6708c3	-0.05640484
52	0xbda992dd	-0.08279965
53	0xbcf08ee0	-0.029365003
54	0x3ced151d	0.028940732
55	0xbdb1071d	-0.08643935
56	0xbc6fbc3a	-0.014632279
57	0xbb63f967	-0.0034786107
58	0x3cdbfbe1	0.026853504
59	0x3dc4a996	0.096026585
60	0x3da21846	0.07914786
61	0xbcde8f76	-0.027168017
62	0x3c555b2e	0.013022227
63	0x3de44bbd	0.111472584
64	0xbda0be58	-0.07848805
65	0xbd177c67	-0.036983874
66	0x3d441d77	0.047879662
67	0xbd35bb43	-0.04436804
68	0x3da98b40	0.08278513
69	0x3d17fb5a	0.037104942
70	0xbcd0dca3	-0.025495833
71	0xbd6cd170	-0.057816923
72	0x3d0150c0	0.03157115
73	0x3ccf3e8a	0.025298376
74	0xbd0465ef	-0.032323774
75	0xbdecd90c	-0.11564836
76	0x3c4420fa	0.011970753
77	0xbd9fcd97	-0.07802885
78	0xbcb34579	-0.021883713
79	0x3d7ff00f	0.062484797
80	0xbda8af7a	-0.082365945
81	0x3d926953	0.07148995
82	0xbd557810	-0.052116454
83	0xbc9f37db	-0.019435814
84	0xbc867abf	-0.016415952
85	0xbdcd409d	-0.1002209
86	0xbd4ed695	-0.05049761
87	0xbd041777	-0.03224894
88	0xbcdbf059	-0.026848005
89	0xbda99db2	-0.08282031
90	0xbcbcf8d0	-0.023067862
91	0xbd63497f	-0.055490013
92	0xbdad3818	-0.08457965
93	0x3d1d5452	0.038410492
94	0x3d9ab5f9	0.0755424
95	0xbda50317	-0.0805723
96	0xbd91fd05	-0.07128338
97	0x3d9019ba	0.07036157
98	0xbd547960	-0.051873565
99	0x3c8ad8df	0.016949115

h.4.weight f4 [1, 100]
0	0x3eb6e430	0.35720968
1	0x3d0e6327	0.034762528
2	0x3ed453b3	0.41470107
3	0xbe41f4ac	-0.18940991
4	0xbd4af7b0	-0.04955262
5	0x3da4dffa	0.08050533
6	0xbf4e7955	-0.8065389
7	0x3d26142a	0.040546574
8	0x3ce3da99	0.027814196
9	0x3e97647d	0.29568854
10	0xbf106dd9	-0.56417614
11	0xbdb08450	-0.086189866
12	0xbd9bb74c	-0.076033205
13	0xbd1a7662	-0.037710555
14	0xbdba47d9	-0.09095735
15	0x3ef35993	0.47529277
16	0xbf1543e3	-0.5830671
17	0xbc065480	-0.008198857
18	0x3eb3cd0d	0.3511738
19	0xbf23e412	-0.6401988
20	0x3ecc38be	0.3988704
21	0x3d92211b	0.071352206
22	0xbd1bdbdd	-0.038051475
23	0x3ed24df8	0.4107511
24	0x3d5eac73	0.05436368
25	0x3e8fdb82	0.2809716
26	0xbdb64352	-0.08899559
27	0x3e8d96ac	0.27654016
28	0xbd5e073a	-0.05420611
29	0xbf3fffcb	-0.74999684
30	0x3eae06d2	0.33989578
31	0xbd322b3b	-0.04349826
32	0x3ec693da	0.38784677
33	0x3ea52982	0.3225823
34	0x3eb5a557	0.35477707
35	0xbc8c28fa	-0.017109383
36	0x3ee9df89	0.45678356
37	0xbcba42c0	-0.022736907
38	0x3ed9b12e	0.4251799
39	0xbf06764f	-0.52524275
40	0x3efe9236	0.49720925
41	0x3d6ceab7	0.05784103
42	0x3e63b41a	0.22236672
43	0x3eb9d73c	0.36297023
44	0x3d90e37a	0.07074638
45	0xbcb840ed	-0.022491897
46	0x3dc348b0	0.095353484
47	0xbf0b2c78	-0.5436473
48	0xbf2c97d6	-0.67419183
49	0xbbde8e00	-0.00679183
50	0x3e9ed6d0	0.31023264
51	0x3dc134df	0.094339125
52	0xbdc4e9e7	-0.09614926
53	0x3d82c70a	0.0638562
54	0x3e966945	0.2937719
55	0xbcd8d06d	-0.026466573
56	0xbf48aa22	-0.783846
57	0x3daf7fcd	0.08569298
58	0xbefe8577	-0.497112
59	0xbf101768	-0.56285715
60	0xbdad552b	-0.0846351
61	0x3e9f55aa	0.31120044
62	0xbdaed51b	-0.085367404
63	0xbee3493e	-0.44391817
64	0x3eeeca75	0.46638837
65	0xbcd2c510	-0.025728732
66	0xbf5f3952	-0.8719684
67	0xbf39e300	-0.72612
68	0x3ea03560	0.31290722
69	0xbdc982b3	-0.09839382
70	0xbc8175f3	-0.015803313
71	0xbd22d096	-0.039749704
72	0xbb978f67	-0.004625249
73	0x3ed2b9a8	0.4115727
74	0x3dbb8cfd	0.09157751
75	0x3ebd7653	0.37004337
76	0xbf3a3cf7	-0.72749275
77	0x3d99b1fb	0.0750465
78	0x3ec7a42a	0.38992435
79	0xbd6edae4	-0.05831422
80	0xbd54a9bd	-0.051919688
81	0xbf05d0b3	-0.52271575
82	0xbd9f67aa	-0.07783444
83	0x3ee64ebb	0.44981942
84	0x3ec5128f	0.38490722
85	0x3d2c0138	0.04199335
86	0xbe99de9f	-0.3005266
87	0xbf20d80a	-0.6282965
88	0xbf346d1a	-0.70478976
89	0x3d0eb010	0.034835875
90	0x3ec0390f	0.37543532
91	0x3ec0e6ee	0.37676185
92	0x3da0659f	0.07831883
93	0x3e8333f3	0.25625572
94	0xbf10062a	-0.56259406
95	0x3daef337	0.08542483
96	0x3d1205a7	0.03564992
97	0x3e5ce35a	0.21571103
98	0xbc7819c9	-0.015142866
99	0x3e3145b8	0.17311752
