logs/PointMaze-Right/airl_sac/seed0-20231226-1522/model/step15000/disc.pth (torch, 90839 bytes, 10 tensors)

g.0.weight f4 [100, 6]
0	0x3ebbc740	0.36675453
1	0x3ee6378a	0.44964248
2	0xbeab30b4	-0.33435595
3	0xbebc1568	-0.36735082
4	0x3e3c9385	0.18415649
5	0xbe43b93c	-0.1911363
6	0xbe9ae468	-0.30252385
7	0x3e9b26b6	0.30302972
8	0x3e94f2b9	0.29091433
9	0xbe5cfced	-0.21580859
10	0x3e149ff8	0.14514148
11	0x3ead7007	0.33874533
12	0xbe6de4f4	-0.2323187
13	0xbe533bf2	-0.20628336
14	0xbe83226d	-0.25612202
15	0xbcf7f2b5	-0.030267099
16	0x3e55ec66	0.2089096
17	0x3e4f3668	0.20235598
18	0x3d901f08	0.07037169
19	0xbdee6402	-0.11640169
20	0xbe65bd87	-0.2243558
21	0x3e5894a8	0.21150458
22	0x3ead07c6	0.33794993
23	0x3eb4a4a0	0.3528185
24	0xbe9bc23d	-0.3042163
25	0xbd7c5d24	-0.061612263
26	0xbce63376	-0.02810071
27	0xbe441878	-0.19149959
28	0xbe80566a	-0.2506593
29	0x3eac03f9	0.3359678
30	0x3c075e5d	0.008262244
31	0xbeca4b36	-0.39510506
32	0xbe0c63bb	-0.13709919
33	0xbe5bb9db	-0.21457617
34	0x3ca3e87a	0.020008314
35	0x3adcfbc9	0.0016859706
36	0x3c9964ff	0.018724917
37	0xbea75e47	-0.32689115
38	0xbe085af7	-0.1331595
39	0xbe8bfba4	-0.27340424
40	0xbdf9814e	-0.12182866
41	0x3e08a279	0.13343228
42	0x3ce71b53	0.028211271
43	0xbe9cbeef	-0.3061442
44	0x3d27cc31	0.040966216
45	0xbb0b387e	-0.0021243389
46	0x3d7392b2	0.05946607
47	0xbe9f7faa	-0.31152087
48	0x3e2d299e	0.16910407
49	0x3e817cb1	0.25290444
50	0x3e8350ac	0.25647485
51	0x3e6ddd52	0.23228958
52	0xbe19812e	-0.14990684
53	0xbde28a05	-0.110614814
54	0xbcdcd5a4	-0.02695734
55	0xbea4fe90	-0.32225466
56	0x3e725406	0.23664865
57	0xbe29b07d	-0.16571231
58	0xbe96cb78	-0.2945211
59	0xbb868aaf	-0.004105888
60	0x3eb66aeb	0.35628447
61	0x3ebeb327	0.37246057
62	0x3e925221	0.28578284
63	0xbd35a825	-0.04434981
64	0x3ebb47fc	0.36578357
65	0xbdaaf4d5	-0.08347479
66	0x3e595ca5	0.21226747
67	0x3ed1cc04	0.40975964
68	0x3d9ad881	0.07560826
69	0xbe69d28e	-0.22834226
70	0x3ebe4532	0.37162167
71	0xbe1b2653	-0.15151338
72	0xbe098da3	-0.13432936
73	0xbe9d0164	-0.30665123
74	0x3e9a18e1	0.30097106
75	0xbdda4969	-0.10658533
76	0x3eab4979	0.33454493
77	0x3d479610	0.048727095
78	0x3e4bfa9b	0.19919817
79	0xbecd5366	-0.4010269
80	0xbeb4679d	-0.352353
81	0xbe3fc823	-0.1872869
82	0xbe6ed57e	-0.23323628
83	0x3e1559b4	0.14585
84	0xbe31b0f7	-0.17352663
85	0x3dc4204a	0.09576471
86	0x3e85e4d7	0.26151153
87	0x3e8b2a27	0.27180597
88	0xbd8f83b2	-0.07007541
89	0x3e801dd7	0.25022766
90	0x3ec604dd	0.38675585
91	0x3da37a68	0.079823315
92	0xbe780a6e	-0.24222729
93	0x3d8a55c4	0.0675464
94	0x3dae8f41	0.08523417
95	0x3c84b723	0.016200608
96	0xbec5cedc	-0.38634384
97	0xbe9deb29	-0.30843475
98	0x3e80df8c	0.25170553
99	0x3e7fea2f	0.24991678
100	0xbe95a96c	-0.2923082
101	0x3ea08215	0.31349245
102	0x3d801282	0.0625353
103	0x3e26985e	0.16269061
104	0x3d18aabc	0.0372722
105	0x3e145bdd	0.14488168
106	0xbd758931	-0.05994529
107	0x3eb8af15	0.36071077
108	0xbe3c3d29	-0.18382706
109	0xbe9d8fd0	-0.30773783
110	0x3ea53ae8	0.32271504
111	0x3e04aae6	0.12955818
112	0x3e6b393e	0.22971055
113	0x3e80f73f	0.25188634
114	0x3e6080be	0.21924111
115	0xbe80628d	-0.25075188
116	0x3eb8c9a5	0.36091343
117	0x3ed829a8	0.4221928
118	0x3ed5a613	0.41728267
119	0x3d4c7cb6	0.04992362
120	0x3d81549b	0.06314965
121	0x3d8e931c	0.06961653
122	0xbe0b54fc	-0.13606638
123	0x3e4a431a	0.1975216
124	0x3d54f1e8	0.051988512
125	0x3e9216f8	0.2853315
126	0x3e81b693	0.25334606
127	0x3e7f59f5	0.2493666
128	0xbec72852	-0.3889795
129	0x3ea88ba6	0.32919043
130	0xbc099337	-0.008396915
131	0x3ea24698	0.31694484
132	0x3e2254a1	0.15852596
133	0x3e9e7e2f	0.30955645
134	0xbcc6be8f	-0.024260787
135	0xbd8273ac	-0.06369719
136	0x3ea919f9	0.33027628
137	0xbde3bfd4	-0.11120573
138	0x3e673a25	0.22580774
139	0xbe90ee0d	-0.28306618
140	0xbdc86736	-0.09785311
141	0x3e652b85	0.22379883
142	0xbe412da2	-0.18865064
143	0x3e39e403	0.18153386
144	0x3ec4048b	0.38284716
145	0xbe3e5523	-0.18587165
146	0x3e0894a8	0.13337958
147	0xbe06f911	-0.13180949
148	0xbd55fa0b	-0.052240413
149	0xbd9cdc46	-0.07659201
150	0xbe938b76	-0.28817338
151	0x3eb1d720	0.3473444
152	0xbe7579a0	-0.23972178
153	0x3e65fd0f	0.22459815
154	0x3ebc2e7e	0.3675422
155	0x3ec2e4a3	0.3806506
156	0xbe7a9949	-0.24472536
157	0xbe5f8a9e	-0.21830222
158	0x3e78ca3b	0.24295895
159	0x3d85b9f2	0.06529607
160	0xbe9d931e	-0.30776304
161	0x3e146f24	0.14495522
162	0x3e29572e	0.16537163
163	0xbe83be7e	-0.25731272
164	0xbdaea74e	-0.085280046
165	0x3eafaf3b	0.34313378
166	0x3eb570e6	0.35437697
167	0xbce981dc	-0.028504305
168	0xbe6ea9f2	-0.23307016
169	0xbe3f2724	-0.18667275
170	0xbe830614	-0.25590575
171	0x3dc31584	0.09525588
172	0xbe85ac84	-0.2610818
173	0x3e921b92	0.2853666
174	0xbe8b9c94	-0.27267897
175	0xbec8913b	-0.39173302
176	0xbe3f06e7	-0.18654977
177	0xbebdfac0	-0.3710537
178	0xbd05ec15	-0.03269585
179	0xbdc84f0d	-0.09780703
180	0x3ec1d6c3	0.37859163
181	0x3ea55080	0.3228798
182	0x3ed0a57b	0.40751252
183	0xbe3be8cf	-0.18350528
184	0x3e9f82b1	0.31154397
185	0x3e8b4aef	0.27205607
186	0x3e389031	0.18023755
187	0xbdf59960	-0.119921446
188	0x3e99f7e4	0.30071938
189	0x3e98d8ec	0.29852998
190	0xbe700fbb	-0.234435
191	0x3d88662b	0.06660112
192	0x3eb71a8e	0.35762447
193	0x3d9e571a	0.07731457
194	0xbe3902af	-0.1806743
195	0xbec19ad0	-0.37813425
196	0x3d2a0494	0.041508272
197	0x3e05227f	0.1300144
198	0xbd7824ce	-0.060581975
199	0xbd366a96	-0.044535242
200	0x3e034c62	0.12822106
201	0x3ec5b2f5	0.38613096
202	0xbdda0f28	-0.10647422
203	0x3e354667	0.17702638
204	0x3eb7bba6	0.35885352
205	0x3d341ae5	0.04397096
206	0x3eb418fd	0.35175315
207	0xbea3ea96	-0.32014912
208	0x3ec2e46d	0.380649
209	0x3db38c10	0.08766949
210	0x3e0044a3	0.12526183
211	0xbe9cae08	-0.30601525
212	0xbe952104	-0.2912675
213	0xbcee0534	-0.029055215
214	0xbe054910	-0.13016152
215	0xbd7146e6	-0.058905505
216	0xbca1ecd2	-0.019766245
217	0x3d83a08f	0.064271085
218	0xbe61eda6	-0.22063312
219	0x3e4127fe	0.18862912
220	0xbe1d68ea	-0.15372053
221	0xbdd1939c	-0.102332324
222	0x3e5fd037	0.21856771
223	0xbea9fae9	-0.33199242
224	0xbd73e0f4	-0.059540704
225	0x3eadde89	0.33958843
226	0x3ec5b662	0.3861571
227	0xbea46c38	-0.32113814
228	0xbec0c047	-0.37646696
229	0xbeccbe6f	-0.3998904
230	0xbc19c939	-0.009386354
231	0xbe8db011	-0.2767339
232	0x3d7a3e53	0.061094593
233	0x3ecf96ea	0.40544826
234	0x3d253ebe	0.04034304
235	0xbea6e86f	-0.32599208
236	0x3eca3efd	0.3950118
237	0xbe2264ff	-0.1585884
238	0xbeb587b5	-0.354551
239	0x3c9bb98d	0.019009376
240	0xbd346265	-0.04403915
241	0xbe3dd487	-0.18538104
242	0xbe979526	-0.2960598
243	0x3c9d35a1	0.019190611
244	0xbe62bd03	-0.22142415
245	0x3eb24e4f	0.3482537
246	0x3eaaecaf	0.333837
247	0x3eb91c49	0.36154392
248	0x3e536319	0.20643272
249	0x3e18ab81	0.14909174
250	0x3e8b891b	0.2725304
251	0x3e605f70	0.21911407
252	0x3e2ef34f	0.17085002
253	0x3ceb5d07	0.028730882
254	0x3e95be2e	0.29246658
255	0xbdd83233	-0.1055645

g.0.bias f4 [100]
0	0x3e2f3234	0.17108995
1	0x3dd10591	0.1020614
2	0x3d8496bb	0.06474062
3	0x3e2f0649	0.17092241
4	0x3d749573	0.05971284
5	0xbe2e8558	-0.17043054
6	0xbec4b19c	-0.38416755
7	0x3e85b25d	0.26112643
8	0xbecaa6f0	-0.39580488
9	0x3ea157bf	0.31512257
10	0xbe69708a	-0.22796836
11	0xbd8f5a99	-0.06999702
12	0xbebb39a4	-0.36567414
13	0x3e9a6be1	0.3016043
14	0xbecdf508	-0.40226007
15	0x3e5c02ee	0.21485493
16	0xbe93d4a6	-0.28873175
17	0x3dfcd472	0.12345208
18	0x3dfad44d	0.122475244
19	0xbe666cb5	-0.22502406
20	0xbe7d0b46	-0.24711332
21	0xbe040714	-0.12893325
22	0x3ca87b65	0.020566652
23	0x3e95af59	0.29235342
24	0xbec5ac11	-0.3860784
25	0x3eda8fa6	0.4268772
26	0x3eb09090	0.34485292
27	0xbdf0c4ee	-0.11756311
28	0x3e920b0e	0.2852406
29	0xbe224498	-0.15846479
30	0x3ea5db8f	0.32394072
31	0x3eb2c1f5	0.34913602
32	0xbe82b722	-0.25530344
33	0x3e8426ad	0.25810757
34	0xbcc73c4e	-0.024320748
35	0xbe71730d	-0.23579045
36	0xbe7c7da9	-0.2465731
37	0x3e6dd6a6	0.23226413
38	0xbec67436	-0.38760537
39	0xbd51a54b	-0.051183026
40	0x3d89cf77	0.06729024
41	0xbe6a6dfe	-0.22893521
42	0x3e96de2e	0.29466385
43	0x3e1be75d	0.15224977
44	0x3e3032e4	0.17206913
45	0x3da3a5d9	0.07990617
46	0x3eb050ba	0.3443659
47	0xbe93f9f7	-0.28901646
48	0x3de9aefb	0.11410328
49	0xbd5b09ab	-0.053476017
50	0x3967f797	0.00022122111
51	0xbe31b7a3	-0.17355208
52	0xbd474965	-0.04865398
53	0xbe52f763	-0.20602183
54	0x3e86968b	0.2628673
55	0xbec279bf	-0.3798351
56	0xbe9957b4	-0.29949725
57	0x3e89a4c3	0.26883516
58	0x3d3e4174	0.04644914
59	0xbe45848a	-0.19288841
60	0x3e42589b	0.18979113
61	0x3e218be5	0.15776022
62	0x3e4c8f45	0.19976528
63	0x3e51883a	0.20462123
64	0x3e5f6dbf	0.21819209
65	0xbe843263	-0.25819692
66	0xbebb74b4	-0.36612475
67	0x3ddac201	0.106815346
68	0xbea7276d	-0.32647267
69	0x3e72ce04	0.23711401
70	0x3e0ae1ad	0.13562651
71	0xbe7b8dfa	-0.24565879
72	0x3ebff684	0.37492764
73	0x3eb853a8	0.36001325
74	0x3e8725ad	0.26395932
75	0xbe9a0580	-0.3008232
76	0x3da0a1ae	0.07843338
77	0x3dfc9d32	0.1233467
78	0x3d3e9471	0.046528284
79	0x3e2cc65e	0.16872546
80	0x3ed39b28	0.41329312
81	0x3dc9282a	0.09822114
82	0xbebc9ee2	-0.36839968
83	0x3eb7c8cd	0.35895386
84	0x3e848cbd	0.25888625
85	0xbe46097d	-0.19339557
86	0xbeccf0c6	-0.40027446
87	0x3e6d0f8b	0.2315046
88	0x3e95967c	0.29216373
89	0xbe003290	-0.12519288
90	0x3ecfcab6	0.40584344
91	0xbce790cf	-0.028267292
92	0xbec930b0	-0.39294958
93	0x3e7bf0e2	0.24603608
94	0x3e262155	0.16223653
95	0xbe1bdc64	-0.15220791
96	0x3e7091c5	0.23493107
97	0x3e49c6db	0.19704764
98	0xbec1c6c1	-0.3784695
99	0xbebafe56	-0.36522168

g.2.weight f4 [100, 100]
0	0x3ddccc90	0.10781205
1	0x3d848f28	0.064726174
2	0xbdf2602d	-0.1183475
3	0xbdbafdfb	-0.09130474
4	0xbd926ab0	-0.07149255
5	0x3cb9931a	0.022653151
6	0xbbd7ab1a	-0.006581676
7	0xbd6cfb13	-0.05785663
8	0xbcdee893	-0.02721051
9	0xbc178ef7	-0.009250394
10	0x3d8ad02d	0.06777988
11	0x3db3cf28	0.08779746
12	0x3d583260	0.052782416
13	0xbdae9271	-0.08524025
14	0xbd6126b0	-0.054968536
15	0x3d9f0876	0.07765286
16	0x3c1da90d	0.009622824
17	0x3d84e6a4	0.06489304
18	0x3c937781	0.01800132
19	0xbd87081b	-0.06593343
20	0x3ceb34ad	0.028711641
21	0x3e360d15	0.17778428
22	0x3e2571a8	0.16156638
23	0x3d872c90	0.066002965
24	0xbdc16180	-0.09442425
25	0x3dc85d8b	0.09783467
26	0xbe045315	-0.12922318
27	0x3c9ede15	0.019393006
28	0xbe04d413	-0.12971525
29	0x3dcadc5a	0.0990531
30	0x3d36c8cd	0.044625092
31	0x3b54a617	0.003244763
32	0x3cae6e20	0.021292746
33	0xbbe0b700	-0.006857753
34	0xbcf8c276	-0.030366164
35	0x3d3cc31a	0.0460845
36	0x3cf8cba7	0.030370547
37	0xbd070446	-0.03296306
38	0x3aa96800	0.0012924671
39	0x3b983180	0.0046445727
40	0xbd8e6f00	-0.06954765
41	0x3de80fe7	0.11331158
42	0x3d967d69	0.07348139
43	0xbb9b9809	-0.0047483486
44	0xbc27fe36	-0.01025348
45	0xbb07a99e	-0.0020700465
46	0x3d4ad4a6	0.049519204
47	0xbda0b7da	-0.07847567
48	0x3e23628f	0.15955566
49	0xbcecb40f	-0.028894452
50	0x3e192243	0.14954476
51	0xbd618ea0	-0.05506766
52	0xbc264501	-0.010148288
53	0xbd98548a	-0.074379995
54	0xbe1ddf13	-0.15417127
55	0x3d896fb8	0.06710762
56	0x3d4d88c0	0.050179243
57	0xbde748a1	-0.1129315
58	0xbd3dd499	-0.046345327
59	0x3c2044a2	0.009781988
60	0x38ade8c6	8.29264e-05
61	0xbbfd8f95	-0.0077380636
62	0xbd87a355	-0.0662295
63	0x3e07dcf1	0.13267876
64	0x3db26639	0.08710904
65	0xbd676618	-0.05649385
66	0x3d96b15d	0.07358048
67	0x3d0e86fa	0.034796692
68	0xbdbcd867	-0.09220963
69	0xbd9e15fc	-0.07719037
70	0xbcf80804	-0.03027726
71	0x3d8adc3e	0.06780289
72	0x3daf8d4a	0.085718706
73	0xbc8dc60f	-0.017306356
74	0xbd6cb79d	-0.057792295
75	0x3d097d80	0.03356695
76	0xbca5607a	-0.020187605
77	0xbd008e3d	-0.03138565
78	0xbc344ebf	-0.011005103
79	0x3e2dd29f	0.16974877
80	0xbd259215	-0.040422518
81	0xbd1d3e0c	-0.03838925
82	0x3d991fed	0.074767925
83	0xbc7f1ee9	-0.015571334
84	0xbc881917	-0.016613526
85	0xbdb43a27	-0.08800154
86	0xbd81aafd	-0.063314416
87	0x3d98932e	0.07449947
88	0xbdeb3a3a	-0.11485715
89	0x3d91e408	0.07123572
90	0xbda3de49	-0.08001382
91	0xbd08af67	-0.0333704
92	0xbd0cbae3	-0.034357917
93	0xbc8f4160	-0.017487228
94	0x3c63efcb	0.013912152
95	0xbd98a917	-0.07454126
96	0xbd83d8b8	-0.0643782
97	0xbe395343	-0.18098168
98	0xbd8edb3d	-0.0697541
99	0xbd86785d	-0.06565926
100	0x3dcf18c7	0.10112148
101	0x3c032b5d	0.008005944
102	0xbd55dab9	-0.052210543
103	0xbc62c486	-0.0138408
104	0x3dc023c3	0.09381821
105	0x3d58c37a	0.052920796
106	0xbd143cd0	-0.036190808
107	0xbd42087b	-0.04737137
108	0xbd8ca19a	-0.068667606
109	0xbdfb3bb0	-0.12267244
110	0x3e2f7897	0.17135845
111	0xbd2afbe6	-0.041744135
112	0x3dc50aa5	0.09621171
113	0x3d3f914a	0.046769418
114	0x3cd75a40	0.026288152
115	0xbd32f47b	-0.043690186
116	0xbcbc4b2d	-0.022985065
117	0xbd4ecf78	-0.050490826
118	0xbdeeaef1	-0.11654461
119	0xbd806d71	-0.06270874
120	0xbd980378	-0.074225366
121	0x3dd5ba07	0.104358725
122	0x3dd517da	0.1040494
123	0xbda739f3	-0.0816535
124	0xbd0ce3b7	-0.034396853
125	0x3d5cbcf0	0.053891122
126	0xbdb5b943	-0.088732265
127	0xbd3ec93d	-0.046578635
128	0xbddff5e7	-0.10935574
129	0x3d528267	0.051393893
130	0x3dbe9b6c	0.09306988
131	0xbdd28125	-0.102785386
132	0x3da05857	0.078293495
133	0x3d8ceed0	0.06881487
134	0x3d98553e	0.07438134
135	0xbd341917	-0.04396924
136	0xbd600ea3	-0.05470146
137	0xbd822769	-0.06355173
138	0xbda97ea0	-0.08276105
139	0xbdb90488	-0.090340674
140	0x3d8a1178	0.06741613
141	0x3e362724	0.17788368
142	0x3d5afd83	0.053464424
143	0x3d805e87	0.0626803
144	0xbe08808e	-0.1333029
145	0xbd9ba577	-0.07599919
146	0xbdbb7655	-0.091534294
147	0x3da0c3cb	0.078498445
148	0x3d926add	0.07149289
149	0xbd4287ac	-0.047492668
150	0x3dc8d65c	0.09806511
151	0x3dc7fe58	0.09765309
152	0xbd0fdceb	-0.035122793
153	0xbcb19793	-0.021678722
154	0xbdeccd78	-0.115626276
155	0x3d201920	0.03908646
156	0xbcb86be0	-0.022512376
157	0x3d5563cb	0.052097123
158	0x3d34b02d	0.044113327
159	0xbddf6a69	-0.10908968
160	0xbc4ede0a	-0.01262618
161	0x3c9f23bd	0.019426221
162	0x3d8feb0c	0.070272535
163	0x3d88959a	0.06669159
164	0x3d8f619b	0.07001039
165	0xbd4c860e	-0.049932532
166	0x3c7c1067	0.01538477
167	0x3703faf0	7.866634e-06
168	0xba4e2d9a	-0.00078650715
169	0x3d4a524a	0.049394883
170	0xbc8fd28f	-0.017556457
171	0x3d71861c	0.058965787
172	0x3d3fd231	0.046831314
173	0xbd9a0b76	-0.07521717
174	0x3c12395d	0.008924809
175	0x3cb0fe27	0.021605564
176	0xbd8ea885	-0.06965736
177	0xbda6c5a2	-0.08143164
178	0xbd7e0d50	-0.062024415
179	0x3cc6683e	0.024219628
180	0xbc731f81	-0.014839054
181	0x3d9d8b56	0.07692592
182	0xbd8471fd	-0.06467054
183	0x3d0913f5	0.033466298
184	0x3dd37c7f	0.1032648
185	0x3d9fef20	0.07809281
186	0xbcbd7dfa	-0.02313136
187	0x3d72693c	0.05918239
188	0xbcdff067	-0.027336312
189	0x3d6aa9e3	0.057290923
190	0x3d293813	0.041313242
191	0x3c20baf4	0.009810198
192	0xbbc2bce7	-0.005942929
193	0xbda4a745	-0.08039717
194	0x3cb24d62	0.021765415
195	0x3bc38833	0.005967164
196	0xbda16160	-0.07879901
197	0xbd3da8cf	-0.046303567
198	0x3ce04247	0.027375354
199	0x3d7fff93	0.062499594
200	0xbdbbd436	-0.091713354
201	0x3d8728ef	0.06599604
202	0xbdca6ebb	-0.098844014
203	0xbc44295e	-0.011972753
204	0x3d391140	0.045182467
205	0xbd891812	-0.06694044
206	0x3db2755b	0.0871379
207	0x3d5fcef9	0.054640744
208	0xbc8ccd7a	-0.017187823
209	0xbd493069	-0.049118433
210	0xbd547783	-0.051871788
211	0x3bd17dd0	0.006393172
212	0xbc432af3	-0.011912095
213	0xbc7174ec	-0.014737349
214	0x3cd0e6e0	0.025500715
215	0x3c2d082a	0.0105610285
216	0xbd2224d3	-0.0395859
217	0xbd71e102	-0.059052475
218	0xbdcceadf	-0.100057356
219	0xbc37b4dd	-0.011212555
220	0xbd13c173	-0.03607316
221	0x3d2812b3	0.041033458
222	0x3d40f21a	0.047105886
223	0xbd82dea3	-0.06390121
224	0x3d743960	0.05962503
225	0x3c268c90	0.010165349
226	0xbdd24b8e	-0.10268317
227	0xbcf450e5	-0.02982373
228	0xbd906ddc	-0.07052204
229	0xbd8c46a5	-0.06849412
230	0xbcb1bf6f	-0.021697728
231	0x3c84bfe7	0.016204787
232	0xbb9cad9a	-0.004781437
233	0xbc04f271	-0.008114443
234	0xbdc9945a	-0.09842749
235	0x3dc82388	0.09772402
236	0xbc9621cd	-0.018326664
237	0x3d989093	0.0744945
238	0x3dbcec18	0.09224719
239	0xbd3dbcda	-0.04632268
240	0x3da717ab	0.08158811
241	0xbd32d2d7	-0.043658104
242	0xbceec126	-0.029144835
243	0x3b614c0c	0.0034377603
244	0xbdb9cb22	-0.09071948
245	0xbd02f1dd	-0.03196894
246	0x3abe616f	0.0014524887
247	0x3d091f20	0.03347695
248	0x3d68403a	0.056701876
249	0xbd919b45	-0.071096934
250	0x3d9f1730	0.077680945
251	0x3b77d9cd	0.0037819028
252	0xbd9dc640	-0.07703829
253	0x3ba90133	0.0051576137
254	0x3d191d74	0.037381604
255	0xbd6163dd	-0.055026878

g.2.bias f4 [100]
0	0x3d8b6303	0.06805994
1	0xba36a873	-0.000696785
2	0x3d7d7fe7	0.061889555
3	0x3d0479ce	0.032342725
4	0x3c868c0e	0.016424205
5	0x3dbc80e0	0.092042685
6	0xbca2d040	-0.019874692
7	0x3d9bbe3f	0.07604646
8	0xbd95bc80	-0.07311344
9	0x3da555ed	0.0807303
10	0x3c94c24d	0.018159056
11	0xbc0adf80	-0.008476138
12	0x3dee8177	0.11645787
13	0x3c6006b3	0.013673472
14	0x3d136c19	0.03599176
15	0x3d925907	0.07145887
16	0x3d370657	0.04468378
17	0x3c8529c3	0.016255265
18	0xbd9aec25	-0.07564572
19	0x3d0e44ae	0.034733467
20	0xbdb1011f	-0.08642792
21	0x3dcb6948	0.0993219
22	0x3d9b3c8d	0.075799085
23	0x3db0087f	0.085953705
24	0xbdaf12a7	-0.085484795
25	0xbd073242	-0.033006914
26	0x3da9ac5f	0.0828483
27	0xbdcba843	-0.09944203
28	0x3c3ede47	0.011649675
29	0x3de85504	0.113443404
30	0x3b87bdd4	0.0041425023
31	0x3c33b587	0.010968572
32	0xbd37488d	-0.044746924
33	0xbd5f2627	-0.054479744
34	0xbcc613ad	-0.024179304
35	0xbcb19b4b	-0.021680495
36	0xbd2766fa	-0.04086969
37	0x3d47d6e1	0.04878891
38	0x3df490f5	0.11941711
39	0xbd0e5d17	-0.034756746
40	0x3cfde9c7	0.030995263
41	0xbd9eef88	-0.07760531
42	0xbdd5981f	-0.104294054
43	0xbd225317	-0.039630022
44	0x3d8b78d6	0.06810157
45	0xbd2e693e	-0.042580836
46	0xbdc748a6	-0.097306535
47	0x3d4ecd6a	0.050488867
48	0xbd0181d2	-0.031617947
49	0xbd84a1ca	-0.06476171
50	0xbc5aab13	-0.013346451
51	0xbc7bece7	-0.015376306
52	0x3dce61f8	0.1007728
53	0x3de3564a	0.11100443
54	0xbd62ee33	-0.055402946
55	0xbd37e59b	-0.044896703
56	0xbcb7950d	-0.02240994
57	0x3d8c632a	0.068548515
58	0xbc4cda0d	-0.012503159
59	0xbb1e6e00	-0.0024174452
60	0x3bc351d9	0.0059606847
61	0xbb893b20	-0.0041879565
62	0xbb43df0b	-0.0029887583
63	0x3dce8957	0.10084789
64	0x3cb283dd	0.021791393
65	0x3d7ccd64	0.061719313
66	0x3cb08059	0.021545576
67	0xbd9a04ab	-0.075204216
68	0x3d10d052	0.03535492
69	0xbd6f6607	-0.05844691
70	0xbd0e5bc0	-0.03475547
71	0xbb6c5b67	-0.0036065222
72	0xbcac08c0	-0.021000266
73	0x3e02d090	0.12774873
74	0x3e0cad53	0.13737993
75	0xbda22f74	-0.07919207
76	0x3d351a88	0.044214755
77	0x3d3e83a1	0.04651225
78	0xbbaac433	-0.005211377
79	0xbca5a8a9	-0.020222025
80	0xbdb75258	-0.08951253
81	0xbd23406d	-0.039856363
82	0xbd8da28a	-0.069157675
83	0x3d3ecd5a	0.046582557
84	0xbd666919	-0.056252573
85	0x3de873ca	0.1135021
86	0x3b9898a2	0.004656867
87	0xbd2613ba	-0.040546156
88	0x3bf91b67	0.0076021436
89	0x3c3e2ba7	0.011607087
90	0x3ddad225	0.10684613
91	0xbd2ed25a	-0.042681076
92	0xbc1c430d	-0.0095374705
93	0x3d24ca23	0.040231835
94	0x3dff7cb4	0.12474957
95	0x3d2f91b2	0.042863555
96	0x3e0b0dd1	0.1357949
97	0x3d1eadfd	0.038740147
98	0x3c4010d2	0.01172276
99	0x3d657e22	0.056028493

g.4.weight f4 [1, 100]
0	0x3d74446f	0.059635576
1	0x3e0e2a1c	0.13883251
2	0x3db76885	0.089554824
3	0xbdbca8be	-0.092118725
4	0x3c595f94	0.0132674165
5	0xbdcb4039	-0.09924359
6	0x3dc95e97	0.09832495
7	0x3d8e77bb	0.069564305
8	0xbd22e9f3	-0.039773893
9	0xbe164420	-0.14674425
10	0xbd1e40d3	-0.03863604
11	0x3dc70c34	0.097191244
12	0xbda12c44	-0.07869771
13	0xbd98cd05	-0.07460979
14	0xbdeb38b2	-0.11485423
15	0x3d14e346	0.036349557
16	0xbd5ed3ea	-0.054401316
17	0xbe060323	-0.13087134
18	0x39b35667	0.00034205915
19	0x3e1c72f2	0.15278223
20	0xbdc5b9a0	-0.09654546
21	0xbdc0eaec	-0.09419808
22	0xbdfd809b	-0.12378045
23	0x3cac655a	0.021044422
24	0x3bd6999a	0.0065490725
25	0xbda5ffe0	-0.08105445
26	0x3d2be790	0.041968882
27	0xbdc3673d	-0.095411755
28	0x3da0db8a	0.07854374
29	0x3ddda25a	0.10821982
30	0xbdb19576	-0.086710855
31	0x3dbd007c	0.09228608
32	0x3ccc3b67	0.024930669
33	0xbc8a79da	-0.016903806
34	0xbe15ee40	-0.14641666
35	0x3e1b20dd	0.15149255
36	0x3dd85871	0.10563744
37	0x3d96e074	0.0736703
38	0xbd911845	-0.07084707
39	0xbd6823a0	-0.0566746
40	0x3d9ac08a	0.07556255
41	0x3daadaef	0.083425395
42	0x3d8871fe	0.06662367
43	0x3d984692	0.07435335
44	0xbdcf0b8c	-0.10109624
45	0xbde11713	-0.10990729
46	0x3d8092cd	0.06278
47	0xbe255bd6	-0.16148314
48	0xbd9aefca	-0.075652674
49	0x3d808258	0.06274861
50	0x3aae74dc	0.0013309973
51	0x3d51aa90	0.05118805
52	0xbe0a7701	-0.13521959
53	0x3e087f29	0.13329758
54	0x3cc1242d	0.02357682
55	0x3d39c43f	0.04535317
56	0x3d22083a	0.039558627
57	0xbdfa63ed	-0.122260906
58	0xbda076f7	-0.07835191
59	0x3d5b17da	0.053489543
60	0x3c3cbb79	0.011519306
61	0x3dae808f	0.08520614
62	0xbdd4aea9	-0.10384876
63	0xbe024fa1	-0.12725689
64	0xbdb8bdbb	-0.09020563
65	0xbe00ba25	-0.12571009
66	0x3da26c09	0.07930762
67	0xbd0fa5c7	-0.035070207
68	0xbe05554e	-0.13020822
69	0x3e121ff7	0.14270006
70	0x3e092144	0.13391596
71	0x3db830b5	0.08993665
72	0x3db0732f	0.086157195
73	0xbde55bb2	-0.1119913
74	0xbd8d30f9	-0.068941064
75	0x3d96c2ef	0.073613994
76	0x3e254135	0.16138156
77	0x3c034224	0.008011375
78	0xbd0af0ea	-0.03392116
79	0xbd25495a	-0.040353157
80	0xbd4953aa	-0.049152054
81	0xbdf0dc70	-0.11760795
82	0xbda56753	-0.08076348
83	0x3d2a6ca0	0.0416075
84	0x3d47cbc0	0.048778296
85	0xbe13f451	-0.14448668
86	0xbe182dbf	-0.14861201
87	0xbdbf3157	-0.09335583
88	0xbddedae4	-0.10881594
89	0xbd5a83ed	-0.05334847
90	0xbdcbcb0b	-0.09950837
91	0xbd28daca	-0.04122428
92	0x3db1d490	0.08683121
93	0xbdff30f6	-0.124605104
94	0xbd8fe5c3	-0.070262454
95	0xbe168080	-0.14697456
96	0xbd8b057f	-0.06788158
97	0x3da47b84	0.08031371
98	0x3d5c03a4	0.05371441
99	0xbdcff7c3	-0.10154679

h.0.weight f4 [100, 6]
0	0x3e7eb241	0.24872686
1	0x3c83ba68	0.016080096
2	0xbe49328c	-0.19648188
3	0xbddef29c	-0.10886118
4	0x3eb1de62	0.34739977
5	0x3e314588	0.1731168
6	0x3e697dc9	0.2280189
7	0x3eb326c5	0.34990516
8	0xbc3231df	-0.010876148
9	0xbc49229c	-0.012276318
10	0x3ecf7e79	0.40526178
11	0xbdc174e8	-0.09446126
12	0x3ebea696	0.3723647
13	0xbe58b2a7	-0.211619
14	0xbea7b4cd	-0.32755128
15	0x3eac9ad3	0.33711872
16	0xbe66b137	-0.2252854
17	0xbe889089	-0.26672772
18	0x3cb44576	0.022005778
19	0x3d8e224c	0.06940135
20	0xbea391fc	-0.31947315
21	0x3e6a4edf	0.2288165
22	0x3db673ab	0.08908781
23	0xbe704bea	-0.23466459
24	0x3be5cbd0	0.0070128217
25	0x3ecb4709	0.39702633
26	0xbc2f07b3	-0.010682988
27	0x3ec88822	0.3916636
28	0x3e1e1a0e	0.15439627
29	0xbd95c0d6	-0.07312171
30	0x3dd8bb86	0.10582642
31	0xbd87de8c	-0.06634244
32	0xbe0ebe62	-0.13939813
33	0x3eb4f914	0.35346282
34	0x3ec64836	0.38726968
35	0x3e3ccf59	0.18438472
36	0xbd64817c	-0.05578755
37	0xbcb4048a	-0.02197482
38	0xbd0aaece	-0.033858113
39	0xbd806edd	-0.062711455
40	0xbe4dad0a	-0.2008554
41	0x3e0ea0a2	0.13928464
42	0x3e839e63	0.25706777
43	0x3e6fb830	0.23410106
44	0xbe28d98c	-0.16489238
45	0xbeb8066f	-0.35942408
46	0x3e43d702	0.19124988
47	0x3ea05229	0.31312683
48	0xbd988173	-0.074465655
49	0xbcc99ac0	-0.024609923
50	0x3ec625bb	0.3870066
51	0xbeb7b586	-0.3588068
52	0x3e994200	0.29933167
53	0x3e0cdded	0.13756533
54	0x3da90196	0.082522556
55	0x3e8fd662	0.2809325
56	0x3e0b306f	0.13592695
57	0xbe3f2f69	-0.1867043
58	0x3d6f8559	0.05847678
59	0xbe8de64b	-0.27714762
60	0x3ea422c7	0.32057783
61	0x3ea00e4f	0.31260917
62	0x3d64406d	0.055725504
63	0x3e1a2372	0.15052584
64	0xbeb45cea	-0.35227138
65	0x3cc7961d	0.024363572
66	0x3ed2ef18	0.4119804
67	0xbe91eeca	-0.28502494
68	0xbeb2d65d	-0.3492917
69	0xbe824fc0	-0.2545147
70	0xbc71b083	-0.014751556
71	0x3ea2e1af	0.31812808
72	0x3db2aa13	0.08723845
73	0x3df2d02d	0.11856113
74	0xbebf46f3	-0.37358817
75	0xbe49f777	-0.19723307
76	0x3dffd565	0.12491874
77	0x3e260142	0.16211417
78	0x3ed51c27	0.4162304
79	0x3e905b0f	0.28194472
80	0x3d1d3284	0.038378254
81	0xbc0e6fdf	-0.008693664
82	0x3e113763	0.14181285
83	0xbe49ed69	-0.19719471
84	0xbebd217e	-0.36939615
85	0x3ea0ceae	0.31407684
86	0xbe865ee2	-0.26244265
87	0xbeb5f1e9	-0.35536125
88	0x3eb4fda9	0.35349777
89	0x3ea92819	0.33038405
90	0x3d97fb64	0.07420996
91	0x3e0688cc	0.13138121
92	0x3e53f775	0.20699866
93	0x3c93ef27	0.018058373
94	0xbeb161db	-0.3464497
95	0x3cb8dc3f	0.022565959
96	0x3ead369d	0.3383073
97	0x3ee58b3f	0.448328
98	0x3e30d5d7	0.17269073
99	0x3e89ef67	0.26940462
100	0xbe6a9679	-0.22908963
101	0xbea22aa3	-0.31673154
102	0xbd746470	-0.059666097
103	0xbbcc91f4	-0.006242985
104	0xbd88d825	-0.06681851
105	0xbe0431b4	-0.12909585
106	0xbd7b7ffd	-0.061401356
107	0x3ea928c6	0.3303892
108	0x3e20bd5e	0.15697238
109	0x3eb7e3d4	0.35916007
110	0x3a21db92	0.0006174381
111	0x3d7fd9be	0.062463515
112	0x3db6f021	0.0893252
113	0x3e265309	0.16242613
114	0xbe4b53e0	-0.19856215
115	0x3eb731f4	0.357803
116	0xbdbbb244	-0.09164861
117	0xbd42c183	-0.04754783
118	0xbe916a37	-0.28401348
119	0xbe6d0bad	-0.23148985
120	0x3cb232ca	0.021752734
121	0xbecc13f8	-0.39858985
122	0xbe2131d7	-0.15741669
123	0xbdb9774e	-0.09055959
124	0x3e9a931e	0.30190367
125	0xbe8719a1	-0.2638674
126	0x3e93f52a	0.28897983
127	0xbe5a0a3c	-0.21292967
128	0xbe77dfc5	-0.24206455
129	0xbe4451d7	-0.19171844
130	0xbec3bee1	-0.38231567
131	0xbca336fd	-0.019923681
132	0xbe628de9	-0.22124447
133	0xbe44f16e	-0.19232723
134	0x3eb2745f	0.3485441
135	0xbe2b61d2	-0.16736534
136	0x3ec6011b	0.38672718
137	0xbec9516a	-0.39319927
138	0x3ec163d3	0.37771472
139	0xbdb1fb1b	-0.08690473
140	0x3d516369	0.051120196
141	0x3ec10d1e	0.3770532
142	0x3ea6ff3a	0.32616597
143	0xbc49f491	-0.012326376
144	0xbeaccbcd	-0.33749238
145	0xbeb73ded	-0.35789433
146	0xbd0761a1	-0.03305209
147	0xbd7c38f6	-0.06157776
148	0xbe7ff178	-0.24994457
149	0xbeb13fac	-0.3461889
150	0x3e3e3ffd	0.18579097
151	0xbebb4559	-0.36576346
152	0x3e9f2bda	0.31088144
153	0x3e0ae9a4	0.1356569
154	0x3ea9b062	0.33142382
155	0x3e41063f	0.18850039
156	0xbe5042c7	-0.20337974
157	0x3e0290e9	0.12750591
158	0xbe358b45	-0.17728908
159	0xbd9ebd4b	-0.077509485
160	0x3e82e846	0.25567836
161	0xbdb29836	-0.08720438
162	0x3d965b14	0.073415905
163	0xbe77b9c4	-0.24191958
164	0xbeb81017	-0.35949776
165	0x3e0b09aa	0.13577905
166	0xbea55889	-0.3229411
167	0xbc475914	-0.012167234
168	0x3e1114c6	0.1416808
169	0xbe8d5906	-0.27606982
170	0xbe4ccbe3	-0.19999652
171	0x3ea0596b	0.3131822
172	0xbe9b6ac5	-0.30354896
173	0x3e1cecfc	0.15324777
174	0xbe851214	-0.25990355
175	0xbe9ec30d	-0.31008187
176	0x3ec88446	0.39163417
177	0x3daafd69	0.083491154
178	0xbd213211	-0.039354388
179	0x3eac8466	0.33694762
180	0x3eb8257e	0.35966104
181	0x3eab1c3c	0.3341998
182	0xbc1525d5	-0.009103258
183	0xbe6a376c	-0.22872704
184	0x3e4b806a	0.19873205
185	0x3e3bf337	0.18354498
186	0x3e84a84d	0.25909653
187	0xbd79a753	-0.06095059
188	0x3ca63faf	0.020294039
189	0xbe579b46	-0.21055326
190	0xbe958090	-0.29199648
191	0x3d4de78b	0.050269645
192	0xbebe4aba	-0.37166387
193	0xbdf1a7b5	-0.11799566
194	0x3eabd73c	0.33562648
195	0xbd03b68e	-0.03215652
196	0x3e0fbc89	0.14036764
197	0xbd0a3fea	-0.03375236
198	0xbec1e0f3	-0.37866935
199	0x3e63479d	0.22195287
200	0x3e9663e5	0.29373088
201	0xbe5a7a56	-0.2133573
202	0xbe21a4b2	-0.15785483
203	0x3d9c55d5	0.07633559
204	0x3e488567	0.19582139
205	0x3e079ced	0.13243456
206	0x3d9e1ef8	0.077207506
207	0xbd3eada4	-0.046552315
208	0x3ea35cfe	0.31906885
209	0xbebacd21	-0.36484626
210	0xbea068db	-0.31329998
211	0xbe8226e3	-0.25420293
212	0xbd8a84a7	-0.06763583
213	0x3c275c07	0.010214812
214	0xbe70d805	-0.23519905
215	0x3d5a9919	0.05336866
216	0xbe0442dd	-0.12916131
217	0x3e330a4e	0.174844
218	0x3ebfe032	0.37475735
219	0xbe76c999	-0.24100341
220	0xbe5332e0	-0.20624876
221	0xbe38fa0f	-0.1806414
222	0xbe289a6f	-0.16465162
223	0x3eb1b064	0.34704888
224	0x3eaf3793	0.34222087
225	0xbdea6f14	-0.11446968
226	0xbe827268	-0.2547791
227	0xbeb7da02	-0.35908514
228	0x3e98291c	0.29718864
229	0xbeb40812	-0.35162407
230	0xbeabd3a2	-0.335599
231	0xbe1ee713	-0.15517835
232	0xbeb658f3	-0.35614738
233	0x3c52e94a	0.012873003
234	0xbe94eaa1	-0.29085258
235	0x3e15ec20	0.14640856
236	0xbd080634	-0.03320904
237	0xbea6b4dd	-0.32559863
238	0x3e77c2a8	0.24195349
239	0xbe0d84d9	-0.13820209
240	0xbeb5d152	-0.3551126
241	0xbe52cf95	-0.20586999
242	0x3e526d14	0.20549423
243	0x3eac0d25	0.33603778
244	0x3d470549	0.048589025
245	0x3e5d3919	0.21603812
246	0x3e06ec43	0.13176064
247	0xbeb0c093	-0.34521922
248	0xbd4c582c	-0.049888775
249	0xbe4f0a68	-0.20218813
250	0xbdcd57a0	-0.10026479
251	0x3ecdc719	0.40190962
252	0x3e0ceb0a	0.13761535
253	0xbdd5c0f0	-0.104371905
254	0xbe5eefda	-0.21771184
255	0xbea7f3e0	-0.3280325

h.0.bias f4 [100]
0	0x3e65bbe1	0.22434951
1	0x3e6ebe7c	0.23314852
2	0x3e551059	0.20807017
3	0x3e0d650b	0.13808076
4	0xbda0d9d0	-0.078540444
5	0xbdd2748b	-0.10276135
6	0x3eb30711	0.3496633
7	0xbe8b62b8	-0.27223754
8	0xbeae8d5b	-0.3409222
9	0x3dfe8a85	0.12428764
10	0xbe8af933	-0.2714325
11	0xbe0abbae	-0.13548157
12	0x3d2e8950	0.04261142
13	0x3e5e265d	0.21694322
14	0xbe97de10	-0.29661608
15	0xbe348bc8	-0.17631447
16	0x3d351577	0.044209924
17	0x3d8d05f0	0.06885898
18	0x3c77f629	0.015134373
19	0x3bc3a1a7	0.005970198
20	0xbe9cad58	-0.30601
21	0x3b2bcf0a	0.0026215934
22	0xbe907cf1	-0.28220323
23	0x3cd03919	0.025417851
24	0xbdf4491c	-0.11928007
25	0x3e82a455	0.25516
26	0xbe60c070	-0.21948409
27	0xbe862743	-0.2620183
28	0xbeacd7c2	-0.3375836
29	0x3e8a7f29	0.2705014
30	0x3dc791dd	0.09744618
31	0xbe046196	-0.12927851
32	0x3c91cf40	0.01779902
33	0x3e97fa4f	0.29683158
34	0x3e94312f	0.28943774
35	0xbdeabc0f	-0.114616506
36	0xbe4cbd0c	-0.1999399
37	0xbe596339	-0.21229257
38	0xbea2edc6	-0.31822032
39	0xbe6368ec	-0.22207993
40	0xbe89139d	-0.26772776
41	0x3e60efee	0.21966526
42	0xbde2f4c7	-0.11081844
43	0xbe017f90	-0.12646317
44	0x3ccea3eb	0.025224647
45	0x3ec40e5d	0.38292208
46	0xbea2e019	-0.31811598
47	0x3d8b6fbd	0.06808422
48	0x3e8fb1b5	0.28065267
49	0xbe208058	-0.1567396
50	0xbe96b2c6	-0.29433268
51	0x3ecd2cf1	0.4007335
52	0x3e97ed97	0.29673454
53	0xbe969faf	-0.29418704
54	0x3eb71d2d	0.35764447
55	0xbead893c	-0.33893764
56	0xbe653390	-0.22382951
57	0x3e38d627	0.18050443
58	0x3e349df7	0.17638384
59	0x3cda7147	0.026665343
60	0x3e4f74b0	0.20259356
61	0xbe94650f	-0.28983352
62	0xbe838f5c	-0.25695312
63	0x3ed89fa2	0.4230929
64	0x3eac4513	0.3364645
65	0x3e61bfea	0.22045866
66	0x3d461f09	0.04836944
67	0xbe3aa84a	-0.1822826
68	0x3ecfc6ea	0.40581447
69	0x3e7ca8a2	0.24673703
70	0x3e9e13fa	0.30874616
71	0xbe772421	-0.24134876
72	0x3e94871a	0.29009324
73	0xbd693233	-0.05693264
74	0x3ec3c832	0.38238674
75	0xbe037729	-0.12838425
76	0x3ea211b3	0.31654128
77	0x3d1e896e	0.038705282
78	0x3eaf0023	0.34179792
79	0x3deca7e5	0.11555461
80	0x3e4f7051	0.20257689
81	0xbe9c5b00	-0.30538177
82	0x3eb7de08	0.35911584
83	0xbda7bcbb	-0.08190294
84	0xbeb22e4b	-0.34800944
85	0x3dcba449	0.09943444
86	0x3e9bb716	0.3041312
87	0xbec7d237	-0.3902757
88	0xbea343f8	-0.31887794
89	0xbe8aacc2	-0.2708493
90	0x3e2ace59	0.16680278
91	0x3e26e6c3	0.16298966
92	0x3ea30fbb	0.3184794
93	0xbcf2dbba	-0.02964579
94	0x3e73469b	0.23757403
95	0x3dce20ba	0.10064836
96	0x3e69657a	0.22792616
97	0x3ebe3b13	0.37154445
98	0x3db9d9ac	0.09074721
99	0xbdabd7f7	-0.083908014

h.2.weight f4 [100, 100]
0	0x3d67a06f	0.056549486
1	0x3dc295a2	0.095011964
2	0x3dccf341	0.100073345
3	0xbbb3c132	-0.005485677
4	0x3d7a898e	0.06116634
5	0xbd844e16	-0.06460206
6	0xbcfc2723	-0.03078038
7	0xbcfa00c9	-0.030517953
8	0xbdc1d100	-0.09463692
9	0xbd5a5b82	-0.053309925
10	0xbc8a4633	-0.016879177
11	0x3da36a67	0.07979279
12	0x3d7937a6	0.060844086
13	0x3aa770e6	0.0012774735
14	0xbcf8b642	-0.030360345
15	0xbca5a033	-0.02021799
16	0xbdd283da	-0.10279055
17	0x3d6ba999	0.057534788
18	0xbdaf844f	-0.08570158
19	0x3c26c0c9	0.0101777995
20	0x3cf89a67	0.030347062
21	0x3da148f5	0.078752436
22	0xbbeb1d00	-0.007175088
23	0xbc6f261d	-0.014596489
24	0xbd9ae147	-0.075624995
25	0x3db3ef07	0.08785825
26	0x3d8416bf	0.06449651
27	0xbd2e96ba	-0.042624213
28	0xbd55c4b3	-0.05218954
29	0x3db0a95d	0.086260535
30	0xbc6bf33b	-0.014401252
31	0x3d412ae0	0.04716003
32	0xbc0d0450	-0.008606985
33	0x3d72b66e	0.05925601
34	0xbcad9c9c	-0.021192841
35	0xbd8a1e2d	-0.06744037
36	0xbd8014f3	-0.06253996
37	0xbd0ae71d	-0.033911813
38	0x3c5ff95a	0.01367029
39	0xbcb0573a	-0.021525968
40	0x3d018ad0	0.031626523
41	0x3e0b13b1	0.1358173
42	0x3d09a9da	0.03360925
43	0xbdc80bcb	-0.09767874
44	0x3daf293f	0.08552789
45	0x3cccde99	0.025008487
46	0x3d3d2d0a	0.04618553
47	0x3cb9e673	0.022692895
48	0xbda165dc	-0.07880756
49	0xbbc8bb4d	-0.0061258436
50	0x3c63266a	0.013864139
51	0x3d25ae3d	0.04044937
52	0x3e102283	0.14075665
53	0xbca25f33	-0.019820785
54	0xbd7634f1	-0.060109083
55	0x3b1daf9a	0.0024060966
56	0xbd735e77	-0.05941626
57	0xba29dd3a	-0.00064798037
58	0xbd0f7acc	-0.035029218
59	0xbd0cd141	-0.034379248
60	0x3e005c20	0.12535143
61	0xbc05bdf5	-0.008162965
62	0xbb9629a4	-0.0045826007
63	0x3da2f3d2	0.07956661
64	0x3d9cc626	0.07654981
65	0x3d12994c	0.035790727
66	0x3d0e488a	0.034737147
67	0x3d45e960	0.048318267
68	0x3e07e12d	0.13269491
69	0xbd4d6143	-0.050141584
70	0x3c11e602	0.008904936
71	0x3cf25b00	0.029584408
72	0xbd3ebdd6	-0.04656776
73	0xbd4035b7	-0.046926226
74	0x3d94e817	0.0727083
75	0xbdc29648	-0.0950132
76	0x3d65f025	0.056137223
77	0x3dc7b348	0.09750992
78	0x3d0e74fb	0.03477953
79	0xbd6c9493	-0.05775888
80	0x3de92aaf	0.113850944
81	0xbcd340ba	-0.0257877
82	0xbd86ebe8	-0.06587964
83	0xbda1156c	-0.07865414
84	0x3d9cd658	0.0765807
85	0xbd006a70	-0.031351507
86	0x3d8f138d	0.06986151
87	0x3cd54707	0.026034845
88	0xbd1e7740	-0.038687944
89	0xbd91e4ef	-0.07123744
90	0x3c258695	0.010102888
91	0x3c07c26d	0.008286101
92	0xbd7c248d	-0.061558295
93	0x3d8ef082	0.06979467
94	0x3db5516d	0.08853421
95	0xbcaeb040	-0.021324277
96	0x3c8ce6ed	0.017199958
97	0x3e01f9c1	0.1269293
98	0xbbd1c7a3	-0.0064019724
99	0xbd3aa36d	-0.04556601
100	0xbd67b8a3	-0.056572568
101	0xbd4e4c37	-0.050365653
102	0x3be0ee1a	0.0068643214
103	0xbbb971cd	-0.005659318
104	0x3d0ebc43	0.03484751
105	0x3db17de0	0.08666587
106	0xbc714167	-0.014725066
107	0xbd034837	-0.03205129
108	0xbcdaaef3	-0.02669475
109	0xbd8cdf8d	-0.068785764
110	0x3cf8d22d	0.030373657
111	0x3d3b28d0	0.04569322
112	0xbdbec223	-0.093143724
113	0xbc8fb0a0	-0.017540276
114	0x3d67d02d	0.056595016
115	0x3cf04873	0.029331421
116	0xbd3e7257	-0.04649576
117	0x3d3e4e07	0.04646113
118	0x3da7d2f2	0.081945315
119	0xbdac1e07	-0.08404165
120	0x3cc4d207	0.02402593
121	0xbd1eec77	-0.03879973
122	0xbdbf4940	-0.09340143
123	0x3c326cc0	0.010890186
124	0xbd3cae87	-0.04606488
125	0x3d57830d	0.052615214
126	0x3d6a23f7	0.057163205
127	0x3d4f4827	0.05060592
128	0xba497267	-0.0007684589
129	0xbdb8d655	-0.090252556
130	0xbda26467	-0.079293065
131	0x3d29bbd3	0.04143889
132	0xbda03223	-0.07822063
133	0xbd68429a	-0.05670414
134	0xbd0b3afa	-0.03399179
135	0xbccabb33	-0.024747467
136	0x3d874ead	0.06606803
137	0xbc16b380	-0.00919807
138	0x3d209607	0.039205577
139	0x3dc34c45	0.09536032
140	0x3c20711a	0.0097925905
141	0x3b147733	0.0022654056
142	0x3d5deb20	0.05417931
143	0x3d6f71d3	0.05845816
144	0x3dc2d32d	0.09512935
145	0xbd9a2df3	-0.07528295
146	0x3d2a2770	0.041541517
147	0x3971d000	0.00023061037
148	0x3d132203	0.035921108
149	0xbdcb54f2	-0.099283114
150	0x3d282383	0.04104949
151	0x3d21907a	0.039444424
152	0xbce2799a	-0.027645875
153	0xbdc85cd0	-0.097833276
154	0x3db921d5	0.09039656
155	0x3cab7187	0.020928157
156	0x3d0e14c7	0.034687784
157	0xbd87cf88	-0.0663138
158	0xbdb597fd	-0.0886688
159	0x3d73a55a	0.059483863
160	0xbd443e33	-0.04791088
161	0xbdb6db52	-0.08928551
162	0xbdb458b2	-0.0880598
163	0x3d432120	0.047639012
164	0x3d498777	0.049201455
165	0x3d935e9d	0.071957804
166	0x3d3184bd	0.04333948
167	0xbd36b24a	-0.044603623
168	0x3bcf5d1a	0.0063282372
169	0xbd0d1bad	-0.03445022
170	0xbd90cdcb	-0.07070502
171	0xbd2c9e7d	-0.042143334
172	0xbc87d560	-0.016581237
173	0xbc515c80	-0.012778401
174	0xbc9f71c7	-0.019463433
175	0xbdadf905	-0.08494762
176	0xbd1a846d	-0.037723947
177	0xbd54e2f7	-0.051974263
178	0xbcf87c80	-0.030332804
179	0xbd8a363a	-0.06748624
180	0xbd324eda	-0.04353223
181	0x3d86960d	0.06571589
182	0xbdc78738	-0.09742588
183	0xbd7e46ba	-0.06207917
184	0xba2a4400	-0.0006495118
185	0xbd763823	-0.06011213
186	0xbcbe49b3	-0.023228502
187	0xbda65e5a	-0.08123465
188	0xbd2524da	-0.040318348
189	0x3c9d0a53	0.019169962
190	0xbb752a00	-0.0037409067
191	0xbdbf9708	-0.09354979
192	0xba88ae00	-0.0010427833
193	0x3d797690	0.060904086
194	0xbdc893bf	-0.09793805
195	0xbd1cae1d	-0.038251985
196	0xbdb3e4fa	-0.08783908
197	0x3c8d0a60	0.017216861
198	0x3d657e5a	0.0560287
199	0xbcfab493	-0.030603683
200	0x3dd981d9	0.106204696
201	0xbd4109a3	-0.04712833
202	0xbca6f706	-0.020381462
203	0x3dea889c	0.114518374
204	0xbca8243f	-0.020525096
205	0x3dde7e7c	0.10863969
206	0xbbd9d3e1	-0.0066475724
207	0x3db4bf23	0.08825519
208	0x3d309017	0.043106165
209	0x3c09a863	0.008401963
210	0x3d49719a	0.049180605
211	0xbd5e5f7b	-0.054290276
212	0xbdefd267	-0.11710053
213	0xbbca90f3	-0.00618183
214	0xbd6c7c17	-0.05773553
215	0x3da06468	0.07831651
216	0xbdcb9b6e	-0.09941755
217	0xbdc6ecc1	-0.09713126
218	0x3d39967e	0.045309536
219	0x3dd9fc5c	0.10643837
220	0xbdb9aff5	-0.09066764
221	0xbd907432	-0.070534125
222	0xbd15498d	-0.036447097
223	0x3ce9290a	0.028461952
224	0xbceda13a	-0.029007543
225	0x3d5fca23	0.054636132
226	0x3dbf24fb	0.09333225
227	0x3d42b603	0.04753686
228	0xbc075fa7	-0.008262551
229	0x3dc844b8	0.09778732
230	0x3d8ee0c5	0.06976465
231	0xbd288e93	-0.041151594
232	0xbd9ed372	-0.07755174
233	0x3d372288	0.044710666
234	0xbd0b44fe	-0.034001343
235	0x3d5aab7d	0.0533862
236	0x3ccef460	0.025263011
237	0x3d12448a	0.035709895
238	0xbc8f7660	-0.0175125
239	0xbd7dcf90	-0.061965525
240	0xbdb44060	-0.08801341
241	0x3d5bdc94	0.053677157
242	0xbc5b509a	-0.013385916
243	0xbcf0f5d5	-0.029414097
244	0xbcc793c8	-0.02436246
245	0x3b373c96	0.0027959696
246	0xbc5d1580	-0.0134938955
247	0x3d585265	0.052812953
248	0x3d98599d	0.074389674
249	0x3dbd224b	0.092350565
250	0xbda50f78	-0.08059591
251	0x3cc726f9	0.024310576
252	0xbd25ea92	-0.040506907
253	0xbda857aa	-0.082198456
254	0x3d8ab16e	0.06772123
255	0xbd754063	-0.059875857

h.2.bias f4 [100]
0	0x3dd725f9	0.105052896
1	0x3d12e6b7	0.035864558
2	0x3da0c892	0.07850756
3	0xba944a40	-0.0011313632
4	0xbdc8d703	-0.09806635
5	0xbd4c731d	-0.049914468
6	0x3d144cfa	0.036206223
7	0xbd9e0c55	-0.07717196
8	0xbd9a24a8	-0.07526523
9	0x3c72f756	0.014829477
10	0xbd55b2cb	-0.052172463
11	0xbcfda6ef	-0.03096339
12	0x3d52402c	0.05133073
13	0xbc8b49e0	-0.017003
14	0x3d9eeabc	0.07759616
15	0x3bb346d5	0.0054710903
16	0x3cb83bbe	0.022489425
17	0xbd81a495	-0.0633022
18	0x3d90ec64	0.07076338
19	0xbd297225	-0.041368622
20	0xbd84cc88	-0.06484324
21	0x3d83a023	0.06427028
22	0xbdc5da1d	-0.096607424
23	0xbdc9a09a	-0.098450854
24	0xbdc86b7a	-0.097861245
25	0x3daceb1e	0.084432825
26	0xbd618853	-0.05506165
27	0x3d4b2aa3	0.04960121
28	0xbd85a386	-0.0652533
29	0x3da5c76f	0.080946796
30	0x3db75e87	0.089535765
31	0x3dad16e9	0.084516354
32	0x3d95f55b	0.073221885
33	0x3dfe2b1b	0.124105655
34	0xbb3fae59	-0.0029248206
35	0xb9560333	-0.00020409822
36	0xbd65004a	-0.05590848
37	0x3d45b370	0.048266828
38	0xbc222765	-0.009897088
39	0x3d0fcac9	0.0351055
40	0xbd7f7517	-0.062367525
41	0xbcd83ce0	-0.026396215
42	0x3de0154c	0.10941562
43	0xbd7561fd	-0.059907902
44	0x3da85b18	0.082205
45	0xbdbcd718	-0.092207134
46	0x3a941400	0.0011297464
47	0xbd6456ef	-0.05574697
48	0x3da9cf25	0.08291463
49	0xbd97dd95	-0.0741531
50	0xbcee9023	-0.029121464
51	0xbd6708c3	-0.05640484
52	0xbda992dd	-0.08279965
53	0xbcf08ee0	-0.029365003
54	0x3e063f53	0.13110094
55	0xbdb1071d	-0.08643935
56	0xbcf10b61	-0.029424371
57	0xbb63f967	-0.0034786107
58	0x3d0dd4f2	0.03462691
59	0x3dc1e25f	0.09467005
60	0x3da72b63	0.08162572
61	0x3d953e77	0.07287305
62	0x3c8902a7	0.016724898
63	0x3d7420d1	0.05960161
64	0xbc829df3	-0.015944457
65	0xbcf1932b	-0.02948912
66	0x3d2e9d3c	0.04263042
67	0xbd38e817	-0.045143213
68	0x3de6e321	0.1127379
69	0x3d17fb5a	0.037104942
70	0xbcd0dca3	-0.025495833
71	0xbd42b1dd	-0.047532905
72	0x3d0150c0	0.03157115
73	0x3ddaa3b4	0.10675755
74	0xbcf46f44	-0.029838212
75	0xbcf1a6b5	-0.029498437
76	0x3bdb0325	0.0066837245
77	0xbd9fcd97	-0.07802885
78	0x3d994321	0.07483507
79	0x3d7ff00f	0.062484797
80	0xbda8af7a	-0.082365945
81	0x3daedb2b	0.08537897
82	0xbd557810	-0.052116454
83	0x3d4164ba	0.0472152
84	0x3bd3069f	0.0064399983
85	0xbdc9eaa9	-0.09859211
86	0xbd162cbd	-0.03666376
87	0xbd342785	-0.043983
88	0xbd1907fb	-0.037361126
89	0xbda99db2	-0.08282031
90	0x3d93ddb0	0.07220018
91	0x3d2d5f1b	0.042327028
92	0xbdad3818	-0.08457965
93	0x3e12e0b9	0.14343537
94	0x3d87b036	0.066254064
95	0xbda50317	-0.0805723
96	0xbd91fd05	-0.07128338
97	0x3de52317	0.111883335
98	0xbd481ef5	-0.048857648
99	0x3d9b6252	0.075871125

h.4.weight f4 [1, 100]
0	0x3e1109c2	0.14163879
1	0x3d0e6327	0.034762528
2	0x3e07b030	0.13250804
3	0xbdc86e25	-0.097866334
4	0xbd4af7b0	-0.04955262
5	0x3da4dffa	0.08050533
6	0xbd97063d	-0.07374237
7	0x3d26142a	0.040546574
8	0x3ce58c87	0.02802111
9	0x3d9d246a	0.07672961
10	0xbd3d6c22	-0.0462457
11	0xbdb7f147	-0.08981567
12	0xbd93ce00	-0.07217026
13	0xbd3bbdf7	-0.04583546
14	0xbdbca289	-0.092106886
15	0x3d6e4964	0.05817546
16	0xbd82c1e4	-0.06384638
17	0xbc065480	-0.008198857
18	0x3dbaea47	0.09126716
19	0xbd68d424	-0.056842938
20	0x3de92686	0.11384301
21	0x3d92211b	0.071352206
22	0xbd1bdbdd	-0.038051475
23	0x3d96c5e8	0.07361966
24	0x3d5eac73	0.05436368
25	0x3d4c3281	0.04985285
26	0xbdb64352	-0.08899559
27	0x3d879d9d	0.06621859
28	0xbd66f042	-0.05638147
29	0xbd4e860f	-0.050420817
30	0x3dde6079	0.108582444
31	0xbd327b57	-0.043574657
32	0x3e1b5d2c	0.15172261
33	0x3de4ce01	0.111721046
34	0x3da847d7	0.08216827
35	0xbc8c28fa	-0.017109383
36	0x3d37aebd	0.044844378
37	0xbcba42c0	-0.022736907
38	0x3e133c46	0.14378461
39	0xbdd4852a	-0.103769615
40	0x3d8b77b1	0.06809939
41	0x3d6ceab7	0.05784103
42	0x3e009ba2	0.12559369
43	0x3dcca5e7	0.09992581
44	0x3d90e37a	0.07074638
45	0xbcb840ed	-0.022491897
46	0x3dc6d075	0.09707729
47	0xbd789332	-0.06068725
48	0xbdb2be87	-0.087277465
49	0xbbde8e00	-0.00679183
50	0x3de9c631	0.11414755
51	0x3dc134df	0.094339125
52	0xbdc4e9e7	-0.09614926
53	0x3d82c70a	0.0638562
54	0x3d84b917	0.064806156
55	0xbcd8d06d	-0.026466573
56	0xbdb19916	-0.08671777
57	0x3daf7fcd	0.08569298
58	0xbc7838b3	-0.015150237
59	0xbdce8c3c	-0.10085341
60	0xbdadf031	-0.084930785
61	0x3daf34e0	0.08555007
62	0xbdaef56f	-0.085429065
63	0xbdae372c	-0.08506617
64	0x3dd814fb	0.10550877
65	0xbcd3af79	-0.025840508
66	0xbc50850d	-0.012727034
67	0xbe0e4a33	-0.13895492
68	0x3da6d11f	0.081453554
69	0xbdc982b3	-0.09839382
70	0xbc8175f3	-0.015803313
71	0xbd2b2253	-0.04178078
72	0xbb978f67	-0.004625249
73	0x3de1da5d	0.110279776
74	0x3dbbf79e	0.091780886
75	0x3dfb73e9	0.122779675
76	0xbda3d633	-0.0799984
77	0x3d99b1fb	0.0750465
78	0x3e05634c	0.1302616
79	0xbd6edae4	-0.05831422
80	0xbd54a9bd	-0.051919688
81	0xbdda86d2	-0.10670246
82	0xbd9f67aa	-0.07783444
83	0x3d9fb3f9	0.07797999
84	0x3dd2a236	0.102848455
85	0x3d2bd475	0.04195066
86	0xbd07148c	-0.03297858
87	0xbd1640b3	-0.036682796
88	0xbdff277e	-0.124587044
89	0x3d0eb010	0.034835875
90	0x3e0a674c	0.13515967
91	0x3dce0006	0.10058598
92	0x3da0659f	0.07831883
93	0x3d32dae9	0.0436658
94	0xbd3f3076	-0.046677075
95	0x3daef337	0.08542483
96	0x3d1205a7	0.03564992
97	0x3d2f0300	0.04272747
98	0xbc8331fc	-0.016015045
99	0x3daa67fb	0.08320614
