logs/PointMaze-Right/airl_sac/seed0-20231226-1522/model/step640000/disc.pth (torch, 90839 bytes, 10 tensors)

g.0.weight f4 [100, 6]
00000000: 4e05 103f 4f8e e83e b430 abbe c976 26bf
00000010: 8309 033e 3cb9 43be ea80 bfbe 5901 043e
00000020: b9f2 943e 16a9 38be bb55 3c3e 0770 ad3e
00000030: bdf5 76bf 54f6 afbd 6d22 83be 450c a43e
00000040: 86b0 d83d 6836 4f3e 983f a5bd f8bf 33be
00000050: 87bd 65be ee4d 853e e3b7 af3e a0a4 b43e
00000060: 3dc2 9bbe 245d 7cbd 7633 e6bc 7818 44be
00000070: 6a56 80be f903 ac3e 5d5e 073c 364b cabe
00000080: bb63 0cbe dbb9 5bbe 7ae8 a33c c9fb dc3a
00000090: ff64 993c 475e a7be f75a 08be a4fb 8bbe
000000a0: 4e81 f9bd 79a2 083e 3242 0ebe 4235 debe
000000b0: 31cc 273d 824c 013d 33c9 e23d aa7f 9fbe
000000c0: 9e29 2d3e b17c 813e ac50 833e 52dd 6d3e
000000d0: 2e81 19be 058a e2bd 3321 dd3d 07fe 05bf
000000e0: 0654 723e dd61 19be dd6e 5dbe af8a 86bb
000000f0: 505e 153f 61c5 e53e 2152 923e 5085 3cbe
00000100: db15 9f3e d5f4 aabd 799f d13e 0bd3 003f
00000110: 81d8 9a3d e043 d5be 9229 9a3e 5326 1bbe
00000120: a38d 09be 6401 9dbe e118 9a3e 6949 dabd
00000130: 7949 ab3e 1096 473d fd23 a43e 7d86 06bf
00000140: 9d67 b4be 6e93 dcbe abe0 22be b459 153e
00000150: f7b0 31be 4a20 c43d d7e4 853e 272a 8b3e
00000160: b283 8fbd d71d 803e e379 2c3f 7fbc 433e
00000170: 6e0a 78be 8359 95be 0e27 e7bc 23b7 843c
00000180: dcce c5be 29eb 9dbe 8cdf 803e 2fea 7f3e
00000190: 6ca9 95be 1582 a03e f8bc 923e 12c7 a53e
000001a0: bcaa 183d e724 fb3d 7c02 24be 15af b83e
000001b0: 4211 02bf 7b5c 01bf e83a a53e e274 bf3e
000001c0: fca9 7a3e 3ff7 803e 4d6b a03d 6078 16bf
000001d0: a5c9 b83e ba86 de3e f29e ed3e b67c 4c3d
000001e0: 9b54 813d 1c93 8e3d fc54 0bbe 1a43 4a3e
000001f0: e8f1 543d f816 923e 835a ef3e e885 8f3d
00000200: 5228 c7be 8787 b73e e334 03be 9846 a23e
00000210: 0791 dc3e e158 ce3e 8fbe c6bc 8a66 81be
00000220: 1b4e 5d3e d4bf e3bd 5a77 033e e321 f6be
00000230: 3667 c8bd 1501 c13d ccb1 0abe 03e4 393e
00000240: 8b04 c43e 2355 3ebe a894 083e 11f9 06be
00000250: 0bfa 55bd 46dc 9cbd c833 1ebe b84e de3e
00000260: a079 75be dc7c cd3e 3aab 883e a3e4 c23e
00000270: 4475 70bf 6262 cabd 3bca 783e d3df 9d3e
00000280: a43c d7be 246f 143e d48a ee3c 1489 c2be
00000290: 4ea7 aebd 1f6b c83e 5508 eb3e dc81 e9bc
000002a0: 9e58 31bf 907f 683d 1406 83be d143 b73d
000002b0: fbe1 8ebe 921b 923e 949c 8bbe 3b91 c8be
000002c0: e706 3fbe c0fa bdbe 15ec 05bd 0d4f c8bd
000002d0: ba3f 2a3f f54f 053f 7ba5 d03e cf0f 76be
000002e0: 069a 2b3e ef4a 8b3e b9b0 cc3d f928 5cbe
000002f0: e4f7 993e a884 d63e 700a 6dbe 2b66 883d
00000300: a0a0 b33e 736f 903d af02 39be d09a c1be
00000310: 3e36 0e3d 7f22 053e 23c8 98bd 8e20 f9bd
00000320: 624c 033e 616c 163f fd84 f3bd 6746 353e
00000330: 0609 f03e 743d 84bd fd18 b43e 18fd 04bf
00000340: d498 db3e 108c b33d a344 003e 08ae 9cbe
00000350: 0421 95be 3405 eebc 1049 05be e646 71bd
00000360: d2ec a1bc 8fa0 833d a6ed 61be fe27 413e
00000370: ea68 1dbe 9c93 d1bd baf2 8c3d 0686 e6be
00000380: f4e0 73bd a851 c43e adfd d53e 386c a4be
00000390: 47c0 c0be 6fbe ccbe 39c9 19bc 11b0 8dbe
000003a0: 533e 7a3d ea96 cf3e be3e 253d 6fe8 a6be
000003b0: fd3e ca3e ff64 22be b587 b5be 8db9 9b3c
000003c0: 6562 34bd 87d4 3dbe 2695 97be a135 9d3c
000003d0: 03bd 62be 4f4e b23e fc51 0b3f 973d e63e
000003e0: 1963 533e 14d4 003d a8ec 5b3e 705f 603e
000003f0: cf05 243e c82d 143d 2ebe 953e 12ec 1bbe
0.56258094 0.45421073 -0.33435595 -0.65025 0.12796597 -0.1911363 -0.3740304 0.12891139
0.29091433 -0.18033251 0.18392079 0.33874533 -0.96468717 -0.08591905 -0.25612202 0.3204061
0.10580544 0.20235598 -0.0806877 -0.17553699 -0.2243558 0.26036018 0.34319982 0.3528185
-0.3042163 -0.061612263 -0.02810071 -0.19149959 -0.2506593 0.3359678 0.008262244 -0.39510506
-0.13709919 -0.21457617 0.020008314 0.0016859706 0.018724917 -0.32689115 -0.1331595 -0.27340424
-0.12182866 0.13343228 -0.13892439 -0.43400007 0.040966216 0.031567104 0.11073532 -0.31152087
0.16910407 0.25290444 0.25647485 0.23228958 -0.14990684 -0.110614814 0.10797348 -0.5234074
0.23664865 -0.14978738 -0.21624322 -0.004105888 0.58347034 0.4487715 0.28578284 -0.1841023
0.31071362 -0.08347479 0.4094198 0.50322026 0.07560826 -0.41653347 0.3010984 -0.15151338
-0.13432936 -0.30665123 0.30097106 -0.10658533 0.33454493 0.048727095 0.32058707 -0.5254896
-0.352353 -0.4308123 -0.15906017 0.14585 -0.17352663 0.09576471 0.26151153 0.27180597
-0.07007541 0.25022766 0.67373484 0.19114874 -0.24222729 -0.29169855 -0.028216865 0.016200608
-0.38634384 -0.30843475 0.25170553 0.24991678 -0.2923082 0.31349245 0.28659797 0.3237844
0.0372722 0.12262898 -0.16016573 0.36071077 -0.50807583 -0.5053174 0.32271504 0.37393862
0.24478906 0.25188634 0.07832966 -0.5877743 0.36091343 0.43462163 0.46410328 0.04992362
0.06314965 0.06961653 -0.13606638 0.1975216 0.051988512 0.2853315 0.46748742 0.070079625
-0.3889795 0.35845587 -0.12813143 0.31694484 0.43079397 0.40302184 -0.024260787 -0.25273544
0.21611826 -0.11120573 0.12838498 -0.4807273 -0.09785311 0.094240345 -0.13544387 0.18153386
0.38284716 -0.18587165 0.13337958 -0.13180949 -0.052240413 -0.07659201 -0.1544944 0.43419433
-0.23972178 0.40134323 0.26693135 0.3806506 -0.93928933 -0.09882046 0.24295895 0.30834827
-0.42038453 0.14495522 0.029118933 -0.37995207 -0.085280046 0.39144227 0.45904794 -0.028504305
-0.69275844 0.056762278 -0.25590575 0.08948482 -0.27906784 0.2853666 -0.27267897 -0.39173302
-0.18654977 -0.3710537 -0.03269585 -0.09780703 0.6650349 0.5207513 0.40751252 -0.24029468
0.16757974 0.27205607 0.09994645 -0.21500005 0.30071938 0.41898084 -0.23148513 0.06660112
0.35083485 0.07052507 -0.1806743 -0.37813425 0.034719698 0.1300144 -0.07460048 -0.121644124
0.12822106 0.58759123 -0.118906 0.17702638 0.46881884 -0.06457034 0.35175315 -0.5194869
0.42890036 0.08766949 0.12526183 -0.30601525 -0.2912675 -0.029055215 -0.13016152 -0.058905505
-0.019766245 0.064271085 -0.22063312 0.18862912 -0.15372053 -0.102332324 0.06882234 -0.45024127
-0.059540704 0.3834355 0.41795102 -0.32113814 -0.37646696 -0.3998904 -0.009386354 -0.2767339
0.061094593 0.40544826 0.04034304 -0.32599208 0.3950118 -0.1585884 -0.354551 0.019009376
-0.04403915 -0.18538104 -0.2960598 0.019190611 -0.22142415 0.3482537 0.54421973 0.44968864
0.20643272 0.031452253 0.21476996 0.21911407 0.16017841 0.036176473 0.29246658 -0.15226772

g.0.bias f4 [100]
00000000: 4e50 eb3d 7638 103e c423 1dbd ed66 343e
00000010: 7395 743d 5885 2ebe 9cb1 c4be 52f2 9f3e
00000020: f0a6 cabe bb6b c93e 49ea 90be cce4 0fbe
00000030: a439 bbbe 3366 c03e 08f5 cdbe 52ac cf3d
00000040: a6d4 93be f551 be3c e0da 0c3e 2f7b 36be
00000050: 460b 7dbe bba2 7ebe 2bad bfbd 26ed b03e
00000060: 11ac c5be 600c a73e c6cd 6d3e 5d39 53bc
00000070: a6d5 883e 9844 22be d04b 383e b644 b43e
00000080: 9931 86be 7d92 7b3e 980a c43c 0d73 71be
00000090: a97d 7cbe 9b32 873e 3674 c6be 4ba5 51bd
000000a0: 77cf 893d e4c9 92be d0e3 6f3e 78c5 363e
000000b0: 1f06 053e d09e d13d 959b c83e f7f9 93be
000000c0: 8a49 a2bd e050 a5ba 3979 2bbd a3b7 31be
000000d0: 23df 1dbe 63f7 52be d99d 153e 97f4 c5be
000000e0: b457 99be a682 aa3e de42 8e3d 746d 4abe
000000f0: 2922 aa3e 8c1f 5d3e 1948 853e 7076 a03d
00000100: 242c 6e3e e9ba a6be b474 bbbe f422 eb3d
00000110: 6d27 a7be e805 8e3e e631 983e 3caf 9ebe
00000120: 52bc bf3e 3e6d 6a3e b188 993e 8005 9abe
00000130: 6164 aa3d 6aed 583e c5d5 973d 7fbb a23d
00000140: 4690 d73e 8591 273c e29e bcbe bd64 7a3e
00000150: 97c8 d63d 7d09 46be c6f0 ccbe eb52 173e
00000160: 1aec a93e d7a9 c8bd 28cd e23e 7a16 613d
00000170: b030 c9be eb63 863e 4ba8 0e3e 64dc 1bbe
00000180: 6c91 8c3e bc05 383e c1c6 c1be 56fe babe
0.11489926 0.14084038 -0.038364187 0.17617388 0.05971284 -0.17043054 -0.38416755 0.31239563
-0.39580488 0.39340004 -0.28303745 -0.14052123 -0.36567414 0.37577972 -0.40226007 0.10140289
-0.28873175 0.02323244 0.13755369 -0.17820428 -0.24711332 -0.24866764 -0.09359201 0.3455593
-0.3860784 0.3262663 0.23223028 -0.012892094 0.267255 -0.15846479 0.1799767 0.35208672
-0.26209715 0.245676 0.023930833 -0.23579045 -0.2465731 0.26405796 -0.38760537 -0.051183026
0.06729024 -0.28669655 0.23426747 0.17848766 0.12990616 0.10235369 0.391812 -0.28901646
-0.07924183 -0.0012612604 -0.041863654 -0.17355208 -0.15417151 -0.20602183 0.14610995 -0.3866317
-0.29949725 0.33302802 0.06946348 -0.19768316 0.33229187 0.21594065 0.2603157 0.0783509
0.23259026 -0.32564476 -0.36612475 0.11481276 -0.32647267 0.2773888 0.2972557 -0.30993068
0.37448364 0.22893235 0.299871 -0.3008232 0.08319927 0.21184316 0.0741382 0.07945918
0.4210226 0.010227566 -0.36839968 0.24452491 0.10487478 -0.19339557 -0.40027446 0.14777724
0.33187944 -0.097980194 0.44297147 0.054953076 -0.39294958 0.26248106 0.13931386 -0.15220791
0.27454698 0.17970937 -0.3784695 -0.36522168

g.2.weight f4 [100, 100]
00000000: a1ab c03d 6993 c0bc 6e7b d2be b49d 94bd
00000010: b06a 92bd 1a93 b93c 1aab d7bb c914 f03d
00000020: 93e8 debc 7adb 90bf 0b52 77bb 22b8 f63c
00000030: 6032 583d 8c56 4bbf b026 61bd 625a e93d
00000040: 0da9 1d3c ee93 84bc 9be0 bebf f539 16bc
00000050: ad34 eb3c 363f 2c3f a216 f93d 4747 b13e
00000060: 8061 c1bd c70f 373d 169f cdbe 7181 343e
00000070: b342 e9be 5adc ca3d d1d1 0e3d 9107 343d
00000080: f827 703c ed70 16bd de53 b53d 1ac3 3c3d
00000090: a7cb f83c 1bad 533d 0068 a93a 8031 983b
000000a0: 006f 8ebd bd52 953c 0c1a b33d f040 c0bf
000000b0: 559f 46bf 02fa 853d 1bd7 c93d dab7 a0bd
000000c0: 3feb 36bf 4390 053e 6d18 1fbb a08e 61bd
000000d0: 9461 983c 8a54 98bd c50b e0be a242 783d
000000e0: c088 4d3d 8104 50bb 28bc c53d 2141 60bf
000000f0: 5222 6fbf 2d70 bc3d 7d2b 7a3d a90a ef3d
00000100: 9642 5b3e fd3f 7bbf 5db1 963d 4272 22be
00000110: 67d8 bcbd 47fb 2e3e 07cc 87bf 60e3 6ebd
00000120: 64eb 1d3e 9ca8 f9be aee9 a5bc 807d 093d
00000130: 97f8 3dbf 90fc 74be 4635 d1bd aaed 1abd
00000140: e90c a33d 3c1e 2cbd ed1f 993d 2bc6 093c
00000150: 7171 89bd 273a b4bd fdaa 81bd 5d53 0d3b
00000160: 056b 5bbc 2660 6bbe fa42 1b3d 9adf 6bbe
00000170: e3ba 0cbd 76bb e6bb b363 883d 17a9 98bd
00000180: 4a8a 64bf 229c 8fbf 3ddb 8ebd 5d78 86bd
00000190: dc9e 9f3d 6c60 6dbd fb9e 8bbe 3c2b 193c
000001a0: c323 c03d 7ac3 583d d03c 14bd 8b57 f43d
000001b0: 9aa1 8cbd ba29 8fbf beb5 993d c795 debd
000001c0: a50a c53d 433f e4be 405a d73c a5ca 10bd
000001d0: 2d4b bcbc 895d 0fbe 2c40 b9bf f5e7 6b3d
000001e0: 7803 98bd 8de0 023f 57e2 653d 4f28 1a3e
000001f0: b7e3 0cbd 1988 5f3c b4a9 89be 6f99 a33d
00000200: 2001 b4be 6782 523d 51b7 8e3d af81 9fbd
00000210: 6aa7 923d f4f8 653d 9db6 383e 1719 34bd
00000220: a30e 60bd b02f 743b a07e a9bd 8804 b9bd
00000230: 7811 8a3d 59fc 5f3d 4a30 703d d53e 9bbf
00000240: d9bf 71bf c101 8abc 5339 c9bc cbc3 a03d
00000250: 5804 4abf 81d8 b23d 3231 95bd 58fe c73d
00000260: baf3 24bd 9397 b1bc f163 93be ac1c 053d
00000270: e06b b8bc 7bf9 413e c6ac 143e 1e1b 68bf
00000280: ec50 42bf 8af3 143e 35e4 463e 9ca7 163d
00000290: ee63 2f3e fbb3 81bf 6710 7c3c 75a6 94bd
000002a0: 9a2d 4eba acdc 983e b55e 49bf 128d a7bd
000002b0: e85c cb3d 117f 0fbf b02b 5d3d 27fe b03c
000002c0: 7fd7 21bf 3c65 23be 06bf a5bd 981f 2abe
000002d0: 28a1 b03d f5b0 8b3d fd71 84bd ec91 1a3d
000002e0: 1ddb 5e3d 20ef 9f3d fa7d bdbc ee7f fbbb
000002f0: f5eb 853d 9b32 79be d5ba 0d3e 0aea b7bd
00000300: e7bc c2bb 62b5 51bd 8f79 903d 3388 c33b
00000310: 7a69 3bbf c7a5 7fbf 4742 e03c 93ff 7f3d
00000320: 36d4 bbbd ef28 873d bb6e cabd 5e29 44bc
00000330: 4011 393d 1218 89bd 5b75 b23d f9ce 5f3d
00000340: 7acd 8cbc 6930 49bd 8377 54bd d07d d13b
00000350: f32a 43bc ec74 71bc e0e6 d03c 2a08 2d3c
00000360: d324 22bd 02e1 71bd dfea ccbd ddb4 37bc
00000370: 73c1 13bd b312 283d 1af2 403d a3de 82bd
00000380: 6039 743d 908c 263c 8e4b d2bd e550 f4bc
00000390: dc6d 90bd a546 8cbd 6fbf b1bc e7bf 843c
000003a0: 9aad 9cbb 71f2 04bc 5a94 c9bd 8823 c83d
000003b0: cd21 96bc 9390 983d 18ec bc3d dabc 3dbd
000003c0: ab17 a73d d7d2 32bd 26c1 eebc 0c4c 613b
000003d0: 22cb b9bd ddf1 02bd 6f61 be3a 201f 093d
000003e0: 3a40 683d 459b 91bd 3017 9f3d cdd9 773b
000003f0: 40c6 9dbd 3301 a93b 741d 193d dd63 61bd
0.094077356 -0.02350779 -0.41109794 -0.07256642 -0.07149255 0.022653151 -0.006581676 0.117227145
-0.02721051 -1.1316979 -0.003773811 0.030117098 0.052782416 -0.79428935 -0.054968536 0.11394192
0.009622824 -0.01618382 -1.4912294 -0.0091690915 0.028711641 0.6728395 0.1216252 0.34624693
-0.09442425 0.04469278 -0.40160435 0.17627503 -0.455587 0.0990531 0.034868065 0.04395253
0.014657967 -0.03672879 0.08853887 0.0460845 0.030370547 0.051678758 0.0012924671 0.0046445727
-0.06954765 0.01822793 0.087452024 -1.5019817 -0.7758687 0.06541826 0.09855481 -0.07847567
-0.7145271 0.13043313 -0.0024276034 -0.05506766 0.018601216 -0.074379995 -0.4375898 0.06061042
0.050179243 -0.0031740966 0.096550286 -0.8759938 -0.93411744 0.09201083 0.06107663 0.11671955
0.2141212 -0.98144513 0.07358048 -0.15863898 -0.09220963 0.17088042 -1.0609139 -0.05832231
0.15421826 -0.4876145 -0.020253029 0.03356695 -0.74207443 -0.2392447 -0.10215239 -0.03782431
0.07961447 -0.04202102 0.074767925 0.008409063 -0.0671109 -0.08800154 -0.063314416 0.002156458
-0.013392215 -0.22985896 0.03790567 -0.23034516 -0.034357917 -0.00704139 0.06659641 -0.07454126
-0.8927351 -1.1219523 -0.0697541 -0.06565926 0.07793972 -0.057953283 -0.2726973 0.009348687
0.09381821 0.052920796 -0.036190808 0.1193076 -0.068667606 -1.1184609 0.07505368 -0.108684115
0.09621171 -0.44579515 0.026288152 -0.035349507 -0.022985065 -0.14000525 -1.4472709 0.05759426
-0.074225366 0.5112389 0.056124058 0.15054439 -0.034396853 0.013643288 -0.26887286 0.079882495
-0.35157108 0.051393893 0.069685586 -0.07788407 0.07160838 0.056145623 0.18038411 -0.04396924
-0.05470146 0.003725987 -0.08276105 -0.090340674 0.06741613 0.054684017 0.058639802 -1.212855
-0.9443336 -0.01684654 -0.024563467 0.078498445 -0.7891288 0.08732701 -0.07284774 0.09765309
-0.0402715 -0.021678722 -0.28787187 0.032498047 -0.022512376 0.18942825 0.14519033 -0.9066638
-0.75904727 0.14546028 0.19422992 0.03678094 0.17127964 -1.0133051 0.01538477 -0.07258312
-0.00078650715 0.2985586 -0.78660136 -0.08181204 0.0992983 -0.5605326 0.05399674 0.021605564
-0.63219446 -0.15956587 -0.080930755 -0.16613615 0.08624488 0.06820861 -0.06467054 0.03773682
0.05440818 0.07809281 -0.02313136 -0.0076751625 0.06539146 -0.2433571 0.13840802 -0.08980186
-0.005942929 -0.05119837 0.070544355 0.005967164 -0.7320782 -0.9986233 0.027375354 0.062499594
-0.091713354 0.06599604 -0.098844014 -0.011972753 0.045182467 -0.06694044 0.0871379 0.054640744
-0.017187823 -0.049118433 -0.051871788 0.006393172 -0.011912095 -0.014737349 0.025500715 0.0105610285
-0.0395859 -0.059052475 -0.100057356 -0.011212555 -0.03607316 0.041033458 0.047105886 -0.06390121
0.05962503 0.010165349 -0.10268317 -0.02982373 -0.07052204 -0.06849412 -0.021697728 0.016204787
-0.004781437 -0.008114443 -0.09842749 0.09772402 -0.018326664 0.0744945 0.09224719 -0.04632268
0.08158811 -0.043658104 -0.029144835 0.0034377603 -0.09071948 -0.03196894 0.0014524887 0.03347695
0.056701876 -0.071096934 0.077680945 0.0037819028 -0.07703829 0.0051576137 0.037381604 -0.055026878

g.2.bias f4 [100]
00000000: 7306 a23d 02bb 5b3c e77f 7d3d f430 05bd
00000010: c2b0 843c 649b b43c 50bb efbc 7528 dc3d
00000020: 80bc 95bd 2ba0 9437 0350 613c a789 7bbb
00000030: cf15 b13c b306 603c db74 bbbc 0759 923d
00000040: c3fa 26bd 3d63 8abd 25ec 9abd 87df 523d
00000050: 1f01 b1bd f634 463d 7f75 5b3c 0eb7 ae3d
00000060: a712 afbd b273 c9bd 56ba 973d 43a8 cbbd
00000070: aa4a 673d dd07 f33d a3bb b9bd 0bc8 813c
00000080: 8d48 37bd 2726 5fbd 948f a9bd d354 1f3a
00000090: 0b13 1ebd a251 8f3d dcd8 e33c 175d 0ebd
000000a0: c7e9 fd3c 88ef 9ebd 72df 9abd d9aa 26bb
000000b0: f582 e0bc eff9 9fbd f4e3 c7bd 9bab 423c
000000c0: 7073 83bd caa1 84bd 09ef 5bbc 4568 cabc
000000d0: b4fd 053d 2e0b f73d f9a7 87bd b9c1 38bd
000000e0: 0d95 b7bc 94dd 3f3d 0dda 4cbc 39f1 3ebc
000000f0: 36c3 c13b 07ee dd3b 3e46 86bd 2bc5 143d
00000100: cdc9 69bd 07f2 23bc 5980 b03c cab4 26be
00000110: 5481 98bc 25de 5abd f056 e8bc 675b 6cbb
00000120: c008 acbc 6336 1b3d f7b6 363d 709d a2bd
00000130: ca3e 613d f75e 3d3d 33c4 aabb bd13 e6bc
00000140: 5852 b7bd bca3 ffbd 8aa2 8dbd 0bd4 3b3d
00000150: 3e91 6abd 613d d73c 45f4 10bd 2c2c 50bd
00000160: 743a 9cbd a72b 3e3c 6ee6 493d 5ad2 2ebd
00000170: 0d43 1cbc e8da e8bb 5eb7 153d 5888 a2bc
00000180: 234e 353d 99ed 373d 7e2a 3e3c d2f6 bdbb
0.07911386 0.013411285 0.061889555 -0.03251739 0.016197566 0.022046752 -0.029264122 0.10749904
-0.07311344 1.7717559e-05 0.013751986 -0.0038381608 0.021616844 0.013673472 -0.02288287 0.07145887
-0.04076649 -0.067572095 -0.07564572 0.051482704 -0.08642792 0.04839035 0.0133947125 0.08531009
-0.085484795 -0.0983652 0.07408588 -0.09944203 0.05646769 0.11866734 -0.09068992 0.015842458
-0.044746924 -0.054479744 -0.082793385 0.00060780084 -0.03859238 0.06997992 0.027813368 -0.034756746
0.030995263 -0.07760531 -0.0756215 -0.0025431423 -0.027406195 -0.07811343 -0.097602755 0.011881734
-0.06418502 -0.06476171 -0.01342369 -0.024707923 0.032712653 0.12062679 -0.06623835 -0.045106623
-0.02240994 0.046842173 -0.012503159 -0.011654192 0.0059131635 0.00677276 -0.065563664 0.036320847
-0.057077218 -0.010006434 0.021545576 -0.16279903 -0.018616356 -0.05343451 -0.028361768 -0.0036065222
-0.021000266 0.037893664 0.044608083 -0.07940185 0.05499152 0.046233144 -0.005211377 -0.028085584
-0.08951253 -0.12482402 -0.069157675 0.045856517 -0.05726742 0.026274385 -0.035389204 -0.050823376
-0.076283365 0.011607087 0.04929202 -0.042681076 -0.0095374705 -0.007106174 0.036551826 -0.019840404
0.04426397 0.044904325 0.011606811 -0.0057972455

g.4.weight f4 [1, 100]
00000000: 1a28 3b3f 91fc 763f 8568 b73d c0e8 25bf
00000010: 5a30 593c 553c 8dbe 16ee bd3d a6b1 7f3f
00000020: f3e9 22bd 9214 93bf 126d 6cbf 11ca 393f
00000030: 2637 57bf 05cd 98bd d606 2dbe 46e3 143d
00000040: d62e f8bf ace6 62bf 6756 b339 e9fa 3b3f
00000050: a0b9 c5bd ef02 93be a6fe d3be 1b2d ac3c
00000060: 9a99 d63b 74b3 25bf 86df 253d 3d67 c3bd
00000070: 0457 893f b9c7 633f ecc6 2bbf 8c3f 3a3f
00000080: 673b cc3c da79 8abc 1d49 d1be 0a48 823f
00000090: e967 4e3f d46b 5e3f e528 c7be a023 68bd
000000a0: 8ac0 9a3d efda aa3d 7140 753f fd7f 7e3f
000000b0: 9cf4 9ebf f64a 8ebe 2287 803d 635e 7ebe
000000c0: 3b85 5cbe 5882 803d 6685 ad3a 0baf 4c3d
000000d0: c07b abbe d100 5b3f 69ea bd3c 4ebd 393d
000000e0: 3a08 223d d2b1 cbbe f776 a0bd 80f1 403d
000000f0: 86a5 3c3c 6642 663f 0f6f a9be 5112 d3be
00000100: a97c a0bf 000c a1be 096c a23d 49c3 fdbf
00000110: e01d a4be d0b5 443f 28d6 563f b530 b83d
00000120: 2f73 b03d d469 91bf 5847 67bf 2eb0 963d
00000130: d55d 603f 6897 023c eaf0 0abd c1ec 30bd
00000140: aa53 49bd 569c 8fbf 5367 a5bd 48d6 293d
00000150: d9b2 473d d668 67bf 0ac8 8ebe 2dc8 2dbf
00000160: 8b03 0fbf ed83 5abd 7d36 fcbe cada 28bd
00000170: 90d4 b13d db5c acbe f574 81bf 24d6 cebe
00000180: c531 8abf 0a50 433f 2202 5c3d 75d1 abbe
0.73108065 0.96479136 0.089554824 -0.64808273 0.013256157 -0.27585092 0.09273927 0.99880445
-0.039773893 -1.1490653 -0.9235393 0.72573954 -0.84068525 -0.07460979 -0.16897139 0.036349557
-1.9389293 -0.8863323 0.00034205915 0.73429734 -0.09654546 -0.28713176 -0.4140522 0.021017602
0.0065490725 -0.6472695 0.04049637 -0.095411755 1.072968 0.8897663 -0.67100406 0.72753215
0.024930669 -0.016903806 -0.40876094 1.0178235 0.80627304 0.8688328 -0.38898388 -0.0566746
0.07556255 0.083425395 0.95801455 0.99414045 -1.2418399 -0.27791566 0.062757745 -0.24840693
-0.21535198 0.06274861 0.0013238608 0.04997162 -0.3349285 0.8554812 0.023183065 0.04534655
0.039558627 -0.39784104 -0.07835191 0.047105312 0.011514073 0.89945066 -0.33092543 -0.41224912
-1.2538043 -0.31454468 0.07930762 -1.9825221 -0.32054043 0.76839924 0.83920527 0.08993665
0.086157195 -1.1360421 -0.90343237 0.07357822 0.87643176 0.007970668 -0.03392116 -0.043194536
-0.049152054 -1.1219585 -0.08076348 0.04146412 0.048754547 -0.9039434 -0.27886993 -0.6788357
-0.5586478 -0.05334847 -0.4926032 -0.04122428 0.08683121 -0.33664593 -1.0113817 -0.4039775
-1.0796438 0.76294005 0.05371297 -0.3355824

h.0.weight f4 [100, 6]
00000000: 5fc6 d13e 616b debd 8c32 49be 4c41 e5be
00000010: 752b ac3e 8845 313e 02d6 233f 9ce7 ac3e
00000020: df31 32bc ad71 7fbe a57d bf3e e874 c1bd
00000030: 13df 063f d613 bbbe cdb4 a7be 5355 633e
00000040: 4e1b 8dbe 8990 88be aa1e 83ba 1099 313e
00000050: fc91 a3be 10f0 a73e d789 b83b ea4b 70be
00000060: 1444 2d3e 8145 043f b307 2fbc 41df 633e
00000070: bbf1 df3c d6c0 95bd 9873 d83d fad1 5ebc
00000080: 62be 0ebe 190e ff3e 829a bd3e 59cf 3c3e
00000090: 28fc 60be 336f 0f3e ceae 0abd deaf 543e
000000a0: 1855 6fbe a2a0 0e3e 147b a13e b5e9 8e3e
000000b0: 8cd9 28be 35ec a2be 0938 5a3e 2952 a03e
000000c0: 7381 98bd c09a c9bc bb25 c63e 86b5 b7be
000000d0: 0042 993e eddd 0c3e 264c ca3e 91f2 6d3e
000000e0: 6f30 0b3e d426 00bf 2112 8f3d 4be6 8dbe
000000f0: c722 a43e 4f0e a03e 6d40 643d 7223 1a3e
00000100: ea5c b4be 1d96 c73c 5bbb 053f c632 0dbf
00000110: 5dd6 b2be fbae 27be 0026 0d3e afe1 a23e
00000120: afae b83e d5a6 803d f346 bfbe 764a d8be
00000130: 1668 1c3d 4201 263e 0fc3 4a3f edc2 d93d
00000140: 8432 1d3d 8f1a d0be 932d 083e 69ed 49be
00000150: c842 b7be d702 ed3e e25e 86be af99 3dbe
00000160: e65c cf3e 1928 a93e 64fb 973d cc88 063e
00000170: 75f7 533e 27ef 933c db61 b1be 3fdc b83c
00000180: 04be 383f 56c8 c83e d7d5 303e b70c 9fbd
00000190: 667a 5ebe a32a a2be 5ccd 5dbe f97f d83d
000001a0: 25d8 88bd 3734 153e 3140 1ebd c628 a93e
000001b0: 57e8 2a3f f7aa 933e 92db 213a 45f0 a7be
000001c0: 1731 aa3d 0953 263e e970 a1bd e8ac d93e
000001d0: 44b2 bbbd 851f 633e 6683 cdbe ad0b 6dbe
000001e0: ca32 b23c f813 ccbe d731 21be 4e77 b9bd
000001f0: 1e93 9a3e a119 87be 2af5 933e 3c0a 5abe
00000200: c5df 77be d751 44be e1be c3be fd36 a3bc
00000210: e98d 62be 6ef1 44be 5f74 b23e d261 2bbe
00000220: 1b01 c63e 6a51 c9be 42bd 1d3f c5b5 68be
00000230: 6963 513d 0139 d33c d20a ac3e 91f4 49bc
00000240: cdcb acbe ed3d b7be a161 07bd f638 7cbd
00000250: 78f1 7fbe ac3f b1be 608b 0b3e 0112 f0be
00000260: da2b 9f3e df90 bcbd 051b ad3e 3f06 413e
00000270: c742 50be e990 023e 458b 35be 4bbd 9ebd
00000280: 46e8 823e 3698 b2bd 145b 963d c4b9 77be
00000290: 1710 b8be aa09 0b3e 8958 a5be 1459 47bc
000002a0: c614 113e 0659 8dbe e3cb 4cbe 6b59 a03e
000002b0: c56a 9bbe fcec 1c3e 9f40 1bbf 9f49 53be
000002c0: 4684 c83e 3079 e33e 2680 b0bc 6684 ac3e
000002d0: 2e5a 243f 8184 6b3e d525 15bc 4be5 19bf
000002e0: 0cc0 543e 37f3 3b3e 4da8 843e 53a7 79bd
000002f0: af3f a63c 469b 57be 9080 95be 8be7 4d3d
00000300: 2a1a 33bf eaec 983d 3cd7 ab3e 2a55 643e
00000310: 5f19 763e ea3f 0abd 49c2 03bf 6d58 bc3e
00000320: e563 963e 3572 093d f932 22be d555 9c3d
00000330: 6f90 343e faaa a63d f81e 9e3d 2b70 0bbd
00000340: 3883 783e 21cd babe db68 a0be e326 82be
00000350: a784 8abd 075c 273c 05d8 70be 1999 5a3d
00000360: dd42 04be 4e0a 333e 32e0 bf3e 99c9 76be
00000370: e032 53be 0ffa 38be 6f9a 28be 64b0 b13e
00000380: 9337 af3e 146f eabd 6872 82be 02da b7be
00000390: 1c29 983e 1208 b4be a2d3 abbe 13e7 1ebe
000003a0: f358 b6be 4ae9 523c a1ea 94be 20ec 153e
000003b0: 3406 08bd ddb4 a6be a8c2 773e d984 0dbe
000003c0: 52d1 b5be 95cf 52be 146d 523e 250d ac3e
000003d0: 4905 473d 1939 5d3e bdea 733e a9e7 cfbe
000003e0: 2c58 4cbd f136 84be 626a 01bd 19c7 cd3e
000003f0: 0aeb 0c3e f0c0 d5bd daef 5ebe e0f3 a7be
0.40971658 -0.10860325 -0.19648188 -0.4477638 0.33626905 0.1731168 0.63998425 0.33770454
-0.010876148 -0.24945708 0.37400547 -0.09446126 0.52684134 -0.3653857 -0.32755128 0.22200517
-0.27559894 -0.26672772 -0.0010003645 0.17343545 -0.31947315 0.3280034 0.005631666 -0.23466459
0.16920501 0.51668555 -0.010682988 0.22253133 0.027336946 -0.07312171 0.10568923 -0.013599867
-0.13939813 0.49815443 0.37031943 0.18438472 -0.2197119 0.14007263 -0.033858113 0.20770213
-0.23372304 0.13928464 0.31539214 0.2791268 -0.16489238 -0.31820837 0.21310438 0.31312683
-0.074465655 -0.024609923 0.3870066 -0.3588068 0.29933167 0.13756533 0.39511222 0.23237063
0.13592695 -0.50059247 0.0698588 -0.27714762 0.32057783 0.31260917 0.055725504 0.15052584
-0.35227138 0.024363572 0.52239007 -0.551556 -0.3492917 -0.16375344 0.13784027 0.31812808
0.36070773 0.06281821 -0.37358817 -0.4224431 0.0381852 0.16211417 0.79203886 0.10632882
0.038378254 -0.40645263 0.13298635 -0.19719471 -0.35793138 0.4629123 -0.26244265 -0.18515657
0.40500563 0.33038405 0.07420996 0.13138121 0.20699866 0.018058373 -0.3464497 0.022565959
0.7216494 0.39215344 0.17269073 -0.07766097 -0.21726379 -0.31673154 -0.2166037 0.10571284
-0.06681851 0.145707 -0.038635436 0.3303892 0.6676077 0.28841373 0.0006174381 -0.328005
0.083101444 0.16242613 -0.07882864 0.4251473 -0.09164861 0.22179992 -0.40139312 -0.23148985
0.021752734 -0.39858985 -0.15741669 -0.09055959 0.30190367 -0.2638674 0.28897983 -0.21292967
-0.24206455 -0.19171844 -0.38231567 -0.019923681 -0.22124447 -0.19232723 0.3485441 -0.16736534
0.38672718 -0.39319927 0.6161691 -0.2272559 0.051120196 0.025784018 0.33602005 -0.012326376
-0.33749238 -0.35789433 -0.03305209 -0.06157776 -0.24994457 -0.3461889 0.13627386 -0.46888736
0.31088144 -0.092073195 0.33809677 0.18850039 -0.20337974 0.12750591 -0.17728908 -0.077509485
0.25567836 -0.08720438 0.073415905 -0.24191958 -0.35949776 0.13577905 -0.3229411 -0.012167234
0.1416808 -0.27606982 -0.19999652 0.3131822 -0.30354896 0.15324777 -0.6064548 -0.20633553
0.39163417 0.44428396 -0.021545481 0.33694762 0.64200103 0.22999765 -0.009103258 -0.601155
0.20776385 0.18354498 0.25909653 -0.06095059 0.020294039 -0.21055326 -0.29199648 0.050269645
-0.699618 0.07467063 0.33562648 0.22298113 0.24033116 -0.03375236 -0.5146833 0.36786214
0.29373088 0.033556182 -0.15839757 0.07633559 0.17633222 0.0813808 0.077207506 -0.03404252
0.24268806 -0.36484626 -0.31329998 -0.25420293 -0.06763583 0.010214812 -0.23519905 0.05336866
-0.12916131 0.174844 0.37475735 -0.24100341 -0.20624876 -0.1806414 -0.16465162 0.34704888
0.34222087 -0.11446968 -0.2547791 -0.35908514 0.29718864 -0.35162407 -0.335599 -0.15517835
-0.35614738 0.012873003 -0.29085258 0.14640856 -0.03320904 -0.32559863 0.24195349 -0.13820209
-0.3551126 -0.20586999 0.20549423 0.33603778 0.048589025 0.21603812 0.23820014 -0.4060643
-0.049888775 -0.25823167 -0.031595595 0.40190962 0.13761535 -0.104371905 -0.21771184 -0.3280325

h.0.bias f4 [100]
00000000: b955 5a3e eebc 4e3e 758a 213e b1bd 5f3d
00000010: cf88 52be c92b f5bd 0533 a23e 5331 80be
00000020: 5b8d aebe 36ed 0a3e 33f9 8abe 9d30 8c3c
00000030: 90b9 34bd c21c 553e 7cfd 7abe c88b 34be
00000040: d886 653d 26a6 bb3d aafd 113c db29 e4bd
00000050: 58ad 9cbe 0acf 2b3b f17c 90be ba79 103d
00000060: 1c49 f4bd 0f0f 863e 70c0 60be 4327 86be
00000070: c2d7 acbe 619d 933e d410 da3d 9661 04be
00000080: 0a2e f13d 42b3 973e 8a2b 5a3e 0fbc eabd
00000090: 0cbd 4cbe 3963 59be c6ed a2be ec68 63be
000000a0: 9d13 89be 8aa0 933e c7f4 e2bd 991f 2bbe
000000b0: 8324 923d fc59 ad3e 19e0 a2be 11a6 b63b
000000c0: 1ba9 5c3e 5880 20be 6a82 a4be 3d74 d13e
000000d0: 4931 8a3e af9f 96be 85d0 923e 3c89 adbe
000000e0: 9033 65be 739c df3d 73e4 ec3d fed1 a43d
000000f0: 7bb7 d63d 91bf 9abe 0b3d 67be 247c d53e
00000100: 5f7d bf3e 156d 333e 091f 463d 4aa8 3abe
00000110: d1ba ca3e e7b6 6d3e 78f9 833e 2124 77be
00000120: f924 993e 3332 69bd d0a7 a83e 965f 0abe
00000130: d7d6 a33e 4f02 e5bc 2040 b83e e5a7 ec3d
00000140: 7e96 093e 005b 9cbe dce9 a23e 0f68 1bbe
00000150: 4b2e b2be 8fc6 0b3d 6d13 8c3e 37d2 c7be
00000160: f843 a3be c2ac 8abe 2ad3 243e 0ca7 903d
00000170: 0e88 883e badb f2bc cff0 843e 7a16 9b3d
00000180: 5d5d 753e df80 aa3e ed30 663c 8ad3 b23c
0.21321763 0.20189258 0.15775473 0.054624263 -0.20560001 -0.11971242 0.3167955 -0.2503763
-0.3409222 0.13567051 -0.2714325 0.017113024 -0.04412228 0.20811751 -0.24510759 -0.17631447
0.0560368 0.0916255 0.008910576 -0.11140796 -0.30601 0.0026215934 -0.28220323 0.035272337
-0.11928007 0.26183364 -0.21948409 -0.2620183 -0.3375836 0.28831008 0.10647741 -0.12927851
0.117763594 0.2962895 0.21305671 -0.114616506 -0.1999399 -0.21229257 -0.31822032 -0.22207993
-0.26772776 0.2883342 -0.11081844 -0.16711272 0.0713587 0.33857715 -0.31811598 0.005573996
0.21548884 -0.1567396 -0.32130748 0.40908995 0.26990727 -0.29418704 0.28674713 -0.33893764
-0.22382951 0.10918512 0.11567011 0.08047865 0.10484215 -0.3022428 -0.2258188 0.41696274
0.37400338 0.1752208 0.04836944 -0.1822826 0.39595655 0.23214303 0.25776267 -0.24134876
0.2991102 -0.05693264 0.3294053 -0.13513026 0.31999847 -0.027955202 0.35986423 0.11555461
0.13436314 -0.30538177 0.31819046 -0.15176414 -0.34800944 0.034124907 0.2735857 -0.3902757
-0.31887794 -0.2708493 0.16096178 0.07063112 0.266663 -0.02964579 0.25964972 0.075726464
0.23961397 0.33301446 0.014049751 0.021829385

h.2.weight f4 [100, 100]
00000000: e2fb 9e3d 6990 0c3e 1ed6 2b3e a99b 063c
00000010: ba25 413e ab9c eabd 6e8b a9bd 0e02 58be
00000020: 00d1 c1bd 9298 583d 3346 8abc d571 ce3e
00000030: f1d6 3cbe 51f7 533d b9b1 903e 33a0 a5bc
00000040: 0f1a 193d 0f81 2d3d 34f6 8c3d 095c c93e
00000050: 679a f83c f548 a13d 001d ebbb e2b3 f1ba
00000060: 47e1 9abd b5d6 363d bf16 843d ba96 2ebd
00000070: b3c4 55bd 8640 ddbd 91f4 913d e02a 413d
00000080: 08f6 d8be 1486 733d 2d79 63bd 2d1e 8abd
00000090: f314 80bd 1de7 0abd 5af9 5f3c 3a57 b0bc
000000a0: d08a 013d d617 c03e daa9 093d 8815 84be
000000b0: bbda 8b3e fbbd 42bd 0a2d 3d3d 8734 cf3d
000000c0: 15db aebd 4dbb c8bb af1a 68bd 11e1 803d
000000d0: 9bea 42bd 335f a2bc 8cd4 e2bd 9aaf 1d3b
000000e0: 775e 73bd 335c b0bd e0cf 9abe 4d1a 1abd
000000f0: 4594 73bd 0293 31bd 0bc8 853d 3b04 3c3e
00000100: 4c0f 7b3d 303b 5f3d 8a48 0e3d 60e9 453d
00000110: ae39 82bd e16e 53be 36d5 3939 005b f23c
00000120: 98f6 093c b735 40bd f177 6c3d 4896 c2bd
00000130: c64c 3dbd 50bc 3f3f 0955 953c 9394 6cbd
00000140: 024b eb3d ba40 d3bc 2a13 3bbe bdd3 21be
00000150: 58d6 9c3d fa09 a3be 9df7 4bb9 0747 d53c
00000160: 4077 1ebd efe4 91bd eadb 19be 1bd6 82bd
00000170: a171 46bd 82f0 8e3d b633 c5bd 24ea 563d
00000180: 6798 383d 6251 dabb eacc eb3d 401f 843e
00000190: a3b8 67bd 374c 4ebd 1aee e03b cd71 b9bb
000001a0: 43bc 0e3d e07d b13d 6741 71bc 3748 03bd
000001b0: f3ae dabc 8ddf 8cbd 2dd2 f83c d028 3b3d
000001c0: 23c2 bebd a0b0 8fbc 2dd0 673d 7348 f03c
000001d0: 5772 3ebd 074e 3e3d f2d2 a73d 071e acbd
000001e0: 07d2 c43c 77ec 1ebd 4049 bfbd c06c 323c
000001f0: 87ae 3cbd 0d83 573d f723 6a3d 2748 4f3d
00000200: 6772 49ba 55d6 b8bd 6764 a2bd d3bb 293d
00000210: 2332 a0bd 9a42 68bd fa3a 0bbd 33bb cabc
00000220: ad4e 873d 80b3 16bc 0796 203d 454c c33d
00000230: 1a71 203c 3377 143b 20eb 5d3d d371 6f3d
00000240: 2dd3 c23d f32d 9abd 7027 2a3d 00d0 7139
00000250: 0322 133d f254 cbbd 8323 283d 7a90 213d
00000260: 9a79 e2bc d05c c8bd d521 b93d 8771 ab3c
00000270: c714 0e3d 88cf 87bd fd97 b5bd 5aa5 733d
00000280: 333e 44bd 52db b6bd b258 b4bd 2021 433d
00000290: 7787 493d 9d5e 933d bd84 313d 4ab2 36bd
000002a0: 1a5d cf3b ad1b 0dbd cbcd 90bd 7d9e 2cbd
000002b0: 60d5 87bc 805c 51bc c771 9fbc 05f9 adbd
000002c0: 6d84 1abd f7e2 54bd 807c f8bc 3a36 8abd
000002d0: da4e 32bd 0d96 863d 3887 c7bd ba46 7ebd
000002e0: 0044 2aba 2338 76bd b349 bebc 5a5e a6bd
000002f0: da24 25bd 530a 9d3c 002a 75bb 0897 bfbd
00000300: 00ae 88ba 9076 793d bf93 c8bd 1dae 1cbd
00000310: fae4 b3bd 600a 8d3c 5a7e 653d 93b4 fabc
00000320: c290 4a3e 72b8 413d 0110 853d eb07 f73d
00000330: dcd6 e33d e318 813d b132 ebbd 6c67 95bd
00000340: 1790 303d 20b4 0e3e 9a71 493d 7603 8c3e
00000350: 9d2b bebe 16c0 283e 41c4 763e 6864 a03d
00000360: 90f4 a43d 22a3 0bbe d954 803e ba26 033f
00000370: f5af b9bd 3274 90bd 8d49 15bd 4a30 953d
00000380: 3aa1 edbc 08ae c03c fb24 bf3d 03b6 423d
00000390: a75f 07bc b16a 21be e8a7 753e 938e 28bd
000003a0: 1cd7 09bf 621c ac3c b4db 8ebd 7dab 5a3d
000003b0: 60f4 ce3c 8a44 123d 6076 8fbc 90cf 7dbd
000003c0: 6040 b4bd cdd2 9f3e 9a50 5bbc 2aa0 7dbe
000003d0: 1d6c 233e 290d 87bd 8015 5dbc fe62 fe3d
000003e0: 44ca d23d 4b22 bd3d 5420 2abe ccb2 923d
000003f0: d1c9 97be aa57 a8bd fb81 41bc 6340 75bd
0.077628866 0.13726963 0.16780898 0.008215823 0.18862048 -0.11455663 -0.08278547 -0.21094534
-0.09463692 0.052879877 -0.016879177 0.40321222 -0.18441369 0.05174953 0.28260592 -0.02021799
0.037378367 0.042359408 0.06882897 0.3932803 0.030347062 0.078752436 -0.007175088 -0.001844045
-0.075624995 0.044638354 0.06449651 -0.042624213 -0.05218954 -0.108033225 0.071267255 0.04716003
-0.42375207 0.05945404 -0.055535484 -0.06744037 -0.06253996 -0.033911813 0.01367029 -0.021525968
0.031626523 0.37518185 0.03360925 -0.25797677 0.27315316 -0.04754446 0.04618553 0.10117441
-0.0853788 -0.0061258436 -0.056666072 0.06292928 -0.04758702 -0.019820785 -0.11075696 0.0024060966
-0.05941626 -0.086113356 -0.3023672 -0.03762274 -0.059467573 -0.04335309 0.06532296 0.18360989
0.061293885 0.054499805 0.034737147 0.048318267 -0.06358658 -0.20647766 0.00017722402 0.029584408
0.008420609 -0.046926226 0.057731573 -0.0950132 -0.046215795 0.7489672 0.018229024 -0.05775888
0.11488916 -0.0257877 -0.1826903 -0.15803428 0.0765807 -0.3184355 -0.00019451832 0.026034845
-0.038687944 -0.07123744 -0.15025297 -0.063884936 -0.04844821 0.06979467 -0.09629004 0.052469388
0.045067217 -0.0066625336 0.11513694 0.25805092 -0.056572568 -0.050365653 0.0068643214 -0.005659318
0.03484751 0.08666587 -0.014725066 -0.03205129 -0.02669475 -0.068785764 0.030373657 0.04569322
-0.093143724 -0.017540276 0.056595016 0.029331421 -0.04649576 0.04646113 0.081945315 -0.08404165
0.02402593 -0.03879973 -0.09340143 0.010890186 -0.04606488 0.052615214 0.057163205 0.05060592
-0.0007684589 -0.090252556 -0.079293065 0.04143889 -0.07822063 -0.05670414 -0.03399179 -0.024747467
0.06606803 -0.00919807 0.039205577 0.09536032 0.0097925905 0.0022654056 0.05417931 0.05845816
0.09512935 -0.07528295 0.041541517 0.00023061037 0.035921108 -0.099283114 0.04104949 0.039444424
-0.027645875 -0.097833276 0.09039656 0.020928157 0.034687784 -0.0663138 -0.0886688 0.059483863
-0.04791088 -0.08928551 -0.0880598 0.047639012 0.049201455 0.071957804 0.04333948 -0.044603623
0.0063282372 -0.03445022 -0.07070502 -0.042143334 -0.016581237 -0.012778401 -0.019463433 -0.08494762
-0.037723947 -0.051974263 -0.030332804 -0.06748624 -0.04353223 0.06571589 -0.09742588 -0.06207917
-0.0006495118 -0.06011213 -0.023228502 -0.08123465 -0.040318348 0.019169962 -0.0037409067 -0.09354979
-0.0010427833 0.060904086 -0.09793805 -0.038251985 -0.08783908 0.017216861 0.0560287 -0.030603683
0.19781783 0.04729504 0.06497193 0.12062057 0.111249655 0.06303575 -0.11484278 -0.07295117
0.043106165 0.139359 0.049180605 0.2734639 -0.3714265 0.16479525 0.24098302 0.07831651
0.08054459 -0.13636449 0.25064734 0.5123097 -0.09066764 -0.070534125 -0.036447097 0.07284601
-0.029007543 0.023520485 0.09333225 0.04753686 -0.008262551 -0.15763356 0.23989832 -0.041151594
-0.53843856 0.021009628 -0.06975499 0.0533862 0.025263011 0.035709895 -0.0175125 -0.061965525
-0.08801341 0.31215516 -0.013385916 -0.24768129 0.1595921 -0.06594307 -0.0134938955 0.12421225
0.10292485 0.092350565 -0.16613895 0.07163009 -0.2964616 -0.082198456 -0.011810775 -0.059875857

h.2.bias f4 [100]
00000000: abf3 223d b7e6 123d 68af 50bd 94a2 dbbc
00000010: 03d7 c8bd 1d73 4cbd 990f 8e3c 550c 9ebd
00000020: 59a6 a1bd c1aa 7ebd 0ea6 91bd 9d9b 25bd
00000030: d36c 283d 6f58 bfbc b142 923d 5d6c c7bd
00000040: 9ac1 f33c 95a4 81bd 1d4f 6fbd 475d dfbc
00000050: ae85 23be 23a0 833d 1dda c5bd f31b a5bd
00000060: 7a6b c8bd d46d 8dbd 5388 61bd 4231 a23c
00000070: e1c7 8abd fc9f cc3d 988f 4d3d 54e7 983d
00000080: 7b6e e63a 6280 4a3c 07bd 99bd 3303 56b9
00000090: bd15 abbd 70b3 453d 6c3c 07be 3a41 453e
000000a0: 1b2b 31be e03c d8bc e45f f33c 94ee bbbd
000000b0: 185b a83d 18d7 bcbd 3b14 75bb 1079 713d
000000c0: 730d 843d 95dd 97bd 3aaa 59bd c308 67bd
000000d0: dd92 a9bd e08e f0bc 9e24 40bd 1d07 b1bd
000000e0: f930 22bc 6a64 53bb 6983 ab3c 0c94 c93d
000000f0: 41c0 9f3d 43fb 97bd 2e5b 553c dccd 293e
00000100: 1da1 adbd d78f 1abd 1a29 953d e9f3 36bd
00000110: 9987 da3c 5afb 173d a3dc d0bc 70d1 6cbd
00000120: c050 013d 065d d1bc ef65 04bd 1e46 13be
00000130: d400 7c3c 97cd 9fbd 2f6c aabd 0ff0 7f3d
00000140: 7aaf a8bd cd78 a63d 1078 55bd 7c8c 08bd
00000150: 3587 6abd c328 cebd 5ab9 51bd 5b9c ecbc
00000160: e856 a8bc b29d a9bd 5656 94bd 4f17 a3bd
00000170: 1838 adbd 76ac 8cbc 3322 9f3d 1703 a5bd
00000180: 05fd 91bd 8f93 de3c 6c02 5cbd 4a97 e43b
0.03978316 0.035864558 -0.05094853 -0.026810922 -0.09806635 -0.049914468 0.017341422 -0.07717196
-0.078930564 -0.062174562 -0.071117505 -0.040431608 0.041119408 -0.023357598 0.071416266 -0.097374655
0.029755402 -0.0633022 -0.058425058 -0.027266158 -0.15968964 0.06427028 -0.096607424 -0.080619715
-0.097861245 -0.06905714 -0.05506165 0.019798879 -0.06776405 0.09991452 0.05018577 0.07465997
0.0017580533 0.01235971 -0.07506757 -0.00020409822 -0.083537556 0.048266828 -0.13206643 0.19263163
-0.173016 -0.026396215 0.02970881 -0.091763645 0.082205 -0.092207134 -0.0037396092 0.058953345
0.06447878 -0.0741531 -0.053140856 -0.05640484 -0.08279965 -0.029365003 -0.04690992 -0.08643935
-0.009899371 -0.0032255896 0.020936685 0.09842691 0.078003414 -0.07420971 0.013022227 0.16582435
-0.084779955 -0.037734833 0.0728323 -0.044666205 0.026675986 0.037104942 -0.025495833 -0.057816923
0.03157115 -0.025557052 -0.032323774 -0.14382216 0.015381057 -0.07802885 -0.08321416 0.062484797
-0.082365945 0.0812851 -0.052116454 -0.0333371 -0.05725785 -0.100663684 -0.051202156 -0.02888315
-0.020549253 -0.08282031 -0.0724303 -0.0796343 -0.08457965 -0.01717208 0.07770195 -0.0805723
-0.07128338 0.02716997 -0.053713247 0.006976043

h.4.weight f4 [1, 100]
00000000: c672 cc3e 2763 0e3d 6114 e33e e5ff 42be
00000010: b0f7 4abd fadf a43d 1be6 a3bf 2a14 263d
00000020: 99da e33c 6204 913e c6d8 10bf 5084 b0bd
00000030: 2821 8fbd 6276 1abd d947 babd 68d0 073f
00000040: 0101 68bf 8054 06bc 66a9 c73e f8d9 6bbf
00000050: 0eca ea3e 1b21 923d dddb 1bbd c256 ef3e
00000060: 73ac 5e3d ce40 a43e 5243 b6bd 43e7 9d3e
00000070: 3a07 5ebd b236 84bf 3f70 be3e dee2 11bd
00000080: 632c e23e 4e54 b23e c89e d43e fa28 8cbc
00000090: b744 063f c042 babc ef92 ef3e 1339 12bf
000000a0: 613f 003f b7ea 6c3d 175d 5a3e 0da7 c53e
000000b0: 7ae3 903d ed40 b8bc b048 c33d 882a 14bf
000000c0: 14af 2cbf 008e debb 5a6e a93e df34 c13d
000000d0: e7e9 c4bd 0ac7 823d b110 a33e 6dd0 d8bc
000000e0: 89b1 8ebf 470b 9f3e ea76 fbbe cf56 62bf
000000f0: c9d8 b7bd 3c08 a93e 1bd5 aebd f291 01bf
00000100: 5141 073f 8fa1 d1bc 7ab9 67bf de93 81bf
00000110: b147 a03e b382 c9bd f375 81bc 96d0 22bd
00000120: 678f 97bb abd8 e23e fd8c bb3d de24 df3e
00000130: 9e70 89bf fbb1 993d e056 d93e e4da 6ebd
00000140: bda9 54bd 3d2d 38bf aa67 9fbd ec46 f83e
00000150: f778 d43e 19fa 2b3d 30d3 99be 1b5f 6ebf
00000160: a258 74bf 10b0 0e3d 4207 c43e 87de e53e
00000170: 9f65 a03d 30f7 8c3e 6af3 66bf 37f3 ae3d
00000180: a705 123d 9c2a 663e 60a8 0abc 6c3f 343e
0.39931315 0.034762528 0.44351485 -0.19042929 -0.04955262 0.08050533 -1.2804598 0.040546574
0.027814196 0.28323656 -0.5658077 -0.086189866 -0.06988746 -0.037710555 -0.09095735 0.5305238
-0.9062653 -0.008198857 0.38996428 -0.9212947 0.4585728 0.071352206 -0.038051475 0.46745878
0.05436368 0.32080692 -0.08899559 0.308405 -0.05420611 -1.0329192 0.37195012 -0.035616748
0.4417449 0.34829944 0.4152739 -0.017109383 0.524486 -0.022736907 0.4679179 -0.5711834
0.5009671 0.05784103 0.21324573 0.38604012 0.07074638 -0.022491897 0.095353484 -0.578774
-0.6745465 -0.00679183 0.33092004 0.094339125 -0.09614926 0.0638562 0.31848672 -0.026466573
-1.114793 0.3106329 -0.49114162 -0.8841371 -0.08976895 0.33014095 -0.085367404 -0.5061332
0.5283404 -0.025589732 -0.9051739 -1.012325 0.31304696 -0.09839382 -0.015803313 -0.039749704
-0.004625249 0.4430593 0.09157751 0.43582815 -1.0737493 0.0750465 0.42449093 -0.05831422
-0.051919688 -0.7194403 -0.07783444 0.4849161 0.4149854 0.04198656 -0.30043936 -0.9311387
-0.9544774 0.034835875 0.38286787 0.44896337 0.07831883 0.2753234 -0.9021517 0.08542483
0.03564992 0.22477192 -0.008462995 0.17602319
